models_3val/AND.pth (torch, 11762 bytes, 12 tensors)

fc1.weight f4 [20, 12]
000000 77 23 09 bf db d8 49 3e 19 ff ca bc 81 73 01 3a
       -0.5356974 0.1971163 -0.024779843 0.0004938171
000010 7f 5c 4f bc 7d 90 34 bb 5a 58 02 3d 84 50 14 bb
       -0.01265633 -0.0027551942 0.03182254 -0.0022631
000020 29 ed ab 3c 89 50 38 bc f5 95 01 3d 02 af b1 3c
       0.02098711 -0.01124967 0.03163715 0.021689896
000030 35 77 ee 3d f7 45 99 3e 09 43 7a 3d 8d bc 4f 3e
       0.11643831 0.2993619 0.061099086 0.2028677
000040 3f 07 b2 3e 1d 5f b8 3e 4a 1d a3 3e 9d 96 0b be
       0.34771153 0.36010066 0.31858283 -0.13631673
000050 24 aa 3a 3e 0a 1d a9 bb 94 66 19 3e 5b 10 28 be
       0.18228966 -0.0051609324 0.14980537 -0.16412489
000060 b5 1c 80 3e db db 16 3e 4b 04 3a 3d 8d 2d 35 bc
       0.25021902 0.14732306 0.04541425 -0.011058223
000070 84 f1 98 3d 36 09 69 3e 07 39 82 3b 79 f9 c0 3c
       0.074679404 0.2275742 0.0039740833 0.023556458
000080 5a 9c 61 3e 6a e5 8a bc 73 0f 94 3d 3c 4c 8b 3e
       0.220323 -0.016955096 0.07229509 0.272066
000090 0a 78 d7 3e 6e 8c 98 3e 41 80 ad bd 3e e6 17 be
       0.4208377 0.2979464 -0.08471728 -0.14833924
0000a0 ed 94 3f 3e 80 80 50 3d 76 03 a1 bb 86 df c8 bc
       0.18709154 0.050903797 -0.0049137427 -0.024520647
0000b0 0e 67 52 3e 30 d5 d4 3d 3d f4 14 3e 3a 5e a5 bb
       0.20547125 0.10392225 0.14546295 -0.005046633
0000c0 12 13 05 bf b3 9c 9c 3e af fe c4 3c b7 0b 48 3b
       -0.51982224 0.30588302 0.024047224 0.003052456
0000d0 28 fd ec bb 9d a7 e3 bb 70 1e d8 3c 12 a0 b1 bc
       -0.007232327 -0.0069474713 0.026381701 -0.021682773
0000e0 1a 26 82 bb de eb 95 3c c4 54 d5 3a 4c b9 4d bc
       -0.003971827 0.018300947 0.0016275872 -0.012556385
0000f0 37 82 77 3e 4a 41 08 bf 53 45 72 bd 76 6b 0a 3e
       0.24170767 -0.53224623 -0.059148144 0.13517556
000100 68 e8 27 bd 94 e7 54 3c 69 35 e8 3d 55 4b 89 bd
       -0.040993124 0.012994666 0.11338312 -0.067038216
000110 a7 b9 54 bd d3 9f 5c bd be 24 dc 3d 8b a2 ad bd
       -0.051934864 -0.053863358 0.107491955 -0.08478268
000120 04 15 8c 3e 5e df ce 3e 30 60 3c 3e bd be 7d 3e
       0.27359784 0.4040479 0.18396068 0.24779792
000130 c6 d8 d3 3c c4 da f2 3d c5 b1 e9 bd 24 00 d9 3d
       0.025860202 0.118581325 -0.1141086 0.1059573
000140 d8 d3 fc 3d 15 c3 4f 3e 13 53 47 3e 00 67 3d 3e
       0.123450935 0.20289262 0.19465284 0.18496323
000150 00 af 27 3e d1 81 bd 3e d3 4a a7 bd 40 8e 1a be
       0.16375351 0.37013105 -0.081685685 -0.15093327
000160 d9 20 13 be e7 a6 54 3d fa 3b 0f be 90 49 4a 3d
       -0.14367999 0.051916983 -0.13987723 0.04938656
000170 20 78 50 be d3 cd f7 3d 5d 60 19 be df 37 c3 bd
       -0.20358324 0.12099805 -0.14978166 -0.09532141
000180 1d 64 c6 3d 8d 9d 27 bf 2c 48 a3 3d 47 ee 8b bd
       0.09687064 -0.6547478 0.0797275 -0.06832557
000190 6b ff 42 bc 52 0f 99 bc ff 18 9a 3d 3c 84 5e 3b
       -0.011901717 -0.018684063 0.07524299 0.003395333
0001a0 19 93 a5 3d c8 6e 55 3d 63 e1 1d 3d 3f 38 d5 3d
       0.08084697 0.052107602 0.038545024 0.10411119
0001b0 b7 3d 8c 3e dc 3b 6d 3e 94 56 ba bd 40 00 82 3e
       0.27390835 0.23167366 -0.09098545 0.25390816
0001c0 9e e3 8d 3d 72 c5 8a 3d 77 a8 8c 3d 14 fe 78 3d
       0.0692818 0.06775941 0.068680696 0.060789183
0001d0 04 84 1b 3e ff d1 a5 3d 14 9b 41 3e b3 6a b0 bd
       0.15187079 0.08096694 0.18906814 -0.08614101
0001e0 d2 85 f1 bd 50 a9 81 be 99 c0 a4 3d df 0e 42 3e
       -0.11793102 -0.25324488 0.080445476 0.18950985
0001f0 b8 d6 7d 3d 78 4f a1 3e 1b a4 e7 3d 15 47 ec bd
       0.06197235 0.31505942 0.113105975 -0.11536995
000200 eb 39 86 3e 7d 56 74 3e 19 77 25 3e 12 65 c0 bd
       0.26216063 0.23861118 0.16158713 -0.09394278
000210 a8 9e 33 3e ca 66 14 3e d0 e5 7b 3e cf 4f 2c 3e
       0.17540991 0.14492336 0.24599385 0.1682732
000220 dd 39 04 3d 50 60 c9 3d f9 17 7e bd 96 29 b4 3d
       0.032281745 0.09832823 -0.06203458 0.087969944
000230 18 fc 3d be 32 3e 2d be fa 9a 7c 3d 1a ab ea bd
       -0.18553197 -0.16918257 0.061671235 -0.11458416
000240 47 96 c7 3e 38 8e 70 3e e8 98 a1 3e 76 db 81 3e
       0.3898184 0.23491752 0.3156197 0.25362748
000250 a8 12 a7 3b 4a 00 85 3e 1c 73 24 3e c2 09 bd bd
       0.0050986595 0.25976783 0.16059536 -0.09230377
000260 51 9d 3d 3d ec 2e 52 3a 81 0a dd bd bb 65 4e 3e
       0.046292607 0.0008017856 -0.10793019 0.20155995
000270 f4 4d 82 3e 27 a7 c7 3e fa 51 11 bd 85 6b 70 be
       0.254501 0.38994715 -0.03547857 -0.23478515
000280 1c e0 f7 3d 9b 1b ef bc 9b d3 9a 3e ef 5a a6 3e
       0.12103292 -0.029187968 0.30239567 0.32491252
000290 74 c2 9f bb 30 5e 01 3e f6 5d fd 3d 4b cd cc bb
       -0.0048754755 0.12633586 0.12371437 -0.0062500588
0002a0 e7 db 9e 3d 3d fd c8 3e a4 76 5c 3e bb 27 91 3e
       0.07756787 0.39255705 0.21529633 0.28350624
0002b0 6f 78 3f bc 76 76 33 bd 24 8c 27 3e e6 02 15 3e
       -0.011686428 -0.043814145 0.16362053 0.14551887
0002c0 a5 c7 4d 3e bf 43 5b 3e d5 16 59 bd b4 06 f4 bd
       0.2009569 0.21412562 -0.05300029 -0.11915341
0002d0 74 66 d7 bd e4 6a 7d be 09 49 fe 3d e0 80 fe 3d
       -0.10517588 -0.24747807 0.12416274 0.12426925
0002e0 d2 61 b3 3e c2 8d ab bd be 27 01 3e 33 14 49 3e
       0.35035568 -0.083766475 0.12612817 0.19636612
0002f0 23 d4 c5 3e 6b fc 06 3e 7c 7c 11 3e 19 2f 0f bc
       0.3863841 0.13182227 0.14207643 -0.008739256
000300 40 ec d3 bd e1 cd c2 bd 23 3f 95 3e 46 db ae 3e
       -0.103477955 -0.095119245 0.29149732 0.34151667
000310 29 b4 67 3d 97 e3 e3 bd a5 8c 51 3d 24 55 90 3e
       0.0565683 -0.11127394 0.05115952 0.28189957
000320 2b 20 e2 bd f0 51 c2 bd 61 29 88 3c 1a 12 fb 3d
       -0.11041292 -0.094882846 0.016621294 0.12259312
000330 5d 06 d5 3e ac 69 b2 3d fd af 16 3e 3c 5c a2 3e
       0.41606417 0.087115616 0.14715572 0.31710994
000340 88 8f 84 3e 2e de 7e 3e db 3a 05 3e c3 46 8c 3e
       0.25890756 0.24889442 0.13010733 0.27397737
000350 2d 8a 57 3e 36 2c 86 3e b5 78 c2 3d 86 6d 4b 3d
       0.21048804 0.26205605 0.09495679 0.049664997
000360 1b 36 d6 3d e9 f3 9c 3e 2f 35 89 3e bb 0f d8 3c
       0.104595385 0.3065484 0.26798388 0.026374688
000370 eb d5 33 be 91 6b 04 3b 50 d1 a0 3e 8e 35 8c 3e
       -0.17562072 0.0020205716 0.31409693 0.2738461
000380 13 4a c7 3d 85 1d 42 3e 2b fe 90 3e 71 f0 14 be
       0.097309254 0.18956573 0.28318915 -0.14544846
000390 62 a5 e8 bd 9b 5a 8d be 2e 34 af bd 7d c3 49 bd
       -0.11359669 -0.2760819 -0.08554874 -0.049258698
0003a0 63 d4 89 3d 54 96 53 3e de fa 23 bc 6d a6 ca 3e
       0.06729963 0.20662814 -0.010008542 0.39580098
0003b0 86 d7 c0 3d 27 53 7c 3e 3a 77 06 3e 29 e2 72 bd
       0.09416108 0.24641095 0.13131419 -0.059297714

fc1.bias f4 [20]
000000 a4 82 8f 3e cf 32 a3 bd 82 ca 58 be 67 0d 5d bd
       0.28029358 -0.07968675 -0.21171 -0.05396786
000010 ec 8c 43 3e f6 3f aa 3e b4 6a 80 be a0 76 8a 3e
       0.19096726 0.33251923 -0.25081408 0.2704363
000020 06 28 51 3e ca f9 87 be 80 ca 86 3e f8 04 c9 bd
       0.20425424 -0.2655776 0.2632637 -0.09815401
000030 88 f1 31 be fc cd 44 bd 19 1f ed bd 9d 07 5a 3d
       -0.17377293 -0.048048005 -0.11578197 0.053229917
000040 82 b5 86 bd 99 bc 8c 3e e3 6c 45 3e 58 09 c0 3e
       -0.065775886 0.2748764 0.19279818 0.3750713

fc2.weight f4 [20, 20]
000000 19 39 f5 3e f4 e2 c7 bc 22 da 89 bd 1d 32 a2 bd
       0.47895125 -0.024400212 -0.06731059 -0.079197146
000010 d3 e5 05 3f 48 95 bc 3d 8d 53 f2 3d 38 86 07 3e
       0.5230381 0.09208161 0.11832342 0.13234794
000020 98 45 56 3e f8 4c 13 be 54 41 60 3e 66 66 96 bd
       0.20924985 -0.1438483 0.2189992 -0.0734375
000030 32 a8 ea bd 01 a7 9b 3d 94 47 89 3d 92 17 95 3e
       -0.11457862 0.07600213 0.067031056 0.29119545
000040 78 c9 3f 3e e1 59 57 3e bd 15 4f 3e 53 e8 2e 3d
       0.18729198 0.2103038 0.20223136 0.04270203
000050 c3 c0 d3 bd a8 43 98 3e 31 ec 01 3b 83 c5 af 3e
       -0.10339501 0.29739118 0.001982462 0.34330377
000060 28 f0 9c bd 28 50 01 3e 09 28 78 3e 6f 9c 25 3e
       -0.07662994 0.12628233 0.24234022 0.16172956
000070 7d 33 1a 3e 5f 3e 3a 3e 39 ad 92 3c 5c 57 29 3e
       0.15058704 0.18187855 0.017904865 0.16537231
000080 d6 a0 b3 3d 50 cb 80 3d ed 53 b8 3e 2f 0e d8 bd
       0.087709114 0.06288779 0.3600153 -0.1054958
000090 45 a7 02 3d 85 d5 61 3e 2d e7 47 3d f0 aa 0b be
       0.031897802 0.22054107 0.04880445 -0.13639426
0000a0 d5 38 85 3e 37 3f c4 3c 43 fd b6 3e 31 03 9a bd
       0.26019922 0.023955924 0.35740098 -0.0752014
0000b0 9d 47 8c 3e 28 56 5b 3e c1 61 4a 3e 88 e8 72 3e
       0.27398387 0.21419585 0.19763853 0.23721516
0000c0 80 6e 15 bb a2 8b 4b 3e db 9a 88 3e 2c 7e 09 bd
       -0.0022801459 0.19877484 0.26680645 -0.033567593
0000d0 3f f1 a3 bd eb 8d 83 3e 85 fe 8c 3e c2 3b 18 3d
       -0.080049984 0.25694212 0.27537933 0.037166364
0000e0 e6 ee a1 3c 70 e5 32 3d 23 f7 3b 3e b9 01 69 3d
       0.019767236 0.04367584 0.18355994 0.05688641
0000f0 ef b8 a7 3e 4d 7a 89 3d 42 12 4c 3d 51 24 50 3d
       0.3275828 0.0671278 0.0498221 0.050815884
000100 7a 7d 6f 3e f5 04 6a 3d b9 5f 0c be 2e f8 77 ba
       0.2338771 0.057133634 -0.1370839 -0.0009459284
000110 0c 29 6e 3e 0e 62 0f 3b 99 a2 9c 3e 74 15 47 be
       0.23257846 0.0021878514 0.30592802 -0.19441777
000120 44 cc 22 bd 0d a1 87 bd 92 81 66 be 57 6c 84 3e
       -0.039745584 -0.06622515 -0.22510365 0.25863907
000130 b5 37 63 3e 20 23 33 3d b5 c1 19 bd bd 3f 56 3e
       0.2218922 0.04373467 -0.03753825 0.20922752
000140 f7 ba 94 3e 23 2f c4 bd 67 69 fd bc 1c 4a 5b be
       0.29048893 -0.09579303 -0.030934049 -0.21414989
000150 f4 5d 13 3f 07 28 42 3e e7 65 f6 3d a1 47 ea 3d
       0.57565236 0.18960582 0.12031155 0.114394434
000160 cb 22 bd 3e ae db f1 bd a7 7b 86 3e 4f 9e 00 3e
       0.36940607 -0.11809479 0.26266214 0.1256039
000170 b1 16 53 3d 37 08 0c be 3d cc 11 3e b9 65 b8 3e
       0.051535312 -0.13675009 0.14238067 0.36015108
000180 03 54 20 3e 0e e4 e0 3d 0f 9e 81 3e dd d3 cb 3e
       0.15657048 0.10980998 0.25315902 0.39810076
000190 07 91 88 bd 49 f9 e2 bd fe d8 d4 bc 66 75 53 3d
       -0.06668287 -0.110827036 -0.025982376 0.05162563
0001a0 fd 34 33 be da 55 f2 bd f0 ba b7 3d 5a e9 46 3d
       -0.17500682 -0.11832781 0.089712024 0.048562385
0001b0 4e 8f 7b bc 48 db 08 be 42 83 03 be 14 91 ae 3d
       -0.015353991 -0.13364899 -0.1284304 0.08523765
0001c0 a4 42 24 be cb 7f 5f 3e e7 e7 85 be 81 5b 3c be
       -0.16041046 0.21826093 -0.2615349 -0.18394281
0001d0 56 77 15 3e c9 54 49 be 57 b4 8a be de 72 e5 bd
       0.14596304 -0.19661249 -0.27090713 -0.1120355
0001e0 51 ba 04 bf 1c 2c 45 3e 8e ef b9 3e 17 2c ba 3e
       -0.51846796 0.19255108 0.36315578 0.36361763
0001f0 f9 6d b5 be f2 26 d8 bd d6 e6 2c 3e 83 b0 b7 bc
       -0.35435465 -0.10554303 0.16884932 -0.022423035
000200 a9 6a 5a be c4 1d 95 3e 7a a5 79 bd b9 3f a2 bc
       -0.2132975 0.29124272 -0.060948826 -0.019805776
000210 fe 00 1c 3e 5e 2d 0f 3e b6 27 66 3e 7c 2e 1e be
       0.15234753 0.1398215 0.22476086 -0.1544742
000220 38 75 26 3d 5d f1 e2 3d 9a 15 8b 3e c3 c1 c6 bd
       0.040639132 0.11081193 0.27164918 -0.09704926
000230 ce 94 06 3f 54 23 c6 bd ba 03 55 be ea 90 84 3d
       0.5257081 -0.09674707 -0.20802203 0.06472953
000240 96 4c 20 3f f2 95 27 3e 5f 2b 3e 3e bc 98 21 bd
       0.6261686 0.16365793 0.18571232 -0.0394523
000250 c6 7d a9 3e a2 ae 6f be 5e ce 48 3e 4e fe ca bd
       0.3310377 -0.23406461 0.19609973 -0.09911786
000260 37 21 12 3e 72 79 36 be cc f8 30 be a4 d7 e9 3d
       0.14270483 -0.17819765 -0.17282408 0.11418083
000270 13 38 71 3e c6 c4 da bb a4 7c dd 3c cc 61 68 3d
       0.23556547 -0.0066762893 0.027036972 0.05673389
000280 47 ec 0a be 4c c2 1d bc 29 cd 0b 3c 57 27 5e bd
       -0.13566695 -0.0096288435 0.008532801 -0.054236736
000290 32 7b 6e bd 3f e8 66 bd 9a 1f 56 be 6d d3 59 be
       -0.058222957 -0.05637383 -0.20910493 -0.21272059
0002a0 12 ed 5b be 0c f6 78 3c 53 56 c5 bd 9c 27 2a bd
       -0.21477154 0.015195381 -0.09635606 -0.04154168
0002b0 0a 95 09 be a8 c9 b6 bd a2 a1 2e bd 5f 02 4a bd
       -0.1343576 -0.089251816 -0.042634614 -0.049318668
0002c0 6a 7f 20 3d 33 a5 db 3d 66 77 8c 3d de 69 4b be
       0.03918401 0.107248686 0.06858711 -0.19864604
0002d0 c4 ba 56 be cc 40 49 3d b6 ff 92 3e 25 04 a7 3e
       -0.20969683 0.04913406 0.28710717 0.3262035
0002e0 39 96 99 be 5b 43 15 be 06 fa aa 3e 51 39 84 3e
       -0.29997423 -0.14576475 0.33393878 0.2582498
0002f0 da c7 53 be 6f 09 91 3e fa 75 9d be ee b4 4f 3d
       -0.20681706 0.2832751 -0.3075407 0.050709657
000300 b7 bd 9a 3e 58 06 ff 3d 86 d2 9c 3e 2f 1e a1 bc
       0.30222866 0.12452382 0.30629367 -0.019667713
000310 a1 cc 04 bd 78 e9 49 3c ef 4b 40 3e e0 e6 28 be
       -0.03242171 0.01232373 0.18778966 -0.16494322
000320 64 54 85 be ce 67 7b 3e 62 de 85 3d ab 75 21 3e
       -0.26040947 0.24551317 0.06536557 0.15767543
000330 6b a9 d0 be 33 4e ca be ed 89 96 3e ba 0f 95 3e
       -0.40754256 -0.39512786 0.29402104 0.2911356
000340 9b b1 b3 be 30 f4 69 3e 19 74 a9 bd c1 cd 95 3d
       -0.3509644 0.22847056 -0.08274097 0.07314635
000350 c4 72 10 3e 3c f2 bf 3e ae 7f a3 3e 60 1f 00 be
       0.1410628 0.37489498 0.3193335 -0.12511969
000360 e0 7f 54 be 58 ba 2a 3e c4 57 a6 3c 62 a1 75 be
       -0.20751905 0.16672647 0.020305522 -0.23987344
000370 ab 0e cc 3e ea 5c e1 3d d9 16 35 3e cd 75 35 be
       0.3985494 0.1100405 0.17684497 -0.17720719
000380 8a 88 05 3f 23 cf 63 3e a3 a6 97 bc 5e 08 1a bd
       0.5216147 0.22246985 -0.018512076 -0.037605636
000390 d8 80 86 3e c0 4f e2 3c e4 a8 2c bd 7a 5d b0 3d
       0.26270175 0.027625918 -0.042153254 0.08611579
0003a0 fb f4 58 3e b1 a3 c2 3c 96 b7 e9 bd 1a ae 68 3e
       0.21187203 0.023759695 -0.11411969 0.22722664
0003b0 83 e9 f3 3d f6 50 9d bd da f1 7d bd 70 7b b9 ba
       0.11909773 -0.07681458 -0.061998226 -0.0014151167
0003c0 a8 fb ca 3e 1a 4c 70 3e 36 f8 5e 3e d7 ac 57 be
       0.39645123 0.2346653 0.21774372 -0.21062027
0003d0 33 9b 60 3e b3 8c dc 3e d0 2e 0e 3e 7a 93 44 3c
       0.21934204 0.43076095 0.13885045 0.011998052
0003e0 0a 07 c1 3d 67 99 2e 3e 0e 88 32 3e 04 b3 8a bd
       0.09425171 0.17050706 0.17434713 -0.06772426
0003f0 f8 26 ab 3d 83 89 65 3d a7 f5 7a 3c 39 db a7 3e
       0.08357042 0.056039345 0.015317357 0.3278444

fc2.bias f4 [20]
000000 90 18 a1 3e 7f b6 77 3e 1d 56 56 3d e5 c9 a0 3d
       0.31464052 0.2419071 0.052328218 0.07851008
000010 bc 9b 62 3e b9 72 c0 3d e6 7e da bd dc 79 7a 3e
       0.2212972 0.093968816 -0.10668735 0.24460548
000020 57 04 41 be 41 0a b1 be 7e 5c 11 be 3c 48 06 3d
       -0.18849312 -0.34578136 -0.14195439 0.03278373
000030 d3 7c 89 3e 61 48 8f bd 90 c9 31 3e 28 b1 6c 3c
       0.26853046 -0.06996227 0.17362046 0.014446534
000040 cb 41 31 be 0b f5 17 3e cb 94 81 3d 90 a6 f4 bb
       -0.17310254 0.1483957 0.06327208 -0.007466145

fc3.weight f4 [20, 20]
000000 54 db 0f 3e 25 8b 47 3e 43 6b a4 3b c9 af 3a 3e
       0.14048511 0.19486673 0.0050176694 0.18231119
000010 d3 61 34 bd fd 13 7a bd fb 5d 99 be 48 4d 5f 3e
       -0.044038605 -0.06105422 -0.29954514 0.21806824
000020 b3 b6 ec 3d d3 cf 47 be 31 18 ac be e4 5b 38 3e
       0.115582846 -0.19512872 -0.33612207 0.18003803
000030 c5 bf a6 3e f7 0c c2 3e f2 31 aa 3e 72 f5 a6 bd
       0.32568184 0.37900516 0.3324123 -0.08152284
000040 3c 7e 2f be 9f cb 1d be 7f 40 28 be b8 0b f7 3d
       -0.17137998 -0.15409707 -0.16430853 0.12062782
000050 83 4b ee 3d 84 09 2c be 1a b1 13 be 07 f5 64 be
       0.116354965 -0.16800505 -0.14423028 -0.22359096
000060 34 46 51 be e9 40 2d be ec 65 7c 3d cc cf cc 3d
       -0.20436937 -0.16919293 0.061620638 0.100005716
000070 c2 7b 1b 3e 7e 04 71 bd 76 64 8c 3d b5 ce 5c bd
       0.15183929 -0.058842175 0.06855099 -0.05390807
000080 d0 85 e4 bd f8 8f 5d 3e 13 21 0e 3e bb f2 ff 3d
       -0.11158335 0.21636951 0.13879804 0.12497469
000090 24 f3 25 be 9c 03 58 bd 23 42 1c 3c e1 f0 33 be
       -0.16206032 -0.052737817 0.009537253 -0.17572357
0000a0 ef d2 10 3e 44 40 e0 bc 99 a1 ec 3d e7 40 36 3d
       0.14142965 -0.027374394 0.1155426 0.04449549
0000b0 94 6c 26 3e c9 e0 43 be 5a b1 89 be 86 71 c4 3e
       0.16252357 -0.19128717 -0.2689312 0.38367862
0000c0 a5 97 4d bd f1 01 b2 3d 34 fb 15 3e 43 42 7e 3e
       -0.050193448 0.086917765 0.14646608 0.24829964
0000d0 ab 45 f9 3c 5d 6b bc 3d 96 77 a5 bd f5 03 f2 bc
       0.030428728 0.092001654 -0.0807945 -0.029542902
0000e0 66 94 89 bd fa 65 b6 bd 68 3b 52 be 72 28 b9 3d
       -0.06717758 -0.08906169 -0.20530474 0.090409175
0000f0 6b b5 cf bd ff d2 d4 bd 98 d4 89 bd e3 3d 2b 3d
       -0.101420246 -0.10391807 -0.06730002 0.041807067
000100 e6 0a f4 bd ee 98 f2 3d f5 04 0b be 69 f5 15 3e
       -0.11916141 0.11845575 -0.1357611 0.14644398
000110 c2 36 1a bd 31 b0 03 3c 47 a9 34 be fa 5b 94 3d
       -0.037649877 0.008037613 -0.17642699 0.07244106
000120 82 e2 4a be 73 f7 f5 bb 72 51 72 bd 5f 88 15 3e
       -0.19812968 -0.007506305 -0.059159704 0.14602803
000130 4b a1 cf 3c 72 26 2c 3e 6e c9 a2 bc 54 04 b4 bd
       0.025345465 0.1681154 -0.01987144 -0.08789888
000140 a5 1a 15 3d 24 14 84 3d 9b 4d a2 3e 1f cc 67 3e
       0.036402363 0.06449154 0.31699833 0.2263646
000150 8f 01 ad 3b 37 5f 3a be 35 f3 a5 bd 6a 78 fd 3e
       0.005279727 -0.18200384 -0.08103029 0.4950593
000160 cb de 57 3e 00 ab 89 3d 57 a6 a3 bc a4 12 8a 3e
       0.21081083 0.06722069 -0.019976778 0.26967347
000170 f0 77 85 3e 80 b4 bf 3e 7b e4 88 3e 10 82 37 be
       0.26068068 0.37442398 0.26736817 -0.17920709
000180 25 16 05 be af 12 90 bd 61 54 af 3c 50 65 29 3e
       -0.12996729 -0.070348136 0.02140254 0.16542554
000190 c2 24 77 bc 6a 30 d9 3d 53 60 d2 3d c3 b2 c3 3d
       -0.015084447 0.106049374 0.10272279 0.095555805
0001a0 88 ff 5f 3c 76 0c 88 bd cb 24 f8 bd 18 52 1f be
       0.013671763 -0.06643002 -0.12116393 -0.1555866
0001b0 4a e7 ae bd 66 b3 3b bc bb e1 90 3c 65 d5 06 3e
       -0.08540209 -0.011456346 0.017685762 0.13167341
0001c0 72 fc 46 be af 62 a3 bd b6 20 08 3e 35 b3 9d 3d
       -0.19432238 -0.07977807 0.13293728 0.07700197
0001d0 b7 81 6d be bf 13 e9 bd b4 39 15 3e ca af a1 bd
       -0.23194014 -0.113807194 0.14572793 -0.07894857
0001e0 f9 87 66 3e 2c 75 31 bc 73 b0 65 3d 8e 8d 69 3e
       0.22512807 -0.010831159 0.05607648 0.22807905
0001f0 03 f8 a9 3e 8f 8e bb bc 68 97 a0 bd 47 8b 8a 3e
       0.3319703 -0.022895126 -0.078413785 0.27059385
000200 31 58 58 bd dd 98 90 be 95 87 f6 3c 9c 65 8a 3e
       -0.05281848 -0.28241625 0.030093947 0.27030647
000210 a8 f5 9c 3e 20 31 9d 3e 3d b0 f5 3d e6 0b 08 be
       0.3065617 0.30701542 0.119965054 -0.13285789
000220 d7 f7 1e be be 71 36 3e 04 ce 30 3e 2f 5e 96 bd
       -0.15524231 0.17816827 0.17266089 -0.07342183
000230 1d 5a 21 3e 33 0e 42 be 4d 5c eb 3d 57 af 63 3e
       0.15757032 -0.18950729 0.11492214 0.22234856
000240 e8 1a 0e 3e aa a1 0f bb d6 68 b1 bd 49 15 83 3e
       0.13877451 -0.0021916428 -0.08662574 0.25602177
000250 0c 62 7b bb e1 c8 6d be 6d 7c e5 bd 8a 12 ef 3d
       -0.0038358 -0.2322116 -0.11205373 0.11673458
000260 30 6a 89 3e 03 a6 5a 3d b7 b0 9a 3d 0c b2 b9 be
       0.26838827 0.053380977 0.07553237 -0.3626865
000270 06 0d f5 bd b3 2a 27 3e 12 c7 af 3d 48 c4 9a bd
       -0.11965375 0.16324882 0.085828915 -0.07556969
000280 5f 88 7b 3d 85 91 4f 3e a3 5b 86 3e b3 2b b9 3e
       0.06140935 0.20270355 0.26241788 0.36166152
000290 ec 33 5f 3e 6b 72 24 be d1 74 15 bd db e9 36 3e
       0.2179715 -0.16059272 -0.036488358 0.17862646
0002a0 21 b8 0a 3e cc 49 b4 3d 59 b1 93 be 3f 15 13 3e
       0.13546802 0.08803138 -0.28846243 0.14363573
0002b0 a6 b8 7f 3d 04 9b a1 bc c3 24 8b 3e 3c 38 54 be
       0.062431954 -0.019727238 0.27176484 -0.20724577
0002c0 88 22 ae bd fe 40 36 be 20 3b df bd 81 d4 4a 3e
       -0.0850268 -0.1779823 -0.10899949 0.19807626
0002d0 f0 da 61 be a6 a3 17 be f0 2c da 3d b9 ed 28 3d
       -0.22056174 -0.1480852 0.106531024 0.041242335
0002e0 45 c6 30 3d 74 97 5e be 71 f0 bc bd 6e 4f 25 be
       0.043157835 -0.21737462 -0.09225548 -0.16143581
0002f0 8b b3 5b 3e 44 c1 5d bd 83 dc 2d be 44 c9 c1 bd
       0.21455209 -0.05413939 -0.1697865 -0.094622165
000300 9c 56 2d be bc 8e 4c be 4f 77 37 3e fc 15 d6 3d
       -0.1692757 -0.19976324 0.17916606 0.10453412
000310 e1 5e 15 be 22 01 1a 3e 0f 68 e3 3d 4c 81 1f be
       -0.14586975 0.15039495 0.11103832 -0.15576667
000320 3f 17 39 3e 5b fb 30 3c 5f 3b 34 bd f1 9d 92 3e
       0.18075274 0.010802115 -0.044001933 0.28636125
000330 e8 36 b7 3d 28 0a 41 3b 63 b4 8a be 1e f3 85 3e
       0.089460194 0.0029455516 -0.2709075 0.26162046
000340 87 5f 23 be 4d da a0 bd d2 1c 78 bd a3 7d 04 3e
       -0.1595441 -0.078541376 -0.06057436 0.12938552
000350 6c d5 32 3d 1e 0f 34 3e e6 f6 7f 3b f8 b5 aa 3d
       0.043660566 0.17583892 0.0039057075 0.08335489
000360 16 86 48 be 29 87 31 bd 62 9a ca bd 91 f2 df 3b
       -0.195824 -0.04334179 -0.098927274 0.006834336
000370 91 12 72 bd 2a 96 44 be 59 65 4a 3d 84 14 0e 3e
       -0.059099738 -0.19197908 0.04941306 0.13875014
000380 84 3c 23 be 7f af 51 be 3e 9c 1d be c0 59 78 bd
       -0.15941054 -0.20477103 -0.15391633 -0.060632467
000390 50 a5 a6 bd 19 66 ed bc a2 31 31 bd fe 27 63 be
       -0.081369996 -0.028979348 -0.043260224 -0.22183225
0003a0 90 2e 1b bc 8b c0 6e 3d f9 70 68 bc eb 8d 73 3e
       -0.009471551 0.058289092 -0.014187091 0.23784606
0003b0 ec 59 e0 3d 54 ac 00 be 91 a8 08 be 3c bd f0 3d
       0.10954651 -0.12565738 -0.13345553 0.117548436
0003c0 96 23 81 3d fb 3a 16 3e 66 11 48 3e 50 0a 5d 3e
       0.063056156 0.14670937 0.19537887 0.21585965
0003d0 a1 4f 8c 3e 99 b3 91 bd 69 ff 02 3e 5b b8 d4 3e
       0.27404502 -0.07114334 0.12792744 0.41546902
0003e0 43 8e fc bb 49 ce b8 bd f9 3a fc 3d 62 96 d2 3e
       -0.0077073886 -0.09023721 0.12315936 0.41130358
0003f0 fd a6 95 3e 42 1f 5a 3e 51 62 f3 b9 68 bc 8c be
       0.29228964 0.21300986 -0.00046421823 -0.27487493

fc3.bias f4 [20]
000000 b8 5b 3c bd 92 9c 2a be 1b e3 fb bd d5 85 67 bd
       -0.045985907 -0.1666129 -0.12299176 -0.056524117
000010 24 30 26 3e 20 e2 a4 bc 9a d2 71 3e 77 a9 5c 3e
       0.16229302 -0.020127356 0.23615494 0.2154902
000020 9e 2b 40 3e 3b 37 90 bd 11 95 be 3e a9 b0 96 3d
       0.18766639 -0.070417844 0.37223104 0.07357914
000030 5d 3a 76 3e 5e fc b5 bd 93 ad 6d bd 16 fb c8 bc
       0.24045701 -0.08886026 -0.05802686 -0.02453379
000040 ad 5f 0b bd 09 b6 9d 3e 32 ad 95 bc 7a e8 c0 3d
       -0.03402679 0.30802944 -0.018271063 0.094193414

fc4.weight f4 [20, 20]
000000 8d c1 f3 3d 9d 38 b6 bd 9d 22 3b be 3c 94 90 3c
       0.11902151 -0.08897517 -0.18274923 0.017648809
000010 7d 35 1e be 13 9a 63 be 09 41 7d be 2b 20 28 3e
       -0.15450092 -0.22226743 -0.2473184 0.16418521
000020 51 1d 82 be fb a4 cf bd 8f a2 ac 3d 0f b3 9b 3d
       -0.25412992 -0.101388894 0.08429443 0.07602512
000030 50 c3 90 bd f3 0f 1b be 89 98 6b bd 0b 53 f4 3c
       -0.07068503 -0.15142803 -0.057518516 0.029824754
000040 ed 53 5e 3e 7c f5 84 3d d2 cb 24 be e3 25 c5 bd
       0.21711703 0.06492135 -0.16093376 -0.09626367
000050 e9 ff 98 bd a8 2a 25 3e 9f a3 1d be 3e 80 0b bb
       -0.07470686 0.16129553 -0.15394448 -0.0021286155
000060 9e ae 75 be 3f c8 78 be 2a 52 d9 3d f9 71 b6 bc
       -0.23992392 -0.24295138 0.10611375 -0.022271143
000070 94 02 19 3e 3b 15 19 3e 78 f1 f0 be c3 94 ab 3d
       0.1494239 0.14949505 -0.47059226 0.083779834
000080 b6 84 f2 bd f6 24 ea bd c9 b4 40 3e 97 8b a7 be
       -0.11841719 -0.11432831 0.18818964 -0.32723686
000090 0a 46 56 3e fe 94 7b 3d a4 ad cf 3e 09 ed 41 3e
       0.20925155 0.061421387 0.40562165 0.18938078
0000a0 0e 86 98 3e a3 fc e0 3d 42 cd 1b 3d b3 5b 36 3e
       0.29789776 0.10985687 0.038037546 0.17808418
0000b0 c1 12 97 3e 3f 83 e8 bd 50 c2 98 3e 35 04 e6 3e
       0.29506496 -0.11353158 0.2983575 0.44925085
0000c0 95 de b1 3e d5 7f 7c bd c3 04 ec 3e 76 e8 33 be
       0.3474013 -0.061645348 0.46097383 -0.17569146
0000d0 55 c9 34 3e 8b ab 3a be c7 2e b5 3d 51 63 e2 3e
       0.17654927 -0.18229501 0.08846813 0.44216397
0000e0 96 ed c3 bc b7 1e 9b 3e 3c 68 be be f1 58 13 3e
       -0.023917 0.3029687 -0.371889 0.14389397
0000f0 e5 14 4b 3e c1 db ab 3b 46 82 5a 3e 03 62 1d 3e
       0.1983219 0.0052447026 0.21338758 0.1536942
000100 57 71 40 3e ca ac 4b 3d ac d4 02 3e f7 98 72 3e
       0.18793236 0.04972533 0.1277644 0.23691164
000110 c0 00 0d 3e 28 ce fe 3d bb 7f 9b 3e 52 f4 18 be
       0.13769817 0.12441665 0.30370888 -0.14936951
000120 00 d9 89 3e dd 95 76 bd c7 b1 02 be 8c ff 81 3e
       0.2692337 -0.060201515 -0.12763129 0.2539028
000130 88 3c 24 bd 07 4b 77 3e 39 a4 b6 be ff a3 d7 bd
       -0.04009679 0.24149714 -0.35672167 -0.10529327
000140 94 7c 29 bd ff 4b 23 3e 30 44 7d 3d b3 a3 a4 3c
       -0.041378573 0.15946959 0.061832607 0.02009759
000150 ae 65 1e be 1d ed 5d 3e 6b 08 46 be 7d e4 60 bd
       -0.15468475 0.21672483 -0.19339149 -0.054905403
000160 bb cd 08 3e e0 10 9d bd df 1d 04 3b 79 3e 93 bd
       0.1335973 -0.07669234 0.0020159406 -0.0718965
000170 67 a2 40 3e 66 82 25 be 34 c1 4a bd 4e ff 3b be
       0.18811952 -0.16163024 -0.04950066 -0.1835911
000180 26 cb d7 3d b9 31 32 be 72 f3 59 3e 46 00 86 bd
       0.10536794 -0.1740178 0.21284273 -0.06543021
000190 44 99 e3 bd 70 01 5d bb fd dd 35 be fc 73 a9 bd
       -0.111132175 -0.003372278 -0.17760463 -0.082740754
0001a0 ad 5c 32 be 44 d9 9a bd 7a f3 ae 3d c9 fe 27 be
       -0.17418166 -0.075609714 0.08542533 -0.16405787
0001b0 f9 d6 35 be 59 a6 10 bd 57 fd 4b 3e 4d 63 17 be
       -0.17757787 -0.03531489 0.1992086 -0.14783974
0001c0 02 dc 56 3e 94 64 07 be e6 11 62 be 9c 8d 8f 3d
       0.20982364 -0.13221961 -0.2207714 0.07009432
0001d0 70 57 2b be 9f 21 b5 3c 34 6d dc bd 8d e9 95 3d
       -0.16732574 0.022110758 -0.10763016 0.07319937
0001e0 30 65 d0 3e f0 cb e9 bc 30 61 91 3e 36 17 b6 3d
       0.407022 -0.028539628 0.2839446 0.08891146
0001f0 5a 99 b7 3e 32 45 0e 3e ec 66 70 3e 71 d3 bc 3e
       0.35859185 0.13893583 0.23476762 0.36880067
000200 ff d5 41 3e 62 38 3f be 64 bb da 3e 2f 73 1d be
       0.1892929 -0.18673852 0.42721093 -0.1537597
000210 fa cd c4 3d d0 f2 1c be f2 73 00 be 33 23 14 3d
       0.096095994 -0.15327 -0.1254423 0.03616638
000220 82 2c c3 3d 56 26 8f 3e 4f 2e b0 be c4 14 4d bd
       0.095299736 0.27958935 -0.3441033 -0.05006863
000230 4e 3c b0 bd 8b 75 12 be dc 2b c5 be 36 ce a3 bd
       -0.08605252 -0.14302652 -0.38510025 -0.07998316
000240 c0 4f 5f 3c 61 a1 f0 bd 5c 8d 1b 3d 55 14 8c be
       0.013629854 -0.117495306 0.037976608 -0.27359262
000250 42 c0 75 bd 04 21 9b bc 18 d6 0b be cb e1 95 bd
       -0.059997804 -0.018936642 -0.13655889 -0.07318457
000260 d3 bc 02 be 9b 92 bb 3e 9f cf 95 3e 2b d7 78 be
       -0.12767343 0.3663529 0.29259965 -0.2430083
000270 7c cd ae 3e e9 6f 6a 3d d9 18 4e 3e fe 60 57 3e
       0.34141147 0.057235632 0.20126666 0.21033093
000280 f5 c9 5c be 32 7f 4d be 17 2b 17 3e 14 3f d3 bd
       -0.21561415 -0.20068052 0.14762531 -0.103147656
000290 64 7d c9 bd 2c ce 2c 3d 06 83 44 be 93 50 d1 3d
       -0.098383695 0.04218881 -0.19190606 0.102204464
0002a0 d0 5e 64 3e b1 99 d1 bc a2 d2 d3 bd b5 0f 28 3d
       0.22301793 -0.025585981 -0.103429094 0.041030604
0002b0 76 3c 03 be 40 40 d8 bd 1a 40 48 be 47 e5 07 be
       -0.12816033 -0.1055913 -0.19555703 -0.13271056
0002c0 7c 55 eb bc 6a 6b 64 bb 1c b8 63 be 9e 5b c3 3c
       -0.028727286 -0.0034854063 -0.22238201 0.023847397
0002d0 1f 8f 78 3e ae c4 39 be d2 b8 b6 3d 34 e1 d8 bd
       0.24273346 -0.18141434 0.089219704 -0.10589829
0002e0 12 4e 73 3d 69 31 62 3e 46 85 b3 3e 4c 23 9d 3e
       0.059400626 0.22089161 0.35062617 0.30690992
0002f0 c1 19 d2 3d 28 7b 0c 3d 6b e9 9f 3e b4 35 2c 3e
       0.102588184 0.03429714 0.3123277 0.16817361
000300 d1 dc 32 3e 3f fe 07 3e 95 10 06 bd a9 5a 80 3e
       0.17467047 0.13280581 -0.032730658 0.25069168
000310 cf 92 2f 3a 45 ef 13 3e d8 f8 5e bd a9 f3 05 3e
       0.00066975964 0.14446743 -0.054436535 0.1308123
000320 4a 36 25 3e 0a a6 01 bd 76 29 96 bd e7 0e 05 be
       0.16133991 -0.031652488 -0.07332127 -0.12993966
000330 90 7a 90 bd d3 60 44 be 12 f4 4c be 49 c9 b6 bd
       -0.07054627 -0.1917756 -0.2001498 -0.08925111
000340 8d aa 0e 3e 89 88 b5 3d e8 12 9e 3d 42 04 96 bd
       0.13932247 0.08863933 0.0771845 -0.07325031
000350 5e 48 0e be a6 74 49 be 25 80 fe 3c 5d 3f 46 bc
       -0.13894793 -0.19673404 0.031066963 -0.012100068
000360 8f b0 34 3d 9e b0 26 bd 2c 47 04 be 67 6d 0a bd
       0.044113692 -0.04069578 -0.12917775 -0.03379574
000370 34 dc a0 be bb d1 5e be 20 b8 af be 2a cf 3f 3e
       -0.31418002 -0.21759693 -0.34320164 0.1873137
000380 ab d1 32 3e 52 95 6f 3e bf 11 51 3e 90 c9 a4 be
       0.17462794 0.23396805 0.20416926 -0.3218503
000390 e1 10 63 be 3d fa d3 3d 02 ca 87 be 78 cc 3c be
       -0.22174408 0.103504635 -0.26521307 -0.18437374
0003a0 ab 9e 16 3d 6a dd f6 bb 62 bb 72 3e 6a 92 11 be
       0.03677241 -0.007533719 0.23704293 -0.14216009
0003b0 7d 14 b0 3e b1 2e 1f be f8 13 c8 3e fa 37 88 3e
       0.3439063 -0.15545155 0.39077735 0.26605207
0003c0 ca e7 ed bd ff e0 ca bd 6b c6 9f be 84 39 f1 bd
       -0.11616476 -0.09906196 -0.31206068 -0.11778548
0003d0 2b 50 91 3e 2e dc 73 3e b4 32 40 3e 72 ef 92 be
       0.28381476 0.2381446 0.18769342 -0.28698307
0003e0 41 fe 4c 3e c8 74 1a be 69 b8 e8 be b0 7c e0 3d
       0.20018865 -0.15083611 -0.45453194 0.10961282
0003f0 9a dc 48 3d 4f a3 9a 3e a3 8a 67 3e 92 08 4a be
       0.049038507 0.3020272 0.2261148 -0.19729832

fc4.bias f4 [20]
000000 7a 4b 22 3e a1 13 bb bd f5 d7 7f 3e e5 a7 b9 3e
       0.15849105 -0.09134603 0.24984725 0.36260906
000010 a8 8e 63 be 51 2e 26 be ca 8d 98 ba ce ef 89 3e
       -0.22222388 -0.16228606 -0.0011638936 0.2694077
000020 da 5c 89 3b 14 3b 37 3e b4 88 f3 3b 20 64 0d 3d
       0.004191977 0.1789363 0.0074320678 0.034519315
000030 a9 bb a7 bb 86 2c ec 3d 32 2d f9 bd a3 e1 7d 3e
       -0.0051188064 0.1153193 -0.121668234 0.24793105
000040 75 c7 5f 3e a8 2b c3 3d 4d 1b 30 be 64 94 6d 3e
       0.2185343 0.09529811 -0.17197914 0.23201138

fc5.weight f4 [20, 20]
000000 46 07 2f 3e 75 3d be bd 77 0d 23 3e 1d a9 de 3d
       0.17092618 -0.09289066 0.15923105 0.108720995
000010 6b d9 03 3d 5a 70 08 3e 46 24 1f 3e fb 7f e6 ba
       0.032189768 0.13324109 0.15541181 -0.0017585749
000020 63 4f 01 be ff bc 2f be 66 87 b3 bd eb b6 2a 3e
       -0.1262794 -0.1716194 -0.087660596 0.1667134
000030 a2 05 9b 3d 62 d7 de bd fc eb 27 bd 01 e0 7a be
       0.07569434 -0.10880925 -0.040996537 -0.24499513
000040 ec ae 8e bd 7f a4 56 be 19 12 1e bc 9e b7 79 be
       -0.069669574 -0.20961188 -0.0096478695 -0.2438645
000050 54 2b c2 bd d4 10 6d be 21 81 86 3e fc 31 e0 3e
       -0.094809204 -0.2315095 0.26270393 0.43788135
000060 04 b0 4c bd d0 29 bd 3d cf 72 b7 3d 39 8a 10 be
       -0.04997255 0.09236491 0.08957445 -0.14115228
000070 cb ba 37 3b b0 5d 8c 3e bc 7d 4d 3c 42 40 c1 bb
       0.0028034921 0.27415228 0.012542184 -0.0058975527
000080 19 fe 45 3e db de 0c 3d bb 39 81 3e b2 18 86 3e
       0.19335212 0.03439222 0.25239357 0.26190716
000090 21 dd e7 3e bf bc 25 3e 38 00 ec 3c ba 0a bf 3d
       0.45285895 0.16185282 0.028808698 0.09328218
0000a0 cb 90 0f be f5 cf 41 3e d6 2a 3d be 0c b1 b9 3d
       -0.14020078 0.18926986 -0.18473372 0.09066972
0000b0 b0 d9 61 be cc c9 7f 3c c5 35 3e 3e 87 8d 45 be
       -0.22055697 0.015612077 0.18575199 -0.1929227
0000c0 c0 43 eb bd 94 0a 43 3d 1d 99 4d 3e 65 9b f0 3d
       -0.11487532 0.04761751 0.2007794 0.11748389
0000d0 25 df 4c bb 3f fe 39 be 2e 17 8c 3d 85 3c ba bd
       -0.0031260934 -0.18163393 0.06840359 -0.090935744
0000e0 07 8f ed 3c c6 31 37 3d e7 df 91 bd f5 d1 21 3e
       0.028998865 0.044725202 -0.07122784 0.15802749
0000f0 e4 0c 13 be c3 a2 12 3e 1b d3 f0 3d 40 e5 f3 3c
       -0.14360386 0.14319901 0.11759015 0.0297724
000100 8b f8 10 be c6 39 56 3e a5 77 5d be fe f0 d0 bc
       -0.14157312 0.20920476 -0.21627672 -0.025505539
000110 73 c7 b4 3b aa 89 df 3c fc f7 84 3d ad 9e a8 bd
       0.0055169403 0.027287323 0.06492612 -0.0823339
000120 9a b5 d5 bd 56 64 a2 bd e7 a4 83 bd 62 77 11 be
       -0.104350284 -0.07929294 -0.06427937 -0.14205697
000130 80 cc 4f 3d 4a fa bc 3d 69 9f e9 bd 1f 61 36 3e
       0.050732136 0.09227426 -0.11407358 0.17810486
000140 1a cd 20 3e 5f 68 a1 3d 95 85 1e 3d bb 1f 44 be
       0.1570324 0.07881235 0.038701613 -0.19152729
000150 39 3c c8 bd d7 f6 ca 3b 04 da 5e 3d 62 33 13 bd
       -0.097771116 0.0061939764 0.054407135 -0.035937674
000160 45 ba 8c bd a6 64 11 3e b2 31 27 be 7c 42 13 be
       -0.068714656 0.1419855 -0.16327551 -0.1438083
000170 2c dd 4b be 92 dc 99 bc 49 6a 04 3e 69 0f 5e be
       -0.19908589 -0.018781934 0.1293117 -0.21685566
000180 ba 34 c9 3d 25 87 80 bd 2c a7 da 3d 17 0d 0e be
       0.0982451 -0.06275777 0.10676417 -0.13872181
000190 dd 8c 33 3d 24 87 2e 3e 9d b4 50 be e0 70 9f 3d
       0.04383551 0.1704374 -0.20381398 0.07785201
0001a0 4b b4 4c bd 4e 36 16 3d 3a 0d f1 bd 79 32 8e 3d
       -0.04997663 0.036672883 -0.11770101 0.06943221
0001b0 d6 75 0f 3e ac a7 e3 3d 1d ae 61 be 0e 72 0b be
       0.14009795 0.11115965 -0.22039075 -0.13617727
0001c0 92 d0 d6 bc c9 d0 43 be b6 7e 80 bd 38 7d de 3d
       -0.026222501 -0.19122614 -0.06274168 0.10863727
0001d0 ef 12 6c bd 8a 53 4c be 46 e7 0f be b1 5c 5a be
       -0.057635244 -0.19953743 -0.14053068 -0.21324421
0001e0 d4 dc 0d 3e 34 18 11 3e 89 b2 4b bd b1 43 9e be
       0.1385377 0.14169389 -0.04973081 -0.3091102
0001f0 69 ec 03 be 04 a1 a2 bc 19 ac dc be 5f a2 c1 3e
       -0.12883152 -0.019852169 -0.4310005 0.37819192
000200 86 b5 39 be 80 48 01 be d3 a4 26 3d 92 fa c7 3d
       -0.18135652 -0.12625313 0.040684532 0.09764589
000210 b8 ad 50 3e b2 ec 8e 3e 09 69 94 bc 10 99 d2 3d
       0.20378768 0.2791496 -0.01811649 0.102831006
000220 ed e0 c8 be 4b db 86 be 95 73 e7 be 34 47 cd 3e
       -0.39234105 -0.26339182 -0.4520537 0.40093386
000230 6d b8 06 bd 1f 14 20 be fa b1 03 3e 7e 13 ad 3d
       -0.032890726 -0.15632676 0.12860861 0.084509835
000240 3d 5a 15 be 79 eb 21 bd ff ec 36 3e a9 2a b7 bd
       -0.14585204 -0.039531205 0.17863844 -0.08943684
000250 87 d6 22 3e 9e 0e 4c 3e d3 ea 3d 3c 5f e6 4f be
       0.15902148 0.19927451 0.011591631 -0.20302723
000260 0a 66 16 3e 20 4e 15 3e bd 6d b1 3d e5 31 4d 3d
       0.14687362 0.14580584 0.08663509 0.05009641
000270 2a 9b 65 3e 2b 95 ba 3e 4a 24 8b 3e b8 82 14 bd
       0.22422472 0.3644193 0.27176124 -0.036257476
000280 1b 3f 02 bd f5 d3 af bb 8b 4e 5b 3d fc b4 8a 3b
       -0.031798463 -0.0053658434 0.0535417 0.004233001
000290 7a 13 4c be e1 4c 4e bd ba e7 87 be d6 bf 0f 3d
       -0.19929305 -0.050366286 -0.2654398 0.03509506
0002a0 e2 1a 35 3d 8e 1a 52 3e f9 3d e0 bd 1e 47 b7 3e
       0.04421509 0.20517942 -0.1094932 0.35796446
0002b0 34 09 4f 3e 62 e1 22 3e 37 d4 86 bd 97 ce 7a 3e
       0.20218354 0.15906289 -0.065834455 0.2449287
0002c0 f9 5d b1 be 6d 82 77 be e6 74 9a be 1f 79 41 3d
       -0.34642008 -0.24170847 -0.3016731 0.04723465
0002d0 78 cf 60 bb e7 c4 0a be c5 07 0d bd 79 df d1 bd
       -0.0034303349 -0.13551675 -0.034431238 -0.10247702
0002e0 10 2d 02 be f6 47 02 3d c8 92 2f 3e 0a 0a 0c 3d
       -0.12712502 0.03180691 0.17145836 0.03418926
0002f0 17 07 10 3e 2c 64 74 bd 21 da 8a 3d ec 63 18 be
       0.14065205 -0.059665844 0.06779886 -0.14881867
000300 0c ef 17 bc ac 0d 5f be 7b 64 13 be 92 de 43 3b
       -0.009273302 -0.21782559 -0.14393799 0.00298873
000310 c3 14 ed 3c 9e 1e 16 bd e0 78 12 3e 80 a8 88 bd
       0.028940564 -0.036650293 0.14303923 -0.06672764
000320 ae 40 83 bd 17 4f 03 3e cc 35 00 3e d3 14 9a bd
       -0.06408821 0.12823139 0.12520522 -0.07523503
000330 6a 66 b8 3d 40 61 c3 bd c8 07 be 3c da f9 37 be
       0.09003909 -0.09540033 0.02319707 -0.17966405
000340 5a e2 da 3c e5 35 e7 bd 11 f8 62 be 27 80 64 be
       0.026719261 -0.112895764 -0.22164942 -0.22314511
000350 84 b9 14 be c3 d0 35 bc 0c 4e 35 be 08 88 56 be
       -0.14523894 -0.011097136 -0.17705554 -0.2095033
000360 01 ea 75 bd c1 64 f0 bd 04 82 03 3c 61 ea 81 3c
       -0.060037617 -0.11737967 0.008026604 0.01585883
000370 c8 56 32 bd b4 c4 b7 3e 83 ac 7b 3d 77 f4 89 be
       -0.043539792 0.3589226 0.061443817 -0.26944324
000380 c6 ba 02 be 55 5f c2 3d 32 19 38 be 07 f7 d1 3e
       -0.12766561 0.094908394 -0.17978361 0.4100878
000390 af 78 d2 3c 4a 10 38 3e 61 77 4e 3e 37 ae 77 3d
       0.025692312 0.17974964 0.20162727 0.06046888
0003a0 58 94 b9 3e 1d ce 89 3e 61 cf a9 3d 06 3e 04 3d
       0.3624599 0.26915064 0.082915075 0.032285713
0003b0 36 f5 a3 be 87 01 90 be 61 b7 84 be 08 9f 41 3e
       -0.3202302 -0.28126165 -0.25921157 0.18908322
0003c0 89 76 0f be 80 50 e0 be 4f 6a c4 3e e4 d3 d1 3e
       -0.14010061 -0.43811417 0.38362357 0.40981972
0003d0 85 21 4b be 87 dd 5b be 29 3a a3 3e 15 21 c9 3d
       -0.19837005 -0.21471225 0.3188031 0.09820763
0003e0 91 7b 49 3e 12 1e 9e 3e 19 c1 21 3d 01 70 11 3e
       0.19676043 0.30882317 0.039490793 0.14202882
0003f0 de 3c eb bd 80 69 d1 bd d7 5b 23 be 2f 98 94 3e
       -0.11486219 -0.10225201 -0.15953003 0.29022357

fc5.bias f4 [20]
000000 c3 de 0b be 77 87 45 3e 76 fa a6 bc 03 41 9a bd
       -0.13659196 0.19289957 -0.020383101 -0.07531931
000010 c7 eb 20 be 98 5f 8b bd f9 d0 2b 3e 40 f9 77 3e
       -0.15714942 -0.068053424 0.16778935 0.24216175
000020 12 21 61 3e 0c de 03 be 97 03 18 be 7c 4f 76 3e
       0.21985272 -0.12877673 -0.1484512 0.24053758
000030 57 6b 61 3e 92 07 83 3e ca 2e be bd 04 0d b9 3c
       0.22013603 0.25591713 -0.09286268 0.022589214
000040 ef 4f c6 bd 1f e9 4e 3d b2 06 6b be 90 0e 15 bd
       -0.09683215 0.05051529 -0.22951773 -0.03639084

fc6.weight f4 [3, 20]
000000 48 c2 17 be af c5 50 3e 08 d8 e9 3d 42 49 37 3a
       -0.14820206 0.2038791 0.11418158 0.0006991812
000010 b2 e4 ce bd cc 50 a4 bc f5 f2 18 be 3b 87 35 3e
       -0.10102214 -0.020058058 -0.14936431 0.17727368
000020 ab 60 7b 3d d3 c0 54 bc ff 27 17 3e 9e ec 4e be
       0.061371487 -0.012985426 0.14761351 -0.2020745
000030 4d d0 b4 3e e6 ac e1 3e 9e 73 3f be 1b 68 a4 3e
       0.3531517 0.44077224 -0.18696448 0.32110676
000040 6e bc fa 3d a7 d7 ab be a8 1e 44 be a1 5e d4 3e
       0.12242971 -0.33562967 -0.1915232 0.41478446
000050 23 b0 49 3e 89 a3 ae be 74 68 c3 3c 9c 7a 12 3c
       0.19696097 -0.34109142 0.023853518 0.008940365
000060 68 c0 c5 bd 12 8f c2 bb ce eb d2 be 14 f8 8b be
       -0.09655839 -0.0059374655 -0.4119553 -0.27337706
000070 94 64 ba be a7 97 aa 3d 52 47 2e 3e ab e6 dc be
       -0.3640486 0.08329707 0.17019394 -0.43144736
000080 59 7a 87 be 7e 7c f4 bd 73 d8 1a 3c 1c 98 a7 be
       -0.2646053 -0.119378075 0.00945102 -0.32733238
000090 4c 8a b8 bd 63 0d 8c be f5 f7 8f be 12 43 20 be
       -0.09010753 -0.27353963 -0.28118864 -0.15650585
0000a0 0a e9 d7 3d 9d f4 85 be d5 df a2 bd 52 b3 7d bd
       0.105424955 -0.26163188 -0.07952849 -0.06193859
0000b0 24 f5 08 3e 65 3d 99 3d bf e7 01 3f 57 a7 fb bd
       0.13374764 0.07482413 0.5074424 -0.12287777
0000c0 eb 84 89 3e 9b a1 4d be 5d f6 0d 3e e8 21 87 3e
       0.2685922 -0.20081179 0.13863511 0.26393056
0000d0 d0 81 c7 bd 1a f1 be be cb d2 45 3e 0b 9a ac bd
       -0.09741557 -0.3729332 0.19318692 -0.08427819
0000e0 1e a9 3d 3d 26 0d f4 3e 0c 22 96 3e 24 69 a1 be
       0.04630386 0.4766628 0.2932285 -0.31525528

fc6.bias f4 [3]
000000 04 b3 25 bd df 76 af be df e4 81 3d
       -0.040453926 -0.3427038 0.06342482
