models_3val/and.pth (torch, 11762 bytes, 12 tensors)

fc1.weight f4 [20, 12]
000000 82 64 c1 bc c7 0b 3e bd dc 13 8a 3c 12 09 06 3b
       -0.023607496 -0.04639795 0.016855173 0.0020452184
000010 47 f7 89 3e d1 a2 f8 3d a9 bd b4 3e 5f 65 a6 bd
       0.2694647 0.1214043 0.3530095 -0.08124804
000020 d8 0f ba 3e 0b c3 0b bc 0d 09 56 3d de ad b6 bc
       0.36340213 -0.008530389 0.052254725 -0.022299703
000030 90 c9 bc be d5 1a c5 3c c0 ae 2a 3e 32 26 33 3e
       -0.3687253 0.024060646 0.16668224 0.17495039
000040 7b b8 9c 3e 45 dd a1 3e f3 2e 9c 3e 56 86 83 3e
       0.30609497 0.31614128 0.3050457 0.25688428
000050 74 39 06 be 73 1a 1c 3e 24 f9 f5 3b 30 4a 0c be
       -0.13107854 0.15244465 0.0075065065 -0.13700175
000060 4e f0 92 3e 36 d3 da 3e 6d 51 21 3e 52 d2 d9 3c
       0.28698963 0.42739266 0.15753718 0.026589546
000070 5f 93 ed 3d 2e e4 67 3c bf 64 a3 3e 37 e8 8f 3e
       0.116003744 0.014153523 0.319128 0.28106853
000080 fe e8 08 bd 5a 67 e8 bd 6c f1 2f 3e 5a 43 b2 bd
       -0.033425324 -0.11347838 0.17181939 -0.087042525
000090 0f f4 dd 3e cf b5 07 be de cd 9f bd 1b 61 79 3e
       0.43350264 -0.13252948 -0.07802938 0.24353449
0000a0 f6 3e 17 3e c8 7b 04 3e 09 7c 87 bd ae a7 59 bd
       0.14770111 0.12937844 -0.06615455 -0.053138427
0000b0 59 0c b0 3e ef 71 a8 3e 34 ea 67 3d 28 c9 10 3e
       0.3438442 0.32899424 0.056619838 0.14139235
0000c0 4c dd 3c bd 92 6e cf 3e bd f2 5c 3e 7a e4 20 be
       -0.046109483 0.40514046 0.21576972 -0.15712157
0000d0 51 11 1d 3e 81 7c d3 3d 15 5a a7 3e 86 d8 a9 3d
       0.15338637 0.103264816 0.32685915 0.08293252
0000e0 22 6f 46 3e 7b 51 90 3e f0 07 52 be 5f fd 12 3e
       0.19378331 0.28187165 -0.2051084 0.14354466
0000f0 bc 61 31 bf 23 c1 b3 3e 4a 66 55 3d 8d 15 96 3c
       -0.69289756 0.3510829 0.052099504 0.018320823
000100 d4 31 f3 bc e8 33 f3 3c bd e7 40 3b 7a 53 22 3d
       -0.029686846 0.029687837 0.0029435002 0.03963039
000110 32 75 bf 3d 27 e2 ce 3c 74 00 85 3d 54 1f ce 39
       0.09348525 0.025254322 0.06494227 0.00039314723
000120 06 a0 a1 be 32 9e fa bd ce a2 ee bc 25 83 84 3e
       -0.315674 -0.122372046 -0.029130366 0.25881305
000130 e5 04 6d 3e ab 3d 79 3e 99 30 13 bd d7 c1 c5 bc
       0.23146398 0.2433993 -0.03593502 -0.024140282
000140 82 a9 74 3e 04 7a 20 bd cd b7 38 3c 2d db 49 3d
       0.23892787 -0.039178863 0.01127429 0.049281288
000150 60 32 1d bf 58 c7 b4 3e 6d 38 40 3d 54 02 e0 bd
       -0.6140499 0.35308337 0.04692881 -0.10937944
000160 55 76 87 3d 1e fa 15 3c 0f 82 2e 3d a7 32 ac bd
       0.06614367 0.009153871 0.042604502 -0.08408099
000170 41 c5 4d bd 26 f4 a7 3c 06 38 d7 3c 8e 81 19 3d
       -0.050236944 0.020502161 0.026271831 0.03747707
000180 b9 be 9a be f5 85 0a 3f 16 0b f9 bc ca 6e 34 3e
       -0.30223635 0.5411065 -0.030400794 0.17620388
000190 b8 f9 36 bd 70 26 94 3e 4a 52 1b be 1a fc a8 3e
       -0.044671744 0.28935575 -0.1516811 0.33004838
0001a0 03 86 92 3e 1d 4b a2 3e ec e4 87 bd f8 25 24 3e
       0.28617868 0.31697932 -0.0663546 0.16030109
0001b0 62 1e 4c 3e 88 6d 08 be aa 74 4e 3e b2 47 b0 3e
       0.19933465 -0.13323033 0.20161691 0.344297
0001c0 54 9f 16 be a2 4e 96 3e 22 e0 03 3e 25 e9 b9 3e
       -0.14709216 0.29356867 0.12878469 0.36310688
0001d0 06 00 4d 3d c3 e0 32 bd 7d d0 6c 3d 74 2e 80 bd
       0.05004885 -0.04367138 0.057816017 -0.0625886
0001e0 ba 05 f7 3d ac 9f f3 3e 5a de 33 3c 9a 3f 00 3e
       0.12061639 0.47582757 0.010978306 0.12524262
0001f0 61 e9 03 3d c3 47 8b 3e f7 15 c6 3c 7f 94 0d be
       0.03220499 0.27203187 0.024180396 -0.13826178
000200 9e da 13 3d 0a 36 a9 bd 8b 50 60 3d 63 db 89 3c
       0.03609716 -0.0826226 0.05476431 0.016828245
000210 aa 6a 02 3e fc 81 85 bc 67 b8 73 3d a6 d6 2a 3e
       0.12736002 -0.016297333 0.05950203 0.16683444
000220 9d c6 03 be fa 16 ac 3e d2 a5 65 3e cd 12 47 3d
       -0.12868734 0.3361128 0.22426537 0.048601914
000230 f6 0c ae 3e be 5d 59 3e e2 5d 78 3e 7d 4c 9d bd
       0.33994263 0.21227166 0.24254563 -0.076806046
000240 89 d7 e3 3e ea 8e 02 3e 8d 93 4f 3e 87 7b 71 bd
       0.44500378 0.1274983 0.2027113 -0.058955695
000250 46 50 01 3d 16 eb c6 3e 0c e9 58 3e 6b 8e 34 3e
       0.031570695 0.3885123 0.2118265 0.17632453
000260 3d ea b8 3e 21 3f 37 3e e5 2f c2 3d 84 7e 40 be
       0.3611621 0.17895176 0.094817914 -0.18798262
000270 7e c3 aa 3b 9c 8c f3 be c6 5c 12 3e 8a 84 c4 bd
       0.0052112928 -0.47568214 0.14293203 -0.09595592
000280 96 d2 be 3d 9e 42 0c 3e 57 4a b8 3b 0e 17 3f 3d
       0.0931751 0.13697287 0.0056240964 0.046652846
000290 d3 6c fe 3d 7b dd 67 3e 7a a3 4e 3c d5 2e 5b 3e
       0.124231 0.22643082 0.012612218 0.21404584
0002a0 67 1e 06 bb 0b 3b 65 be 86 59 88 3e 0c 7d 21 3e
       -0.0020464899 -0.22385804 0.266308 0.15770358
0002b0 15 4f 54 3e 97 ea 57 bc 24 dc 4e bd d4 f3 21 3e
       0.20733292 -0.013178489 -0.05050291 0.1581567
0002c0 98 df 97 bc 61 bb 72 3e 62 60 1c 3e 19 92 a7 bd
       -0.018539235 0.23704292 0.15271142 -0.08182163
0002d0 8b 29 14 be bb d7 c8 3e 66 1f 84 3c 18 e2 89 3e
       -0.14468972 0.3922709 0.016128253 0.26930308
0002e0 a5 16 80 3e 37 86 af bd 07 cc 08 3d 0e a1 0c 3c
       0.25017276 -0.08570521 0.0333977 0.00858332
0002f0 28 6b d3 3c ac bd 8d 3e 6d 4c 90 3e d0 6f 99 3d
       0.025807932 0.2768377 0.28183308 0.0749203
000300 5a 7c a8 bd 0b f8 cb 3e da d6 0a 3e 9b 2a 53 3c
       -0.08226843 0.3983768 0.13558522 0.012888576
000310 82 01 0b 3d 6e 84 81 bd a8 78 1b be f3 0b 44 3e
       0.033936985 -0.06324087 -0.15182745 0.19145183
000320 46 b7 44 3e 32 4e 67 3c f0 f9 06 3e cf 49 e1 bd
       0.19210538 0.014117764 0.13181281 -0.11000406
000330 14 4a ae 3e 02 bd f8 3e 08 ce 9c 3e 49 73 6a 3d
       0.34040892 0.48581702 0.3062594 0.05723885
000340 84 4d c4 3e 7e ba ba 3e e2 bf 76 bc 88 17 8e 3d
       0.3834039 0.36470407 -0.015060397 0.06938082
000350 79 35 6d 3d 16 12 bb bd eb a9 96 3d 53 bc 3d 3e
       0.057912324 -0.09134309 0.07356628 0.18528871
000360 39 8e 20 3e d7 d4 c4 3e 77 b2 34 3e 36 63 ac 3e
       0.15679254 0.38443634 0.17646204 0.33669442
000370 4e 16 6b 3c bd d6 a9 bd 99 67 4f be 40 3e 2c bc
       0.01434858 -0.08292911 -0.20254363 -0.010512888
000380 b8 66 cd 3e a2 ff c1 3e bf 27 c4 3d 0b 93 32 3d
       0.4011743 0.37890345 0.095778935 0.043597262
000390 92 35 d1 be 8e 43 38 bc c6 83 8f 3e a1 2f a6 3e
       -0.40861183 -0.011246575 0.28030223 0.32458213
0003a0 e7 e2 64 3e d4 71 f8 3d 8a 90 9f bd 36 42 a8 3d
       0.22352181 0.12131086 -0.077912405 0.08215754
0003b0 3f 2f 8a 3e e4 18 2a bd 2d be ac 3d 72 9d 73 3e
       0.2698917 -0.041527644 0.08434711 0.2379053

fc1.bias f4 [20]
000000 5d d0 d8 3e bf b9 5d 3c da 38 5c be 0b f3 9f 3e
       0.4234647 0.013533055 -0.21506062 0.31240115
000010 33 4c 02 be 79 6a 4d 3b 64 3b 9c 3e 1e 40 77 3e
       -0.1272438 0.003134398 0.3051406 0.24145553
000020 8f c3 99 3e 11 25 45 3e eb 80 af bb 13 a4 ab 3e
       0.30032012 0.19252421 -0.0053559444 0.33523616
000030 8b 7a d7 bd 4b 3b 6c 3e 94 a1 cf 3e 9c 58 1b be
       -0.1052142 0.23069493 0.40552962 -0.1517052
000040 7f 9c 09 be 91 37 6f be 4a ea af bd 42 0b d3 bb
       -0.13438605 -0.2336104 -0.08589609 -0.006440551

fc2.weight f4 [20, 20]
000000 dd e8 14 3e ef bc 8a be 7c db 17 bd c3 71 87 3e
       0.14541955 -0.2709727 -0.03707455 0.2645398
000010 8c 4f 64 be 38 96 c6 be 5b bc 26 bd 4d 3a 00 bf
       -0.2229597 -0.38786483 -0.040706974 -0.5008896
000020 d0 eb b4 be cd 90 38 3e 5b d6 97 be 84 34 1a 3e
       -0.3533616 0.18023987 -0.29655728 0.15059096
000030 45 38 d2 3d d7 d5 c2 3e 02 47 c1 3e 67 03 8a be
       0.10264639 0.38053772 0.37749487 -0.2695572
000040 42 41 44 be 35 0a 33 3e 7b b9 c3 bd 2d fc 1b be
       -0.19165519 0.17484362 -0.09556862 -0.15232916
000050 a6 3c 85 be 7f 01 06 be 61 e9 55 bd 45 d8 71 be
       -0.26022834 -0.13086508 -0.05222452 -0.23617657
000060 30 45 20 3c c6 93 f2 3d 75 12 24 3e 70 54 c4 3d
       0.009782121 0.11844592 0.16022666 0.09586418
000070 14 01 cd 3d 07 e7 11 be c3 59 3b 3d f0 7c 12 be
       0.10009971 -0.14248286 0.0457399 -0.14305472
000080 54 93 2d 3e bf c5 f0 bd c8 e5 f1 3d 62 73 5f be
       0.16950732 -0.11756467 0.118114054 -0.21821359
000090 7d e6 0a be 9b 35 f8 bd 94 3f 50 bd f2 e6 3f bd
       -0.13564487 -0.121195994 -0.050841883 -0.046851106
0000a0 40 91 a6 bd bd 0a cc bd 22 f3 37 3e 47 a7 df 3d
       -0.08133173 -0.09962986 0.17963842 0.109205775
0000b0 ab 41 35 bc b3 38 44 be 8a 4a ad bc 47 53 00 be
       -0.01106302 -0.19162254 -0.021153707 -0.12531768
0000c0 2d 78 14 be 8c 9c d1 bd a5 51 65 be 97 e0 30 be
       -0.14498968 -0.10234937 -0.22394426 -0.17273174
0000d0 be dd 79 be 7e 71 45 be 1f 30 7e be 10 52 cc 3d
       -0.24400994 -0.19281575 -0.24823044 0.0997659
0000e0 25 32 24 3e 15 77 de 3d 82 d3 87 bd 62 35 94 3c
       0.16034754 0.10862557 -0.06632139 0.018091861
0000f0 37 ca 02 3e 70 a8 36 3e d2 e6 9c 3e 3e 56 1d 3e
       0.12772451 0.17837691 0.30644852 0.1536493
000100 bf 59 c6 3e af 4e 15 bf 9f 16 8c be 26 61 be be
       0.38740346 -0.58323187 -0.2736101 -0.37183493
000110 dd 10 80 3e dc 23 55 3c 1b 56 da 3d 51 72 8e 3e
       0.25012866 0.013009038 0.106609546 0.27821591
000120 55 4a 88 3e 41 e4 7c be 10 db 70 be 02 cd cc 3d
       0.2661921 -0.24696447 -0.23521066 0.1000004
000130 08 59 0d 3d 49 ca 27 3d 9a 10 88 3d 11 91 53 be
       0.034508735 0.0409644 0.066437915 -0.20660807
000140 30 35 2f 3c 70 38 82 3e d7 a0 8e 3e 5f 93 0e 3e
       0.010693833 0.25433683 0.27857086 0.13923405
000150 61 73 17 3e fd b6 4a be db fb 84 3d dc 99 3c 3d
       0.14790107 -0.19796367 0.0649335 0.04604517
000160 21 0a 9e bc ca 35 52 bd 5f 74 40 3e d5 37 ca 3c
       -0.01929194 -0.05132083 0.18794392 0.024684826
000170 ff 29 19 3e f1 67 42 3e 7e 03 41 3e 84 aa 77 3e
       0.14957426 0.18984963 0.18848988 0.2418614
000180 43 d5 10 3e 10 09 22 3d 62 9e a6 3e fb 54 96 3e
       0.14143853 0.039559424 0.32542711 0.2936171
000190 2a 94 b2 3e 39 5a 96 3e a4 04 b0 bd b0 76 a5 3e
       0.34878665 0.2936571 -0.08594635 0.32317114
0001a0 51 f9 8b 3e 89 3f 19 3f 2e ea 00 3e 05 e8 2a 3e
       0.2733865 0.5986257 0.12589332 0.16690071
0001b0 e3 16 81 3e ec ee 91 3e dd 17 c6 3d 6b 4b 92 3e
       0.25212774 0.28502595 0.0967252 0.28573164
0001c0 e8 a2 4a 3d 8c b4 eb 3e 96 0c 8b 3e 7e 17 90 3e
       0.049471766 0.46036184 0.2715804 0.28142923
0001d0 53 ef a7 bb 78 1e ef 3d 1d cc 1e 3e 57 d1 12 3e
       -0.005124965 0.11675733 0.1550755 0.1433767
0001e0 e5 e5 dc bd 73 9c 25 3e ee bd 3a 3e 33 83 17 3d
       -0.107860364 0.16172962 0.18236515 0.036990356
0001f0 7c 73 45 bd 67 96 b9 be 1e c6 11 3e d5 69 80 be
       -0.048205838 -0.3624756 0.14235732 -0.25080743
000200 2a 4e 90 3e ce 14 e7 bd 98 c0 cf 3d 4b 3b 9b bb
       0.28184634 -0.11283265 0.10144156 -0.004737293
000210 31 00 d7 bc 46 f9 38 3e 86 c0 b2 3d 01 f1 9e 3e
       -0.026245208 0.1806384 0.08728127 0.31043246
000220 f7 b4 0b be cb e5 a9 3e 1c 99 7f 3e f3 a6 f4 3d
       -0.13643251 0.3318313 0.2496075 0.119459055
000230 42 da 93 3e 7e 61 4c 3e 63 7d 21 be e3 86 e1 bd
       0.28877455 0.19959065 -0.15770487 -0.11012056
000240 dd 54 b1 be a8 54 f8 3e 98 54 51 3e 16 4a 88 3e
       -0.34635058 0.48502088 0.20442426 0.26619023
000250 2e ce da bd b6 fb 9e 3a d5 24 94 be dd 0a 04 3d
       -0.10683857 0.0012129459 -0.2893435 0.032236923
000260 14 d9 41 3d d9 8f bf 3e 52 fc bd 3e 5e 9c 0b 3e
       0.047326162 0.37414435 0.37106568 0.13633868
000270 f0 d5 3b 3e c4 68 6a be ef 75 ad 3d 40 07 50 3e
       0.1834333 -0.22891527 0.0846976 0.20315266
000280 ab bd 83 3e d5 23 a3 3e 0d e4 32 3e f7 28 b9 3d
       0.25730643 0.31863275 0.17469807 0.090410165
000290 5f 71 4b bd 4c 39 f9 3e 14 29 bf 3e 72 0c 85 3e
       -0.049668666 0.48676527 0.37336028 0.25986058
0002a0 7f c5 71 3e 13 06 df bc c1 c8 25 3e 6f 9a 78 3e
       0.23610495 -0.027224576 0.16189863 0.24277662
0002b0 e7 4d 9c bd 6a 7f 57 3e 15 be ea 3d 74 e0 20 3e
       -0.07632046 0.21044698 0.114620365 0.15710622
0002c0 97 d1 b5 bd cc ab b4 bc a0 29 2a be 3a 53 42 3e
       -0.08877867 -0.022054575 -0.16617441 0.18977061
0002d0 52 18 a1 bd 12 b0 6b be 28 bd 1a be 9d 78 fe bd
       -0.07865967 -0.23016384 -0.1511122 -0.12425349
0002e0 85 88 8d 3d 7b 26 0a 3e cc c1 62 3c 9a 93 35 3e
       0.06910805 0.13491242 0.01384015 0.17732087
0002f0 4a 7d 6e bc 39 ee 55 be 50 82 ae bd 24 4f 74 be
       -0.014556238 -0.20891656 -0.08520949 -0.23858315
000300 06 b2 0f 3e 2e 98 7c be 06 20 1c 3e b0 26 b9 3d
       0.14032754 -0.24667427 0.15246591 0.09040582
000310 18 e1 3b 3c 57 71 2f be df 59 84 be d5 df f3 bd
       0.011467241 -0.1713308 -0.25849816 -0.11907927
000320 e1 28 2f be e9 03 22 3d de 76 6f be 52 82 09 3d
       -0.17105438 0.03955451 -0.23385188 0.03357155
000330 8d 4e 48 be b9 6c a1 bc 80 34 2c be 9e 0e 3b 3e
       -0.19561215 -0.019705163 -0.16816902 0.18267295
000340 72 c1 59 be 38 ff 39 3e a7 f9 9a 3b f3 6c 75 be
       -0.212652 0.18163764 0.004729468 -0.23967342
000350 71 5b 40 3d c8 62 21 3d 3c a9 bb bd 76 90 18 3e
       0.046962205 0.039400846 -0.09163138 0.14898857
000360 90 b9 c9 3d 0c b9 27 be ca 57 36 bd 32 6e 25 be
       0.09849846 -0.16379184 -0.044517316 -0.16155317
000370 de 77 82 3e 60 11 67 3e aa fa a0 be cb 3d dc 3d
       0.25482076 0.22565222 -0.31441242 0.107539736
000380 a7 65 ef 3c 96 eb c5 3e e0 30 84 3e 5f b8 e9 3e
       0.029223276 0.386563 0.2581854 0.45648476
000390 a9 36 a0 3d 61 84 90 3e 88 c6 66 be 9a 1e 15 3e
       0.078229256 0.28225997 -0.22536671 0.14562455
0003a0 be 5e 7c be a4 0b eb 3e 43 67 8a 3e 02 ab d2 bd
       -0.24645516 0.4590732 0.27031907 -0.102865234
0003b0 34 a1 37 3e 88 4e 86 be 65 dd 25 b9 f1 73 92 3e
       0.17932588 -0.2623179 -0.00015818102 0.2860408
0003c0 9c 2a 07 3e ce ff bd 3e a2 30 dc bd 5b be cb bd
       0.13199848 0.37109226 -0.107514635 -0.09948417
0003d0 82 6a 84 3d 27 88 1b 3f d3 a1 ae bc de 68 b7 3e
       0.06465627 0.60754627 -0.021317398 0.35822195
0003e0 44 81 66 3e c9 42 8b 3e 74 2c be be 8a 4d 98 bc
       0.22510248 0.2719939 -0.3714329 -0.018591661
0003f0 5c 46 7c 3d 0d c4 0e 3d 96 d0 c0 3e 9f 1b 52 3d
       0.061590537 0.034854937 0.37659138 0.051295873

fc2.bias f4 [20]
000000 f1 cf ba bc fe 5b 2a 3d 7c 0b b6 3d 82 10 74 be
       -0.022804232 0.041591637 0.08888909 -0.23834422
000010 f2 99 38 3d d1 c9 98 3e 7d 76 df 3b 59 24 ae 3e
       0.04506869 0.29841474 0.006819545 0.34012106
000020 2f 57 03 3e 4a e9 2f 3d cc 1e 11 be 6c d8 4e 3e
       0.12826227 0.04294709 -0.14171904 0.20199746
000030 5b fe 6e 3e 3f e5 ef bd 14 0f 93 3d d3 ec 2b be
       0.23339216 -0.11713647 0.0718061 -0.1678956
000040 e2 8f a0 3e 7f ff 2f be c2 22 87 3e 51 45 51 be
       0.31359774 -0.17187308 0.26393706 -0.20436598

fc3.weight f4 [20, 20]
000000 4b f3 a3 3e ce ee 23 be 98 9e a1 3d 37 aa 6b be
       0.32021555 -0.16009066 0.078915775 -0.2301415
000010 23 69 b6 3b cd 5b 03 3e 0c d1 15 be 80 3e 26 bd
       0.0055667325 0.12827988 -0.14630526 -0.04058695
000020 43 3d 25 3e b3 04 0b 3e 0e a3 fd bc 51 55 a7 3e
       0.1613665 0.13576011 -0.03096154 0.3268228
000030 83 54 a8 3e ae c5 29 3c fb ba e0 bd 50 a2 a8 3d
       0.32876977 0.010362072 -0.10973164 0.08234084
000040 26 f4 48 3e d9 39 12 be 0d b0 21 3e e8 89 8e bd
       0.19624385 -0.1427988 0.15789814 -0.06959897
000050 8c 14 06 3f 2f 6c 40 be ae 72 53 bd 96 3d ef 3c
       0.523751 -0.18791269 -0.05162304 0.029204171
000060 a5 bc 5c 3d 93 6c 87 bd a6 cc 54 be ee ae c8 3e
       0.053890843 -0.06612506 -0.20781192 0.3919596
000070 ea 9f 39 3e 12 84 d4 bd af 73 0f 3e 18 e1 9f 3e
       0.18127409 -0.10376753 0.14008974 0.3122642
000080 12 91 b3 3d 3e 00 03 3e 25 a2 72 bd 24 b3 b7 3e
       0.08767904 0.12793061 -0.059236664 0.3587886
000090 ed 05 97 3e 5f a6 52 be f3 b8 0e 3e ee d4 01 be
       0.2949671 -0.20571278 0.1393774 -0.12678882
0000a0 50 7e 3b 3e 1c 99 ab bd 5e 68 0a 3e 4c 90 40 be
       0.18309903 -0.08378813 0.13516375 -0.18805045
0000b0 06 fa 7a 3e 88 0d a0 3e d9 b9 36 be 92 90 9a 3e
       0.24509439 0.31260324 -0.17844333 0.30188423
0000c0 d6 20 a1 3e a5 5f 53 be 6c e3 0c 3d 10 bc c6 3e
       0.31470364 -0.20641954 0.034396574 0.38815355
0000d0 f7 a8 d2 3e ab 8e 46 be 47 6d af bd 7f da 88 3d
       0.41144535 -0.19390361 -0.08565765 0.066823
0000e0 b3 2c b8 3c 26 cd 07 3d 7e 60 1e bc 1f 43 ec bd
       0.022482252 0.03315463 -0.00966656 -0.1153624
0000f0 23 9a 6d bd e6 f9 32 be 30 5f dd 3c 15 e0 de bd
       -0.058008324 -0.17478141 0.027022928 -0.10882584
000100 5a 0e 06 be cd d6 4d be 68 f4 41 be 09 e7 53 bd
       -0.13091412 -0.20101471 -0.1894089 -0.051734004
000110 da b3 1d be d7 d6 88 bd 8b 26 f3 3b 0c 68 19 3e
       -0.15400639 -0.066816024 0.007420366 0.14981097
000120 61 0a c5 3d 62 d8 7d bc 40 53 20 3c bf fe b9 3d
       0.0962112 -0.015493484 0.009785473 0.09081792
000130 f7 01 f8 3d 5d 52 ac bd 46 61 93 bd 08 1c 35 be
       0.1210975 -0.08414147 -0.07196288 -0.17686474
000140 99 86 dd 3d 90 b5 ab bb 0b 97 29 be a2 cb 1f bd
       0.10816688 -0.00524015 -0.16561525 -0.03901256
000150 c9 75 e6 bd 82 0a b7 3d 5f a3 08 3c ec cf 1d 3e
       -0.112529345 0.08937551 0.008339732 0.15411347
000160 38 ce 22 be 2e 0d 47 3e a0 6f 5c be 03 ac df 3d
       -0.15898979 0.19438621 -0.21526957 0.109214805
000170 81 9e 5b be 7f aa 57 be a9 39 50 be 35 16 a7 bd
       -0.21447183 -0.21061133 -0.20334496 -0.081585325
000180 74 e5 42 bd 5c 88 91 bc 92 7b e8 bd fd 03 17 be
       -0.047582105 -0.017765217 -0.11351694 -0.14747615
000190 5d 48 15 bf 39 22 1b 3d a1 31 7d be 51 2e 33 3e
       -0.5831354 0.037874434 -0.24725963 0.17498137
0001a0 c5 56 38 3e bf b2 39 be 7e 72 7e 3e b2 b8 87 be
       0.1800185 -0.18134592 0.24848363 -0.265081
0001b0 a6 11 a2 3d d9 e3 b7 3d 47 97 81 3c ef 80 74 be
       0.079135224 0.08979005 0.015819205 -0.2387731
0001c0 7c c2 a3 be fe 75 11 3e b4 9d 86 3e d0 93 d9 bd
       -0.31984317 0.14205167 0.26292193 -0.10623896
0001d0 b7 75 af bd c7 d7 53 3e 2c c0 1d be 28 13 ff 3d
       -0.08567374 0.20687781 -0.15405339 0.12454826
0001e0 94 40 01 3f 49 a3 c9 bd 1a a3 a8 3d 9b 5a 0e be
       0.50489163 -0.09845597 0.08234234 -0.1390175
0001f0 4e ac d0 3d 13 a5 9a 3e fb 52 90 bd 72 bf 70 3e
       0.101891145 0.30204067 -0.07047077 0.2351053
000200 5e 89 7e 3e 60 ca fc bd 42 53 5d 3d 18 1f 08 3e
       0.24857089 -0.123432875 0.05403448 0.13293111
000210 78 07 e5 3e ac 04 91 bd 46 e9 85 be f8 8f 2d 3e
       0.4473226 -0.07080969 -0.26154536 0.16949451
000220 e5 eb 2f 3e b0 f5 90 be f6 24 c1 3e 2f e9 40 3e
       0.1717983 -0.28312445 0.3772351 0.18838952
000230 62 49 d9 3d dd 32 46 3e d1 e0 f0 3d d8 7e 3d be
       0.106097 0.1935534 0.1176163 -0.18505418
000240 b6 d6 40 3c 35 c4 b9 3d 61 1b f1 3d ba f6 0c be
       0.011769941 0.09070627 0.117728 -0.13765994
000250 7e 5a 83 be 72 0c b4 3d 60 3e 5b bc 36 03 5e be
       -0.25654978 0.08791436 -0.013381571 -0.21680912
000260 ef bd 70 be c0 6d 95 3d 65 4d fb bc b7 99 ee 3d
       -0.23509954 0.07296324 -0.030676553 0.116504125
000270 f9 61 1f be d7 43 a3 bd 15 9a cd 3d 0a 47 21 3e
       -0.15564717 -0.07971924 0.100391544 0.15749756
000280 02 5d d7 be e2 e5 ca ba 96 a0 47 3d e0 cd db 3d
       -0.42063147 -0.0015479887 0.04873713 0.10732627
000290 6d cc 71 3e de b5 78 3d b0 1d fd 3d 59 d7 7f be
       0.23613138 0.060720317 0.12359178 -0.24984492
0002a0 42 6f 16 bd b2 25 f5 bd aa 86 0c 3e 0f 4b 08 be
       -0.036727197 -0.119700804 0.13723245 -0.13309883
0002b0 0f bf 84 be e2 27 9f 3e 00 8c 2f 3e db 89 aa bd
       -0.25927016 0.31085116 0.1714325 -0.08327075
0002c0 6c 85 06 3e 73 50 6a 3e 68 1f 95 bd 8d a9 0c 3e
       0.13136834 0.22882251 -0.07281381 0.13736553
0002d0 41 1a 62 3e bf d6 d8 3c e5 93 1e 3e 30 db 02 bd
       0.22080328 0.026469586 0.15486105 -0.031947315
0002e0 2a e4 8f 3e c2 0a 86 3e c8 db 31 3e 52 a8 46 3e
       0.28103763 0.26180083 0.17368996 0.19400147
0002f0 a2 6d 4d 3e d6 36 81 bd fa 78 a6 bd 0a 8e b7 3e
       0.20061353 -0.06309287 -0.08128543 0.35850555
000300 df 79 85 3e a4 87 bb 3d aa 79 a0 3e 1f bb 8d 3d
       0.26069543 0.09156731 0.31342822 0.06920456
000310 6d b5 a0 3e 80 f7 90 3e d3 b1 57 3e f0 c2 2a be
       0.31388417 0.28313828 0.21063928 -0.16675925
000320 8c d6 45 3e a0 fd 74 3d ed af 5e bd ce cd 4a be
       0.19320124 0.05981219 -0.054366995 -0.19805071
000330 f6 aa 04 3e e8 e6 4c be c5 8a 18 3e b0 2b 82 3b
       0.12955841 -0.20009959 0.14896686 0.003972493
000340 b7 8a 2e 3e 2d 4b c1 bc 11 0d 15 3e d4 24 e0 bd
       0.17045103 -0.023595417 0.14555766 -0.109445244
000350 6c 0d ac bd d9 fb 4d 3e 4a 7d 6e be 89 d1 34 3e
       -0.084009975 0.20115604 -0.23289981 0.17658056
000360 4d b2 74 3d ea 30 d2 bc 4b ae 3f bc c4 be 8e bd
       0.059740353 -0.02565809 -0.0116992695 -0.069699794
000370 be 6d 8e be 8a 5a e7 3c 50 27 3b be cc a1 a8 3e
       -0.27818102 0.028241415 -0.18276715 0.3293594
000380 1d 6f a8 3e 9f a2 33 3e 7a fb 2a 3e cf 30 b3 bd
       0.32897273 0.17542504 0.16697493 -0.08749544
000390 60 c8 e9 3d 15 0e b3 bd b1 50 5f be 99 c8 44 be
       0.114151716 -0.0874292 -0.21808125 -0.19217147
0003a0 70 a3 a2 bd df 1a 4f 3e 68 e6 51 3e bc d3 d5 bd
       -0.079413295 0.20225094 0.2049805 -0.10440776
0003b0 3b 22 e5 bd c5 4c 9c 3e 12 62 2d be f5 f0 c8 3d
       -0.111881696 0.3052732 -0.16931942 0.09811584
0003c0 12 8d bb 3e 4b 7a e5 bd 55 55 52 3d 76 a2 1e be
       0.36631066 -0.11204966 0.05135091 -0.15491661
0003d0 7a e9 1d bd 94 53 cc 3d c8 2d 1b bd 14 a8 5e 3d
       -0.03855274 0.09976879 -0.037885457 0.05435951
0003e0 88 31 33 bd 7b 33 cb 3d 62 6a 2b be c7 d5 a3 3d
       -0.04374841 0.099219285 -0.167398 0.07999759
0003f0 5e aa b9 3e 8c 2b 18 be 07 fb c1 3c a3 af 8a 3d
       0.36262792 -0.14860362 0.02367927 0.06771781

fc3.bias f4 [20]
000000 34 cb 82 bd a4 8d ab 3e 79 52 af 3e 60 36 54 be
       -0.06386414 0.335065 0.3424261 -0.20723867
000010 36 31 b2 bd 78 71 b6 3c 4b d1 7c bc 4f 19 09 3e
       -0.087007925 0.022270903 -0.015430759 0.1338856
000020 c4 f8 af 3c 00 4f a4 3d 72 5f 2b be f0 f0 74 3e
       0.021480925 0.080228806 -0.16735628 0.23920035
000030 af d6 96 3e 32 4f a5 be 1f 07 61 bd 4e 06 0e be
       0.29460666 -0.32286984 -0.05493843 -0.13869593
000040 65 f5 bf 3d 81 59 1e 3e 2a 2b 91 3d 86 44 04 3e
       0.09372977 0.1546383 0.07088311 0.12916765

fc4.weight f4 [20, 20]
000000 07 50 67 3d 0f 82 1a be d2 95 3c 3e d2 f6 c0 3d
       0.056472804 -0.15088676 0.18416527 0.09422077
000010 dc 8c 62 3e a2 6f a5 bb 2c 60 76 3d 8b ea 9d bc
       0.22124046 -0.005048708 0.06015031 -0.019276878
000020 91 b5 21 3e 95 39 41 be b5 ba 25 3c c9 a5 47 3e
       0.15791918 -0.18869622 0.010115315 0.19496836
000030 37 da db bd 9d 00 47 be 93 cf fa bc 6a 76 72 be
       -0.107349806 -0.19433828 -0.030616557 -0.23677984
000040 17 c6 38 3c a1 ab 01 3e b5 c4 ea bb e5 1d 60 be
       0.011277697 0.12663127 -0.0071645626 -0.21886404
000050 21 78 b2 3d 89 aa e5 3e 12 c0 27 3e dc 02 0b 3e
       0.08714319 0.4485667 0.16381863 0.1357531
000060 06 f5 ac 3d f1 15 46 be af 23 b4 3e 64 e5 33 be
       0.08445172 -0.19344307 0.35183474 -0.17567974
000070 ca 1d 05 3e 20 ec 83 3e 7b 46 5a bc a7 e2 a6 bd
       0.12999645 0.25766087 -0.013322468 -0.08148699
000080 1a 3c 31 3e 04 90 4a 3d 9d dc cc bd a2 71 af bd
       0.17308083 0.04945375 -0.10003016 -0.085665956
000090 3e c8 08 3f 7f 4a 2e 3e f8 e4 58 bd 54 ad 3a be
       0.53430545 0.17020606 -0.052952737 -0.18230182
0000a0 12 52 08 3f f7 a1 ca 3c 3d c4 cd 3e db ca 19 3e
       0.5325023 0.024735434 0.4018878 0.1501879
0000b0 68 31 d1 bb 44 ff 2b be 87 58 a9 3e e2 3c 9d bd
       -0.0063840635 -0.16796595 0.33075354 -0.07677628
0000c0 98 20 92 3e 79 1e 8f 3e da 0e 8e bc 05 a4 54 3e
       0.28540492 0.27952936 -0.017341066 0.20765693
0000d0 e7 11 ae 3d fa 71 16 be ec 8b 27 3c bd 10 a6 bd
       0.08499508 -0.14691916 0.010226231 -0.08108661
0000e0 9d 7b b2 3e 66 83 0d 3e 4b ec bb bd 86 69 98 3e
       0.34859934 0.13819656 -0.09175929 0.29768008
0000f0 fa 3e 65 3e f3 68 f2 3e 9d 68 96 3e 5d 07 1c be
       0.22387305 0.47345695 0.2937669 -0.15237184
000100 79 14 ed 3b 38 59 39 3b 17 5e d5 3e fc 51 ea 3d
       0.0072351065 0.0028281938 0.41673347 0.114414185
000110 51 a9 2c be 8c ba 0d 3e d8 29 c3 bd 8b d8 18 be
       -0.16861464 0.13840693 -0.095294654 -0.14926355
000120 04 e2 3d 3e 1d 54 73 be be 80 06 be 11 d2 1d bd
       0.1854325 -0.23762555 -0.13135049 -0.038530413
000130 d6 0d 2b 3e d4 76 48 3e a6 10 c1 bc 60 0e 1f 3e
       0.16704497 0.1957658 -0.023567509 0.15532827
000140 da e8 84 3e e1 00 86 3d ff 5e cf 3d 9c 6b b6 3b
       0.25958902 0.065431364 0.10125541 0.0055670273
000150 a6 66 7b 3d d4 c4 ae be 10 ef b8 3e fa 9a 81 bc
       0.06137719 -0.34134543 0.3611989 -0.015820969
000160 30 0c 1b 3d 06 64 ef 3d a7 ce 13 be fe e7 5c bc
       0.03785342 0.11689 -0.144343 -0.013483046
000170 6f 43 84 3e fd 2f 25 3d be aa aa bd 0c 0a 13 be
       0.25832698 0.04032897 -0.08333348 -0.14359301
000180 8d 23 c5 3e bd a0 c6 bc b2 8d a7 3d 06 11 ee bd
       0.38503686 -0.024246568 0.08181323 -0.11624341
000190 41 6f d3 be fa c9 87 be 4c 8b 6b bc 58 00 9d 3d
       -0.41295817 -0.26521283 -0.014376473 0.07666081
0001a0 04 5c d6 3d 33 76 e9 3e 5f d0 20 be b4 14 e6 bd
       0.10466769 0.4559799 -0.15704487 -0.112344176
0001b0 a1 25 c2 3d 9e 7d 45 3e aa 64 5a bd 10 9d a5 3e
       0.094798334 0.192862 -0.053318657 0.32346392
0001c0 59 49 b1 bc d8 e8 d2 3e 5a e6 9d bc f7 50 f7 3d
       -0.02164142 0.4119327 -0.01927488 0.1207599
0001d0 92 9e e5 be b9 be b8 bd e1 95 0a 3e 65 b3 2c 3d
       -0.44847542 -0.090207525 0.13533737 0.04216327
0001e0 91 e1 60 3e 04 89 8f 3d a6 b4 03 3e 78 80 3a 3d
       0.21961047 0.070085555 0.1286188 0.045532674
0001f0 dc ab 49 3d 98 b7 80 be c0 04 7a 3e b1 ef a4 bb
       0.049236163 -0.2514007 0.24415874 -0.0050334563
000200 e2 b4 31 3e 9e 12 a3 bc 2d e9 ff bd c4 f0 8e 3e
       0.17354158 -0.019906338 -0.124956466 0.27918065
000210 d0 1d 44 3d a5 b2 86 3d 22 45 fa 3d 3e 88 e2 bd
       0.047879994 0.065770425 0.12220217 -0.110611424
000220 a8 c1 a1 3e e1 ee 9e 3d 64 67 c4 bd b1 82 86 3e
       0.3159306 0.07760406 -0.09590033 0.26271585
000230 b9 58 01 be 1b 47 18 3e 61 9c 5f be d6 a1 de bd
       -0.12631501 0.14870875 -0.21836998 -0.108707115
000240 f0 a8 2a 3e c1 09 32 3e d4 41 d7 bd 83 75 34 be
       0.16666007 0.17386533 -0.105106026 -0.17622952
000250 9a 23 4e 3e 95 8d 7a bd f9 21 4e bd 3b 35 4e be
       0.20130768 -0.06117018 -0.050325368 -0.20137493
000260 4a 29 ac 3c 77 8b f0 bd 65 72 c3 3d 64 8e 62 be
       0.021015782 -0.11745351 0.095433034 -0.2212463
000270 0e 9f 44 be d2 96 58 be 6b 82 b8 3d 26 46 8d 3d
       -0.192013 -0.21151283 0.0900925 0.068981454
000280 cb 68 bd be 96 3a cb 3d b5 ce 75 bd ca 8c 43 3e
       -0.36994013 0.09923284 -0.060011584 0.19096676
000290 37 54 d5 3b 88 4a ca 3e 37 a9 d5 be 0e de df 3d
       0.0065102833 0.39509988 -0.41730663 0.109310254
0002a0 3d 54 34 3d 7d 53 24 3e c6 19 cd 3d 40 db 3b 3e
       0.04402565 0.16047473 0.100146815 0.18345356
0002b0 8b b3 bc 3d 08 54 50 3e 5c e1 18 be 59 7e ca 3e
       0.092139326 0.20344555 -0.14929718 0.3954952
0002c0 12 3a 7f be 16 72 55 3e e7 f0 d5 3d 24 e2 e9 bc
       -0.24924496 0.20844302 0.10446339 -0.028550215
0002d0 fc b4 d3 bd b0 8d 16 bd f1 3b d4 ba b6 62 03 be
       -0.103372544 -0.036756217 -0.001619218 -0.12830624
0002e0 df 08 f2 bd 2e 9a fe 3d 87 c1 f6 bd ff 35 63 bc
       -0.11818098 0.12431751 -0.12048631 -0.013867854
0002f0 5e 87 ad 3e e7 b2 3d 3e d7 e5 16 3e d9 3c dd 3d
       0.3389234 0.18525277 0.14736114 0.108026214
000300 d9 4b 2e 3d e8 0a 40 3e c6 c1 42 3e ea 24 80 3e
       0.042552803 0.1875416 0.19019231 0.25028163
000310 8f 9d 7d 39 97 ec b0 3e ae 8d 36 bd f9 41 92 3e
       0.00024186655 0.34555504 -0.04456871 0.28565958
000320 72 65 d1 3e b8 26 78 3e d7 24 c0 3e 36 bd 39 3e
       0.4089771 0.2423352 0.37528107 0.18138584
000330 b5 c8 1d be 9f d6 aa be 97 01 0f 3f a6 f7 17 be
       -0.15408595 -0.33366868 0.558618 -0.14840564
000340 9f 5d 35 be aa 1d 27 3e 43 65 72 bd 7a 57 77 3d
       -0.17711495 0.1631991 -0.059178602 0.06038616
000350 6c ae d6 3e db 7d ac be 01 27 91 3d 58 77 59 be
       0.41929948 -0.3368977 0.070875175 -0.21236932
000360 59 2c 0a 3f 2b 91 f8 bd b0 4d fb bd 05 c5 40 bd
       0.5397392 -0.121370636 -0.12270677 -0.047062892
000370 cb a2 9c 3d c4 09 44 3e f6 dc f3 bc 6d ca ff bd
       0.07648238 0.1914435 -0.029768448 -0.124897815
000380 6a 80 a4 3d ed 66 5f be 03 77 61 3d b8 c1 26 be
       0.080323055 -0.21816607 0.05504514 -0.16284835
000390 7d 57 41 3e 16 7f 1b be 72 ef 07 be 38 ad 49 bd
       0.1888103 -0.15185198 -0.13274935 -0.04923746
0003a0 e3 de 3d be 77 91 40 be d1 86 58 3e 22 5b 60 bc
       -0.18542056 -0.1880549 0.21145178 -0.013693603
0003b0 ce b4 b0 bd ba 19 7a 3d 7c 08 0f 3e 5c ba fd 3d
       -0.08628236 0.06105969 0.1396808 0.12389061
0003c0 36 32 a6 3d e0 cf 1e 3d 16 22 ed bc 62 4f e7 3c
       0.08115046 0.038772464 -0.028946918 0.028236095
0003d0 03 4f 3f be d2 16 01 bd 08 bd ba bd b5 c1 d2 bd
       -0.18682484 -0.031515904 -0.09118086 -0.10290853
0003e0 0f f4 c3 3d 92 7b cc bd 83 64 91 3d 6b f5 bd 3c
       0.09568035 -0.09984507 0.07099249 0.023188313
0003f0 04 c7 3b 3e f7 20 ce bd bd 11 d7 3d 76 6c 0b 3e
       0.18337637 -0.10064881 0.1050143 0.13615593

fc4.bias f4 [20]
000000 3b 93 72 3d 89 81 0b 3e 2f 2f 29 3e ec ac bc bd
       0.05922244 0.13623632 0.16521905 -0.0921267
000010 cb 45 9d bd 55 0a fe bd 7c 7e 7e 3e 3f b9 bf bd
       -0.076793276 -0.124043144 0.24852937 -0.09361505
000020 7c 70 23 3e 96 03 f3 3d 72 23 be 3d b8 f4 25 be
       0.15960878 0.11865918 0.092841044 -0.16206634
000030 fe c3 2c bd 63 88 86 3d 7d 6f 44 be 39 f6 d1 3d
       -0.0421791 0.065689825 -0.19183154 0.10252041
000040 70 fd bf bd d6 34 1c 3e bb 9a d1 bd 5d 2a a8 bd
       -0.09374511 0.1525453 -0.102345906 -0.08211205

fc5.weight f4 [20, 20]
000000 fd a0 3d 3e ef 31 6e bd 30 c9 32 3e 4b a9 8b bd
       0.18518443 -0.05815309 0.1745956 -0.068193994
000010 b5 58 60 be 68 a2 06 3c d6 85 e8 bd 40 52 8d 3d
       -0.21908839 0.008217432 -0.11353652 0.069004536
000020 c4 9a 14 bc 47 a6 69 be dd 54 11 be 23 b9 7e bd
       -0.009070102 -0.22817336 -0.14192529 -0.06218828
000030 2c eb bc 3d eb ec 38 be a2 b1 c3 bd ad 50 5f 3d
       0.09224543 -0.18059127 -0.09555365 0.054520298
000040 7f 2e e3 bc ea cd b6 3d 3d 54 e5 3d b0 c2 1d be
       -0.027732132 0.08925994 0.11197708 -0.15406299
000050 aa d3 20 3e e1 51 6d 3e f1 72 b6 3d 08 4e a1 3d
       0.15705743 0.23175766 0.08908642 0.078762114
000060 4a c9 f6 3d 48 57 82 be 6e a2 32 bd f1 b5 4c bd
       0.120501116 -0.25457215 -0.043611936 -0.0499782
000070 3f 59 88 3c 42 4c 98 3c 1d 1c 59 3e 24 ab bc 3d
       0.016644118 0.01859105 0.2120213 0.0921233
000080 20 55 bd bb 9e 67 08 be 1e 1f 4c 3d 0c 0f 77 3d
       -0.00577797 -0.13320777 0.049834363 0.060317084
000090 4d f7 f4 3c 78 2c 2b 3d 56 2f 51 bd b1 a1 8f 3e
       0.029903078 0.041790456 -0.051070534 0.28053048
0000a0 30 ce 65 bd 49 39 2e bd d0 d3 2d 3e 7b e3 a4 3e
       -0.05610484 -0.0425351 0.16975331 0.32204804
0000b0 f5 3b d8 3e 8b 22 79 bd 5c 88 54 3e 93 53 c8 bd
       0.42233244 -0.06082396 0.20755142 -0.097815655
0000c0 ec 8d 68 3e d5 fc 72 3e e7 8b c8 3e ce dc 39 bd
       0.22710389 0.2372926 0.39169237 -0.04537659
0000d0 61 92 41 be 37 95 8e bd 11 bb 6a be 18 72 a0 3d
       -0.18903495 -0.06962054 -0.22922923 0.07834262
0000e0 d2 ef 86 3d 61 23 20 3e f6 8a 2b 3e 0b 5d 3d 3e
       0.06588711 0.15638496 0.16752228 0.18492524
0000f0 ea e9 09 be c8 bf 51 be 3d 02 a2 bd 3d 0d 64 3e
       -0.13468137 -0.20483315 -0.07910583 0.22270675
000100 6d 6b ae bc f4 80 63 be 66 21 1a be c8 03 44 be
       -0.021291459 -0.2221716 -0.15051803 -0.19142067
000110 57 cc 05 3e b5 5d 3f bd 34 2f 06 be db ab b7 bd
       0.1306623 -0.046720225 -0.13103944 -0.08968326
000120 c9 61 dd bd 3c d9 01 3e 65 44 65 3d 64 70 d5 bd
       -0.10809667 0.12680525 0.05597343 -0.104218274
000130 1a a2 3f be 88 00 3c 3e 38 a1 56 bd c8 7d a9 bb
       -0.1871418 0.18359578 -0.052399844 -0.005172465
000140 87 d6 0c be 64 68 45 3e 90 4e e1 3d f5 03 34 be
       -0.1375371 0.19278103 0.11001313 -0.17579634
000150 9e 27 04 3e c4 27 54 bd 97 93 1b be ef cf ca bc
       0.12905738 -0.051795736 -0.1519302 -0.024757354
000160 83 59 a4 3d 25 8c d5 bd 91 aa b6 bd fc 12 11 3e
       0.080248855 -0.10427121 -0.08919252 0.14167398
000170 bf d9 2c 3e 8a 3e 01 3d f0 59 93 bd 5f 59 01 bc
       0.16879939 0.031553783 -0.071948886 -0.007894843
000180 9f 8a 2b ba fd 5a 22 3e 45 31 60 be ea f9 27 be
       -0.00065437885 0.15855022 -0.21893795 -0.16403928
000190 66 21 84 3e 6b 7e 6a 3e a8 6a 3e 3e 47 d1 c5 3e
       0.2580673 0.22899787 0.18595374 0.38636228
0001a0 0b 98 d6 3d c3 2c 5e be e8 53 86 3c 09 7b 45 bd
       0.10478219 -0.21696763 0.016397431 -0.04821304
0001b0 33 04 50 be 16 35 e5 3d 3a 6b da 3e 95 c8 28 bd
       -0.20314102 0.11191766 0.42659932 -0.041206915
0001c0 2a f9 58 bc 33 83 50 3e 5b c0 81 be 9c 20 f5 bd
       -0.013242999 0.20362549 -0.25342068 -0.1196911
0001d0 f2 f7 94 be b6 ec 98 3e 6f 80 14 3e cf bf 1b 3e
       -0.29095417 0.29868096 0.14502119 0.15209888
0001e0 bd fc 2b 3e 45 ce cc bd c6 1d 45 be 57 8c 81 3d
       0.16795631 -0.1000028 -0.19249639 0.06325596
0001f0 9a 8d 1d 3e b4 b4 28 3e 89 f6 57 be cd ed 03 be
       0.15386048 0.16475183 -0.2109014 -0.12883683
000200 ed 2a df 3d 29 12 e1 3d cb 03 a3 bc a1 7d d7 3d
       0.10896859 0.10989792 -0.01989927 0.10522009
000210 33 0d 01 3e c7 6a c9 bc ac 02 01 be 99 9e ab bc
       0.12602691 -0.024587048 -0.12598675 -0.020949649
000220 2d b4 8e 3d d4 85 11 be a1 1c 37 be 62 6a c2 bd
       0.069679596 -0.14211208 -0.17882015 -0.09492947
000230 38 94 72 3d 0d 5d 13 3e 92 3f 28 3e 0d 77 f4 3d
       0.059223384 0.14390965 0.164305 0.1193677
000240 b7 59 a0 bd b5 0e d9 3e f2 77 86 3e b9 9f be bd
       -0.07829612 0.42394033 0.26263386 -0.093078084
000250 85 87 b4 3e a9 f8 96 3e 10 68 d2 be 1b e6 2c 3d
       0.35259643 0.29486588 -0.41095018 0.042211633
000260 69 5e f4 bd 04 fc 4e 3e e5 89 bb 3e cc 3b 11 be
       -0.1193207 0.20213324 0.36628643 -0.14182967
000270 1b d6 f2 3d 37 ec 74 bd b9 85 ac 3d 3c bb 04 bd
       0.118572436 -0.059795585 0.08423943 -0.032405123
000280 ed 82 00 be 59 a4 7d 3e e7 b5 7c 3e b5 0f 1f 3e
       -0.12549944 0.24769725 0.24678765 0.15533336
000290 7a 46 c1 be 74 bf de 3e e8 45 d4 bd 28 59 05 3e
       -0.37749082 0.43505442 -0.10364896 0.13022292
0002a0 94 81 a4 3e 6b 40 60 3e a5 07 90 bd 97 22 f7 3c
       0.3213011 0.21899574 -0.07032708 0.03016786
0002b0 83 c0 44 3e cc 3b f9 3d 63 32 c7 3e bb d6 68 3d
       0.19214062 0.121696085 0.3890563 0.056845408
0002c0 d5 08 c0 3e 89 85 84 3d 86 ef 38 3e 56 3c 3a be
       0.37506738 0.06470782 0.18060121 -0.18187079
0002d0 db 00 e0 bc 15 ab 28 3e c3 19 38 3d db 50 8a 3e
       -0.027344158 0.16471513 0.044946443 0.27014813
0002e0 b4 5f 74 3e a8 22 9e be f8 cf 51 3e a8 21 3a be
       0.23864633 -0.30885816 0.2048949 -0.18176901
0002f0 e0 13 be bd 9b 23 1b 3e 40 c3 ba 3e 60 87 40 bd
       -0.092811346 0.15150301 0.3647709 -0.047004104
000300 f2 e8 29 3d ef ff 9a bd 18 48 8b be f7 02 8b 3c
       0.04148192 -0.07568347 -0.2720344 0.016969187
000310 5f 18 51 be cb e3 a1 bd ec 03 6b bd 42 0c 9a 3e
       -0.20419453 -0.07904776 -0.057376787 0.30087477
000320 d4 12 57 3d b9 c1 23 bb d0 c2 bd bd 1a f5 54 3e
       0.05250819 -0.0024987294 -0.09265673 0.20796624
000330 94 90 44 be d7 be f2 3d f0 a8 ff bd fa 46 80 bd
       -0.19195777 0.11852806 -0.12483394 -0.06263538
000340 f3 d6 c0 3d 8f 9b 6e bd e5 b1 ed 3c ff 0f d2 3d
       0.09415998 -0.05825382 0.02901549 0.10256957
000350 d9 f5 59 be 21 bc 39 be 33 45 dc bd 33 fc 3a 3e
       -0.2128519 -0.18138172 -0.10755386 0.18260269
000360 37 87 dd 3c 44 05 4e be 37 ae 4b 3e fa fc f8 bd
       0.027042015 -0.20119196 0.19890676 -0.121576265
000370 55 9c 43 3e 6c 82 3d be df fe ce bd 69 76 0e be
       0.19102605 -0.18506783 -0.101072066 -0.13912357
000380 6c 51 3a be 9a cd 9c 3e 87 a6 c2 bd 24 ca 30 3e
       -0.18195122 0.30625612 -0.09504419 0.1726461
000390 78 28 5b 3e 9c af 54 bd b7 20 d8 bd 12 1c 2d be
       0.21402156 -0.051925287 -0.10553115 -0.16905239
0003a0 79 8e 59 3d a8 c9 3c 3e 6e e4 c6 3e b7 08 46 bb
       0.05311439 0.18436301 0.38846153 -0.0030217597
0003b0 6f 5f 45 3e 90 09 b3 3d fa 5b 22 3e 1e 32 28 3e
       0.19274686 0.08742058 0.15855399 0.16425368
0003c0 ca 41 09 be 52 5a 45 be 9c c4 7f 3d bf cc 31 bc
       -0.13404003 -0.19272736 0.06244336 -0.010852038
0003d0 77 f1 a5 be ee 08 8a 3e 1a 81 1c be 6d d4 15 3e
       -0.32410786 0.26959938 -0.15283623 0.14631815
0003e0 38 c3 3d 3d 38 45 63 3e b7 68 8a be 72 5b fb 3d
       0.046328753 0.22194374 -0.27033016 0.12273301
0003f0 32 04 29 be 38 76 c8 bd 9a 10 e8 3e 88 ab 4e 3e
       -0.16505507 -0.097881734 0.45325166 0.20182621

fc5.bias f4 [20]
000000 e0 e8 20 3e 8b 83 76 3e 54 0e 28 3c 69 b3 e9 bd
       0.15713835 0.24073617 0.010257322 -0.11411173
000010 b6 75 4c be 1f 5b e1 bd f9 03 2c bd e8 91 f7 3d
       -0.19966778 -0.11003708 -0.041995976 0.12088376
000020 83 93 24 3e d8 69 75 bd 91 94 c9 3d 95 b5 85 3e
       0.16071896 -0.059915394 0.0984279 0.261151
000030 a4 48 38 bc 38 b9 12 3d ab fb 82 3c cf e4 a1 3e
       -0.011247788 0.03582117 0.015989145 0.3161988
000040 62 ec 6e 3d 54 1a a6 3d 60 77 7b be eb ef f5 3c
       0.0583309 0.081104904 -0.24557257 0.030021628

fc6.weight f4 [3, 20]
000000 0e 45 e8 bc 5b 23 96 3e ed d1 81 3e f0 28 53 be
       -0.02835324 0.2932385 0.25355473 -0.20621085
000010 a4 f8 7c 3e d3 93 bf 3e 5a 6f 20 3e 4a 66 3b bc
       0.24704224 0.37417468 0.15667477 -0.011437962
000020 ed 04 1f bd ef 65 b1 3e c7 2a de 3a c5 25 93 be
       -0.038823057 0.34648082 0.0016950005 -0.28739753
000030 5f 95 a2 be 73 b5 b2 3e b0 ce 90 bc 32 4b 58 be
       -0.31754586 0.3490406 -0.017676681 -0.21122435
000040 ce f2 f6 3e a7 76 73 3e 31 66 5e be f4 42 35 be
       0.4823212 0.23775731 -0.2171867 -0.17701322
000050 aa 8a 67 bd c0 98 97 bd 14 4c aa be 37 b9 55 3e
       -0.056528725 -0.074021816 -0.33261168 0.20871435
000060 7c 82 3d 3e 45 e3 14 be 9d 02 61 3e a8 1b 8a be
       0.18506807 -0.14539821 0.21973653 -0.26974225
000070 cc 85 c3 be 99 c8 8d 3a 0f 7e 3b 3e 10 ad 1b 3e
       -0.38188016 0.0010817229 0.18309806 0.15202737
000080 78 8e 37 be 9d 45 b2 bd 25 38 07 3e 61 3d 03 bf
       -0.17925441 -0.08704684 0.13205011 -0.5126553
000090 4f 7a ef bd e7 0d c2 be 12 b8 cb be 05 8b 98 3d
       -0.116932504 -0.37901232 -0.39788872 0.07448391
0000a0 b7 63 ff bb 30 46 0c 3e 93 32 09 3e 67 3b 0e 3d
       -0.0077938694 0.1369865 0.13398199 0.03472462
0000b0 7a f1 7a bd ce cb b3 be 94 54 52 be 12 a0 44 3e
       -0.061265446 -0.35116428 -0.20540076 0.19201687
0000c0 d9 33 29 3e ef 07 75 be 6c 6a 4e bd 80 d3 e6 3e
       0.16523685 -0.23928808 -0.05039446 0.45083237
0000d0 0c 8c f7 3e dc d5 01 bf 86 65 c4 bd 95 21 a4 3c
       0.48349035 -0.5071695 -0.095896766 0.020035544
0000e0 4b 6a e8 be cf 46 a3 3d 1b f1 c8 3d 99 52 3e be
       -0.45393595 0.0797249 0.09811612 -0.18586196

fc6.bias f4 [3]
000000 09 f7 e6 bd 61 0b c0 bd e3 36 e0 bc
       -0.11277587 -0.0937717 -0.027369922
