models_3val/and_or_7.pth (torch, 12162 bytes, 12 tensors)

fc1.weight f4 [20, 12]
000000 b5 33 2c 3e 25 5b 80 3d bf 5f fb 3e 43 25 61 3e
       0.168166 0.062673844 0.49096486 0.2198687
000010 13 ea cc 3d b1 0b 0c 3d 61 f0 a3 bd e1 d2 c8 3e
       0.100055836 0.034190837 -0.08004833 0.39223388
000020 e3 fc 93 3e 05 2a b3 3e c7 3b d9 3e d0 c1 81 bc
       0.28903875 0.34992996 0.4242842 -0.015839487
000030 13 09 84 3d a8 44 bf 3d c9 57 56 3e e5 33 25 bf
       0.06447043 0.09339267 0.20931925 -0.6453231
000040 e0 df 00 bf 78 34 87 3d 1a 52 bd be 5d 6a e5 3c
       -0.50341606 0.066018045 -0.369767 0.02800482
000050 da e8 10 3c 3c 54 80 3c 08 cf 03 3d 64 14 b5 3c
       0.008844579 0.015665166 0.032179862 0.02210445
000060 38 28 93 3d 26 29 19 3e 1f ac b9 3d d1 57 fb 3d
       0.071854055 0.14957103 0.090660326 0.12272609
000070 42 be 9a bd 8e 91 21 bd 0b 26 30 3f 83 03 86 3d
       -0.0755582 -0.039445452 0.6880805 0.065436386
000080 95 be 77 3c fe 83 da 3c 55 6b 2a bd 65 20 4d 3d
       0.015121122 0.026674267 -0.041606266 0.050079722
000090 09 24 36 be 94 e6 54 3d 40 30 6b bd 3f 23 a2 3e
       -0.17787184 0.05197771 -0.05741906 0.31667516
0000a0 3e 3f b6 3e 55 e6 b7 3e 49 1d d8 3e 74 19 70 3e
       0.35595125 0.35917917 0.42209843 0.2344721
0000b0 ab 22 04 3e 8f fd f4 3b b0 ca ba bd b3 e3 ed 3d
       0.1290385 0.0074765156 -0.09120691 0.11615696
0000c0 a4 49 0e 3d e0 58 84 3d 38 54 0f 3d 18 2b f0 3d
       0.034738198 0.06462264 0.034992427 0.117269695
0000d0 f2 14 a0 3d e8 19 25 3e c3 bb c2 3e 87 94 8e bb
       0.07816495 0.16123164 0.38033876 -0.004351202
0000e0 63 be e6 bc 3f 15 03 3e 48 30 81 3e e1 7a db 3d
       -0.028166955 0.12801073 0.25232148 0.10716797
0000f0 0c 02 24 3d 08 82 2d 3d 07 fc 54 3e e4 7f b5 3e
       0.040041015 0.042360336 0.20799266 0.35449135
000100 d0 aa 1e bf 1a 00 45 be 65 f5 c6 3e 03 7c 5b 3c
       -0.6197939 -0.1923832 0.38859096 0.013396266
000110 ec 4d 5c 3c 99 97 05 3c 25 db 07 3c 5f d1 ed 3b
       0.013446312 0.0081538195 0.008291994 0.007257625
000120 84 49 2e 3e 2b 1b 55 bd f3 94 95 3e ac 8a b6 3d
       0.17020231 -0.052027863 0.29215202 0.08913168
000130 71 74 bd 3e 71 c6 0d 3f a0 3a 40 bc dc 06 9e 3e
       0.370029 0.5538092 -0.011732727 0.30864608
000140 25 5f d0 3d d2 bb 8d 3e 15 69 b0 3d 14 d0 02 3e
       0.101743974 0.27682358 0.08613793 0.12774688
000150 f8 d1 8d 3e cc 05 bc 3e 1d fd 4b 3e 59 65 2d 3e
       0.27699256 0.36723173 0.19920774 0.16933192
000160 86 db f0 3e 6f c7 f2 3e 89 31 8c be d3 08 24 be
       0.47042483 0.4741778 -0.27381542 -0.16018991
000170 67 ee 7c 3d 0d fe 67 3e 6b 82 69 be 9d df 92 bc
       0.061750796 0.22655506 -0.22803657 -0.017928893
000180 6c 3e d3 3d 2e 7f c0 3d 87 9a 4a 3e cc b6 23 3d
       0.103146404 0.093992576 0.1978551 0.03996925
000190 ac 9a 52 3e 74 81 31 bf 80 b2 2d bf 51 7b 2e 3d
       0.20566815 -0.69338155 -0.67850494 0.042598072
0001a0 c7 fb 2c 3d fe 29 85 3c a5 78 8c 3c ad 1b 19 3d
       0.0422323 0.016255375 0.017147372 0.03737991
0001b0 14 48 9e 3e 6e d3 19 bd 29 a9 0d 3c d9 fe b7 3e
       0.30914366 -0.03755515 0.008646288 0.3593662
0001c0 30 4d 94 3e a5 80 15 3e 6e bb 45 be 62 9a 2a 3e
       0.2896514 0.14599855 -0.1930978 0.16660455
0001d0 4c 3d c6 bd 21 19 8d bd dd 5e 78 3e 2e 86 97 3d
       -0.0967966 -0.068895586 0.24254937 0.073986396
0001e0 72 f3 95 3c e8 ba ac 3c a8 a2 7d 3d 3e 9d 72 3e
       0.01830456 0.021085218 0.0619227 0.23692796
0001f0 4e e0 88 3e c0 65 1d bf a1 09 1c be 92 90 76 3c
       0.2673363 -0.61483383 -0.15238048 0.015049117
000200 43 de 9f 3c f9 88 13 3c 9f ef 49 3b 22 80 97 3b
       0.019515162 0.009004825 0.0030812991 0.004623429
000210 bb 8a fb 3e 16 97 f2 3e 98 94 12 3f 9e 9e 08 3f
       0.4912928 0.47380894 0.57257986 0.5336703
000220 a2 27 95 3e 09 77 1e 3f f5 f9 56 be 1d ed cd bd
       0.291318 0.61900383 -0.20993789 -0.100549914
000230 05 17 ad be 4d 26 ac be c4 f1 71 bd 8a b5 0d be
       -0.33806625 -0.3362297 -0.059068456 -0.13838783
000240 a1 80 0f bd 56 73 e7 bd be 6d 84 3e b7 41 04 3d
       -0.03503478 -0.113012955 0.25864977 0.032289233
000250 83 1b 9b 3e 40 78 23 3e 42 00 0f 3e cd 0b 2e 3e
       0.30294427 0.1596384 0.13964942 0.16996689
000260 8b 23 0f bd c1 e9 a8 3d 01 5f 08 3e 4c c2 e8 bd
       -0.034946006 0.0824771 0.13317491 -0.11365184
000270 4e e9 4b 3d 98 e4 bf 3d 0d 9f ce bd 9f 06 92 3e
       0.049783044 0.09369773 -0.1008893 0.28520676
000280 21 1b 82 3c 4f 55 20 be ad 0c 8d be 89 69 b1 3e
       0.015882077 -0.15657543 -0.27548733 0.3465083
000290 de ef 2a 3e 24 77 89 3e 2f 15 53 3d 76 81 56 bd
       0.16693065 0.2684871 0.051533874 -0.052369557
0002a0 90 0a 07 3e df fe 92 3e fd b5 a6 3e da c6 00 3e
       0.13187623 0.28710076 0.3256072 0.12575856
0002b0 ba a1 1c 3e 3f a2 9b 3e 18 b6 7e be d6 6e 1a 3e
       0.15296069 0.3039722 -0.24874151 0.15081343
0002c0 5f 8b 9f 3e 2d 55 43 3e dc 3d 84 3e c3 9a 04 3e
       0.3116102 0.1907546 0.25828445 0.12949662
0002d0 72 79 10 3e b1 1e 9e 3d d4 6a 2d 3d ec 02 47 3d
       0.14108828 0.07720698 0.042338207 0.04858677
0002e0 43 a0 7c 3d 7a ec 05 be 7a b3 0e 3f 30 5c 6f 3e
       0.061676275 -0.1307849 0.5574261 0.2337501
0002f0 14 7d 69 3e 97 23 3d ba aa 93 83 bc cf d4 6f 3d
       0.2280162 -0.0007215081 -0.016061623 0.05855256
000300 0f e4 c1 bd 71 82 ab 3d 5d 3d b7 be 30 52 b0 3e
       -0.09467327 0.08374489 -0.35789004 0.34437704
000310 1b 47 1c be 8b d2 22 bd db cb f3 bd 17 2c 43 3e
       -0.152615 -0.03975157 -0.11904117 0.19059788
000320 1d 78 30 be 8b 1e 95 3c cc b4 33 3e 96 2e 67 3e
       -0.1723332 0.01820304 0.17549437 0.22576365
000330 7d 7b 1d 3d 83 2f 11 3e e9 25 e2 3d 90 45 4f 3d
       0.038447846 0.1417828 0.11042387 0.05060345
000340 09 b4 92 3e 77 bc d7 3e c5 3c d0 3d 1b bb 07 bd
       0.2865298 0.42135975 0.10167841 -0.033137422
000350 3c 21 42 3e 8e af c7 bd d4 07 47 3e a0 df 5e bc
       0.1895799 -0.09750281 0.1943658 -0.013603121
000360 08 f8 4b 3e 75 58 10 3e e4 87 09 bc 5d 7b 4f 3e
       0.19918835 0.14096244 -0.008394215 0.20261903
000370 52 17 9a bd ac bd ec bd cc 5a e6 3e 91 4b 1b 3e
       -0.07523979 -0.115596145 0.44991148 0.15165545
000380 c0 75 49 bb 7c c4 73 3e 0d be 45 3e e4 bb 27 bd
       -0.003074035 0.23805422 0.1931078 -0.04095067
000390 d4 48 3f bc 35 a6 12 3c 93 9d 0a be 89 db 2d 3c
       -0.011675078 0.00895076 -0.13536672 0.010611423
0003a0 01 f8 07 bf 7d 4a da 3e d6 1e b2 bd fe 33 05 3d
       -0.531128 0.42634955 -0.08697288 0.032520287
0003b0 f1 ef 44 3d 9c 8b 77 3c 39 86 91 3c 49 c2 cd 39
       0.04808039 0.015108969 0.017764198 0.000392454

fc1.bias f4 [20]
000000 ed b6 b1 3e af ae 80 3d db 8c ef 3d 2a 6f 64 3e
       0.34709874 0.06283318 0.11696788 0.2230803
000010 94 ec a8 be ba 43 3a bc d9 64 a6 be 49 36 79 3c
       -0.32992995 -0.011368686 -0.32498816 0.0152106965
000020 82 51 a7 bc c3 c9 77 bd fa 6d 7e 3e aa d8 2f 3e
       -0.020424608 -0.06049515 0.2484664 0.17172495
000030 9b 88 7d be 1f 2a 90 bd 9b 57 30 3e ab dd 4d be
       -0.24759142 -0.07039284 0.17220919 -0.20104091
000040 18 9e 84 3e 88 94 8d be 78 df 91 be 8b 96 69 3e
       0.25901866 -0.27652383 -0.28490806 0.22811334

fc2.weight f4 [20, 20]
000000 90 d1 28 be c9 af 17 3e 1a 7d 4f 3d 64 29 e1 bc
       -0.16486192 0.1481315 0.050656416 -0.027485557
000010 94 ef 24 bd 30 9c a2 bb 6b 19 c4 bd 20 5a 76 3c
       -0.040267542 -0.0049624667 -0.095751606 0.015036136
000020 e5 82 f6 3d d5 d8 23 bd 87 24 10 3d 40 ee 61 be
       0.12036685 -0.04000171 0.035191085 -0.22063541
000030 49 2f cb bc 92 00 d0 3d fb 34 dc bd e2 ac 03 be
       -0.02480282 0.10156359 -0.10752293 -0.12858918
000040 c6 2d 3e 3d ed 1c 7e be 33 be 60 be ce 6d 47 be
       0.04643037 -0.24815722 -0.21947555 -0.19475481
000050 11 e5 1a 3e e7 61 4b 3e ff 31 fd be 98 ce 31 be
       0.15126444 0.19861566 -0.49452206 -0.17363966
000060 0b 84 14 3b cb cf 88 3e 8d 8c 80 3e db 71 2c 3c
       0.0022661712 0.26721033 0.25107232 0.010525192
000070 21 c2 18 3f a9 4f 6f 3e ec 1b 3d 3d ad 68 5e 3e
       0.5967122 0.23370232 0.046169207 0.21719618
000080 e6 a0 31 be ba 40 44 3e 95 2c cd 3d 91 79 64 be
       -0.17346534 0.19165316 0.10018269 -0.22311999
000090 2a 9d 1d 3b cb aa 5d 3e 0b 87 28 be 17 9e b7 3e
       0.0024049976 0.21647184 -0.16457765 0.358628
0000a0 23 0d 2b 3e c0 ad 9e be 8d 2c e2 3e 59 9d 46 3e
       0.1670423 -0.30991936 0.44174615 0.19395961
0000b0 06 8d ac 3d 49 4a 22 be 07 d1 08 3d 80 0e 45 3d
       0.084253356 -0.1584865 0.03340247 0.04810953
0000c0 a2 2d fd be 42 31 8a be 15 4a a3 be fd da 74 3e
       -0.49448878 -0.26990706 -0.31892458 0.23911662
0000d0 00 2b cc 3c 2e 2e 9e be 5b ef 74 be df 9c 9d 3e
       0.024922848 -0.30894607 -0.23919432 0.30783746
0000e0 47 be 58 bd e4 8b dd 3d bb 76 88 3e 06 c1 c6 be
       -0.052915838 0.10817698 0.26653084 -0.3881914
0000f0 9e cc 96 3e 94 19 7f 3e 58 3e b8 3e b1 0f 2c 3e
       0.29452986 0.24912101 0.35985065 0.16802861
000100 c9 f5 27 bd 89 fc 6d be 96 54 8e 3e 5d d4 a2 3e
       -0.041005883 -0.23240866 0.2779891 0.31802645
000110 97 aa 4a 3e d6 3e 92 3e bc f5 b3 3d 93 2a 95 3e
       0.19791637 0.28563565 0.087871045 0.29134044
000120 ea 29 7e bc 95 9b 8e 3d 4f f2 8b 3e c2 99 c7 bc
       -0.015512923 0.06963269 0.27333304 -0.02436531
000130 cc 77 ac bd ef 80 56 bd 06 57 4a 3e 12 d9 e6 3d
       -0.08421287 -0.052369054 0.1975976 0.112718716
000140 52 72 26 3e 63 02 f0 bd bb fe bf 3c 8b ea 64 bd
       0.16254547 -0.11719205 0.023436895 -0.05588774
000150 98 a8 3c be 39 75 f7 bd 76 c9 6d be 40 f8 4f be
       -0.18423688 -0.12082905 -0.23221382 -0.20309544
000160 ef b8 7b bd be 07 4f bd 40 05 6b be 79 5c 04 be
       -0.061455663 -0.050544493 -0.22951221 -0.129259
000170 34 72 62 be 1f 6a 29 be e0 ba ad bd b9 6f 9b 3c
       -0.22113878 -0.16544388 -0.08482909 0.018974172
000180 89 02 38 3e 1b 46 c4 3c 05 4d dd bd f5 c0 02 3e
       0.17969717 0.02395921 -0.10805706 0.1276892
000190 40 f4 9e 3e 6a 09 c7 be 37 f6 da 3e 2b 1f 44 3e
       0.31045723 -0.3887437 0.42765972 0.19152515
0001a0 c3 57 a2 3c d3 aa e6 bd 73 0c 97 3e 86 4a f7 3e
       0.019817239 -0.11263051 0.29501686 0.48299044
0001b0 20 ad 17 be cf 2a 6a 3e c8 13 c8 be c6 a2 04 3f
       -0.14812136 0.22867893 -0.39077592 0.5181087
0001c0 46 e0 b7 3d 39 f7 85 be c4 8a 11 3e 35 ef 84 bd
       0.08978324 -0.26165178 0.14213091 -0.064909376
0001d0 42 27 a1 be 83 aa a6 3e a0 8a 1b bd b5 c5 27 bd
       -0.31475264 0.32551965 -0.037974 -0.040960032
0001e0 9b 8d 50 3d 45 52 c3 be 40 44 c9 3e 24 95 a1 3e
       0.050916295 -0.38148704 0.39309883 0.31559098
0001f0 70 a6 51 3d 64 8f 32 3e ac 7f 25 3e 83 54 51 3d
       0.051184118 0.17437512 0.16161984 0.051105987
000200 cc a7 b1 be 50 57 44 3e 2f 94 4d be 01 c5 52 bd
       -0.3469833 0.19173932 -0.20076059 -0.05145741
000210 24 51 c3 3d bb 8e 66 be 8c 8f 72 be f6 79 9d 3e
       0.09536961 -0.22515385 -0.23687571 0.3075711
000220 04 ec 5c be be 02 b2 3e 47 79 b7 3e a5 9a 98 be
       -0.21574408 0.34767717 0.35834715 -0.29805484
000230 65 4d dc bd 78 d5 28 bf f7 6b c8 bd 15 63 89 3e
       -0.10756949 -0.6595073 -0.09786218 0.26833406
000240 7e 98 4b 3e 7c 5a a6 3e ad 32 58 3d bb c8 25 3e
       0.1988239 0.3249091 0.052782703 0.16189854
000250 93 6c c1 be 22 85 38 3c 70 e6 aa be b5 26 5f 3e
       -0.37778148 0.01126221 -0.33378935 0.2179211
000260 35 c4 7c 3d bb 75 63 3d 41 20 98 3d d4 18 6c 3e
       0.061710555 0.0555322 0.07428027 0.23056346
000270 09 97 73 be 0a 93 7f 3d 98 c3 14 3e 74 70 99 be
       -0.23788084 0.062396087 0.14527738 -0.29968607
000280 92 fc 27 bd ba 45 2b bd 82 ef 37 3c e5 15 c7 3e
       -0.041012354 -0.041814543 0.011226537 0.38883892
000290 b8 f7 d5 bd 11 92 3b 3e 3e 8e 96 3d b6 f0 c2 3e
       -0.10447639 0.18317439 0.07351349 0.38074273
0002a0 e3 77 bd 3e f1 ec e8 3d c1 37 93 be 2e d5 5e 3e
       0.3700553 0.11373318 -0.28753474 0.21761009
0002b0 be 72 47 3e cf 62 ba bd 0d d7 a7 3e 89 7b ce bd
       0.19477364 -0.091008775 0.32781258 -0.10082156
0002c0 36 65 f2 3d 1a 0a 94 3e 6f 8b 4b be 82 4a 5d 3d
       0.11835711 0.28913957 -0.19877408 0.054026134
0002d0 61 7c 1c be 69 1b 41 bf dc 41 90 3c 6e 98 dc 3d
       -0.15281822 -0.7543245 0.01760953 0.10771261
0002e0 d4 e5 27 bd 56 95 03 3f 3c ef 8c 3e 24 07 89 3e
       -0.040990666 0.51399744 0.2752627 0.2676326
0002f0 4c 97 eb be 1e 75 09 bc 5e 50 c5 be e8 33 b8 3d
       -0.46013868 -0.008389739 -0.38537878 0.08994275
000300 d0 39 ca 3e 12 09 fd bb 18 0d 26 be 55 91 b1 3d
       0.39497232 -0.0077220285 -0.16215932 0.08670298
000310 03 2b c9 39 b9 9f dd 3e 4c 7d 17 3e 73 4f 41 be
       0.00038369754 0.4328592 0.1479389 -0.18877964
000320 f8 04 5d be 2c c1 fc 3e c5 f4 a1 be 9e 7d 91 3d
       -0.21583927 0.49366128 -0.31632057 0.07104038
000330 dc 62 c8 be ac ef f5 3e fe 07 9f 3e 6f 7f 4e 3e
       -0.39137924 0.48034418 0.31060785 0.201658
000340 4a b8 26 bc 4c ec 84 bc a3 4c a1 be 70 b4 a3 3d
       -0.010175774 -0.016225956 -0.31503782 0.079934
000350 0c 5d 43 be 5a 0b b7 3e 4f 25 2c 3d 43 03 16 be
       -0.19078463 0.35750848 0.042027768 -0.14649682
000360 65 85 c3 3e 58 ee b8 3e b1 72 83 be b4 cd a3 3d
       0.3818771 0.36119342 -0.2567344 0.07998219
000370 9a 1e 93 3e 35 0e 38 3f 7f 53 9e be 0a 6c 18 3e
       0.28734285 0.7189668 -0.30923077 0.14884964
000380 e7 02 65 be 5f 46 e1 bd 29 cf 2e 3b 9e 84 6c 3d
       -0.22364388 -0.1099975 0.002667377 0.05774366
000390 81 f3 23 3f 9f 6c 3f bc 67 bb e5 3d 48 f2 1a 3e
       0.6404343 -0.011683612 0.11217385 0.15131485
0003a0 56 b2 bc bd 48 dc 9e 3e ce b9 39 3e a1 8f ab be
       -0.092137024 0.31027436 0.18137285 -0.33508018
0003b0 97 de 00 3e bb c7 2a bd 2c f8 10 be be 4e 0d 3f
       0.12584911 -0.041694384 -0.1415717 0.55198276
0003c0 56 ff 7b be d4 a4 ec be 5b 19 97 3c d6 56 aa 3e
       -0.24609122 -0.46219504 0.018444708 0.33269376
0003d0 c4 9c bc 3e 44 56 fb 3e 42 64 9b 3e bb 6c b2 bb
       0.36838353 0.49089253 0.30349928 -0.0054450906
0003e0 c6 b0 06 bf fb c4 40 3c a2 6b 0c be 9d 88 8a 3d
       -0.52613485 0.011765714 -0.13712934 0.06764338
0003f0 52 27 8c 3e ee 9c f1 bc e4 b7 80 bd fe 18 33 3d
       0.2737375 -0.029493775 -0.06285074 0.043725006

fc2.bias f4 [20]
000000 90 50 6a bd 1c d0 a9 bc 19 95 1d 3e 20 cf 02 3f
       -0.057205737 -0.020729117 0.15388907 0.510973
000010 0d b3 11 be 35 e4 ca 3e 9a f6 9f bd bf fd a4 be
       -0.14228459 0.39627233 -0.078107074 -0.32224843
000020 b8 e0 9e 3e eb b5 aa be 07 9f 2b be 3f dc 80 3e
       0.31030822 -0.33341917 -0.16759883 0.25168034
000030 88 57 9b be c5 de cb 3d fa b2 3f 3e 6d cf 40 be
       -0.3034022 0.09954599 0.18720618 -0.18829127
000040 a1 d4 02 be 03 8d 4c bd dc 01 a1 3e 11 a0 58 3c
       -0.12776424 -0.049939167 0.3144673 0.013221757

fc3.weight f4 [20, 20]
000000 9d d9 77 3d 01 10 d7 be 23 a8 ca 3e ba 13 85 3e
       0.060510267 -0.42004398 0.39581403 0.25991613
000010 82 3e 30 3e 0d 18 16 3e 34 d2 83 3e d2 d8 ac 3e
       0.17211345 0.14657612 0.2574631 0.3375917
000020 74 f0 9a 3d 8d 7c 8c 3e a8 8e af be f4 60 e0 be
       0.07565394 0.27438775 -0.34288526 -0.4382397
000030 38 b7 14 bb 04 5d 7a be 5e 9a ab 3e b6 44 8d 3e
       -0.0022692215 -0.24449545 0.3351621 0.27591485
000040 77 58 f5 bc fc 24 3d bb 8d 33 6f be 39 bb 4d 3e
       -0.02994941 -0.0028861156 -0.23359509 0.20090951
000050 2e 56 15 3e 63 1a cd 3d 07 52 06 3d 21 ac 47 be
       0.14583656 0.100147985 0.03279307 -0.19499256
000060 cd e3 57 3d ab 56 21 bd fb 75 14 be 32 13 10 3e
       0.052707482 -0.039389294 -0.14498131 0.14069822
000070 2c f0 03 3e f0 40 c4 3d 67 40 bc bd b1 0f 43 be
       0.12884587 0.09582698 -0.09191971 -0.19048955
000080 2e 8f c6 bd f8 06 41 3d f1 89 19 3e 08 a6 58 bd
       -0.09695278 0.047125787 0.14994027 -0.052892715
000090 c6 60 0d bc 77 38 55 3e c3 f3 42 3e da c9 10 bd
       -0.00862903 0.20822321 0.190383 -0.03534875
0000a0 8a a1 3c 3e 92 f9 e2 3d 4c 91 3d be f3 78 d9 3e
       0.18420997 0.11082758 -0.18512458 0.4247509
0000b0 6b 54 23 be 90 61 2e 3e b0 ca 8f bd 82 74 67 be
       -0.15950172 0.17029405 -0.070210814 -0.22603038
0000c0 48 81 9a 3e 60 1f bf be 6d 83 30 be d1 88 ae 3e
       0.3017676 -0.37328625 -0.17237635 0.34088758
0000d0 0f 66 b0 be ef c2 32 3e 53 4d 95 3c 88 f4 0e 3e
       -0.34452865 0.17457174 0.018225348 0.13960469
0000e0 e0 e4 c6 3d 96 51 1e bd 02 f3 08 3e 6e 45 99 bd
       0.09711623 -0.038652025 0.1337395 -0.07483946
0000f0 1d bc 61 3d 8b e9 5a be 5d b3 80 3e 56 b4 10 3e
       0.05511104 -0.21378152 0.25136843 0.14131293
000100 c6 3b 0d be 21 d9 e3 3d 72 1a 77 3e a4 51 b4 3c
       -0.13792333 0.111253984 0.24131182 0.022011586
000110 d9 e6 c6 3e aa 4a a3 be 33 de 42 bd d5 1b 7f 3d
       0.38847998 -0.31892902 -0.047575187 0.062282402
000120 a2 dc 9f 3c a1 72 91 bd c5 8f 29 3e ea 2b 59 3e
       0.019514386 -0.07101942 0.1655875 0.21208158
000130 8e 54 13 be 6a 4b 19 be 87 97 55 3e 38 9b f7 3d
       -0.14387724 -0.14970174 0.20858584 0.120901525
000140 49 95 d8 3d d9 5c 28 3e 7d d5 6a 3e 1c f9 9f 3b
       0.10575349 0.16441669 0.22933002 0.004881991
000150 ff c6 29 3e 5a 82 ec bc 20 f1 86 3e 00 c5 75 3e
       0.16579817 -0.02887075 0.2635584 0.24000931
000160 d6 35 58 3d 96 4a 03 3f 58 b4 8f 3e f8 34 62 be
       0.052785717 0.51285684 0.2806728 -0.22090518
000170 b1 d4 a5 3e f7 d8 62 be 8e d2 85 3d 2e 23 d1 3e
       0.32388833 -0.22153078 0.06534301 0.40847152
000180 a0 b9 a3 bd 4e ac c9 bd 6c 7a 35 be da ee 63 3e
       -0.079943895 -0.09847318 -0.17722481 0.22259083
000190 11 11 24 3e 4c 04 d3 be 64 fd ba 3e 98 7b 20 3e
       0.16022135 -0.41214216 0.36521447 0.15672147
0001a0 a2 dc d5 bd b5 7b d1 3d 7e 2e 6e 3e 79 ae 35 be
       -0.10442473 0.10228673 0.23259923 -0.17742337
0001b0 5e 80 93 3d 51 06 88 be 4a b8 05 bf 65 62 b8 bd
       0.072022185 -0.2656732 -0.5223433 -0.09003142
0001c0 9a 96 88 be 30 c8 ba 3d d3 f3 80 3e c8 f4 14 3d
       -0.266774 0.09120214 0.25186023 0.036366254
0001d0 7c 41 40 3e 08 df 04 bd 2c e6 3d 3e 90 c1 91 3e
       0.1877498 -0.03243926 0.18544835 0.2846799
0001e0 27 35 54 3e ca 05 cf bc 11 8b 21 be da 6f b7 3e
       0.20723401 -0.025271315 -0.15775706 0.35827523
0001f0 c5 1f 2f be 60 8e be 3e be ca 5d be d8 c5 30 be
       -0.17101963 0.37217999 -0.21659371 -0.17262971
000200 e3 8f 18 bd 61 33 b2 be 9e cc af 3c 87 22 bf 3e
       -0.037246596 -0.34804824 0.021459874 0.3733103
000210 9a 3d 8e be 6f 70 7b 3e 71 eb 35 be 15 d1 9c 3d
       -0.27781373 0.24554609 -0.17765595 0.07657067
000220 48 e2 61 bc 0e dc e8 3d de 1f be 3e d9 7d 88 bd
       -0.01378686 0.11370097 0.37133688 -0.066646285
000230 02 36 cb bd eb 40 11 be 35 2c f4 bd ae a4 6b bd
       -0.099224105 -0.1418492 -0.11922494 -0.057530098
000240 4e e1 9a bc ed b9 56 3e a8 cd b5 3e 8f fc b2 3e
       -0.018906262 0.20969363 0.35508466 0.34958312
000250 10 75 9f 3d 6f 3f 9f 3d 51 08 82 3e 74 d4 78 be
       0.07786 0.07775771 0.2539697 -0.24299794
000260 92 9b ce 3e 1b f4 00 be ae 78 50 3e c4 f6 ba 3e
       0.40353066 -0.12593119 0.20358536 0.36516392
000270 1f 00 4c be 37 e8 ea 3d 12 a1 45 bd 93 22 a0 3e
       -0.19921921 0.11470073 -0.04824931 0.31276378
000280 c2 b6 4b 3d fa d8 a8 be 36 9a a7 3e 4f 79 63 3d
       0.04973484 -0.3297804 0.3273484 0.05553561
000290 b2 26 6c 3d 0b 00 c3 3e cf 47 6b 3e fe 0f 7c 3e
       0.05765409 0.3808597 0.22976612 0.24615476
0002a0 38 36 a2 bd 95 18 fc 3d 8f 24 82 be fe aa 8f be
       -0.07920498 0.12309376 -0.25418517 -0.28060144
0002b0 18 e4 ac 3e 22 f1 c7 be ec 1b 48 3e 9e 70 26 3e
       0.33767772 -0.39051157 0.19541901 0.16253898
0002c0 2f b0 db 3c 37 64 b1 3d 4b f9 ab bd 41 aa 92 3e
       0.02681741 0.086616926 -0.08397158 0.28645518
0002d0 27 f0 ef bc 25 ca 4a 3e 41 47 90 be ea d2 89 3d
       -0.029289318 0.19803675 -0.28179362 0.06729682
0002e0 91 ae f5 bd 6c 9c 86 3e d8 df 28 be 83 36 c6 3d
       -0.119961865 0.26291215 -0.1649164 0.09678366
0002f0 06 ce 8c 3e 0f dd 91 3d a2 39 db 3e 1a 1e 9a 3e
       0.27500933 0.07122242 0.42817408 0.3010109
000300 da 1f 29 3e ed 53 41 3e 4f a2 61 be 5e e4 29 be
       0.16516057 0.18879671 -0.22034572 -0.16591021
000310 ec 4e c7 3d 89 8a 39 3e ac 19 97 3e 60 a7 ad be
       0.0973185 0.18119253 0.29511774 -0.3391676
000320 a6 43 23 be 18 66 a9 3e 78 bf 9a be ce c6 14 bd
       -0.15943775 0.33085704 -0.30224204 -0.036322407
000330 8e 27 5a 3e 91 ce 02 bd aa b7 fc bd 8a d2 99 bd
       0.21304151 -0.03193528 -0.12339719 -0.0751086
000340 01 f7 71 3e 02 7e 27 bd f5 8e e9 3d 2f ca 00 3f
       0.23629381 -0.040891655 0.1140422 0.5030851
000350 ba cc 44 be ba fd d5 3e 8b 5f 81 bc 42 d7 0e 3e
       -0.19218722 0.4179514 -0.015792629 0.13949302
000360 e0 69 4c 3e 49 25 3e 3e 49 ab d9 3e 1a d5 93 bd
       0.19962263 0.1856891 0.42513493 -0.0721838
000370 98 7e f4 3d ac 91 97 3e d4 82 0d bf 5a 42 9d 3d
       0.11938208 0.29603326 -0.5527775 0.07678671
000380 35 34 d0 ba 97 74 7e 3d c7 4a 03 be 9e 72 a8 3e
       -0.00158847 0.062122907 -0.12821494 0.32899946
000390 10 8f ab 3b bc 7e 7d 3e 25 5a 2d 3e 43 8e 55 3e
       0.0052355602 0.24755377 0.16928919 0.2085505
0003a0 45 6a 00 be 11 f7 0f 3e e4 8a ef bd 0c c2 96 3e
       -0.12540539 0.14059092 -0.11696413 0.2944492
0003b0 05 1f ca bd d5 dc e7 3d 81 69 e9 bd 22 f7 df be
       -0.09869198 0.11321417 -0.113970764 -0.43743235
0003c0 f8 3c f3 3d 2e d5 69 bd 18 f6 00 3e 71 54 98 3e
       0.11876863 -0.05708807 0.12593877 0.29751924
0003d0 b9 99 a4 3d 41 7d ad 3e 8d 85 ad 3d 06 b3 b9 bd
       0.08037133 0.33884624 0.084727384 -0.09067349
0003e0 86 ee cc 3d c5 53 a4 be 3a 99 2b bd 2b 71 6e 3e
       0.10006432 -0.3209516 -0.041894175 0.23285358
0003f0 80 a6 f6 bc a9 e2 f8 3d a8 16 0c 3e 9a 4d 1b bb
       -0.03010869 0.12152607 0.13680518 -0.0023697377

fc3.bias f4 [20]
000000 6a 92 36 bc f8 2d 2b be 94 e3 81 3e 3c ac ec 3e
       -0.011143306 -0.16716754 0.2536894 0.46225154
000010 e0 a5 50 be eb 85 a8 3e f1 55 67 3e 74 cb 4b be
       -0.20375776 0.3291467 0.22591378 -0.1990183
000020 66 bc 85 bb 3d 62 8a 3d 6c 91 8f 3e 93 ec 50 be
       -0.0040812967 0.06757019 0.28040636 -0.20402746
000030 66 39 e0 3e b1 cf 85 3e 91 c7 ae bd 5c 36 ef 3c
       0.43793792 0.26135018 -0.08534158 0.029200725
000040 f5 38 42 be 84 23 08 be 42 55 01 3f 1d a6 b5 3e
       -0.1896704 -0.13294798 0.5052072 0.35478297

fc4.weight f4 [20, 20]
000000 c0 c3 77 3e 86 21 6c 3e 20 ef 2f 3e ba fa 39 be
       0.24195766 0.23059663 0.17181063 -0.18162051
000010 6b 79 0c 3e f9 e8 3f be 1b 24 50 bd 97 fb bd 3d
       0.13718192 -0.18741216 -0.050815683 0.092765026
000020 bf 7a 15 be 61 10 cf 3e 25 c8 4b 3e 98 91 01 3f
       -0.14597605 0.40442184 0.19900568 0.50612783
000030 12 34 e5 bb 06 7c 0c be 27 17 d6 3a e2 5a c8 3b
       -0.0069947327 -0.13719186 0.0016333804 0.0061143497
000040 73 ff c2 3d f4 ac ac 3e b4 37 8a 3d 12 ac a1 be
       0.09521379 0.33725703 0.06748906 -0.31576592
000050 44 e6 ac be f0 da 2e 3e 7a 19 bc 3e 70 1b 5d 3d
       -0.3376943 0.17075706 0.36738187 0.053981245
000060 74 40 0e 3e a4 87 9d be 9a 53 06 3e 7d a1 69 bd
       0.13891774 -0.30767548 0.13117829 -0.057038773
000070 47 8e 9e be 6f db ad 3e db 57 bb 3e 38 49 bf 3e
       -0.30967924 0.33956477 0.36590466 0.3736055
000080 77 50 16 3e 7c 2d 91 bd 38 8e 1e 3e 60 43 05 be
       0.14679132 -0.070887536 0.1548394 -0.13013983
000090 f3 14 89 bd 6a a2 ee 3c 45 ea 98 3d 94 49 c3 3d
       -0.06693449 0.02913018 0.07466558 0.09535518
0000a0 3d db aa 3d f7 8d 48 be f4 fb fc 3d 15 a6 17 3d
       0.08342598 -0.19585405 0.12352744 0.037023623
0000b0 02 4b 57 be b0 01 26 3e 49 62 3f 3e 53 76 08 be
       -0.21024707 0.16211581 0.18689837 -0.13326387
0000c0 62 ae 48 be 02 49 a3 3e 0a cb 8e 3e e8 3f 9b 3d
       -0.19597772 0.31891638 0.27889282 0.075805485
0000d0 e0 78 a8 3e af 88 4c bd 0c 76 85 bd 2b 5a 5e 3e
       0.3290472 -0.04993504 -0.06516656 0.21714084
0000e0 ad 5c 10 3e f6 46 73 be a7 88 d7 3e 1b b6 8d 3e
       0.14097853 -0.23757538 0.42096445 0.27677998
0000f0 d6 89 d6 bd 35 d3 0f be 87 dd a8 3e a2 5a 81 3e
       -0.10475509 -0.14045413 0.32981512 0.2526446
000100 55 51 f6 be 2d ed f0 3b 40 49 ba 3e 7c f1 24 bd
       -0.48108926 0.0073524923 0.3638401 -0.04026936
000110 d4 a9 fc bd 6d 9c 86 3e 8b 8f b4 3e 43 a1 94 bc
       -0.1233708 0.26291218 0.35265765 -0.018143302
000120 eb 18 a3 3e c6 3e 81 be 1e 30 64 bc 86 36 e1 bb
       0.31854948 -0.25243205 -0.013927488 -0.006872955
000130 7a 13 fa bd bf 8b a8 3d 4b b9 bf 3e 69 e2 81 3e
       -0.12210746 0.082297795 0.37446055 0.2536805
000140 96 ff 2c be 24 84 9d 3d 05 1e d4 3e fc 93 c2 3e
       -0.16894373 0.076912194 0.41429153 0.38003528
000150 e9 82 b9 be 00 64 92 3e 6f 8b fc 3e 1b 49 a9 bd
       -0.3623269 0.2859192 0.4932513 -0.08265897
000160 2c 4b c4 bd 5c 21 79 3e 1d 71 6f 3e a2 b6 46 be
       -0.095846504 0.24329132 0.23382993 -0.19405606
000170 62 f9 6e 3e a9 3a 85 3c 43 d3 33 3e 64 54 cf bc
       0.2333732 0.016263323 0.17561059 -0.025308795
000180 94 a2 48 be 93 eb e1 bd 8e 02 8f 3e af 5d 06 3f
       -0.19593269 -0.1103126 0.27931637 0.524867
000190 46 2f 91 3e 6f da 14 be 2b 75 4b be de 48 1e be
       0.2835638 -0.14536451 -0.19868915 -0.15457484
0001a0 bc 40 f6 3d b6 bf bd bc 73 cb 4c be a6 0e 7f 3e
       0.12024066 -0.023162704 -0.19999485 0.24907932
0001b0 8d fc 10 3e 7b 4f c8 be 05 4d d1 3c 85 8c 2b be
       0.1415884 -0.3912314 0.025549421 -0.16752823
0001c0 2b 1e 80 be e6 9a 25 3d 74 f2 bc bc a6 06 8c 3d
       -0.25023016 0.040430926 -0.02306483 0.068372056
0001d0 18 fb 45 be bc f9 4b 3d 80 14 78 be e6 47 99 3c
       -0.19334066 0.049798712 -0.2422657 0.018711042
0001e0 ed 13 88 bb 06 ed ce 3d c4 cb 83 bd b8 46 57 bd
       -0.004152766 0.101038024 -0.064353496 -0.052557677
0001f0 53 43 14 3d e1 2e 95 bd bd df 0c 3e bd 69 2f be
       0.036197018 -0.07284332 0.13757224 -0.1713018
000200 a4 d3 36 be 72 c6 5f be 86 f1 40 be 2b 6d 52 3d
       -0.17854172 -0.21853045 -0.18842134 0.051373642
000210 df 7c 1e 3e e8 96 19 bc d4 02 50 be bf 49 3e 3e
       0.15477322 -0.009374358 -0.20313579 0.1858282
000220 55 f7 c4 3d c2 0d d1 bd 58 3e ed bc d8 b5 97 3d
       0.09617487 -0.10207702 -0.028960392 0.07407731
000230 e5 5b 6e 3e e3 e2 39 bb 9f a4 a1 be 08 dd 0f be
       0.23277242 -0.0028363995 -0.31570908 -0.1404916
000240 c2 a0 10 bd 01 64 f2 bd ec bd 2a be eb 4e af 3e
       -0.03530956 -0.118354805 -0.16674012 0.34239897
000250 84 3b 91 3e 1a dd a9 be 6f d0 c5 be c9 13 4e bd
       0.2836572 -0.331765 -0.38635585 -0.050311837
000260 56 32 7b be bf af ab 3e c3 fb d2 bd 28 46 19 bd
       -0.2453092 0.3353252 -0.10301926 -0.03742042
000270 ce 8f 59 be 4e ea d6 3c 5e d4 c2 be 01 ed db be
       -0.21246263 0.026234772 -0.38052648 -0.42954257
000280 de 64 fc bb fe 77 e5 3d 2a b2 ad 3c 9d b0 49 be
       -0.007702454 0.11204527 0.02120312 -0.19696279
000290 2e 89 f8 3d 70 39 3b be 1e 5b 1d bc 30 7a 68 3d
       0.1213554 -0.1828363 -0.009604244 0.056757152
0002a0 de 4b ed bc db 4d 36 bd 07 41 c0 bd d0 9b c5 bc
       -0.02896684 -0.044507843 -0.09387403 -0.024122149
0002b0 cf b3 24 3e 93 ef 12 3e 9f 28 b5 3d b0 a1 59 be
       0.16084217 0.14349203 0.088456385 -0.21253085
0002c0 b0 29 b0 bb 68 da 2d be f6 7d 76 be 09 00 05 3e
       -0.0053760633 -0.16977847 -0.24071488 0.12988295
0002d0 db 48 5f bd ca b9 a8 bd c1 01 52 bd 28 fc 18 3e
       -0.05451284 -0.082385615 -0.051271204 0.1493994
0002e0 fa 18 c0 3d d9 16 01 3c 58 68 b9 bb 8e df ba bb
       0.09379764 0.007878982 -0.0056581907 -0.0057029193
0002f0 63 e9 39 be c3 71 67 bc 73 e6 11 3e ef c9 1f be
       -0.18155436 -0.014126244 0.14248066 -0.15604375
000300 fb 9e 48 be cd d4 2e bc 08 2a a4 3d 19 fb 12 be
       -0.19591896 -0.010670853 0.08015829 -0.14353599
000310 df a1 c3 3d c1 f8 c1 3c 82 71 56 be ab 70 36 be
       0.09552359 0.023678185 -0.20941737 -0.17816417
000320 a7 ab 47 be 72 b0 bc 3d 17 f4 4c be 00 cc 47 be
       -0.19499074 0.09213342 -0.20014988 -0.19511414
000330 f8 9e 3d be b8 22 57 be 71 dc 69 3d ad d3 00 3d
       -0.18517673 -0.21009338 0.057094995 0.03145187
000340 07 11 11 3d 89 fb 9f bd cb 78 e7 3d 5c 1f 9f 3c
       0.03541663 -0.078116484 0.11302336 0.019424133
000350 c0 d6 0a be 22 91 44 be 28 49 f8 bd 43 4e 4d bd
       -0.13558483 -0.19195989 -0.121233284 -0.050123464
000360 4c df d4 3d 85 9d 6c be 02 01 38 3e 9a 37 24 be
       0.10394153 -0.23106964 0.17969134 -0.16036835
000370 af 5c ca 3d 75 91 4e 3e 01 40 6d be 5d 95 ee bc
       0.09880959 0.20172675 -0.23168947 -0.029123956
000380 8e 36 85 3e ff 65 5f be d9 18 cc be c0 2b 5d 3e
       0.26018184 -0.21816252 -0.39862707 0.2159872
000390 40 f4 33 3e 41 89 55 be da 2e e0 be 36 a3 32 3c
       0.17573643 -0.2085314 -0.43785745 0.01090317
0003a0 5c fc 9e bd 47 94 ba 3c 9e 17 4e 3e 4d 1e 89 3d
       -0.077629775 0.022775782 0.20126197 0.066952325
0003b0 65 1e bd 3c 10 49 1b 3e d1 c9 c5 be 75 1e c0 be
       0.023085782 0.1516459 -0.38630536 -0.37523237
0003c0 70 d8 22 be 5d a0 17 3e 49 7f a1 3e 04 96 37 bb
       -0.15902877 0.14807267 0.31542423 -0.0028013
0003d0 97 5d 26 be f2 4d 35 3d c2 de a9 3e 9b 51 ef 3d
       -0.16246639 0.044263788 0.33177763 0.11685487
0003e0 e5 7c 03 be f2 13 7e 3e 91 41 19 3e 36 10 21 3d
       -0.12840612 0.24812296 0.14966418 0.0393221
0003f0 48 26 d0 3d 72 e9 f0 bc f5 ac 22 be e7 7c 08 be
       0.101635516 -0.02940819 -0.1588629 -0.13328896

fc4.bias f4 [20]
000000 e8 27 d7 be bc f8 af be a0 7b 65 3e c8 26 32 3d
       -0.42022634 -0.34369457 0.2241044 0.043494016
000010 ac 55 02 3f ec f1 3e be d4 0e 99 bd 08 ed 3a be
       0.50911975 -0.18646973 -0.07473531 -0.18254483
000020 90 55 e4 bd 26 03 d1 3c 60 a3 25 3e 5e 6b 5d bd
       -0.11149132 0.025514197 0.16175604 -0.05405747
000030 18 20 96 3e ec d2 b8 3e f3 d7 c3 3e 83 ce f3 3e
       0.2932136 0.3609842 0.38250694 0.47618493
000040 de d4 0c 3e 28 b5 0c bd 24 87 36 be 57 57 ce be
       0.13753077 -0.03435245 -0.1782499 -0.4030101

fc5.weight f4 [20, 20]
000000 24 40 22 be 1c 40 c5 be c1 22 df 3e 0b 78 94 bc
       -0.1584478 -0.38525474 0.43581203 -0.018123647
000010 17 7e c5 3e 13 67 17 bf 67 75 97 3d 6d ca 10 bf
       0.3857276 -0.59141654 0.073954396 -0.5655888
000020 e6 14 6e bc a8 9a 48 3d 49 2e 93 bd 99 6e e2 be
       -0.01453135 0.048975617 -0.071865626 -0.44225004
000030 c7 9f 22 be fc 6d be 3d cc bf 89 3e 7f cc cc 3e
       -0.15881263 0.092983216 0.26904142 0.39999768
000040 e8 26 8c 3e 60 8a cb 3c db ea 8f be 17 1a 77 be
       0.27373433 0.024846256 -0.28108868 -0.24131046
000050 3e 6a f7 3c a2 9a 29 be c3 55 37 be 6d 30 23 be
       0.030202027 -0.16562894 -0.17903809 -0.15936442
000060 8f c8 a6 be 78 33 16 3f cc 7f ac bd 9d 57 f2 3e
       -0.3257489 0.58672285 -0.08422813 0.4733247
000070 90 ff af 3d 0e 0d 3c be 02 c8 b0 bd 2d 98 1b 3f
       0.085936666 -0.18364355 -0.086318985 0.60779077
000080 e3 81 01 be e4 aa 79 3e 42 9c 26 3e 25 c3 7a be
       -0.12647204 0.24381596 0.16270545 -0.24488504
000090 a5 86 c6 bd b8 b7 73 3d d7 9a 3c 3e 80 87 82 be
       -0.0969365 0.05950138 0.18418442 -0.25494003
0000a0 ca 3d ca 3e 53 ed 78 3e bd fc 81 3e 80 46 b5 3e
       0.39500266 0.24309282 0.25388137 0.3540535
0000b0 70 cf b3 3e 30 f9 ce bd 32 50 e8 bc 07 29 8a bd
       0.351192 -0.101061225 -0.028358553 -0.067461066
0000c0 27 4d 2d be e2 c6 99 bd d0 e1 10 3e 6f c3 02 be
       -0.16923963 -0.07508637 0.1414864 -0.12769864
0000d0 cf 7a 98 3e 95 41 a3 be 61 8e 94 3d f6 dc 9e bd
       0.29781196 -0.31885973 0.07253719 -0.07756989
0000e0 e5 c7 9a be 46 26 7a bd 78 77 db 3e 57 fa 0a 3e
       -0.30230632 -0.061071657 0.42864585 0.1357206
0000f0 6d 68 e4 3d f0 97 aa bd c0 86 6a be 90 0a 9e be
       0.1115273 -0.08329761 -0.22902966 -0.30867434
000100 ba 98 e1 be 73 f2 0e 3f e7 c0 10 bc d2 df 03 3f
       -0.44061834 0.558387 -0.008835054 0.515134
000110 54 0e 1c be 89 c5 06 be 5b 50 6b 3d 3c bb 49 3e
       -0.15239841 -0.13161291 0.05744968 0.1970033
000120 db af ad be bd ef 03 3e 4c 39 f1 3d 48 40 80 be
       -0.3392323 0.12884422 0.11778507 -0.25049043
000130 bb 03 d8 3d cc a3 8d 3c 67 2a f2 3c ff 49 32 be
       0.105475865 0.017290018 0.029561235 -0.1741104
000140 d3 bc f8 bd a1 6c ad be 08 4b 52 be ac 0e b3 3d
       -0.1214539 -0.3387194 -0.20536435 0.08743033
000150 94 92 a1 3d 70 69 bd be 07 95 5d 3e f3 46 99 bc
       0.07889286 -0.36994505 0.2163888 -0.018710589
000160 d8 e3 1a 3e 17 31 cb bc 54 97 9e bc db 6e be bd
       0.15125978 -0.024803681 -0.019359268 -0.09298488
000170 84 55 9e bc e5 13 10 3f a9 81 76 3e b0 3a b7 3c
       -0.019327886 0.56280357 0.24072899 0.022366852
000180 29 34 f2 3e 1b 0c dd 3d 86 9f 8b be ef 47 cf 3d
       0.4730542 0.107933246 -0.27270144 0.10121142
000190 a1 11 18 3e c6 e5 2c be 8e fc 66 be 9b 42 2d be
       0.14850475 -0.16884527 -0.2255728 -0.16919939
0001a0 d7 92 82 bc a5 58 19 bd cc 8a 40 3e 0d 04 25 be
       -0.01593916 -0.037438054 0.18802947 -0.16114827
0001b0 da fd 64 be 95 b1 25 be 6f ca 2c 3d f6 17 35 be
       -0.22362462 -0.16181023 0.042185243 -0.17684922
0001c0 80 15 c0 3d 5a d2 10 3f 16 83 84 3e 29 fa e5 3e
       0.09379101 0.5657097 0.2588126 0.4491742
0001d0 f2 ec 05 3f fb f6 2d be 9b 79 04 bf 5d 98 c5 3d
       0.52314675 -0.16988747 -0.51748055 0.096482016
0001e0 a0 09 f6 3d 76 9c e4 bd 64 a5 f8 bd 45 dc b7 be
       0.120135546 -0.11162655 -0.12140921 -0.3591024
0001f0 6a 25 b3 be ed 52 0f 3f 40 40 d8 bd 03 18 1a 3f
       -0.34989482 0.5598591 -0.1055913 0.6019289
000200 8f b8 b5 3c 78 28 88 3d b6 b4 43 3e d5 5f 96 3e
       0.022182731 0.06648344 0.19111905 0.2936999
000210 03 40 a5 be e1 5a 78 3e 47 1f 23 3e b3 91 1e be
       -0.322754 0.24253418 0.159299 -0.15485267
000220 15 08 5c bd f8 e5 54 3e 12 bc 6c 3d 20 0f 93 be
       -0.053718645 0.20790851 0.057796545 -0.28722477
000230 c8 c7 34 be ca fa f8 be 81 8a 48 3e dc d1 4a 3d
       -0.17654335 -0.48628837 0.19584085 0.049516544
000240 b4 cc 4a 3e d3 00 12 bf 8c a9 55 be bd a9 b4 be
       0.1980465 -0.5703251 -0.20865458 -0.3528575
000250 0f ae 4f be bc 81 24 be 1a bf e4 bd 1b 6b c2 be
       -0.20281242 -0.16065115 -0.11169262 -0.3797234
000260 ed 0a 56 3e 02 aa 11 3e e6 ee 42 3e ae a2 04 3f
       0.20902605 0.14225009 0.19036445 0.5181073
000270 80 78 3d 3e 40 b0 35 be d0 9a 67 be f0 ce ab be
       0.18502998 -0.17743015 -0.2261765 -0.33556318
000280 21 87 c2 be d0 41 8b be 6a 45 6f 3d 6f b2 e0 3d
       -0.3799372 -0.27198648 0.058415808 0.109715335
000290 6e 56 cb 3e c2 c7 ff be c3 5c 62 be f3 d8 0f bf
       0.39714378 -0.4995709 -0.22105698 -0.56190413
0002a0 79 bc 2f 3e db 6d cc 3d 93 54 2f be ca 8b 07 bf
       0.1716174 0.09981891 -0.17122106 -0.52947676
0002b0 81 23 16 be 4c 6c 2b 3e a3 fd c1 3e cc fb dc 3e
       -0.14661981 0.1674053 0.37888822 0.43160856
0002c0 b7 57 94 3e 4d e9 a9 3d 13 37 51 be 8e c9 b7 be
       0.2897317 0.08296452 -0.20431165 -0.35895962
0002d0 08 c8 0a 3e 60 c3 74 bd 5d ef d7 3d 27 1c 5e be
       0.13552868 -0.059756637 0.10543702 -0.21690427
0002e0 e2 f7 a9 bd c4 36 1e 3e 99 92 50 be 6d 9b 54 be
       -0.08299233 0.15450579 -0.20368423 -0.20762415
0002f0 8f 9a b2 bc aa 40 3f bd 5e 16 68 bd 15 2c cd bd
       -0.021802215 -0.046692528 -0.056661956 -0.100181736
000300 0a 0a 76 3d 8a bd 37 3e 2e 62 2d 3d 08 83 f2 bc
       0.060068168 0.17943397 0.04232996 -0.029603496
000310 9b a5 3a be bc 68 8a 3a 22 22 1f be b7 ad 03 be
       -0.18227236 0.0010559778 -0.15540364 -0.12859236
000320 61 34 4b be e2 c4 1a be a3 5b a6 3c 42 3a e7 3c
       -0.198442 -0.15114167 0.020307368 0.028226022
000330 df 43 29 bd 6e 6f 11 3d dc 00 9d bd ae f8 08 3e
       -0.041324493 0.03550666 -0.076661795 0.13376114
000340 4c e4 56 3e 94 5e 34 3d f0 a0 0e 3e 31 f8 32 3e
       0.20985526 0.04403551 0.1392858 0.1747749
000350 78 21 54 3c 2f a1 47 3e 54 7a 56 be 7d 35 ac 3d
       0.012947433 0.1949508 -0.20945102 0.084086396
000360 e7 2d 25 be 95 dc 62 3d a8 cb 0d 3d 44 4e 67 3d
       -0.16130792 0.055386145 0.03461805 0.056471124
000370 15 bf f1 3e 77 97 10 3e 56 c1 3d be d0 9e 92 be
       0.47216097 0.14120279 -0.18530783 -0.2863679
000380 28 ab d0 be 18 54 00 3f 5f e2 2f 3e b7 57 09 3f
       -0.40755582 0.50128317 0.17176197 0.5364947
000390 37 bb 1e 3e 51 3d 61 bd 94 8f 79 be 63 9d 16 3f
       0.15501104 -0.054990117 -0.24371177 0.58833903
0003a0 ff 15 25 be 4a 13 36 bd 50 55 91 3d 9c e9 a8 be
       -0.16121672 -0.04445199 0.0709635 -0.3299073
0003b0 92 20 db 3e 97 ce ca 3c 84 89 db 3e 4c db b8 3e
       0.42798287 0.024756713 0.42878354 0.3610481
0003c0 2c 0d d3 bd 52 e6 69 bb a8 74 56 be 4e 25 c1 3d
       -0.10305247 -0.003569026 -0.20942938 0.094309434
0003d0 6e e3 4a be 93 c6 33 be de e4 9c 3d 73 9c 64 be
       -0.1981332 -0.17556219 0.076608405 -0.22325306
0003e0 64 cf 4b 3e 23 de 7b 3d 09 58 57 3b 37 ac 44 3e
       0.19903332 0.061491143 0.003285887 0.1920632
0003f0 58 b3 53 be bc f3 42 be d9 9b 9d bd e4 b5 bd 3d
       -0.20673883 -0.1903829 -0.07695741 0.092632085

fc5.bias f4 [20]
000000 ca 77 b0 3e 1b af db be 30 2b da bd 32 cc a7 be
       0.34466392 -0.42907032 -0.106527686 -0.32772976
000010 15 83 06 3e f8 87 bd 3e 23 f8 80 be 9b ff ce 3e
       0.13135941 0.37017798 -0.25189313 0.40429386
000020 1b ce e0 3e 29 1a 5a be 83 99 7f bd cc a9 ee bd
       0.43907246 -0.21299042 -0.06240226 -0.1165348
000030 26 0b c3 3d e6 97 20 be 9b 3e 82 3e d2 a1 10 be
       0.09523611 -0.15682945 0.2543839 -0.1412423
000040 fb b2 a9 bd 2f 18 7b 3d 51 1f 4c 3e 5a 87 ab bd
       -0.08286091 0.06130236 0.19933821 -0.08375426

fc6.weight f4 [3, 20]
000000 24 93 90 bd 11 4d 6b be ce 4b c8 3e b2 67 8a bd
       -0.07059315 -0.22978617 0.39120334 -0.067580596
000010 96 5c b6 be 04 a9 f4 be dc 9a 2b be 05 a5 24 be
       -0.35617512 -0.477852 -0.16758293 -0.16078575
000020 15 2f a0 bd f6 14 a7 3d 3b b8 43 3e 1f aa f1 bd
       -0.0782148 0.08158295 0.19113247 -0.11800026
000030 f8 30 3e 3e d6 81 05 bf e0 d3 e3 3e 82 db 1a 3e
       0.18573368 -0.5215124 0.44497585 0.15122798
000040 bd 5c 48 3e 08 69 88 be 39 ec 89 be 5f 3a d4 39
       0.19566627 -0.26642632 -0.26938036 0.0004047928
000050 37 55 d7 3e 02 34 20 bf 28 8d b1 be c0 66 f2 be
       0.420572 -0.6257936 -0.34678006 -0.47344017
000060 04 cd b5 3e d7 c0 4b 3e 5f 8d d5 be e2 d9 06 3f
       0.35507977 0.19897781 -0.4170942 0.5267621
000070 21 1f e8 3e 1d 22 de 3d bb de 49 be e5 b5 ca be
       0.4533625 0.1084635 -0.19713871 -0.395919
000080 d5 63 c5 bd 42 0a 97 be ce e1 4f bd c3 fa d6 bc
       -0.09638182 -0.29500014 -0.050752454 -0.02624262
000090 4e 88 9a be 44 eb 9b be 54 fb 9e 3d ed de ff 3d
       -0.30182117 -0.3045293 0.07762781 0.124936916
0000a0 b6 70 98 be d5 79 70 3e 73 20 a6 be 08 a3 e1 3e
       -0.29773492 0.23483975 -0.32446632 0.44069695
0000b0 ee 04 94 3e 2e 5f 0e 3e 14 19 1b 3f 2d be 92 be
       0.2891001 0.13903496 0.6058514 -0.28660718
0000c0 7c 97 5e be 00 76 2c bd be af 2f be 0c b4 f1 3e
       -0.21737474 -0.04210472 -0.17156884 0.47207677
0000d0 3a f5 2a be e8 8d 07 3f b5 60 97 be 1d 1b 5a bd
       -0.16695109 0.52950907 -0.2956597 -0.053248513
0000e0 7e ef 0d 3f ff ec 14 3f 34 ac 05 3e d0 9e 63 3d
       0.5544356 0.5817413 0.13053972 0.055571377

fc6.bias f4 [3]
000000 6d c5 75 be 8e 70 a0 3c 20 85 04 be
       -0.24001093 0.01958492 -0.12941408
