models_3val/and_or_3.pth (torch, 12162 bytes, 12 tensors)

fc1.weight f4 [20, 12]
000000 ca 96 1a 3e ab fd 76 bd ed 1c bb be 7b f2 9f 3d
       0.15096584 -0.06030051 -0.36545506 0.07809921
000010 a8 23 56 3e ee c2 62 bc 81 ec 69 3e db 18 ac 3d
       0.2091204 -0.01384042 0.22844125 0.08403178
000020 94 de 4a 3e 52 fd 73 3d 33 5e 8a 3c 6d f6 12 bd
       0.1981147 0.059567757 0.01689062 -0.03587954
000030 3d 77 8c bd b4 49 71 3e 93 e6 d6 3e f2 37 5e 3d
       -0.068586804 0.23563272 0.4197279 0.054252572
000040 39 2b 01 3e 1f 51 a6 bd 2b e8 72 3e 07 e8 83 3e
       0.12614144 -0.08120941 0.23721378 0.2576296
000050 f2 26 a3 bd 2c 9e 6b 3d a4 f3 49 bd 23 ae 36 bb
       -0.079664126 0.05752389 -0.04930462 -0.002787479
000060 a0 09 27 bd d7 5d db 3e 93 07 92 3e 55 75 cd 3d
       -0.040780663 0.42845032 0.28521404 0.10032145
000070 a6 67 4a 3e b3 1f 4f bd 9c aa d9 3c dc a9 84 3e
       0.19766101 -0.05056734 0.02657061 0.25910842
000080 8f 4b 8c 3e 10 c4 25 3e bf 08 37 be 99 55 a4 3e
       0.27401397 0.16188073 -0.1787443 0.32096556
000090 39 f4 2a bf c1 09 9c 3e 96 bc fb be a5 f7 64 bd
       -0.66778904 0.30476192 -0.49167317 -0.055900235
0000a0 b7 d5 eb 3c fa 14 62 bd 8c a9 85 bd 21 c1 a5 3d
       0.02878843 -0.055195786 -0.06526479 0.08093477
0000b0 e4 49 22 3c 39 e6 fc 3d de 80 e0 3d ad d7 87 bc
       0.009905312 0.12348599 0.109620795 -0.016582334
0000c0 e6 34 96 3e 22 96 fa 3d 76 76 9c 3e 8b d0 a4 3e
       0.29337233 0.12235667 0.3055913 0.32190356
0000d0 66 75 87 3e a4 fd 34 3e e7 48 8e bd eb de 5d bd
       0.26456755 0.17674881 -0.06947499 -0.05416767
0000e0 02 12 ab 3e d7 77 cf 3e d5 2b f2 3d f8 74 d5 bc
       0.33412176 0.40521118 0.118247665 -0.026056752
0000f0 60 ca 63 3e 6b 50 12 bf fd 02 ec be 7a 52 13 3e
       0.22245169 -0.5715396 -0.4609603 0.14386931
000100 1f ba 65 bd 59 33 05 be a4 f7 d0 bd e3 2b 5f 3d
       -0.056085702 -0.13007869 -0.10203484 0.054485213
000110 0d 6c 00 3d 46 87 ea bb 47 3c 58 3e 9f 0f 65 3d
       0.031353045 -0.007157239 0.21116744 0.0559231
000120 fb 6c a7 3e cc 33 8a 3e 02 38 5b 3d d6 3f 76 3d
       0.32700333 0.26992643 0.05352021 0.060119472
000130 2f 88 b5 3e 02 5c ca 3b 64 e9 35 be 79 fb c7 bd
       0.35455462 0.006175519 -0.17764813 -0.097647615
000140 fb 14 32 3e f9 a6 ab bc 2a 7d 2d 3e 9e 86 7c bd
       0.17390816 -0.020953642 0.16942278 -0.06165182
000150 ca 3a 05 3e 59 26 f5 3d 24 09 91 be 3b bd fa bd
       0.13010707 0.11970205 -0.28327286 -0.12243124
000160 5d a2 b2 bb 92 db d3 3c 99 49 1c bd cc 29 13 be
       -0.005451484 0.025861535 -0.038156126 -0.14371413
000170 68 b8 4e 3e 66 da 8b 3e bb 13 3a be 75 23 ea 3d
       0.20187533 0.27315062 -0.18171589 0.11432544
000180 4a a7 46 3d c7 e6 97 3d 02 4a 69 be d3 46 f5 3d
       0.048499383 0.07417064 -0.22782138 0.11976399
000190 e0 52 bd 3d 73 49 ac bd 51 2f 81 3e d4 dc 92 3e
       0.09244323 -0.08412447 0.25231412 0.28684103
0001a0 f4 f0 67 3e 72 43 75 3e 65 06 3f bd 98 58 a3 3e
       0.2265051 0.2395151 -0.046636958 0.3190353
0001b0 70 d3 1c bf 82 ec f7 3e eb 0f 93 be 23 ed a1 3d
       -0.6126013 0.4842263 -0.28723082 0.07906558
0001c0 4e a9 aa bc b1 de 7f 3d c7 9b 48 bd 8f 22 0a bd
       -0.020832684 0.062468234 -0.048976686 -0.033724364
0001d0 31 8a 83 bc cf 76 90 bb 0b 2d 4b 3c f2 8c 9b 3d
       -0.016057106 -0.0044086943 0.012400876 0.075952426
0001e0 60 53 bb 3d 4e f3 b5 3e dc ba 99 3e 08 b7 08 3d
       0.09146762 0.3553719 0.30025375 0.033377677
0001f0 63 e6 c3 bd a6 7d f4 3d 5d af 47 3e f7 c3 ad 3e
       -0.09565427 0.11938028 0.1950049 0.33938572
000200 b9 9b f7 bb 81 7b 9f 3d c6 bb 32 3e 73 c1 06 3e
       -0.0075564054 0.077872284 0.17454442 0.13159733
000210 01 c7 2c 3d 6c 9e 6f 3c a0 9f e7 3e de 54 a6 3d
       0.042181972 0.014625173 0.45238972 0.08121656
000220 85 eb d3 3d 91 2e f8 3d 14 bb 42 3d c1 ba 96 3e
       0.10347656 0.12118257 0.047541693 0.29439357
000230 87 19 9b 3e c0 6d d1 bd 3d 47 28 3e e8 a4 96 3e
       0.30292913 -0.10226011 0.16433425 0.29422688
000240 7b 4a be 3d 66 ec 62 3e fa 01 00 3f d2 24 2e 3e
       0.0929155 0.22160491 0.50003016 0.17006233
000250 57 c4 68 3e e8 eb ee bc db fa e5 bc a9 6d b1 bd
       0.22731148 -0.029165223 -0.028073719 -0.08663494
000260 2f 77 04 3e eb 97 a2 bd 14 34 53 3e 4a bd 37 3e
       0.1293609 -0.07939132 0.20625335 0.17943302
000270 43 89 9f bd 0e a1 c0 be e3 59 ef be 43 71 5b bd
       -0.077898525 -0.37622875 -0.46748266 -0.05357481
000280 39 9b 45 3b 6c 17 34 3e 0e 1e ff 3d 46 51 ba 3d
       0.0030152334 0.1758706 0.12456904 0.09097533
000290 34 91 78 3e b4 ac 72 3d f3 b7 3e 3e d0 7b d1 3d
       0.2427414 0.059246734 0.18624859 0.102286935
0002a0 6a 31 ae 3e 4d 1a f0 3e 53 d9 9d 3e d6 c9 83 3d
       0.34022075 0.46895066 0.30829868 0.064349815
0002b0 e6 b5 33 be 78 7c 9b 3e ce 77 84 3e de 79 37 3e
       -0.17549857 0.303684 0.25872654 0.17917582
0002c0 f5 cd 89 bd 41 f2 a8 3e 29 c7 70 3e a5 9b 21 be
       -0.06728736 0.32997325 0.23513474 -0.1578203
0002d0 a1 a1 02 bf f9 f5 c6 3e 57 ac 6f 3d b4 d0 bb 3d
       -0.51027876 0.38859537 0.058513965 0.09170666
0002e0 9e 62 d8 bd bb d3 17 be 31 1f aa 3d 72 99 a4 3d
       -0.10565685 -0.14826863 0.083067305 0.0803708
0002f0 12 b6 d3 bb 12 1f 3b be 1e 35 d5 3d 3c 25 cb bc
       -0.0064609135 -0.18273571 0.10410522 -0.024798028
000300 de fe ae bd 1b 7c 4e be 16 ba b0 be e3 f2 10 3e
       -0.08544706 -0.2016453 -0.34516972 0.14155154
000310 29 0c 74 3e 6c 03 4e 3e f3 f2 3b bd af 8d 18 3e
       0.23832764 0.20118493 -0.04588599 0.14897798
000320 18 31 a0 bd cc 72 8c bd b7 90 85 3d 8f ee 12 3d
       -0.07821864 -0.06857833 0.06521743 0.03587204
000330 72 f0 95 3e 01 ec 77 3d ea 5a 2e be 5f 1f f4 3d
       0.29285008 0.060527805 -0.17026868 0.11920046
000340 2f c1 9d 3e 53 33 79 3e eb 3c bf 3e 94 ac 5e 3e
       0.3081145 0.24335985 0.37351164 0.21745521
000350 f7 00 9c 3d 28 9a a8 3e 7e 0c 0f be b5 14 1b 3e
       0.076173715 0.32930112 -0.13969609 0.15144618
000360 4c 66 96 be ef 29 43 3e c0 b5 b3 3b 2f 76 c2 3d
       -0.2937492 0.19058965 0.005484313 0.09495198
000370 96 aa cf 3d 14 af 45 be 6f 83 68 3e 25 74 62 be
       0.101399586 -0.19305068 0.22706388 -0.22114618
000380 cc 2e 70 3e 18 75 78 bd 3c bd 9e bc 85 93 87 bd
       0.23455352 -0.060658544 -0.019377343 -0.06619934
000390 6a 2d 0b be b4 10 f8 bb bb 60 3a 3e 5f 4f 04 be
       -0.13591543 -0.0075703505 0.18200962 -0.12920903
0003a0 09 64 77 3e 8d 5d 5c 3e 6e 0c 88 3e c7 23 59 be
       0.24159254 0.21520062 0.26571983 -0.21205054
0003b0 6f ed e2 3d 67 b3 1a 3d 7f 5f f2 be 7c 6e 8c bd
       0.11080443 0.037768748 -0.47338483 -0.06857011

fc1.bias f4 [20]
000000 7e 0e b4 3e 75 e4 c3 3e 6e fa 3a 3e 5a 95 d8 3d
       0.35167307 0.38260236 0.18259594 0.105753615
000010 08 77 c6 bd 1f 30 92 3e e4 90 d5 3d b3 53 b2 3e
       -0.09690672 0.28552338 0.10428026 0.34829482
000020 72 22 7d 3e ac 77 29 bd cd cc ba 3e 2f 9e 11 3d
       0.24720171 -0.041373894 0.36484376 0.035551246
000030 2c e0 72 3d f7 04 93 3e 6d 23 33 3d 3b a0 f9 3d
       0.05929582 0.28714725 0.043734957 0.12188765
000040 6a 02 c5 3e 42 da bc 3e 2a b1 32 be 53 1c 53 be
       0.38478404 0.36885267 -0.17450395 -0.20616274

fc2.weight f4 [20, 20]
000000 e7 c0 50 3e ff ad 14 be 57 51 da bd 75 07 e9 3e
       0.20386086 -0.14519499 -0.106600456 0.45513502
000010 d3 cc d1 bd 35 77 09 3f 5d 20 c2 38 fd 78 8f 3d
       -0.10244145 0.5369752 9.256669e-05 0.070054986
000020 cf 73 c0 3e f5 b1 a5 3e 77 6f 1a 3e 6e b9 67 be
       0.37588355 0.32362333 0.15081583 -0.2262933
000030 83 0d 07 be 8a d2 2b 3e 86 7f b4 bd a6 16 c5 3e
       -0.13188748 0.16779533 -0.08813386 0.38493842
000040 2d 7a 82 3d 92 b2 d6 3c 8e d5 ea 3c bb 85 65 3d
       0.063709594 0.026208196 0.028666284 0.05603574
000050 d5 0e cb 3d c2 f0 fe bd 3d e1 d3 bc aa b1 28 3e
       0.09914938 -0.12448265 -0.025864238 0.16474023
000060 e2 16 d8 bd aa 84 c8 bc 17 ff 01 be 21 35 0b bd
       -0.105512396 -0.024477322 -0.12694965 -0.033986215
000070 b1 93 11 be b8 19 27 bc f5 a1 ec 3d ab 53 62 bd
       -0.14216496 -0.010199003 0.11554328 -0.055255573
000080 fa e4 aa 3d a0 d1 2f be 18 27 15 3d 0f a7 10 bb
       0.08344455 -0.1716981 0.036414236 -0.002207223
000090 e4 b8 64 be fb a5 5b be 4a 19 98 3d ab e1 e1 3d
       -0.22336155 -0.21450035 0.074266985 0.11029371
0000a0 ce 33 b5 3d 6c 4d 16 3d 83 73 38 be 05 6d 1e 3c
       0.088477716 0.03669493 -0.18012814 0.009669547
0000b0 8c 74 5c be 73 77 a3 bd 31 84 b9 bd 3a 7e f8 bd
       -0.21528834 -0.079817675 -0.09058417 -0.12133451
0000c0 2d ae 07 be f1 04 22 3e 3e 99 fc bd bd a5 96 3d
       -0.13250037 0.15822197 -0.12333916 0.07355831
0000d0 58 e3 26 bd 8c ec 4a bd cf 5e 9e bd 82 de d5 3d
       -0.040744156 -0.049541995 -0.07732927 0.104428306
0000e0 fd 5b 39 bd 56 7d 95 3c 16 0d e8 3c c4 eb 1b bd
       -0.045253742 0.018248241 0.028326552 -0.03806664
0000f0 af fb 1b 3e 74 ae 05 3d 83 53 52 be 61 44 a4 3e
       0.15232728 0.032637075 -0.2053967 0.3208342
000100 08 2b 06 3e 38 71 60 3e 25 92 0c 3e e8 b5 0b 3b
       0.13102353 0.2191819 0.13727625 0.0021318141
000110 64 0d a2 3e 51 ca b6 3e e3 df 75 be 42 02 0b be
       0.3165084 0.3570123 -0.24011187 -0.1357508
000120 ef 45 35 be 49 a2 6c 3e 28 84 17 be b8 1e 68 3e
       -0.17702459 0.23108782 -0.14796507 0.22667968
000130 6c 84 6e 3e 22 95 88 3e fa bf ae 3e 13 de 7c 3d
       0.23292702 0.2667628 0.34130841 0.061735224
000140 19 43 8f bd ef 85 ae 3e 5a 75 3b 3e 12 8d c8 be
       -0.0699522 0.34086558 0.18306485 -0.39170128
000150 d9 e0 81 3e 39 7f ca be 8f 86 71 3e 31 a9 4c 3e
       0.25366858 -0.39550188 0.23586486 0.19986416
000160 d0 b6 41 3e 00 2f b1 be 58 43 1a 3e 84 24 be 3d
       0.18917394 -0.3460617 0.15064752 0.092843086
000170 57 6d f3 3d 5b 39 bc be 65 a6 9e 3e bb 2f 4d bd
       0.11886089 -0.3676251 0.30986324 -0.050094347
000180 c2 83 b2 be d0 9e 6a 3b 2d 9d b5 3d c9 e9 ce 3c
       -0.34866148 0.0035800226 0.088678695 0.025257962
000190 c0 8c 66 be 16 38 10 3c e8 78 bb 3d 9d 18 e7 ba
       -0.2251463 0.008802434 0.091539204 -0.0017631237
0001a0 ff b9 72 be 26 e4 6e be 92 5c 65 be d6 f5 73 be
       -0.23703764 -0.23329219 -0.22398594 -0.23824248
0001b0 ee 4b 2e be 27 86 d1 3d 6e 36 b6 3d aa 60 02 bd
       -0.17021152 0.10230666 0.088971004 -0.031830467
0001c0 0a de d4 3d d2 b6 39 be 4c b5 30 be a6 82 b1 3c
       0.10393913 -0.18136147 -0.1725666 0.021668743
0001d0 f7 05 d0 bd 4d e2 d2 bd ad 51 de 3d 26 81 27 3e
       -0.10157388 -0.1029707 0.10855422 0.1635786
0001e0 ca cb a7 3e 4b 96 47 3e 6d be 4a 3d 5b a7 96 3d
       0.32772666 0.19490926 0.04949801 0.07356139
0001f0 2c 26 cc 3e 7a eb 3a 3e 42 09 9f 3e 9a 82 39 3e
       0.39872873 0.1825389 0.3106175 0.18116227
000200 55 58 7f 3e 01 74 41 3d 75 cd a4 3e 8e bf 80 3e
       0.2493604 0.04722977 0.32188 0.25146145
000210 27 f6 8b 3e 95 97 a8 3e 70 03 91 3e 4b 19 01 3f
       0.27336237 0.32928148 0.28322935 0.5042922
000220 2f 56 aa 3d db 52 24 3e c9 6d 5b 3e b0 1b 4c 3e
       0.083172195 0.16047232 0.21428598 0.19932437
000230 47 db c1 bd 6f 20 a6 3e bc 0c 01 3d 8f 14 4a be
       -0.09465652 0.3244662 0.031506285 -0.19734405
000240 5b a4 5f 3e 92 c1 62 be 87 2a 23 3e f0 e8 30 be
       0.2184004 -0.22144154 0.15934192 -0.17276359
000250 12 25 37 bd d6 f2 06 bf 10 52 a7 3e 6e 2f 29 3e
       -0.044713087 -0.5271429 0.32679796 0.16521999
000260 27 7d 63 3e 91 a0 97 bd 64 23 3d 3e f8 3d eb bd
       0.2221571 -0.074036725 0.18470532 -0.11486429
000270 37 42 a6 be c9 12 b6 3d 1c 51 1a 3e 74 0f 3a bd
       -0.32472393 0.08890302 0.15070003 -0.045424893
000280 69 8d 0c be 5b db 7c 3e cf e0 85 3e 50 f3 98 bd
       -0.13725819 0.24693052 0.26148078 -0.07468283
000290 4d 5a 14 bd b8 16 55 be 31 ec 80 3e 89 d4 aa 3d
       -0.03621893 -0.20809448 0.251802 0.08341319
0002a0 a3 33 39 bd e0 9f 9a be 96 26 0c 3b db 4f d6 3e
       -0.04521526 -0.302001 0.0021385304 0.418578
0002b0 40 c0 8b 3e 5b cc 93 be 08 fd a3 3e af d3 43 be
       0.27295113 -0.28866848 0.32028985 -0.1912372
0002c0 cb 3e c4 be 8e 67 80 3e b9 b9 23 3e 26 a3 2f 3e
       -0.38329157 0.25079006 0.15988816 0.1715208
0002d0 d6 7c 03 3e 52 f2 9a 3e 9f 97 4e 3e 6b 54 83 3e
       0.1284059 0.30263 0.20175026 0.25650343
0002e0 71 39 25 3e e8 52 66 bd 3b e0 e3 3d 8d 9a 26 3d
       0.16135193 -0.05623141 0.11126753 0.040674735
0002f0 b7 17 14 3e 59 34 c6 3e 4f a1 95 3e cd 07 6b 3e
       0.14462171 0.38711813 0.2922463 0.22952195
000300 1d be 24 3c 2e 8e fb bc 54 9d b8 bc df cc a2 3e
       0.010055092 -0.030707445 -0.022535957 0.3179693
000310 27 af 94 3d df 38 39 3e ce e2 9b 3e b0 4d 74 bd
       0.0725997 0.18088101 0.30446476 -0.0596444
000320 c4 2f 47 3d 86 bf e9 3e 22 73 3e 3d a1 6e a4 bd
       0.048629537 0.45653933 0.046496518 -0.08028913
000330 da d5 6e 3e 58 b4 99 be fe 33 0c 3e fd 13 06 be
       0.23323765 -0.30020404 0.13691708 -0.13093562
000340 98 1b 37 be 40 53 dc be 4a 13 ad 3e 30 52 d5 3e
       -0.1788162 -0.43032265 0.3380378 0.41664267
000350 58 61 e4 3e b5 91 50 3d dd 68 47 3d 57 8d 1b be
       0.44605517 0.050920207 0.04868399 -0.15190636
000360 a4 22 0a be 91 0b 2b 3d 9e 55 87 3d 80 28 27 3e
       -0.13489777 0.041759077 0.06608127 0.16324043
000370 f8 52 8a bd 03 e9 dd 3d a7 3d a5 3d a9 4e d4 be
       -0.06754106 0.10835459 0.080684 -0.41466263
000380 33 f9 8b 3e 1b dd 65 be bc 2d 3b 3d dd 32 7f 3e
       0.2733856 -0.22447626 0.045697913 0.24921747
000390 05 b4 14 3e 53 27 f8 be 82 9f 7f 3e eb e8 1e 3e
       0.14521797 -0.48467502 0.24963191 0.15518539
0003a0 09 6e 93 3e 84 7f 63 bd d3 b0 55 3e 79 94 89 3d
       0.28794888 -0.05554153 0.20868234 0.06717772
0003b0 1f 6b 88 be 92 e2 01 be b9 42 2b 3c 4c 4c 76 3e
       -0.26644227 -0.12684086 0.01045292 0.24052542
0003c0 2d f4 97 3c c6 bf 50 3e 0e 16 53 bd ec b9 e0 3d
       0.01854905 0.20385656 -0.051534705 0.10972962
0003d0 6e c3 94 bd aa 29 71 3d fc 50 5b be 9f 03 d4 bd
       -0.07263838 0.058877625 -0.21417612 -0.10352253
0003e0 aa 18 2a 3d 46 bf 07 3e 70 9b 52 be bd 0d 35 be
       0.041527428 0.13256559 -0.20567107 -0.17681022
0003f0 95 a6 c3 bd 78 92 3d 3e 8d 39 b3 bd 67 ac 55 be
       -0.095532574 0.18512905 -0.08751211 -0.20866548

fc2.bias f4 [20]
000000 1f 86 3e 3e fb fb c1 bd 5c 7c 5a bd c9 d3 72 b9
       0.1860585 -0.094718896 -0.053341255 -0.00023157815
000010 b2 53 6d 3e 67 49 44 be 51 0d 26 3e 84 30 e5 3d
       0.23176458 -0.19168626 0.16216017 0.11190894
000020 bd 5c ec 3d d5 3e 58 3e c9 68 a6 3d 90 8d 83 3e
       0.11541126 0.21117719 0.08125455 0.2569394
000030 94 11 b5 3d 90 42 aa 3d b7 c3 b2 bd 9e e9 ef 3e
       0.088412434 0.08313477 -0.08728736 0.46857923
000040 44 79 26 3e a1 28 25 3e 7c 28 9a 3e 12 6b 94 3e
       0.16257197 0.1612878 0.30109012 0.28987938

fc3.weight f4 [20, 20]
000000 94 ea 0d be 91 da c2 bc 0f 4e df bd dd 36 04 be
       -0.13859016 -0.023785861 -0.1090356 -0.12911554
000010 4a a5 a3 3e 6b d8 2f be fe f9 a8 3e 96 39 a9 3d
       0.31962043 -0.171724 0.3300323 0.08262937
000020 f4 4e 3e 3e 18 1d cc 3e 1f 0f d2 3e 88 75 a0 3e
       0.18584806 0.39865947 0.4102716 0.3133967
000030 95 87 7b bd 46 50 39 be a0 9e 79 3e 6b 1c c6 3e
       -0.061408598 -0.18097028 0.24376917 0.38693556
000040 51 c4 be bb e0 cc bf 3e 1f 1b 6f 3d 3a ec 59 3e
       -0.0058217426 0.37460995 0.058375474 0.2128152
000050 67 06 93 3e 2a d1 87 bd fd f0 54 3e 8a 67 62 3e
       0.28715822 -0.06631692 0.20795055 0.2210981
000060 d6 44 8f 3d 08 22 af 3d 73 13 6f 3e 65 27 06 be
       0.06995551 0.08551413 0.23347263 -0.13100965
000070 3e cb c0 3c 69 78 40 3e 73 8f 24 3d 97 d2 34 be
       0.023534413 0.18795933 0.040175866 -0.17658459
000080 61 44 85 bd e9 2b 04 3d e4 c7 79 be 69 1d 20 be
       -0.06507183 0.03226844 -0.24392658 -0.15636219
000090 b8 f4 f5 bd 32 62 08 bd 79 fc 7f bc 9c 7a 14 3e
       -0.12009567 -0.03329677 -0.015624159 0.14499897
0000a0 2a 4f bc be 02 e2 1a be 68 6c d5 bd 44 a9 ec be
       -0.36779147 -0.15125278 -0.104210675 -0.4622289
0000b0 c8 57 27 3e 8a fc 94 bd 17 75 05 3c e7 cf c0 3e
       0.1634208 -0.072747305 0.008145592 0.37658617
0000c0 3e 61 6f 3e 0e 8a 6f 3e a4 f7 c9 3e fc 4d bd 3e
       0.23376939 0.23392507 0.39446747 0.3697356
0000d0 10 bf 85 3d 6b 7d 22 3e 12 07 ca 3e a0 49 1e bd
       0.06530583 0.15868156 0.3945852 -0.038644433
0000e0 51 bf cd bc f8 85 99 3e 10 af 8d bd ae 66 0b be
       -0.02511564 0.29985023 -0.06918156 -0.13613388
0000f0 57 83 cd be 4a 78 e7 3d 4e d2 da 3c 46 c5 fe be
       -0.40139267 0.1130224 0.02671161 -0.49759883
000100 66 fc 9d 3d 27 ad e1 3d 09 1c 34 3e 43 f1 72 3e
       0.07714157 0.11019354 0.1758882 0.23724847
000110 fd 41 3e 3d 86 74 51 3e 27 ce 9f 3d 4a 87 50 3e
       0.04644965 0.20454606 0.07802992 0.20364109
000120 7b 6a 37 3d 66 22 16 3e 95 c6 dd 3e ec 0a 09 3e
       0.044779282 0.1466156 0.4331557 0.13383073
000130 a6 95 12 bd 5d 29 a1 3e f6 2b 97 3d 97 8a 79 be
       -0.035787247 0.3147687 0.07381432 -0.24369274
000140 63 a7 41 3d 45 12 63 3e 99 e9 11 bd c7 d8 f0 3c
       0.047278773 0.22174938 -0.035623167 0.029400242
000150 5e 45 05 bd e5 58 00 bd a1 8d 19 3b e9 7f 43 be
       -0.032536857 -0.031334776 0.0023430365 -0.19091763
000160 df 52 41 be b6 50 23 bd f6 85 33 bd 41 2f 39 be
       -0.18879269 -0.039871894 -0.043828927 -0.18084432
000170 38 09 16 bd d8 83 4e be d5 84 1a 3e c3 8e 45 be
       -0.036629885 -0.20167482 0.15089734 -0.1929274
000180 cb bc 3e 3c 1d fd 05 be f5 a7 ec bd af 9b d4 bb
       0.011641691 -0.13084836 -0.11555473 -0.0064882855
000190 1c 6c 53 be cc d8 ad 3c 46 4a 69 3d 77 ae 08 3e
       -0.20646709 0.02122154 0.0569556 0.13347803
0001a0 c2 93 45 be 4b d0 49 3e 47 a3 d8 bd aa 9a 6b bd
       -0.19294646 0.19708364 -0.10578018 -0.057520546
0001b0 e8 29 4c bd 97 49 9d 3d 08 63 a9 bd 61 41 5e be
       -0.049844652 0.07680052 -0.08270842 -0.21704628
0001c0 81 3c 3d 3e c1 f8 51 be 32 a9 28 be ec 13 e2 bd
       0.18480112 -0.20505048 -0.16470793 -0.11038956
0001d0 36 c2 ad bd 91 3a 45 be e8 c8 16 bd cc 95 48 be
       -0.084843084 -0.19260623 -0.036812693 -0.19588393
0001e0 a0 ee ee be f8 42 e7 3d 2c b4 f4 bc c2 ac f7 bd
       -0.4666643 0.1129207 -0.029871069 -0.12093498
0001f0 fa 28 a6 3e 5b 7c 69 3d ad 33 ab 3e 58 04 53 3e
       0.32453138 0.05700336 0.33437863 0.20607126
000200 ef f5 ab 3d de 1c af 3d ce 27 38 3e dc 4c 81 3d
       0.083965175 0.08550428 0.17983934 0.06313488
000210 d4 74 24 3e 6d 44 ea 3d 0c 13 29 3e 60 f4 87 bc
       0.16060191 0.114388324 0.16511172 -0.01659602
000220 42 bd 55 be 4d b7 a8 3e ea f2 ce bd 25 79 0c be
       -0.20872977 0.32952347 -0.10104926 -0.13718088
000230 26 08 73 3e bc 88 e6 bd fc c3 d8 3d 09 d4 c2 3e
       0.23733577 -0.11256549 0.10584256 0.38052395
000240 cd 09 80 be d5 e6 95 bc 27 f6 42 3e 5f cd 86 bd
       -0.25007477 -0.018298546 0.19039212 -0.0658214
000250 97 76 75 3b d5 7d 7b bd 3e ad 6a 3e bf e1 44 be
       0.0037454718 -0.0613993 0.22917649 -0.1922674
000260 ce c5 3d be 91 10 11 3d 53 8e 46 be 64 0b 98 3d
       -0.18532488 0.03541619 -0.1939023 0.074240476
000270 e1 a2 58 3d 87 72 74 3d 3b 46 94 3e 3c 55 02 3e
       0.05288971 0.059679534 0.28959832 0.12727827
000280 e6 26 bc be c3 00 a4 3d 0c 43 e9 bc 70 50 e3 be
       -0.36748427 0.08007958 -0.028474353 -0.44397306
000290 f6 7d 91 3e c0 95 a8 3c f9 6e 1a 3e 34 2e 97 3e
       0.28416413 0.020579219 0.15081395 0.29527438
0002a0 04 b3 34 bc d5 26 dd 3d 65 2c c7 3e be 2d 80 3e
       -0.011029009 0.10798422 0.38901058 0.250349
0002b0 71 64 75 3c fb ed e3 bc 18 8b ba 3e 80 8b c4 3d
       0.01497756 -0.027823439 0.36434245 0.0959692
0002c0 75 a6 64 bc d8 d5 8e 3e aa b4 97 bd 8d e4 c3 be
       -0.013955702 0.27897525 -0.07407506 -0.38260308
0002d0 1a e8 89 bc 5c cf 30 be 0b 41 d0 bd bd 78 e1 3d
       -0.016834307 -0.17266601 -0.10168656 0.11009357
0002e0 38 1d f9 bd 3a 8a 2e bd 0b b4 2e 3d 68 21 fe bd
       -0.12163776 -0.042612292 0.04265217 -0.124087155
0002f0 cd d9 e2 3d cf ae 49 bb bf db cd bd 4b 76 d9 3d
       0.110766985 -0.003077436 -0.10051679 0.10618266
000300 6f 10 59 be e5 ed 54 be fb 03 01 be ea 8e 56 be
       -0.21197675 -0.20793875 -0.12599175 -0.20952955
000310 2b c9 58 bd 5b 23 eb 3d ac 2e da bd 1a 23 53 be
       -0.052926224 0.11481353 -0.10653433 -0.20618859
000320 5e 38 b7 3e ac 93 3e be 7d 55 54 be f4 ec 47 3e
       0.35785192 -0.1861102 -0.20735736 0.19523984
000330 09 05 48 be 35 e2 3d be d6 f9 ae 3e b8 93 7b bd
       -0.19533171 -0.18543322 0.34174985 -0.061420172
000340 55 21 21 bd 5f a6 8a 3e 4f 78 70 be f9 1c 9c bd
       -0.03933843 0.27080056 -0.23483394 -0.076227136
000350 83 7e 8f bd 23 ad 2c be 78 63 11 be f8 5d 82 3d
       -0.07006552 -0.16862921 -0.141981 0.06365579
000360 03 d7 7b bd a0 f4 5e 3c 20 c0 83 3e 04 a8 f5 3e
       -0.061484348 0.013608128 0.25732517 0.47979748
000370 00 cf 46 be 05 fe 3a 3b df 8a 9e bd 13 f2 2a 3e
       -0.19414902 0.0028532755 -0.07741331 0.16693906
000380 22 55 32 be 4a 7f 52 bd f4 c0 0d be 0c f4 aa bd
       -0.17415288 -0.051390924 -0.13843137 -0.083473295
000390 c5 0f 40 bd 9e b9 53 bd 9b 0c c0 bd 54 36 a7 bc
       -0.04689004 -0.05169069 -0.09377404 -0.020411648
0003a0 59 54 14 3c bd fe ef bc 37 4b 06 3e 3a b8 ec 3d
       0.009053313 -0.029296273 0.1311463 0.11558576
0003b0 34 65 8f bc 1a 9a 2c bd 48 9b e2 3d 11 5c 32 be
       -0.017504312 -0.04213915 0.11064774 -0.17417933
0003c0 73 48 47 3d 20 4c dd ba 4f a4 56 be 4e ef 5b be
       0.048653077 -0.0016883649 -0.20961116 -0.21478006
0003d0 57 30 98 3d f7 09 3c 3e ab d9 1d be c9 6f 1f bd
       0.07431095 0.18363176 -0.15415065 -0.038924966
0003e0 92 36 00 be d9 c0 40 be 7f 9a 45 be 4d 60 f9 3d
       -0.12520817 -0.18823566 -0.19297217 0.12176571
0003f0 3c 38 45 3d 88 14 03 3e bc 6d 1d be 03 34 07 3d
       0.048149332 0.12800801 -0.15373892 0.033008587

fc3.bias f4 [20]
000000 52 40 a7 3e 2d c9 5b 3e c7 d6 ca bd 6f d7 d1 bc
       0.3266626 0.21463461 -0.09904247 -0.025615422
000010 6a 9e 47 be 11 a9 60 be 75 8f 96 3d 82 a7 66 3e
       -0.19494024 -0.21939494 0.07351581 0.22524837
000020 38 9a 1c 3e a2 09 1b be 43 f1 50 3e 28 9f 21 bc
       0.15293205 -0.15140393 0.20404534 -0.009864606
000030 aa 0d 2a be ee bd b8 bc fd d0 41 3e cb ca 89 3e
       -0.16606775 -0.022551503 0.18927379 0.2691253
000040 b7 51 9e 3e 9e f9 ae 3e ea 36 05 bd 43 a7 e5 bc
       0.30921718 0.34174818 -0.032523073 -0.028033858

fc4.weight f4 [20, 20]
000000 1e 9e 27 be 05 fd 77 3e d5 4f 33 be d4 65 b0 be
       -0.1636891 0.24217613 -0.17510922 -0.3445269
000010 58 6a b2 bd 0a 22 26 3d 9f b2 65 3d d6 84 23 3e
       -0.0871169 0.040559806 0.05607855 0.15968642
000020 58 18 45 be 49 4a 71 bd 71 e3 e4 3e b8 76 9c bd
       -0.19247568 -0.058908734 0.44704774 -0.07639831
000030 e6 4c 55 3e cc a3 c6 3c 7c 86 73 be a2 08 d2 3e
       0.20830116 0.024248026 -0.2378177 0.4102221
000040 70 1c 7a 3e 7e 9c b0 3d 3c 35 52 3e fd c6 a2 3e
       0.2442491 0.086235985 0.2052812 0.3179244
000050 07 e2 7c be f1 ae 9b bc 43 66 41 be 9b 7c 0a 3e
       -0.24695598 -0.019004317 -0.18886666 0.13524096
000060 da 01 1d bd b9 a8 98 3d db 97 b9 bd 2d a4 80 3d
       -0.038331844 0.07454056 -0.09062167 0.06281314
000070 46 71 0e 3b ca 91 88 3d 38 04 bc 3d c5 ac 8f 3d
       0.0021734997 0.06668432 0.09180492 0.07015375
000080 9e b7 56 be 36 e7 9d bd 12 ea 44 3e a0 8e 03 3e
       -0.20968482 -0.077101156 0.19229916 0.12847376
000090 58 bd 52 be 26 fb 39 be cb 0b d4 3c b7 8c 8a 3b
       -0.20580041 -0.18162212 0.02588453 0.0042282003
0000a0 0a 48 ae 3c a7 54 e0 bc 43 e1 f1 bd 7c 3d f9 3d
       0.021274585 -0.027384115 -0.118105434 0.1216993
0000b0 84 2f 0c 3e b5 35 a1 bd f2 71 d7 bd 91 38 87 3d
       0.13690001 -0.07871572 -0.1051978 0.06602586
0000c0 d8 bf df bc 1e f6 3c 3d bc c8 d2 3d 53 79 ba 3d
       -0.027313158 0.046133153 0.10292193 0.09105172
0000d0 b4 96 28 be 83 f4 fa bd 44 90 22 be ea fb b4 bd
       -0.16463739 -0.12253668 -0.15875345 -0.08837111
0000e0 a1 66 86 bd cc 06 01 be 25 c8 c0 3d 53 80 ed 3d
       -0.06562544 -0.12600249 0.094131745 0.115967415
0000f0 4c d8 59 bd e8 36 8a 3c fe 43 be 3e a1 ba 6e 3e
       -0.053184792 0.016871884 0.3716125 0.23313381
000100 d7 5c 9a bd 70 b1 1b 3e 63 68 a1 3e 93 e0 ac be
       -0.07537239 0.15204406 0.31524953 -0.33765087
000110 a1 69 bb 3d 07 d2 f0 bd 16 73 4e be 79 ba 3b be
       0.091510065 -0.117588095 -0.2016109 -0.18332852
000120 36 c8 3e be e9 62 f0 3c 9b 63 b2 3e 7b ac d2 be
       -0.18631062 0.029344039 0.34841618 -0.41147217
000130 43 f2 9f 3e c6 46 ca bd 7c 75 cf 39 a9 f3 82 be
       0.3123952 -0.0987678 0.0003956965 -0.25576523
000140 43 80 60 be fa 96 b0 bc a7 0c 10 3e b6 23 ef bd
       -0.21923928 -0.021556366 0.14067326 -0.11676733
000150 c8 d2 57 bc a6 c4 83 bd 3b 3b 93 bd 90 51 51 be
       -0.013172813 -0.06433992 -0.07189032 -0.2044127
000160 54 61 45 be fd 54 31 3d 89 65 f6 bd 43 df 00 be
       -0.19275409 0.04329394 -0.12031085 -0.12585168
000170 ad 80 df 3c 30 33 da 3d 66 2f 0a 3c 57 57 91 bd
       0.027283037 0.106542945 0.008434152 -0.07096737
000180 1d 6e c1 3c 49 9b 09 3e f9 9a 48 3e e0 72 bb 3d
       0.023612076 0.13438143 0.19590367 0.0915277
000190 75 31 fb 3c 93 5a 0a be cf 33 92 3c df 30 6d 3c
       0.030663231 -0.13511114 0.01784697 0.014476984
0001a0 84 52 41 be cb 23 12 3e a6 05 92 bd 3c f1 b9 3d
       -0.18879133 0.14271466 -0.071299836 0.09079215
0001b0 03 54 5c be 45 7f eb 3d 59 31 bf bc e2 5e 1e 3e
       -0.21516423 0.11498884 -0.02333896 0.15465882
0001c0 6c b5 47 3e d9 56 05 be cf 41 dc 3d 10 65 52 3b
       0.195028 -0.13021411 0.107547395 0.0032103695
0001d0 b4 d7 9d 3c fb 03 be 3c fe 28 19 be 34 bc 97 bd
       0.019267894 0.023195257 -0.14957044 -0.07408944
0001e0 d5 4f 60 3e 83 db ac bd 83 e7 2b 3e b8 93 86 3e
       0.21905454 -0.08440306 0.16787533 0.26284575
0001f0 6c b5 01 3e fb c2 97 3d ca 6d 4b 3e 39 c1 8b be
       0.12666863 0.074102364 0.198661 -0.27295855
000200 1b 0d 21 3e d1 43 9e 3c a6 81 d5 bd 10 87 f1 3d
       0.15727656 0.019319447 -0.10425119 0.11793339
000210 a7 48 39 be 07 99 46 be f0 ef 9d 3e a4 9a a5 be
       -0.18094121 -0.19394313 0.3084712 -0.32344544
000220 0e 48 73 bd 92 23 1d bd 5f 3a 18 be a5 d1 8c bd
       -0.05939489 -0.038364 -0.14866017 -0.06875924
000230 00 c8 2a be 66 76 51 be 99 a6 07 be f3 46 50 be
       -0.16677856 -0.20455322 -0.13247146 -0.20339565
000240 42 19 59 3e dd f3 ca 3d 94 ea c0 3c b4 12 e7 3d
       0.21201041 0.099097945 0.023549356 0.11282864
000250 06 0d 46 3d 50 71 ce 3d ed 23 ea bc 1d 42 fa bd
       0.048352264 0.100802064 -0.028581584 -0.12219641
000260 fd cc 41 be 30 eb 0e 3e 9d 46 4c 3e 82 db 5b bd
       -0.18925853 0.13956904 0.19948812 -0.053676136
000270 2b 5c 1d 3e 28 a8 a2 bd 4a 83 9b 3c 37 83 10 bd
       0.1536719 -0.079422295 0.018983502 -0.035281386
000280 48 25 c3 3d ba d7 57 bd 99 1b 7a 3d ef cd 01 be
       0.09528595 -0.052695967 0.061061475 -0.12676214
000290 c9 bd ed bd 7a 33 4e be 9f 18 31 be 4f 37 f2 bd
       -0.11608464 -0.20136824 -0.17294548 -0.118269555
0002a0 ca f5 df bd 1c 9c 22 be 3d 3f 10 3e 32 ef 32 bc
       -0.109355524 -0.15879864 0.14086623 -0.010921286
0002b0 17 ab 0b bd f4 f6 d2 3d 8f 84 92 bd 2b e4 18 3e
       -0.03409871 0.10301009 -0.0715419 0.14930789
0002c0 57 5a 1e be 96 7f 2f be e0 7c 4d be b8 f9 d1 bd
       -0.1546415 -0.17138514 -0.20067167 -0.10252708
0002d0 22 4f 89 3e a8 1b e5 3d 00 bd fd 3c 57 47 fd 3e
       0.26818186 0.11186916 0.030973911 0.4946849
0002e0 c6 a2 fd bd 98 4b 2f be 56 92 ce 3e 77 69 61 3e
       -0.12384562 -0.1711868 0.4034602 0.22012888
0002f0 0d cc 44 3e 26 f6 11 3c 6c 3e bc 3d 60 47 30 3d
       0.19218464 0.008908784 0.091915935 0.04303682
000300 06 4d 4e be d2 17 6e 3e e6 f6 bc 3e 66 e4 bb bd
       -0.2014657 0.23251274 0.3690712 -0.09174423
000310 e6 37 8c 3e cf 4a e9 3e fb 7d db 3d 08 67 34 3e
       0.27386397 0.45564887 0.10717388 0.17617428
000320 7a a9 08 3d d1 11 e2 bd c8 92 2a 3e 5d 69 8c 3e
       0.03336475 -0.110385545 0.16657555 0.27424136
000330 c8 41 90 3c f0 05 4d bd 27 92 90 3e 6b 6d 9f 3d
       0.017609492 -0.05005449 0.28236505 0.07784542
000340 a6 a8 54 3e 31 79 55 3e 42 28 8c be 51 c8 9e 3d
       0.2076746 0.20847012 -0.27374464 0.07753051
000350 10 cd c7 bd 9a a6 44 3d 92 6b 83 3e c2 05 20 be
       -0.097559094 0.048010446 0.25668007 -0.15627196
000360 2c 81 4c 3e 53 3b 3f bd 38 69 75 be 39 d7 81 be
       0.1997115 -0.046687435 -0.23965919 -0.25359514
000370 6f 19 c0 3d ee 67 4c be b8 51 b1 3e ac 53 63 3e
       0.09379851 -0.19961521 0.3463266 0.22199887
000380 45 2e 87 3d f1 32 20 be dd bd ce 3d b8 14 20 be
       0.06600622 -0.15644433 0.10094807 -0.15632904
000390 89 07 c9 3e 10 e2 bc bd e5 58 e3 bd b6 4a 4c be
       0.3926356 -0.092228055 -0.1110094 -0.19950375
0003a0 e1 6c 6b bd d0 4a 0f be 35 2f a1 3e 05 51 e1 3d
       -0.057476882 -0.13993382 0.3148133 0.110017814
0003b0 b8 41 a8 3e bd 8b 90 3c 96 aa 87 bb 55 f5 17 be
       0.3286264 0.017644757 -0.0041402085 -0.1483968
0003c0 10 91 36 3d eb 46 de bd f7 d5 71 3e 3b 3c 21 3d
       0.044571936 -0.1085337 0.23616777 0.03936408
0003d0 b8 d6 83 bd 02 9e 56 3d 3b 63 39 3e 29 5a 10 be
       -0.06437439 0.05239678 0.1810426 -0.14096893
0003e0 ee d9 29 3e 97 bb 01 3e 51 89 71 be 3a d5 3f be
       0.1658704 0.12669216 -0.23587538 -0.18733683
0003f0 5d b2 9e 3d 86 50 4c be ad 2c 88 3e 9f d9 4a be
       0.07748864 -0.19952592 0.26596585 -0.19809578

fc4.bias f4 [20]
000000 80 c9 50 3e 87 39 16 3e 44 ad 1b be f7 e5 b4 bd
       0.20389366 0.14670382 -0.15202814 -0.08832925
000010 89 35 29 be 28 1a c3 bd 16 ae 70 3e 35 4e 3c be
       -0.16524328 -0.09526473 0.23503909 -0.18389209
000020 8b 09 89 bd 0f 4c e8 3d 42 31 13 be c9 e1 b9 3d
       -0.06691273 0.11342632 -0.14374259 0.09076268
000030 21 c3 61 3e c8 d3 73 3c f7 cb 3e 3b 88 19 af 3d
       0.22047092 0.014882036 0.0029113272 0.085497916
000040 94 e4 c1 3e 62 f4 f1 3e b0 6f db bd 35 1f ad be
       0.37869704 0.47256762 -0.10714662 -0.33812872

fc5.weight f4 [20, 20]
000000 13 b2 19 3e 0b 83 80 bd 35 d5 18 3e 18 51 a6 3d
       0.15009336 -0.062749945 0.14925082 0.08120936
000010 03 07 03 be 9a 54 da bd 79 21 50 bc b6 32 19 3e
       -0.12795644 -0.10660668 -0.012703293 0.14960751
000020 a6 fa 99 bd a9 6a ed bd 6d 92 14 be ec 1b ec 3d
       -0.075185105 -0.115926094 -0.14508982 0.11528763
000030 8c dc f5 3d 30 18 50 be 96 9e 24 bd 6a ef 44 3e
       0.120049566 -0.20321727 -0.0401903 0.19231954
000040 6c b6 2d be 21 90 7d bd a5 d2 95 3d 14 69 5c 3e
       -0.1696412 -0.06190503 0.07315568 0.21524459
000050 25 f5 9f 3e e9 0b 8d 3d d7 a3 5c be 32 1f eb bc
       0.31241718 0.06887037 -0.21546875 -0.028701399
000060 fa bc 2e 3c 59 ad b5 3d 0e 49 73 3c e6 23 bc 3d
       0.010665173 0.08870954 0.014848961 0.091865346
000070 53 f2 a3 3d 90 ab 8d 3e f8 2a 1b bd 7c 83 7c 3c
       0.08005204 0.27669954 -0.037882775 0.015412208
000080 40 46 ce bd 1f 76 d8 3e eb b0 85 3e 66 27 d6 3d
       -0.10071993 0.4227762 0.2611154 0.104567334
000090 1b d9 ae 3e 1d 63 4e 3e 27 b3 03 3e e2 2f 51 be
       0.34150013 0.20154996 0.1286131 -0.20428422
0000a0 74 bd 5a be 96 e9 4c 3e d2 76 5a 3e a1 8f d8 3e
       -0.21361333 0.20010981 0.21334389 0.4229708
0000b0 3e 02 5e be a1 ee 64 be 7e 9a af 3e 0d 7c 8c bd
       -0.21680543 -0.22356655 0.34297556 -0.06859598
0000c0 67 24 1f be 13 bb 30 3d f8 d6 d6 3e 77 33 c5 bd
       -0.1554123 0.043147158 0.41960883 -0.09628957
0000d0 c1 11 a7 3e d3 44 6f be 1e 9b c3 be b3 40 14 be
       0.32630733 -0.23366098 -0.38204283 -0.14477806
0000e0 2e bf 04 3e 2c 0c ce 3d 35 04 29 3e bc 44 ee 3e
       0.12963554 0.10060915 0.16505511 0.46536815
0000f0 9b 32 b6 be 1c 47 be 3d 92 ef 1a 3d c4 21 e9 3e
       -0.35585484 0.09290907 0.03782613 0.45533574
000100 cd 27 89 3c 0b 92 0a bd 9e ed bc 3e a5 9b 7d bd
       0.016742611 -0.033830684 0.36900038 -0.061916012
000110 13 c7 ad bd 79 59 f9 3d 9d 21 93 3e bc 50 cc bd
       -0.08485236 0.12175269 0.28736582 -0.09976336
000120 1c 09 c9 3d d6 11 12 be 38 f9 a9 be 55 ea 8c 3d
       0.098161906 -0.14264616 -0.3319795 0.06880633
000130 7a da 04 be 0b 89 7e 3e 29 32 f6 bd 56 fd 2e 3e
       -0.12973967 0.24856965 -0.12021286 0.17088827
000140 2d d6 de bb 97 ea 40 3d 68 5b e9 3c af 16 5a be
       -0.006800434 0.047098722 0.028485969 -0.21297716
000150 19 64 1b be 75 98 5e 3d ec fe 48 3d 6e d5 63 bd
       -0.15174903 0.054344613 0.049071237 -0.055623464
000160 e0 21 09 3d a9 6e 67 be ac 32 35 be 31 44 7a be
       0.03347957 -0.22600807 -0.17695111 -0.24440075
000170 25 d0 19 3e bf 78 39 3e cb 04 09 be 43 07 bd 3d
       0.15020807 0.18112467 -0.13380735 0.09229901
000180 67 a1 33 be 25 a4 4a be 4a 17 55 be 93 1e b5 bd
       -0.17542039 -0.19789179 -0.20809665 -0.08843722
000190 a8 f2 38 be e3 43 0b be d0 ce df 3d 8e 72 c0 3e
       -0.18061316 -0.13600115 0.10928118 0.37587398
0001a0 cf 07 cc 3c a4 4b 2c 3e 77 91 c1 3e a1 23 51 3c
       0.024906067 0.1682573 0.37806293 0.012764842
0001b0 f7 71 7a bd 8d 4a 47 3e 73 c9 7d 3e f0 a6 98 3e
       -0.06114384 0.19462033 0.24783878 0.29814863
0001c0 cb c8 af 3e 63 52 da be 06 4c a8 be ba 8f 54 3e
       0.3433288 -0.4264098 -0.328705 0.20757952
0001d0 4e 7e e2 3d ec c6 7d bb 37 29 de bd c7 75 d6 3e
       0.11059247 -0.0038723303 -0.10847705 0.41886732
0001e0 49 69 af bd 53 b7 29 3e 61 53 11 be 03 44 86 bd
       -0.085650034 0.16573839 -0.14191963 -0.06555941
0001f0 97 9a 28 be a5 e1 32 be ef a9 36 be c2 a4 5a 3e
       -0.16465221 -0.17468889 -0.17838262 0.21351913
000200 9c be 19 3e 11 f2 0e 3e 52 3b 9d 3c 31 f0 02 be
       0.15014118 0.13959529 0.019193325 -0.12786938
000210 90 50 99 3d a0 bb 3a 3d 2d 40 e8 bc 0d 4e 91 bd
       0.07486069 0.04558909 -0.028350914 -0.07094965
000220 54 a3 56 3d 38 cc 05 be bb 63 75 bd 33 8a 00 be
       0.052401856 -0.13066185 -0.059909564 -0.12552719
000230 02 9e 76 bd 0d c5 83 3c 0c a3 34 3e 65 70 ee 3e
       -0.06020928 0.016085172 0.17640322 0.46570125
000240 46 c5 59 3e 27 a3 8b 3d 40 79 bf 3e 2c 61 56 3e
       0.2126666 0.06818228 0.37397194 0.20935506
000250 a1 ac 2f be 7f e2 44 3e 25 8d 4b 3e 1b f0 80 3e
       -0.17155696 0.19227026 0.19878061 0.25183186
000260 42 41 1c 3e 5d ef 7b be 55 a7 a7 be 6c 7d f7 3c
       0.15259269 -0.24603029 -0.32744852 0.030211173
000270 03 e5 2e 3e 48 1d c3 bd 78 58 39 bc e6 0d af 3e
       0.17079549 -0.09527069 -0.0113125965 0.3419029
000280 8c 9a 4b be f3 be 40 3d 7d cc 89 3c 0d f3 14 be
       -0.19883174 0.047057103 0.01682114 -0.14545842
000290 5e 2d 17 be f3 5a 2f 3e 60 21 5b 3e 64 ce 75 3d
       -0.147634 0.17124538 0.2139945 0.060011283
0002a0 46 56 1b 3e 50 38 42 bb 5f 8e fd b9 51 03 59 be
       0.1516963 -0.0029635616 -0.00048361995 -0.21192671
0002b0 93 5f 2a be 5e 87 cf bd 01 49 08 bd 6a 6c d2 3d
       -0.16638021 -0.10133241 -0.033272747 0.102745846
0002c0 3d 3b d5 3d 44 79 57 be 34 95 8b bd ee 8c 57 be
       0.104116894 -0.21042353 -0.068155676 -0.21049854
0002d0 88 6d a0 3e 95 0d 49 be bf 1a cc 3d d6 1c c6 bd
       0.31333566 -0.19634087 0.09966039 -0.09673469
0002e0 f8 53 d1 3d ce c9 15 be c1 01 39 3e 67 65 54 3d
       0.10221094 -0.14627764 0.18067075 0.051854517
0002f0 2a bd 2b be 6b b4 c5 3e 78 d3 3d 3e 3e 03 2e 3e
       -0.16771379 0.3861421 0.185377 0.16993424
000300 96 f5 ab 3d 11 c5 14 3e e0 6d 0d 3e cb 1b 17 3e
       0.08396451 0.145283 0.13811445 0.14756696
000310 78 0c 13 3e 66 28 9f 3e 14 c3 1e 3e 56 c2 5d be
       0.14360225 0.3108551 0.15504104 -0.21656165
000320 72 86 88 bd 59 14 e3 bd 14 a7 02 be 78 38 fa 3e
       -0.066662684 -0.110878654 -0.12759048 0.48871207
000330 cd 11 b6 3d be 81 24 3e 58 95 b8 3e 38 15 d1 bd
       0.08890114 0.16065118 0.3605144 -0.10209125
000340 d8 62 f1 bd e4 1d 64 3d ef af 37 3d 72 26 ab 3e
       -0.11786431 0.05569257 0.044845518 0.3342777
000350 f4 03 a3 3e 20 db c9 be d4 28 82 be 36 ba 93 3d
       0.31838953 -0.39424992 -0.25421774 0.07213251
000360 d4 bd 5e 3d 93 33 74 3d c7 7f 02 3d 1d d4 0f 3e
       0.054380253 0.059619498 0.03186014 0.14045759
000370 4b 42 a6 be df d9 d9 3d 08 8f 10 be 81 d2 09 3e
       -0.32472453 0.10637259 -0.14117062 0.13459207
000380 62 6e b3 3d bc c4 1b 3e 2c 66 61 3c a7 bb 0b be
       0.08761288 0.15211767 0.01375727 -0.13645802
000390 8b 2a 19 3e 2f ba 0b bc 98 20 b5 3d 0c 4b 5c 3e
       0.14957635 -0.008528276 0.088441074 0.21513003
0003a0 21 23 b4 3e 92 32 0e be cc ef 8b be 50 8b f8 bd
       0.3518305 -0.13886479 -0.27331388 -0.12135947
0003b0 b9 5e f3 3c 87 40 dd 3d 1d 9c b3 3d a2 1c 08 3e
       0.029708253 0.10803323 0.087700106 0.13292173
0003c0 0d 6b eb 3e e2 2e d8 3c 46 02 bd bc ac 71 f2 be
       0.4598011 0.026389543 -0.023072373 -0.4735235
0003d0 30 b2 ac bd 12 13 47 be 3b 49 c0 be 11 8a 60 bd
       -0.08432424 -0.19440868 -0.3755587 -0.05481917
0003e0 53 b1 c9 3d 91 e6 87 3e d0 10 34 be 64 8a 8d 3b
       0.09848275 0.26543096 -0.17584538 0.004319476
0003f0 0c 27 36 be b7 c8 a7 3e 43 5b 5a 3e da b7 23 be
       -0.17788333 0.3277032 0.21323876 -0.15988103

fc5.bias f4 [20]
000000 64 ef 14 be 77 54 8e 3e 12 04 fb 3d d1 61 3f 3e
       -0.14544445 0.27798817 0.12256636 0.18689658
000010 77 e2 14 3e f6 6e 8b 3c 2f 7a aa bd 4b 86 94 bd
       0.14539514 0.017020684 -0.08324086 -0.07252177
000020 45 2f ab bd f3 aa df 3d 4a 00 5e 3e 1b b3 fe 3c
       -0.08358625 0.10921278 0.21679798 0.031091264
000030 d1 5e 1d 3e 9e ee 5d be f1 f3 28 bc c1 c8 3c be
       0.15368201 -0.21673056 -0.010312066 -0.18435957
000040 31 94 42 3e c0 32 4d be c6 be 1a 3e 0c 3c 12 3e
       0.19001843 -0.20038891 0.15111837 0.14280719

fc6.weight f4 [3, 20]
000000 ac 30 0f 3e d0 a3 81 3e 00 f3 b4 be 7d ea b8 be
       0.1398341 0.25320292 -0.35341644 -0.361164
000010 61 29 a4 bd c3 71 2e be d9 2e ec bc 73 38 a0 be
       -0.08015705 -0.17035584 -0.028830932 -0.31293067
000020 46 8a b7 3b cb 07 6b 3e c4 2a 17 be 54 c7 a6 be
       0.0056012003 0.22952192 -0.14762408 -0.3257395
000030 b1 1f 94 3e c8 ab 87 bc b8 c4 ab be 3c a1 88 3d
       0.2893043 -0.016561404 -0.33548522 0.06671378
000040 ef 2b b7 bd 5e 7b b1 be 75 ad 91 3a 0a 35 4c be
       -0.089439265 -0.34664434 0.0011114316 -0.19942108
000050 40 f1 1c bd 04 0f 68 be fc 13 88 be d0 94 f2 bd
       -0.03831601 -0.22661978 -0.26577747 -0.1184479
000060 62 27 9c bd 5e 7f d5 bd 5b f4 45 3e 94 ff d3 be
       -0.07624699 -0.10424684 0.19331495 -0.41405928
000070 58 e0 00 be 91 38 ff be 74 a4 0f be 66 1d bf be
       -0.1258558 -0.49847844 -0.14027578 -0.37327117
000080 c9 61 03 be 0a e0 5c be de 20 b1 be 63 15 11 3d
       -0.12830271 -0.21569839 -0.34595388 0.035420787
000090 13 06 e8 3d b6 64 14 be 6a df eb be 7d 19 3f 3e
       0.113292836 -0.14491543 -0.4606889 0.18662067
0000a0 ec 04 31 be bb a9 8b bd 0d 3f a1 3d 69 e2 b9 3e
       -0.17287034 -0.06819483 0.07873354 0.3630555
0000b0 d8 76 14 be 62 0e 94 3e f2 a0 63 3d bf ea 5f 3e
       -0.1449846 0.28917223 0.05557341 0.21866892
0000c0 47 e2 03 3c 38 8b 06 3d bd d0 be 3e 40 01 c7 3e
       0.008049554 0.032847613 0.3726863 0.3886814
0000d0 2f 25 a2 be c2 6f 1e 3e f9 b9 cd 3e 49 e2 ab bd
       -0.31668994 0.1547232 0.40180948 -0.0839277
0000e0 db 9f 06 3e 95 d7 36 3e 3b 6a ea bd a8 72 27 be
       0.13146918 0.17855676 -0.11446043 -0.16352332

fc6.bias f4 [3]
000000 55 ad b8 3d cc 19 aa be 06 ab c3 bd
       0.090174355 -0.33222806 -0.095541045
