models_3val/and_or_6.pth (torch, 12162 bytes, 12 tensors)

fc1.weight f4 [20, 12]
00000000: 5728 c8bd 42ec a93d 05b1 cc3d fe42 ab3e
00000010: 26d2 c33d 34b8 d23e 4072 15bc 109e 7e3d
00000020: aa3e 01bd faa5 7c3e 8b0f 3abd 3a42 c1bd
00000030: 5f64 b9be 7d2d 25be 115a 05bf 6ddb a73e
00000040: 03bc fabe 3462 123e 4aa4 143c 1a42 493c
00000050: 31d6 2e3d fa69 713c 9181 993c 6b8d 7d3c
00000060: fb0f 0c3e b4c5 6ebd 56c1 f8bc 83ce 2d3d
00000070: b404 013e 8b7e 17be 5361 e03d 60b9 cc3d
00000080: 74e4 803e de0f 04be d740 343e e13e 84bd
00000090: b596 333d feae dbbb 172e 46be 9e15 973d
000000a0: e7f7 5c3d 9825 c4bd ff7b 173e 9eb6 473e
000000b0: 5f15 5e3d 779e ce3a 3688 8dbd 2832 833e
000000c0: f3b9 363e decc 0cbd e874 7a3d b644 e0be
000000d0: a75b d4be 1f7b 95be 5bfe f03d 4b0b d73d
000000e0: deae 933c a1d6 323d f0f5 dd3d 2df1 4a3c
000000f0: 0ffb 943e 881a 1b3e 4445 7b3e bb09 e93e
00000100: 916d a53e 964d 45be 2298 a23e 57c6 d03b
00000110: 5a93 a63e 1491 aa3d 2493 b1bc 3796 943e
00000120: d96b b33e 28b5 13be 45f2 7a3e ef67 e3bc
00000130: c51a a33e 2219 afbe bed9 c9bd 20a2 be3d
00000140: 0508 143e eb6a 8e3d 15a8 6cbc a7b8 33bd
00000150: c519 a6bd 3f9c 55bd 6a05 28be ce85 aa3e
00000160: aa27 9c3e 7484 b3be 7a15 0d3c 80a4 34b5
00000170: c100 be3c 7cc1 f13b a53a 053c 8f0c 363c
00000180: fe59 e5bd e0f4 753e 7f68 c8bd a550 73bb
00000190: c0a0 dabd 4993 f7be f2c4 dc3c 0aed c43c
000001a0: f61e bf3d 7112 ab3d 47b4 3f3d 63d3 b23c
000001b0: 226b 153e 86c7 ec3d acb6 913e c6dc 7fbe
000001c0: c416 4f3c 796a bbbe dc8f e3bb 0162 403b
000001d0: ef3e 16bb 0aaa 013c dff7 683c 8602 dabb
000001e0: f422 263e 8e2a 0bbf 7080 f9be b4b8 06bc
000001f0: 61a8 fabe 29f6 b63d aac6 523d bd01 673c
00000200: 7ad6 a33d e12e 963d 65b3 853c 3053 e43c
00000210: dbd7 04bd 9184 d9bc 7c73 8cbd ac84 01be
00000220: e3fe adbe db92 ca3e de17 fa3c e991 6ebb
00000230: 0e9a 703d 8198 4c3d 8e0b 923c a1a7 42bd
00000240: 2a42 11bc 1a9e 953b ec9f 943b 5641 b83e
00000250: e00f 373e 0127 f8be bcd3 2a39 1fee 9839
00000260: b7f0 c438 9c03 ed39 121a c939 369f bf38
00000270: 3d1f 8abe 2fcb c43e 5ead 3f3e 7364 b1bd
00000280: 8047 1b3e f0ff 04be 4394 003b 1028 853a
00000290: 0f20 c53b 2ab8 ea3b 4168 b43b 9f08 f139
000002a0: 706d 07bd 953c 0abc 20dd 7bbe 6485 9abe
000002b0: f1a0 003f 1e29 04be ed67 b9bb bb6b 793b
000002c0: e341 21bb ecbb 673c 51d1 873c 2f9c 91bb
000002d0: ecde 213e 628f 593e aa7b ad3d 57f7 c83e
000002e0: 5e18 57bc f355 cb3e 15a0 d63c 9e48 413e
000002f0: 4e19 a73e bbb0 183e df1c c63e b571 e83d
00000300: 5fe7 fbbc d1e3 e63d fafb 7bbd af6f 0f3e
00000310: 60c7 5a3e c477 85be f8f2 2b3e d1a3 c5bc
00000320: 9912 3cbd a9c9 443e cde2 4f3e 7efb cebd
00000330: 242d 933d fb42 b63d 0350 a53e c525 923e
00000340: 96e2 dfbd e38e adbe daf2 9abd 6931 ac3c
00000350: d33d 53bd d71e 453e c473 683e 102c 9abd
00000360: a88c 6a3e 0807 6b3c 9358 6bbd 083b 74be
00000370: 6a70 aebe ac4a bc3e f866 22bc 9cc1 2dbd
00000380: f821 173d 2504 463e 689a 623e 9a13 913e
00000390: 4204 1d3d da97 423d b773 523d e3d7 0cbf
000003a0: f2f3 e2be dbbc 943e 5abe aa3c 122e 3d3c
000003b0: b686 9b3d 7a9c a139 87e8 54bc 5808 c73c
-0.09773319 0.08297016 0.09994701 0.33449548 0.09561567 0.4115616 -0.009121478 0.06216246
-0.0315539 0.2467269 -0.04542498 -0.0943646 -0.3620939 -0.16130634 -0.52090555 0.32784596
-0.48971567 0.14295274 0.009072373 0.012283826 0.042684738 0.014734739 0.01873854 0.015475611
0.13677971 -0.058294013 -0.030365627 0.042433273 0.1259945 -0.14794366 0.10956063 0.09996295
0.25174296 -0.12896678 0.1760286 -0.06457306 0.043844897 -0.0067042103 -0.1935352 0.0737717
0.053947356 -0.09577483 0.14793395 0.19503257 0.0542196 0.0015763779 -0.06910746 0.25624204
0.17844371 -0.034375064 0.061146647 -0.43802422 -0.41476175 -0.29195496 0.117672645 0.10500201
0.01802772 0.043661717 0.108379245 0.012386602 0.29097793 0.1514684 0.24538141 0.45515236
0.32310155 -0.19267878 0.31756693 0.0063713 0.32534295 0.08328453 -0.021676607 0.29020855
0.3504322 -0.14424574 0.24506481 -0.02775952 0.3185636 -0.34198862 -0.09855984 0.09308267
0.14456184 0.06953987 -0.014444371 -0.04387727 -0.08110384 -0.05215096 -0.16408315 0.3330521
0.3049901 -0.3506199 0.008611077 -6.7294604e-07 0.023193719 0.0073778015 0.008131658 0.011111393
-0.11198805 0.24019194 -0.09785556 -0.0037126925 -0.10675192 -0.48354557 0.02694938 0.02403881
0.09332077 0.08353127 0.046802785 0.021829313 0.14591649 0.115614936 0.2845968 -0.24986562
0.012639705 -0.3660467 -0.0069446396 0.002935529 -0.0022925695 0.007914076 0.014219253 -0.006653133
0.16224271 -0.5436181 -0.48730803 -0.008222748 -0.48956588 0.0893367 0.051458992 0.0140995355
0.079998925 0.0733316 0.016320894 0.027871698 -0.03243242 -0.02655247 -0.068579644 -0.12648267
-0.33983526 0.39565167 0.030528959 -0.0036402887 0.058740668 0.049950127 0.017827775 -0.047523145
-0.008865872 0.0045659663 0.0045356657 0.35987347 0.1787715 -0.48467258 0.0001629134 0.00029169113
9.390845e-05 0.00045206852 0.0003835713 9.137245e-05 -0.26976958 0.38436267 0.18718478 -0.08661737
0.15163994 -0.12988257 0.001961962 0.0010159034 0.0060157846 0.0071630673 0.005505592 0.00045973525
-0.033063352 -0.008437295 -0.24596071 -0.30179894 0.5024558 -0.1290631 -0.005658141 0.0038058597
-0.0024605922 0.014143925 0.016579302 -0.0044436674 0.15807694 0.21246102 0.08470853 0.39251205
-0.013128368 0.39714012 0.02619938 0.18875358 0.32636493 0.14911167 0.38693902 0.11349813
-0.030749975 0.11273921 -0.0615196 0.14007448 0.21365118 -0.26067936 0.16791904 -0.024125965
-0.045916174 0.19217552 0.20301361 -0.10106562 0.07186344 0.08899494 0.32287607 0.2854444
-0.1093189 -0.33898076 -0.075658515 0.021019654 -0.051572632 0.19250046 0.22700411 -0.075279355
0.22905219 0.014344938 -0.057457518 -0.23850644 -0.3407014 0.3677572 -0.009912245 -0.04242097
0.03689763 0.19337519 0.22129214 0.28335267 0.03833414 0.0475081 0.051379886 -0.55016917
-0.4432674 0.29050335 0.02084272 0.011546629 0.075940534 0.00030824897 -0.012994892 0.02429597

fc1.bias f4 [20]
00000000: d790 a53d 613a d9bd 0d12 f23e 9d37 003f
00000010: 3a20 483e addf b53d b424 033f 02f6 013f
00000020: c248 003e cff7 b43e 3ff1 d6bc 0c32 c63e
00000030: 4dc3 833e d6f5 3a3e 6e5e 173f 0a50 4c3d
00000040: 7559 f83e 9d19 093b 1bc7 ca3e b56f 63be
0.08084267 -0.10606838 0.47279397 0.5008486 0.19543543 0.088805534 0.5122788 0.50766003
0.12527755 0.35345313 -0.026238082 0.38710058 0.2573494 0.18257841 0.59128463 0.04988102
0.4850575 0.0020919808 0.3960503 -0.22210582

fc2.weight f4 [20, 20]
00000000: 26ec 853d 4278 063f 0607 bc3d 578f 5d3e
00000010: f17c 7e3e 9e35 24be 9a86 be3e 8a62 a63e
00000020: 3a11 8c3e 8e26 c13e 064e 253e ec14 f53d
00000030: 8cf5 ab3e 8ee6 0d3e cbf0 3cbd aecb 013b
00000040: d684 b93c 0eda 7e3d f525 003e 19c9 d83e
00000050: 5a16 053d d400 1e3f 2434 663e 9b83 933e
00000060: b4ab be3e 4c02 a3bc e3a0 fe3c a0d1 cf3e
00000070: 975b 3d3e 2947 1a3e 4b59 133e dcd5 073e
00000080: 2f4b 963e d9cd 1a3e d14d 5fbe 805c 01be
00000090: 7b21 823e 7325 2bbe 3fd9 a53e cfad e13e
000000a0: 2a60 7b3e fc5d 7dbe 69d8 3b3e b136 403d
000000b0: 61fd a2bd 7db1 d33e f3e2 fc3d 58de adbd
000000c0: 93e5 a0be 1b2b 943c ab51 21be df3a bdbe
000000d0: 1f1a 18be 7b5b 28be e2c8 9f3e 35f5 343e
000000e0: 94bf 24bd f887 4a3e b050 d53c d50e 0ebe
000000f0: dd67 d8bd 0fce 1c3f 1b83 ae3d 5d1b 9c3e
00000100: 8982 f53b c3ee 29bd 34b2 773d 3091 c63e
00000110: 532b c53e 6191 57be 9e0c a33e 6668 d83e
00000120: 1714 6cbe bd95 b73e aae7 87bd 4aee 26be
00000130: 13db 8fbd e8ab 013e 9752 eb3c 966a 8abd
00000140: 1506 b03d 1968 92be 233b 82bd bac6 773e
00000150: 1110 213b e8c6 093e 0563 8ebd fd7a acbe
00000160: cf80 803d 6556 633e 8263 80be 4e79 57be
00000170: 9c65 0cbe 7f2d 4bbe d014 2d3f 6189 583e
00000180: dafb 6a3e 6995 7b3e 3cf7 0cbe ffbe 40be
00000190: 99f8 c83d c5a0 0a3f 0472 053e 660b 413e
000001a0: f601 a03e 473e 93be cedd 54be 3e17 413e
000001b0: 59e7 833e dbf3 893d b407 173f b2ad 403e
000001c0: 9a01 823d e7d9 9e3e 264a 33be 1369 f73c
000001d0: 845f 0d3d 82e9 a9bd fd8a 483d ad04 1f3e
000001e0: b388 00be 5dc9 163f f862 933e a209 8a3e
000001f0: 3c80 4a3e c69b 4cbd 907d 513e 21df 623d
00000200: 9224 2b3e 44e7 a43e cd20 153e 1aa9 b53d
00000210: 5060 0b3f 4e9d e93e 60f2 d2bd c0f1 60bd
00000220: 1ef2 043e 4fce 243d a252 ad3e 6e5f c33e
00000230: 3bb4 55be eba2 09bf 0203 293e 7573 003e
00000240: 20a6 353e f44d 893d ba7b 3e3e 310c 8e3e
00000250: 9fb3 883e ca85 1e3e 7480 6cbe 2478 a7be
00000260: b340 203e 34a7 5a3e ffd4 493e 04b8 c5be
00000270: b0d6 213e 0ab8 c23e d8d0 2bbd f4c3 bebe
00000280: 1489 c9be 1eac d83d bd95 9e3e e4b2 493d
00000290: 8728 6e3e c2aa 55bd 66d8 553e f4df c93e
000002a0: 4b1e 803e 715c 373e ca74 bd3e 5fac 1b3d
000002b0: 0811 b53e 3ca9 963e 9f60 9a3d 5335 c7be
000002c0: 3a72 263d 7fe7 9c3e db94 6d3e 4014 913e
000002d0: 454f 40bd f4dc 2b3d baae 823e 558d d93e
000002e0: 5ed2 013e f7a2 843e 3857 cb3e 5bde ed3d
000002f0: 4f78 fb3e ebb2 9b3e 711f 9c3e 684d b43e
00000300: 4402 043f bad3 543e fc1d a2be 8755 5dbd
00000310: 8b38 c43d e418 8a3d c6e5 ad3e 40d4 093e
00000320: 8c22 d43d f9d0 ba3e 5166 8b3e 4d45 6d3e
00000330: 6ecf 243e bf21 6d3d 085d 0f3e 3048 10bd
00000340: 32b7 e93e dad5 093c a2cc bd3e 32f1 ae3e
00000350: b511 c73e 5a63 c43e 5a65 96be 423a 35be
00000360: 77d3 ac3d 64f3 9dbd f98a 5f3e 30d7 d63e
00000370: 841d 063e 28b0 b4be 2d52 1c3d 20c3 833e
00000380: 7b0d 193e 1369 873e da75 093c 8a38 733e
00000390: b76e 26be 78db c23d 3b53 31be e0bc d13c
000003a0: e61b 153e a359 673e 9f14 1a3f 4341 073e
000003b0: d804 8e3d d067 003e d23f d03d bdbc 40be
000003c0: 9a21 ebbd e908 953e 006b 633d 42ad 743e
000003d0: 39bf 823e 4ca2 2abe aef6 763d 19da 403e
000003e0: d10c eb3e 04e8 0f3e d8a7 a83e dc73 da3e
000003f0: 8ecc ec3e 1455 233c 70a9 cdbe d98d ae3d
0.06539182 0.5252725 0.09181027 0.21636711 0.24852349 -0.16036078 0.37212068 0.32497054
0.27356893 0.37724727 0.16143045 0.11966881 0.33585775 0.13857481 -0.046128076 0.001980524
0.022646349 0.062219672 0.1251448 0.42340925 0.03249202 0.61720014 0.22480828 0.28811345
0.37240374 -0.019898556 0.031082576 0.4058962 0.1849197 0.15066208 0.14389531 0.13265175
0.29354236 0.15117587 -0.21807028 -0.12632942 0.2541617 -0.16713504 0.32392308 0.44077918
0.24548402 -0.24742883 0.18344273 0.046927158 -0.079584844 0.4134635 0.12347975 -0.08489674
-0.3142515 0.01808696 -0.1575381 -0.36958978 -0.14853714 -0.16441147 0.3120795 0.17671664
-0.040221766 0.1977843 0.026039451 -0.13872845 -0.10566685 0.6125192 0.085211 0.30489627
0.0074923676 -0.041487467 0.060472682 0.38782644 0.38509616 -0.21051551 0.31845564 0.4226715
-0.23054539 0.3585643 -0.06635983 -0.16301838 -0.07024207 0.12663233 0.028725905 -0.06758611
0.0859491 -0.28595045 -0.06358936 0.24196902 0.0024576227 0.13454783 -0.0695248 -0.33687583
0.06274568 0.22200926 -0.25075918 -0.21042368 -0.13710636 -0.19841574 0.6760988 0.21146156
0.22947636 0.24568714 -0.13766187 -0.18822859 0.09813041 0.54151565 0.13031775 0.18852004
0.31251496 -0.2875845 -0.20787737 0.18856522 0.25762442 0.06735965 0.5899613 0.1881626
0.06347962 0.3102562 -0.17508754 0.03020147 0.03451492 -0.08296491 0.048960675 0.15529127
-0.12552147 0.58901006 0.28786445 0.26960474 0.1977548 -0.049953245 0.20458055 0.055388574
0.16713169 0.32207692 0.14563294 0.08870144 0.54443836 0.45627826 -0.103001356 -0.05491805
0.12982985 0.040235814 0.33852106 0.38158745 -0.20869534 -0.5376422 0.16505054 0.12544043
0.17739153 0.067043215 0.18601885 0.27743676 0.2669954 0.15480724 -0.23095876 -0.32708848
0.15649681 0.21352845 0.19710158 -0.38616955 0.15804553 0.38031036 -0.041947216 -0.37258875
-0.39362395 0.10579704 0.30973616 0.04924287 0.23257647 -0.0521648 0.2088333 0.39428675
0.25023112 0.17906357 0.37003165 0.038006183 0.35364556 0.2942599 0.0753796 -0.3890787
0.04063628 0.30645368 0.23201315 0.28335762 -0.046950597 0.041958764 0.2552393 0.4249064
0.12677905 0.25905582 0.3971498 0.116146766 0.49115226 0.3040994 0.30492738 0.35215306
0.5156596 0.20783892 -0.316635 -0.054036643 0.09581097 0.06743029 0.33964366 0.13459873
0.10358152 0.36487558 0.272265 0.23170967 0.16094753 0.05789351 0.14000332 -0.035225093
0.4564758 0.008412803 0.37070185 0.34168392 0.38880697 0.3835705 -0.293742 -0.17698005
0.08438771 -0.07712439 0.21830358 0.4196105 0.13097197 -0.35290647 0.038164306 0.25734806
0.14946549 0.26447353 0.008389914 0.23752037 -0.16253172 0.095145166 -0.17316906 0.025602758
0.14561424 0.22592787 0.60187715 0.13208489 0.069345176 0.12539601 0.10168423 -0.18821998
-0.11481018 0.2910836 0.055521965 0.23894218 0.25536516 -0.16663474 0.060293846 0.18833198
0.45908216 0.1405335 0.32940555 0.4266652 0.46249813 0.009969015 -0.40168333 0.08523149

fc2.bias f4 [20]
00000000: 7be7 973e 2389 a9bc 9984 4b3e ade1 febd
00000010: 0b97 ee39 25a4 fdbd d26e 32bd 4bf3 e7bc
00000020: 24eb e83c bf58 c73e ca9d a6bd daf5 b53e
00000030: e9a5 023e 2c48 cd3d 34a9 b93e 4742 133e
00000040: b99e ddbd 02f1 8a3e 402b 743a e384 903d
0.29668793 -0.020695275 0.198748 -0.12445388 0.00045507433 -0.12384824 -0.043562718 -0.028314253
0.028432436 0.38934895 -0.081355646 0.35539132 0.12758602 0.10023531 0.36261904 0.14380752
-0.108212896 0.27137 0.0009314306 0.07056596

fc3.weight f4 [20, 20]
00000000: 191f b23e ed11 e03e 1b56 58be b889 893e
00000010: d610 98bd 8476 543e 2898 8e3e d13a 2a3f
00000020: a536 a23e dae6 373e f036 9e3e 2529 593e
00000030: b0f5 883e 5528 f53e b91f 563e 1ce3 bcbd
00000040: 9e87 f33e 0bd3 d83e 0a9e 263f 8642 283e
00000050: a8d4 6f3d 65cf cf3e ab06 06be 626a c93e
00000060: 18d4 b6be 5316 ac3e 4b94 3c3e 30a4 273d
00000070: 8219 613e f745 0b3e 77cb b83e 57c5 babd
00000080: a7b6 253e 0cde 2d3e b773 d838 414c b5be
00000090: 3626 1f3f 106c 0a3e 7d18 aa3e 825c 37be
000000a0: 4230 b13d 849f 62be f991 bebd 8def ecbd
000000b0: 59a7 593c c5d3 3fbd 662a c6bd 47b3 893d
000000c0: cd7d 72bd 8efd 593e 090c 19be 1d83 4c3e
000000d0: 2982 3c3e fd68 f83d 18c1 38be 066e dabc
000000e0: fce1 573e d994 62be 774f 19b9 a57c 50be
000000f0: 4ffb e13d a7b2 d93d 8c1d ea3e c878 55be
00000100: fde6 cd3e 8077 8dbe ef02 973e f732 023e
00000110: 98da cfbe af82 953e 7ce9 27bd 4340 bb3e
00000120: 5aff 0f3d f164 a23e 5d47 2e3e d5e6 873d
00000130: a12f 1ebe 73de 883e c2c3 aa3d a617 853e
00000140: 9403 52be 84f7 d4bd c1b7 1cbe a130 253d
00000150: 1a53 643e 6f30 8ebd 34df 11bd 98c6 3abd
00000160: 108e debc 71cc 303e 4cc4 e43c 022b 61bd
00000170: 266b 42be 0cf0 efbd 6d3e 0cbe 8925 4dbe
00000180: 0c26 643e b6da 443b f0e6 d93d bdb4 37be
00000190: d9fa e2bd 7b46 683d 279d 673c 7c67 543e
000001a0: e1e0 f73d 1f99 6cbd abb7 e63d 5a8f 3abe
000001b0: c37a e5bc ee3c 14bc 5f75 b2bd 859a b5bd
000001c0: c457 b3bd b297 373e 3ad7 60be 617e cd3d
000001d0: 9753 e03c c2f2 393e bc02 d4bb 6026 f4bd
000001e0: 0c94 bd3e 4908 eb3d e578 20be 6454 c33e
000001f0: 86ff 9cbd 2042 ee3e 29bb 2a3e 4a89 d53e
00000200: 0903 5b3e 7eac 8e3e 6073 ea3e 74de 89bd
00000210: baa6 f93e 8cd6 b43d 3374 8ebe a249 99be
00000220: 09e1 243f 80f2 9a3e 05c7 0a3f 9aaa bfbd
00000230: 78d6 093e 819f 943e 7994 bfbe 090a fe3e
00000240: d6b2 babe 5535 8c3e 9e61 983d 704a 333f
00000250: 82c6 f33e 5ba2 8e3e 4b15 6e3c b30e e73d
00000260: f6ab cc3e f10f 9c3e ab87 553d 852b cabe
00000270: 2db6 f23e 3fe9 cd3e 13f8 1b3f 56b0 ee3d
00000280: f7fd a63c f4aa 7a3d 0bd0 633d 4bef d23e
00000290: af4b bbbe ea5d 803d 0342 103e 1ccb 0c3f
000002a0: 36d4 0c3f 0cfa 633c deaf b53e 5026 99bd
000002b0: 5394 683e 7996 da3e 5df5 16bc 55d2 77be
000002c0: cb94 1a3f 224f 8a3e 65f0 163f 9a38 f7bd
000002d0: 939a 8fbc 9765 a33e c819 47be 5a71 b83e
000002e0: af95 14be 9e67 8d3d 4e46 7d3e 91e7 9d3b
000002f0: b3b3 d13e 4415 85bc 1b6f 793e 9924 60be
00000300: 5fff 183e 723a 0f3d b9d0 08be b664 e7be
00000310: 3806 f03e 1427 7c3e 679c a73e 59c8 0e3d
00000320: a5b5 8d3d c629 8ebe 0370 953e dab0 e9be
00000330: 9e8c 2c3e acf4 50bc e56d a9be 22c7 debc
00000340: 73b6 3fbe f070 be3d 74ce 65be 0558 ba3e
00000350: a0db ecbd 33bb 553c 6c94 513e 668e 423e
00000360: 1765 64be a0e7 b53b 0a5e b8be ed25 763d
00000370: f978 803e 954d b43e 7cfb c5be e2ca 0c3f
00000380: a5cd 94be 0e49 ce3e 2844 e03e a558 2ebd
00000390: 8f56 e43e 659a 4f3e 9089 5f3e a443 85be
000003a0: 3f47 893e 7eb2 bc3d 4af9 34be 5721 3cbe
000003b0: c886 bf3e acc9 713e 42ae 803e 4427 7abd
000003c0: aaed c43e 2d5a 053e 4169 77be 5a17 183f
000003d0: e521 98be dc6c cc3e 404c d93e feb2 093f
000003e0: 6fc8 053f 2f9a 933c 8662 a93e c459 e3bb
000003f0: 9ce6 9f3d b304 b43e 8f0e f5bd c39f 32be
0.3478935 0.43763676 -0.21126597 0.26862884 -0.07425086 0.20748335 0.2785046 0.66495997
0.31682315 0.17959157 0.3090129 0.21207102 0.26749945 0.47882333 0.20910539 -0.09223005
0.47564405 0.42348513 0.650849 0.16431627 0.058552414 0.40587917 -0.13088481 0.39338976
-0.3570869 0.33610782 0.18415944 0.040928066 0.21982387 0.13600908 0.3609273 -0.09119671
0.16182958 0.16979235 0.00010321236 -0.3540974 0.6216768 0.13517785 0.33221808 -0.17906383
0.086517826 -0.22131163 -0.09305186 -0.11569128 0.013284528 -0.04683282 -0.096760556 0.067236476
-0.059202004 0.2128813 -0.14945997 0.19971891 0.18409027 0.121294 -0.1804241 -0.026663791
0.210823 -0.22127093 -0.0001462082 -0.20360048 0.110342614 0.10629778 0.45725667 -0.20846856
0.40215293 -0.27630234 0.29494426 0.12714754 -0.4059646 0.29201266 -0.040994152 0.36572465
0.03515563 0.31717637 0.1701941 0.066358246 -0.15447856 0.26732215 0.08338119 0.25994605
-0.20509177 -0.10398772 -0.15304472 0.04032958 0.22297326 -0.06942832 -0.035613254 -0.04559955
-0.02716735 0.17265488 0.027925633 -0.054972656 -0.18986186 -0.11715707 -0.13695689 -0.2003385
0.22280139 0.0030037588 0.10639751 -0.1794004 -0.11083002 0.05670784 0.014136589 0.20742601
0.12103439 -0.057763215 0.11265501 -0.18218747 -0.028012639 -0.00904773 -0.08713793 -0.08867363
-0.08756974 0.17928961 -0.21957102 0.100338705 0.027383609 0.18159011 -0.0064700525 -0.11921382
0.37027013 0.1147619 -0.15671118 0.38150322 -0.07665925 0.46534824 0.16672958 0.41706306
0.21387877 0.27865976 0.4579115 -0.06731883 0.48760015 0.08829984 -0.27823028 -0.2993899
0.64405876 0.30263138 0.5420993 -0.093587115 0.1346072 0.29027942 -0.37417963 0.4961703
-0.36464566 0.2738444 0.07440494 0.7003546 0.47612387 0.27858242 0.014531444 0.112821005
0.39974946 0.30480912 0.052131336 -0.39486328 0.47404614 0.40217015 0.60925406 0.11654727
0.020384772 0.06119819 0.055618327 0.4119819 -0.3658118 0.06267913 0.14087681 0.5499742
0.5501131 0.013914596 0.3548574 -0.07478011 0.22712831 0.42692927 -0.009213773 -0.24201329
0.6038329 0.270135 0.5896056 -0.12071343 -0.017529761 0.31913444 -0.19443429 0.3602398
-0.14510225 0.06904529 0.2473385 0.0048188646 0.40957412 -0.016245492 0.2435879 -0.21888961
0.14941166 0.034967847 -0.13360871 -0.45194024 0.46879745 0.24624282 0.32736513 0.034859035
0.069194116 -0.27766246 0.2918702 -0.4564274 0.16850516 -0.012753647 -0.33091655 -0.027194563
-0.18721943 0.09298885 -0.22442037 0.3639528 -0.11565328 0.01304512 0.20466775 0.18999633
-0.22304188 0.0055512935 -0.36009246 0.060094763 0.25092295 0.3521544 -0.3866843 0.54997075
-0.29063144 0.4029011 0.43802 -0.042565007 0.4459729 0.2027374 0.2182982 -0.26028168
0.2681217 0.09213732 -0.17673221 -0.18372093 0.37407517 0.23612088 0.25132948 -0.061072603
0.38462573 0.1302268 -0.24161245 0.5941063 -0.2971336 0.39926803 0.42440987 0.53788745
0.5225896 0.018017856 0.3308298 -0.006938191 0.07807657 0.35159835 -0.119656675 -0.17443757

fc3.bias f4 [20]
00000000: 5dce a23e 2e1c c9be c5fe 59be e2c4 7f3e
00000010: 4e0b fcbd ed62 2abe a3e5 f6bc a025 f33d
00000020: 5cbf 10bd 6ffd 743b f719 853e 4f35 f9bb
00000030: 4253 0cbe f5cd 943e 5066 913d d1a1 8e3e
00000040: c24e c23d 411b 633c fe14 893e 3490 433e
0.31798068 -0.39279312 -0.21288593 0.24977449 -0.12306844 -0.166393 -0.030138796 0.11872411
-0.035338745 0.0037382504 0.25996372 -0.007605232 -0.13703635 0.29063383 0.07099593 0.2785783
0.09487678 0.013861478 0.26773828 0.19097978

fc4.weight f4 [20, 20]
00000000: 186c f5bd eb25 e4bd 019d 58be 8526 2a3d
00000010: 23b1 2b3e 5592 253e 6815 063d 710d 33be
00000020: 5718 55be 1510 4d3e 5e15 ecbd 2dcd 85bc
00000030: 5e6f bc3d a78e 913c 173f ff3d 8d2b e1bd
00000040: e89d 4abe 700c 163e 613b 0c3e 3043 b4bc
00000050: 911b 513d b874 ef3c 88cb 463e 125a 033e
00000060: 6755 61be a8c4 163e 97eb 2bbb 8813 28be
00000070: 49f5 35be 4952 3dbd e3b9 703e 3fe6 84bd
00000080: 8069 9dbe 8381 c93d cd18 3ebe fef1 8fbe
00000090: 5a73 893e 3f78 bcbe 3b9e 5c3d de2c 263e
000000a0: 6e98 95bd 910c f13e c89c 103e f555 b0bc
000000b0: cd28 06be bdc4 97bc df82 873e db8b 883e
000000c0: a89d 6c3e 2324 ea3e ddeb 53be 9c22 cd3e
000000d0: 06a2 c83e ddbc 52be 62f1 0b3e 50e0 923d
000000e0: 2a68 4cbe c1ab 8d3e 8da6 60bd 48c4 25bd
000000f0: 43cf b3bd 86b7 f4bc 9a03 533e eb70 8fbd
00000100: 7c3d 233d 06e5 573e 2fa6 31be c1c0 4a3e
00000110: 4ed2 8b3c 38ce 463e dd25 3abe 0be8 b43c
00000120: 5219 0f3e ed0a 3ebe eff2 7b39 0761 8fbd
00000130: b1ea 62be 1395 98bd f16a 50be c0c2 eebd
00000140: d34e 553e 1f65 683e ddf1 673d 2849 88be
00000150: 7a7f 61bd dd5c 0bbd a4d7 223e 07c6 a93e
00000160: 41f8 d43e f5a9 ef3e b735 edbe cfc9 e53e
00000170: 80c5 b63e b599 9e3d 5b23 7f3e 675a c1bd
00000180: 71cf b4bd dd9f 343e 7ddf e7bb b55d afbe
00000190: c6b7 7fbe 0af9 d2bd 19f5 03be 905e 0abd
000001a0: 16e2 3abe 0c87 1dbe 43f4 7c3e 364f bcbd
000001b0: d21e 4dbd 7dda 83bd 46c5 15be 9fdd 36be
000001c0: 09d2 ab3d 083f dc3d 4db8 86be 7c7b ebbd
000001d0: 2ad2 ad3c ba81 2e3e d11c 863d be1c 87bd
000001e0: f2d2 053e 2a56 923e fce5 203e d8f5 7fbe
000001f0: 27b7 083e 2176 b23d abdb 493e 9b48 853e
00000200: fb7b c13e f20a 083f a1c6 dfbe d1fa da3e
00000210: 7cdc da3e f26a 14be 25ea e33d 80de 723e
00000220: 6316 1dbe b58d 263e 0ec5 debc b4e1 c3bd
00000230: 5d40 853e 9a5d 29be a698 9dbd 64a6 b63e
00000240: b12f 123e 3d54 3a3e f80d 7fbe c9bd c63c
00000250: 2411 b6be 3c46 90be 714c cd3d e346 9ebd
00000260: 538c 1dbf 0177 8e3e 8d11 8fbc 3e10 df3e
00000270: 6647 e73e deec bfbd c6e8 c23e b4fc e93e
00000280: fc1d de3c 4b25 b33e 70fa 0dbe 214b 3cbd
00000290: ea50 16bd 557a ba3d d7c5 e33e 9e0b f73e
000002a0: ebec bd3e 261b 983e 6a93 e1bd d03a 5a3e
000002b0: b905 4b3f dc6b 5a3d d612 943e 35c3 5b3e
000002c0: 4040 43bd 9c7d df3e 0fae 743e ed70 b1be
000002d0: 0767 c03e af00 9cbe 0806 b33d 621f 513e
000002e0: dfa2 b1bd 2127 48bd 05a7 7a3e 30f0 bd3e
000002f0: 2bf0 b63e 6737 ccbe 3a3e 9e3e 1710 aebd
00000300: 97ae 9d3d 8a0f f03e ef75 b03e ad25 413e
00000310: fdbc 913e 7f7c bb3e 7121 f63e f7de 783e
00000320: 1dc1 933e 9ef7 8a3e 2af4 de3d 0842 bcbd
00000330: ef07 073c c24d 49bd 3149 ac3e bb05 f53e
00000340: b332 c93e 0154 f13e 14c8 5cbe c9e2 023f
00000350: 0bb7 293f 8efa 4f3e 9b89 db3e a3ee c63e
00000360: 7152 42be a8ac 883e d69a 093c 13f6 5fbe
00000370: a7fd 39bc 7bb4 d63e f975 f13d 5010 d33d
00000380: 0204 3ebd 840c 99bd 0e69 d83e 7fa8 ee3e
00000390: 3e39 c03e e40a 53be 22fb bcbe 5b7a 0b3f
000003a0: 1de0 f03e a5b6 e23d 20e9 173f e553 ac3e
000003b0: 76de e4bd 7808 f93e 39ab 7e3e f6a2 cbbe
000003c0: 2304 43bc 0c05 42be ab1f 0d3e 05c6 04bc
000003d0: 8359 823d 1a0a 103d 2565 a5bc 39e4 36be
000003e0: f83a 1e3e 5eca 5ebe c218 1cbe 365d 4c3e
000003f0: 8d8c 2f3e cc4b 87bd c81b 5d3e 51cf 603e
-0.11983508 -0.11140045 -0.21153642 0.04154064 0.16766791 0.16169102 0.03273526 -0.17485596
-0.20810066 0.20025666 -0.11527513 -0.016333187 0.09200929 0.017768217 0.12463205 -0.10994635
-0.19786799 0.14653182 0.13694526 -0.022004694 0.05105168 0.02923046 0.19413579 0.12827328
-0.22005235 0.14723456 -0.0026232952 -0.164137 -0.1776935 -0.04622105 0.2350841 -0.064892285
-0.30744553 0.098391555 -0.18564148 -0.28114313 0.2684582 -0.3681049 0.053861838 0.16228053
-0.07304464 0.470799 0.14122307 -0.021525363 -0.13101502 -0.01852643 0.26467034 0.266692
0.23107016 0.45730695 -0.20695443 0.40065467 0.39186114 -0.20579858 0.13666299 0.071716905
-0.1996161 0.276701 -0.054846335 -0.04047039 -0.087797664 -0.029872667 0.20606843 -0.07003959
0.039853558 0.2108346 -0.1734855 0.19800092 0.017068055 0.19414604 -0.18178506 0.022083303
0.13974503 -0.18558855 0.00024027725 -0.07000928 -0.2215984 -0.07450309 -0.20353295 -0.11658239
0.2083085 0.22694825 0.056627143 -0.26618314 -0.05505321 -0.03402411 0.15902573 0.33158895
0.41595653 0.46809354 -0.46330044 0.4488053 0.35697556 0.07744161 0.24915831 -0.09441071
-0.08828629 0.17639108 -0.0070762024 -0.3425118 -0.24972448 -0.10301407 -0.12886466 -0.033781588
-0.18250307 -0.15383548 0.24702553 -0.09194796 -0.05007822 -0.06438158 -0.14626035 -0.17857979
0.083896704 0.1075421 -0.26312485 -0.11498162 0.021218378 0.17041674 0.06548465 -0.06597279
0.1306875 0.28581363 0.15712732 -0.24996126 0.13351117 0.087139376 0.19712703 0.26031956
0.37789902 0.531417 -0.4370623 0.42769483 0.4274634 -0.14493921 0.11128644 0.2371769
-0.15340571 0.16264994 -0.027193572 -0.09564534 0.26025668 -0.16539612 -0.07695131 0.3567382
0.14276005 0.18196197 -0.24907672 0.024260418 -0.35559952 -0.28178585 0.10024346 -0.07728364
-0.6154224 0.27825168 -0.017464424 0.4356708 0.4517166 -0.09371351 0.38068217 0.4570061
0.027113907 0.3498939 -0.13865066 -0.045970086 -0.03669826 0.09105364 0.44486877 0.4825105
0.37094817 0.29708213 -0.11014445 0.21311498 0.7930561 0.05332552 0.2892062 0.21461184
-0.047668695 0.4365052 0.23894523 -0.34656468 0.37578604 -0.30469272 0.08741385 0.20422128
-0.08673643 -0.04886544 0.24477775 0.3709731 0.3573011 -0.3988602 0.3090685 -0.08499163
0.07699316 0.46886855 0.34464976 0.18862028 0.284645 0.3661842 0.4807239 0.24303804
0.2885827 0.27142042 0.10886414 -0.09192282 0.008241638 -0.04914642 0.3364959 0.47855935
0.39296493 0.47134402 -0.21560699 0.51127297 0.66294926 0.20310423 0.42878422 0.3885394
-0.18976761 0.26694226 0.008398732 -0.21871214 -0.011351979 0.4193457 0.117900796 0.10305846
-0.04639054 -0.0747309 0.4226765 0.46612927 0.37543672 -0.20609623 -0.3691035 0.54483575
0.47045985 0.11069993 0.59340096 0.33657756 -0.111752436 0.48639274 0.24870004 -0.39772767
-0.011902842 -0.18947238 0.13781612 -0.008103852 0.06364729 0.035165884 -0.020189831 -0.17860498
0.15452182 -0.21756884 -0.1524382 0.19957432 0.1714346 -0.06606254 0.21592629 0.21954085

fc4.bias f4 [20]
00000000: 9204 dcbd ecda b9bc 7bbb babe 7c30 babd
00000010: 1f67 fabd 15a4 b43d 9e8b c5be 92ab 703e
00000020: f191 8a3d 3cdc 303e b453 65bd d35a b53e
00000030: 509b 2fbe 288d c53e 7b59 f33d 0929 b5bd
00000040: b959 fcbb a503 c03d 7950 52be 22d2 90be
-0.10743059 -0.022687398 -0.3647116 -0.09091279 -0.122267 0.08820359 -0.38583082 0.23502949
0.06766117 0.17271513 -0.05598803 0.35420856 -0.17149091 0.38584256 0.118823014 -0.088457175
-0.0077011255 0.09375695 -0.2053851 -0.2828532

fc5.weight f4 [20, 20]
00000000: 6ac8 c2bd 2ed7 2f3d 81a8 07be 34b8 8e3d
00000010: b027 97bb e8c8 d4bd bbcb dc3d cdad a4bd
00000020: 5752 1cbe 8bdf 02be ea68 b0bc 9072 313e
00000030: 3246 fbbc 1d06 35be 43c7 d93c 7598 213d
00000040: e33f 04be 3860 893d 0288 4e3d cced 393e
00000050: 3eee e6bd 5521 e6bd d28b 293e e661 243e
00000060: 7666 57be 79b8 90bd 5b20 bd3d 9d21 27be
00000070: 2b48 e83d 8482 fd3d dd4b 49be 2c74 dbbd
00000080: aec1 50be 2640 70bd 5bb0 963d 9459 263d
00000090: 8679 9cbd 2eb3 023d 8b3d 3a3e c392 9c3d
000000a0: d13d 03bc 8a9c 4f3e fc43 adbc f299 01be
000000b0: 99e5 6b3c 9f36 2bbc c60b 05be f213 6ebd
000000c0: 97e3 30be 631f b73b caee 32be da7f 603e
000000d0: 745f 99bd 1418 01be 9598 73bd 827e b2bd
000000e0: b6b3 5ebe 9f86 443e 7c17 a33d f688 4b3e
000000f0: f3dc 603e 29e2 9dbe 4643 b73e 71b6 5abe
00000100: c1c5 243e 71ab 583e 983e c03e 7dc5 4ebd
00000110: a750 a33e 6acc 903d 0186 fe3e 639b ca3e
00000120: cf2f 433e 8b8c 5f39 e542 773e 98f4 ae3d
00000130: 8dcc cf3e 0c88 0f3e 5cc4 ea3e 7e71 fa3e
00000140: 3c01 493c 5358 a43c 02e5 d73e 0e83 5a3e
00000150: b03d f13e 4cc8 6f3d 467d f73e c273 9bbe
00000160: 5849 823e 2672 bdba c608 633e 9e8e 133e
00000170: 44a5 b1bc 3a17 b6be 7266 273e bab3 13be
00000180: 503b d63e cd59 f0bc 9dcc 4d3e 06c2 133f
00000190: 1d2a f5bd f05d 16be bb5b aebd ddec 1cbd
000001a0: 8af0 39bc 80f9 33be f696 b6bd 9d59 61be
000001b0: d3ed 4abe 2a3a 38bd 1c3f dcbd 67ee b23d
000001c0: 72ff e63d 22a7 0bbe f167 033e 1677 0abe
000001d0: 6623 233e 77a4 c93d 8000 953d 7159 ae3d
000001e0: 97ea aebd 7678 67be b991 673e fa4a 28be
000001f0: 55ce ed3e 6316 bd3d 541f 0a3f 71ef 9abd
00000200: 3616 683e 5eb3 1fbe b201 c13e 533e c13d
00000210: 51d6 a03c 8c3c 743d 3420 d93e aee2 babd
00000220: 83ee 013f 5238 37be a82e ed3e 567d bd3e
00000230: fb21 973d af40 bebe 9300 df3e 48d4 cb3d
00000240: eb99 f83e 8727 a63d bead ef3e ca43 f4bd
00000250: e7a7 003f 2550 e23d 62a7 0d3f b441 803e
00000260: f5c8 cb3c fc8b 813d 3848 0a3f 05c2 4cbd
00000270: 8f02 c33e 17e5 593e 7dc8 cb3e 33bd 093f
00000280: f9c9 343e 89bf 403c ddf5 33be cf50 b13d
00000290: b948 2abe 8bce 27bc da54 193e 873b 0ebe
000002a0: cb6d 80be fe15 e3bc b8fd 11be 5354 273e
000002b0: bb84 b3bc fabb 98bd 397b 783d 479e aa3d
000002c0: 8a09 5e3d 1b2f 41be 5825 1d3e 5043 8d3d
000002d0: 0b67 c93c 853a c3bd 3f2d f23d af52 783d
000002e0: 17bd 86be f9ff 143d c13e 3d3e 79f3 e53d
000002f0: c8a8 4abe 5b72 04be 212d c8bd b7e6 603d
00000300: 5909 463e 52df 3ebe 27c4 7dbd aba5 ea3d
00000310: f5e7 023e cc4f c33d e7d1 5ebd 6a38 6b3b
00000320: dd5a 8a3d b0e0 5fbe 3e1e c2be d1d7 9e3d
00000330: b847 4bbe 1e36 16be 5205 16bf 0f7d f43e
00000340: 7c9d 653e 4b74 d63e fb54 32bd 298c 743e
00000350: d353 9abd 45f0 f33e 4c83 0c3e 4fd8 06be
00000360: 7bd0 76be 3c6a 0cbe ae93 7abe 4f0e 00bf
00000370: 7294 113e b1d5 0e3b db5a 0abf 0ad9 03be
00000380: a33d 27be 04a6 213e 4d07 92be 157a 14be
00000390: 8d1c 083f 4408 2c3e 16a5 e73e c378 083f
000003a0: 494b 4a3e a57c 38be d8ee e13e cbc1 54be
000003b0: 08d1 953e 16ca c63d b4ce 9f3e 9ec9 46be
000003c0: 6a46 0bbe 14b6 b6bd 3204 553e c5d3 3f3e
000003d0: e8c6 593e 219b 13be 9577 093e c7cf 81be
000003e0: e1d5 0a3f f98f c53d 5c95 823e 1f55 cb3e
000003f0: e9ec 99bd eb3f 083e 39e9 c73e ca5a 59be
-0.09510882 0.04292982 -0.13247873 0.06968728 -0.0046128854 -0.10389882 0.10781046 -0.08040962
-0.15265785 -0.12780587 -0.021534402 0.17328858 -0.03067312 -0.17678113 0.026584273 0.039452035
-0.12914996 0.067078054 0.050422676 0.18157119 -0.1127591 -0.11236826 0.16557243 0.1605297
-0.2103518 -0.07066435 0.09234687 -0.16321416 0.1134189 0.123784095 -0.19657846 -0.107155174
-0.20386383 -0.058654927 0.07357856 0.040612772 -0.07640366 0.03190916 0.1818754 0.0764518
-0.008010344 0.20274559 -0.021150582 -0.12656382 0.014398002 -0.010450034 -0.12992772 -0.05812449
-0.17274319 0.0055884584 -0.17473903 0.21923772 -0.07488909 -0.12606841 -0.059471685 -0.08715536
-0.21748242 0.19191979 0.07963464 0.19876465 0.21959285 -0.3083661 0.35793513 -0.21358658
0.16091062 0.2115915 0.37547755 -0.05048131 0.3189747 0.07070239 0.49711612 0.39571676
0.19061206 0.00021319294 0.24146612 0.08542746 0.40585747 0.14016742 0.45852935 0.48914713
0.012268361 0.020061648 0.42166907 0.21339056 0.47117376 0.058540627 0.48337764 -0.30361754
0.25446582 -0.0014453575 0.22171316 0.14409873 -0.02168525 -0.35564595 0.16347674 -0.14424029
0.41842127 -0.029339695 0.20097585 0.5771793 -0.11970923 -0.14684272 -0.0851359 -0.038311828
-0.011348853 -0.17575645 -0.08915512 -0.22006841 -0.19817285 -0.044977345 -0.10754225 0.08736878
0.11279191 -0.13637975 0.12832619 -0.1352199 0.15931472 0.09845822 0.07275486 0.08513153
-0.08540838 -0.22604546 0.22614183 -0.16434851 0.4644648 0.092327856 0.5395405 -0.07565201
0.22664723 -0.15595767 0.37696606 0.094357155 0.019633444 0.059628054 0.42407382 -0.09125267
0.50754565 -0.17892578 0.46324658 0.37009686 0.07379528 -0.37158725 0.43555126 0.09952599
0.4855493 0.08113008 0.46812242 -0.11926992 0.502562 0.110504426 0.5533353 0.25050128
0.024876097 0.06325528 0.5401645 -0.04998972 0.3808789 0.21278797 0.39801398 0.5380432
0.17655171 0.011764416 -0.17574258 0.08657991 -0.16629304 -0.010242115 0.14973775 -0.13889895
-0.25083765 -0.027720448 -0.14256942 0.16340761 -0.021913877 -0.07457729 0.06066439 0.0833097
0.054208316 -0.18865626 0.15346277 0.068976045 0.024585268 -0.09532646 0.11825036 0.06062573
-0.2631614 0.036376927 0.1848097 0.11228079 -0.19790947 -0.12934248 -0.09774233 0.054907527
0.19339503 -0.18639877 -0.061954644 0.1145738 0.12783797 0.095367044 -0.054399397 0.003589178
0.06755612 -0.21863055 -0.37913698 0.077560075 -0.19851577 -0.14669082 -0.5860187 0.47751662
0.22423357 0.418856 -0.043538075 0.23881592 -0.075355195 0.4764425 0.13721961 -0.13168453
-0.24102966 -0.137124 -0.24470398 -0.50021833 0.14216784 0.002179485 -0.54044884 -0.12875763
-0.16332106 0.15785986 -0.28521195 -0.14499696 0.53168565 0.16800028 0.45243138 0.5330927
0.19755282 -0.18016298 0.44127536 -0.20777051 0.2926104 0.097065136 0.3121239 -0.19412848
-0.1360108 -0.089214474 0.20802382 0.18733127 0.21267283 -0.14414646 0.13424523 -0.25353834
0.54232603 0.09646601 0.25504577 0.3971338 -0.0751589 0.13305633 0.39045122 -0.2122604

fc5.bias f4 [20]
00000000: ba9b 14be 77d8 62be 6edb 30bd 547d b1bd
00000010: 4b2f 3ebe cf0a 1dbd cf3e 1e3d 37cf 9bbd
00000020: 8ace 36b9 8d25 a13d 8dd5 ea3e d443 853e
00000030: e07d 1e3e 5bfe 9abe 85c7 d1bc 4cd0 1cbe
00000040: 6cc7 86bd 356b 67bc d7e3 4f3e c105 833e
-0.1451253 -0.22152887 -0.043178014 -0.086664826 -0.18572728 -0.038340386 0.038634118 -0.076078825
-0.00017433814 0.0786849 0.4586605 0.2602831 0.15477705 -0.30272183 -0.025607834 -0.15313834
-0.065810055 -0.014124681 0.20301758 0.25590327

fc6.weight f4 [3, 20]
00000000: 89f4 2abd 8fe9 903d c42c 4fbd 6f06 613e
00000010: 0458 033f 696a f9bd 4138 e23e 1f92 b63e
00000020: 9f5c a6bd a614 463d 1ced acbe 604b f13d
00000030: 58de 6a3d 4078 0f3f 37db b7bd 5168 9ebd
00000040: 0e6c db3d aaea 373d 604c 63be 9b5a a3be
00000050: c27f 0d3d 6ed1 cc3d 04ed b43a 952b d73d
00000060: d1f8 0bbf ff5b 00be 2d79 3ebe d6af ac3e
00000070: 4a2a 12be 6e93 27be 8aaa 513e d1cc 013f
00000080: cd7d fb3d 8c33 02bf ffa4 0f3d bc72 4abd
00000090: f1dc d1bc cf61 0cbd d205 a43e f7e0 ba3b
000000a0: 0321 af3d 8e60 013e c2fd 943d 5aa3 02bf
000000b0: 868b f4be 2b16 013c 14f1 38bf 72c9 97be
000000c0: c087 c7bd 25df 193e 7c87 793e 1ae0 72be
000000d0: 006e 08bf 7965 16bf 00bb f33c cf79 1bbe
000000e0: 49e6 333e 9140 513d fea9 38be 2d71 fc3e
-0.041737113 0.07075798 -0.0505798 0.2197511 0.51306176 -0.12178499 0.44183543 0.35658357
-0.08123135 0.048359536 -0.3377465 0.11781955 0.05734095 0.5604286 -0.08977359 -0.077347405
0.10713969 0.044901527 -0.22197104 -0.31905064 0.034545667 0.10000883 0.0013803546 0.105063595
-0.5467654 -0.12535094 -0.18600912 0.33727902 -0.14273944 -0.16364834 0.20475212 0.5070315
0.12279854 -0.50859904 0.035069462 -0.049425825 -0.025618048 -0.034272965 0.3203569 0.0057030874
0.08551218 0.12634489 0.07274963 -0.51030505 -0.47762698 0.00787882 -0.72242856 -0.29645878
-0.09742689 0.15026529 0.2436809 -0.237183 -0.53292847 -0.58748585 0.029752254 -0.15183185
0.17568316 0.051086966 -0.18033597 0.49305096

fc6.bias f4 [3]
00000000: eca1 4bbe 2dde dabd f6a7 423d
-0.19885987 -0.10686908 0.04752346
