models_3val/and_or_10.pth (torch, 12178 bytes, 12 tensors)

fc1.weight f4 [20, 12]
000000 f1 57 07 3e 25 0b 16 3d fb 0d b5 bb 0c 71 34 3e
       0.1321714 0.036631722 -0.0055253482 0.17621249
000010 ed 50 d6 3d 3d 09 c1 3e ce e5 00 be 11 a2 9d 3d
       0.10464654 0.3770236 -0.12587664 0.07696927
000020 45 66 41 3c 61 e1 33 be 3f 64 61 3e f3 d5 ab 3e
       0.011804168 -0.17566444 0.22010897 0.33561668
000030 44 9e b3 3d 68 3a af 3d ab 65 a6 bd 39 e9 8e 3e
       0.08770421 0.08556062 -0.081248604 0.2791231
000040 a2 96 22 3a 3f b0 04 bd 36 95 9e 3e fa d4 2a 3e
       0.00062022556 -0.032394644 0.30973214 0.16682807
000050 63 62 4f 3e f4 bd 4c 3d 5c e4 2c bd 53 4e e1 3d
       0.20252375 0.04998584 -0.042209968 0.11001267
000060 86 09 40 bd 96 bf 78 3e 04 0a c9 bd d1 58 e6 3c
       -0.046884082 0.24291834 -0.098163635 0.028118523
000070 98 62 de bd 5e 8d 2a bc f3 27 c2 bd 9f d3 09 be
       -0.10858649 -0.010409681 -0.09480276 -0.13459633
000080 2f 29 ab bd b7 a4 4f 3e ba 4a 63 3e 87 36 31 3d
       -0.083574645 0.20277677 0.22196475 0.043264892
000090 8e 72 86 3c 59 4f e1 3c 27 0c 43 3d 8a 6e df bc
       0.016412046 0.027503656 0.04761901 -0.027274389
0000a0 27 f4 58 bb 13 1a c0 be c3 41 bf be fc cf 8c 3d
       -0.003310451 -0.37519893 -0.3735486 0.06875607
0000b0 8e 41 cd be c3 5c 83 3e e3 27 d8 3c f8 b1 8b 3c
       -0.40089077 0.2565671 0.026386207 0.017052636
0000c0 9f 78 11 be 65 98 b7 bd 13 b0 53 3e e3 27 de 3d
       -0.1420617 -0.08964614 0.20672636 0.108474515
0000d0 ce 26 90 3e 2a 90 25 be ad f8 81 bd 98 9e 0c be
       0.28154606 -0.16168275 -0.06346259 -0.13732374
0000e0 67 dd 3f 3f 3b 6f 24 3e 7b aa 64 3e 7a b1 0a 3e
       0.7494721 0.16058056 0.22330658 0.13544264
0000f0 71 55 25 be c5 47 d1 3d 42 7b 0a 3e f9 6f e4 38
       -0.16145875 0.10218767 0.13523582 0.00010892744
000100 a7 b6 a6 3d 3b 6e ac 3d 8b aa 9c 3e c5 be ad 3e
       0.08140307 0.08419462 0.30598864 0.33934608
000110 cb 39 d8 3e ac f2 c6 3d ba 67 0f 3e 96 ac 9b 3d
       0.42231593 0.09714255 0.14004412 0.076012775
000120 d0 f6 8f 3d e4 a5 89 3d ca 13 90 3d f7 93 ec 3d
       0.070294976 0.06721094 0.070350245 0.115516596
000130 d2 e1 1f 3e b9 00 2a 3e c1 ea a6 3e d2 9d a3 be
       0.15613487 0.16601838 0.32600978 -0.31956345
000140 b6 88 0c 3e b0 12 73 be b7 16 11 bc 20 7a e4 3a
       0.13724026 -0.23737597 -0.008855513 0.0017431416
000150 a2 1e fc 3d 4c 97 ab 3d e6 5e 0c 3e 6c f6 1d 3d
       0.1231053 0.08378467 0.13708076 0.038565084
000160 93 e2 b2 3e 4e 25 9a be 14 65 ad 3e 33 20 d2 bd
       0.34938487 -0.30106586 0.3386618 -0.10260048
000170 c0 7e 38 3d e1 24 07 be aa 8c a0 3d e9 95 b1 3c
       0.045042753 -0.13197662 0.078393295 0.021677928
000180 2c 43 e2 3d 6d 5c ff b9 b2 4a d4 3e 93 c0 34 be
       0.11047968 -0.00048706253 0.41463238 -0.17651586
000190 79 93 89 3e 0b d0 87 be c3 3b 5a 3d 6a 64 07 bd
       0.26870325 -0.26525912 0.05327965 -0.033054747
0001a0 e8 02 54 bc 8b ab df bd 61 d8 82 3e 90 7a 9b 3e
       -0.012940146 -0.10921391 0.2555571 0.30366945
0001b0 dc 4c a0 3e f1 8d a4 3e 0c d5 3e 3e 6e 69 31 3e
       0.3130864 0.32139543 0.18635958 0.17325374
0001c0 40 62 1a be 88 7f 4e 3e 17 4b f3 3c 33 ce bc 3d
       -0.15076542 0.20165837 0.029698892 0.09219017
0001d0 f3 91 51 3e ca 15 b0 3e f6 33 d2 bd 80 e6 32 3e
       0.20465831 0.34391624 -0.10263817 0.17470741
0001e0 9e 7c 5f 3e 34 06 f5 3d 40 5a 2e 3e b2 dd 2f 3e
       0.21824881 0.11964074 0.17026615 0.17174414
0001f0 f7 f4 36 3e 53 67 ac 3e fa 06 96 3e df ea d0 3e
       0.17866884 0.3367258 0.29302198 0.40804192
000200 6f a8 04 3f 5b 68 b1 be 8c 54 a0 3e fb 81 fd bd
       0.5181951 -0.3464993 0.31314504 -0.123783074
000210 e1 08 91 3e db 67 45 be e6 7d 0f 3e c1 a7 77 bd
       0.28327087 -0.19277899 0.1401287 -0.060462717
000220 d6 97 8a 3e 5c 53 92 3e f0 74 24 be 54 a5 89 3e
       0.27068967 0.28579223 -0.16060233 0.26883948
000230 84 a3 a3 3d 9c fc e7 3e c0 e8 20 3d 70 94 72 3e
       0.079901725 0.45309913 0.039284468 0.23689437
000240 0e c8 03 3e da 9a f9 3c 6f ea c4 bd 1b 61 a1 bd
       0.12869284 0.030469347 -0.09615027 -0.078798495
000250 83 5d 7b 3d 98 b0 bf 3d ed fa ae 3d 0d 88 9b 3e
       0.061368477 0.093598545 0.08543954 0.30377236
000260 74 09 b6 3e d2 3a 0a 3d 46 2a c4 3c 57 3e 35 3e
       0.35554087 0.0337475 0.023945939 0.17699562
000270 9c 35 6e 3a 15 ac 67 bb 61 af 49 bc 9f 2b ce bc
       0.0009086968 -0.0035350372 -0.01230988 -0.025167285
000280 ba 2a 6f bd 2a ee df bd 32 75 16 be 8d 6c bd 3e
       -0.058390357 -0.10934098 -0.14693144 0.3699688
000290 ed fc 87 3e 9d 4a 67 be cd 32 93 3b 45 48 fc 3a
       0.26560155 -0.22587056 0.00449214 0.0019247612
0002a0 19 fd c0 3a 3c 63 7e 3c 62 4a 96 3c db fc 95 3d
       0.0014723866 0.015526589 0.018346015 0.07323619
0002b0 81 71 ca 3d 78 02 49 3d 97 c4 00 3d c3 0a d0 3d
       0.098849304 0.04907462 0.031437483 0.10158303
0002c0 57 13 a0 3e 65 a8 12 bf 0f 9f ce 3b 71 e7 10 3c
       0.31264755 -0.572882 0.0063055824 0.008844242
0002d0 33 54 71 3c 18 b2 16 3c 6a 81 07 3d 27 77 77 3d
       0.014729547 0.009197734 0.033082403 0.060416367
0002e0 13 96 c6 3d f8 a6 a1 3e d2 2f cb 3e 7b a0 71 be
       0.09696593 0.315727 0.39684922 -0.23596375
0002f0 94 5a d3 3e b1 70 6b be c3 5c ec 3c 55 ec 9e 3c
       0.41280043 -0.22992207 0.028852826 0.019399801
000300 cf bd 1a bc 21 2b ad bc 0e c2 95 bc f3 04 85 3e
       -0.009444668 -0.02113873 -0.018281009 0.25980338
000310 3c 90 8b 3e e3 9d e2 be 25 d6 f5 bd 2e 6e 88 3d
       0.2725848 -0.44261083 -0.120037355 0.0666164
000320 ac b2 a0 3d 5c b7 f3 bb 75 f0 c0 3c 5d 03 a7 bd
       0.07846579 -0.0074376296 0.023552159 -0.08154938
000330 91 21 3a ba 20 3f 1d b9 cb bc 7f 3a a3 9d 1b 3a
       -0.00071003387 -0.00014996203 0.00097556104 0.00059362705
000340 dd b1 0d bc cc 87 4f 3b 0a e3 7d be f5 06 6b be
       -0.008648363 0.0031666635 -0.2479364 -0.22951873
000350 dd b0 34 3f b9 f2 97 bc 90 bf 54 ba cf 9b 38 b9
       0.7058237 -0.018548356 -0.0008115703 -0.0001760565
000360 25 f2 d6 ba 84 e7 63 3b f1 50 af 38 16 50 70 bd
       -0.0016399069 0.0034775445 8.359727e-05 -0.058670126
000370 0a 9e 79 bd 4a 25 01 3d 7d 3f 4d bd 2a 67 fe 3e
       -0.060941733 0.031529702 -0.050109375 0.49688083
000380 45 6d ba 3e e9 88 f4 be 90 41 9a 3b 54 3d 0e bc
       0.3641149 -0.47760704 0.0047075227 -0.008681614
000390 22 8b 55 3e 01 7f 59 3e 5d c7 99 3e 04 c4 02 3d
       0.20853856 0.21239854 0.30034915 0.031925216
0003a0 8d b2 e3 3e 7b 24 ad 3c 86 5b 9f 3e 0a 20 1a bd
       0.4447216 0.02113556 0.31124514 -0.03762821
0003b0 16 7a d8 3e 04 fd a8 3d 9d bc 67 be 17 c4 5e 3d
       0.42280644 0.08251384 -0.22630544 0.054386225

fc1.bias f4 [20]
000000 64 3e 21 3d fc c0 26 be cc 8e be 3e b4 c5 39 be
       0.03936614 -0.16284555 0.3721832 -0.18141824
000010 5a 7c 03 3e 53 5d ac be 54 d6 5b 3e 6a 41 8e 3d
       0.12840405 -0.3366495 0.21468478 0.069460705
000020 1f 12 22 3e ba b7 85 3d 0f bf f3 bd ff 40 65 bd
       0.15827225 0.06529184 -0.11901676 -0.05597019
000030 ce 07 83 bb 02 36 7f 3e 8a 25 0d bc 37 71 be 3d
       -0.003998733 0.24922946 -0.008614907 0.09298938
000040 e1 6f 50 3e b2 17 25 3d f2 54 95 3c 1a 2a c1 3e
       0.20355178 0.0403058 0.018228982 0.37727433

fc2.weight f4 [20, 20]
000000 23 a3 d3 3d 02 d9 f3 bd 43 75 7e 3e 7f 82 ae 3e
       0.1033385 -0.11906625 0.2484942 0.34083936
000010 99 ea 32 bc a8 92 8c bd 2c de a7 3e fc 5b 7a 3e
       -0.01092019 -0.0686391 0.3278669 0.24449152
000020 54 ef 4a 3d 64 26 a4 3e 2b 92 0d 3e 1f 10 99 bc
       0.049544647 0.3206054 0.1382529 -0.018684445
000030 75 f0 c5 bd f8 25 fb 3d db db 0b 3e e0 a0 9b 3e
       -0.09665004 0.12263101 0.13658087 0.30396175
000040 5f 55 67 bd ee 40 87 be f5 a9 66 3e 28 7d 8c 3e
       -0.0564779 -0.26416725 0.22525771 0.27439237
000050 93 3f d4 3c c0 e8 ce 3d fe 78 0c 3e 73 37 e7 be
       0.02590922 0.10102987 0.1371803 -0.45159492
000060 4c 72 66 3e 4e 4b c0 3d ea 30 a3 3d 4f 0e f1 bd
       0.22504538 0.09389363 0.07968314 -0.11770307
000070 d2 35 53 3d fe 7b 7b 3e 63 06 52 be 81 5a 4c 3e
       0.051565 0.24559018 -0.20510249 0.199564
000080 4a 96 09 be 81 ee 7c 3e 2c f0 b9 3e aa e2 eb 3c
       -0.13436237 0.24700357 0.3631605 0.028794605
000090 d9 b0 5e 3c 9c 56 80 bd 5e 89 a2 be 1c 5a 41 3e
       0.013591968 -0.062665194 -0.31745428 0.1888203
0000a0 36 d9 31 bd e2 36 38 3e aa 1f 60 be 69 f0 b2 be
       -0.04342004 0.17989686 -0.21887079 -0.34949043
0000b0 4d 66 1a bd 74 f7 2d 3e 04 08 4c bd 59 2f 51 3d
       -0.037695218 0.16988927 -0.04981233 0.051070545
0000c0 e0 fb cf bd 5e 63 04 be 97 84 52 3e b7 18 09 3d
       -0.10155463 -0.1292853 0.20558392 0.033470836
0000d0 be 09 20 3e 54 9e 2e be 90 6a f4 be e0 d5 d6 be
       0.15628716 -0.17052585 -0.4773755 -0.4196005
0000e0 2b 8a 23 3d e0 3c 01 3f 26 ec 27 be d2 37 35 3e
       0.03992669 0.5048351 -0.16398677 0.17697075
0000f0 3e 7c 92 3e 63 e0 e1 3d aa 71 5d be c3 e0 4f ba
       0.28610414 0.110291265 -0.2162539 -0.00079299154
000100 0f 1b 9e bb ea 41 95 3e 64 3f 4c bd 71 0e 58 3d
       -0.004825003 0.2915185 -0.04986514 0.052748147
000110 ce 89 c4 3d 1b a1 75 be da ad 52 3e 98 28 c3 bd
       0.09596597 -0.23987238 0.20574132 -0.09529227
000120 ed 60 a0 3e 3e 71 4f be 56 db c5 bc d4 13 e1 bc
       0.31323949 -0.20258042 -0.02415244 -0.027475275
000130 bd fc 08 be da 19 7e 3e be 5e 70 be 2e 2e 2d 3e
       -0.13377662 0.24814549 -0.23473641 0.16912147
000140 19 12 71 3c c0 3c b0 3e cf 9d 78 be 6d 97 00 3f
       0.0147137875 0.3442135 -0.24278949 0.5023106
000150 46 cd 1c 3d fa 80 0d 3e 22 97 35 3e 8c ee 3c 3e
       0.0382817 0.13818732 0.17733434 0.18450373
000160 2a f7 f2 3e 80 18 8b 3d 1a 4f d9 3d f2 dd 67 be
       0.47454196 0.067917824 0.106107906 -0.22643259
000170 9c 37 0c 3e 46 5f 1e 3c 8d 80 a8 3e 64 7a b0 3e
       0.13693088 0.00966627 0.32910576 0.34468377
000180 1c 51 0d 3f 6f 53 c3 3e a9 a0 2e 3f 49 aa 3d 3d
       0.5520189 0.38149592 0.682139 0.046304975
000190 15 f3 e9 3c 56 3b b6 3e 4f df 1b bd 2a fe 10 bf
       0.028558293 0.35592145 -0.03805476 -0.56637824
0001a0 51 6b bf 3d 9d dd 21 3e da ee 94 bc 1b 96 ad bd
       0.09346641 0.15807195 -0.0181803 -0.08475896
0001b0 cb 03 0e be 18 6c c9 3d de e4 b8 bb ee f8 8a 3d
       -0.13868634 0.0983507 -0.0056425175 0.06785761
0001c0 6c 68 8c 3e a7 84 88 be db 0a 00 bf 38 3a bf be
       0.27423418 -0.26663706 -0.50016564 -0.37349105
0001d0 70 2a 81 bd 79 2f da 3e 35 1b 05 be 3a bf 6f 3e
       -0.063069224 0.42614344 -0.1299866 0.23412791
0001e0 df fc 95 3c 30 00 4c 3d 6e 9e f1 3d 74 fb ea 3e
       0.018309055 0.049804866 0.11797796 0.45894969
0001f0 72 6f fe 3d 6b c9 e7 bd f4 c0 f8 bd 08 e2 2c 3e
       0.124236 -0.11317714 -0.12146178 0.16883099
000200 2d 2f 35 be 16 8b 3f bd 00 7a 45 be 3f b6 5d 3e
       -0.17693777 -0.046763502 -0.1928482 0.21651553
000210 c8 13 f1 bd 23 cf 52 3e 28 19 7e 3e e0 2a 9f 3e
       -0.11771351 0.20586829 0.24814284 0.310874
000220 a9 22 89 3e 28 45 02 be 30 6c 0c 3e 64 54 2d 3d
       0.26784256 -0.12721694 0.13713145 0.04231681
000230 d3 8b a9 bd 35 6f 7c 3e be 0b ba bd 41 34 5a be
       -0.082786225 0.24651797 -0.09084271 -0.21308996
000240 7d 5c 10 3e f9 84 58 3e 75 ce b7 bd fd d7 dd bd
       0.14097781 0.21144475 -0.089749254 -0.10832212
000250 42 93 49 3c 26 ad ac 3d 0d f2 70 3e 51 36 38 be
       0.012303175 0.08431463 0.23529835 -0.1798947
000260 ff d6 b8 3e 55 43 92 be c2 2e 08 bf 25 21 9a be
       0.3610153 -0.28566995 -0.53196347 -0.30103412
000270 81 89 00 be 75 fb f5 3e f8 61 8a 3c 80 bd c0 3d
       -0.12552454 0.4804341 0.016892418 0.09411144
000280 b9 f6 88 3e b7 f4 87 3d c7 f1 91 3e 33 d1 b9 bb
       0.26750734 0.066384725 0.28504774 -0.0056706904
000290 3c 02 14 3e 8d f3 47 be 14 07 10 3d 86 6b a1 3e
       0.14453977 -0.19526501 0.035163 0.31527346
0002a0 8d 3e 34 bd cc 2b 01 3d 46 cc f2 bc b5 26 06 3e
       -0.044004966 0.03153591 -0.02963842 0.13100703
0002b0 f1 c5 ae be 2a 78 bd 3e df c8 23 3e cb 40 19 3e
       -0.34135392 0.3700574 0.15994595 0.14966123
0002c0 5a 6c c0 3b 9f 8d 6d be bb 49 99 3a 66 12 54 3d
       0.0058722915 -0.23198555 0.0011694947 0.05177536
0002d0 05 ef 22 3d 09 c5 6b be 18 0d 85 bd fe 84 32 3f
       0.039778728 -0.23024382 -0.06496638 0.6973418
0002e0 0e e0 14 be d3 9a 29 be ed 3d a0 3d 8c 35 aa 3d
       -0.14538595 -0.16562967 0.078243114 0.083109945
0002f0 56 3b 25 3e 5f a5 52 3e d2 97 05 be aa fb 0d bd
       0.16135916 0.20570897 -0.13046196 -0.034663834
000300 e8 16 00 bd 0a 47 d4 3e 72 b8 0a 3f bd 25 7f 3e
       -0.031271845 0.41460449 0.5418769 0.2491674
000310 46 22 70 3e ba 0f d5 bc 05 ac b6 3e 01 ee ab bd
       0.23450574 -0.026008476 0.35678115 -0.08395005
000320 a7 eb 19 bb f8 fb 33 3e 35 3f a2 3e 5d 8b b5 3d
       -0.0023486407 0.17576587 0.31688848 0.08864472
000330 d2 b7 f2 3d 61 3d b0 bd 34 9e 01 3e de 75 8e 3e
       0.11851467 -0.08605457 0.12658006 0.278243
000340 0b 58 86 3e 75 41 8a 3d 31 a6 0f 3e 75 ff 37 3e
       0.26239046 0.06750766 0.1402824 0.17968543
000350 75 be cd 3d ad b8 5f 3e 3f 8b ce 3d 18 78 b1 3e
       0.100460924 0.21847792 0.10085153 0.34661937
000360 0b ff 8b 3e 41 4c c4 be 8c 50 58 3e 1c ce 4a bd
       0.2734302 -0.38339427 0.21124476 -0.049512967
000370 7a c6 90 3d b3 ce 88 3e e7 3e 46 bd 54 15 f2 be
       0.070691064 0.267202 -0.048399832 -0.47281897
000380 33 3a 3c 3e b5 dd 82 3e 8c 33 60 3d 44 c2 86 3e
       0.18381576 0.25559774 0.05473666 0.26320088
000390 68 95 70 3c 75 08 43 3e a2 8e 8f bd 40 3d 8e 3e
       0.014684059 0.19046195 -0.07009627 0.27781105
0003a0 33 3e 9a 3e 91 ea 23 3d 25 a8 e5 3e 64 4d 9c 3e
       0.3012558 0.04001862 0.44854847 0.30527794
0003b0 52 e7 e5 3d 4e 8a b3 3c 5c 54 31 3d 93 dd b7 3d
       0.112257615 0.021916535 0.043293342 0.08977809
0003c0 4f a6 41 bb cd 17 42 3d 99 54 48 be 5e 06 fe be
       -0.002954859 0.04738598 -0.19563521 -0.49614233
0003d0 0d 02 a2 3e cd ea 3d 3e b2 11 26 3e 4b 4e 00 3e
       0.3164219 0.185466 0.16217688 0.12529866
0003e0 47 f9 c6 bd 55 07 18 3e 6e e3 67 3d 93 ec d9 3d
       -0.09715515 0.14846547 0.05661338 0.10640826
0003f0 d2 78 5f bd 3b 3e 07 bf 87 d7 1d be 3b 4a b5 bd
       -0.054558583 -0.5282933 -0.15414248 -0.08852049

fc2.bias f4 [20]
000000 1a 2d 1d 3e 99 96 84 3e 68 c3 9d 3d df 0b ea bd
       0.15349236 0.25896147 0.077032864 -0.114280455
000010 81 0f 0e 3e b0 5c 0f bc ac 7c 8b 3e 2e 2d 48 bd
       0.13873102 -0.008750126 0.27243555 -0.04887121
000020 4c af c3 3e 26 e3 09 3e 38 a1 9f 3d 9a fc 2b 3e
       0.38219678 0.13465557 0.07794422 0.16795579
000030 d0 b2 e3 3e 2e ab ab bd 06 2f 1e bd 61 e8 37 3e
       0.4447236 -0.08382259 -0.038619064 0.1795974
000040 bd 78 ce bd da 94 3e be 30 07 30 be ae e6 a0 bd
       -0.10081623 -0.1861147 -0.17190242 -0.07856499

fc3.weight f4 [20, 20]
000000 c9 84 e8 3c f2 59 33 be bc 53 b1 3e f6 23 72 3e
       0.02838363 -0.1751478 0.34634197 0.2364653
000010 e9 1a 48 3e 18 29 95 3e 08 db ce be 04 56 bd 3e
       0.19541515 0.29132915 -0.40401483 0.36979687
000020 1f 88 cc bd 92 ae 81 be 09 aa fb bd 83 5d c0 bd
       -0.099869005 -0.253285 -0.12288291 -0.09392836
000030 b4 a4 2f 3e c6 4f e7 3c 1a f5 53 3e 44 ef 8e 3e
       0.17152673 0.028236281 0.20698968 0.2791692
000040 00 b7 92 3e a4 39 99 3e df de 80 3e 27 02 93 be
       0.28655243 0.2992679 0.25170037 -0.2871258
000050 87 28 2b be cf fc 96 3d 7b ab 0e be 14 71 39 be
       -0.16714679 0.07372438 -0.13932602 -0.18109542
000060 93 c6 dc bd 1a 2e 90 3b f1 e1 57 be 8c 4c 41 be
       -0.107800625 0.004400027 -0.21082284 -0.18876857
000070 49 09 8c bd c6 78 0c be 66 1b e2 bd 85 14 77 bd
       -0.068377085 -0.13717946 -0.11040382 -0.060322303
000080 1a 53 1b 3e cc f5 e3 3d ec 4e a1 3c 0e ba b8 bd
       0.1516842 0.111308664 0.019690953 -0.09019862
000090 bb c4 2a be 98 de d3 bd 90 02 37 3e cd a9 36 3d
       -0.16676609 -0.10345191 0.17872071 0.04459553
0000a0 e8 ab b4 be 99 fe 82 bd 92 7d d9 3e a3 25 3f 3e
       -0.35287404 -0.06396217 0.42478615 0.18666701
0000b0 6c 0f 8a 3e 41 ff 99 3e 21 44 97 be 81 e3 9a 3e
       0.2696489 0.30077556 -0.29544166 0.30251697
0000c0 a9 77 bc be 87 64 bd be a3 9d d9 3c ba 97 06 3e
       -0.36810043 -0.3699076 0.026564425 0.13143817
0000d0 bd 08 82 3e c6 28 1c 3d 11 c3 6e 3d 1d 2f 77 3e
       0.25397292 0.038124822 0.0582915 0.24139066
0000e0 94 87 ba 3e ff 42 83 3e 83 c6 dc 3d 7c 11 e8 3c
       0.36431563 0.2563705 0.107800506 0.02832865
0000f0 3e 08 1e 3e ff cd bc bc e5 c9 c9 bb f0 69 6b be
       0.15432832 -0.023047445 -0.006158101 -0.2298963
000100 61 05 71 be 69 1a 39 3e 18 fd b7 bc d7 15 c9 bd
       -0.23537208 0.18076481 -0.022459552 -0.09818619
000110 14 c6 05 be a1 25 72 be 78 96 10 be c1 9b e9 bd
       -0.13063842 -0.23647167 -0.141199 -0.11406661
000120 22 c9 51 bd a2 3c 34 be 69 30 a0 3b 2c a6 82 be
       -0.051217206 -0.17601255 0.0048885834 -0.25517404
000130 f0 cf e9 bb 15 31 18 3e ef 34 54 3e 9c de 52 3d
       -0.007135384 0.14862473 0.20723318 0.051481828
000140 c5 c1 06 be a9 55 73 be 1b 52 07 be 37 fb be bd
       -0.13159855 -0.23763146 -0.13214915 -0.09325259
000150 37 62 91 3d 6f af 52 3c 17 9d 74 be 4b 44 15 be
       0.07098811 0.012859209 -0.2388805 -0.14576833
000160 8a 67 75 bc 13 b1 2d 3e dc f6 ea bc ef 4d af 3d
       -0.014978299 0.1696208 -0.028682165 0.085597865
000170 84 64 45 be 4b 24 10 3d 02 c4 9f 3d 7e 0e dc bc
       -0.19276625 0.03519086 0.078010574 -0.02686238
000180 35 bc 03 be de b4 80 bd 60 20 43 be 5b c1 b5 bd
       -0.12864764 -0.06284498 -0.19055319 -0.0887477
000190 82 7f 32 3e a0 4f 03 be 07 4e ad be a9 23 85 bd
       0.17431453 -0.12823343 -0.33848593 -0.06500942
0001a0 41 7b 8f 3e be e5 83 be e5 c7 80 3e fa 89 98 be
       0.28023723 -0.25761217 0.25152507 -0.29792768
0001b0 a8 0c 45 bd f2 13 06 3f 79 4d 5c 3e 9f e5 2d 3e
       -0.048107773 0.52374184 0.21513928 0.16982125
0001c0 23 d7 86 be 29 f1 98 bd 70 87 92 3e f6 7a e3 bd
       -0.2633601 -0.07467873 0.28618956 -0.11107437
0001d0 38 86 94 be 77 ce a8 bc 22 1b da be 9e 0c 77 3d
       -0.2900865 -0.020606263 -0.42598826 0.060314767
0001e0 77 f8 d7 3e d1 2e 12 be aa f7 9d be d9 03 e8 bc
       0.4218175 -0.14275672 -0.30853015 -0.028322147
0001f0 81 7c 13 3e ce fd 98 be f6 1d a5 3e 00 a2 1b be
       0.14402963 -0.29881138 0.3224942 -0.15198517
000200 47 69 aa 3e 65 d4 93 3e b8 bf 63 3c c5 2c 1d be
       0.33283445 0.28872982 0.01390069 -0.1534911
000210 1a 5a c0 bc 11 36 c4 bd e1 85 f1 3d 58 19 40 be
       -0.023480464 -0.09580625 0.117931135 -0.18759668
000220 16 e4 84 be 2d bb cc be fd 81 04 3e 96 1c 98 3d
       -0.25955266 -0.39986554 0.12940212 0.07427327
000230 c0 07 52 3e d0 a9 34 be 7c b1 c6 be dd 45 90 3e
       0.20510769 -0.17642903 -0.38807285 0.281783
000240 b5 ae 08 3e 65 fa 94 be c4 e3 84 3c 26 45 60 be
       0.13347895 -0.29097286 0.016221888 -0.21901378
000250 2e 61 43 bc 0d f4 f0 3e 1f c7 80 3d bb f1 6f bd
       -0.011925025 0.47061196 0.06287979 -0.05858014
000260 83 19 fd bd 71 59 5c 3e eb 27 d6 3e 91 22 79 bd
       -0.123583816 0.21518494 0.4182733 -0.06082398
000270 d8 8c 87 be 86 96 a2 be 26 8b fb be 2a 1f 92 3e
       -0.26474643 -0.31755465 -0.491296 0.285394
000280 b2 67 03 bc 61 d2 19 be e7 39 48 3e 0b b8 db 3d
       -0.008020328 -0.1502166 0.19553338 0.10728463
000290 bf 4e cc 3e ea bb 6a 3d 4e 14 1b be 57 7a b5 3e
       0.39903829 0.057308115 -0.15144464 0.354449
0002a0 02 4d ae bd 2b 90 d6 3d d7 ae 2f 3c 22 3e a1 3e
       -0.08510782 0.104767166 0.010722837 0.31492716
0002b0 7f 1f 5b 3e 7e 53 3f 3e 91 85 ef 3e 1c ac 80 3e
       0.21398734 0.18684193 0.4678159 0.2513131
0002c0 29 14 d2 3e 9a ef 0e ba a8 23 8a bd 21 ad a3 3e
       0.41031006 -0.00054525735 -0.06745082 0.31968024
0002d0 81 98 ad 3e 5c bb 4e 3e c4 95 86 bc 41 6f f2 3d
       0.33905414 0.2018866 -0.016428836 0.11837626
0002e0 45 2b b9 3c be 16 d8 3c 05 82 f3 3d 41 ec 71 3d
       0.02260364 0.026378032 0.11890034 0.0590632
0002f0 28 53 1a 3e 0d ae d0 3e 91 12 ad 3e 37 06 87 3c
       0.15070784 0.4075779 0.33803228 0.016482456
000300 81 21 a5 3e 49 36 17 3e 9e 37 99 3e 45 f9 3e 3e
       0.32252124 0.14766802 0.29925245 0.18649776
000310 f6 7e 73 bd 2a d8 23 be 04 4e 7b be ec 90 75 3c
       -0.05944725 -0.16000429 -0.2454148 0.014988165
000320 10 c0 70 bd 70 14 0d 3e fa 0b 88 3e 32 c3 78 3e
       -0.058776915 0.13777328 0.26571637 0.24293211
000330 16 69 78 3e 58 ba b0 bd b9 8e 13 be ba a0 3e 3e
       0.24258837 -0.08629292 -0.14409913 0.18616
000340 6a ee 35 be 01 13 b2 be 53 67 0e be df 94 80 3e
       -0.17766729 -0.34780124 -0.13906603 0.2511358
000350 10 66 a1 3e a8 45 db bd eb 96 cb 3e b8 03 ae 3d
       0.3152318 -0.10706645 0.3976358 0.08496803
000360 24 1c a6 3e 0b 7d 46 3e a8 b6 dd bd e2 4d 64 3d
       0.32443345 0.19383638 -0.108258545 0.055738337
000370 a4 49 89 3d d7 3a bc bd f6 19 df 3e 88 04 5b 3e
       0.06703499 -0.0919091 0.43574494 0.21388447
000380 9e 96 b7 bd b6 2c ae 3e c5 dd a9 be 7a b2 cb 3e
       -0.08964275 0.34018487 -0.3317701 0.39784604
000390 2a 72 5b be b5 2a 8b be 48 6a da bc 91 c2 ce bd
       -0.21430269 -0.2718102 -0.026662007 -0.10095704
0003a0 4d 88 bd 3d 30 5a 7e bd 82 fc 0c be 24 24 98 3e
       0.09254513 -0.06209773 -0.13768199 0.29715073
0003b0 7f 4c 8c 3e 92 f5 3d 3e 5c 4a c5 3e 71 4d 86 3c
       0.27402112 0.18550709 0.38533294 0.016394349
0003c0 43 4a f0 3d a6 5c 96 3e c5 fb 75 be e7 7d 5d be
       0.11732914 0.2936756 -0.24021824 -0.21630059
0003d0 bf ad 07 3e a0 6d 41 be 05 75 37 3e f2 7f 6d be
       0.13249873 -0.18889475 0.17915733 -0.23193339
0003e0 cc 26 09 bd f4 dc a9 3e 8e f0 86 3e 99 73 3d 3e
       -0.033484265 0.33176386 0.26355404 0.18501128
0003f0 2b 19 8e 3c b2 62 3f be 5e 40 4f 3d da 6b 31 bd
       0.017345985 -0.18689993 0.050598495 -0.043315746

fc3.bias f4 [20]
000000 bb 7f 67 be a0 ac f4 bd 4f 26 09 3e 11 9a cf bd
       -0.22607319 -0.11946988 0.1339352 -0.10136808
000010 eb c1 8c bd 61 55 99 bc 75 b6 8b bd 41 9e 5b 3e
       -0.068729244 -0.01871747 -0.0682191 0.21447088
000020 68 3d 8d 3e f6 b3 cd 3e be 38 b5 3e 14 a0 05 be
       0.27585912 0.40176362 0.35394853 -0.13049346
000030 7b 03 67 3e 4f 99 90 be aa 6d 45 be 16 9a 10 3e
       0.22559921 -0.28241965 -0.19280115 0.14121279
000040 e1 58 cd be cc 21 65 be 02 c6 a6 3e d0 e9 5d 3e
       -0.40106872 -0.22376174 0.32572943 0.21671224

fc4.weight f4 [20, 20]
000000 88 85 e6 be e6 24 3c 3e 25 ca b6 be ef f8 bf bd
       -0.4502375 0.1837345 -0.357011 -0.09373652
000010 9c a5 01 be 61 9d e7 3e 8d 22 f8 3e 62 42 8a 3e
       -0.12660831 0.45237258 0.4846386 0.2700377
000020 8b e2 9d 3d 79 4f 09 be 26 21 89 be e5 01 98 be
       0.07709225 -0.13409223 -0.26783103 -0.29688945
000030 20 2b 4f 3e 35 f7 ce bd 74 28 03 3e 43 1b 96 bd
       0.20231295 -0.10105745 0.128084 -0.073294185
000040 ff e3 99 be 1b 2a 0b 3f b4 b7 97 3e df 61 87 3e
       -0.3005676 0.5436112 0.29632342 0.26441857
000050 2e 34 ee bd 29 eb 31 be fb c6 70 3d 3b ee d1 3d
       -0.11631046 -0.17374863 0.058783513 0.10250517
000060 44 7c 53 be 81 1c 61 3c 1d e5 c6 bd 5d 71 40 3e
       -0.20652872 0.013739706 -0.09711669 0.18793245
000070 76 dd 27 be fd b1 e9 3d 0f 15 f4 3d 17 4d d5 3d
       -0.16393074 0.11410902 0.11918079 0.10415094
000080 aa 20 e4 3d d3 7a 36 be 65 b3 69 3d 04 d5 93 bd
       0.11139043 -0.17820291 0.05705585 -0.07218364
000090 77 24 84 bd 6b 2a 0c be 25 83 29 3e 1f e6 53 be
       -0.064522676 -0.13688056 0.16553934 -0.20693253
0000a0 94 3e 11 3e 40 87 2a be 93 fa 9f 3d 8d 3c dd 3d
       0.14184028 -0.16653156 0.07811465 0.10802565
0000b0 c5 98 51 be 64 f7 43 be 1f 22 50 bf 28 5a 0d bd
       -0.20468433 -0.19137341 -0.81302065 -0.034509808
0000c0 62 83 ae 3e 28 53 62 3e 8b 7c 90 3e e2 26 d3 3d
       0.34084612 0.22102034 0.2822002 0.10310151
0000d0 b5 8f 18 3e cb 99 f2 bd a7 aa ae 3d 21 92 10 3d
       0.1489857 -0.1184574 0.08528643 0.03529561
0000e0 16 06 85 be 32 b2 0a bf 1b 38 fc bd 9a 3d 2f 3e
       -0.25981206 -0.54178154 -0.12315389 0.17113343
0000f0 91 f5 4d be 9e a2 33 3e b6 25 2e be 69 c4 ed bd
       -0.20113207 0.17542502 -0.17006573 -0.11609728
000100 02 ef 38 3e ee d1 13 be 40 d7 bd 3d 3b 51 68 be
       0.18059924 -0.1443555 0.09269571 -0.22687237
000110 46 61 19 3d 94 74 88 bd 1a 67 0c be d5 60 16 3e
       0.037446283 -0.066628605 -0.13711205 0.14685376
000120 9a 23 cd bd 21 7a d9 bd cc 78 3f be 39 fe 72 bd
       -0.10016556 -0.10618997 -0.18698424 -0.059324477
000130 3e 05 4f be 14 14 dc 3c 7b f2 d7 bc 21 46 3b be
       -0.20216843 0.026865043 -0.02636074 -0.18288471
000140 ba 56 e4 bd 14 f6 2e 3e 6f 1b 03 3e c9 94 e5 bd
       -0.11149354 0.17086059 0.12803434 -0.11210019
000150 49 d4 2a bc ca 4c 03 3f e6 55 be be 47 f0 26 3f
       -0.010426589 0.51289046 -0.3717491 0.65210384
000160 54 95 75 3e 2e 4f cc 3e 25 4e af 3a 4c 14 91 be
       0.23982745 0.3990416 0.0013374729 -0.28335798
000170 1b cb 26 bb b5 d5 92 bd 9e d0 61 3e 1f 72 ea bc
       -0.002545065 -0.07169668 0.22052237 -0.02861887
000180 62 07 a1 be dd ba b1 3e 79 31 ca 3e 8f 7b d1 3d
       -0.31450945 0.34712878 0.3949087 0.10228645
000190 b0 06 2b be f9 e1 4d 3e 7c 3d a9 bc 49 a5 5c be
       -0.1670177 0.20105733 -0.0206592 -0.21547426
0001a0 f1 55 e2 bd 2f 02 c0 3d f7 87 fb bc c6 1f 92 bd
       -0.11051548 0.093754165 -0.030704482 -0.071349666
0001b0 f2 fb ae bd 79 84 29 bd 9b aa 65 3d ce 25 5c 3e
       -0.085441485 -0.0413861 0.056070905 0.21498796
0001c0 f9 e1 86 3c 95 ab 4d bd c7 c0 3f 3e 5b a1 f1 3d
       0.016465174 -0.05021246 0.18725882 0.11798354
0001d0 80 fe 34 be 0d 52 19 3e b8 e4 81 bd 15 8c 59 be
       -0.17675209 0.14972706 -0.06342453 -0.21244843
0001e0 ac 2d f3 bd 85 bb db 3d 61 58 68 bd 6b 15 27 3e
       -0.118739456 0.10729126 -0.05672491 0.16316764
0001f0 88 9a 18 be 8b b0 45 3f 9f 52 36 3f e0 c9 15 3f
       -0.14902699 0.7722251 0.7121982 0.5851116
000200 62 7d 28 3e 3c f3 c0 3e 35 c6 47 3e 58 ed 8a be
       0.1645408 0.37685573 0.19509204 -0.27134204
000210 88 c1 85 3e 0a de 84 3c 7a 47 5e be 68 d6 5f be
       0.26124215 0.016219158 -0.21706954 -0.21859133
000220 0a 24 b2 3c 45 a6 08 3f ea 5f 29 3e 0d 3e af 3e
       0.0217457 0.5337871 0.16540495 0.34227028
000230 af 10 23 3e 4b ac 42 3e 6d 0a bb 3e 4f df 0b 3e
       0.15924333 0.19011037 0.36531392 0.13659404
000240 e3 2e 01 bc 1b 8a ec be f0 94 1a bf f2 57 a5 be
       -0.007884714 -0.46199116 -0.6038351 -0.3229366
000250 b2 2d ae 3d be d4 fa 3d 24 e6 51 3e fd fb 02 bd
       0.085048094 0.122476086 0.20497948 -0.031978596
000260 8a 7c 6d be f1 78 dc 3c 4b 48 09 3e da d4 58 be
       -0.23192039 0.026913138 0.13406484 -0.21174946
000270 1d 0d 8d 3d 6d 93 be be 7b 91 ba bd 46 8c 08 be
       0.06887267 -0.37221852 -0.091097794 -0.1333476
000280 89 ea 89 3d 23 a2 c3 bd 2c 24 c4 3c 2f 83 24 3d
       0.06734187 -0.095524095 0.02394303 0.04016417
000290 a5 26 0c be bf 4f dd be 46 f6 26 bf 05 c0 6b be
       -0.13686617 -0.43224904 -0.65219533 -0.23022468
0002a0 65 57 83 3e c9 e4 35 3e bc 13 9c 3e d0 26 99 3e
       0.25652614 0.17763056 0.30483806 0.29912424
0002b0 38 48 42 bc de e0 e7 3d 2b 88 c1 bd b2 5b 8e b9
       -0.011858039 0.11322187 -0.094498 -0.0002715267
0002c0 ab 2d 5e 3d 47 34 c2 be 25 dd 9c bd d1 05 a8 be
       0.05424277 -0.3793051 -0.076593675 -0.32816938
0002d0 27 90 d2 bd ad 44 53 3e c6 f1 12 be ad e9 19 3e
       -0.10281401 0.20631666 -0.14350042 0.15030546
0002e0 aa 3c 51 be 24 cf 23 3f 2e 7e b7 3e c3 fa 1e 3f
       -0.20433298 0.63987947 0.35838455 0.6210138
0002f0 eb f8 d0 bd e2 d1 7c 3e eb 7f fb 3d 5c 7e 5a be
       -0.10203727 0.24689439 0.12280258 -0.21337265
000300 88 f9 64 3d 35 81 4a be 3f a9 00 3e 39 82 4f be
       0.055902034 -0.19775851 0.12564562 -0.2026452
000310 bb a4 17 be 25 25 1d 3e 3b c8 64 3e a7 18 67 3e
       -0.14808933 0.15346201 0.22342007 0.22567998
000320 ca 3a 36 3d af 83 5a 3d 78 7d 99 be 0a ce 05 be
       0.04448966 0.05334824 -0.29978538 -0.13066879
000330 b8 03 df bd 42 b1 2b 3f cd 9d 0b 3f 76 ae d6 3e
       -0.10889381 0.6706735 0.5453766 0.41929978
000340 6e b5 2a 3d a8 36 6d 3d c5 d5 7f be 63 65 cb be
       0.04167693 0.057913452 -0.2498389 -0.3972579
000350 3b f8 59 3e cd 97 c5 bd 97 df 6b 3d 69 77 0d 3e
       0.21286099 -0.09648094 0.05758628 0.13815083
000360 25 0c b9 be 6d 32 04 3f aa ec c2 bc ce 39 73 3e
       -0.36142078 0.51639444 -0.02379449 0.2375252
000370 25 07 d3 3d 92 29 e2 bd 43 62 5a 3e f4 d5 2a be
       0.10304097 -0.11043085 0.21326546 -0.16683179
000380 a3 fb da bd 79 33 2c be 6b 00 36 be 0e e2 8e be
       -0.10692527 -0.1681651 -0.17773597 -0.2790684
000390 6a 4d 7a 3e 18 31 f7 3d 64 c2 f2 bd 87 ea 48 3e
       0.24443594 0.12069911 -0.11853483 0.19620715
0003a0 1f 75 aa be 71 20 30 3e e0 61 51 3d 08 2b 5e be
       -0.3329248 0.17199875 0.05111873 -0.21696103
0003b0 49 03 11 bb f1 ec dd bd a4 8d 70 bd 05 93 62 be
       -0.0022127202 -0.108362086 -0.05872883 -0.22126396
0003c0 21 8d 28 bf b2 fb 59 3e 03 48 37 be 5f f8 e2 3c
       -0.65840346 0.2128742 -0.17898564 0.027706323
0003d0 7f ec ab bd 77 f2 ec 3d 97 82 4c 3f 96 26 8a be
       -0.083947174 0.11569684 0.79886764 -0.26982564
0003e0 37 58 0f bd 1e e1 0c bd 1c 89 85 bb 9b 0b 6b 3e
       -0.034996238 -0.034394376 -0.0040751826 0.22953646
0003f0 92 dd 88 3e f3 66 06 3e 0c f2 70 bc 55 14 b9 bd
       0.26731545 0.1312521 -0.014706146 -0.09037081

fc4.bias f4 [20]
000000 98 84 02 3e 25 c8 63 be 0c 02 e3 3e a6 fd b5 3c
       0.12745893 -0.22244318 0.443375 0.022215676
000010 01 7e 96 3e fe 8a 76 bc 89 f9 34 3e 3d 23 52 3d
       0.29393008 -0.015047787 0.17673315 0.051303137
000020 92 67 b8 3a b7 84 59 3d 0b f8 1e be 4f d1 9f be
       0.0014068952 0.053105082 -0.15524308 -0.31214377
000030 80 85 78 3e 2e 91 22 be d1 10 4e be a4 cf 29 be
       0.24269676 -0.15875694 -0.20123602 -0.16583115
000040 6a b1 ff bd d3 ff 8a 3e a8 26 46 be 3c 03 71 bd
       -0.12485011 0.27148303 -0.19350684 -0.058840975

fc5.weight f4 [20, 20]
000000 5b 75 be 3e d5 b1 48 3d 9f 11 68 3e ad dc 5b be
       0.3719891 0.04899772 0.22662972 -0.214709
000010 96 35 c1 3e a2 a7 cf ba 97 30 e9 3d 2e 7e 55 be
       0.37736195 -0.0015842805 0.11386221 -0.20848915
000020 8b a2 5b be f1 24 cb 3e 90 f6 be 3e 84 2d 83 be
       -0.21448724 0.39676622 0.37297487 -0.25620663
000030 8f a9 38 be 8a 1e 35 3e 2b a0 87 be 53 94 d0 3d
       -0.18033431 0.17687431 -0.26489386 0.101845406
000040 10 db db 3e de 4b dd 3e 6e 0f 93 bc 35 1e f1 b9
       0.4294057 0.43221945 -0.017951693 -0.00045989608
000050 6a 7e 2b be 4b e7 f6 3b 3d 20 fa 3d 2c 2a 6d 3d
       -0.16747442 0.0075348965 0.1221318 0.057901546
000060 24 5c d2 bd 4c a0 0e be ab cd 78 3e ff db 29 3e
       -0.10271481 -0.13928336 0.24297206 0.16587828
000070 46 b2 99 3e c4 af 75 bd d9 97 33 bf 14 84 13 3f
       0.30018824 -0.059982076 -0.70153576 0.5762341
000080 0f 33 ab be 94 8b 0d be b3 0b 1d 3e c7 e2 3f be
       -0.33437392 -0.13822776 0.15336494 -0.18738852
000090 99 f3 22 be bd 31 91 3d a4 8f 86 3e f8 41 18 3e
       -0.15913238 0.07089565 0.26281464 0.14868915
0000a0 88 67 91 3e ed ff f3 bd a2 87 f9 3d 83 5f ee bd
       0.283993 -0.11914048 0.12184073 -0.11639311
0000b0 94 aa 7a 3e 97 1a 0a 3e e7 e0 1d bd ef ab 43 be
       0.24479133 0.13486706 -0.03854456 -0.19108556
0000c0 81 e0 0f bd d4 e2 9d 3d 19 ed 2e 3f 2f a1 da bd
       -0.035126213 0.0770928 0.6833053 -0.106752746
0000d0 f2 c1 0f 3f 1e 04 4f be cb fe 08 be ed ba 09 be
       0.5615531 -0.20216414 -0.13378446 -0.13450213
0000e0 e2 16 b9 3e 77 4b a9 3e 3d 54 2e be 1f ee ca 3b
       0.3615027 0.33065388 -0.17024322 0.006192937
0000f0 90 6f f9 3e ab db 59 be fc ac fe 3d e7 28 e3 bd
       0.48717928 -0.21275203 0.12435338 -0.11091786
000100 5a 45 b4 3e 35 96 38 3e 6e f0 ac 3e 76 16 97 be
       0.3520916 0.1802605 0.33777183 -0.29509324
000110 3a 23 db bd 92 69 8e 3e e9 10 4a 3f d8 af 8b be
       -0.10700078 0.2781492 0.7893205 -0.27282596
000120 77 6d 48 3d 0a 8b 4d 3d b8 3b 9c bc 66 63 58 3e
       0.04893252 0.050181426 -0.019071445 0.21131667
000130 5f b1 5d 3e 27 34 88 3e 52 e9 cc be 6c c3 7f 3c
       0.21649693 0.2660229 -0.4002176 0.015610557
000140 ce 8f a5 be 2c 60 0d 3e 9c b6 6f 3d cf 17 02 3e
       -0.32336277 0.13806218 0.05852376 0.12704395
000150 df ba 4c 3e cb b3 44 3e e6 3a 30 3e f5 62 53 3d
       0.1999316 0.1920921 0.17209968 0.051608045
000160 6b 8b 63 3e 5f 43 31 3e 2e 6b 4f bf f7 90 d9 3a
       0.22221152 0.17310856 -0.8102292 0.0016598989
000170 fa 16 06 bf 61 37 b4 bd bc 57 21 3e d2 09 63 be
       -0.5237881 -0.08799625 0.15756124 -0.22171715
000180 de dd 07 be e7 51 dd bc fb c2 1f 3c 22 d1 b9 3d
       -0.1326823 -0.027016593 0.009751077 0.09073092
000190 16 e7 36 be db 7d 17 be 54 a2 a4 3e 7a 93 81 3d
       -0.1786159 -0.14794104 0.32155097 0.06326957
0001a0 e9 20 72 3e 98 15 9f 3d 09 f2 94 3d 7c 63 da 3e
       0.23645367 0.077677906 0.07272727 0.42654026
0001b0 aa 5d 92 3e 08 b4 1e 3d 73 c4 31 bf 13 72 9a 3d
       0.28587085 0.03874591 -0.6944038 0.07541289
0001c0 83 7c 85 be a2 3e da bd 18 6a 4f 3e 74 d3 26 be
       -0.26071557 -0.106564775 0.20255315 -0.162916
0001d0 7f 83 43 be 30 f8 93 be 02 de ee ba 6c 0d 68 3d
       -0.1909313 -0.2890029 -0.0018224122 0.056653425
0001e0 3c 82 21 3d 3c 29 25 be 8c 9c 96 bd 1f 10 12 3e
       0.03943084 -0.16129011 -0.07354078 0.14263962
0001f0 c2 ab a2 3d d6 79 08 be 3a b3 3d 3c 4b 39 29 be
       0.079429165 -0.13327727 0.0115783755 -0.16525762
000200 e6 02 31 bd 5a a3 66 3e da 6a 09 3e 4f 50 02 bd
       -0.043215655 0.22523251 0.13419667 -0.03181487
000210 48 05 7f 3e af 23 84 3d 4b 56 31 bc b9 c9 34 3e
       0.24904358 0.064521186 -0.0108237965 0.17655076
000220 50 b5 80 b9 9b fe f8 bd 28 36 cc bd 07 04 47 3d
       -0.0002454915 -0.12157937 -0.09971267 0.048587825
000230 74 1e fd 3c e8 ac 83 bd 39 95 01 be 2b 7a 54 3d
       0.03089831 -0.064294636 -0.1265458 0.05187432
000240 c2 76 11 be 9a ce 1b 3e 42 0b 48 be bb c7 43 3d
       -0.14205459 0.15215531 -0.19535545 0.0477979
000250 5b 8d a5 bd 52 29 7a 3c f0 be e8 bb ba b4 36 bc
       -0.08083602 0.015268641 -0.0071028396 -0.011151487
000260 dd 14 32 3e 40 67 56 3d f6 5c c4 3d 8b 91 50 be
       0.17390771 0.05234456 0.095880434 -0.2036802
000270 6d 0b e2 3b 31 ac 6c 3d 34 f2 bc bd 98 46 03 3e
       0.0068983347 0.057781402 -0.09225884 0.12819898
000280 7f c5 ab be 60 00 56 bb 88 40 99 3e c3 00 3c 3e
       -0.33549115 -0.0032654032 0.29932046 0.18359666
000290 15 98 86 3e 57 6c 50 be 6a 14 25 bd 1f 9d aa bd
       0.26287904 -0.20353828 -0.04030267 -0.0833075
0002a0 b6 e8 d0 bd 43 a6 8b 3e 13 d8 4b bf db 4c 9d be
       -0.10200636 0.27275285 -0.7962658 -0.307227
0002b0 d2 66 23 bf c6 28 2c be f8 fd e6 bd d6 6e 1a be
       -0.63828766 -0.16812429 -0.112789094 -0.15081343
0002c0 fa 55 68 3e 82 74 77 3e a8 4b 7f be f7 6a 72 3d
       0.22689047 0.24165538 -0.24931204 0.05918404
0002d0 42 9c fb bc 53 8a 2a 3e ac 28 a0 3d b3 ed 4b be
       -0.030714158 0.16654329 0.078202575 -0.19914894
0002e0 27 3c fd 3d cd e7 5f bb 9a 97 c2 3d 18 f4 96 bd
       0.12364989 -0.0034165264 0.09501572 -0.07370776
0002f0 e4 13 d7 3b 8d 51 78 3e 3c ba 5a bf 53 49 03 be
       0.0065636504 0.24249859 -0.8544042 -0.1282094
000300 82 ba db be cb 3c ed bd 24 e0 78 be 62 1b 55 be
       -0.42915732 -0.11583861 -0.24304253 -0.20811227
000310 53 86 b7 3d f7 2a d2 3e 8a 64 fd bc f5 ee 85 3d
       0.08961167 0.41048405 -0.03093173 0.06539718
000320 ad 93 7b be 0b 15 36 be 8d 85 19 3e 9e b3 33 be
       -0.24568053 -0.17781465 0.14992352 -0.17548987
000330 57 a4 d4 3d 65 08 66 be 46 f5 f3 bc 83 bc 99 3e
       0.10382908 -0.2246414 -0.029780041 0.30026636
000340 31 e1 b7 3e 53 42 4c be 50 36 16 be 58 c6 9d 3e
       0.35913995 -0.19947176 -0.14669156 0.30815387
000350 58 7d 9b 3e 86 86 d4 3d 9d b8 bb 3e 78 68 12 bd
       0.30369067 0.10377221 0.36664286 -0.03574416
000360 e2 ac 50 be 08 2a 91 be 03 b7 a9 3e f0 9b c7 3d
       -0.2037845 -0.2835238 0.3314744 0.097465396
000370 57 f1 4c be 4b 80 c7 bc ce 52 3b 3d 45 ec cc 3c
       -0.20013939 -0.024353167 0.045733266 0.025015006
000380 05 f0 81 3e 50 cb 37 bd 97 39 9b 3e fb c2 7d 3a
       0.25378433 -0.04487163 0.30317375 0.00096802384
000390 da ed b9 3d fc 8f d4 3e 50 6d 13 bf b9 19 c0 be
       0.0907857 0.415161 -0.5758867 -0.37519625
0003a0 39 2d fe be 8f b5 35 3e b5 d1 b7 be 67 8b 61 be
       -0.49643877 0.1774504 -0.3590218 -0.22025834
0003b0 3e c6 d3 3d 03 07 66 3e d5 94 eb bd 0c 94 9c bd
       0.10340546 0.22463612 -0.11502997 -0.07645425
0003c0 2e a7 3a 3e 3d 84 81 3d c4 14 dd be f1 dc e1 bd
       0.18227836 0.063240506 -0.43179905 -0.11028469
0003d0 46 ca 10 bd 26 69 5d 3e b3 3e 6c 3e fc 39 9f be
       -0.035349153 0.21622142 0.23070793 -0.31098926
0003e0 fc 08 51 be 3a d4 90 3e a9 07 31 3f 17 ba 5a be
       -0.20413584 0.28286916 0.69152313 -0.2136005
0003f0 5d e6 7f 3e 63 19 1d 3d c5 b0 52 be 47 80 36 be
       0.2499022 0.03835429 -0.20575245 -0.17822371

fc5.bias f4 [20]
000000 dd a9 91 3e 93 43 48 3e f5 43 19 be d8 81 08 3e
       0.28449908 0.19557028 -0.1496733 0.13330781
000010 d0 7b 47 3e fd b0 31 3e e2 2a 82 be de 94 24 be
       0.19480824 0.17352672 -0.25423342 -0.16072413
000020 f5 06 8c 3e e8 94 b9 3e 8e 7e 9b 3c 54 cc 86 3e
       0.27349058 0.3624642 0.018981244 0.26327765
000030 1e 9e c0 bd e2 27 9d 3d 40 d2 7c 3e 28 7e 35 3e
       -0.094051585 0.07673623 0.24689579 0.17723906
000040 bd 2e bb 3d a5 72 0d 3c 9e 79 8d 3e be 88 21 be
       0.09139774 0.00863329 0.2763185 -0.15774819

fc6.weight f4 [3, 20]
000000 69 0f ba 3e 92 a8 6a be 41 30 dc 3e 49 ce 2a 3e
       0.36339882 -0.22915867 0.43005565 0.16680254
000010 c4 8b c1 be d2 b6 71 be 10 29 c5 3d 78 bf 1b bd
       -0.37801945 -0.23604897 0.09626973 -0.038024396
000020 2c 4e 4b be bb 05 29 3c b5 45 52 be ed 6d 4b 3e
       -0.19854039 0.010316308 -0.20534404 0.19866152
000030 b2 cf 31 3f 66 86 c6 be ec fb f9 3d 73 4a 1e 3d
       0.6945754 -0.38774413 0.122062534 0.03864522
000040 57 40 a9 3e 0d fc a9 3e 99 2f c5 bd 7a 6d 8d 3e
       0.330569 0.33200112 -0.09628219 0.27622586
000050 c2 56 cd 3e 16 68 5a 3e 18 8e 66 be 5b 54 02 3d
       0.40105253 0.21328768 -0.22515142 0.03181873
000060 8d ae f4 3d b5 9d 4e 3e 66 ba 21 be 4e fc 10 be
       0.119473554 0.20177348 -0.15793762 -0.14158747
000070 6d f0 57 3f 4b 18 0a 3f 05 fa 6f be 39 c7 29 3f
       0.84351236 0.5394332 -0.23435219 0.66319615
000080 59 2a 0a bf 47 ab 7b bd cd b2 aa 3e bc 60 c6 3d
       -0.5397087 -0.06144264 0.3333954 0.09686419
000090 1f cb 33 3e 4f d7 a4 3e 95 a8 75 3e 90 42 97 be
       0.17557953 0.32195517 0.2399009 -0.2954297
0000a0 bc 64 af be b4 1e 83 3e 5b d1 51 3e e3 fc ea be
       -0.34256542 0.25609362 0.20490019 -0.45896062
0000b0 87 ef 62 bb 50 a9 5b 3e 30 63 01 3e 8f d3 58 be
       -0.0034627633 0.21451306 0.12635493 -0.21174453
0000c0 04 05 08 bf 35 13 cd be 54 f2 ac 3e 50 36 e1 be
       -0.53132653 -0.40053716 0.33778632 -0.4398675
0000d0 b3 e1 8e bd 54 5b 60 3e f7 86 0a bf 84 93 10 bf
       -0.069766425 0.21909839 -0.5411219 -0.5647509
0000e0 f2 84 0e bf c4 c7 cb be dd cf 87 3e e0 b9 27 3d
       -0.5567161 -0.39800847 0.26525775 0.04094875

fc6.bias f4 [3]
000000 9c 4e cc 3d f6 28 f8 3d dc 2d a1 be
       0.09975931 0.12117188 -0.314803
