models_3val/and_or_9.pth (torch, 12162 bytes, 12 tensors)

fc1.weight f4 [20, 12]
00000000: 6acb 843b f8d3 b43b f271 f73c fcaf d43c
00000010: 1aa9 0cbe 92b0 91bd aac8 a6be 655d 15be
00000020: 7e29 013f eaae c63b 8206 8c3b 8150 bd3b
00000030: e2ae ba3e 5714 82bd 9db3 2ebc 1112 3a3d
00000040: 09fb ecbd dd9a 873e a228 8bba 8827 5c3e
00000050: 9de0 1abe 5a33 f43c 6cc0 dd3d 26e2 903e
00000060: 2730 503b ad4f 423b f038 f3bb bef1 0bbc
00000070: 5899 723e 3be4 ce3e e0b3 20bf f6e7 3cbe
00000080: b44a 91bd af92 e93a 89f7 003b 54c8 183b
00000090: 74bd 883c 5dd2 b93c bc9d aabe 4de0 713e
000000a0: c558 16be c93a 473f 9f2c ed3e 1295 123d
000000b0: 315a af3e f914 073e 1a35 913e 7355 3dbe
000000c0: 122a 59bd 2f8d 163e a167 a53e ac23 903e
000000d0: 8d10 a53e 4bfb ec3d 7c2e a73e b3d2 063d
000000e0: c875 1c3e 24c2 ec3d f93b c7bd 12eb 83bd
000000f0: 7d13 db3c 2f3b 9f3e d839 8f3d 1d70 fc3c
00000100: a4ad 87bd 521c 6e3c 8a44 20be 313f 3b3e
00000110: fd90 d43e dbf6 a33d 375d 24bd dd51 7f3e
00000120: 3dea 863e f949 883e 56e7 ac3c e88a edbd
00000130: d279 9b3d f514 b43e 4075 90bb ff52 2f3e
00000140: b244 f53d d66d 35be fb47 a3bc 1230 3d3d
00000150: 0866 2d3e c9fe b93e 89cf aabd 33ca 6bbc
00000160: 93f9 853e bfbf 233e 883c 5ebd a9bf 1fbe
00000170: 52c9 7dbe e210 85bd f90b d23e 52e5 0a3e
00000180: 3f5a b43c b2e2 e43c 2b65 e83d c218 3d3d
00000190: 52b3 b53d 5167 583c 6c23 a63e 3c30 0ebe
000001a0: 5414 f23e 039c 04be 112c 6f3e 40fe 993d
000001b0: 4bf6 953e 18dd febd 4cb5 9c3d 26af 203e
000001c0: 6998 1c3d f31b d73e 4c42 31bd 2c64 85bd
000001d0: 0180 bd3e b119 2c3d 2232 71bb 4f76 443d
000001e0: 5907 8bbd b7ce 173e a53d 683d b7c7 aabd
000001f0: afc9 a7bd df0d c63e c911 dc3e e7f8 a43e
00000200: 6b1d da3d 31ae c73d c003 cabd a86b b23e
00000210: 0caf 0bbe 85c3 0abe b851 7e3e 0391 a83c
00000220: e55c a23e 1b7f 06bd d544 3a3e 17fe bb3e
00000230: 075b 573e 5d72 823e 5ed5 b8bd 8062 0c3e
00000240: c66b cb3d 48f6 3d3d b9ce 27be 6b88 b8bd
00000250: 894a f83d 48b0 7ebd a23e b03e 2deb a0bd
00000260: caa7 b13e f8a2 efbc 7419 213d b3ea 6c3c
00000270: 37a1 a93c 9c93 953c 45e3 ba3c 85ff 0c3d
00000280: f678 653d ad50 913e fd23 8a3e b29f 2ebf
00000290: b5a5 1c3d dc82 1d3c 76b3 723c 2faf 863c
000002a0: a625 5eba d391 b93e b145 a23d ef1d 863e
000002b0: ee79 543e 32b6 263e 08f3 81bc e83e 3a3d
000002c0: 2a3f b5bd f787 903e 7748 7f3e b523 a63e
000002d0: b49a ae3b 9091 4ebc c552 f9bb befb d8bc
000002e0: a9c3 1dbc cb93 febc aab4 62bd ebe9 d6be
000002f0: c2ef 1a3f 2cdb f83b e78b 983c 1456 263c
00000300: ac1d 5e3e abaa 9d3e 6099 02be 05b1 903e
00000310: 55ed 633e 14d3 433e 852f 973e 5808 2cbe
00000320: 0ab6 293e 5d94 34bd 4289 a33e 8343 bd3e
00000330: 122c 8c3e e8ca 0bbe 59dc 8e3e 0613 243e
00000340: 7dbb dfbd 2f52 753e 2521 e03e 3e43 b63e
00000350: 47ba cc3c 7393 3abd 2bf2 383e 62bd 47bd
00000360: f845 99bb 3fd2 4d3e 6b64 d6bb 4ba0 1b3d
00000370: c155 493e b1e0 b53e 94b9 973e d8e7 a03e
00000380: 2b69 973e 2d46 073d f36c a3bd ab29 e53d
00000390: aab0 703e bd5c 723e fbdb ba3c d00e 003e
000003a0: afae 9b3e 6506 a7bd 2761 cd3e 3f8e 67bd
000003b0: 5c73 663e 43e0 8e3e a4c7 dd3d 0061 833e
0.004052569 0.0055184327 0.0302057 0.025962822 -0.13736382 -0.07113756 -0.3257497 -0.14586408
0.5045394 0.006063332 0.0042732367 0.005777419 0.3646155 -0.06351536 -0.01066294 0.045427386
-0.11571319 0.2648534 -0.0010616968 0.21499455 -0.15124746 0.029809643 0.10827717 0.28297538
0.0031766982 0.0029649541 -0.007422559 -0.008541523 0.23691308 0.404085 -0.6277447 -0.18447861
-0.070943266 0.0017820204 0.0019678792 0.0023312764 0.0166919 0.022683317 -0.33323467 0.2362072
-0.146823 0.77824074 0.46323106 0.035786696 0.34248498 0.13191594 0.28360826 -0.18489628
-0.053018637 0.14702295 0.32305625 0.28152215 0.3223919 0.11571368 0.32652652 0.032915782
0.15279305 0.11560467 -0.09728236 -0.064413205 0.026742691 0.3109984 0.06993455 0.030815179
-0.06624916 0.014533119 -0.15651146 0.18285824 0.41516867 0.08006068 -0.04012796 0.24933572
0.26350585 0.26618937 0.021106403 -0.1159876 0.07591595 0.3517224 -0.0044085085 0.17121504
0.11975993 -0.1771768 -0.019931784 0.04618842 0.16933453 0.36327198 -0.083403654 -0.01439147
0.26166973 0.15991114 -0.054256946 -0.15600456 -0.24783829 -0.06497361 0.4102476 0.13564041
0.022015689 0.027940128 0.11347421 0.04616619 0.08872093 0.013208226 0.324489 -0.13885587
0.47281134 -0.12950139 0.23356654 0.075191975 0.2928947 -0.12444514 0.07651767 0.15691814
0.038231287 0.4201351 -0.043276116 -0.06513247 0.37011722 0.04201669 -0.0036803563 0.04796439
-0.06788511 0.14824949 0.056699414 -0.08338874 -0.08192765 0.38682458 0.4298232 0.32221147
0.10650142 0.09750021 -0.098639965 0.3484776 -0.13640994 -0.13551147 0.2483586 0.02057696
0.31711498 -0.03283606 0.1819032 0.36717293 0.21030818 0.25477877 -0.090250716 0.1370945
0.099326655 0.04637745 -0.16387452 -0.09010395 0.121235915 -0.062179834 0.34422785 -0.07857356
0.34698325 -0.029252514 0.039330915 0.0144602535 0.020706756 0.018258862 0.022813449 0.03442337
0.05602356 0.28381863 0.26980582 -0.68212426 0.038243968 0.009613719 0.014813295 0.016440956
-0.0008474238 0.36244068 0.07923449 0.26194713 0.20749637 0.1628044 -0.015862957 0.04547015
-0.08849938 0.28228733 0.24929987 0.32449117 0.0053285006 -0.012607947 -0.007608744 -0.026487228
-0.009629169 -0.031076333 -0.055348076 -0.4197534 0.6052209 0.0075944867 0.018621398 0.010152359
0.21691006 0.30794272 -0.1275382 0.28260055 0.22258504 0.19123489 0.29528442 -0.16800058
0.16573349 -0.044086803 0.31940657 0.3696557 0.27377373 -0.13651621 0.27902487 0.16022882
-0.109244324 0.23957132 0.43775287 0.35598177 0.024991168 -0.045550775 0.1806113 -0.048764594
-0.0046775304 0.20099734 -0.0065427325 0.037994664 0.19661619 0.35522988 0.29633772 0.31426883
0.29572424 0.03302591 -0.07979765 0.11189588 0.23504892 0.2366819 0.022809973 0.1250565
0.3040671 -0.081555165 0.40113184 -0.05653214 0.22504944 0.27905473 0.10829094 0.25659943

fc1.bias f4 [20]
00000000: d9d5 4c3e b77a da3e fcfd 27bd 8415 ed3e
00000010: 2e74 aa3d b084 063f aa7b 253e eaf9 003f
00000020: 49fa d13d 4cfc d73e 2e02 5abd 7734 e83e
00000030: 5996 4e3e 3ca8 3f3e c11e d63d e850 66bd
00000040: ee02 0fbe b390 aabe d0b4 c9be 4f19 8bbc
0.20003451 0.4267175 -0.041013703 0.46305478 0.08322941 0.52546215 0.16160455 0.5038134
0.10252816 0.42184675 -0.053224735 0.45352527 0.2017454 0.1871652 0.104550846 -0.056229502
-0.13965961 -0.33313522 -0.3939576 -0.016979842

fc2.weight f4 [20, 20]
00000000: 67ea 093f de34 c1bd 79f0 8c3e 94d9 1cbd
00000010: 1a7b 4f3e de49 5b3d 2a3d 39be acfc 10be
00000020: d0f5 1c3e aa4e d23d 4bc4 c5bd c840 883d
00000030: 5eed d83e 3fff 96be 3b0d 1bbc 1d37 0e3f
00000040: 4a56 3b3e ca52 b03e 4f15 5d3d b7b2 8f3e
00000050: c4cf b3be 9783 773e f2ca 2fbe cafd 143d
00000060: ff71 7ebd 7985 993e 301e 403e 0ffa 853d
00000070: d958 8a3d 0c33 afbc b600 4fbe 189e 573e
00000080: ebf5 61be e531 fb3e 454e 583e 1627 13bf
00000090: bd60 28bb 41e5 a8bd fb97 86be feed a83d
000000a0: dbb0 863e a510 48be 44e2 a83e 03ff 7e3d
000000b0: 607b a03e 61eb 6e3d ebcc 063d c8b1 27be
000000c0: d45c b43d c958 113e 7f5c 933e 12ad debc
000000d0: dcf4 1c3e 757e 24bf ccbe 0a3e b2de 683e
000000e0: 4520 48bc 9add af3e 53eb b5bd 5ece ed3d
000000f0: 6148 2bbf 135b 7d3e 7706 33bf d0fd a3be
00000100: e032 863e e530 b9bd 4adc 06be 945c a63e
00000110: 1e41 c0bd ce08 323d 3574 6abe dc45 af3d
00000120: 0615 25be 1769 103f 0afc 523e a6e2 11bf
00000130: 7448 50bc 880e 83be f7f7 b9be 751c 943d
00000140: 4166 e93c d4f0 e63d 74ec 99bd 4997 be3e
00000150: cfa6 a2bd 62d7 aa3e 36e3 7d3c fa4e 58bd
00000160: 7c1c 643e 4149 903e 2f3a ff3d 022c c93e
00000170: f6fe 6bbc eb40 0c3f 3a77 943e 7a0b 05bf
00000180: da5f 9fbd be40 00be fd7c ccbd 9c1d 00be
00000190: 72f2 b2bc fb2d ff3c ff9a 3a3e 1ae9 2dbd
000001a0: 2259 c33d 75db 13be d3f0 093e 2ac7 0ebe
000001b0: 2945 3abe bfdd 16be 24f4 f8bc 9750 74be
000001c0: b334 963d 7b68 29be 421c 763d a067 44bd
000001d0: a442 203e 4fe2 40bd 0e6a d53d ba3f 5bbd
000001e0: 85fd ef3e 9768 823d 0285 e7bd 98f6 0a3e
000001f0: a378 123e 63f1 493e 98c3 aebd f172 30bd
00000200: 20a3 573e 455f 0bbd 434d f43d fdd7 b33e
00000210: 1f5a 193f 7271 9ebe bcb4 e63d e843 093f
00000220: b77a 5a3e 012b 253e 11e8 b53d 183d a63e
00000230: 1310 123f d245 753d 4c39 383e eb59 593d
00000240: a1de c43e 1a2e 673e d86a b13d 0f4b 66be
00000250: 1fdd d23e 06fd 993e f093 8a3e 8408 4c3e
00000260: f0e4 843e 6689 f9be 925a b9bc 464d d73e
00000270: e0b3 953e f65d f63d 3d82 9fbd 34fa b33d
00000280: 44ea 023f 8c8c 34be 79f8 8dbe c9c0 3d3d
00000290: 7ffa 00bd 3e54 263c a437 943d 163e 2ebe
000002a0: 9651 8b3e 4f77 463e 12aa e13c 3a6f 18be
000002b0: a488 f23d fd23 413e 1ae0 b5bd dd2b be3e
000002c0: 5ae1 4fbd 08b4 8dbe 4307 a13d 40d3 473e
000002d0: 3f42 3f3c 3e61 54be d5db 07bd f363 d5bc
000002e0: 8e74 c93d 8eed 203e 1bba 283e cd2e 3dbe
000002f0: fd5a 503d b242 5fbe 1cdb 62be 9749 efbd
00000300: b3a8 9abc aa8d 413d 7f90 3fbe e9ef 7cbb
00000310: 5c58 fa3d 77af eabc acdc 75be fb8f edb9
00000320: 3761 a93e b2a1 d23e 9051 133f 1c28 6d3e
00000330: 46a9 aa3d 31ca f6bd 01d9 6f3e 8030 c13e
00000340: 1ce3 e8be 6620 adbe f338 943e 2d4e ee3d
00000350: f792 89be dcea 04bf 1340 8f3e ca9a 123f
00000360: a8f2 84bc 347a cabc 2b0d 1bbe 6679 88bd
00000370: d8e2 6dbd f306 923b 40f6 9ebe 9daa 1f3e
00000380: 108f 16be 312c 443e 0563 963d 4891 533e
00000390: 811b 59bd 99f6 733d 27af 7dbe 1938 283e
000003a0: 3aba 6ebd 372e 2a3f 1212 713d 47fc 02bf
000003b0: 8823 e7bd 0315 3fbe 469a 02be b7e7 7b3d
000003c0: 4dd5 22be 4675 ae3c 1bef 553d d56b 0c3e
000003d0: 56db 9d3d b8d4 a33e 115d 6b3e 4b96 603e
000003e0: 5078 85bd 3d31 a13e 59f1 c3bd b7ab 383e
000003f0: 83b4 1e3a 6a67 903e 4bcf 40be 6453 1cbf
0.53873295 -0.09433912 0.27527216 -0.038293436 0.20261803 0.053537242 -0.18089738 -0.14158887
0.15328145 0.1026891 -0.096565805 0.06652981 0.42368597 -0.29491612 -0.009463604 0.55552846
0.18294635 0.34438163 0.0539754 0.28066036 -0.3511945 0.24171291 -0.17167261 0.036374845
-0.062120434 0.29984644 0.18761516 0.065418355 0.067552276 -0.021386646 -0.20215115 0.21056402
-0.22066467 0.49061504 0.21123607 -0.57481515 -0.0025692426 -0.08246852 -0.26287827 0.082485184
0.26306805 -0.195376 0.32985127 0.062254917 0.31344128 0.058329944 0.03291027 -0.16376412
0.08806768 0.14194025 0.28781506 -0.027182136 0.15327781 -0.6425546 0.13549346 0.22741202
-0.012214725 0.34348756 -0.08882775 0.11611627 -0.66907316 0.24741773 -0.6993174 -0.3202958
0.2621069 -0.09042529 -0.13169971 0.32492507 -0.0938742 0.043465428 -0.22895892 0.085582465
-0.16121301 0.56410354 0.20603958 -0.56986463 -0.012712587 -0.25597024 -0.36321995 0.0723199
0.028491141 0.11276403 -0.07515803 0.37224796 -0.079419725 0.3336745 0.015496066 -0.052809693
0.22276491 0.28180888 0.124622695 0.39291388 -0.014404049 0.54786557 0.28997213 -0.51970637
-0.07781954 -0.12524697 -0.09984777 -0.12511295 -0.021844123 0.031149855 0.18223189 -0.04245863
0.09538485 -0.14439185 0.13470773 -0.13943163 -0.18190445 -0.14733027 -0.030389853 -0.23858868
0.0733427 -0.16543762 0.060085543 -0.047950387 0.15650421 -0.047090825 0.10420619 -0.05352757
0.46873108 0.06367605 -0.11304666 0.1357063 0.14303832 0.19720988 -0.085334 -0.043078367
0.21058321 -0.034026403 0.11928799 0.35125723 0.5990314 -0.30945927 0.11264941 0.5361924
0.21335874 0.16129686 0.08882154 0.32468486 0.5705578 0.05988104 0.17990607 0.053064268
0.38451102 0.2257618 0.08662957 -0.2248957 0.41184327 0.30075854 0.27065992 0.19925123
0.25955915 -0.4873764 -0.022626195 0.42051142 0.29238796 0.120296404 -0.07788513 0.08787957
0.5113871 -0.1763174 -0.27728632 0.046326432 -0.03148889 0.010151921 0.07237175 -0.17015871
0.27210683 0.1938145 0.027546916 -0.1488618 0.118424684 0.18861385 -0.088806346 0.3714284
-0.05075202 -0.27676415 0.07862713 0.19514179 0.011673509 -0.2074022 -0.033168633 -0.026048636
0.09836684 0.1571562 0.16477244 -0.18474884 0.050868023 -0.21802786 -0.22153896 -0.11683958
-0.01887927 0.047254242 -0.18707465 -0.0038595146 0.122238845 -0.028648121 -0.24009961 -0.00045311436
0.33081982 0.4113899 0.5754633 0.23159832 0.083330676 -0.12050284 0.23422624 0.37732315
-0.4548577 -0.3381378 0.289497 0.116360046 -0.26869938 -0.51920867 0.27978572 0.5726744
-0.016228989 -0.024716474 -0.15141742 -0.0666378 -0.058077663 0.004456395 -0.3104725 0.15592428
-0.14703012 0.19157483 0.07343105 0.20660889 -0.053004745 0.059561346 -0.24773847 0.1642765
-0.05828307 0.6647677 0.058855124 -0.51166195 -0.11286074 -0.18660359 -0.12754163 0.061500277
-0.1590168 0.021296155 0.052229982 0.1371301 0.07707851 0.3199823 0.22984721 0.21932332
-0.065170884 0.31482878 -0.09567518 0.18034254 0.000605412 0.282039 -0.18829076 -0.61064744

fc2.bias f4 [20]
00000000: d969 7cbe 6b11 973e 2d99 a4be ac15 913d
00000010: d96c 7d3e 1032 f7bd d606 c63e c151 823e
00000020: a1fb 7fbe 6621 1d3d d761 50be 87be b83e
00000030: 51ad 0d3e dc18 c63e 27e3 03be cf63 f2bd
00000040: 8917 2cbc 8fca e23d 7723 e1bd ae97 47be
-0.24649753 0.29505476 -0.32148114 0.07084212 0.24748553 -0.120700955 0.3867709 0.25452998
-0.24998333 0.03836193 -0.20349823 0.3608286 0.13835646 0.3869084 -0.1287962 -0.11835443
-0.010503658 0.11073791 -0.109930925 -0.19491455

fc3.weight f4 [20, 20]
00000000: 12d8 0e3e b309 32be 5f06 d7bc 65f6 36bc
00000010: 19e6 01be 8378 0dbb 0661 1f3e 3821 66be
00000020: b543 103e f941 1cbe f93c 0cbe d0eb a13d
00000030: 6e0a 19be 0f35 2c3e 5fde 43bc 84de e9bd
00000040: d351 153e bbbe a33d 5653 c9bd 7668 d13d
00000050: 19c3 fe3d 63cc f93d f4cb 483e f04f 853e
00000060: 1def d63e 276e 5b3e 20d2 413e b378 613e
00000070: 837b ccbe ec72 b53d 920c a6bd ac60 693e
00000080: ca7d b83d e294 3e3e 72c8 16be f173 f73d
00000090: 1f0a 5e3e 6c05 a13e 3e8b 983c d995 1e3e
000000a0: a888 0b3e a2fd 033d cf6f 12be 7284 ae3d
000000b0: ce4f 393e db2b 233e c4b7 4cbe fc3a c2bd
000000c0: a3ad bd3c df7a 323e ec20 413e 42e6 45be
000000d0: 175d 38bd d315 efbc 0253 20be 8917 22bd
000000e0: 46f2 70bd bd68 533e 8698 96bd a2c7 843d
000000f0: 4a6d 013e 4a6f 9dbe 076e 763e f9fc 0abf
00000100: c2e5 98be e959 efbd 72b0 153e faf0 3f3e
00000110: 46e7 d33e 676e bf3d 4264 003f d655 d7bd
00000120: fa09 5a3a e503 b5bd d844 473d 9989 a73d
00000130: d320 28bd e412 a3be b61a 953e 0d43 e3bd
00000140: e600 41bd 964a 0fbd db21 a13e 7d54 f7be
00000150: 22ee e2bd 9132 5dbd 464b d8bd 7e15 293e
00000160: 8dbf b43e 3d26 0dbe 142e 263f 855f c2be
00000170: c34b bd3d d2ff a8be ed7f 153d 0fc1 083e
00000180: a5e6 d3bb 94b9 94be a629 983e 0b98 e73a
00000190: 7074 97bd d35a 24be 9312 9bbd ebdb a4bd
000001a0: c017 babd b79f 4a3e 99b2 07be 1bc8 cebd
000001b0: 432d 513e fb98 093e 649c 46bd 600a 9c3d
000001c0: 18d6 163e 8c26 8d3c 2a1a 00be 3aa7 113c
000001d0: 15a8 26be 29bc e6bb af0a 073e edd9 43bd
000001e0: 37cc 82bb 5650 603e 6329 b7be 4908 223f
000001f0: 371f 463e 8073 05bc d21f 693e 0938 e0bc
00000200: 27c6 08be 589b 3bbe 1c05 16bf 733f 933e
00000210: 8de0 103e 1f83 c63e 913f 10be 89f0 593e
00000220: 95de 333e 3643 c13e 57d0 653d 596d 6fbc
00000230: 5e6d d4bd 9e30 453e 095c 703c 148b c93e
00000240: 9c90 b33e 49c4 ea3d a9dc a33e ed23 913e
00000250: 2970 c1be 055f 1cbe e2b4 4abe 0ebd 8b3e
00000260: 6832 b63e 88a0 863e 959b f83c 013d ad3d
00000270: 3b52 9d3e 23e5 413e c49a 843e 7925 d03d
00000280: 29b4 de3e 37c1 bebe ad06 a43d 35af e4be
00000290: c3d4 65be fb5c ebbd 19fc f83d 5645 b63e
000002a0: d08f 3d3f cad2 28be 964f 0b3e 26e1 8ebd
000002b0: 1b21 80be c866 e6bd 79ef 403e 9331 963e
000002c0: 2bcf 89be 856f 1aba a2e3 393d c088 70bd
000002d0: 0568 60bd a384 96be a36f 083d 1fff 0abf
000002e0: c242 a73d 62ce 22be 0673 213e e065 8c3e
000002f0: d0f0 03bd ba74 653d 10e3 e33d d05a d9be
00000300: 0e1e 92bd 547e 1ebe 9dc6 8e3d afb6 1b3e
00000310: 1900 6abe 7f22 17bf afde 303e bcbe 1b3d
00000320: 44c2 1d3d c282 91bd eab9 923e cd6c 0abf
00000330: 3460 1abe b7b6 1dbd 3112 663e adc7 223e
00000340: 23d8 c23e 8bf8 0abe cdc2 d43e 3c38 d1be
00000350: 5d13 99bd 3d4d b7be b139 e53d 6c49 8e3d
00000360: 5cfe 52be fa13 2ebe dcbb 823e 3c8c 27be
00000370: 68ae d33e b30f 53be 92ce 3a3d 8148 f6be
00000380: 2035 a4bc 7edd bd3d 52b4 9b3e f7a0 98bb
00000390: 4551 a33e b2ff 723e 8721 633e 1c30 bdbe
000003a0: 28a7 7bbe 7784 91be 9c26 80bd bcae c13e
000003b0: 25dc 90be 0148 c5be 912f e93d eec0 8a3b
000003c0: 96e9 213d 2d18 b2be e002 8c3e 5d34 d2be
000003d0: 71d3 76be 952f 373e 5b9c 963e c73a 843d
000003e0: 1dff 633e 09c0 e2bd 1057 8b3e 4bbc 66bd
000003f0: a2fe 263e 89c8 92be 80bd 9dbd 395a 803e
0.13949612 -0.17386512 -0.026248155 -0.0111671435 -0.12685432 -0.0021586723 0.15564355 -0.2247361
0.14088328 -0.15259542 -0.13695134 0.07906306 -0.14945385 0.16817115 -0.011954873 -0.114193946
0.14581995 0.07995363 -0.09830348 0.102250025 0.12439556 0.12197187 0.19609052 0.2603755
0.41979304 0.21428739 0.18927813 0.220187 -0.39937982 0.0885981 -0.08107866 0.22790784
0.09008367 0.18611482 -0.14724901 0.12082661 0.21683548 0.3144945 0.018621083 0.1548685
0.13626349 0.032224305 -0.14300464 0.08521356 0.1809685 0.15934698 -0.19991976 -0.094839066
0.023154086 0.17429684 0.18860215 -0.19326118 -0.045010652 -0.029185211 -0.15656665 -0.039573226
-0.0588248 0.20645423 -0.0735331 0.064833894 0.12639347 -0.3074897 0.2406541 -0.54292256
-0.2986279 -0.11687071 0.1461809 0.18744269 0.41387385 0.093472295 0.5015298 -0.10514419
0.00083175267 -0.088386334 0.04864964 0.081805415 -0.04104693 -0.3185035 0.2912194 -0.11096773
-0.047119997 -0.03498324 0.31471142 -0.48306647 -0.110805765 -0.054003302 -0.10561232 0.16512105
0.35302392 -0.13784118 0.6491406 -0.379635 0.09242966 -0.33007675 0.036498953 0.13354896
-0.006466704 -0.29047835 0.29719275 0.0017669214 -0.073952556 -0.16050272 -0.07571902 -0.080497585
-0.09086561 0.19787489 -0.13251723 -0.10096761 0.20427422 0.13437264 -0.04848899 0.076191664
0.14730108 0.017230295 -0.12509981 0.008889968 -0.16275056 -0.0070414734 0.13187669 -0.047815252
-0.0039916295 0.21905646 -0.35773763 0.6329389 0.19347845 -0.008145213 0.22766045 -0.02737047
-0.13356839 -0.18320978 -0.58601546 0.28759345 0.1414816 0.38771912 -0.14086749 0.21283163
0.17565377 0.3774659 0.05610689 -0.014613473 -0.10372423 0.19256827 0.01467038 0.3936392
0.35071266 0.1146322 0.32004288 0.28347722 -0.37780884 -0.15270622 -0.19795564 0.27292675
0.35585332 0.2629435 0.030347625 0.08458901 0.307268 0.18935065 0.25899327 0.10163397
0.43496826 -0.37256786 0.08009086 -0.44664922 -0.22444443 -0.11492344 0.12157459 0.35599774
0.74047565 -0.1648666 0.13604578 -0.069765374 -0.25025257 -0.11250073 0.18841352 0.29334697
-0.2691587 -0.00058912515 0.045383103 -0.058724165 -0.0547867 -0.2939807 0.03330959 -0.54295534
0.0816703 -0.15899041 0.15766534 0.27421474 -0.03221208 0.056019522 0.11127293 -0.42452097
-0.07134639 -0.15477878 0.06971476 0.15206407 -0.228516 -0.5903701 0.17272447 0.038023695
0.038515344 -0.07105018 0.28657466 -0.54072267 -0.15075761 -0.03850433 0.22467877 0.15896483
0.38055524 -0.13571374 0.4155487 -0.40863216 -0.074743964 -0.35801116 0.111926444 0.06947598
-0.20604843 -0.16999808 0.2553395 -0.16362089 0.41344 -0.20611458 0.045607157 -0.4810219
-0.020044863 0.09270762 0.3041101 -0.0046578604 0.3189794 0.23730353 0.22180758 -0.36950767
-0.24575484 -0.28421375 -0.06257364 0.37828624 -0.28292957 -0.38531497 0.11386026 0.004234425
0.039529406 -0.3478407 0.27345943 -0.41055575 -0.24104096 0.17889245 0.29416165 0.064565234
0.22265287 -0.11071784 0.2721486 -0.056331914 0.16308072 -0.2866862 -0.0770216 0.25068834

fc3.bias f4 [20]
00000000: 8293 92bd 3909 d03e b9a7 433c cb0b 9ebe
00000010: 262b 5abd ecfa 54be a980 a63e 608b b53e
00000020: 431f b73d 7259 e13e 80e5 623d 6697 193e
00000030: 97c8 a4bd 84b5 66be 38ad b93d 922c 453e
00000040: 4290 923e 85d1 183d 7151 c13e 78e5 c2bd
-0.07157041 0.40632036 0.011941844 -0.30868372 -0.053263806 -0.20798844 0.32520035 0.35457897
0.089415096 0.44013554 0.05539465 0.1499916 -0.08046072 -0.2253018 0.09066242 0.19255283
0.28625685 0.03730919 0.37757447 -0.09516424

fc4.weight f4 [20, 20]
00000000: dfbb fb3d 4a19 71be 3e07 37be e31b 433e
00000010: 67bb b13e c77a bc3d 4acf 92be cd95 5ebe
00000020: 3ba9 a83e 2e5b 19be 5e4d 413e f1fc 8f3e
00000030: 05b4 09bc 699f f13e 9db2 fabd 5311 ab3e
00000040: 9ccc b43d d08b 423d 636d d93d c7f1 a83c
00000050: 6c92 29be 3230 c6bd 15b6 33bd 1c19 9f3e
00000060: a549 193e 29a3 4dbe 71ac b8bd d214 2a3e
00000070: c6bc f03e a4e8 8d3d 4eed 5c3e 036f a13e
00000080: 2c5e 8f3d ad95 be3e bb25 03bd f9f2 ad3e
00000090: 84b1 793d 7bf3 14be 963c 213e 70bc 1abe
000000a0: 5321 cb3d f9bd 3bbe cd5f ec3b 4e9c c83d
000000b0: 75d9 1f3e 27a2 50be 03a0 b23b 1a85 043e
000000c0: 61ef 2e3e ba30 023e b727 263e 7b73 e73b
000000d0: 0f0c 7dbe a64b 143d df9f a33c 5c1a 12bd
000000e0: 401f aebd 6ebf 61bd 0c7b 7ebe 3044 113e
000000f0: 3beb 693e e565 4cbe da9e 103e 63fc 74be
00000100: aaec f0be 7b7b 37be 942a 373e a7a3 053e
00000110: 7d2e 343f 2272 a1bd a0f2 4fbe 524d 3f3f
00000120: 9d1f 8b3e c826 823e 0c59 e03d 5184 2f3f
00000130: 5f45 8ebd 450b 9d3d 750d 943e 0885 4abe
00000140: 66e3 2f3d cd7e abbc 0bc9 6dbe 9a6a b2be
00000150: aefc 0dbe e42d 423e dbc4 c53e 34d3 4f3e
00000160: f651 ce3c 34c0 05be 2904 b8be 75d6 f1bd
00000170: 7445 89bd b9a9 a7be 34c8 80be dfde 6ebd
00000180: e844 353e 5444 9fbd 535c 603e 439a 353e
00000190: 42e7 3c3d a748 c73e 0148 bd3d 840c c1be
000001a0: a4a9 dd3b abf4 9e3c 638a 133e 89ab bd3e
000001b0: 3185 1bbe 0bbc 9b3d cce7 64be 5ddb b3be
000001c0: 7206 85be 02af 18bf 9a6d 05bd 0d33 cabd
000001d0: 5d23 a23d dcc7 bdbd 63c5 893e a2b3 4fbd
000001e0: a1bc 073e de2c a8bd 889d 0fbe f086 853e
000001f0: fd8c 913e 5201 d13d 3bbc a2bd c2cb 503c
00000200: 890d 683e b6d4 dfbd 80b0 c43d 252a 8e3d
00000210: b1e0 d93d c87a 003f 96d3 3d3e 386b 193e
00000220: 4835 8dbd a993 34be d8fd 45bd 0564 ebbd
00000230: 5c3d 463e 2ab7 103e 32c5 2ebd 66bf a2be
00000240: aa07 11bf 844a 05be ae40 303e 407d 7b3e
00000250: 5bc2 bfbe e778 cbbe c4d1 c4bd 16a8 c1be
00000260: 9445 fdbe f1dc 34be ca06 8bbe 219c c1be
00000270: ff51 9abe 27e0 6e3d b25f 843e 1bb4 5fbd
00000280: a4c6 6e3d d5d2 d93e 20fb a3bc 4f48 24be
00000290: 4a1e 443e 6e65 9bbb 972e b53e 84e2 ba3e
000002a0: 5d54 983c 9190 8a3e d44c 833e 73d1 0dbd
000002b0: 6cdc 9c3c 99ac c7be 6ec9 0e3e c0b4 a33e
000002c0: 6ee7 233e 7c7b 5fbe 2767 8f3e 5433 49be
000002d0: fdd0 c1bc 2e9c 153e 999d d33d 5a81 cdbc
000002e0: 10b3 253e 34da babc 75d4 4abe e9a3 88bd
000002f0: 104b 473b 83c7 54be 99eb 15be 9fe5 393e
00000300: c58a d1bd 5733 88bd 9005 2e3e 6749 19be
00000310: e018 bc3c 4d18 dabb 47df 3bbe 4fb1 2cbe
00000320: b853 59be 7efd 4bbe 80da f93b 34e0 3bbe
00000330: 4fe3 0b3e c6cf 0abe b1cd 703c 3d2a f3bc
00000340: b31b de3b aa5c 45be aa00 3f3e bdf2 b13d
00000350: c964 b1bd 6319 fbbd 49ca 1c3e 237f 5ebd
00000360: e5f7 d53a 4e0c 273e e38e f33d 77aa 59be
00000370: e4e7 1fbc 2724 d93b 5d22 c33d 2d69 b83e
00000380: 6969 da3e 7cf2 c4bd 96b8 90be fdbe 51be
00000390: f12c d63e 05a3 793e 9928 df3d e3a8 9f3e
000003a0: c388 c43e 4ca0 ed3d 04d0 c53e ed6f bd3e
000003b0: 50f2 8f3e 2ea4 37be 71b3 8f3e 401e e93c
000003c0: 1954 89bc 2fb1 7b3e 6b38 54be 186e 403e
000003d0: 4e91 cc3e 1b08 073e 0fd9 59bd 6e0b 2c3d
000003e0: 1e06 753d 73fc 723e 4741 763e 66af af3d
000003f0: 2a86 ba3e fd7f c93d 0cb3 a63e 870e 1a3e
0.12291693 -0.23544803 -0.17873856 0.19053607 0.3471329 0.092031054 -0.28673774 -0.21736832
0.32941613 -0.14976189 0.1887717 0.28122666 -0.008404736 0.47191933 -0.12241099 0.33411655
0.08828089 0.047496617 0.10616567 0.0206231 -0.16559762 -0.09677161 -0.04387482 0.31073844
0.149695 -0.20081772 -0.090172656 0.16609505 0.47019023 0.06929138 0.215749 0.31530008
0.07000384 0.3722357 -0.032018404 0.33974436 0.060960308 -0.14546005 0.15745768 -0.15110946
0.099184655 -0.18334188 0.007213569 0.09795438 0.15610297 -0.20374356 0.005451204 0.12941399
0.17083503 0.127139 0.16226088 0.007063327 -0.24711631 0.036204956 0.019973693 -0.03566967
-0.08502054 -0.055114202 -0.24851626 0.14186168 0.2284364 -0.19960745 0.14123097 -0.23924403
-0.4705556 -0.17918198 0.17887336 0.1305071 0.70383435 -0.07883097 -0.20307398 0.74727356
0.27172557 0.25420213 0.10954484 0.68561274 -0.06946825 0.07668165 0.28916517 -0.1977731
0.042941473 -0.020934487 -0.23221223 -0.34846956 -0.13865921 0.18962818 0.3862675 0.20295411
0.025185566 -0.13061601 -0.35940674 -0.118084826 -0.067027 -0.32746676 -0.25152743 -0.058318015
0.17702067 -0.077767044 0.21910219 0.17734627 0.046118982 0.38922617 0.09242249 -0.3770486
0.0067646075 0.019403776 0.14408259 0.37044933 -0.15187527 0.07604226 -0.22354048 -0.35128298
-0.2598148 -0.5964204 -0.032575227 -0.098730184 0.07916901 -0.09266636 0.26908407 -0.05070842
0.1325555 -0.08211683 -0.14024937 0.26079512 0.28427878 0.1020533 -0.07946058 0.012743892
0.22661413 -0.10929243 0.09603977 0.06941632 0.106385596 0.5018735 0.18537745 0.14982307
-0.06894928 -0.17634453 -0.048337787 -0.114936866 0.19359344 0.14132372 -0.04266853 -0.3178665
-0.5665232 -0.13016707 0.17212173 0.24559498 -0.3745297 -0.3974068 -0.09610322 -0.37823552
-0.49467146 -0.17662407 -0.27153617 -0.3781443 -0.30140683 0.058319237 0.2585426 -0.05461512
0.058294907 0.42543665 -0.020017207 -0.16043209 0.1915218 -0.004742316 0.35387108 0.36500943
0.018594915 0.2706342 0.25644553 -0.034623574 0.019148074 -0.3899887 0.13944027 0.3197384
0.16006252 -0.2182445 0.28008386 -0.19648486 -0.023659224 0.14610359 0.10332794 -0.025086094
0.16181588 -0.022809125 -0.19807608 -0.066718884 0.003040973 -0.20779233 -0.14640655 0.18154
-0.10231546 -0.06650417 0.1699431 -0.14969407 0.02296108 -0.006655729 -0.18346892 -0.16864513
-0.21223342 -0.19920918 0.007624924 -0.18347245 0.1366093 -0.13555822 0.014697478 -0.029683227
0.0067782043 -0.1927363 0.18652597 0.08688877 -0.08661801 -0.122607015 0.1531154 -0.054320466
0.0016324489 0.16313288 0.11892488 -0.21256433 -0.009759877 0.006626624 0.09528039 0.36017743
0.42658547 -0.09616563 -0.28265828 -0.20483012 0.41831163 0.24378593 0.10896415 0.31183538
0.3838559 0.1160284 0.38635266 0.36999455 0.28114557 -0.17933723 0.2806659 0.028456807
-0.016763734 0.24579309 -0.20724647 0.18791997 0.3995461 0.13186686 -0.05318552 0.042003088
0.059820287 0.23729114 0.24048339 0.085783765 0.36430484 0.09838865 0.32558477 0.15044604

fc4.bias f4 [20]
00000000: db92 58bd 2567 493e cd3c 7bbe b7aa 163e
00000010: b0b3 903e cd1b 583e fdbc 8fbe f701 94be
00000020: 45c3 f23d 5f38 f83d 93d7 42be 64a3 f7bc
00000030: b6b2 473e 3835 0abd 645a c8bd 0bcc c1bd
00000040: 269c be3e bd94 cb3d 4475 c8bb f584 d03d
-0.052874427 0.19668253 -0.24534912 0.1471356 0.2826209 0.21104355 -0.28073874 -0.2890775
0.11853651 0.12120127 -0.19027548 -0.030229278 0.19501767 -0.03374216 -0.09782866 -0.09462746
0.37228507 0.09940479 -0.006117495 0.101816095

fc5.weight f4 [20, 20]
00000000: 5b3a cebe c2a9 683e 76aa 36be 6d1b ba3e
00000010: 6857 873e 6d38 63be a62d a6bd 05ff 46bf
00000020: 0907 fc3d 8280 593e 7ab1 2fbe ecb8 09be
00000030: c238 4cbe c793 cbbd 507d 83bd 61dc 0fbe
00000040: b7c7 1f3e 923c 853e fedd 853d c3b9 bcbd
00000050: 0256 023e 7dc5 1a3e 5a77 52be 068e 83be
00000060: b984 75be 9f7b 37be 3732 f2bc 3c15 3f3e
00000070: 3baf 41bd e118 cf3d ab09 1e3d c164 82bb
00000080: 0ac5 1abd 9ab4 913d 0165 633e 5ce8 d9bd
00000090: 2c30 193e eebf c43d f772 983d 5ec6 4a3e
000000a0: 1b55 173f e76d 2e3e 2a22 ddbd e2dc 163e
000000b0: 1f13 b5be ecd6 95be 3ffd d53e 78c9 1f3e
000000c0: aed3 59be 8cb8 9abd cda0 c43d 78ef d33d
000000d0: 4f11 853c 4f1d c83d b0df e3bd 3628 b9bd
000000e0: fde8 d8bd e3dd 8b3e a44d 6fbd 2a5d f93d
000000f0: dff5 f83e f7a8 b63d 1f69 9bb9 efad 2abe
00000100: a504 74be 50c7 3e3d 469f 2f3e 167d 8ebe
00000110: acf9 fc3d 50f5 edbd 5007 49be 42c5 fc3d
00000120: a93a ce3d c3fe aabc fdfb 8fbc 68f7 3e3e
00000130: c440 a8be 8ee6 963e 9c80 27be 81e5 d33e
00000140: db20 68be b647 1fbe efb4 693d fee4 39be
00000150: 2aa2 d4bd 26e6 19be 5a5f 883d 31ba 1ebd
00000160: 5452 5bbd 2578 4e3e 86d8 823d 3cf4 a5bd
00000170: cc3c 20be e028 3b3e 272d 80bd 7574 49be
00000180: e3a2 b0bd 16a0 cbbd c48a 473e b305 3ebe
00000190: f663 3dbe 643b 68be 4050 0f3e e62c 413d
000001a0: 848e f0bd 95a9 223e 02a7 4e3e ca1f 50be
000001b0: 087e d33c e3b8 efbb d0ef 5f3e 9b74 56be
000001c0: 48e3 133d 7b71 42be 25c3 5c3e 8e0f fc3d
000001d0: 9bd8 fbbc 1f26 0e3e 2e71 51bd 0d68 42be
000001e0: 79f7 1f3f 9cef 4d3e e900 49bc 80e6 88be
000001f0: 8af0 0cbf 7b63 0ebd 0f65 f13e 9e5e 3abf
00000200: 860f 673d 2303 42be 7125 d3bd befe 183e
00000210: 5d1a 553d 554c 393e 7afa e33d 4efa d13d
00000220: f492 3bbe f182 153e 2f4c 1d3d b45e cd3e
00000230: 5b01 d13d 011b 00be da19 9fbd 2ee8 23bd
00000240: 3cd4 af3d bf1c 7c3d cc45 2e3d f22e 993d
00000250: 97b5 d0bd d9f3 f83d ce2b 283e 787f 913d
00000260: 87c4 f3bd 4057 bd39 9c75 3fbe 8aed 4cbe
00000270: 9a1a 38be 519b 253e f084 48be 7572 093e
00000280: e176 103f 207e 9b3b 9c41 553e dee9 403e
00000290: ce5a 91be 588c c4be 79ad be3e 2b51 d1bd
000002a0: a8e7 01bc b51c 02be 6cd3 063d 4fb5 973c
000002b0: 00f9 9fbd 4279 bb3e 7800 1f3e 595e 7d3d
000002c0: cd91 6cbe 581d b43e 4322 99be a0c2 4abe
000002d0: 8c1b 2b3f 7e7b 5f3e 46d4 33be e3d7 193b
000002e0: b9b4 92bd 8600 b9be 2a08 fd3e 3f03 59bd
000002f0: 59b0 e7bd aa81 b23d aab5 093e e93b 8cbc
00000300: 6077 993c 83c3 803e b29c 173c 8fa4 28be
00000310: 7717 b5be bdaf 963e 3073 58be 9d0b 683e
00000320: 9fc1 cebe 5b69 b23e 51c5 0cbe 6085 a53e
00000330: 2243 a1bd d89c 873d 1330 13bf 0547 c9be
00000340: 7f6c cfbd 00cd b3ba 01bc 013d 5c8d 5d3d
00000350: 851a 643e 39f8 a03e fa7f 293e 1de7 b2bd
00000360: 44aa b93d a00c e53e eb6a 08be dd0f 2cbe
00000370: 0ecb b53e cbb4 243d b3cf afbb c8fd 063e
00000380: e99a 2d3e a723 283d 9e71 2fbd e887 1bbf
00000390: 6828 ca3d 1820 413c e442 443e 6df9 763e
000003a0: f0f9 a23c 1c71 b53e 34c8 c7bc d1ba be3c
000003b0: 776b 15bd 9c46 ab3e 93f3 2fbe 1b3c 20bd
000003c0: 5fd9 193f e218 ab3e 1e42 023c 98d1 b63e
000003d0: 197f 3abe 58ab 74be a333 7b3d c2db 1ebf
000003e0: 4b47 7f3e 2737 06be 94df f6bd cbf8 843e
000003f0: ece1 313c db85 933e 2582 2539 6028 c3bd
-0.40278897 0.22721007 -0.17838463 0.3634905 0.26433873 -0.22189493 -0.081141755 -0.7773288
0.12306029 0.21240428 -0.17157546 -0.13449448 -0.19943526 -0.09940296 -0.06420386 -0.14048912
0.15603529 0.26022774 0.06536482 -0.09215119 0.12728122 0.15114398 -0.20553342 -0.25694293
-0.23976411 -0.17918251 -0.02956496 0.18660444 -0.047286253 0.10112167 0.03858344 -0.003979296
-0.037785567 0.07114525 0.22206499 -0.10640022 0.14959782 0.0960692 0.07443803 0.19802234
0.59114236 0.17034112 -0.10797532 0.14732698 -0.3536615 -0.29265535 0.41794774 0.15604198
-0.21272156 -0.07554731 0.09600983 0.103484094 0.016243605 0.09771215 -0.111266494 -0.09040873
-0.10591314 0.27317724 -0.058423653 0.12175973 0.48625085 0.08918946 -0.00029642225 -0.16667913
-0.23829897 0.046576798 0.17150602 -0.27829808 0.12352309 -0.11619055 -0.19631696 0.123423114
0.10069782 -0.020873433 -0.017576212 0.18649065 -0.32861912 0.29472774 -0.16357654 0.41386035
-0.22668783 -0.155547 0.057057317 -0.1815376 -0.10382493 -0.15029201 0.06658812 -0.038751785
-0.05354531 0.20163019 0.06388955 -0.08103225 -0.15648192 0.18277311 -0.06258612 -0.19673331
-0.08624818 -0.09942643 0.19486529 -0.18556862 -0.18495163 -0.22678906 0.13995457 0.04716196
-0.11745933 0.15885003 0.20180896 -0.20324627 0.025816932 -0.0073157414 0.21868825 -0.20942919
0.036105424 -0.18988602 0.21558817 0.12307654 -0.030742934 0.1388173 -0.051133327 -0.18985005
0.6248699 0.20110935 -0.012268283 -0.26738358 -0.55054533 -0.03476284 0.47147414 -0.72800624
0.05641129 -0.18946509 -0.10309876 0.14940926 0.052027095 0.18095525 0.11131759 0.1025282
-0.18317777 0.14600731 0.038402732 0.40111315 0.10205337 -0.12510301 -0.07768603 -0.040016346
0.08585402 0.061550852 0.042547032 0.07479657 -0.101908855 0.12155885 0.1642296 0.07104391
-0.11902719 0.00036113895 -0.18697208 -0.20012489 -0.17978898 0.1617253 -0.19581962 0.13422568
0.56431395 0.00474526 0.20825809 0.18839213 -0.2838959 -0.38388324 0.37241724 -0.1022056
-0.007928766 -0.12706263 0.03291647 0.018519072 -0.07811165 0.3661595 0.15527523 0.061857555
-0.23102494 0.35178638 -0.29908952 -0.19800806 0.6683891 0.21824452 -0.17561445 0.0023474626
-0.07163376 -0.36133212 0.4942029 -0.05298161 -0.113129325 0.08716138 0.13448206 -0.017118411
0.01873368 0.25149164 0.009253668 -0.16469024 -0.35369465 0.29430953 -0.2113769 0.2266068
-0.40382096 0.34846005 -0.13747145 0.3232832 -0.07874133 0.066217124 -0.5749523 -0.39311996
-0.10128116 -0.0013717711 0.031673435 0.05408989 0.22275741 0.3143938 0.16552725 -0.087354876
0.09065679 0.44736195 -0.13322036 -0.16802926 0.3550648 0.04021148 -0.005365336 0.13182747
0.16953625 0.041049626 -0.042832963 -0.6075425 0.09870988 0.011787437 0.19166142 0.24118586
0.01989457 0.35437858 -0.024387456 0.02328244 -0.03647944 0.33452308 -0.1718276 -0.03911982
0.60097307 0.33417422 0.007950334 0.35706782 -0.18212546 -0.23893487 0.06132854 -0.62054074
0.2492954 -0.13106976 -0.12054363 0.25971064 0.010857087 0.2881306 0.00015784109 -0.09529185

fc5.bias f4 [20]
00000000: 8427 88bd 193e 71be 54f4 a1be a9c2 7fbe
00000010: 1580 bd3d 429e 29be 9dde 5fbe 122e ab3c
00000020: 2ae8 20be 79e7 1a3c 555a 463e 9f8a aabc
00000030: 999a eabd 2e41 4d3d 6d7a 413e b44d c13e
00000040: 977d 3ebd c757 833e f5ea 02be 991e 8dbd
-0.06648162 -0.23558845 -0.3163172 -0.249766 0.09252945 -0.16564277 -0.21862264 0.020895991
-0.15713564 0.009454601 0.19370396 -0.020818053 -0.114552684 0.05011099 0.18894358 0.37754595
-0.04650649 0.25652906 -0.12784941 -0.06890602

fc6.weight f4 [3, 20]
00000000: 4219 22bf 4693 dc3d 6564 31bf 747b 063f
00000010: c891 463e a689 eebd 83b3 263f c1a6 3a3e
00000020: 5eda 50bf 8e44 5cbf b985 adbe 472f 37be
00000030: 9510 00bf 144f 513e a943 053f 5b85 c33e
00000040: b3e0 42bf 3cdc ffbe 0b67 fdbd 1940 783e
00000050: 74fe 013f 34a2 083e 2d36 f5be b77f 05bf
00000060: 17b1 babd 65af 7abd 9078 cfbe aedd 3c3e
00000070: 4042 26bf 86dd 01bf ecb8 323e 0880 433e
00000080: 6474 73bc c926 3b3e f106 fc3d ec74 413e
00000090: 44b2 a5be 7155 c03e ff79 23be 3c89 46be
000000a0: 7dd8 6fbe 69f6 04be 64f9 be3e 4dfc b13e
000000b0: d504 e43d 8b1e eebd 2740 af3e a2b1 f2bd
000000c0: 0ac8 233f 2da2 153f ddeb be3d 7b66 7c3e
000000d0: 6f2d 5b3e e9c2 3fbe 1c89 6abe d54d d4be
000000e0: aaf4 373f 8a8c 693e e7c3 023e fd58 0d3e
-0.6331979 0.10770278 -0.69293815 0.52532125 0.19391549 -0.11647348 0.65117663 0.18227674
-0.815832 -0.86042106 -0.33891085 -0.17889129 -0.500253 0.20440322 0.52056366 0.3818768
-0.76124114 -0.49972713 -0.123731695 0.24243201 0.5077889 0.13343126 -0.47892895 -0.52148
-0.091158085 -0.061202426 -0.4052167 0.18443939 -0.6494484 -0.5072864 0.17453355 0.19091809
-0.014859293 0.18276514 0.123060115 0.18892258 -0.32362568 0.37565187 -0.15964507 -0.19388288
-0.23422427 -0.12984623 0.37299645 0.34762803 0.11133734 -0.11626919 0.34228632 -0.11850287
0.6397711 0.58450586 0.09322331 0.24648468 0.2140405 -0.18726696 -0.22903866 -0.4146563
0.718577 0.22807518 0.12770043 0.13803478

fc6.bias f4 [3]
00000000: 50a3 723e e74d 8a3e b7c3 c5be
0.23695111 0.2701256 -0.3862588
