models_3val/and_or_3.pth (torch, 12162 bytes, 12 tensors)

fc1.weight f4 [20, 12]
-0.5995386 0.4369726 -0.08796372 0.006389082 0.0014449573 0.021241702 0.015564597 0.012986036
-0.0016769033 -0.0006105683 0.0057123112 -0.0071453988 0.14882322 -0.22518349 -0.05437827 0.090736635
0.15320374 0.29821226 -0.12875599 -0.10684778 0.2615364 -0.07111453 0.11342812 -0.25157675
-0.19960503 0.16565685 0.2757213 0.0053786514 0.1100821 -0.00028391895 -0.08722125 -0.10505121
0.040768202 -0.08642066 -0.018861433 0.11427325 -0.24275714 -0.13422947 0.58589613 0.011600094
0.014016532 0.0070338184 -0.0108378185 0.071397774 -0.020556225 0.005223033 0.0009542352 0.008810957
-0.052681226 -0.05583331 0.53957444 0.107793696 0.24398667 0.012183377 0.27171043 0.22506505
0.02504529 0.18369696 0.22670996 0.22176087 0.2318437 0.47793016 0.21599676 0.09338129
0.14764942 0.018665869 0.15918863 0.1290827 -0.120614536 -0.08183472 -0.081324756 0.16348654
0.040207732 0.11521917 0.29390118 -0.020029517 0.079388194 -0.10339394 0.31523883 0.16572401
-0.006146389 0.31935072 0.031702872 0.013298387 0.32383287 0.13192575 -0.3057008 0.06806835
0.19638245 0.37580645 0.079757154 0.23956458 0.32401443 0.20450835 0.3359064 -0.12840888
0.19934846 -0.12509176 0.41178378 -0.08948294 0.046685632 0.1545921 0.14468177 -0.070528835
0.061875798 0.16543244 0.20722 0.07652832 -0.23961826 -0.12991461 0.28607723 0.202822
-0.13241601 0.021029463 0.22119896 0.19945076 0.20329708 0.2851087 0.0807797 -0.05163852
0.37752348 0.44502395 -0.21528174 0.050059363 0.14243287 -0.19258136 -0.12219291 -0.052163437
0.07714234 0.0855474 0.13081871 -0.0543596 0.24276729 -0.037067138 -0.17193201 0.030041788
0.28769687 -0.096595824 0.17789382 0.1556029 -0.09620809 0.3418293 -0.033982128 -0.017683685
0.15276004 0.18028845 0.12624037 0.17544803 0.18260832 0.3113973 -0.10957698 0.019251516
0.24939252 0.20744398 0.11175518 -0.10698942 -0.22244819 -0.25223464 0.49932903 0.002788925
0.033113807 0.017805807 -0.047352634 -0.029627018 0.027206132 -0.0016964282 0.019790076 -0.0133931935
-0.10262283 0.050063964 0.33096498 0.09313504 0.10150468 0.28106478 0.28471777 -0.11643577
0.36091346 0.0719087 0.046125036 0.18355231 0.22951297 0.47962123 0.3230064 0.11272717
0.001572886 -0.123356305 0.2157093 0.15169607 0.21629895 -0.055856902 -0.026130885 0.14473054
-0.32847804 -0.028550113 -0.27423644 0.24618688 -0.07908299 0.08178005 -0.100714244 0.20100765
-0.02926784 -0.09669221 0.34394667 0.36426634 0.3160028 0.52345544 0.2068019 0.014932497
-0.16562146 0.18749812 -0.028884454 0.17209266 -0.12191535 0.013221059 0.18933831 0.13571726
0.1375594 -0.4269152 -0.06631096 0.1458465 -0.05413999 0.048825018 0.34778038 0.1297031
0.12702255 0.15859051 0.03331323 0.34582818 0.110746 0.007797431 0.17361943 0.19811022
0.3769225 0.0066211973 0.0437788 0.23794124 0.026925279 -0.058001712 0.14417875 0.15296967
00000000: 5d7b 19bf dfba df3e 5326 b4bd 815b d13b
00000010: b964 bd3a 1403 ae3c a702 7f3c 62c3 543c
00000020: 8acb dbba 8c0e 20ba 572e bb3b f323 eabb
00000030: 1d65 183e 8096 66be c0bb 5ebd 21d4 b93d
00000040: 71e1 1c3e 47af 983e 9cd8 03be 02d3 dabd
00000050: 19e8 853e 7fa4 91bd 014d e83d abce 80be
00000060: 4365 4cbe f3a1 293e 582b 8d3e 663f b03b
00000070: b972 e13d f5da 94b9 0ea1 b2bd 1725 d7bd
00000080: 8ffc 263d 51fd b0bd 4b83 9abc 1808 ea3d
00000090: 5495 78be 7373 09be 4afd 153f 520e 3e3c
000000a0: 99a5 653c f27b e63b 1b91 31bc ff38 923d
000000b0: 8765 a8bc fa25 ab3b a425 7a3a d55b 103c
000000c0: 45c8 57bd 78b1 64bd 8d21 0a3f f1c2 dc3d
000000d0: a4d7 793e c99c 473c a11d 8b3e 7477 663e
000000e0: c82b cd3c 0e1b 3c3e a826 683e 4815 633e
000000f0: 6f68 6d3e 43b3 f43e 412e 5d3e b13e bf3d
00000100: 6931 173e 2ae9 983c 5802 233e 412e 043e
00000110: c104 f7bd f698 a7bd 988d a6bd 0469 273e
00000120: ddb0 243d 07f8 eb3d 377a 963e f114 a4bc
00000130: 4796 a23d 34c0 d3bd fc66 a13e 8eb3 293e
00000140: a667 c9bb f081 a33e dfda 013d 7ae1 593c
00000150: 6ccd a53e 8b17 073e d184 9cbe 6b67 8b3d
00000160: 7b18 493e b469 c03e b857 a33d 6b50 753e
00000170: 38e5 a53e a36a 513e ecfb ab3e 9e7d 03be
00000180: 0122 4c3e 0e18 00be 53d5 d23e d542 b7bd
00000190: 6f39 3f3d 644d 1e3e 7527 143e 6c71 90bd
000001a0: 7a71 7d3d 1f67 293e 7b31 543e e1ba 9c3d
000001b0: 7d5e 75be 5608 05be b778 923e 92b0 4f3e
000001c0: 1098 07be fb45 ac3c fb81 623e d23c 4c3e
000001d0: 1c2d 503e c4f9 913e d46f a53d ea82 53bd
000001e0: c24a c13e 2eda e33e d172 5cbe 0c0b 4d3d
000001f0: ecd9 113e 0c34 45be 4740 fabd 54a9 55bd
00000200: cefc 9d3d 7a33 af3d 57f5 053e 2ca8 5ebd
00000210: fd97 783e b6d3 17bd f20e 30be 321a f63c
00000220: 014d 933e 08d4 c5bd cc29 363e 5e56 1f3e
00000230: bf08 c5bd 4004 af3e d830 0bbd 60dd 90bc
00000240: 216d 1c3e 899d 383e 2845 013e a6a8 333e
00000250: adfd 3a3e 786f 9f3e e569 e0bd 5bb5 9d3c
00000260: c160 7f3e 326c 543e e6df e43d 451d dbbd
00000270: 75c9 63be e624 81be 0ea8 ff3e 66c6 363b
00000280: 58a2 073d 7cdd 913c d6f4 41bd 5cb4 f2bc
00000290: 65df de3c af5a deba cc1e a23c 206f 5bbc
000002a0: eb2b d2bd df0f 4d3d 3e74 a93e 95bd be3d
000002b0: b0e1 cf3d b9e7 8f3e 87c6 913e e175 eebd
000002c0: a6c9 b83e de44 933d 9bed 3c3d 23f5 3b3e
000002d0: 7305 6b3e ea90 f53e 1861 a53e 81dd e63d
000002e0: 4c29 ce3a 3ba2 fcbd e6e2 5c3e 3756 1b3e
000002f0: 797d 5d3e 35ca 64bd 7010 d6bc 3e34 143e
00000300: 462e a8be ede1 e9bc b868 8cbe 6a18 7c3e
00000310: 43f6 a1bd 4d7c a73d 4543 cebd f3d4 4d3e
00000320: 1cc3 efbc 9106 c6bd c719 b03e 1e81 ba3e
00000330: 1ecb a13e 2d01 063f e1c3 533e 6fa7 743c
00000340: ac98 29be 82ff 3f3e 179f ecbc 0f39 303e
00000350: c1ae f9bd 249d 583c e7e1 413e 77f9 0a3e
00000360: 5fdc 0c3e a194 dabe 0ace 87bd c958 153e
00000370: e5c1 5dbd befc 473d 4510 b23e e4d0 043e
00000380: 3312 023e 8d65 223e 7473 083d 6410 b13e
00000390: cdce e23d 9881 ff3b 4bc9 313e 68dd 4a3e
000003a0: fcfb c03e a1f6 d83b 6651 333d dea6 733e
000003b0: 6792 dc3c 3493 6dbd 98a3 133e 15a4 1c3e

fc1.bias f4 [20]
0.14892222 0.31500852 0.3269125 -0.14870149 0.3500449 -0.18011369 -0.3386106 -0.036275104
-0.043809973 0.313419 -0.21826689 0.3841103 -0.15184891 0.18773477 -0.21394797 -0.08439332
-0.0857269 -0.085781045 0.27356112 0.0745993
00000000: 117f 183e cc48 a13e 1361 a73e 3445 18be
00000010: 1639 b33e b96f 38be 5e5e adbe 3495 14bd
00000020: 1672 33bd 7578 a03e 5b81 5fbe 1baa c43e
00000030: 487e 1bbe 8b3d 403e 2d15 5bbe 68d6 acbd
00000040: 9691 afbd f9ad afbd 3410 8c3e 85c7 983d

fc2.weight f4 [20, 20]
0.20260772 -0.06811916 -0.16440503 0.27984893 0.24900222 0.20062895 0.015492988 -0.26348004
0.25823006 -0.03138229 -0.23341899 -0.30801138 0.15145136 0.34802917 0.1614306 0.038977515
-0.086434714 -0.1732088 -0.20450743 0.020685244 0.19489232 -0.22832789 -0.0059292065 0.11565118
-0.24436785 -0.16401893 0.0019138671 -0.16481446 0.1301689 -0.020838719 -0.085578494 -0.117721066
0.12981519 -0.15540881 -0.16091482 0.122881025 -0.13547754 0.078396276 -0.22047687 0.13299747
-0.029634796 -0.07976672 0.05574806 0.38146693 -0.11496909 0.069446996 0.32814404 0.18829581
0.20858347 -0.06248463 0.12164294 0.010266316 0.18973672 0.22740057 0.27491942 -0.0067849746
0.24087726 -0.16967775 0.1755462 0.078220285 0.40491843 -0.059144944 0.2894686 0.1416158
0.28636098 0.0855386 0.07153242 0.0882384 0.3469294 0.30651796 -0.052077655 0.11891348
0.1724932 -0.03115681 0.16680108 0.1721647 -0.40030995 0.33401784 0.1094447 0.23182917
-0.5021839 -0.18596889 0.30093926 0.4927042 0.21612373 0.2813196 0.11695344 -0.16880527
0.2271489 -0.00458258 -0.015692867 -0.23465282 0.33479846 0.5067701 0.24975261 0.2901417
-0.12278817 0.24822314 -0.12547733 0.040533148 0.58924973 -0.07022283 -0.007938764 -0.16268435
0.23007756 -0.31181848 -0.2862655 0.22302374 -0.04618693 0.034163028 0.06909576 0.342914
-0.18704623 -0.36650664 -0.016151669 -0.21000472 0.031699702 -0.006586808 0.28901276 0.23725203
0.22347952 0.08227367 0.10987584 -0.22039032 0.10323254 -0.18201265 -0.06356248 -0.10272794
-0.034892373 0.22368577 -0.23979385 0.099340506 -0.024826843 -0.054417048 0.2715411 0.0106422305
-0.09826084 -0.108513996 0.34266028 0.31065962 -0.21061037 -0.19330752 -0.18086813 0.35762924
-0.19481727 0.31322807 0.25507048 -0.086154565 0.15558289 0.13764763 0.3408444 -0.10088741
0.25418618 0.32297146 0.11287525 0.2533109 0.18402223 0.40689617 0.13591793 0.2075464
0.5668929 0.15647726 0.058559157 -0.17319623 0.35788512 -0.22112553 -0.2360308 0.07087265
-0.030914465 0.2636 -0.2420417 0.106113136 0.05062543 -0.1827653 -0.09453005 -0.27455124
0.10145157 -0.09169089 0.23048465 0.034924954 -0.50088274 -0.23749246 -0.34019175 0.28732887
0.12706907 0.20562723 -0.037544157 0.21655618 -0.026509155 -0.047659494 0.42735404 -0.041181624
0.35159224 0.2512761 0.3360641 0.18196629 -0.09412721 0.3480069 -0.16903342 0.18623476
0.17533176 0.26777855 0.4585154 0.010194132 0.30553776 0.01204677 0.3121365 -0.04018327
0.30911073 0.26463336 -0.14304407 0.031954028 0.2527909 0.26720572 0.010979337 0.17913207
-0.08034365 0.30196437 -0.17766999 0.0017085471 -0.56181157 -0.056762315 -0.24550982 0.4673334
0.29712033 0.04195714 0.20129873 0.022222934 0.060039517 -0.12427983 0.37822706 -0.041186817
0.15365764 0.3376276 0.29437783 -0.06268862 -0.039880697 0.32121626 -0.29096052 -0.009764659
0.6084125 0.19870526 0.278723 -0.34184137 0.08787035 -0.1596295 0.002396754 0.2668783
0.02559481 -0.09725122 -0.15295944 -0.016374888 -0.038250636 -0.2828883 -0.035502587 -0.020421723
00000000: 6678 4f3e 0f82 8bbd cb59 28be 5c48 8f3e
00000010: 70fa 7e3e ad71 4d3e 4dd6 7d3c dbe6 86be
00000020: bb36 843e b78a 00bd 6305 6fbe abb3 9dbe
00000030: 1116 1b3e e130 b23e 104e 253e e3a6 1f3d
00000040: af04 b1bd a65d 31be 656a 51be 1a74 a93c
00000050: da91 473e c9ce 69be ca49 c2bb 87da ec3d
00000060: 913b 7abe 94f4 27be b9da fa3a 1fc5 28be
00000070: ff4a 053e f6b5 aabc c743 afbd be17 f1bd
00000080: 46ee 043e 7d23 1fbe dbc6 24be 0ca9 fb3d
00000090: a0ba 0abe 3a8e a03d b0c4 61be 7d30 083e
000000a0: acc4 f2bc bc5c a3bd 1458 643d a24f c33e
000000b0: ea74 ebbd 3a3a 8e3d 7f02 a83e 9ed0 403e
000000c0: e896 553e e2ef 7fbd ef1f f93d 0d34 283c
000000d0: 584a 423e b2db 683e 3dc2 8c3e 7e54 debb
000000e0: 87a8 763e 01c0 2dbe 62c2 333e f531 a03d
000000f0: 7851 cf3e f841 72bd 3a35 943e bb03 113e
00000100: e89d 923e dd2e af3d 977f 923d 56b6 b43d
00000110: bba0 b13e ecef 9c3e 614f 55bd e988 f33d
00000120: 0fa2 303e 913c ffbc e7cd 2a3e f14b 303e
00000130: 6df5 ccbe 6304 ab3e 8b24 e03d a064 6d3e
00000140: 208f 00bf a16e 3ebe b614 9a3e ba43 fc3e
00000150: 8a4f 5d3e 1f09 903e 4985 ef3d 4adb 2cbe
00000160: b999 683e 7829 96bb 548e 80bc d448 70be
00000170: b46a ab3e afbb 013f 26bf 7f3e 748d 943e
00000180: 5d78 fbbd 352e 7e3e 217d 00be 1606 263d
00000190: 12d9 163f fdd0 8fbd 9711 02bc ba96 26be
000001a0: 7499 6b3e aca6 9fbe 6491 92be 5660 643e
000001b0: 822e 3dbd 88ee 0b3d 1482 8d3d 6c92 af3e
000001c0: 0c89 3fbe c2a6 bbbe 8150 84bc 7a0b 57be
000001d0: 8cd7 013d 26d6 d7bb 7bf9 933e 32f2 723e
000001e0: d1d7 643e 197f a83d 9606 e13d 00ae 61be
000001f0: 956b d33d 8661 3abe 0c2d 82bd 0763 d2bd
00000200: 4eeb 0ebd e20d 653e 858c 75be 0973 cb3d
00000210: aa61 cbbc 69e4 5ebd 6f07 8b3e c05c 2e3c
00000220: fb3c c9bd 963c debd 2b71 af3e c70e 9f3e
00000230: 3faa 57be 68f2 45be 7f35 39be 2e1b b73e
00000240: 2e7e 47be 6e5f a03e 9998 823e ce71 b0bd
00000250: 1f51 1f3e 80f3 0c3e 2883 ae3e 0f9e cebd
00000260: b124 823e 845c a53e 242b e73d f7b1 813e
00000270: 5370 3c3e b254 d03e 122e 0b3e 0b87 543e
00000280: e51f 113f 933b 203e badb 6f3d 5a5a 31be
00000290: b83c b73e bb6e 62be 0fb2 71be ae25 913d
000002a0: 5540 fdbc 94f6 863e c8d9 77be d851 d93d
000002b0: 9c5c 4f3d d426 3bbe f998 c1bd fb91 8cbe
000002c0: d7c5 cf3d 6fc8 bbbd 2b04 6c3e 780d 0f3d
000002d0: da39 00bf 3931 73be 9d2d aebe c51c 933e
000002e0: 651e 023e f28f 523e e7c7 19bd e7c0 5d3e
000002f0: ba29 d9bc 9a36 43bd 26ce da3e 10ae 28bd
00000300: e603 b43e 43a7 803e 9810 ac3e 5f55 3a3e
00000310: c4c5 c0bd f62d b23e 1917 2dbe 53b4 3e3e
00000320: 2b8a 333e 451a 893e 88c2 ea3e 4a05 273c
00000330: 726f 9c3e d15f 453c 5bd0 9f3e 3697 24bd
00000340: c343 9e3e 067e 873e 257a 12be 3ae2 023d
00000350: cf6d 813e 30cf 883e ade2 333c 666e 373e
00000360: 368b a4bd 139b 9a3e 1fef 35be 54f1 df3a
00000370: e2d2 0fbf 9a7f 68bd ed66 7bbe 5346 ef3e
00000380: 2820 983e 40db 2b3d 4121 4e3e df0c b63c
00000390: ffeb 753d 6c86 febd faa6 c13e 82b3 28bd
000003a0: 6e58 1d3e 86dd ac3e b1b8 963e e462 80bd
000003b0: f159 23bd 7576 a43e c7f8 94be f3fb 1fbc
000003c0: ecc0 1b3f 6479 4b3e c8b4 8e3e d505 afbe
000003d0: 5ff5 b33d ea75 23be dc12 1d3b 46a4 883e
000003e0: 35ac d13c a62b c7bd 66a1 1cbe a124 86bc
000003f0: b3ac 1cbd bcd6 90be 296b 11bd 754b a7bc

fc2.bias f4 [20]
-0.10425571 -0.21351138 -0.37333578 0.31900916 0.2127263 0.26120892 0.255568 -0.25650585
0.2565759 -0.30730814 0.38344118 -0.12985373 0.28792426 0.18526037 0.19650863 -0.06947995
-0.040264938 0.12827137 0.119789496 0.060165048
00000000: 0584 d5bd baa2 5abe de25 bfbe 2b55 a33e
00000010: ecd4 593e 2dbd 853e cfd9 823e bc54 83be
00000020: eb5d 833e 7e57 9dbe 6752 c43e 60f8 04be
00000030: cf6a 933e e5b4 3d3e 8f39 493e 814b 8ebd
00000040: d9ec 24bd 9259 033e 3254 f53d a06f 763d

fc3.weight f4 [20, 20]
0.04557228 -0.15962212 -0.15857853 0.09810759 0.025117636 -0.1627182 -0.08676285 0.010191924
-0.15783416 0.060638793 -0.13158827 -0.159123 -0.04518372 -0.0046629887 0.14937605 0.16126888
-0.159886 -0.084307835 -0.18579106 -0.20449963 -0.088820785 0.16545911 -0.06076248 0.15080634
0.01928981 0.30470967 0.1722061 -0.24259233 0.46134678 -0.2631361 0.39683628 -0.23318747
0.28260943 0.4331605 0.3705134 -0.34093204 0.15391089 0.3215911 -0.096427724 0.042239163
-0.31600615 0.14241156 -0.42306587 0.09970844 0.10052937 -0.032588035 -0.009244002 -0.22395417
0.30705556 -0.12112239 0.26545656 0.12342272 0.16133311 0.21757129 0.025176337 -0.4396104
0.042080425 0.21464384 0.11191496 0.23167191 -0.23516837 -0.18995222 0.057866145 -0.09014343
-0.25685993 0.03523022 -0.21571477 -0.16897099 0.0058086226 -0.20449522 0.13073139 -0.015525419
0.025664624 -0.21951686 -0.057775527 -0.1759839 0.05665443 0.035681464 -0.2109669 -0.12437125
0.13491808 0.09307617 -0.029974813 -0.043931898 -0.20573403 -0.17972764 -0.21333058 -0.13356578
0.023954261 -0.21574932 0.17747994 -0.116270065 -0.14855756 -0.14723502 0.14121313 -0.12125959
-0.09480809 0.10579588 -0.031168869 0.09574416 -0.2240442 -0.20684075 0.15173674 -0.03592001
-0.36864904 0.4328325 0.1838729 0.1421367 0.13485737 0.27178633 -0.12419474 -0.14652726
0.29823348 0.12906249 0.2750615 -0.32913142 0.06126153 0.42439428 0.17976849 0.15135339
0.49657091 -0.1460489 -0.0019588594 -0.0443486 0.24424842 -0.40028515 -0.07733044 0.059074383
-0.1708133 0.12986858 0.27557793 0.43931544 -0.016764209 -0.3431397 -0.13226351 0.51201063
0.29312685 -0.21046667 0.14192005 -0.030790923 0.35093868 -0.16275756 -0.14097942 0.008247578
0.30985036 -0.3293978 0.04349011 0.041523058 -0.38223502 0.120359816 0.21120636 0.23232958
-0.21659349 -0.37075734 0.0075902115 0.2281576 0.0025955613 -0.21217443 0.35472152 0.042049073
-0.10289763 -0.11354318 0.03536143 -0.18957856 -0.21643163 0.05462994 0.025902709 0.19353695
-0.00044227648 -0.10754382 0.023735361 0.004189738 0.13128237 0.09418745 -0.06622882 0.2126133
0.030858086 -0.022409465 -0.060915854 -0.21748728 0.10419862 -0.062489387 -0.48590773 0.35960042
0.32006183 -0.26043978 0.015973033 0.1581998 -0.21465135 0.19457 0.3747041 0.14664055
-0.128899 -0.33054692 0.07727811 0.17417267 -0.04695313 -0.15273789 0.23527464 0.10605187
0.2591795 0.16482142 0.32461646 -0.12850894 0.03285218 -0.25823778 0.26872826 0.09445105
0.04639857 0.27605125 -0.0017057487 0.080016874 -0.2431584 -0.2847829 -0.1755992 0.17967944
0.13423944 -0.13690117 0.20770349 0.02001132 -0.29697105 0.11182724 -0.3194497 -0.001900729
0.09863529 0.26960707 0.15543151 -0.115759574 0.33779857 -0.07327648 0.107203454 -0.13118863
0.3791361 0.30773595 0.36976707 -0.30647698 -0.07616186 0.36795875 -0.14240305 0.3245849
0.17125724 0.011699854 0.19752163 0.31947184 0.068622455 0.06500677 0.15388593 -0.08971182
0.42725018 -0.18472022 0.15604112 -0.2863948 0.21740988 0.62420034 0.11827823 -0.38429195
00000000: 00aa 3a3d fb73 23be 6962 22be a2ec c83d
00000010: 80c3 cd3c 9a9f 26be b9b0 b1bd 07fc 263c
00000020: 479f 21be 6260 783d 13bf 06be 24f1 22be
00000030: 9012 39bd fccb 98bb 09f6 183e ab23 253e
00000040: 28b9 23be 96a9 acbd 0340 3ebe 5a68 51be
00000050: ace7 b5bd 1d6e 293e 14e2 78bd fa6c 1a3e
00000060: aa05 9e3c e802 9c3e cc56 303e 206a 78be
00000070: a535 ec3e c6b9 86be 202e cb3e b2c8 6ebe
00000080: 2fb2 903e 37c7 dd3e efb3 bd3e a58e aebe
00000090: d19a 1d3e 97a7 a43e e67b c5bd f902 2d3d
000000a0: 8fcb a1be 56d4 113e 179c d8be f033 cc3d
000000b0: 58e2 cd3d 087b 05bd 2874 17bc 3e54 65be
000000c0: 6336 9d3e 040f f8bd ece9 873e 0dc5 fc3d
000000d0: 8234 253e 02cb 5e3e 9b3e ce3c 9d14 e1be
000000e0: 865c 2c3d 98cb 5b3e ac33 e53d 673b 6d3e
000000f0: facf 70be d682 42be 0d05 6d3d 1e9d b8bd
00000100: 2583 83be 904d 103d 55e4 5cbe bb06 2dbe
00000110: 4256 be3b 3267 51be 73de 053e 545e 7ebc
00000120: 9e3e d23c 07c9 60be 08a6 6cbd 2035 34be
00000130: 7a0e 683d ba26 123d b507 58be 5bb6 febd
00000140: f727 0a3e b89e be3d bd8d f5bc eff1 33bd
00000150: f1ab 52be 860a 38be 5573 5abe 78c5 08be
00000160: ba3b c43c 64ed 5cbe 4dbd 353e 001f eebd
00000170: 791f 18be c7c4 16be 2d9a 103e f356 f8bd
00000180: be2a c2bd 83ab d83d db55 ffbc 8415 c43d
00000190: d86b 65be 10ce 53be e060 1b3e dc20 13bd
000001a0: 91bf bcbe 399c dd3e 2d49 3c3e 488c 113e
000001b0: 0d18 0a3e 9427 8b3e d059 febd 3e0b 16be
000001c0: 0fb2 983e f528 043e dcd4 8c3e ea83 a8be
000001d0: 5fed 7a3d 354a d93e 3b15 383e 62fc 1a3e
000001e0: 8b3e fe3e d88d 15be 3560 00bb e1a6 35bd
000001f0: 421c 7a3e 2df2 ccbe 6c5f 9ebd fbf7 713d
00000200: afe9 2ebe 45fc 043e 8d18 8d3e f4ed e03e
00000210: 1855 89bc 02b0 afbe 1670 07be 2113 033f
00000220: b914 963e 9384 57be 7d53 113e 3f3d fcbc
00000230: 3cae b33e eba9 26be e95c 10be d920 073c
00000240: b5a4 9e3e d4a6 a8be b022 323d 1514 2a3d
00000250: 4fb4 c3be 357f f63d 7b46 583e cee7 6d3e
00000260: afca 5dbe e8d3 bdbe 4fb7 f83b 25a2 693e
00000270: 4b1a 2a3b 4144 59be 0f9e b53e a63b 2c3d
00000280: febb d2bd 5489 e8bd 26d7 103d e220 42be
00000290: 41a0 5dbe a5c3 5f3d eb31 d43c 8d2e 463e
000002a0: 58e1 e7b9 ef3f dcbd a970 c23c 124a 893b
000002b0: e36e 063e 5ae5 c03d faa2 87bd 4db7 593e
000002c0: 19ca fc3c 0e94 b7bc e782 79bd fcb4 5ebe
000002d0: 1666 d53d dff4 7fbd e6c8 f8be 8c1d b83e
000002e0: 25df a33e 5d58 85be e1d9 823c 21ff 213e
000002f0: 90cd 5bbe 5c3d 473e 37d9 bf3e f128 163e
00000300: 19fe 03be 723d a9be fc43 9e3d 525a 323e
00000310: ed51 40bd 5267 1cbe d6eb 703e b931 d93d
00000320: 2db3 843e f2c6 283e 2134 a63e d997 03be
00000330: 0290 063d be37 84be c096 893e 8d6f c13d
00000340: 6d0c 3e3d 9756 8d3e 6e93 dfba e3df a33d
00000350: 84fe 78be 10cf 91be 47d0 33be e3fd 373e
00000360: 1076 093e d22f 0cbe 39b0 543e c8ee a33c
00000370: 970c 98be ae05 e53d e98e a3be e221 f9ba
00000380: 4d01 ca3d f009 8a3e 7029 1f3e 5b13 edbd
00000390: eff3 ac3e fb11 96bd 7c8d db3d 5056 06be
000003a0: 201e c23e 918f 9d3e 1c52 bd3e 8dea 9cbe
000003b0: c0fa 9bbd 1765 bc3e 1bd2 11be fe2f a63e
000003c0: 0f5e 2f3e bfb0 3f3c 1c43 4a3e d091 a33e
000003d0: ee89 8c3d 4522 853d 4694 1d3e d5ba b7bd
000003e0: 89c0 da3e 4c27 3dbe 3ec9 1f3e 57a2 92be
000003f0: b2a0 5e3e 98cb 1f3f db3b f23d eac1 c4be

fc3.bias f4 [20]
-0.11751375 0.20698608 0.09995951 -0.02192797 -0.19028229 -0.20589672 0.18975554 0.19718535
-0.12881598 0.5202764 -0.359181 0.3214769 0.1509149 -0.3185778 0.15217802 0.12770498
-0.14294264 0.0644016 0.059495393 0.2883004
00000000: 0dab f0bd 29f4 533e 92b7 cc3d 49a2 b3bc
00000010: 5cd9 42be 97d6 52be 474f 423e f5ea 493e
00000020: 56e8 03be d630 053f 92e6 b7be 9f98 a43e
00000030: 6f89 1a3e a11c a3be 8ed4 1b3e 18c5 023e
00000040: 8e5f 12be fce4 833d 71b1 733d 1c9c 933e

fc4.weight f4 [20, 20]
-0.18022667 -0.06269985 -0.019798996 -0.11873482 -0.15749894 -0.0022369667 0.20224987 0.16844667
0.02521845 0.09795668 0.35936037 -0.41960588 -0.024623653 0.36007884 0.110849366 -0.03964769
-0.002948627 -0.09800495 0.2603407 -0.14291264 -0.05871031 0.034824964 -0.06866111 0.14285244
0.15399684 0.3117556 -0.18619323 -0.4242497 -0.08664053 -0.11259709 -0.26150906 0.34331474
0.21137306 -0.36917555 -0.2806433 -0.022511858 -0.0608392 -0.08119708 -0.28512532 0.12988958
0.19326507 0.23442157 -0.006976989 0.019795658 -0.037095007 0.15646364 0.03545873 0.041184325
0.15753318 0.046968676 -0.18604968 0.1998535 0.35552624 -0.28402266 0.054860838 -0.30049893
0.19148503 -0.30540445 -0.23331942 0.2822279 0.21980551 -0.11275939 0.041946877 -0.15943585
0.13195187 -0.061783668 0.028155588 0.329125 0.14012653 0.11671702 0.29185963 -0.21141072
-0.46561405 0.40745267 0.41037944 0.15270121 -0.09950722 0.24656731 0.20827706 0.32747564
-0.17531787 -0.25383195 -0.17653254 -0.06968533 0.151209 -0.21269123 0.28321427 0.48071754
0.106698215 0.37038353 0.16932333 -0.1589919 -0.26969656 0.07349737 0.24456136 0.4084295
-0.038973536 0.3440807 0.3721797 0.32020658 0.002986939 -0.047069855 -0.30742025 0.118345335
-0.10256371 -0.043806896 0.15372883 0.13852315 -0.07832172 -0.179989 0.5460389 -0.23076124
-0.0851288 0.45838135 0.20282722 0.3457166 -0.0987866 0.17067374 0.31324846 -0.14283545
0.17583883 -0.03534306 -0.13450938 0.008240818 0.049118064 0.19740266 -0.006737563 0.11796177
0.07487529 0.12360351 -0.07361264 -0.14568247 -0.19858201 -0.10262087 0.026741553 0.07907558
0.16622229 -0.11096486 -0.22598182 -0.1864286 -0.03957199 0.41132158 0.1418982 0.20117024
-0.032305162 -0.29939863 0.024520144 0.20790955 -0.14776027 -0.044024847 -0.43720347 0.24173827
0.4601853 -0.381618 0.05704723 0.06924769 -0.081066184 -0.15602832 0.01934554 -0.07757034
-0.19254671 -0.21741524 -0.13386843 0.19558422 0.019597577 0.09798996 -0.064643815 -0.1519823
0.0028798084 0.1230114 0.03530628 0.02995027 0.08039615 -0.02180933 -0.037656747 0.022220582
0.15602894 -0.17959523 0.054895446 -0.16307189 -0.07764343 0.36400682 0.4196773 0.18090878
0.18008162 -0.005322109 0.28103513 0.28161544 -0.078633405 0.35030296 -0.2633687 -0.0008394097
0.4859614 -0.19976686 0.30155754 -0.06876895 0.06756866 0.1434416 0.025683463 0.23669131
0.16988526 0.37857813 0.12928478 -0.034252807 -0.072388306 0.2549381 0.10120841 -0.029234152
-0.12557787 0.06543632 -0.2433045 0.096798554 0.2256572 -0.4715833 0.17489603 -0.010685881
-0.13853167 -0.0075941216 -0.22523722 0.27390525 -0.21488097 -0.27857697 -0.0716795 0.14541931
-0.15237808 0.16157213 0.1471269 0.41880748 0.1764623 0.27032828 0.25114748 -0.28745726
-0.22442916 0.30122516 0.27165836 0.167628 0.16673012 0.34170365 0.18699141 0.31302127
0.1061689 0.0017036338 0.35756034 0.06340571 0.04064135 -0.24011563 0.061388575 -0.1589097
0.12939575 0.3237203 -0.5364002 0.36719245 0.11548084 -0.41176027 -0.18546437 -0.15383714
00000000: 578d 38be c768 80bd 8131 a2bc 3e2b f3bd
00000010: 6747 21be 139a 12bb 971a 4f3e 497d 2c3e
00000020: ec96 ce3c 839d c83d 15fe b73e 95d6 d6be
00000030: 8bb7 c9bc 415c b83e fe04 e33d 9e65 22bd
00000040: c13d 41bb d2b6 c8bd 604b 853e b157 12be
00000050: 397a 70bd 9fa4 0e3d 329e 8cbd e947 123e
00000060: 59b1 1d3e 6e9e 9f3e 70a9 3ebe 4237 d9be
00000070: 9770 b1bd 4e99 e6bd 84e4 85be f3c6 af3e
00000080: 2e72 583e 9404 bdbe 7bb0 8fbe ca6a b8bc
00000090: 8632 79bd a84a a6bd f2fb 91be c601 053e
000000a0: 47e7 453e 350c 703e 3a9f e4bb 812a a23c
000000b0: eff0 17bd 0138 203e 2c3d 113d e5b0 283d
000000c0: 6150 213e 3a62 403d cf83 3ebe 65a6 4c3e
000000d0: 8907 b63e 6b6b 91be c2b5 603d ffda 99be
000000e0: a714 443e f95d 9cbe 49eb 6ebe 2d80 903e
000000f0: b214 613e 65ee e6bd 7dd0 2b3d 2743 23be
00000100: 641e 073e df10 7dbd 8ca6 e63c 1283 a83e
00000110: 547d 0f3e 5509 ef3d a06e 953e 0d7c 58be
00000120: f764 eebe a39d d03e 411d d23e b55d 1c3e
00000130: 71ca cbbd 247c 7c3e 9546 553e e3aa a73e
00000140: 8786 33be 43f6 81be f2c4 34be 2fb7 8ebd
00000150: 88d6 1a3e bbcb 59be 7601 913e 9c20 f63e
00000160: 9884 da3d e9a2 bd3e 1863 2d3e c6ce 22be
00000170: ab15 8abe ca85 963d 4b6e 7a3e ac1d d13e
00000180: b7a2 1fbd 582b b03e 568e be3e 1ef2 a33e
00000190: 85c0 433b 52cc 40bd 3066 9dbe 0a5f f23d
000001a0: ec0c d2bd dc6e 33bd 176b 1d3e 03d9 0d3e
000001b0: 2367 a0bd 094f 38be 35c9 0b3f ad4c 6cbe
000001c0: 0258 aebd f6b0 ea3e f0b1 4f3e c401 b13e
000001d0: a150 cabd 19c5 2e3e 1a62 a03e 7543 12be
000001e0: 180f 343e e2c3 10bd d4bc 09be 7f04 073c
000001f0: 0630 493d ec23 4a3e c6c6 dcbb f195 f13d
00000200: 3758 993d d623 fd3d 39c2 96bd c92d 15be
00000210: 1559 4bbe e42a d2bd 1a11 db3c 61f2 a13d
00000220: 2d36 2a3e 8b41 e3bd c767 67be 24e7 3ebe
00000230: 3d16 22bd be98 d23e c34d 113e 92ff 4d3e
00000240: 6b52 04bd c74a 99be 78de c83c 3ee6 543e
00000250: 784e 17be 6653 34bd 22d9 dfbe 3d8a 773e
00000260: 689d eb3e 6f63 c3be 5baa 693d bcd1 8d3d
00000270: 0706 a6bd e3c5 1fbe 8a7a 9e3c 33dd 9ebd
00000280: f72a 45be 1aa2 5ebe ce14 09be 3b47 483e
00000290: 198b a03c f6ae c83d fa63 84bd 40a1 1bbe
000002a0: 2bbb 3c3b 67ed fb3d 519d 103d 455a f53c
000002b0: bda6 a43d 7ba9 b2bc f63d 1abd f007 b63c
000002c0: 0dc6 1f3e d0e7 37be 0cda 603d 51fc 26be
000002d0: 8503 9fbd 1a5f ba3e f1df d63e 2740 393e
000002e0: 5167 383e 1665 aebb d6e3 8f3e e62f 903e
000002f0: 8d0a a1bd e95a b33e 43d8 86be d50b 5cba
00000300: efcf f83e af8f 4cbe c065 9a3e bcd6 8cbd
00000310: 7061 8a3d 5be2 123e 2066 d23c 355f 723e
00000320: 67f6 2d3e fed4 c13e 3b63 043e ac4c 0cbd
00000330: 5240 94bd 3f87 823e 5b46 cf3d 767c efbc
00000340: 7c97 00be 7a03 863d d124 79be 523e c63d
00000350: ae12 673e 5e73 f1be f217 333e d513 2fbc
00000360: 3fdb 0dbe 1cd8 f8bb 96a4 66be 4f3d 8c3e
00000370: c209 5cbe a4a1 8ebe b4cc 92bd cde8 143e
00000380: 0009 1cbe 2a73 253e 6fa8 163e ef6d d63e
00000390: 88b2 343e 7868 8a3e 6796 803e 992d 93be
000003a0: c2d0 65be 2f3a 9a3e ce16 8b3e ada6 2b3e
000003b0: 4dbb 2a3e c8f3 ae3e ad7a 3f3e 5344 a03e
000003c0: 156f d93d 774c df3a 2612 b73e dada 813d
000003d0: 8b77 263d dfe0 75be 9672 7b3d 39b9 22be
000003e0: 5280 043e abbe a53e 8651 09bf a600 bc3e
000003f0: 3881 ec3d 3ed2 d2be 5fea 3dbe 7c87 1dbe

fc4.bias f4 [20]
-0.13881065 0.057440326 -0.06086289 0.089742415 0.20084299 -0.37839818 0.006263129 0.34978026
0.030264122 0.36957985 0.2935531 0.10160043 0.35438475 -0.12466932 -0.18449444 0.07141098
-0.07405857 0.16670619 -0.18493506 0.1656445
00000000: 6124 0ebe 8c46 6b3d 5e4b 79bd dfca b73d
00000010: c9a9 4d3e 68bd c1be ef3a cd3b 6616 b33e
00000020: 77ec f73c 9239 bd3e 984c 963e e313 d03d
00000030: eb71 b53e a152 ffbd 1cec 3cbe eb3f 923d
00000040: 05ac 97bd 07b5 2a3e 9e5f 3dbe b69e 293e

fc5.weight f4 [20, 20]
-0.28513888 -0.4168407 0.12478518 0.29282045 0.31696752 -0.6078086 0.21959493 0.15989983
0.10935506 0.13209003 0.0142326 0.14162342 0.28854507 0.1302307 -0.28313574 -0.4485982
0.18343967 -0.022095505 -0.2508797 0.28619325 -0.030687846 0.3397241 0.40078893 -0.0772849
-0.10557147 -0.3775637 0.047094528 0.3687064 0.18771723 -0.049219288 0.3655694 0.020715808
0.32480204 -0.13670027 0.26863974 0.4060295 0.46875495 -0.13196689 -0.04879657 -0.12331145
0.15910175 -0.0062111123 -0.3118008 0.36154088 0.31568214 0.33464792 0.15713368 -0.31771374
0.12739974 -0.02126489 0.08466499 0.39722654 -0.29852745 0.11627841 0.30620277 -0.100993805
0.03931336 0.15357769 0.45476267 0.079701886 -0.13162273 0.17795321 -0.18526994 -0.13568254
-0.009974971 -0.1297657 0.022859152 0.118091695 0.023360046 0.025832217 -0.13984556 -0.056947015
-0.09319611 -0.20630984 0.16602749 0.09418962 -0.02777654 0.036227807 -0.21276422 -0.14769109
0.3258195 0.13273808 -0.16954488 0.13111418 0.28484347 0.4577823 0.13424979 -0.29320684
-0.21192767 -0.21403873 -0.29048103 0.058350928 -0.1457584 -0.19457778 0.08061187 -0.016180636
-0.0056192307 0.019382477 0.29722843 0.11190767 0.15126184 0.029484827 -0.3224666 0.24542916
0.33351052 0.40309995 0.0768716 -0.098564744 0.1299235 0.17554462 -0.09499358 0.35321122
0.0030936073 -0.029281517 0.101569 -0.12719247 -0.14496082 0.13856705 0.35215166 0.29621306
-0.34928194 0.27294102 0.11314232 0.03223272 -0.2273641 -0.30478498 -0.04049666 0.1672513
0.033051476 0.20975114 0.21447971 -0.017527958 0.2391258 0.16233397 0.15551104 0.36851314
0.27253315 0.085119024 -0.177066 -0.025375644 -0.4271853 0.06977196 0.36346838 -0.00081969076
0.08851456 -0.41593167 0.041346382 0.23508161 0.19522008 0.3326513 0.15939872 -0.27740246
0.23190282 0.085715085 0.18803109 0.48291132 0.060359247 0.21906734 -0.22306898 -0.16010392
-0.30974194 -0.43005884 0.0024323098 0.09088704 0.44089136 -0.34482193 -0.15702216 0.15869218
-0.11193305 0.22330394 0.08678888 0.26459807 -0.020643469 -0.09547438 -0.08131945 -0.5088576
0.06337957 0.04034627 -0.28638425 0.21733993 0.27224877 -0.156371 -0.07418066 0.16256341
0.409658 0.44374081 0.039272543 -0.14741376 0.045507923 0.108697735 -0.17555802 0.4075393
-0.19246656 0.04730103 0.10834557 -0.30703288 0.07525761 -0.19679281 0.25254703 0.34329814
-0.36912137 0.14373524 0.44482297 0.07468421 -0.14310388 -0.33399934 0.19833122 0.38087445
0.113728255 0.24587546 0.25018984 0.017327292 0.09590503 0.17582057 0.029509878 0.49877006
0.18465765 0.23964107 -0.24873409 -0.1622659 -0.024332324 0.28320652 0.26083428 -0.35080996
-0.30493525 0.013150073 -0.07913372 0.12965997 -0.22982945 0.024809228 0.18280572 -0.13943812
0.22393999 0.042178653 0.050147515 0.55012393 0.3589138 -0.21352579 -0.15418561 -0.337073
0.25922504 0.0019544342 -0.16070163 0.21509969 -0.03554137 0.3749376 0.19249316 -0.43356657
0.1296303 0.13365169 0.101014845 0.112208284 -0.2926155 -0.090398036 0.10132362 0.19220789
00000000: b9fd 91be 256c d5be 5f8f ff3d 90ec 953e
00000010: 9149 a23e 5899 1bbf 7edd 603e c8bc 233e
00000020: 8cf5 df3d 9c42 073e da2f 693c bb05 113e
00000030: 2ebc 933e 325b 053e 2bf7 90be aaae e5be
00000040: 9cd7 3b3e a201 b5bc 4e73 80be ec87 923e
00000050: 1465 fbbc 51f0 ad3e 3534 cd3e 8c47 9ebd
00000060: db35 d8bd 0750 c1be 31e6 403d 16c7 bc3e
00000070: f238 403e 2a9a 49bd ea2b bb3e 33b4 a93c
00000080: 744c a63e 28fb 0bbe 268b 893e 19e3 cf3e
00000090: a600 f03e 5422 07be eade 47bd b78a fcbd
000000a0: 92eb 223e 9686 cbbb 5ba4 9fbe e31b b93e
000000b0: 17a1 a13e f956 ab3e a7e7 203e 60ab a2be
000000c0: 1475 023e b533 aebc d764 ad3d 4761 cb3e
000000d0: 97d8 98be 6023 ee3d 9cc6 9c3e d7d5 cebd
000000e0: 0c07 213d 7843 1d3e a7d6 e83e be3a a33d
000000f0: 1cc8 06be 5e39 363e 67b7 3dbe 5df0 0abe
00000100: 106e 23bc 4de1 04be 1e43 bb3c 0fda f13d
00000110: 915d bf3c 169e d33c ad33 0fbe 4641 69bd
00000120: 9add bebd e342 53be 1c03 2a3e 7de6 c03d
00000130: a08b e3bc 9c63 143d ddde 59be 553c 17be
00000140: d0d1 a63e 7eec 073e 2c9d 2dbe cc42 063e
00000150: 01d7 913e 7162 ea3e c778 093e 351f 96be
00000160: 9103 59be f82c 5bbe eeb9 94be 6201 6f3d
00000170: b141 15be 663f 47be d617 a53d 418d 84bc
00000180: 8621 b8bb 00c8 9e3c 532e 983e d92f e53d
00000190: 62e4 1a3e 2a8a f13c 581a a5be c851 7b3e
000001a0: e4c1 aa3e 1e63 ce3e db6e 9d3d 50dc c9bd
000001b0: aa0a 053e f8c1 333e fe8b c2bd 1ad8 b43e
000001c0: 1ebe 4a3b cbdf efbc 6803 d03d be3e 02be
000001d0: 9c70 14be 85e4 0d3e 394d b43e 3da9 973e
000001e0: 15d5 b2be edbe 8b3e 29b7 e73d 7506 043d
000001f0: 22d2 68be c70c 9cbe d3df 25bd ed43 2b3e
00000200: fc60 073d 01c9 563e 92a0 5b3e cb96 8fbc
00000210: 65dd 743e e03a 263e 493e 1f3e c1ad bc3e
00000220: 7789 8b3e e252 ae3d ca50 35be 95e0 cfbc
00000230: 08b8 dabe 9ae4 8e3d 8718 ba3e 84e0 56ba
00000240: 1f47 b53d fff4 d4be d35a 293d 3cb9 703e
00000250: c6e7 473e 4551 aa3e 6b39 233e b207 8ebe
00000260: ef77 6d3e 648b af3d 398b 403e 2740 f73e
00000270: 423b 773d 3053 603e 326c 64be 48f2 23be
00000280: 7f96 9ebe ac30 dcbe 6367 1f3b fc22 ba3d
00000290: 83bc e13e 808c b0be 6bca 20be 3480 223e
000002a0: 283d e5bd caa9 643e 5ebe b13d 6679 873e
000002b0: 7e1c a9bc 1288 c3bd d08a a6bd 7e44 02bf
000002c0: 26cd 813d 2142 253d f5a0 92be 5c8e 5e3e
000002d0: 3164 8b3e b81f 20be 08ec 97bd 0677 263e
000002e0: b2be d13e ff31 e33e 3fdc 203d a2f3 16be
000002f0: 8466 3a3d eb9c de3d 7bc5 33be fea8 d03e
00000300: f415 45be babe 413d 48e4 dd3d 6a33 9dbe
00000310: a920 9a3d 0e84 49be d84d 813e c6c4 af3e
00000320: 7afd bcbe 552f 133e d6bf e33e 09f4 983d
00000330: d389 12be f601 abbe 5717 4b3e fa01 c33e
00000340: 5cea e83d c7c6 7b3e e218 803e f7f1 8d3c
00000350: db69 c43d 4f0a 343e b3be f13c ca5e ff3e
00000360: e516 3d3e 7864 753e 26b4 7ebe 0829 26be
00000370: 9554 c7bc 7200 913e 128c 853e 5d9d b3be
00000380: 7920 9cbe 6773 573c dc10 a2bd 95c5 043e
00000390: 6958 6bbe b93c cb3c 6c31 3b3e dec8 0ebe
000003a0: 8650 653e 86c3 2c3d 7b67 4d3d ecd4 0c3f
000003b0: 8dc3 b73e 81a6 5abe d5e2 1dbe d594 acbe
000003c0: 25b9 843e f715 003b f88e 24be 1843 5c3e
000003d0: d493 11bd d2f7 bf3e ed1c 453e 70fc ddbe
000003e0: cebd 043e fddb 083e dfe0 ce3d 75cd e53d
000003f0: b3d1 95be 9b22 b9bd c282 cf3d 25d2 443e

fc5.bias f4 [20]
0.35966027 0.023350721 0.14357558 -0.17955206 -0.0146173015 -0.289201 0.07004044 0.3293924
-0.07527726 0.23992829 0.08258494 0.14385235 -0.24465221 0.10261989 -0.051856853 0.19741853
0.19311135 -0.19278035 0.45453602 -0.23003
00000000: 6425 b83e 034a bf3c 7a05 133e 7fdc 37be
00000010: 687d 6fbc 2712 94be 5d71 8f3d 1fa6 a83e
00000020: f72a 9abd c3af 753e 4b22 a93d 084e 133e
00000030: 1c86 7abe 602a d23d da67 54bd 1528 4a3e
00000040: fbbe 453e 3668 45be f2b8 e83e fc8c 6bbe

fc6.weight f4 [3, 20]
-0.34123722 0.28650048 -0.3893508 -0.16622858 -0.32471856 -0.2194358 0.21622188 0.31748202
-0.41374317 -0.48199907 0.30478272 0.3764439 -0.6167448 -0.5513375 -0.34895858 0.387701
0.19848202 0.24141158 -0.18950348 -0.10491506 0.447735 -0.037505213 -0.0029005916 0.06796135
-0.49370044 0.074721046 -0.062228672 0.2986604 0.4129661 0.068820596 -0.0033651716 -0.36715636
-0.39929247 0.352609 0.22127394 -0.3945694 0.10583804 -0.281811 0.45132354 -0.43849027
-0.113230586 -0.52535033 0.41181257 0.11390207 0.49465868 0.32784262 -0.5207968 -0.25897506
0.07469732 0.34742206 -0.5167145 -0.22688346 0.2681936 0.06940779 0.3417288 -0.5374889
-0.49214655 -0.47090313 -0.34448585 0.53132105
00000000: a5b6 aebe 31b0 923e fd58 c7be d337 2abe
00000010: 8341 a6be c7b3 60be 4569 5d3e 018d a23e
00000020: 25d6 d3be 95c8 f6be 7b0c 9c3e 41bd c03e
00000030: fde2 1dbf 7424 0dbf b3aa b2be bf80 c63e
00000040: df3e 4b3e 9934 773e 330d 42be b5dd d6bd
00000050: 863d e53e 119f 19bd da17 3ebb 522f 8b3d
00000060: 4ec6 fcbe 5907 993d 7ee3 7ebd 04ea 983e
00000070: 4b70 d33e d0f1 8c3d 368a 5cbb ebfb bbbe
00000080: 1070 ccbe 2b89 b43e a395 623e 0005 cabe
00000090: 9dc1 d83d 8849 90be e113 e73e cc81 e0be
000000a0: 70e5 e7bd 5c7d 06bf 19d9 d23e 7d45 e93d
000000b0: e743 fd3e fdda a73e f052 05bf 6198 84be
000000c0: e9fa 983d 4ee1 b13e 6747 04bf 2354 68be
000000d0: ac50 893e ac25 8e3d 14f7 ae3e df98 09bf
000000e0: a2fa fbbe 371a f1be 7360 b0be a804 083f

fc6.bias f4 [3]
-0.10981891 0.23414762 -0.07293711
00000000: bde8 e0bd 65c4 6f3e 0d60 95bd
