models_3val/and_or_4.pth (torch, 12162 bytes, 12 tensors)

fc1.weight f4 [20, 12]
0	0x3e5a3109	0.21307768
1	0x3eac5774	0.3366047
2	0x3e0f3662	0.13985589
3	0x3ed3cb91	0.41366246
4	0x3e05d408	0.13069165
5	0xbdda96dd	-0.10673306
6	0x3e85287c	0.2600745
7	0x3da27125	0.07931737
8	0xba8c9333	-0.0010725021
9	0xbd3f4534	-0.046696857
10	0xbdafa735	-0.08576814
11	0x3e068e9c	0.13140339
12	0x3eb7b158	0.3587749
13	0x3e2f726d	0.17133494
14	0x3f4358be	0.76307285
15	0xbeb88aac	-0.36043298
16	0xbd89802b	-0.06713899
17	0x3d90d30e	0.070715055
18	0xbd00d6d0	-0.03145486
19	0x3cd45d44	0.025923379
20	0x3d8823e8	0.066474736
21	0x3e17fe96	0.1484321
22	0x3cabfb12	0.020993743
23	0x3e8241e1	0.25440887
24	0x3ea6410a	0.32471496
25	0x3d837cb3	0.06420269
26	0x3ec1f3d9	0.37881353
27	0x3eadbb78	0.3393209
28	0x3d836659	0.06416006
29	0x3e3b5918	0.18295705
30	0x3ded785e	0.11595224
31	0x3e303614	0.17208129
32	0xbd41b7bb	-0.04729436
33	0x3b8040c8	0.0039139725
34	0x3e88829e	0.26662153
35	0x3c9a9766	0.01887102
36	0x3eb27987	0.34858343
37	0xbed4b6fc	-0.41545856
38	0xbe8a4182	-0.27003103
39	0x3e23d781	0.16000177
40	0x3be23d07	0.0069042477
41	0x3ebc032c	0.3672117
42	0x3eb324bc	0.34988964
43	0x3e833dd3	0.25633106
44	0x3eb7eeb6	0.3592431
45	0x3e0f1855	0.13974126
46	0xbd004e9f	-0.03132498
47	0x3e8f0f60	0.27941418
48	0x3eb91b55	0.36153665
49	0xbdb546b1	-0.08851374
50	0x3cad49d0	0.02115336
51	0x3ece6916	0.4031455
52	0x3eab68b7	0.3347833
53	0xbce95eba	-0.028487552
54	0xbe003936	-0.12521824
55	0x3e62a997	0.22135006
56	0x3e8c64e4	0.27420723
57	0x3e330d9e	0.17485663
58	0x3dc5c39c	0.0965645
59	0x3d958da5	0.07302407
60	0xbcb6af34	-0.02230034
61	0x3e7de841	0.24795629
62	0x3dcdaf2c	0.10043177
63	0xbe8a3034	-0.269899
64	0x3ed3eb52	0.41390473
65	0x3e40b2b7	0.18818174
66	0x3e0581db	0.13037817
67	0x3e9f11ad	0.31068173
68	0x3d8d7405	0.069068946
69	0xbd6added	-0.05734055
70	0x3e600923	0.21878485
71	0xbdf4b1cc	-0.119479746
72	0x3df90332	0.121588126
73	0x3e33e485	0.17567642
74	0x3ef18cfb	0.47177872
75	0x3e950da5	0.29111972
76	0x3df19e75	0.117978014
77	0x3e82d310	0.25551653
78	0x3dd3c135	0.10339586
79	0xbe03c3c1	-0.12867643
80	0xbd9e0eea	-0.077176884
81	0x3e7dcff7	0.24786364
82	0xbd9d0d7f	-0.0766859
83	0x3eac53b8	0.33657622
84	0x3eb61701	0.35564426
85	0xbe65c7a8	-0.22439444
86	0x3e62b69a	0.2213997
87	0xbe9a914f	-0.30188987
88	0x3c4c6fc6	0.012477821
89	0x3c84f411	0.016229661
90	0x3d1e2b36	0.038615428
91	0x3d08958b	0.03334574
92	0x3d9dd3a6	0.07706384
93	0xbbfb5809	-0.0076704067
94	0x3d99d909	0.07512099
95	0x3dd78008	0.10522467
96	0x3d42a1d4	0.047517613
97	0x3e2e4067	0.17016755
98	0xbea2b836	-0.31781167
99	0xbd47e22f	-0.04879969
100	0x3d680b5f	0.05665147
101	0x3e8b22c4	0.27174962
102	0x3e951812	0.29119927
103	0xbdd9a0b7	-0.10626357
104	0xbd9c2389	-0.07623965
105	0x3e7ebeda	0.24877492
106	0x3e9398ba	0.2882746
107	0x3e9d2f68	0.3070023
108	0xbe4d01e2	-0.2002025
109	0xbe8bc2a2	-0.2729693
110	0xbeaada6e	-0.33369774
111	0x3e91f2c1	0.2850552
112	0x3e94c54e	0.29056782
113	0x3e2d7e7a	0.16942778
114	0xbca216fa	-0.019786347
115	0xbdb16eb7	-0.08663695
116	0x3e730e08	0.23735821
117	0x3deda0d2	0.1160294
118	0xbdb72032	-0.08941688
119	0x3e4b0af1	0.19828393
120	0x3e309599	0.17244567
121	0x3e92b757	0.28655502
122	0x3e5ec3d3	0.21754389
123	0xbdf8b5df	-0.12144064
124	0x3db327cd	0.08747826
125	0x3e351b0c	0.17686099
126	0xbc8ef4de	-0.017450746
127	0x3ddd163e	0.10795258
128	0x3e17ef08	0.14837277
129	0x3e9c310c	0.3050617
130	0xbd9497aa	-0.0725549
131	0x3ebe34ab	0.37149557
132	0xbdce0501	-0.10059548
133	0x3eaa4d5d	0.33262148
134	0xbe67e85a	-0.22647229
135	0xbe6e700e	-0.23284933
136	0x3dbeebf9	0.09322352
137	0x3c4e19ec	0.012579422
138	0xbd446d3e	-0.047955744
139	0x3e39e809	0.1815492
140	0x3ec4dee8	0.38451314
141	0x3e6837d1	0.22677542
142	0xbc9262b8	-0.017869338
143	0x3de994c7	0.1140533
144	0x3e129a87	0.1431676
145	0x3ea40d79	0.3204153
146	0x3ea51fec	0.32250917
147	0xbd9e7029	-0.077362366
148	0x3e45fd76	0.19334969
149	0x3e69926b	0.2280976
150	0xbd8dfda3	-0.06933143
151	0x3df75bd1	0.120780595
152	0x3eb1f1ff	0.3475494
153	0xbd9525a9	-0.07282574
154	0xbd52123d	-0.051286925
155	0x3c296ad0	0.0103404075
156	0x3db2394a	0.08702333
157	0x3ef99bdd	0.48751727
158	0x3e036d8d	0.12834759
159	0x3e805809	0.25067165
160	0x3c0df1a2	0.008663567
161	0xbd350e64	-0.044203177
162	0xbd18157b	-0.03712986
163	0x3c05de2e	0.008170648
164	0x3e7795e8	0.24178278
165	0x3e8f1827	0.27948114
166	0x3e1a5f97	0.15075527
167	0x3db2acd3	0.0872437
168	0x3efb5471	0.4908786
169	0xbe0b0784	-0.13577086
170	0x3ea93761	0.33050063
171	0xbeb84189	-0.359875
172	0x3d866167	0.06561547
173	0x3d835f47	0.06414657
174	0xbbaa41b3	-0.0051958202
175	0x3d97d959	0.07414503
176	0xbb016003	-0.0019741065
177	0x3d26fdca	0.040769376
178	0xbd194fd9	-0.037429664
179	0xbd1f8893	-0.038948607
180	0x3eb2a8e8	0.3489449
181	0x3e9876fd	0.2977828
182	0x3e9d0749	0.3066962
183	0x3eab8aa3	0.3350421
184	0x3e94f17c	0.29090488
185	0x3eb1944b	0.3468345
186	0x3e864666	0.26225585
187	0x3e47b403	0.19502263
188	0x3ea63a9f	0.324666
189	0x3eb68e49	0.3565543
190	0x3dd40045	0.10351614
191	0x3c3bed18	0.011470102
192	0x3e735210	0.23761773
193	0x3e4396e0	0.19100523
194	0x3ee6f9bb	0.45112404
195	0xbeb2356d	-0.34806386
196	0x3e090abe	0.13383004
197	0x3d8593d1	0.06522334
198	0x3e846139	0.25855425
199	0xbdcf3fa3	-0.101195596
200	0x3d4fb912	0.050713606
201	0x3eb93387	0.36172125
202	0xbd3d8b66	-0.04627552
203	0x3e9d51e2	0.30726534
204	0xbeeb4e31	-0.45958093
205	0x3ef5d934	0.48017275
206	0xbce81785	-0.028331527
207	0xbd97060e	-0.07374202
208	0x3cbf34fc	0.023340695
209	0x3e021bee	0.12705967
210	0xbb9cf305	-0.0047897124
211	0x3e045b46	0.12925443
212	0x3c378a41	0.011202396
213	0xbcb5f224	-0.022210188
214	0x3c08ca19	0.008348965
215	0x3c3edb8e	0.011649026
216	0x3ca575cf	0.020197777
217	0xbe82788a	-0.2548259
218	0xbec90165	-0.39258876
219	0x3e474a35	0.19461901
220	0xbcfc1ca0	-0.030775368
221	0xbd977266	-0.07394867
222	0xbd4f27f1	-0.0505752
223	0x3c7957d5	0.015218695
224	0xbd736d40	-0.05943036
225	0x3e540a6c	0.207071
226	0x3d9d25d7	0.07673233
227	0x3e05ca85	0.13065536
228	0x3e9be933	0.30451354
229	0xbe3fa0fe	-0.18713757
230	0xbe890c45	-0.26767173
231	0x3e3f3108	0.18671048
232	0x3d0b721a	0.034044363
233	0x3eb1d0c5	0.3472959
234	0xbd88fabb	-0.06688448
235	0x3eaa5582	0.33268362
236	0x3d3c1526	0.045918606
237	0x3e2c33bf	0.16816615
238	0xbd86b514	-0.06577507
239	0x3d1c6617	0.038183298

fc1.bias f4 [20]
0	0x3e5d8772	0.216337
1	0x3f043415	0.5164197
2	0xbe23eb7e	-0.16007802
3	0x3e4d493f	0.20047472
4	0xbe07f18e	-0.1327574
5	0x3de05496	0.109536335
6	0xbe962bdc	-0.29330337
7	0xbdc80172	-0.09765901
8	0x3dbadaab	0.09123739
9	0x3e0dd3dc	0.13850349
10	0xbe201d03	-0.15636067
11	0x3d947184	0.07248214
12	0xbd90a523	-0.07062747
13	0xbe214362	-0.15748361
14	0xbd3ed5b0	-0.046590507
15	0x3dc40a00	0.0957222
16	0x3cdd932f	0.027047722
17	0xbdb5e94b	-0.08882388
18	0x3e935dcf	0.28782508
19	0x3ebf541a	0.37368852

fc2.weight f4 [20, 20]
0	0x3e0c71ab	0.13715236
1	0x3e5fe566	0.21864852
2	0x3e9fcc19	0.31210402
3	0x3e5da05d	0.21643205
4	0x3e405a39	0.18784417
5	0x3d8c2d14	0.068445355
6	0x3ea1c955	0.31598917
7	0xbe947f43	-0.29003343
8	0x3d2bf0d8	0.041977733
9	0xbe34d121	-0.17657901
10	0x3ebc330b	0.36757693
11	0xbd9aa681	-0.07551289
12	0x3e98c0c6	0.29834574
13	0x3eacd8d9	0.33759192
14	0x3d5261ae	0.051362686
15	0x3e7fa607	0.24965678
16	0x3e84ed6c	0.2596239
17	0xbdcef519	-0.101053424
18	0xbe802b03	-0.25032815
19	0x3cc62e59	0.024192022
20	0xbe4b66c7	-0.19863425
21	0xbc9afb60	-0.018918693
22	0xbd5b77d6	-0.05358108
23	0xbbf5c6d1	-0.0075005074
24	0x3e325329	0.17414536
25	0x3c115665	0.008870696
26	0x3dab7fbf	0.08373975
27	0xbdd46141	-0.10370112
28	0xbcc59340	-0.024118066
29	0x3dd8a28c	0.10577878
30	0x3e48a9ec	0.1959607
31	0xbd2b0a20	-0.041757703
32	0xbc6ab40a	-0.014325151
33	0xbdb494e7	-0.08817463
34	0x3e3f6267	0.18689881
35	0xbe5f632f	-0.2181518
36	0xbb1a0d0d	-0.0023506314
37	0xbde40ed0	-0.11135638
38	0xbda02f39	-0.07821507
39	0x3cebccf0	0.028784245
40	0x3e1f9176	0.15582833
41	0x3de93cfd	0.11388586
42	0x3c6c30c9	0.014415928
43	0xbdbb8ba3	-0.09157493
44	0x3e6e11eb	0.23249023
45	0x3c29f5f4	0.010373581
46	0x3eaae889	0.33380535
47	0xbd3e7e8c	-0.046507403
48	0xbdf4b315	-0.1194822
49	0xbda80455	-0.08203951
50	0x3e872903	0.26398477
51	0xbc011712	-0.007879036
52	0x3ec122a5	0.37721744
53	0xbc8c0aeb	-0.01709505
54	0xbc526c6a	-0.012843231
55	0x3e49ad55	0.19695027
56	0x3eb888ca	0.36041862
57	0xbe7b60f8	-0.2454871
58	0xbd3e71e6	-0.04649534
59	0x3e20a68c	0.15688533
60	0x3c437563	0.011929843
61	0xbe13ced5	-0.14434369
62	0xbd95bff6	-0.07312004
63	0xbe193413	-0.14961271
64	0x3d66be20	0.05633366
65	0xbe226f48	-0.15862763
66	0xbd86e89d	-0.06587336
67	0xbe54781e	-0.20748946
68	0xbde18a03	-0.11012652
69	0xbe33d0eb	-0.17560165
70	0xbc6d057e	-0.0144666415
71	0x3aee85a6	0.0018197789
72	0xbc1aac67	-0.009440518
73	0xbc7a12a0	-0.01526323
74	0xbd87253d	-0.065988995
75	0xbdb47ac5	-0.08812479
76	0xbda657ce	-0.08122216
77	0x3cf727f2	0.030170415
78	0x3e26f5af	0.16304658
79	0x3dfa792a	0.122301415
80	0x3e4ddf3c	0.20104688
81	0x3c587592	0.013211625
82	0xbd5b079b	-0.05347405
83	0xbec3743e	-0.38174623
84	0xbe90d8b6	-0.28290337
85	0x3d438c47	0.0477412
86	0x3dbe1d16	0.092828915
87	0x3d2ae7e3	0.04172505
88	0x3d27e461	0.040989283
89	0xbd767afd	-0.060175885
90	0x3e5cac4c	0.21550101
91	0x3e712ff5	0.2355345
92	0x3cdab1b2	0.02669606
93	0x3e8b195a	0.2716778
94	0x3db662e1	0.089055784
95	0x3e02883d	0.12747283
96	0x3baca81e	0.0052690646
97	0x3ef9c293	0.4878126
98	0xbec64aef	-0.38729045
99	0xbe78e21d	-0.24305005
100	0x3bb4b7c1	0.0055150692
101	0x3edbb385	0.429104
102	0x3ea5b1cd	0.32362214
103	0xbe8b3bd5	-0.27194086
104	0x3d7057d1	0.0586775
105	0x3e14721d	0.14496656
106	0x3e8a84ce	0.27054447
107	0xbeda830e	-0.42678112
108	0x3c45e5bd	0.0120787
109	0xbeb462c3	-0.352316
110	0x3edc8a54	0.43074286
111	0xbe82f058	-0.25573993
112	0x3ecfb023	0.4056407
113	0x3e2d9ff4	0.16955549
114	0xbe40b363	-0.1881843
115	0x3e38dbe9	0.18052639
116	0x3d881de6	0.06646328
117	0xbedba7f7	-0.42901585
118	0xbe840db7	-0.25791714
119	0xbe0debb7	-0.1385945
120	0xbe9d45a5	-0.30717197
121	0x3e94b97c	0.29047763
122	0xbe63cab1	-0.2224529
123	0xbe14123c	-0.14460081
124	0xbeaada5c	-0.3336972
125	0x3e8721a1	0.26392844
126	0xbdda4bf9	-0.10659022
127	0x3e9da067	0.3078644
128	0x3ddb76a0	0.10715985
129	0xbe71326a	-0.23554388
130	0x3e16ec73	0.14738636
131	0x3ea1ca27	0.31599542
132	0x3e4331f7	0.19062029
133	0xbe9a68ae	-0.3015799
134	0x3f1ae095	0.60498935
135	0x3d5d3d84	0.054013744
136	0x3ea20c06	0.31649798
137	0x3de71ea0	0.11285138
138	0xbc9bcb02	-0.0190177
139	0xbe669dc0	-0.22521114
140	0x3e2f1237	0.17096792
141	0x3ec3e1ef	0.3825831
142	0x3eb50bdb	0.35360608
143	0x3e35f6ee	0.17769977
144	0x3cd181e8	0.02557464
145	0x3e2d8d1d	0.16948362
146	0x3d6f8272	0.05847401
147	0xbe9a2db5	-0.30112997
148	0x3e20c71c	0.15700954
149	0x3d35eafd	0.044413555
150	0x3e0f1574	0.13973027
151	0x3e9c4ea6	0.30528754
152	0x3eda7964	0.4267074
153	0x3eabeaaa	0.33577472
154	0xbe260eba	-0.16216555
155	0x3eaaa460	0.33328533
156	0x3e0d8b65	0.13822706
157	0xbcee08a7	-0.02905686
158	0x3db82ae9	0.089925595
159	0x3e3cc9d4	0.18436366
160	0xbe1ca18f	-0.15296005
161	0x3eb3b1aa	0.35096484
162	0x3c2f5e18	0.010703586
163	0xbe30b501	-0.17256548
164	0xbe470ef7	-0.19439302
165	0x3e927d34	0.28611147
166	0xbe3b5800	-0.18295288
167	0x3db2ccb3	0.087304495
168	0xbc289c75	-0.0102912085
169	0xbd15d526	-0.036580227
170	0x3e35eec0	0.17766857
171	0x3e85351b	0.2601708
172	0x3e09ac14	0.13444549
173	0xbce3b87c	-0.02779793
174	0x3ee7f0de	0.45300955
175	0xbe7b08e0	-0.24515104
176	0x3eaf1b86	0.34200686
177	0x3e5a2d4b	0.2130634
178	0xbd8a787d	-0.067612626
179	0xbe2c37ba	-0.16818133
180	0xbe06353d	-0.13106246
181	0xbe9d2a25	-0.30696216
182	0xbd62b621	-0.055349473
183	0x3d2abf75	0.041686494
184	0xbc5b3371	-0.013378964
185	0x3d2bd715	0.041953165
186	0xbe7a4460	-0.24440145
187	0x3eb55812	0.35418755
188	0x3e2d303c	0.16912931
189	0x3e41034f	0.18848918
190	0xb7ebf985	-2.8130375e-05
191	0x3e7c28f0	0.24624991
192	0xbe1f34ec	-0.15547532
193	0x3e20894b	0.15677373
194	0x3e8a3728	0.26995206
195	0x3e5f8b9c	0.218306
196	0x3d59c8b1	0.05316991
197	0x3e1f052d	0.15529318
198	0x3d95040c	0.072761625
199	0x3e476d16	0.19475207
200	0x3da11428	0.078651726
201	0x3e55409c	0.20825428
202	0x3c1ad474	0.009450067
203	0xbe70ef9d	-0.23528905
204	0xbd503b17	-0.050837602
205	0x3da2167a	0.07914443
206	0x3c76d61b	0.015065695
207	0x3d283e35	0.04107495
208	0xbdc716fd	-0.097211815
209	0xbe8c72d7	-0.27431366
210	0xbb1debe1	-0.0024096894
211	0x3e35f364	0.17768627
212	0x3e479e62	0.19494012
213	0xbcdff6f3	-0.027339434
214	0xbeaa8b28	-0.33309293
215	0x3e717301	0.23579027
216	0x3dabec87	0.083947234
217	0xbf00e861	-0.5035458
218	0xbe67e9c8	-0.22647774
219	0x3cefb096	0.029259007
220	0x3e129d07	0.14317714
221	0x3e3cd0ac	0.18438977
222	0x3e9ff663	0.31242666
223	0xbdb22ac6	-0.08699565
224	0xbc99c084	-0.018768556
225	0x3ec17ff2	0.37792927
226	0x3d47f398	0.048816293
227	0xbc147e1d	-0.009063271
228	0x3e90c975	0.282787
229	0xbe4420c4	-0.19153124
230	0x3ec6424c	0.38722456
231	0x3d066eb8	0.032820433
232	0x3dff8952	0.12477364
233	0x3dd7cdf2	0.10537328
234	0xbe9d5dc3	-0.30735597
235	0x3db39c35	0.087700285
236	0x3e9cbcb1	0.3061271
237	0xbc005f1d	-0.007835177
238	0xbd760bb9	-0.060069773
239	0x3c1385fa	0.0090041105
240	0x3d9171a3	0.071017526
241	0xbd07a4ad	-0.03311603
242	0x3e04be5c	0.12963241
243	0x3e661043	0.22467141
244	0x3ea828e4	0.32843697
245	0x3e90a64a	0.28251868
246	0xbdec3e40	-0.11535311
247	0x3e343e29	0.17601837
248	0x3ebaf17c	0.36512363
249	0x3eafb792	0.3431974
250	0x3e13e061	0.14441063
251	0xbd19bb6c	-0.037532255
252	0xbda778ee	-0.081773624
253	0xbdd60af6	-0.104513094
254	0x3ed1a2b6	0.4094445
255	0xbd2e43b5	-0.04254504

fc2.bias f4 [20]
0	0x3e233d4e	0.15941355
1	0xbe28f468	-0.16499484
2	0x3cb9eaa3	0.022694891
3	0xbe25bffa	-0.16186514
4	0x3d0c84f8	0.034306496
5	0xbe2190e2	-0.15777925
6	0x3d6a48fe	0.057198517
7	0x3e999c0e	0.30001873
8	0xbc8fbc0e	-0.017545726
9	0x3bd58671	0.006516271
10	0x3e97de40	0.2966175
11	0x3e8c60c6	0.27417582
12	0x3e375117	0.17902027
13	0xbd8d9aff	-0.06914329
14	0x3eb78fac	0.358518
15	0x3dfcc35e	0.12341951
16	0xbe1a4bee	-0.15068027
17	0x3d9ed119	0.07754726
18	0x3eb5a87b	0.35480103
19	0xbe3b2dec	-0.18279237

fc3.weight f4 [20, 20]
0	0xbdf627c7	-0.12019306
1	0xbda92c91	-0.082604535
2	0x3de38e13	0.11111083
3	0xbe508182	-0.20361903
4	0x3d2910a7	0.041275647
5	0xbe49a70e	-0.19692633
6	0x3d0cae25	0.034345765
7	0xbe4491d5	-0.19196256
8	0x3e157640	0.1459589
9	0x3e77557f	0.24153708
10	0xbe408755	-0.18801625
11	0x3c937ca9	0.018003779
12	0xbe07277b	-0.13198654
13	0xbd111a21	-0.03542531
14	0x3d9a54af	0.07535683
15	0xbc40ae70	-0.011760339
16	0xbdf361b3	-0.11883869
17	0xbdc3e20e	-0.09564601
18	0xbe0d8451	-0.13820006
19	0x3d15d426	0.036579274
20	0x3c9b85f3	0.01898477
21	0x3b0622d9	0.0020467548
22	0xbe51c624	-0.20485741
23	0x3cbb3385	0.022851715
24	0x3e33439c	0.1750626
25	0xbe6ce59a	-0.23134461
26	0xbe1964d7	-0.14979874
27	0xbe5adeae	-0.21374008
28	0x3e0cacbc	0.13737768
29	0xbddc9557	-0.10770672
30	0xbe06dca1	-0.13170101
31	0xbe4ac84d	-0.19802971
32	0x3e41abf2	0.18913248
33	0xbd96d7b6	-0.07365362
34	0xbd3b97bf	-0.045799013
35	0xbe2d66ce	-0.16933748
36	0xbd18db22	-0.037318356
37	0xbbd07113	-0.0063611357
38	0x3e01b9e6	0.12668571
39	0xbdaec246	-0.085331485
40	0x3bc566c4	0.0060242135
41	0x3daf50b1	0.085603125
42	0x3e222a0d	0.15836354
43	0x3e5b4f88	0.21417058
44	0x3e3def62	0.18548349
45	0xbd50f868	-0.05101815
46	0xbe2af546	-0.16695127
47	0x3d977a43	0.073963664
48	0x3ce896da	0.028392244
49	0x3d58a037	0.052887168
50	0xbdc68488	-0.09693247
51	0xbd852c23	-0.06502559
52	0xbe69dfec	-0.22839326
53	0x3d12499f	0.03571474
54	0x3caba6e5	0.020953605
55	0x3daba8d8	0.08381814
56	0x3e347186	0.17621431
57	0xbdf5cb1a	-0.12001629
58	0xbbb6fd27	-0.0055843773
59	0xbe5ef37b	-0.21772568
60	0x3e7c812b	0.24658649
61	0xbe54e53c	-0.20790571
62	0x3e10ca76	0.14139733
63	0x3dda9f34	0.10674897
64	0x3e4bfa1a	0.19919625
65	0xbd7ad00f	-0.061233576
66	0x3e97305e	0.2952909
67	0x3eaa80dc	0.33301437
68	0x3eec94c4	0.4620725
69	0x3e9f5ef4	0.3112713
70	0xbed8ee3c	-0.42369258
71	0x3c7a7049	0.01528556
72	0x3eaf6d23	0.34262952
73	0x3e632a35	0.2218407
74	0x3ec2ab77	0.38021442
75	0x3bef58bc	0.007304279
76	0x3b97b23d	0.004629402
77	0x3ec13422	0.37735087
78	0x3e472e77	0.19451319
79	0xbdebb576	-0.1150922
80	0x3dd0f012	0.1020204
81	0xbe1d4b0f	-0.15360664
82	0x3eb21347	0.34780332
83	0xbe3fbf2f	-0.18725275
84	0xbeac50bf	-0.33655354
85	0x3ec158e4	0.3776313
86	0xbef3873a	-0.47564107
87	0x3e5c6aa6	0.21525058
88	0xbecfbda1	-0.40574363
89	0xbe3e23a4	-0.18568283
90	0x3e650263	0.22364192
91	0x3c167218	0.0091824755
92	0xbe548e54	-0.20757419
93	0xbeb2d99d	-0.3493165
94	0x3d979d4d	0.074030496
95	0xbdb4cc9f	-0.08828091
96	0xbcabd40a	-0.020975132
97	0x3d8a4b5c	0.06752655
98	0xbeb4149a	-0.35171968
99	0x3e1e1c76	0.15440544
100	0x3e7f7034	0.24945146
101	0x3d9c77af	0.07640015
102	0x3e313da8	0.17308676
103	0x3c111b04	0.008856539
104	0xbec36bf0	-0.38168287
105	0x3e8fac56	0.2806117
106	0xbef4a764	-0.4778396
107	0x3e193caf	0.14964555
108	0xbf094ff1	-0.53637606
109	0xbe316d6b	-0.17326896
110	0x3dbeb462	0.09311749
111	0x3d85b6d8	0.06529015
112	0x3e675048	0.22589219
113	0xbf045ed9	-0.51707226
114	0xbdb4465d	-0.08802483
115	0xbe12c168	-0.14331591
116	0x3e5ec0f6	0.21753296
117	0x3b84472d	0.004036805
118	0xbde84c1a	-0.1134264
119	0x3c67511e	0.014118461
120	0x3eb4d0dc	0.35315597
121	0x3e2b1873	0.16708545
122	0x3e66805f	0.22509907
123	0x3e61e519	0.2206005
124	0xbe9d633c	-0.30739772
125	0x3e3d05f1	0.18459298
126	0xbec2b867	-0.38031313
127	0x3dae0e83	0.08498862
128	0xbe264679	-0.1623782
129	0xbda9ca2d	-0.08290515
130	0x3ea894e7	0.32926103
131	0x3ebac732	0.364801
132	0x3cdd33be	0.027002212
133	0xbf12bb0a	-0.5731665
134	0x3e34e0f5	0.1766394
135	0xbe23c115	-0.15991624
136	0x3e5cf41d	0.21577497
137	0x3eaf248d	0.34207574
138	0x3d9bd12d	0.076082565
139	0x3d68bdaf	0.05682152
140	0x3e1a5cda	0.15074483
141	0x3d9e38a9	0.07725651
142	0xbd60281b	-0.054725748
143	0x3dbc6d5e	0.09200548
144	0x3e4bf1af	0.19916414
145	0xbe2d4774	-0.16921788
146	0x3de26719	0.110548206
147	0xbe2417b9	-0.16024674
148	0xbc1dc6f2	-0.009629952
149	0xbc273234	-0.01020484
150	0x3e18f2f3	0.14936428
151	0xbdba5628	-0.09098464
152	0xbe072b82	-0.1320019
153	0xbe47c081	-0.19507028
154	0x3cdeb954	0.02718798
155	0x3e248a2d	0.16068335
156	0xbc51d2b6	-0.012806585
157	0xbcd129e9	-0.02553268
158	0xbe690aef	-0.22758077
159	0x3e36afd4	0.1784051
160	0xbe16270d	-0.14663334
161	0xbc5f57ec	-0.013631802
162	0xbdc1b7ab	-0.0945886
163	0xbd726e0a	-0.059186973
164	0xbde514cc	-0.11185607
165	0xbe286238	-0.16443717
166	0xbd87fae5	-0.06639651
167	0x3d0e3b92	0.03472478
168	0x3e22d891	0.15902926
169	0x3e261a1c	0.16220897
170	0xbe47a0dd	-0.19494958
171	0xbe0248eb	-0.12723128
172	0xbe646099	-0.22302474
173	0x3d458bc7	0.048229005
174	0x3e091cb6	0.13389859
175	0xbe0db7ac	-0.13839597
176	0x3dc173a6	0.09445886
177	0xbdbd8d8a	-0.09255512
178	0x3e2dc8e8	0.16971171
179	0x3d873232	0.06601371
180	0xbe399d54	-0.18126422
181	0x3dc2a105	0.09503368
182	0xbba95eb3	-0.0051687597
183	0x3e3138d0	0.17306828
184	0x3efa4d73	0.48887214
185	0xbeb199aa	-0.3468755
186	0x3eac3dbf	0.3364086
187	0xbe231d23	-0.15929084
188	0x3f05d60c	0.52279735
189	0x3de95dc0	0.113948345
190	0xbe3ebdb6	-0.18627056
191	0x3c2c67e1	0.010522814
192	0x3e820d7e	0.2540092
193	0x3f18c286	0.5967182
194	0x3ea2bb94	0.31783736
195	0xbdf4c01f	-0.11950707
196	0x3e4e9a6c	0.20176095
197	0x3ea4673e	0.32110018
198	0x3e9425ac	0.2893499
199	0xbe836219	-0.2566078
200	0x3e9b0081	0.30273822
201	0x3e058a30	0.13040996
202	0x3e0c3567	0.13692246
203	0xbdf682a5	-0.12036637
204	0xbde7cc24	-0.113182336
205	0x3ef572f2	0.4793926
206	0xbeab4cd2	-0.33457047
207	0x3e50bd5c	0.20384735
208	0xbf005ae4	-0.5013869
209	0xbd48a4e8	-0.04898539
210	0x3edf397d	0.43598548
211	0x3ec11839	0.37713793
212	0xbe0a3f9a	-0.13500825
213	0xbf0a6eab	-0.54075116
214	0xbe765aaa	-0.24058023
215	0x3e157ddc	0.14598793
216	0xbe467d56	-0.1938375
217	0xbdbd0bbe	-0.09230755
218	0xbe7d8a38	-0.24759758
219	0x3d09d33d	0.03364872
220	0x3d823ff1	0.06359852
221	0x3e06ad5f	0.13152073
222	0xbd373b07	-0.044734027
223	0x3dffb715	0.12486092
224	0x3db5a105	0.08868603
225	0x3e31b089	0.17352499
226	0xba509109	-0.0007956182
227	0xbe187003	-0.14886479
228	0x3e197d93	0.14989309
229	0xbda89bf0	-0.08232868
230	0x3ddb73b7	0.1071543
231	0xbe2389d7	-0.1597055
232	0x3dbd380d	0.092392065
233	0x3deb4277	0.114872865
234	0xbd05a755	-0.032630283
235	0x3e446147	0.19177733
236	0xbe57056e	-0.20998165
237	0xbe622a60	-0.22086477
238	0x3db244b9	0.08704514
239	0x3dbfd322	0.09366442
240	0xbc80c990	-0.015721112
241	0x3afe2060	0.0019388311
242	0x3ca12e69	0.01967545
243	0xbc195b6d	-0.0093601765
244	0xbc837b87	-0.016050113
245	0xbe5701ab	-0.2099673
246	0xbd1abf66	-0.037780188
247	0xbd2efd09	-0.042721782
248	0x3d0667c0	0.032813787
249	0xbe35722e	-0.17719337
250	0xbd3363a9	-0.043796215
251	0xbe03a8d7	-0.12857376
252	0xbe766e58	-0.2406553
253	0x3e00b59b	0.12569277
254	0x3ddc8c33	0.107689284
255	0x3d67af0a	0.056563415

fc3.bias f4 [20]
0	0x3dbc2d5c	0.09188339
1	0x3ddded51	0.1083628
2	0xbe0dacf6	-0.1383551
3	0x3e9471cf	0.2899308
4	0xbe91168c	-0.28337514
5	0x3e776b2a	0.24161974
6	0x3dfeb822	0.12437464
7	0xbd762f67	-0.0601038
8	0xbe5219d5	-0.20517667
9	0x3e8b4b0a	0.27205688
10	0x3adbd6c6	0.0016772381
11	0xbe376f31	-0.1791351
12	0x3dacbbb2	0.084342375
13	0x3e7a557a	0.24446669
14	0x3de7ca9d	0.11317942
15	0xbdb11a00	-0.08647537
16	0xbc25a39b	-0.010109807
17	0xbdf2c5f1	-0.118541606
18	0x3da391b6	0.079867765
19	0x3e7e8660	0.24855947

fc4.weight f4 [20, 20]
0	0xbd30554b	-0.04305009
1	0xbe30c7d6	-0.17263731
2	0xbc00bb0f	-0.007857098
3	0xbe437acc	-0.19089812
4	0xbe3d2ab3	-0.1847332
5	0x3da16162	0.078799024
6	0x3d1584ed	0.03650372
7	0xbdc33ad1	-0.09532703
8	0xbe4c61ea	-0.19959226
9	0x3e3ef847	0.18649398
10	0x3da5d456	0.080971405
11	0x3e1f54bf	0.15559672
12	0xbe5d9988	-0.21640599
13	0xbe329a1e	-0.17441604
14	0x3dc5e01f	0.09661888
15	0x3d95a52f	0.07306897
16	0xbdf0c191	-0.1175567
17	0xbdb4f608	-0.08835989
18	0xbd5acc14	-0.05341728
19	0xbe11e977	-0.14249216
20	0x3c3d9627	0.011571444
21	0x3d694a1e	0.05695545
22	0x3d466d00	0.048443794
23	0x3dde87b3	0.10865726
24	0xbe1bebea	-0.15226713
25	0xbd7d5a5a	-0.061853744
26	0x3dcfcc9b	0.10146447
27	0xbe04a4c8	-0.12953484
28	0x3de5866a	0.11207278
29	0x3efd89ef	0.49519297
30	0x3e162e75	0.1466616
31	0xbe4323b7	-0.19056593
32	0xbdd95a1f	-0.10612892
33	0x3e9a9768	0.3019364
34	0x3e8b92a3	0.27260312
35	0x3d7f09f5	0.062265355
36	0x3ec83fbb	0.39111122
37	0x3d6cecd7	0.057843056
38	0x3edd4a3f	0.43220708
39	0x3ec7e73b	0.39043602
40	0xbe1982d3	-0.14991312
41	0xbdac9fca	-0.08428915
42	0xbe4604dd	-0.19337793
43	0x3e68e914	0.22745162
44	0xbe86994c	-0.2628883
45	0xbb3ca2e3	-0.0028783611
46	0x3dbd1937	0.09233325
47	0x3e42fcea	0.19041792
48	0x3e47e37c	0.19520372
49	0x3f06f28f	0.52713865
50	0xbe499afc	-0.19688028
51	0x3e23461c	0.15944713
52	0x3c78fc54	0.015196878
53	0x3e907102	0.28211218
54	0x3e16a02c	0.14709538
55	0xbe2d95a8	-0.1695162
56	0x3ea9bd14	0.33152068
57	0x3e65f8e6	0.22458228
58	0x3e0dcd8a	0.13847938
59	0x3ea8945a	0.32925683
60	0xbdfd7a62	-0.12376858
61	0x3ac4a084	0.0015001451
62	0x3e575c1d	0.21031232
63	0x3e014a86	0.12626085
64	0xbebd8381	-0.37014392
65	0xbe1a14ba	-0.15046969
66	0x3e4227a0	0.18960428
67	0xbe2221d5	-0.15833218
68	0xbd28c164	-0.041200057
69	0x3ea8331c	0.32851493
70	0xbe6e552b	-0.23274677
71	0xbd89f343	-0.067358516
72	0x3e55b5c3	0.20870118
73	0x3d655ac4	0.055994764
74	0x3e376cde	0.17912623
75	0xbe338fd7	-0.1753534
76	0x3e55343a	0.20820704
77	0xbda9419d	-0.08264468
78	0x3ec4d419	0.38443068
79	0x3ec5fd9d	0.38670054
80	0xbdc6cb17	-0.09706705
81	0x3dc624af	0.096749656
82	0xbceefe10	-0.02917388
83	0x3df5af80	0.119963646
84	0x3ea9b3bf	0.33144948
85	0x3e3e2291	0.18567874
86	0x3e2f13fa	0.17097464
87	0x3e4ea5be	0.20180413
88	0xbe47cd05	-0.19511802
89	0xbe789a7e	-0.24277684
90	0x3e45010d	0.19238682
91	0x3e16ce0e	0.14727041
92	0x3cf93b21	0.030423703
93	0xbe606cbc	-0.21916479
94	0xbd810f2b	-0.06301721
95	0xbd79a0b2	-0.060944267
96	0xbdd17ab3	-0.10228481
97	0x3e8be797	0.27325127
98	0xbd304d5f	-0.043042537
99	0xbedc14df	-0.42984673
100	0xbe5d5499	-0.21614303
101	0xbd417f80	-0.047240734
102	0xbd6c286e	-0.057655744
103	0xbda92b2b	-0.08260187
104	0x3eccc45f	0.3999357
105	0x3a9d64f8	0.001200824
106	0x3e50863b	0.20363705
107	0xbd617c4a	-0.055050172
108	0xbda9fe98	-0.08300513
109	0xbea45c33	-0.32101592
110	0x3e569242	0.2095423
111	0x3e356cba	0.17717257
112	0xbe3362c5	-0.17518146
113	0x3d6fe2be	0.058565848
114	0xbddeeaa1	-0.10884596
115	0x3d1801ed	0.03711121
116	0xbd0fb74e	-0.035086922
117	0x3dbfd300	0.09366417
118	0xbe72d550	-0.23714185
119	0xbc5f3865	-0.013624285
120	0x3e3cb12b	0.18426959
121	0xbe1f4ece	-0.15557405
122	0x3caaf025	0.020866463
123	0x3d44255d	0.047887195
124	0x3e9dacf3	0.30796012
125	0x3eaab429	0.33340576
126	0x3e1f49b6	0.15555462
127	0xbdf59b6c	-0.11992535
128	0x3e1d8224	0.15381676
129	0xbe8a401c	-0.27002037
130	0x3e85aaa9	0.26106766
131	0xbd2be90a	-0.04197029
132	0xbe5244da	-0.20534077
133	0x3e08ddb2	0.1336582
134	0xbdc1e645	-0.094677486
135	0xbe23624e	-0.15955469
136	0xbf0ba25d	-0.5454462
137	0x3e19050a	0.14943328
138	0xbedf0bc7	-0.43563673
139	0xbeb93593	-0.36173686
140	0xbda09a6e	-0.07841955
141	0x3d0fb332	0.035083003
142	0x3df6e831	0.12056006
143	0x3e2bdf19	0.16784324
144	0xbd4e013d	-0.05029415
145	0xbe452d23	-0.192555
146	0x3d643c7d	0.05572175
147	0x3db03460	0.0860374
148	0x3e60838e	0.21925184
149	0x3edb84b5	0.42874685
150	0xbe12b6f9	-0.14327611
151	0xbdd9a154	-0.10626474
152	0x3db72a64	0.08943632
153	0xbb0d9f1a	-0.0021609724
154	0x3e3e557d	0.18587299
155	0x3cdd20e9	0.026993232
156	0x3ec5cad6	0.38631314
157	0xbe47d484	-0.19514662
158	0x3eb9090c	0.36139715
159	0xbbdf2715	-0.006810079
160	0x3e63647b	0.22206299
161	0xbdf086bb	-0.11744448
162	0x3b98467e	0.004647075
163	0xbd7dc4c3	-0.061955225
164	0x3d3eca19	0.046579454
165	0xbe25ea9a	-0.16202775
166	0xbde3256c	-0.11091122
167	0x3e4757e3	0.1946712
168	0x3cffc308	0.031220928
169	0x3daa232a	0.08307488
170	0xbd15300a	-0.036422767
171	0x3d3433df	0.04399478
172	0xbcdfa042	-0.027298097
173	0x3ddd632b	0.108099304
174	0x3d035ea8	0.032072693
175	0xbe349a4f	-0.17636989
176	0xbdbe75d3	-0.09299817
177	0x3ce83ad7	0.02834837
178	0xbe41f61e	-0.18941543
179	0xbd218510	-0.03943354
180	0x3d832493	0.0640346
181	0xbe635ada	-0.22202626
182	0xbe017072	-0.1264055
183	0xbe17a82c	-0.14810246
184	0x3e071289	0.13190664
185	0xbdddc73c	-0.108290166
186	0x3e50002f	0.2031257
187	0xbdd99f1e	-0.10626052
188	0xbe356535	-0.17714389
189	0xbe47c8bb	-0.19510166
190	0xbe578c24	-0.21049553
191	0xbbb46583	-0.005505265
192	0x3e578058	0.21045053
193	0x3de7a335	0.11310426
194	0xbdda92b2	-0.10672511
195	0x3de20ff4	0.11038199
196	0x3e436290	0.19080567
197	0xbe41f66f	-0.18941663
198	0x3e5a708f	0.21332
199	0xbe12f5f6	-0.14351639
200	0x3dafec41	0.08589984
201	0xbe002920	-0.12515688
202	0x3e348eef	0.1763265
203	0xbd8485b9	-0.06470818
204	0x3e5c03ee	0.21485874
205	0xbe29e6b5	-0.16591914
206	0xbe3b8584	-0.18312651
207	0xbe57224c	-0.21009177
208	0x3e608fe9	0.21929897
209	0xbe081247	-0.13288222
210	0x3d9e57e3	0.07731607
211	0xbdece6a6	-0.1156743
212	0xbb812fab	-0.00394245
213	0xbd9fe0f6	-0.0780658
214	0xbd95c0d7	-0.07312172
215	0x3da1b139	0.07895131
216	0x3dad73ec	0.08469376
217	0x3d1fe967	0.03904095
218	0x3e1230da	0.14276448
219	0xbe2ffbdd	-0.17185922
220	0xbe680c5c	-0.22660965
221	0xbddb6b5a	-0.10713835
222	0xbe25caed	-0.16190691
223	0xbdd0ce16	-0.10195558
224	0xbdd708b8	-0.1049971
225	0xbe719d68	-0.23595202
226	0xbde1b33d	-0.11020515
227	0x3e2e8b00	0.17045212
228	0x3b216afc	0.0024630418
229	0x3e14638e	0.14491102
230	0xbe1bd3de	-0.1521754
231	0xbdd465d6	-0.10370986
232	0x3e48e6e7	0.19619332
233	0x3d2f4481	0.04278994
234	0xbe15f7e4	-0.14645344
235	0xbe284d72	-0.16435793
236	0x3e2320c1	0.15930463
237	0xbd1beb36	-0.03806611
238	0x3c5008d7	0.01269742
239	0xbd05b629	-0.032644425
240	0xbd39af97	-0.04533347
241	0xbe0ca93c	-0.13736433
242	0xbdebeaa1	-0.11519361
243	0xbd3c7689	-0.04601148
244	0xbe84d431	-0.2594314
245	0xbe5b3470	-0.21406722
246	0x3d98574c	0.074385256
247	0xbe2f3bef	-0.17112707
248	0xbdf1bc37	-0.11803477
249	0x3ef6c083	0.4819375
250	0xbe320ce8	-0.17387736
251	0xbe646fb4	-0.22308236
252	0x3df2f62c	0.1186336
253	0x3e3f64aa	0.18690744
254	0xbbbab5d7	-0.0056979465
255	0x3dd3f677	0.10349744

fc4.bias f4 [20]
0	0xbe20426b	-0.15650336
1	0x3d277a37	0.040888038
2	0x3e863e36	0.26219338
3	0xbcf0af9f	-0.029380618
4	0xbe42efb4	-0.19036752
5	0xbe27cd57	-0.16386925
6	0xbe65ff75	-0.2246073
7	0xbd5be70b	-0.053687137
8	0xbe62b9eb	-0.22141235
9	0xbe2fede2	-0.17180589
10	0xbdbe6ce5	-0.09298114
11	0x3d6f9ca2	0.058498986
12	0xbe01ae2f	-0.12664102
13	0xbde20417	-0.11035936
14	0xbd88a9cf	-0.066730134
15	0xbcaacab3	-0.020848608
16	0x3e89ead4	0.26936972
17	0xbe0b5db9	-0.13609971
18	0x3e65c362	0.22437814
19	0xbd0d0c36	-0.034435473

fc5.weight f4 [20, 20]
0	0xbe2a0328	-0.16602767
1	0xbe58b227	-0.2116171
2	0x3d67e14b	0.05661134
3	0x3c582ee1	0.013194771
4	0x3d814d4c	0.06313571
5	0x3cee6573	0.02910111
6	0x3e18e163	0.14929728
7	0xbcb233d9	-0.021753239
8	0xbdda7bc6	-0.10668139
9	0xbd081ca6	-0.033230446
10	0xbe1326d0	-0.14370275
11	0xbe13679e	-0.14394996
12	0x3daac155	0.083376564
13	0xbe581004	-0.2109986
14	0x3e34cbe9	0.1765591
15	0x3dfb0b06	0.12257962
16	0xbe060692	-0.13088444
17	0x3d86f0ca	0.065888956
18	0xbd56f2de	-0.05247771
19	0x3d714793	0.05890615
20	0xbe6067f8	-0.21914661
21	0x3d9b8bcf	0.07595026
22	0x3e521ddb	0.20519201
23	0x3ed109e5	0.4082786
24	0x3bd09dc7	0.006366465
25	0xbe77e38f	-0.242079
26	0xbdf250db	-0.11831828
27	0x3efdcb17	0.49569008
28	0xbe2f46e5	-0.17116888
29	0x3e04fb11	0.12986399
30	0x3cd2c891	0.025730403
31	0xbd860f45	-0.06545881
32	0x3e8725ea	0.26396114
33	0x3c51cd7d	0.01280534
34	0x3ed78a6f	0.42097804
35	0x3e8b9df8	0.27268958
36	0xbea73b48	-0.32662416
37	0xbd59499a	-0.053048708
38	0x3e53ae3a	0.20671931
39	0xbbf2ee45	-0.007413658
40	0xbe56591a	-0.20932427
41	0xbe6d4464	-0.2317062
42	0x3e106fd5	0.1410516
43	0x3e14aacd	0.1451828
44	0xbe2db608	-0.1696397
45	0xbd1f030f	-0.038821276
46	0xbd9b9308	-0.07596403
47	0x3e011a4a	0.12607685
48	0x3e3a7fac	0.18212765
49	0x3e1f457f	0.15553854
50	0xbde47dc7	-0.111568026
51	0xbda2f402	-0.07956697
52	0xbc551d7d	-0.013007519
53	0xbdbd4486	-0.092415854
54	0xbe569e7b	-0.20958893
55	0xbe01b773	-0.12667637
56	0x3dafe867	0.08589249
57	0x3d71cfc8	0.059036046
58	0xbe39c8d9	-0.18143024
59	0x3e115229	0.14191498
60	0x3d421b3e	0.04738926
61	0x3ea5739c	0.32314765
62	0x3ec37bfa	0.38180524
63	0x3ea5a49e	0.32352155
64	0xbbe69661	-0.0070369695
65	0xbe6ac333	-0.22926025
66	0xbe13bac4	-0.14426714
67	0x3e0595d2	0.13045433
68	0xbde88ee7	-0.113553815
69	0x3a485674	0.0007642277
70	0x3d8204e4	0.06348589
71	0x3e6465f0	0.22304511
72	0x3e16b2a8	0.1471659
73	0x3cf5bfa7	0.029998614
74	0x3e615f8f	0.22009109
75	0x3dae2b84	0.08504394
76	0x3e605ca0	0.21910334
77	0x3dffb5d7	0.12485855
78	0x3ebe2542	0.371378
79	0xbd589b11	-0.052882258
80	0xbe12fb64	-0.1435371
81	0xbdd3d50e	-0.10343371
82	0xbe290fc4	-0.1650992
83	0x3e5ae566	0.21376571
84	0x3e29e7c0	0.16592312
85	0x3ca14625	0.019686768
86	0xbe2eedb5	-0.17082866
87	0x3e197048	0.14984238
88	0xbbe39a57	-0.006945889
89	0x3d8bc0c0	0.068238735
90	0x3cc7b74d	0.024379397
91	0xbd7dbdc0	-0.061948538
92	0x3e2f1389	0.17097296
93	0xbe5943a4	-0.21217209
94	0xbd868d06	-0.06569867
95	0xbd0afab1	-0.033930484
96	0x3dc4ffa6	0.096190736
97	0xbdab3deb	-0.08361419
98	0x3dc318f5	0.095262446
99	0x3e1bc630	0.15212321
100	0xbe177cb5	-0.14793666
101	0x3da3c446	0.079964206
102	0xbe507b85	-0.20359619
103	0x3e5fc172	0.21851137
104	0xbe22fc25	-0.15916498
105	0xbcc79fcc	-0.02436819
106	0x3e0acfd5	0.13555844
107	0xbd02e9a1	-0.031961087
108	0xbd6215af	-0.05519646
109	0x3e1ca25c	0.1529631
110	0xbdde61e6	-0.108585164
111	0xbe0e54f9	-0.13899602
112	0x3c372c78	0.011180036
113	0xbcc4c500	-0.024019718
114	0xbd03e982	-0.032205112
115	0x3d9360a8	0.0719617
116	0x3d40a30f	0.047030505
117	0xbe5e3836	-0.2170113
118	0xbe1c9a81	-0.15293314
119	0xbde36836	-0.11103861
120	0x3de29720	0.11063981
121	0x3ea574d9	0.3231571
122	0x3e11810b	0.14209382
123	0x3e8e085f	0.27740762
124	0xbea2455b	-0.3169354
125	0xbe028487	-0.12745868
126	0xbd6859d1	-0.05672628
127	0x3ecfe7ab	0.40606436
128	0x3d4ab82d	0.04949205
129	0x3db4e3f6	0.088325426
130	0xbd72241c	-0.059116468
131	0xbd476f54	-0.048690155
132	0x3ea3343d	0.31875792
133	0xbc630864	-0.013856981
134	0x3e7fd5e0	0.2498393
135	0x3e5a25a7	0.21303426
136	0xbe966854	-0.2937647
137	0x3cfca175	0.030838707
138	0x3ea85edb	0.3288487
139	0xbdb4a6f9	-0.0882091
140	0xbe0517c2	-0.12997344
141	0xbe000a5b	-0.1250395
142	0xbd69edf1	-0.057111684
143	0xbe575268	-0.21027529
144	0x3e963b08	0.29341912
145	0x3eb7030d	0.35744515
146	0x3ed731f8	0.4203031
147	0x3c117531	0.008878038
148	0x3e0b465d	0.1360106
149	0xbc7e692b	-0.015528004
150	0x3e0cfc4f	0.13768123
151	0xbce20577	-0.027590496
152	0xbd01b076	-0.031662427
153	0x3b82d257	0.0039923596
154	0x3d55c24b	0.052187245
155	0xbe089c65	-0.1334091
156	0xbdb12712	-0.0865003
157	0xbe2e28be	-0.1700773
158	0x3da98471	0.08277214
159	0xbe610d90	-0.2197783
160	0xbe3596a5	-0.17733248
161	0xbe37f63a	-0.17965022
162	0x3df32f4e	0.11874257
163	0xbe12d83d	-0.14340301
164	0x3e2469c0	0.16055965
165	0x3d5cbf88	0.053893596
166	0xbc83ce19	-0.016089486
167	0xbddd38f4	-0.108018786
168	0xba147d28	-0.00056644017
169	0xbcc17bb3	-0.023618555
170	0x3e4ecb7d	0.20194812
171	0x3e24408f	0.16040252
172	0xbe58e93d	-0.21182723
173	0xbe29c82e	-0.16580269
174	0xbe8bdc50	-0.27316523
175	0x3dac8edc	0.08425686
176	0xbd3a5d68	-0.045499235
177	0xbddf7a38	-0.10911983
178	0x3e014354	0.1262334
179	0x3d8e2110	0.069399
180	0xbd15d1e7	-0.03657713
181	0x3e9a4324	0.3012935
182	0xbd5c42a8	-0.053774506
183	0xbed8f647	-0.42375395
184	0x3e37b07b	0.17938416
185	0x3df3b5ea	0.11899932
186	0x3f0d1c3c	0.5512121
187	0xbedf68a2	-0.43634516
188	0xbd415d4a	-0.047208108
189	0xbc7a69f2	-0.015284048
190	0x3e2b15f8	0.16707599
191	0x3d8f3435	0.069923796
192	0xbf0375c9	-0.513516
193	0x3e8cf406	0.27529925
194	0xbe24b9f8	-0.16086566
195	0xbe72df45	-0.23717983
196	0x3eb4d04d	0.3531517
197	0xbd16244e	-0.036655717
198	0x3e117991	0.1420653
199	0xbe136073	-0.14392261
200	0xbe340415	-0.17579682
201	0x3d25998a	0.04042963
202	0xbe4e3fe7	-0.20141564
203	0xbe940473	-0.28909644
204	0x3ea4b2d0	0.32167673
205	0x3e4f5908	0.20248806
206	0x3efa99b3	0.48945388
207	0xbe379b32	-0.17930296
208	0xbd11f525	-0.03563418
209	0xbe19b810	-0.1501162
210	0xbdea97cf	-0.114547364
211	0x3de4c4e2	0.11170365
212	0xbe4c93f1	-0.1997831
213	0x3ea54713	0.32280788
214	0xbde45b75	-0.111502565
215	0xbeca3db6	-0.39500207
216	0x3e39429e	0.18091819
217	0x3d003a7c	0.031305775
218	0xbd395422	-0.04524625
219	0xbde6d597	-0.11271208
220	0xbe4bb364	-0.19892651
221	0x3ebb94ea	0.3663705
222	0x3e4576da	0.1928362
223	0x3eeefd92	0.46677834
224	0xbe7e701e	-0.24847457
225	0xbe963806	-0.29339617
226	0xbe99d604	-0.30046093
227	0x3eb5d4a1	0.35513785
228	0x3e1da5fd	0.15395351
229	0x3e09a63e	0.13442323
230	0x3e3c6047	0.18396102
231	0xbe19f8cc	-0.15036315
232	0x3e598d05	0.21245201
233	0xbc47d3d4	-0.0121965
234	0x3ecbd38e	0.3980984
235	0x3f0ee016	0.5581068
236	0xbe37c931	-0.17947842
237	0xbdbf7dfd	-0.09350202
238	0x3ea07c5d	0.31344882
239	0x3dd075c3	0.10178711
240	0x3d24ee0d	0.040266085
241	0x3db668a2	0.08906676
242	0x3d7febb1	0.062480632
243	0x3dbeb334	0.09311524
244	0xbe157fb4	-0.14599496
245	0xbe749c4e	-0.2388775
246	0xbe57fa9a	-0.2109169
247	0x3ea0e53c	0.31424892
248	0x3da5fce5	0.081048764
249	0x3c08cdbe	0.008349834
250	0xbd68315e	-0.056687705
251	0xbdb79979	-0.089648195
252	0x3f0155c4	0.5052149
253	0x3d89fcc7	0.067376666
254	0xbd7859ad	-0.060632396
255	0x3e575356	0.21027884

fc5.bias f4 [20]
0	0xbe163614	-0.14669067
1	0x3e617c7b	0.22020142
2	0xbd1c78cd	-0.038201142
3	0xbd37648e	-0.04477363
4	0x3b9b12af	0.004732452
5	0xbe2de052	-0.16980103
6	0x3d8d7867	0.069077305
7	0x3e7cbde0	0.24681807
8	0x3da231de	0.07919668
9	0x3e985ab6	0.29756707
10	0x3d490f3d	0.049086798
11	0x3c44130f	0.011967435
12	0x3e1ccc52	0.15312317
13	0x3e4bfe08	0.19921124
14	0x3ad4e254	0.0016241767
15	0x3da49d81	0.08037854
16	0xbd9beab2	-0.07613124
17	0xbe0a0258	-0.13477457
18	0x3e536a12	0.20645931
19	0xbe1473df	-0.14497326

fc6.weight f4 [3, 20]
0	0xbdf67909	-0.120348044
1	0x3ee54695	0.44780412
2	0xbc139cba	-0.0090095345
3	0x3e02ffe8	0.12792933
4	0xbd523423	-0.051319253
5	0x3db2bdef	0.08727633
6	0x3f087b61	0.5331326
7	0xbeaf35e0	-0.3422079
8	0xbe0be9d8	-0.13663423
9	0x3ba076da	0.0048969807
10	0xbe9f4c64	-0.3111297
11	0x3f0bbe5e	0.5458735
12	0x3eb4ccc5	0.35312477
13	0x3eabb05c	0.3353299
14	0x3e9f5315	0.31118074
15	0xbe266cdf	-0.16252469
16	0xbe06fa94	-0.13181525
17	0xbd832621	-0.06403757
18	0xbdd19e66	-0.1023529
19	0xbeb22a57	-0.34797928
20	0x3d156cb9	0.03648064
21	0xbd5b2b12	-0.053507872
22	0x3dd0225a	0.10162802
23	0xbeffbcfd	-0.49948874
24	0x3dc0c0f0	0.094118
25	0xbe0756f3	-0.13216762
26	0xbee10b19	-0.4395378
27	0xbe956442	-0.29178053
28	0x3bd0fe97	0.0063780057
29	0xbebe1924	-0.37128556
30	0xbe88f258	-0.26747394
31	0xbea6e0ce	-0.32593387
32	0xbeec7318	-0.4618156
33	0xbea7f320	-0.32802677
34	0xbea1e405	-0.31619278
35	0x3da206f3	0.07911482
36	0xbf099ee7	-0.5375809
37	0xbe4b1a71	-0.19834305
38	0xbe8f6aee	-0.28011268
39	0xbe8c96c7	-0.27458784
40	0x3de692f8	0.11258501
41	0xbe8eac92	-0.27866036
42	0x3da905f0	0.082530856
43	0x3d01b508	0.031666785
44	0xbe3990fc	-0.18121713
45	0xbe0fa5b2	-0.14028051
46	0xbe5d93cd	-0.21638413
47	0x3ec2f4e6	0.38077468
48	0xbe04a3bc	-0.12953085
49	0x3e9e7841	0.3095112
50	0x3ecfd0b3	0.40588912
51	0xbe627b7c	-0.22117418
52	0x3e34ecb6	0.17668423
53	0x3e03645f	0.12831257
54	0xbd491ffb	-0.049102765
55	0x3e4713e8	0.19441187
56	0x3edffa22	0.43745524
57	0x3d6b4f0e	0.05744844
58	0x3ee4cc27	0.44687006
59	0x3ebe1d2e	0.37131637

fc6.bias f4 [3]
0	0xbe27c1dd	-0.16382547
1	0xbe2aa449	-0.16664232
2	0x3ea36d96	0.31919545
