models_3val/and_or_10.pth (torch, 12178 bytes, 12 tensors)

fc1.weight f4 [20, 12]
0	0xbdf4335a	-0.11923857
1	0xbe00618d	-0.12537213
2	0x3de663ae	0.11249481
3	0x3e9840f7	0.29737064
4	0x3e45aee1	0.19304992
5	0x3ef4cd04	0.47812665
6	0xbb0627ac	-0.0020470424
7	0xbe2763f0	-0.16346717
8	0x3e930514	0.28714812
9	0x3da8d0ad	0.08242927
10	0xbcd0b6b6	-0.025477748
11	0x3e8b5704	0.27214825
12	0x3e4e9963	0.201757
13	0x3e27969e	0.1636605
14	0xbdfe8156	-0.124270126
15	0xbdebfeb8	-0.11523193
16	0xbdcd3335	-0.100195326
17	0x3ebf6fce	0.37389988
18	0x3e02d456	0.12776312
19	0xbe2bcb91	-0.16776873
20	0xbe2295ae	-0.15877411
21	0xbe921a10	-0.2853551
22	0x3eb64c33	0.3560501
23	0x3ea990d2	0.33118302
24	0xbe44ee76	-0.1923159
25	0x3d69a3ea	0.057041086
26	0x3dd043f8	0.10169214
27	0xbd9a4c19	-0.07534046
28	0x3eadb804	0.33929455
29	0x3e7ded6b	0.24797599
30	0xbd7efb63	-0.06225146
31	0x3e2503fb	0.161148
32	0xbe1fcece	-0.15606233
33	0x3e85016b	0.25977644
34	0x3ea95d2b	0.33078894
35	0x3e8103e0	0.2519827
36	0x3dcb4014	0.09924331
37	0x3e013f66	0.12621841
38	0x3e433a17	0.19065128
39	0xbd10b319	-0.03532705
40	0xbe0c9b3a	-0.13731089
41	0x3d9342fd	0.071905114
42	0xbe6dfc26	-0.23240718
43	0x3ed795b4	0.42106402
44	0x3d0465d1	0.032323662
45	0x3e2bb96c	0.16769952
46	0x3def3258	0.11679524
47	0x3ddf728e	0.109105214
48	0x3e9352a6	0.28773993
49	0xbe274e62	-0.16338494
50	0x3e9e0809	0.30865505
51	0x3bd85839	0.006602314
52	0x3e04fff5	0.12988265
53	0x3e5550c3	0.2083159
54	0xbbf8ac2e	-0.007588885
55	0x3e5f15c7	0.21785651
56	0x3e9f6b5e	0.31136602
57	0xbdbd3dfc	-0.09240338
58	0xbe55c34c	-0.20875281
59	0x3e0107f9	0.12600698
60	0x3e7920c7	0.2432891
61	0x3e7500d8	0.23926103
62	0x3e2ebae6	0.17063484
63	0x3d1377b4	0.03600283
64	0x3e516dc0	0.20452023
65	0x3e2eaba9	0.1705767
66	0x3ee97b73	0.45601997
67	0xbea7459f	-0.32670304
68	0x3f42c4b5	0.760814
69	0x3b64ea35	0.0034929637
70	0xbc912585	-0.017718086
71	0x3d33cfa0	0.04389918
72	0x3e58dd16	0.21178088
73	0x3e06cbb8	0.1316365
74	0x3e6f4c47	0.23368941
75	0xbd9197d6	-0.071090385
76	0x3e91a24a	0.2844413
77	0x3d68ba98	0.056818575
78	0xbdc59783	-0.09648039
79	0x3df5c408	0.120002806
80	0xbd47f258	-0.0488151
81	0x3ea5a67e	0.32353586
82	0x3d77c38e	0.06048923
83	0x3e9f6814	0.31134093
84	0x3dcbaf7f	0.099455826
85	0x3ce7db0b	0.02830269
86	0x3e099961	0.13437416
87	0xbc881eed	-0.016616309
88	0x3d804510	0.062631726
89	0x3e722526	0.23646984
90	0x3ed4da4e	0.41572803
91	0xbd2b4c68	-0.041820914
92	0x3f146298	0.5796294
93	0x3d7803e0	0.06055057
94	0x3be0d1af	0.0068609337
95	0x3e1fc172	0.15601137
96	0xbd16f068	-0.036850363
97	0x3e9983c5	0.29983345
98	0xbb01b36f	-0.0019790789
99	0x3e007762	0.12545541
100	0x3e04beca	0.12963405
101	0x3c45eba8	0.012080111
102	0x3de215da	0.11039324
103	0xbc3064fa	-0.010766262
104	0x3f0cc728	0.5499139
105	0x3dbf10a1	0.093293436
106	0x3dd57f86	0.10424714
107	0xbcf19ed7	-0.029494686
108	0x3b71c01d	0.003688819
109	0x3c80eb4e	0.015737202
110	0x3c86a413	0.016435659
111	0x3d816f75	0.06320087
112	0x3d896d62	0.06710316
113	0xbd89150e	-0.06693469
114	0xbdc8c093	-0.098023556
115	0x3e989528	0.29801297
116	0x3e9f8e03	0.31163034
117	0xbf34bbe4	-0.705992
118	0x3c092d1e	0.008372573
119	0x3b9fac18	0.00487281
120	0x3d4f2a1a	0.05057726
121	0xbe2f3a6e	-0.17112133
122	0x3d392902	0.045205124
123	0xbcce3578	-0.02517198
124	0x3e86c377	0.26321003
125	0x3e94f0ac	0.29089868
126	0x3e2833f1	0.16426064
127	0x3dc60c29	0.09670288
128	0x3f1d4750	0.6143694
129	0xbdad6936	-0.08467333
130	0xbdf1930c	-0.11795625
131	0x3e26d8aa	0.16293588
132	0xbb8278bb	-0.0039816773
133	0xbb8c243f	-0.004276782
134	0xbc3402b4	-0.010986973
135	0xbd76d6aa	-0.060263313
136	0xbdd92cab	-0.10604223
137	0xbd946058	-0.072449386
138	0xbea93513	-0.33048305
139	0xbe42b27a	-0.19013396
140	0x3ef3d450	0.4762292
141	0x3de36952	0.11104073
142	0x3aaf9440	0.0013395622
143	0x3b43d087	0.002987893
144	0xbdb97b5d	-0.09056733
145	0xbd771e8f	-0.060331877
146	0x3df0cc21	0.117576845
147	0x3e3090a9	0.17242683
148	0x3eb514a5	0.35367313
149	0x3dd1b331	0.10239256
150	0xbb08ae2e	-0.0020855772
151	0x3e461544	0.1934405
152	0x3d60792f	0.05480307
153	0x3e39c4ab	0.18141429
154	0xbd7bdc65	-0.06148948
155	0x3e99460b	0.2993625
156	0x3cab70dd	0.02092784
157	0x3e407ed5	0.18798383
158	0x3d8ff654	0.07029405
159	0xbd46805e	-0.048462264
160	0x3e87aa1b	0.26496968
161	0x3e4ed1b6	0.20197186
162	0x3ddff813	0.10935988
163	0xbdac738b	-0.084204756
164	0x3e395c63	0.18101649
165	0x3ec963ab	0.39333853
166	0x3e935ad2	0.28780228
167	0x3e816988	0.25275826
168	0x3bb25930	0.005442761
169	0x3bbabadc	0.005698545
170	0x3b389d0e	0.0028169784
171	0x3dba07e0	0.09083533
172	0x3dd0191d	0.1016104
173	0xbdc080c4	-0.0939956
174	0x3c9a7a33	0.018857097
175	0xbe35a5ed	-0.17739077
176	0xbf044aab	-0.51676434
177	0x3f012db9	0.5046039
178	0x3bad9e75	0.0052984306
179	0x3c04db37	0.0081089055
180	0x3e9f25c7	0.3108351
181	0x3c06608c	0.0082017295
182	0xbe1bbd77	-0.15208994
183	0x3da64073	0.081177615
184	0x3e43147b	0.19050781
185	0xba0e9cb5	-0.0005440221
186	0x3e501d26	0.20323619
187	0x3ead34d2	0.3382936
188	0x3e8a3bf0	0.26998854
189	0x3e720cac	0.23637646
190	0x3e8584b9	0.26077822
191	0x3d4725d4	0.04862006
192	0xbe01ca32	-0.12674788
193	0x3dd070f1	0.10177792
194	0x3e17bc20	0.14817858
195	0x3eb357d9	0.3502796
196	0x3e916d58	0.28403735
197	0x3eb98a6b	0.36238417
198	0x3e3a10a8	0.18170416
199	0x3d8dbac7	0.069203906
200	0x3ea0475a	0.31304437
201	0xbdd3450d	-0.10315905
202	0x3e0eb721	0.13937046
203	0x3e4ed9bc	0.20200247
204	0xbdef0dfa	-0.11672588
205	0xbb9f35c0	-0.0048587024
206	0xbb7c25ac	-0.0038474603
207	0x3cdf41e0	0.027253091
208	0xbdb454d6	-0.08805244
209	0x3e63a21f	0.22229813
210	0x3e968661	0.29399398
211	0x3e14e77f	0.14541434
212	0x3e8874d9	0.26651648
213	0x3e8772d5	0.26454797
214	0x3c796157	0.0152209615
215	0x3b4ff1fd	0.003172993
216	0x3df34283	0.118779205
217	0x3ddc2ef7	0.10751145
218	0x3d3b3291	0.04570252
219	0x3da3bb80	0.07994747
220	0x3ce018fe	0.027355667
221	0xbc967751	-0.018367441
222	0x3edf03a8	0.43557477
223	0x3d87dce0	0.066339254
224	0x3e7a7378	0.2445811
225	0xbd5138f9	-0.051079724
226	0x3e363c51	0.17796446
227	0xbcedc8dd	-0.029026443
228	0x3e3d8f64	0.1851173
229	0x3e68bc9d	0.227282
230	0x3e5aefbc	0.21380514
231	0x3e4c748b	0.19966333
232	0x3d94c114	0.07263389
233	0x3c2c7a95	0.010527273
234	0xbeae5b9c	-0.34054267
235	0x3eed4ba5	0.46346775
236	0xbe0d70a0	-0.13812494
237	0x3e811b18	0.25215983
238	0xbd9842da	-0.07434626
239	0x3edbb23f	0.42909428

fc1.bias f4 [20]
0	0xbdbc8135	-0.09204332
1	0x3ed57ac0	0.41695213
2	0x3e0eb2c5	0.13935383
3	0x3dc5015a	0.096193984
4	0x3eb9a256	0.36256665
5	0x3ea59410	0.32339525
6	0x3ec86627	0.39140436
7	0xbe3e69a8	-0.18594992
8	0xbd47bfcf	-0.048766907
9	0x3e379280	0.17926979
10	0x3eae5e25	0.34056202
11	0x3d7aa2d5	0.061190445
12	0xbc677955	-0.014128049
13	0xbc4fd400	-0.012684822
14	0xbe97f1dd	-0.29676715
15	0xbea2e712	-0.31816918
16	0x3e2a6e90	0.16643739
17	0x3d3a0f73	0.04542489
18	0xbe0aaa34	-0.1354149
19	0x3e39d988	0.18149388

fc2.weight f4 [20, 20]
0	0x3ea0c160	0.31397533
1	0xbda343ff	-0.079719536
2	0xbc6b5d07	-0.014365441
3	0xbe86f89b	-0.26361546
4	0xbe12ec4a	-0.1434795
5	0x3ed6cde7	0.41953966
6	0x3dc0f791	0.094222195
7	0x3eb55e5f	0.35423562
8	0x3df1ccec	0.11806664
9	0x3e78faca	0.24314418
10	0x3e8d65f8	0.27616858
11	0x3f1abd90	0.604455
12	0x3e983def	0.29734752
13	0x3dcdeda8	0.10055095
14	0xbc8defe7	-0.017326308
15	0x3e23219f	0.15930794
16	0x3e82414f	0.25440452
17	0x3dbe795b	0.093004905
18	0x3eac9dd3	0.3371416
19	0xbe5a0f0f	-0.21294807
20	0xbdb4dee3	-0.08831575
21	0x3c570ba5	0.013125335
22	0x3e9ca7e3	0.30596837
23	0x3dfba971	0.12288178
24	0x3ed1f915	0.41010347
25	0x3e4eec12	0.20207241
26	0x3e5a179c	0.21298069
27	0xbe9bb5a7	-0.30412027
28	0xbc3d63f5	-0.011559476
29	0x3f2a8833	0.66614074
30	0x3ce7e942	0.028309468
31	0xbe94b74a	-0.29046088
32	0x3d8e1f0c	0.069395155
33	0xbe249c48	-0.16075242
34	0x3e5a7097	0.21332012
35	0xbe3feac9	-0.18741907
36	0x3e87deb6	0.26537102
37	0xbeb957a8	-0.3619969
38	0x3dd7959a	0.10526581
39	0x3d96149d	0.073281504
40	0x3cf9bf8e	0.030486848
41	0xbe2608d1	-0.162143
42	0x3e0eec74	0.13957387
43	0x3e3fc8a2	0.18728879
44	0x3e230d5a	0.15923062
45	0xbd158f62	-0.036513694
46	0xbdfadef2	-0.12249555
47	0x3e144bc4	0.14482027
48	0xbe2bf7da	-0.16793767
49	0x3d89eb9c	0.06734392
50	0xbda2eb40	-0.079550266
51	0xbe18112e	-0.14850304
52	0xbd88a131	-0.0667137
53	0xbcb42907	-0.02199222
54	0x3d8deae8	0.069295704
55	0xbcff5fdd	-0.03117364
56	0xbdbba528	-0.091623604
57	0xbe0235e5	-0.12715872
58	0xbc13886b	-0.009004693
59	0xbe0cb27a	-0.13739958
60	0x3d22b62a	0.039724506
61	0x3c61c50a	0.013779888
62	0x3db0c386	0.08631043
63	0x3e882807	0.26593038
64	0x3e753e2c	0.23949498
65	0x3e530cbd	0.20610328
66	0x3e801fde	0.25024313
67	0x3d86332c	0.06552729
68	0x3e486692	0.19570377
69	0xbf0ea432	-0.5571929
70	0xbdff5716	-0.12467782
71	0x3d8555ec	0.06510529
72	0x3e58bc92	0.21165684
73	0x3dc37678	0.095440805
74	0xbe7ae88d	-0.24502774
75	0x3d2e6c8d	0.04258399
76	0x3e176463	0.14784388
77	0x3e5c1056	0.21490607
78	0x3ce68f31	0.02814445
79	0xbc887db8	-0.01666151
80	0x3e256ee5	0.16155584
81	0xbde510d6	-0.11184852
82	0xbddd32e6	-0.10800724
83	0x3e82681c	0.25470054
84	0xbdec9ab7	-0.11552947
85	0x3dda3a52	0.10655655
86	0x3c21bb0c	0.009871256
87	0x3c91e3e2	0.017808858
88	0x3e0acd7e	0.13554952
89	0xbf03c8b5	-0.5147813
90	0x3d83ca3b	0.06435057
91	0x3e49fb93	0.19724874
92	0x3d0ac850	0.03388244
93	0x3e2a4d85	0.16631134
94	0xbed47322	-0.4149409
95	0x3cb88fdd	0.022529537
96	0xbccb23ce	-0.024797346
97	0x3e95f877	0.29291126
98	0x3e895597	0.26823112
99	0x3debe8cc	0.11519012
100	0xbdefdd15	-0.1171209
101	0xbe88741a	-0.26651078
102	0x3e2a0978	0.16605175
103	0x3e5c60c5	0.2152129
104	0x3e8dc801	0.27691653
105	0x3e0e373f	0.13888262
106	0xbc294155	-0.010330518
107	0x3e73d0b9	0.2381009
108	0x3e958963	0.2920638
109	0xbee85af5	-0.45381895
110	0x3cdbb92e	0.026821699
111	0x3f025256	0.50906885
112	0x3e84bd4a	0.25925666
113	0x3e87fab3	0.26558456
114	0xbeee5d87	-0.4655573
115	0x3d6742a1	0.056460027
116	0x3e271ea9	0.1632029
117	0x3eb4459f	0.35209367
118	0xbd3efd7e	-0.046628468
119	0x3daba909	0.0838185
120	0xbd4c39cd	-0.04985981
121	0xbe18756d	-0.14888544
122	0x3e34d54d	0.17659493
123	0xbda66505	-0.08124737
124	0x3da7a3a6	0.0818551
125	0xbbeba654	-0.0071914587
126	0x3d8dc816	0.06922929
127	0x3d6f8aa3	0.058481824
128	0xbe56e346	-0.20985135
129	0xbcc712d9	-0.02430098
130	0x3b0026b0	0.001955431
131	0x3d113997	0.035455313
132	0xbe598215	-0.21241029
133	0xbe43cefb	-0.19121926
134	0x3e1e50d3	0.1546052
135	0xbe3996e9	-0.18123974
136	0xbddebe0f	-0.108760945
137	0xbe7d43b0	-0.24732852
138	0x3e380319	0.17969932
139	0x3c310db5	0.010806491
140	0x3c343413	0.010998744
141	0x3e36c8a4	0.17849976
142	0x3cae4faf	0.02127823
143	0x3eafe030	0.3435073
144	0x3e9061c2	0.28199583
145	0x3db8a725	0.09016255
146	0x3e13ff5b	0.14452879
147	0x3e8df63e	0.2772693
148	0x3eb5f760	0.35540295
149	0x3db6e2dd	0.089299895
150	0x3e7d11f9	0.24713887
151	0xbea92ebf	-0.33043477
152	0x3d90b846	0.07066397
153	0x3db46aaf	0.08809411
154	0x3ece18c3	0.40253267
155	0x3eaae9d1	0.33381513
156	0x3e8e69e6	0.2781517
157	0x3db6321e	0.08896278
158	0x3de9769c	0.11399576
159	0x3d8d61bf	0.06903409
160	0x3e3ba436	0.1832436
161	0xbe5d779e	-0.21627662
162	0x3d4ab31a	0.04948721
163	0x3df9ead0	0.1220299
164	0xbd956a21	-0.07295633
165	0x3e4625fd	0.19350429
166	0xbd92dfb4	-0.07171574
167	0x3db03820	0.08604455
168	0x3e56942e	0.20954964
169	0xbf1867e2	-0.5953351
170	0xbd005cee	-0.031338625
171	0x3eb0abba	0.34506017
172	0xbe01ab76	-0.12663063
173	0x3e0c9a55	0.13730748
174	0xbea0a180	-0.31373215
175	0x3e2f2dfd	0.17107387
176	0x3e651e22	0.22374776
177	0x3e5a1bc2	0.21299651
178	0x3d83cc8f	0.06435501
179	0x3c85b474	0.016321398
180	0x3dfb8997	0.122821026
181	0xbe64216a	-0.22278371
182	0x3e7e20c4	0.24817187
183	0x3e792856	0.24331793
184	0x3de9a33e	0.11408089
185	0x3e24e4d3	0.16102915
186	0xbe3192be	-0.17341134
187	0x3ee9bd74	0.45652354
188	0x3e7fa48c	0.24965113
189	0xbee2758b	-0.44230303
190	0x3e8bee86	0.27330416
191	0x3edb6890	0.42853212
192	0xbd6393b0	-0.055560768
193	0x3cf8e2f3	0.030381655
194	0xbecaed73	-0.39634284
195	0x3ea4c293	0.32179698
196	0xbdc890c5	-0.097932376
197	0xbc763df9	-0.015029424
198	0xbe2c5b66	-0.1683174
199	0x3db80b7e	0.08986567
200	0x3d2325d6	0.039831005
201	0xbe41912f	-0.1890304
202	0x3cd5985f	0.026073633
203	0xbdac8328	-0.084234536
204	0xbe4938a6	-0.19650516
205	0x3e488a56	0.19584021
206	0xbda50994	-0.080584675
207	0xbe150c27	-0.14555417
208	0x3e28565a	0.1643919
209	0x3ac7bf4c	0.0015239506
210	0xbe470efb	-0.19439308
211	0x3daaef48	0.083464205
212	0xbe4cc4ec	-0.19996995
213	0xbe2e3c9c	-0.17015308
214	0x3e3bb54c	0.18330878
215	0xbdcb94d2	-0.099404946
216	0xbe36ffa7	-0.17870961
217	0xbd0f0ffe	-0.03492736
218	0xbccb0f53	-0.02478758
219	0xbe27553c	-0.16341108
220	0x3e74440d	0.23854084
221	0x3ebf6aa3	0.37386045
222	0x3c7eb7cc	0.01554675
223	0xbf13b67a	-0.5770031
224	0x3e18f4ee	0.14937183
225	0x3efa1a40	0.48848152
226	0x3a78cb11	0.00094907085
227	0x3ed5fbeb	0.4179376
228	0x3da7d9c3	0.081958316
229	0x3edaa7ca	0.42706138
230	0x3d9bf283	0.07614615
231	0x3d1a9a50	0.03774482
232	0xbea42a38	-0.3206346
233	0xbe835fc1	-0.25658992
234	0x3e87d886	0.26532382
235	0xbe909a84	-0.28242886
236	0x3ecaf964	0.39643395
237	0x3e1fc54d	0.15602608
238	0x3e0bb006	0.13641366
239	0xbea8c55f	-0.32963082
240	0x3e80bb88	0.25143075
241	0xbbce0713	-0.0062874644
242	0xbd2fdeb5	-0.042937
243	0x3b9070ac	0.004407963
244	0xbd2a40a4	-0.041565552
245	0x3e99c46e	0.30032676
246	0xbe2207f4	-0.15823346
247	0x3ee3cafa	0.44490796
248	0x3d93c0ea	0.0721453
249	0xbeadf243	-0.33973894
250	0x3e8f45e8	0.27983022
251	0x3e8c01d7	0.27345154
252	0x3e95f2d4	0.29286826
253	0x3e6a1f5c	0.22863525
254	0xbeebbc06	-0.46041888
255	0x3dffce37	0.12490504

fc2.bias f4 [20]
0	0x3e22ba31	0.15891339
1	0x3e04fb5c	0.12986511
2	0xbe5bb2bf	-0.21454905
3	0xbe557f2e	-0.20849296
4	0x3e6e65b8	0.2328099
5	0x3e3ddf9a	0.18542328
6	0xbdb7203e	-0.089416966
7	0x3e7cc81f	0.24685715
8	0x3dd8f6d3	0.10593953
9	0xbd341326	-0.043963574
10	0xba990976	-0.0011675793
11	0xbcb1738b	-0.02166154
12	0x3e0c5153	0.13702898
13	0x3e1b9a68	0.1519562
14	0xbdebfde6	-0.11523037
15	0x3ea4bce1	0.32175353
16	0x3e12ac8b	0.14323632
17	0x3d43179c	0.047629938
18	0x3e84ba6d	0.25923482
19	0xbe2f5695	-0.17122872

fc3.weight f4 [20, 20]
0	0x3ec4ab0c	0.38411748
1	0x3eb6ece3	0.35727605
2	0xbe23c066	-0.15991363
3	0xbe8cd86c	-0.27508867
4	0xbe8d09f3	-0.27546653
5	0x3e01c349	0.12672152
6	0xbe00d9dc	-0.12583107
7	0x3ed64331	0.41848138
8	0xbe75daad	-0.240092
9	0x3e3f857b	0.18703263
10	0x3d740981	0.059579376
11	0x3f78c518	0.9717574
12	0x3ecb0261	0.39650252
13	0x3dcd2709	0.10017211
14	0x3ecdb3ba	0.40176183
15	0x3e143faf	0.14477418
16	0x3e249dbf	0.160758
17	0x3e18bb76	0.1491526
18	0xbdc1ad2d	-0.09456859
19	0xbd0b1657	-0.03395685
20	0x3ebdd9ad	0.37080136
21	0x3db340ef	0.087526195
22	0x3e5e28e5	0.21695288
23	0x3c2e0db4	0.010623384
24	0xb7a3aacc	-1.9510648e-05
25	0x3cb0e77b	0.021594753
26	0x3cc0a9bb	0.023518434
27	0x3e8b56ee	0.2721476
28	0xbde78794	-0.11305156
29	0xbe1bf625	-0.15230615
30	0x3e17af87	0.14813052
31	0x3f591325	0.8479484
32	0x3e60acfb	0.21940987
33	0x3936e6ee	0.000174429
34	0xbd04439d	-0.032291044
35	0x3eb3515a	0.35023004
36	0xbdf4936e	-0.119421825
37	0x3e07c25f	0.1325774
38	0xbcc3d0e9	-0.023903327
39	0x3e6f5d18	0.23375356
40	0x3e56e74b	0.20986669
41	0xbed9a4af	-0.42508456
42	0xbcc4c7fc	-0.024021141
43	0x3e0cfc11	0.1376803
44	0x3d34a6db	0.04410444
45	0x3d82ef1b	0.06393262
46	0x3d75431c	0.059878454
47	0xbd968ad9	-0.07350702
48	0x3d33c691	0.04389054
49	0x3e9925c8	0.29911637
50	0xbe47e3f0	-0.19520545
51	0xbf137587	-0.5760121
52	0x3e1c4368	0.15260088
53	0xbdb5a39d	-0.088690974
54	0x3e158170	0.14600158
55	0xbeb1c684	-0.34721768
56	0x3e6d6d20	0.23186159
57	0x3e939988	0.28828073
58	0xbde3809b	-0.11108514
59	0x3e9e7765	0.30950466
60	0x3cb5251f	0.022112427
61	0xbe2919e2	-0.1651378
62	0x3cfcacc0	0.030844092
63	0x3ea11239	0.31459215
64	0x3ef3c0b9	0.47607973
65	0x3e582c5f	0.21110676
66	0xbd9986c5	-0.074964084
67	0xbd97f727	-0.074201874
68	0x3d20436f	0.03912681
69	0x3ea9f064	0.33191216
70	0xbe00fb05	-0.12595756
71	0xbf29c625	-0.6631797
72	0x3d9f52ab	0.077794395
73	0xbc8fa6c4	-0.017535575
74	0x3d3711e2	0.04469479
75	0x3dee3c20	0.11632562
76	0x3de03f4a	0.109495714
77	0x3cf1f084	0.029533632
78	0x3df2f213	0.11862578
79	0x3edbe3e3	0.429473
80	0xbbba75d7	-0.005690317
81	0x3c3395a7	0.010960973
82	0xbe0231bd	-0.12714286
83	0xbe066db0	-0.1312778
84	0xbe4138a4	-0.18869263
85	0x3d608ff8	0.0548248
86	0x3e3ca8e5	0.18423803
87	0xbc556f37	-0.013027004
88	0xbe01d878	-0.12680233
89	0x3d30f760	0.043204665
90	0xbdacb03d	-0.08432052
91	0x3e2b5bd3	0.16734247
92	0x3e1af694	0.15133125
93	0x3d5a291f	0.053261872
94	0x3e0ff39d	0.14057775
95	0xbda7826b	-0.08179172
96	0xbe378eb0	-0.17925525
97	0xbe378d5c	-0.17925018
98	0x3ce9e518	0.028551623
99	0xbc7b0034	-0.015319873
100	0x3e41c995	0.18924554
101	0xbeb1fe4a	-0.3476432
102	0xbdd78e1e	-0.105251536
103	0xbca31a53	-0.019910013
104	0x3ea15ca3	0.3151599
105	0x3cc1e6c8	0.023669615
106	0xbdb7428b	-0.08948239
107	0x3e39dccb	0.18150632
108	0x3ea23a29	0.31684998
109	0x3e146915	0.1449321
110	0xbe214599	-0.15749206
111	0xbf02ea76	-0.5113901
112	0x3e59918f	0.21246932
113	0x3dacdfd9	0.08441133
114	0x3e94f21c	0.29090965
115	0xbe540c2e	-0.20707771
116	0x3e951813	0.2911993
117	0xbd9d11f9	-0.07669444
118	0xbe00624e	-0.125375
119	0x3ce5aba6	0.02803595
120	0x3d05edd5	0.032697517
121	0xbe987ef2	-0.29784352
122	0x3e3e42f1	0.18580224
123	0x3e72ea75	0.23722251
124	0x3ed2b665	0.4115478
125	0xbcd8eb89	-0.0264795
126	0x3cec0f60	0.028815925
127	0x3c2ecf5c	0.0106695555
128	0x3d015ce2	0.03158272
129	0x3e69cf21	0.2283292
130	0xbe1e6f9e	-0.15472266
131	0xbf4185b3	-0.75594634
132	0x3e0e4e8f	0.13897155
133	0x3d952ba1	0.07283712
134	0x3e97b357	0.29629013
135	0xbe674d46	-0.22588071
136	0xbae727ca	-0.001763576
137	0x3e7b2948	0.24527466
138	0x3e313b41	0.1730776
139	0x3e801c23	0.25021467
140	0x3e79654e	0.24355051
141	0x3ec61d38	0.38694167
142	0x3e3f3249	0.18671526
143	0xbcf219b3	-0.02955327
144	0x3e443533	0.19160919
145	0x3e87c554	0.26517737
146	0xbe1985c4	-0.14992434
147	0x3e9eb125	0.30994526
148	0x3d0110c3	0.031510126
149	0xbe27907c	-0.1636371
150	0xbd48b7ee	-0.049003534
151	0x3f194273	0.5986702
152	0x3e764ae3	0.24052005
153	0x3e2e3725	0.17013223
154	0x3dd1443f	0.10218095
155	0x3dc3f8b8	0.09568924
156	0x3d5f97e1	0.054588202
157	0x3ddc65fb	0.10761639
158	0x3e616bc9	0.22013773
159	0x3d7dce60	0.061964393
160	0xbd7d67e2	-0.06186665
161	0x3d8152ee	0.06314646
162	0xbe237c3d	-0.15965362
163	0x3d84c2a7	0.064824395
164	0xbd35965f	-0.04433286
165	0xbd2fec48	-0.042949945
166	0x3d9bf67a	0.07615371
167	0xbe0a378e	-0.13497755
168	0xbdff9dad	-0.12481246
169	0xbd6765f1	-0.056493703
170	0xbd1d05b6	-0.038335524
171	0xbb8117be	-0.003939598
172	0xbe1ae049	-0.1512462
173	0x3ccde764	0.02513475
174	0xbde5e015	-0.11224381
175	0x3c0d3226	0.008617913
176	0xbe016ed5	-0.12639935
177	0xbd767d24	-0.060177937
178	0x3e408aae	0.18802902
179	0xbe5e73c4	-0.21723849
180	0xbc61e431	-0.013787315
181	0x3e493462	0.19648889
182	0x3cc5a1b8	0.024124965
183	0xbe030f99	-0.12798919
184	0xbe467848	-0.19381821
185	0x3e07b90a	0.1325418
186	0x3df670cf	0.12033235
187	0xbe44e889	-0.1922933
188	0x3cab5f98	0.020919606
189	0x3c292e38	0.010325961
190	0xbc35d17b	-0.011097307
191	0x3c9440ee	0.018097367
192	0xbd424479	-0.047428582
193	0xbe59ca40	-0.21268559
194	0xbdbaa9ba	-0.09114404
195	0x3bd9df4b	0.006648933
196	0x3e31a2d5	0.17347272
197	0x3e2bbce1	0.1677127
198	0xbe4cec52	-0.20012024
199	0xbdb7f614	-0.089824826
200	0xbd866949	-0.0656305
201	0x3e4e3847	0.20138656
202	0xbe461472	-0.19343737
203	0x3da022d7	0.07819145
204	0x3e580348	0.21095002
205	0x3ddc696e	0.107622966
206	0xbe3c95cc	-0.18416518
207	0xbd04d3bf	-0.0324285
208	0xbe360f61	-0.17779304
209	0xbe5b4e2e	-0.21416542
210	0xbd7239a1	-0.05913699
211	0xbcb15b15	-0.021649877
212	0xbd9b7e94	-0.07592502
213	0x3e0b5b0f	0.13608955
214	0x3dc5166d	0.09623418
215	0xbdd85f22	-0.1056502
216	0xbe412a6d	-0.1886384
217	0xbe3cf031	-0.18451001
218	0xbe2103c1	-0.15724088
219	0xbe2796cb	-0.16366117
220	0xbddcfb88	-0.10790163
221	0xbe7febcd	-0.24992295
222	0x3e637566	0.22212753
223	0xbe2ba6a5	-0.16762789
224	0xbe281749	-0.16415133
225	0x3cef5914	0.02921728
226	0xbe729d41	-0.236928
227	0x39f05394	0.00045838638
228	0x3da788f6	0.0818042
229	0xbd80da35	-0.0629162
230	0x3de0bc77	0.10973447
231	0xbe0e10a7	-0.1387354
232	0x3d937109	0.07199294
233	0xbe213f47	-0.15746795
234	0xbdbbf322	-0.09177233
235	0xb9f60ab2	-0.00046928745
236	0xbe18e0b2	-0.14929464
237	0x3d689de3	0.056791198
238	0xbdfa10a9	-0.12210209
239	0x3dd798b7	0.10527175
240	0x3ec74e84	0.3892709
241	0xbe8f50fd	-0.27991477
242	0x3e245562	0.16048196
243	0x3e858fd9	0.2608631
244	0x3e926120	0.28589725
245	0x3de9e173	0.11419954
246	0xbe030f78	-0.1279887
247	0x3b94cdde	0.004541143
248	0x3e5195b6	0.20467266
249	0x3ddef4cf	0.10886537
250	0xbe1acf71	-0.15118195
251	0xbee67cbe	-0.45017046
252	0x3ea3c11e	0.31983274
253	0xbbb493f2	-0.0055108005
254	0x3ddf53fe	0.10904692
255	0xbf02dea1	-0.51120955

fc3.bias f4 [20]
0	0xbe4ccbb6	-0.19999585
1	0x3e5fb8d5	0.21847852
2	0x3e252bb9	0.1612996
3	0x3e663c79	0.22484006
4	0xbe549f3f	-0.20763873
5	0xbe375bfc	-0.17906183
6	0x3e629b30	0.22129512
7	0x3e59524c	0.212228
8	0xbe5dfa0a	-0.21677414
9	0x3dbc89d7	0.09205978
10	0xbe46efc8	-0.19427407
11	0x3e011ae5	0.12607916
12	0xbdb67526	-0.08909063
13	0xbddb6af4	-0.10713759
14	0x3decb28e	0.11557494
15	0x3e92456a	0.28568584
16	0x3e280f7e	0.1641216
17	0xbe541bc4	-0.20713717
18	0x3d8081ed	0.062747814
19	0x3b59d41d	0.0033238002

fc4.weight f4 [20, 20]
0	0xbe139bca	-0.14414898
1	0xbe7de475	-0.2479418
2	0x3dabaec1	0.08382941
3	0x3d52ad9d	0.0514351
4	0xbe3dc094	-0.18530494
5	0xbe841df9	-0.25804117
6	0xb937142d	-0.00017459756
7	0xbd21ff42	-0.039550073
8	0x3dcb75cb	0.099345766
9	0xbe2edbde	-0.1707606
10	0xbdc35403	-0.09537508
11	0x3ddbe696	0.1073734
12	0xbcd4853f	-0.025942443
13	0x3dc923f6	0.09821312
14	0x3e124d4c	0.14287299
15	0x3c878050	0.016540676
16	0xbe005c1e	-0.1253514
17	0x3e213345	0.15742214
18	0x3e27e13e	0.16394517
19	0x3d63c8ca	0.05561141
20	0x3e296c78	0.16545284
21	0x3e52bbad	0.20579405
22	0xbdb14123	-0.08655002
23	0x3e97670d	0.2957081
24	0x3d90ec30	0.07076299
25	0xbe25a383	-0.16175656
26	0x3cbe7043	0.02324689
27	0x3d8f01df	0.06982779
28	0xbd90e572	-0.07075013
29	0xbdb0190a	-0.08598526
30	0xbe435a81	-0.19077493
31	0x3e036b82	0.1283398
32	0xbe0bd04d	-0.13653679
33	0xbe49eafe	-0.19718549
34	0xbe2ab876	-0.16671929
35	0x3dfe253a	0.12409444
36	0x3eaa96b0	0.3331809
37	0xbe5697ad	-0.20956297
38	0xbd23248f	-0.039829787
39	0xbe2cd51e	-0.16878173
40	0x3d1eed1b	0.03880034
41	0xbdd1ed78	-0.10250372
42	0x3d480a1f	0.048837777
43	0x3e510107	0.20410548
44	0xbd0a0141	-0.033692602
45	0x3e0c0d76	0.1367701
46	0x3e786d49	0.24260439
47	0x3dfe132e	0.12406002
48	0x3e0c2be9	0.13688625
49	0x3e2ef3a2	0.17085126
50	0xbe05b759	-0.13058223
51	0xbdd740cd	-0.10510407
52	0x3e97b4b0	0.2963004
53	0x3e546d47	0.20744811
54	0xbe335c11	-0.1751559
55	0xbc1b603b	-0.009483392
56	0x3cb65ea5	0.022261927
57	0x3c239413	0.009984034
58	0x3dbf504b	0.093414865
59	0xbd92ddb9	-0.071711965
60	0x3ea0780d	0.3134159
61	0xbdfeb041	-0.124359615
62	0x3ea2a8bd	0.31769362
63	0x3de7f590	0.11326134
64	0xbdc00cfb	-0.09377476
65	0x3e812362	0.25222307
66	0x3ce86d56	0.028372448
67	0x3da3dce5	0.08001117
68	0xbd9aef80	-0.07565212
69	0x3dd3c470	0.10340202
70	0x3e5b67bc	0.2142629
71	0x3dfee342	0.1244569
72	0x3bd075fe	0.006361722
73	0xbbc066c0	-0.0058716238
74	0x3e68c815	0.22732575
75	0xbe84697b	-0.25861725
76	0xbe21d328	-0.15803206
77	0x3e311c38	0.17295921
78	0xbca354cb	-0.019937893
79	0x3ce4e16a	0.027939517
80	0x3d497d1d	0.049191583
81	0xbd279db2	-0.040921874
82	0xbe4191ed	-0.18903323
83	0xbd14305b	-0.036178928
84	0xbd485588	-0.048909694
85	0x3d000d98	0.031262964
86	0x3da6c54b	0.081430994
87	0xbd5b66dc	-0.05356489
88	0xbe5eb2af	-0.2174785
89	0x3e48750c	0.195759
90	0x3d8d76a1	0.06907392
91	0xbd069689	-0.032858405
92	0xbc54b48f	-0.012982502
93	0x3d59849d	0.053104986
94	0xbda63b28	-0.08116752
95	0xbd27e006	-0.04098513
96	0x3e20f259	0.15717448
97	0xbd0fb826	-0.035087727
98	0xbe63dac3	-0.2225142
99	0xbe4b3196	-0.19843134
100	0x3da716c9	0.08158643
101	0x3dc906b5	0.098157324
102	0x3eb514fc	0.35367572
103	0x3e5a6db9	0.21330918
104	0x3dcd25dd	0.100169875
105	0x3ebdfe73	0.37108192
106	0x3e9e071c	0.308648
107	0x3e94d6f2	0.2907024
108	0xbdc5e27f	-0.09662341
109	0xbdcd2032	-0.100159064
110	0x3e3cb4f3	0.18428402
111	0xbd0dceed	-0.034621168
112	0x3ea33ece	0.31883854
113	0x3e165a64	0.14682919
114	0x3d0f7c03	0.035030376
115	0x3dd2d2b2	0.10294093
116	0xbdc33aaa	-0.09532674
117	0xbced3909	-0.02895786
118	0xbdd95e01	-0.10613633
119	0x3eb4213d	0.3518161
120	0x3e34cfc9	0.17657389
121	0xbdf7c252	-0.120976105
122	0x3e4587e0	0.19290113
123	0x3e7e1949	0.24814333
124	0x3cac61ab	0.021042665
125	0xbcf5deff	-0.03001356
126	0x3e9996f0	0.2999797
127	0xbdf572bb	-0.11984774
128	0xbd4fda5e	-0.05074536
129	0xbdadbd9b	-0.0848343
130	0xbdf06b41	-0.11739207
131	0x3e7ecd89	0.24883093
132	0x3e21a7e2	0.15786698
133	0xbda226de	-0.079175696
134	0x3e525096	0.20538554
135	0x3e72fec9	0.23730005
136	0x3c949d3f	0.018141387
137	0xbe323d5d	-0.1740622
138	0xbb471ab3	-0.0030380904
139	0x3e812b1d	0.25228205
140	0x3e5aa602	0.2135239
141	0x3e5d180b	0.21591203
142	0xbe5f941f	-0.21833847
143	0xbe453488	-0.1925832
144	0xbdcabaea	-0.09898932
145	0xbe871fac	-0.2639135
146	0xbdc58aa0	-0.09645581
147	0x3e5b8010	0.2143557
148	0xbdac49fe	-0.084125504
149	0xbc7468a5	-0.014917527
150	0xbbb63aa3	-0.0055611893
151	0xbe385705	-0.18001945
152	0xbe9f7940	-0.31147194
153	0xbeb97f7c	-0.36230075
154	0xbea9ec01	-0.3318787
155	0x3e44deef	0.19225667
156	0x3e859a1f	0.26094148
157	0x3d0a024b	0.033693593
158	0xbe4997ee	-0.19686863
159	0xbe7f5f24	-0.24938637
160	0xbe380733	-0.17971496
161	0xbe41499d	-0.18875737
162	0xbe4d2b81	-0.20036127
163	0x3e3c3e0f	0.18383048
164	0x3e57e67c	0.21084017
165	0x3dcb6e4a	0.09933145
166	0x3d5ab2cf	0.05339318
167	0xbd78ffa5	-0.060790677
168	0xbe462588	-0.19350255
169	0xbdead812	-0.114669934
170	0xbd8163a1	-0.06317831
171	0xbd902802	-0.07038881
172	0xbdbf7ee6	-0.09350376
173	0x3dfd2f00	0.1236248
174	0xbd9800ef	-0.07422053
175	0xbe3d6252	-0.18494537
176	0xbd2d1afb	-0.04226206
177	0xbcbf3eb5	-0.02334533
178	0xbdf6897b	-0.12037941
179	0x3d632eb4	0.05546446
180	0xbda1291e	-0.078691706
181	0x3ce4b432	0.027917955
182	0xbe55f4e6	-0.20894203
183	0xbe48885b	-0.19583265
184	0x3d180259	0.037111614
185	0xbca24eba	-0.01981293
186	0x3c026422	0.007958444
187	0xbe14b287	-0.14521228
188	0xbe1ca845	-0.15298565
189	0xbe07531f	-0.13215302
190	0xbd29df46	-0.041472696
191	0xbe4cfeaf	-0.20019029
192	0xbe3e7106	-0.18597803
193	0xbe5174d0	-0.20454717
194	0x3deb38ef	0.114854686
195	0xbe384e1a	-0.17998543
196	0xbcd0847a	-0.025453795
197	0x3daf5181	0.085604675
198	0x3e040713	0.12893324
199	0xbe58df21	-0.21178867
200	0x3e9194c6	0.28433818
201	0x3e240f98	0.16021574
202	0x3ebb485c	0.36578643
203	0x3e54cf2a	0.20782152
204	0xbc54b672	-0.0129829515
205	0x3ea00151	0.31251004
206	0x3e141df3	0.1446455
207	0xbd3f6926	-0.046731137
208	0xbd7160d1	-0.058930222
209	0x3ded2b77	0.11580556
210	0x3e5cb0cf	0.21551822
211	0x3e1ffd23	0.15623908
212	0x3ec551b2	0.3853889
213	0x3ecea0fa	0.4035719
214	0x3da355b9	0.07975335
215	0xbd8bd357	-0.06827419
216	0xbe24f758	-0.16109979
217	0x3e2ecae6	0.17069587
218	0x3e0c1624	0.13680321
219	0x3e85f321	0.26162055
220	0xbda8cd2c	-0.082422584
221	0xbe4d1ee9	-0.20031323
222	0xbc99af56	-0.018760365
223	0xbe44673a	-0.19180003
224	0x3cc686b2	0.02423415
225	0x3e613393	0.2199233
226	0xbe0206b9	-0.12697877
227	0x3c106336	0.008812716
228	0xbe24d33f	-0.16096209
229	0x3ddbc22f	0.10730397
230	0x3e42e6e5	0.19033392
231	0x3d0c6296	0.034273706
232	0xbaf5e6ae	-0.0018760765
233	0x3e2ff115	0.17181809
234	0xbde89ecb	-0.11358412
235	0xbe5befa7	-0.21478139
236	0x3d6818cc	0.056664273
237	0xbe168f96	-0.14703211
238	0x3dbf1c3b	0.093315564
239	0xbe314e4f	-0.17315029
240	0x3e98d678	0.29851127
241	0x3e7d34a8	0.24727118
242	0xbe7e8c73	-0.24858265
243	0x3e72dd17	0.23717152
244	0x3d2136bf	0.03935885
245	0xbe8b4c36	-0.27206582
246	0x3cfabc7e	0.030607458
247	0x3e6005a8	0.21877158
248	0xbe1f8bcf	-0.15580676
249	0x3da08272	0.078373805
250	0xbe0418e5	-0.12900122
251	0xbe136ad1	-0.14396216
252	0x3d296c87	0.041363265
253	0xbdf42dcb	-0.11922797
254	0x3e6c98f6	0.23105225
255	0x3dfc04d1	0.12305606

fc4.bias f4 [20]
0	0xbe2261ad	-0.15857573
1	0x3e93d4da	0.2887333
2	0x3ccc7916	0.024960082
3	0xbe5c6eb5	-0.21526606
4	0xbe683a3f	-0.22678469
5	0x3e922c41	0.28549388
6	0xbd4910ea	-0.049088396
7	0x3e2ab720	0.16671419
8	0xbd02377f	-0.031791206
9	0xbe5edee7	-0.21764718
10	0xbe0a3337	-0.134961
11	0xbe132826	-0.14370784
12	0x3ea05426	0.313142
13	0x3e8013cf	0.25015113
14	0x3e1f7253	0.15570955
15	0xbe78ed57	-0.24309288
16	0xbdce4e26	-0.100734994
17	0x3db22be9	0.086997814
18	0x3dcb9a61	0.09941555
19	0x3e4118e2	0.18857148

fc5.weight f4 [20, 20]
0	0x3d23ca9f	0.039988156
1	0x3e8720e3	0.26392278
2	0x3bae4397	0.005318116
3	0xbdd19e7d	-0.10235307
4	0x3d6d9340	0.058001757
5	0x3e1025a9	0.14076866
6	0x3d8dc525	0.06922368
7	0x3f600b16	0.87516916
8	0x3b27207a	0.0025501535
9	0x3b362198	0.002779102
10	0xbce1333b	-0.027490249
11	0xbcc3eb82	-0.02391601
12	0x3e4d0f8b	0.2002546
13	0xbe566800	-0.2093811
14	0x3e70e855	0.23526128
15	0xbd8bfdfa	-0.068355516
16	0xbdeab9fb	-0.11461254
17	0xbe84be1d	-0.25926295
18	0xbd39f0cb	-0.045395654
19	0xbc4224b0	-0.011849567
20	0x3da3fa9b	0.080067836
21	0xbde9d6bc	-0.114179105
22	0x3d871b0d	0.065969564
23	0x3e79c22b	0.24390475
24	0x3baa4539	0.0051962403
25	0x3e121495	0.14265664
26	0x3de7aede	0.1131265
27	0xbf253352	-0.64531434
28	0x3dd57999	0.104235835
29	0xbe1635ae	-0.14668915
30	0x3d4fe015	0.05075081
31	0x3e44e5b6	0.19228253
32	0x3de1a299	0.11017341
33	0xbd57d850	-0.052696526
34	0x3baf26b9	0.0053451923
35	0x3e77012a	0.24121538
36	0x3d82817f	0.06372356
37	0xbe199eb1	-0.15001942
38	0x3cf1a699	0.029498385
39	0xbeb9d4cb	-0.3629516
40	0x3d59ea50	0.053201973
41	0xbdf991a2	-0.121859804
42	0x3e2fefd1	0.17181326
43	0x3db799ac	0.089648575
44	0x3db5a093	0.08868518
45	0x3e7f9bbf	0.24961756
46	0x3df0de10	0.11761105
47	0xbee5c9f4	-0.4488064
48	0xbca98021	-0.02069098
49	0xbdac4a71	-0.08412636
50	0x3e090891	0.13382174
51	0xbe50eb6a	-0.20402303
52	0xbcbc0522	-0.022951666
53	0x3d709e4b	0.05874471
54	0xbd38370f	-0.044974383
55	0x3e8be4f7	0.27323124
56	0xbdd510a8	-0.104035676
57	0x3d804b6b	0.06264385
58	0xbdc3bd69	-0.095576115
59	0xbde12438	-0.10993236
60	0xbd4d3f00	-0.05010891
61	0x3ea73397	0.32656547
62	0xbdaf14a3	-0.08548858
63	0x3d647922	0.055779584
64	0x3b0a8438	0.0021135937
65	0x3e55b2a9	0.20868935
66	0xbdedb434	-0.11606637
67	0x3f6f5716	0.9349226
68	0xbe3a602a	-0.18200746
69	0xbd88bab2	-0.06676234
70	0xbe62a17e	-0.22131917
71	0x3e3ad82a	0.18246523
72	0x3eb964d9	0.36209753
73	0xbd919779	-0.07108969
74	0x3e950cb0	0.29111242
75	0xbe58e602	-0.21181491
76	0xbb3e1a3b	-0.0029007334
77	0xbe59a7be	-0.21255395
78	0x3e74b457	0.23896919
79	0x3d2cdff0	0.04220575
80	0xbe3de50e	-0.18544409
81	0xbeb01e5b	-0.3439816
82	0x3b472216	0.0030385307
83	0x3e92b76b	0.28655562
84	0x3e0db9fc	0.13840479
85	0x3e8f52b1	0.27992776
86	0x3df008ec	0.11720452
87	0xbf17814e	-0.5918168
88	0x3de1c920	0.1102469
89	0xbc0cec9c	-0.008601334
90	0x3ebe8f47	0.37218687
91	0xbe3f8f35	-0.18706973
92	0xbda038f1	-0.07823361
93	0xbd97b791	-0.074080594
94	0xbe0062b7	-0.12537657
95	0x3d389c3a	0.045070864
96	0xbe0eb010	-0.1393435
97	0x3e65e337	0.22449957
98	0x3c3ef8b3	0.011655974
99	0xbd8b2b5d	-0.0679538
100	0x3d257aa2	0.040400155
101	0x3da3e97c	0.08003518
102	0xbe0fb8fa	-0.14035407
103	0x3c580ac5	0.013186161
104	0xbe48c7bb	-0.19607441
105	0xbd8ccdc8	-0.06875187
106	0x3dfbbbcb	0.12291678
107	0x3f4ed03d	0.80786496
108	0x3e3f2d12	0.18669537
109	0x3cd1f12e	0.025627699
110	0xbe3d5a03	-0.18491368
111	0xbca98ff3	-0.020698523
112	0x3e69032d	0.22755118
113	0x3d6f940c	0.058490798
114	0x3e80d866	0.251651
115	0xbd72b5e7	-0.059255507
116	0xbd143cb3	-0.0361907
117	0x3d4c998c	0.04995112
118	0x3dce4ead	0.100736
119	0x3e34e8a4	0.1766687
120	0xbe612e37	-0.21990286
121	0xbe1d23e3	-0.15345721
122	0x3d7552a1	0.059893254
123	0x3dfde2e1	0.12396789
124	0x3d8dbbc8	0.06920582
125	0x3d01bab0	0.03167218
126	0xbe6bde45	-0.23034008
127	0xbdace03c	-0.08441207
128	0xbe08f967	-0.1337639
129	0x3cfb3aae	0.03066763
130	0xbdd31582	-0.10306837
131	0x3e0d62a2	0.13807157
132	0xbdbf4b8c	-0.09340581
133	0x3e27eac7	0.16398154
134	0xbe522e39	-0.20525445
135	0xbdad88c2	-0.0847335
136	0x3dfb1996	0.122607395
137	0xbe04b2e0	-0.1295886
138	0x3e1930d3	0.14960031
139	0xbe6408da	-0.22269002
140	0xbdc170d0	-0.094453454
141	0xbe830a28	-0.25593686
142	0xbc6a1376	-0.014286866
143	0x3e592709	0.21206297
144	0xbbbbc77f	-0.005730569
145	0xbc760538	-0.015015893
146	0x3daf17d4	0.08549467
147	0xbf59ffe6	-0.85156095
148	0x3e11b4cd	0.14229126
149	0x3c717a56	0.01473864
150	0x3e250ec8	0.1611892
151	0x3db098eb	0.08622917
152	0x3df58b28	0.119894326
153	0x3e94702b	0.28991827
154	0xbe586e4b	-0.21135823
155	0x3eabbe6b	0.33543715
156	0xbe2ce5de	-0.16884562
157	0xbd96db53	-0.073660515
158	0x3daf401d	0.085571505
159	0xbc8cfd28	-0.017210558
160	0x3bfd379c	0.0077275764
161	0x3e228be0	0.1587367
162	0xbdc407e4	-0.095718175
163	0x3d076909	0.033059154
164	0x3d04b0fa	0.03239534
165	0x3d9dfa1d	0.07713721
166	0x3e400909	0.18753447
167	0xbe1398f0	-0.1441381
168	0x3e5e6065	0.21716459
169	0x3e5b01f0	0.21387458
170	0xbde853a9	-0.11344082
171	0x3e614ec4	0.22002703
172	0xbda416b4	-0.08012143
173	0x3da3ca7f	0.079976074
174	0xbe37b6c2	-0.1794081
175	0xbe5e79f2	-0.21726206
176	0x3d8e9d1b	0.06963559
177	0xbdff7627	-0.12473708
178	0xbd050311	-0.032473627
179	0x3e012569	0.12611927
180	0xbdca6b19	-0.098837085
181	0x3eac7eab	0.3369039
182	0x3e1e8580	0.15480614
183	0xbd64b35e	-0.05583512
184	0x3d464aba	0.04841111
185	0x3db57fd6	0.088622734
186	0x3e8bc4ec	0.27298677
187	0x3f158c28	0.58416986
188	0xbcdb14c7	-0.026743306
189	0xbcd5a5aa	-0.026079971
190	0xbd24bebd	-0.040220965
191	0x3e3389e0	0.17533064
192	0x3ea993e8	0.33120656
193	0x3e1507a5	0.14553697
194	0x3ead964c	0.3390373
195	0xbe8959ee	-0.26826423
196	0x3deccfc2	0.11563064
197	0xbe43047f	-0.19044684
198	0x3ea1b366	0.31582183
199	0x3eb182a8	0.34669995
200	0x3e7427ec	0.23843354
201	0xbe39cf34	-0.18145448
202	0x3e9efffc	0.31054676
203	0x3d281469	0.04103509
204	0xbd8ae362	-0.06781651
205	0x3caffb9a	0.021482278
206	0x3e37ab79	0.17936505
207	0xbf025dda	-0.50924456
208	0xbe314003	-0.17309575
209	0x3e49b5a1	0.19698192
210	0x3dfa4b48	0.1222139
211	0x3dad28bf	0.08455037
212	0x3c953fa3	0.01821882
213	0x3e93d0dc	0.28870285
214	0xbc9092c1	-0.017648103
215	0x3ec4661c	0.38359153
216	0x3dfa61f0	0.12225711
217	0x3e355f5e	0.17712161
218	0x3e173502	0.14766315
219	0xbbd312e3	-0.0064414605
220	0xbde331a1	-0.1109345
221	0x3c9aae70	0.018882006
222	0xbcae83dc	-0.02130311
223	0x3e87071d	0.26372615
224	0x3da417ba	0.08012338
225	0x3e654fec	0.22393769
226	0x3d9af790	0.0756675
227	0xbf5b0d75	-0.8556741
228	0x3bf2846d	0.0074010403
229	0xbe20f294	-0.15717536
230	0x3d8e4342	0.06946422
231	0xbe5763cd	-0.21034165
232	0xbd9ccc99	-0.076562114
233	0x3e98bc73	0.29831275
234	0xbe6815ef	-0.22664617
235	0x3ebcd716	0.36882848
236	0xbd50e790	-0.051002085
237	0x3e920ce6	0.28525466
238	0x3e20b221	0.15692951
239	0xbe9558f4	-0.29169428
240	0x3dd2e3bc	0.10297343
241	0xbe247008	-0.16058362
242	0x3e9697c9	0.29412678
243	0x3e0986eb	0.13430373
244	0xbd8f1573	-0.06986513
245	0x3e60b717	0.21944843
246	0x3da925d2	0.08259167
247	0xbf4f23e6	-0.8091415
248	0x3d741bb3	0.05959673
249	0x3e54b24f	0.20771144
250	0x3e215082	0.15753368
251	0xbc7934b2	-0.015210317
252	0x3a69cc07	0.0008918647
253	0x3db3dd37	0.08782428
254	0xbcf1100a	-0.029426593
255	0x3e75fb7a	0.24021712

fc5.bias f4 [20]
0	0x3d7fd4dd	0.06245886
1	0xbda0c78a	-0.07850559
2	0x3e2c0a00	0.1680069
3	0x3dad71e9	0.08468992
4	0xbe40055b	-0.18752043
5	0x3e5a107a	0.21295348
6	0x3c48ac6b	0.012248139
7	0xbdd67d8b	-0.10473164
8	0xbe31a037	-0.17346273
9	0xbc03ef71	-0.008052693
10	0x3e886485	0.2663919
11	0x3c772945	0.015085523
12	0x3d1d6d1c	0.038434133
13	0x3e379923	0.17929511
14	0xbc3efe07	-0.0116572445
15	0x3de17c36	0.110100195
16	0x3d8f2c52	0.06990875
17	0x3e13b723	0.1442533
18	0xbe66c856	-0.2253736
19	0x3e01e116	0.1268352

fc6.weight f4 [3, 20]
0	0x3ea7dfb7	0.32787868
1	0xbe69f8c5	-0.22848804
2	0xbbcaa902	-0.006184698
3	0x3e64a609	0.22328962
4	0xbee6be5c	-0.45067108
5	0x3ed02e7d	0.40660468
6	0xbe3db67e	-0.18526646
7	0xbea1d2ab	-0.3160604
8	0xbe0cd95f	-0.13754795
9	0x3eafdbeb	0.34347472
10	0xbc9a0576	-0.018801432
11	0xbe22841a	-0.15870705
12	0xbdc15e5b	-0.09441825
13	0xbd634d37	-0.05549356
14	0x3e601afd	0.21885295
15	0xbd057443	-0.03258158
16	0x3ea25355	0.31704202
17	0xbdf85422	-0.12125422
18	0xbe305ff9	-0.1722411
19	0xbd7ec4b7	-0.06219932
20	0xbe78273f	-0.24233721
21	0xbc01b6ea	-0.007917145
22	0xbedcb8ac	-0.43109643
23	0xbf0907b8	-0.535274
24	0xbeb060a1	-0.34448722
25	0xbe72ab0b	-0.2369806
26	0x3d51709c	0.051132783
27	0xbd829022	-0.063751474
28	0xbcda99a0	-0.026684582
29	0xbedb787d	-0.42865363
30	0xbef56194	-0.4792601
31	0xbeb452a8	-0.35219312
32	0xbeff2608	-0.49833703
33	0xbd659785	-0.056052703
34	0x3e2c0740	0.1679964
35	0xbdf0b090	-0.117524266
36	0xbf174646	-0.59091604
37	0xbe2cd236	-0.16877064
38	0xbdbdb2e5	-0.09262637
39	0x3df68c25	0.12038449
40	0xbecb43cc	-0.39700162
41	0x3e8c68fc	0.27423847
42	0x3e59b0b4	0.21258813
43	0xbeb7fd7e	-0.35935587
44	0x3e6a9e3d	0.22911926
45	0x3d50b2f3	0.05095191
46	0xbe09e048	-0.13464463
47	0x3e3c574d	0.18392678
48	0xbe575493	-0.21028356
49	0x3d700868	0.058601767
50	0x3e2a3111	0.1662028
51	0x3ecef304	0.4041978
52	0x3d1d6008	0.03842166
53	0xbb860f0d	-0.0040911497
54	0xbddc4999	-0.10756225
55	0x3eaa5b70	0.33272886
56	0x3e5885c5	0.21144779
57	0xbe31272b	-0.17300098
58	0xbdac7edc	-0.08422634
59	0xbe39814b	-0.18115728

fc6.bias f4 [3]
0	0x3eb1b0d3	0.3470522
1	0xbefa0ab7	-0.488363
2	0x3e07c85c	0.13260025
