models_3val/or.pth (torch, 11746 bytes, 12 tensors)

fc1.weight f4 [20, 12]
0	0xbdf8391d	-0.121202685
1	0x3e1123a6	0.14173755
2	0x3eaf68f7	0.3425977
3	0x3d96c27b	0.07361313
4	0x3d93345c	0.07187721
5	0x3e8bbe09	0.27293423
6	0x3e90a64b	0.2825187
7	0x3e39957a	0.18123427
8	0x3e5ecc86	0.21757707
9	0x3bf8462d	0.007576725
10	0x3e741756	0.23837027
11	0x3dce6786	0.10078339
12	0x3e69e465	0.22841032
13	0x3eb185ea	0.3467248
14	0x3e8cbe13	0.27488765
15	0x3e38ec3e	0.18058869
16	0x3aee4456	0.0018178325
17	0x3e19621a	0.14978829
18	0x3e1f7789	0.15572943
19	0x3d347d7e	0.04406499
20	0xbdd3f858	-0.10350102
21	0xbe144a4a	-0.14481464
22	0x3eb990e6	0.3624336
23	0x3df4588f	0.11930954
24	0x3ef1906f	0.47180507
25	0x3ec73fb6	0.38915795
26	0x3dd7b690	0.10532868
27	0x3d31f3c6	0.04344537
28	0x3d81c5bf	0.06336545
29	0x3d7d43a7	0.061832096
30	0xbd99f85a	-0.075180724
31	0xbd17daae	-0.037073784
32	0x3de05eee	0.109556064
33	0xbd1af84e	-0.037834458
34	0x3e3d91cf	0.18512653
35	0x3baf8b5c	0.005357189
36	0xbee33463	-0.44375905
37	0xbef56b58	-0.4793346
38	0x3e4aff6a	0.19823995
39	0x3dfdf0f9	0.123994775
40	0x3e007496	0.12544474
41	0x3e97d78c	0.29656637
42	0x3d8dd3d2	0.06925167
43	0x3de3980b	0.11112984
44	0x3d12606b	0.035736483
45	0x3e267d4a	0.16258731
46	0x3e438447	0.19093429
47	0x3e30daea	0.17271009
48	0xbddad42d	-0.106850006
49	0xbe41b457	-0.1891645
50	0xbdb8cc96	-0.09023397
51	0x3d51ed1a	0.05125151
52	0xbdabced2	-0.08389057
53	0xbe8ad990	-0.27119112
54	0xbc528278	-0.012848489
55	0x39d1c37e	0.0004000924
56	0xbe2e8a13	-0.17044859
57	0xbe2487c0	-0.1606741
58	0xbd9f56a4	-0.07780197
59	0xbe866244	-0.26246846
60	0x3ec571e2	0.38563448
61	0x3f1f8b51	0.62321955
62	0x3db70b88	0.08937746
63	0xbbd45891	-0.0064802845
64	0x3e18e58c	0.14931315
65	0x3e47365a	0.19454327
66	0x3d992ae0	0.07478881
67	0x3d9a40d3	0.075318955
68	0x3de79b6b	0.113089405
69	0x3d2f988c	0.04287009
70	0x3daf415e	0.0855739
71	0x3de11a53	0.10991349
72	0xbe6df704	-0.2323876
73	0xbc089958	-0.008337341
74	0x3e375563	0.17903666
75	0x3e003a15	0.12522157
76	0x3ec6e85d	0.38849154
77	0x3db8316e	0.08993803
78	0x3eccb279	0.39979914
79	0x3e33dfc6	0.17565832
80	0x3da4d983	0.080492996
81	0xbe0a5fba	-0.1351308
82	0x3c4be111	0.012443797
83	0x3ea5d929	0.32392243
84	0x3ee7c753	0.4526926
85	0x3e8694fb	0.26285538
86	0x3d6114ac	0.054951355
87	0x3d573de1	0.052549247
88	0xbb8ae63c	-0.004238872
89	0x3ed3291d	0.41242304
90	0x3ec546cc	0.38530576
91	0xbc5be912	-0.0134222675
92	0x3c94d137	0.018166168
93	0x3e90d0e8	0.28284383
94	0x3e154a1c	0.14579052
95	0xbc853864	-0.01626224
96	0x3e961535	0.29313055
97	0x3ea5cfeb	0.3238519
98	0xbda967ce	-0.08271752
99	0x3e36b6d3	0.1784318
100	0x3e515987	0.20444308
101	0xbda1d88b	-0.079026304
102	0x3e21d9f1	0.15805794
103	0x3e722330	0.23646235
104	0xbdb8a51a	-0.090158656
105	0xbdfa83a7	-0.12232142
106	0x3c13569e	0.008992819
107	0x3e0ed7a4	0.13949448
108	0x3e0c499c	0.13699955
109	0xbd21ddfd	-0.039518345
110	0x3c9c4574	0.019076087
111	0x3ea344e2	0.3188849
112	0x3ed406e5	0.4141151
113	0x3e5e5760	0.21713018
114	0x3eced344	0.40395558
115	0xbcbd92f9	-0.023141371
116	0x3e68d626	0.22737941
117	0x3e156ddb	0.14592688
118	0x3e30536f	0.17219327
119	0x3db50e72	0.08840646
120	0x3eea7543	0.4579259
121	0x3eea2506	0.45731372
122	0x3e971bb0	0.2951331
123	0x3dfc08ae	0.12306343
124	0x3de7b386	0.11313538
125	0xbccf0b96	-0.02527408
126	0x3e4ff651	0.20308806
127	0x3dc55542	0.09635402
128	0xbc9ed126	-0.01938684
129	0x3e7d1d62	0.2471824
130	0x3dad7fd1	0.08471645
131	0xbd4ec2b2	-0.050478645
132	0xbe584745	-0.21120937
133	0xbe86b09c	-0.26306617
134	0x3d942eac	0.072354645
135	0x3d6b297a	0.057412602
136	0x3eaf2831	0.3421035
137	0x3e88cebf	0.26720235
138	0x3e2739ee	0.16330692
139	0x3e202aad	0.1564128
140	0x3ed1bb2b	0.4096311
141	0x3ee7d60a	0.45280486
142	0x3ecefebb	0.4042872
143	0x3e1bcfc9	0.15215982
144	0x3efd4b89	0.4947169
145	0x3f054a28	0.5206628
146	0xbdb6a210	-0.0891763
147	0x3e9bce75	0.30430952
148	0xbd573042	-0.052536257
149	0x3e9bb1fe	0.30409235
150	0x3e16315f	0.14667271
151	0x3e3ea0ad	0.1861598
152	0x3e106627	0.14101468
153	0xbc4cb9c9	-0.0124954665
154	0x3ec7a97b	0.3899649
155	0x3e8352d9	0.25649145
156	0x3edee091	0.43530706
157	0x3e212a7f	0.15738867
158	0x3ead250c	0.33817327
159	0x3ece1e2b	0.4025739
160	0x3da8e2ac	0.08246359
161	0x3db59f83	0.08868315
162	0xbdc037c4	-0.093856364
163	0x3e22ace7	0.1588627
164	0x3ed2ebd2	0.41195542
165	0x3e3bf8ac	0.1835658
166	0x3e94415e	0.2895612
167	0x3e28a3b3	0.16468696
168	0x3e96688a	0.29376632
169	0x3f0cd5b8	0.5501361
170	0xbd6aabc4	-0.057292715
171	0x3e3523ef	0.17689489
172	0x3dc1341d	0.09433768
173	0x3de2bd1d	0.11071227
174	0xbd4c7243	-0.049913656
175	0x3ebf6f7b	0.3738974
176	0xbbf4c070	-0.0074692294
177	0x3e4356e4	0.19076115
178	0x3e9e2b8a	0.30892593
179	0x3de584c4	0.11206964
180	0xbf1373ee	-0.5759877
181	0xbedf502d	-0.43615857
182	0x3d33b882	0.043877132
183	0x3d389517	0.04506406
184	0xbd8a2495	-0.06745259
185	0xbe0d0344	-0.13770777
186	0x3e5de41f	0.21669053
187	0x3e416c0f	0.18888877
188	0x3e058aa1	0.13041164
189	0x3d948eff	0.07253837
190	0x3e395ae7	0.18101083
191	0xbc17f932	-0.009275721
192	0xbf0e99d4	-0.55703473
193	0xbf13021a	-0.5742508
194	0x3e8a60c6	0.27026957
195	0x3e8d9820	0.27655125
196	0xbc7e34cd	-0.015515518
197	0x3e92137e	0.28530496
198	0x3cbcc1ac	0.023041569
199	0x3dda6a97	0.10664862
200	0x3d336303	0.043795597
201	0x3de7939c	0.11307451
202	0x3e8c85fb	0.2744597
203	0x3e5e6ace	0.2172043
204	0x3e96b594	0.29435408
205	0x3eb9a09a	0.36255342
206	0x3cb21021	0.021736206
207	0x3e8f686c	0.28009355
208	0x3de99709	0.11405761
209	0x3caf9418	0.021432921
210	0x3e4176e2	0.18893006
211	0x3ecb2560	0.39676952
212	0x3db9ad29	0.09066231
213	0x3eb8c25d	0.36085787
214	0x3cae05d1	0.021243008
215	0x3ecdd6db	0.40202984
216	0x3eebcd46	0.4605505
217	0x3eeae7cb	0.4587997
218	0x3e30cf03	0.17266469
219	0xbded685d	-0.11592171
220	0xbdda3ca8	-0.106561005
221	0xbd5c8589	-0.053838287
222	0x3e0b09c6	0.13577947
223	0xbc62475a	-0.013810957
224	0x3ea345d2	0.31889206
225	0x3e92bb10	0.28658342
226	0xbd58a9a7	-0.052896168
227	0x3e210c63	0.15727381
228	0xbd95a205	-0.073062934
229	0x3e4ab17e	0.1979427
230	0x3e8be2a7	0.2732136
231	0x3eba57ec	0.36395204
232	0x3eb2dff5	0.3493649
233	0x3dcf6c5e	0.10128091
234	0x3c3d07ac	0.011537474
235	0x3ed45b78	0.41476035
236	0x3edefe13	0.43553218
237	0x3ca807b4	0.020511486
238	0x3d87a90c	0.0662404
239	0x3ebba91e	0.36652464

fc1.bias f4 [20]
0	0x3f06dea8	0.52683496
1	0x3e4b0aa0	0.19828272
2	0x3d8dbf1a	0.06921215
3	0x3e1a9ba5	0.15098436
4	0xbe24440d	-0.16041584
5	0xbd111399	-0.03541908
6	0x3ef1bd8b	0.47214922
7	0xbd98542c	-0.074379295
8	0x3e3684c2	0.1782408
9	0x3d8a2af8	0.06746477
10	0xbd18db56	-0.03731855
11	0x3ed18bf8	0.409271
12	0x3ea31fea	0.31860286
13	0xbcdd0534	-0.02698002
14	0xbcc2e852	-0.02379242
15	0x3eb71d4c	0.3576454
16	0x3e7eabcd	0.24870224
17	0x3e88b537	0.26700756
18	0x3ee35252	0.44398743
19	0x3e704350	0.23463178

fc2.weight f4 [20, 20]
0	0x3e915b1d	0.28389826
1	0x3d44d030	0.048050106
2	0x3e25fcd5	0.16209729
3	0x3e20b9f0	0.1569593
4	0xbddc940f	-0.107704274
5	0x3ec995d8	0.39372134
6	0x3ea1d388	0.31606698
7	0x3ea2df28	0.3181088
8	0x3d9e04b6	0.07715742
9	0x3eb85a63	0.3600646
10	0x3dc3419d	0.09533999
11	0xbcf4927b	-0.029855004
12	0x3e104f6d	0.14092799
13	0x3ec2687a	0.37970334
14	0x3dc567e5	0.09638957
15	0xbe9dc3bf	-0.30813405
16	0xbe8f420d	-0.2798008
17	0xbce75880	-0.028240442
18	0x3eb6cfe1	0.35705474
19	0x3e2af169	0.16693653
20	0x3ea0e5f0	0.31425428
21	0x3e28969b	0.16463701
22	0x3db6386e	0.08897482
23	0xbd86d887	-0.06584268
24	0x3df3213d	0.11871574
25	0x3ec04951	0.37555936
26	0xbdb0f821	-0.08641077
27	0x3ea35dd4	0.31907523
28	0x3e813df4	0.2524258
29	0x3ea7f6ef	0.32805583
30	0x3e56a9af	0.20963167
31	0x3e930267	0.2871277
32	0x3e02f0c3	0.12787156
33	0x3df87058	0.12130803
34	0x3ed30add	0.41219226
35	0xbecd46f6	-0.400932
36	0xbea8ea7e	-0.32991403
37	0x3e928c16	0.28622502
38	0x3ebf06bb	0.37309822
39	0xbcc71712	-0.024302993
40	0x3ab824f7	0.0014049102
41	0x3e1dc718	0.1540798
42	0x3ce718a2	0.028209988
43	0xbd100428	-0.035160214
44	0x3e3dc663	0.1853271
45	0x3eff523c	0.49867427
46	0x3e37ca2d	0.17948218
47	0x3e85212a	0.26001865
48	0x3e19bd62	0.1501365
49	0x3e931e09	0.28733853
50	0x3d3842d5	0.04498561
51	0x3e1ff948	0.15622437
52	0xbbd78204	-0.0065767784
53	0x3e2f1a94	0.17099983
54	0x3d16e6e7	0.0368413
55	0x3d8bc838	0.06825298
56	0xbcbd414f	-0.02310243
57	0x3ea91ae3	0.33028325
58	0x3dfb4c65	0.122704305
59	0x3e9066a8	0.2820332
60	0x3e60d689	0.21956839
61	0x3eaaa924	0.3333217
62	0x3d55c493	0.05218942
63	0xbe86e8b5	-0.26349416
64	0xbd49bf74	-0.04925485
65	0x3efedf6b	0.4977983
66	0x3e3b4b94	0.1829055
67	0x3d541552	0.051778145
68	0x3e558e71	0.20855118
69	0x3e62ccfd	0.2214851
70	0x3e6642ce	0.22486421
71	0x3e1d38df	0.15353726
72	0x3e950f83	0.29113397
73	0x3d9f76aa	0.07786305
74	0x3df51a6c	0.1196793
75	0xbe7110fb	-0.23541634
76	0xbcae0ac6	-0.021245372
77	0x3e439d79	0.1910304
78	0x3ebe637a	0.3718527
79	0x3e05bfdb	0.13061468
80	0x3dc759fa	0.097339585
81	0x3e700c22	0.23442128
82	0xbe7dfb22	-0.24802831
83	0x3ec6db5c	0.38839233
84	0x3e1a5e93	0.1507514
85	0xbe6cdd99	-0.23131408
86	0x3ed3f54c	0.41398084
87	0x3e379bb4	0.1793049
88	0xbe165c77	-0.1468371
89	0xbcb11bcf	-0.021619705
90	0x3e226f83	0.15862851
91	0x3e12ccc5	0.14335926
92	0xbc889b90	-0.01667574
93	0x3e70b345	0.23505886
94	0xbdde63e2	-0.10858895
95	0x3edb9d72	0.4289356
96	0x3ddc05f4	0.10743323
97	0x3e667025	0.22503717
98	0xba2372bc	-0.00062350533
99	0x3e32ef32	0.17474058
100	0xbd4c50d6	-0.04988178
101	0xbe37f03e	-0.17962739
102	0x3cadb659	0.021205114
103	0xbc5ade2c	-0.013358634
104	0xbdc0d729	-0.094160385
105	0x3e07e9a7	0.13272725
106	0xbdfae520	-0.122507334
107	0xbd7f9188	-0.06239465
108	0xbe3a73e7	-0.18208276
109	0xbd2f2523	-0.042760026
110	0xbc9b637c	-0.018968336
111	0xbde9615c	-0.11395523
112	0xbe3560b1	-0.17712666
113	0x3dae8593	0.08521571
114	0xbe066ecf	-0.13128208
115	0x3daa51cb	0.08316382
116	0xbd9f2c63	-0.07772138
117	0x3d951772	0.072798625
118	0xbe52cd37	-0.20586096
119	0x3e481196	0.19537959
120	0x3d198e11	0.037489
121	0x3ec112df	0.3770971
122	0x3eb40471	0.3515964
123	0xbe9714b6	-0.2950799
124	0xbe4e707f	-0.20160101
125	0x3eff625d	0.49879733
126	0xbd30ed7b	-0.04319523
127	0x3df44181	0.119265564
128	0x3ea2a636	0.31767434
129	0x3c15f537	0.009152702
130	0x3e53d328	0.20686018
131	0x3d5e1652	0.054220505
132	0x3e92db07	0.2868273
133	0x3ea3290f	0.31867263
134	0x3e593c9c	0.21214527
135	0xbec87a66	-0.39155883
136	0xbeb371a3	-0.35047635
137	0x3ebc5dee	0.36790413
138	0x3e5f609a	0.21814194
139	0x3e10279d	0.14077611
140	0xbd952576	-0.07282536
141	0x3ebce983	0.36896905
142	0x3e2b1ed0	0.16710973
143	0xbe277f23	-0.16357093
144	0x3d83dbc9	0.06438405
145	0x3e84c3ec	0.25930727
146	0xbde25fe1	-0.11053444
147	0x3d9d9cb3	0.07695904
148	0xbb43f6de	-0.0029901783
149	0x3e1832f3	0.14863186
150	0x3e8f746b	0.28018507
151	0x3dd6e906	0.104936644
152	0xbd160cfe	-0.036633484
153	0x3e0b8652	0.13625458
154	0xbd6a3cbb	-0.057186823
155	0x3de91e29	0.11382706
156	0xbe59b8ca	-0.21261898
157	0xbdc568e0	-0.09639144
158	0x3e960739	0.29302385
159	0x3d80895b	0.062761985
160	0x3e7172af	0.23578905
161	0x3ddb9a0d	0.10722742
162	0x3b14fa53	0.0022732213
163	0xbce84937	-0.028355224
164	0x3d98f926	0.07469396
165	0x3f02f999	0.51162106
166	0x3e185bc9	0.14878763
167	0x3e4df4ec	0.20112962
168	0x3dcb0de6	0.0991476
169	0x3e3d892b	0.18509357
170	0x3e556674	0.20839864
171	0xbd592482	-0.053013332
172	0x3eb60dfc	0.35557544
173	0x3e87c026	0.26513785
174	0x3e464cdf	0.19365261
175	0xbeb3d88a	-0.35126144
176	0xbe8c6ace	-0.27425236
177	0x3ca99101	0.020699026
178	0x3d8aab2d	0.067709304
179	0x3e82bd6f	0.2553515
180	0x3e01d3f8	0.12678516
181	0x3ebf641f	0.37381074
182	0x3ec10de5	0.37705913
183	0xbe84116c	-0.25794542
184	0x3e474bec	0.19462556
185	0x3efce01f	0.4938974
186	0x3e55698a	0.20841041
187	0x3ee7ed57	0.45298263
188	0x3cfc98f7	0.030834658
189	0x3e9e7ab7	0.30953
190	0x3edfc626	0.43705863
191	0x3d1dc60e	0.038518958
192	0x3e80a4bc	0.25125682
193	0x3e71a378	0.23597515
194	0x3e907d76	0.2822072
195	0x3ca622be	0.020280238
196	0xbe5f34bf	-0.21797465
197	0x3e8f7f15	0.28026643
198	0x3ecd7e75	0.40135542
199	0x3eba5896	0.3639571
200	0x3da7e72f	0.08198392
201	0xbc4acd44	-0.012378041
202	0xbc1d0841	-0.009584487
203	0x3dc20564	0.094736844
204	0x3d33ff0d	0.043944407
205	0x3c842094	0.016128816
206	0x3e90b6a5	0.28264347
207	0x3df38485	0.118905105
208	0xbe0a6f82	-0.135191
209	0xbda80e5e	-0.08205865
210	0x3dfbe538	0.122995794
211	0x3e234c64	0.1594711
212	0x3e16badc	0.14719719
213	0x3e05911f	0.1304364
214	0xbadbc31c	-0.0016766521
215	0x3e2dd5d9	0.16976108
216	0x3dab6c53	0.083702706
217	0xbcc1c7f0	-0.023654908
218	0xbe3d8b6b	-0.18510215
219	0x3e69410e	0.22778723
220	0xbdb69f9a	-0.0891716
221	0xbe723d8f	-0.23656295
222	0xbdb53265	-0.088475026
223	0x3e0c6a04	0.13712317
224	0xbd98bf90	-0.07458413
225	0xbddbc20f	-0.10730373
226	0xbe1165a7	-0.14198934
227	0xbe205748	-0.15658295
228	0x3c53df34	0.012931634
229	0x3ce8a96d	0.028401101
230	0x3e2f226f	0.17102979
231	0xbe7378f3	-0.23776607
232	0xbda47673	-0.08030405
233	0x3e1c7e70	0.15282607
234	0xbcbff5d2	-0.023432646
235	0x3e359ecd	0.17736359
236	0xbe6c57a8	-0.23080313
237	0xbe577ede	-0.2104449
238	0xbe717aa7	-0.23581944
239	0x3dd0c44e	0.10193692
240	0x3dcd3854	0.10020509
241	0x3ea34543	0.3188878
242	0x3ea22d74	0.31675303
243	0xbe1ca404	-0.15296942
244	0xbe3c9d51	-0.18419386
245	0x3ecb4ed1	0.3970857
246	0x3e3351c0	0.17511654
247	0x3dfb36db	0.12266322
248	0x3e336208	0.17517865
249	0x3d421fce	0.047393613
250	0x3ece9bb1	0.40353158
251	0xbe4d08b1	-0.20022847
252	0x3e843056	0.25818127
253	0x3ea36e3c	0.3192004
254	0x3deeb7cb	0.116561495
255	0xbeb91ac6	-0.3615324

fc2.bias f4 [20]
0	0x3e4d735f	0.20063542
1	0xbcebc810	-0.02878192
2	0x3ed70574	0.41996348
3	0x3e51a019	0.20471229
4	0x3e22f91b	0.15915339
5	0xbe1d2940	-0.15347767
6	0x3def71a4	0.11691597
7	0x3e03f05b	0.12884657
8	0x3d7c1826	0.061546467
9	0x3e372818	0.17886388
10	0x3db1ec7b	0.08687683
11	0x3e2d62b8	0.1693219
12	0xbdd94639	-0.10609097
13	0x3e7cef98	0.24700773
14	0x3ea1f8fd	0.31635275
15	0x3dc95866	0.09831314
16	0x3e5eb585	0.21748932
17	0x3da6860c	0.08131036
18	0x3e86e83d	0.2634906
19	0x3ea4c953	0.32184848

fc3.weight f4 [20, 20]
0	0x3eb93f0d	0.36180916
1	0x3ebaec5d	0.36508456
2	0x3ea5b097	0.3236129
3	0x3ebc47a5	0.3677341
4	0xbe00efc5	-0.12591465
5	0x3dcef72f	0.1010574
6	0x3ed52ba2	0.41634852
7	0x3e2d6487	0.1693288
8	0x3e78dd7c	0.2430324
9	0x3e86a0cb	0.2629455
10	0x3ea97c93	0.33102855
11	0xbd960ff2	-0.0732726
12	0x3e05ce8d	0.13067074
13	0x3e915010	0.28381395
14	0x3eaed404	0.3414613
15	0xbe14aac4	-0.14518267
16	0x3e28041f	0.16407822
17	0x3ea7b8dc	0.32758224
18	0x3d32685e	0.043556564
19	0x3eab1da9	0.33421066
20	0x3db3df00	0.08782768
21	0x3e139c4f	0.14415096
22	0x3d5d7e89	0.05407575
23	0xbde20c68	-0.110375226
24	0xbdce8dda	-0.1008565
25	0x3e5becf0	0.21477103
26	0x3ec15549	0.3776038
27	0x3eb70e17	0.35752937
28	0x3e30db8d	0.17271252
29	0x3dcba791	0.0994407
30	0xbe8060b1	-0.2507377
31	0xbe15c160	-0.14624548
32	0x3ebb5fb1	0.36596444
33	0x3e6b8edc	0.23003715
34	0x3d68e524	0.05685915
35	0xbecc9cc8	-0.39963365
36	0x3dedab5e	0.11604951
37	0xbe6c3fad	-0.23071165
38	0xbec99616	-0.3937232
39	0x3e34c364	0.1765266
40	0xbd4cbd1b	-0.049985033
41	0x3e5ca7ca	0.21548381
42	0xbcabde46	-0.020980012
43	0xbd0c0bf5	-0.03419109
44	0x3e955f52	0.29174286
45	0x3d55e43e	0.05221962
46	0xbdfa8e74	-0.12234202
47	0x3e8615ac	0.2618841
48	0x3d5929f6	0.053018533
49	0xbd5c06d5	-0.053717453
50	0x3dc64abd	0.09682224
51	0x3d1b6d4c	0.03794603
52	0xbd026f91	-0.03184468
53	0x3e00401d	0.12524457
54	0x3e15d1d8	0.1463083
55	0x3e031ff0	0.12805152
56	0xbd3f21ac	-0.04666297
57	0x3e851726	0.25994223
58	0x3e16b947	0.14719115
59	0xbdbc2150	-0.09186041
60	0xbd998b59	-0.074972816
61	0xbe4b19cd	-0.19834061
62	0xbba834a2	-0.0051332274
63	0x3dd2cb48	0.10292679
64	0xbe22f2c9	-0.15912928
65	0xbe5b9e68	-0.21447146
66	0x3dc1b2bc	0.09457919
67	0x3ddcde23	0.10784557
68	0xbd29b075	-0.04142805
69	0xbe646f40	-0.22308064
70	0xbd7c18b9	-0.061547015
71	0xbd3bf580	-0.045888424
72	0xbcd58e13	-0.026068723
73	0x3de7ad45	0.113123454
74	0x3e1b20da	0.1514925
75	0x3e3c3a76	0.18381676
76	0xbdff3015	-0.12460343
77	0xbc8f0560	-0.017458618
78	0xbe349224	-0.17633873
79	0x3e00ee29	0.12590851
80	0x3e24ac10	0.16081262
81	0x3ee0b0a2	0.4388476
82	0xbcf39855	-0.029735724
83	0x3ec18d08	0.3780291
84	0xbed433c0	-0.41445732
85	0xbda0beae	-0.07848869
86	0x3e6ba5b5	0.23012431
87	0x3e913c55	0.28366342
88	0x3e2a2b84	0.16618162
89	0x3e45c93f	0.1931505
90	0xbda611ff	-0.08108901
91	0x3db18e81	0.086697586
92	0x3dc6ed74	0.09713259
93	0xbc9af19f	-0.018914042
94	0xbddfc211	-0.10925687
95	0xbf000237	-0.5000338
96	0x3ddcb818	0.107773006
97	0xbe39cc44	-0.18144327
98	0xbe7a1f5e	-0.24426028
99	0x3e24e4ae	0.1610286
100	0x3ec0b445	0.37637535
101	0x3e480967	0.19534837
102	0xbd15131e	-0.036395185
103	0x3e7586dc	0.23977226
104	0x3d8bd274	0.0682725
105	0xbe295bd3	-0.16538934
106	0x3ed43f14	0.41454375
107	0x3ea128eb	0.3147653
108	0x3df5eeb1	0.120084174
109	0x3dace1a5	0.08441476
110	0x3e0f5882	0.13998607
111	0xbd5faffb	-0.054611187
112	0xbcc52879	-0.02406715
113	0x3e646f74	0.22308141
114	0xbc34ed09	-0.011042842
115	0xbe8195a9	-0.25309494
116	0x3e1a1064	0.15045315
117	0x3d9b2b1d	0.075765826
118	0xbea4b6ad	-0.3217062
119	0x3ee65fd7	0.44994995
120	0x3d99559e	0.07487033
121	0x3ea9aa60	0.33137798
122	0x3d14dce1	0.03634346
123	0x3d8c40a9	0.068482704
124	0xbe509122	-0.20367864
125	0xbdfdbab7	-0.12389129
126	0x3db5b002	0.088714615
127	0x3db2eaa8	0.087361634
128	0x3e838574	0.25687754
129	0x3e2fe89d	0.17178579
130	0xbdbbbbcc	-0.09166679
131	0xbe1b8c08	-0.15190136
132	0x3e80d076	0.25159043
133	0x3de358eb	0.11100944
134	0xbc8266e5	-0.015918205
135	0xbf0b5bf8	-0.5443721
136	0x3dc7d8d8	0.097581565
137	0xbe6b1b39	-0.22959603
138	0xbe72673f	-0.23672198
139	0x3e596a06	0.21231851
140	0x3e97856a	0.29593974
141	0x3ecb93cd	0.397612
142	0x3d8c47f8	0.068496644
143	0x3e3d3daa	0.18480554
144	0x3e31f33c	0.17377943
145	0xbdcc1e8b	-0.09966763
146	0x3d41a8f2	0.04728026
147	0x3e8a241b	0.2698067
148	0x3d974a27	0.0738719
149	0x3ec5e16d	0.3864855
150	0xbcf86a95	-0.03032426
151	0xbce43a60	-0.027859867
152	0x3e461f8e	0.19347975
153	0x3e03f231	0.12885357
154	0x3e408d73	0.18803959
155	0x3d80e7a9	0.06294186
156	0x3ea235f8	0.316818
157	0x3e5e4f07	0.21709834
158	0x3e1f097d	0.15530963
159	0x3ebea843	0.37237749
160	0x3e8b2777	0.27178547
161	0x3e418d54	0.18901569
162	0xbe2c1dc6	-0.16808233
163	0xbd452ed0	-0.048140347
164	0xbed7241b	-0.42019734
165	0xbe017de6	-0.12645683
166	0x3e974d77	0.29551288
167	0x3e8db3c7	0.27676222
168	0x3e13b90c	0.14426059
169	0x3e84c86a	0.25934154
170	0xbdccc5eb	-0.09998687
171	0xbd9382cf	-0.07202684
172	0x3e86f75d	0.26360598
173	0x3e1d21de	0.1534495
174	0xbe98d033	-0.29846343
175	0xbefd20e5	-0.4943916
176	0x3e60f5a3	0.21968703
177	0x3d703bd8	0.05865082
178	0xbe77cc22	-0.24198964
179	0x3e9c0632	0.30473477
180	0xbc83dbb2	-0.01609597
181	0x3eb973bb	0.36221108
182	0x3df15e67	0.11785584
183	0xbc04a426	-0.008095777
184	0xbda84631	-0.08216513
185	0x3e3085b0	0.17238498
186	0x3e802894	0.2503096
187	0x3dbfd6ff	0.09367179
188	0x3e41baf3	0.18918972
189	0x3e73e697	0.23818432
190	0xbe11f56e	-0.1425378
191	0xbe1565b5	-0.1458958
192	0x3eb7e33b	0.3591555
193	0xbd984681	-0.074353226
194	0xbcc77e25	-0.024352143
195	0xbefdabf3	-0.4954525
196	0x3dbc6242	0.09198429
197	0xbe14e412	-0.14540127
198	0xbe94c9cc	-0.2906021
199	0x3dab8076	0.08374111
200	0x3d9cecb2	0.076623335
201	0x3ec7fb78	0.39059043
202	0x3e6f81a9	0.23389305
203	0x3e5bc06f	0.21460126
204	0x3e810c5a	0.25204736
205	0xbe1c06b1	-0.15236928
206	0x3d2a8ec3	0.041640054
207	0x3dacb6ec	0.08433327
208	0x3e8b36c8	0.27190232
209	0x3eae2fe4	0.34020913
210	0xbcfa69ca	-0.030568022
211	0x3e377c78	0.17918575
212	0x3e914534	0.2837311
213	0x3df677c1	0.1203456
214	0x3eb7a3d6	0.35867184
215	0xbe8bd2bb	-0.27309212
216	0x3e6e9de6	0.23302421
217	0x3eaab488	0.3334086
218	0xbdeb4892	-0.11488451
219	0x3e264bd0	0.16239858
220	0x3c869fc2	0.0164336
221	0x3e819659	0.2531002
222	0x3e3da825	0.18521173
223	0x3d9e3094	0.07724109
224	0xbd32a947	-0.043618467
225	0xbe433817	-0.19064365
226	0x3e23ac98	0.15983808
227	0x3e0fd40e	0.14045736
228	0x3ea1b1c3	0.31580934
229	0xbddbe915	-0.10737816
230	0xbe6d74f8	-0.23189151
231	0xbd242746	-0.040076517
232	0x3d9216fe	0.07133292
233	0x3e7a2c58	0.24430978
234	0xbe749e82	-0.23888591
235	0xbf0ede43	-0.55807894
236	0x3cabf0c4	0.02098883
237	0x3d9eb0b6	0.07748549
238	0xbed7ef89	-0.42174938
239	0x3e684c13	0.2268527
240	0x3e0b329d	0.13593526
241	0xbe55a114	-0.20862228
242	0x3e1900c1	0.14941694
243	0xbe254028	-0.16137755
244	0x3a6464b4	0.00087125157
245	0x3e64be6f	0.2233827
246	0x3d05bd5c	0.03265129
247	0x3d3bcd9d	0.045850385
248	0xbdc71abc	-0.09721896
249	0xbd62183a	-0.055198886
250	0xbdf0b9af	-0.11754166
251	0x3e24993a	0.16074076
252	0xbe3b80b3	-0.18310814
253	0x3e083933	0.1330307
254	0xbda36a10	-0.07979214
255	0xbd83a2b4	-0.064275175

fc3.bias f4 [20]
0	0x3ee2aa28	0.44270444
1	0xbdf190bb	-0.11795183
2	0x3e9c23de	0.30496114
3	0xbdd8f982	-0.10594465
4	0xbde62268	-0.11237031
5	0x3e6c399c	0.23068851
6	0xbd58d94c	-0.052941605
7	0x3ea9684c	0.33087385
8	0xbe78fabf	-0.24314402
9	0xbd856c43	-0.0651479
10	0x3e9b7724	0.30364335
11	0x3dab2b35	0.083578505
12	0xbe24fab4	-0.1611126
13	0xbe723675	-0.23653586
14	0x3d7b3846	0.061332963
15	0xbcf0c0cb	-0.029388806
16	0xbe46f9cb	-0.19431226
17	0x3db8eb8f	0.09029304
18	0x3e3cee08	0.18450177
19	0xbe84d982	-0.25947195

fc4.weight f4 [20, 20]
0	0xbe2eb6e5	-0.17061956
1	0xbce35578	-0.027750716
2	0xbde65d95	-0.11248318
3	0x3e20cdc6	0.15703496
4	0xbd3fb8a8	-0.04680696
5	0xbe62ef5c	-0.22161621
6	0x3dffc886	0.12489419
7	0xbe14c342	-0.1452761
8	0xbe5daca9	-0.21647896
9	0xbe518d65	-0.20464094
10	0x3ddf00b0	0.10888803
11	0x3e0636a1	0.13106777
12	0xbdc12cb2	-0.09432353
13	0x3d8ac0b5	0.06775037
14	0xbd670f7d	-0.056411255
15	0x3d96e1e8	0.07367307
16	0xbe0e878d	-0.13918896
17	0xbe4baf6c	-0.19891137
18	0x3d198f31	0.037490074
19	0x3d54d0c3	0.051956903
20	0xbdaeb79e	-0.08531116
21	0x3d646aa5	0.055765767
22	0xba47d5a8	-0.0007623085
23	0x3de347bf	0.11097669
24	0x3c782576	0.01514565
25	0xbdbae24d	-0.09125195
26	0xbe0d3893	-0.13791113
27	0x3d7a9f4e	0.06118708
28	0x3d1c9917	0.038231935
29	0x3e1556ee	0.14583942
30	0x3e20ad05	0.15691002
31	0xbb9f0d48	-0.004853878
32	0x3e30328f	0.17206787
33	0x3e2aa2d9	0.16663684
34	0xbdbd324d	-0.0923811
35	0x3e5a71ec	0.2133252
36	0xbdd29d2b	-0.10283884
37	0xbe55c1c0	-0.20874691
38	0xbda2dd1c	-0.079523295
39	0xbdd05b16	-0.10173623
40	0x3e026254	0.12732822
41	0xbe5c3981	-0.21506311
42	0x3e2ce681	0.16884805
43	0x3d6a1b34	0.05715485
44	0xbe8fdc63	-0.2809783
45	0x3e63ccee	0.22246143
46	0xbdceb09d	-0.1009228
47	0x3e306345	0.17225368
48	0xbe873ea8	-0.2641499
49	0xbd630dca	-0.055433072
50	0x3e4cd939	0.20004739
51	0x3dae1a04	0.08501056
52	0x3e095b52	0.13413742
53	0xbe0c7c25	-0.13719232
54	0x3dd90e36	0.10598414
55	0x3e44bc43	0.19212441
56	0xbb938d21	-0.004502908
57	0x3e6f8990	0.2339232
58	0x3e93d60c	0.28874242
59	0xbeaa058a	-0.3320735
60	0xbd3d22b3	-0.04617567
61	0x3eb7dcb0	0.3591056
62	0xbdeb5e38	-0.1149258
63	0x3e488d54	0.19585162
64	0x3eeb1b55	0.4591929
65	0xbc76a1e1	-0.015053243
66	0x3ea4ae1c	0.32164085
67	0xbce15004	-0.027503975
68	0x3ec8caf3	0.39217338
69	0x3ece0db7	0.4024484
70	0xbd43bb8c	-0.04778628
71	0x3e944d19	0.2896507
72	0xbe03d15b	-0.12872832
73	0x3e6eb993	0.23312978
74	0x3e10e3eb	0.14149444
75	0xbe632a88	-0.22184193
76	0x3eff99ab	0.49921927
77	0x3d8b18b9	0.06791825
78	0x3e10c768	0.14138567
79	0x3d7bdec4	0.061491743
80	0xbe58d18a	-0.21173683
81	0x3e60a36f	0.21937345
82	0xbc92f4ba	-0.01793896
83	0xbdbbeee0	-0.09176421
84	0xbc2c261b	-0.010507132
85	0xbe523f78	-0.20532024
86	0xbe2e95b5	-0.17049296
87	0xbe0fa1b1	-0.14026524
88	0xbb493b6e	-0.003070559
89	0xbe5f2d2a	-0.21794572
90	0xbdf9850e	-0.12183581
91	0xbd1811bf	-0.0371263
92	0xbe00b82e	-0.12570259
93	0x3e44ed43	0.19231133
94	0x3e0f8df2	0.14018992
95	0x3e2f7952	0.17136124
96	0x3e50d3b0	0.20393252
97	0x3e3772cb	0.17914884
98	0x3d27650a	0.040867843
99	0xbe0fabcf	-0.14030384
100	0xbd963a72	-0.07335366
101	0x3d9805b7	0.07422965
102	0xbd182008	-0.037139922
103	0x3d2ea4ab	0.04263751
104	0xbe105829	-0.1409613
105	0xbe295748	-0.16537201
106	0x3e248f5e	0.16070315
107	0xbe837eb8	-0.25682616
108	0xbccec212	-0.025239024
109	0xbe62068e	-0.22072813
110	0x3e1f8e92	0.1558173
111	0x3dc3fe5c	0.095699996
112	0x3e496d82	0.1967068
113	0x3e21c241	0.15796758
114	0xbcd5746e	-0.026056495
115	0x3e62ce4d	0.2214901
116	0x3dbf6707	0.09345823
117	0xbd6c1583	-0.057637703
118	0x3d84a4d5	0.06476752
119	0x3ba15259	0.0049231467
120	0x3da0770d	0.07835207
121	0x3c856dd6	0.016287725
122	0x3cc1b849	0.023647444
123	0x3e4392c3	0.19098954
124	0xbcbc3712	-0.022975478
125	0x3db892d6	0.09012382
126	0x3d7cde68	0.06173554
127	0xbd2b114e	-0.04176455
128	0xbe337d47	-0.17528258
129	0xbe7332b2	-0.23749807
130	0xbe054147	-0.13013183
131	0xbe2404b1	-0.16017415
132	0xbd137187	-0.03599694
133	0x3cf277d1	0.029598149
134	0x3da71cd8	0.081597984
135	0xbdbafa7a	-0.09129806
136	0xbe4fbc85	-0.20286758
137	0xbe5ddcc3	-0.21666245
138	0xbd95c30c	-0.07312593
139	0x3ddbc64f	0.10731184
140	0xbe3b9887	-0.18319903
141	0xbd9b4ab7	-0.0758261
142	0xbe474a56	-0.1946195
143	0xbe46cc57	-0.19413887
144	0xbdff8ddf	-0.12478232
145	0x3d8591ba	0.06521936
146	0x3d6fe586	0.0585685
147	0xbd15b22e	-0.03654688
148	0xbe644604	-0.22292334
149	0xbc8f6249	-0.01750292
150	0x3e379fe4	0.17932087
151	0xbddcaf47	-0.10775619
152	0x3e25f7f8	0.16207874
153	0x3d99f95d	0.075182654
154	0x3e4f8456	0.20265326
155	0x3e4b5b7c	0.19859117
156	0x3e42cbcd	0.19023056
157	0xbde854ab	-0.11344274
158	0x3d1fa6bd	0.038977373
159	0x3d35d661	0.0443939
160	0x3e4f5485	0.20247085
161	0x3eb46b79	0.35238245
162	0xbe22b6eb	-0.1589009
163	0x3db69e8c	0.08916959
164	0x3e89e44b	0.26931986
165	0x3e866d61	0.26255324
166	0x3d1690a5	0.036759038
167	0xbe3b4c48	-0.18290818
168	0x3eab0048	0.33398652
169	0x3e55b9ed	0.20871706
170	0xbdd2fe7c	-0.10302445
171	0x3eb3b3dc	0.3509816
172	0x3d1271b8	0.035752982
173	0x3ec8945d	0.39175692
174	0x3e89cd3d	0.26914397
175	0x3df023da	0.11725588
176	0x3e9390ce	0.28821415
177	0xbd0798e2	-0.033104785
178	0xbada94e4	-0.0016676453
179	0x3e555e39	0.20836724
180	0x3ebf8528	0.37406278
181	0x3dd291a3	0.10281684
182	0x3e9cbd9f	0.3061342
183	0x3e5f5280	0.21808815
184	0x3c09fd0a	0.008422146
185	0x3eeb71ae	0.45985168
186	0xbd553aeb	-0.05205814
187	0x3ec9e416	0.39431828
188	0xbc6110d5	-0.013736923
189	0x3d9ab337	0.07553714
190	0x3ebb9b2d	0.36641827
191	0xbe12c7ec	-0.14334077
192	0x3d08b558	0.033376068
193	0xbe262f02	-0.1622887
194	0xbc8dc4a8	-0.017305687
195	0xbd403164	-0.046922103
196	0x3c433edd	0.011916843
197	0x3edf6b01	0.43636325
198	0x3e7b6815	0.24551423
199	0xbc99f16e	-0.01879188
200	0x3df3073f	0.118666165
201	0x3ed37cf1	0.4130626
202	0x3c9b681a	0.018970538
203	0x39f6e3cd	0.000470905
204	0x3ef17a53	0.47163638
205	0x3e4999d4	0.19687587
206	0x3e92d4b6	0.2867791
207	0x3d2337d7	0.039848175
208	0x3e72fe8b	0.23729913
209	0x3df5102d	0.11965976
210	0x3e39a12b	0.18127887
211	0x3e94c5e3	0.29057226
212	0xbdc07d4e	-0.093989
213	0x3e9e1389	0.3087428
214	0xbe0747ce	-0.13210985
215	0xbdafda2e	-0.08586536
216	0x3e8ccea1	0.27501395
217	0x3da02507	0.078195624
218	0x3dfcf636	0.123516485
219	0x3ed2cecf	0.41173407
220	0x3dac2c31	0.08406866
221	0x3eaa7d5a	0.3329876
222	0x3dfac177	0.12243932
223	0xbe38fd57	-0.18065391
224	0x3e93ff2a	0.28905612
225	0x3ec78418	0.38967967
226	0x3eb8d7a9	0.36102036
227	0x3e05af6d	0.13055201
228	0x3e89578a	0.268246
229	0x3e6604c9	0.22462763
230	0xbd5b6f4c	-0.053572938
231	0x3cad138f	0.02112749
232	0x3c29446d	0.010331255
233	0xbc4af48b	-0.012387405
234	0xbdd3f151	-0.10348762
235	0xbdc7cf13	-0.09756293
236	0x3ed9f5a1	0.42570212
237	0x3dd3a00d	0.10333262
238	0x3d7636aa	0.060110725
239	0x3e1f0046	0.15527448
240	0x3d839dc6	0.06426577
241	0x3e3abdcb	0.18236463
242	0x3d935b2c	0.07195124
243	0x3d0a8e05	0.033826847
244	0x3e7f3892	0.24923924
245	0x3e9f4bf9	0.3111265
246	0x3ea72ce2	0.3265143
247	0xbd506712	-0.050879546
248	0x3e01906c	0.12652749
249	0xbb8dd05a	-0.004327816
250	0x3e1d0ee5	0.15337713
251	0x3ece89e1	0.40339568
252	0xbdcb7318	-0.09934062
253	0x3ea24623	0.31694135
254	0xbdf7be85	-0.120968856
255	0xbdb61a65	-0.08891753

fc4.bias f4 [20]
0	0xbdb31ca1	-0.08745695
1	0xbe1f0bf1	-0.15531899
2	0x3dd63f05	0.10461239
3	0x3d2cb2ad	0.042162586
4	0xbe322958	-0.17398584
5	0xbe73245b	-0.23744337
6	0x3d8b81ce	0.06811868
7	0xbe39ef7e	-0.18157765
8	0xbcd9845e	-0.026552375
9	0x3e362e05	0.17790993
10	0x3e11eb4d	0.14249916
11	0xbd9b6f4b	-0.07589587
12	0x3dd1c0a3	0.10241821
13	0xbd2a9897	-0.041649427
14	0xbe64a87e	-0.223299
15	0xbde5fd59	-0.11229963
16	0x3e1c6d64	0.15276104
17	0xbdb211bc	-0.08694789
18	0xbc9a94ff	-0.018869875
19	0xbc93b386	-0.01802994

fc5.weight f4 [20, 20]
0	0xbdc6ca36	-0.097065374
1	0xbd1ed25e	-0.03877484
2	0x3df0a88d	0.117508985
3	0xbe645822	-0.22299245
4	0x3e28e10a	0.16492096
5	0xbd145a8d	-0.03621917
6	0xbd8fcef9	-0.07021899
7	0xbb85b915	-0.0040809014
8	0x3db1dd69	0.08684809
9	0x3e19284e	0.14956781
10	0x3cf46abb	0.02983605
11	0xbdf94aa8	-0.12172443
12	0x3b36034c	0.0027772961
13	0x3da3f5d9	0.08005876
14	0xbdd4ebd1	-0.10396541
15	0xbd185e63	-0.03719939
16	0xbe4f44ea	-0.20241132
17	0x3d0b080d	0.033943225
18	0xbdcd9b43	-0.100393794
19	0xbe62e2ea	-0.22156873
20	0xbe573b7b	-0.21018784
21	0xbd91cc2b	-0.0711902
22	0x3e4fce30	0.20293498
23	0xbc76f787	-0.015073664
24	0xbd69d8e1	-0.057091597
25	0xbe646b66	-0.22306594
26	0xbe59653c	-0.21230024
27	0x3e3cd87d	0.18441959
28	0x3e1fde18	0.15612066
29	0x3d1a35e4	0.03764905
30	0xbe62f90c	-0.22165316
31	0xbd198ff7	-0.03749081
32	0xbe516926	-0.20450267
33	0xbe18ea16	-0.14933047
34	0x3e1909b1	0.14945103
35	0xbe5aaba2	-0.21354535
36	0xbd629556	-0.0553182
37	0x3dd302fc	0.103033036
38	0xbe6f49d9	-0.23368014
39	0xbe4ec1c1	-0.20191099
40	0x3e37367a	0.17891875
41	0x3df1862b	0.11793169
42	0x3ea18bcd	0.31551972
43	0xbe8a066f	-0.26958033
44	0xbdf50a5f	-0.11964869
45	0xbe06be89	-0.13158621
46	0xbd798cf9	-0.060925458
47	0x3d006ed6	0.0313557
48	0xbe9eb7f7	-0.3099973
49	0x3ea562e5	0.32302013
50	0x3da54430	0.08069646
51	0x3e39cdab	0.18144862
52	0x3d61108e	0.05494743
53	0x3ead2738	0.33818984
54	0xbe454fca	-0.19268718
55	0x3cacaa08	0.021077171
56	0x3ec0d5e1	0.37663177
57	0xbe795a6a	-0.24350896
58	0x3e708613	0.23488645
59	0x3e00de74	0.12584859
60	0x3e39a83f	0.18130587
61	0x3d9a812b	0.07544168
62	0xbdb584e2	-0.08863236
63	0xbc11e469	-0.008904555
64	0xbc0f11ad	-0.008732242
65	0xbd8a2951	-0.06746162
66	0xbc62dd05	-0.0138466405
67	0x3cd3a3c2	0.025834922
68	0x3df39858	0.11894292
69	0xbd6d9ded	-0.058011938
70	0xbe11749e	-0.14204642
71	0x3d880d04	0.066431075
72	0x3cdcbb04	0.026944645
73	0xbe0dde16	-0.1385425
74	0x3e444d94	0.19170219
75	0xbe4cf436	-0.20015034
76	0xbe344693	-0.17605047
77	0x3e1147bb	0.14187519
78	0x3e2ac630	0.16677165
79	0xbe2b33a2	-0.16718915
80	0xbdf59391	-0.11991037
81	0xbdb72413	-0.089424275
82	0x3e37d95e	0.17954013
83	0xbe85d9e2	-0.26142794
84	0xbdc82ddf	-0.09774374
85	0xbd871210	-0.06595242
86	0xbdc8caef	-0.098043315
87	0xbcccb122	-0.024986807
88	0xbe302b8f	-0.17204116
89	0x3e89875d	0.26861086
90	0x3e32974e	0.1744053
91	0x3e593924	0.21213204
92	0x3e098adb	0.13431875
93	0x3d6b7c57	0.057491627
94	0xbdcf82be	-0.10132359
95	0xbcb9ae0e	-0.022666004
96	0x3de0644a	0.109566286
97	0xbeb168a9	-0.34650162
98	0x3e09765b	0.13424055
99	0xbdf2d5c5	-0.118571796
100	0xbe62dd24	-0.22154671
101	0x3d89f423	0.067360185
102	0x3ea72573	0.3264576
103	0xbe0581f4	-0.13037854
104	0x3e1e37fd	0.15451045
105	0x3e57ecec	0.21086472
106	0x3e0ffc4d	0.14061089
107	0xbda8ffe7	-0.082519345
108	0xbdf25444	-0.11832479
109	0x3d3213c1	0.04347587
110	0xbd0637e1	-0.032768134
111	0x3e1c9227	0.15290128
112	0x3b94519b	0.0045263297
113	0x3e378eaf	0.17925523
114	0x3d52cea2	0.05146659
115	0xbd69e7a3	-0.05710567
116	0x3de49c6a	0.11162646
117	0xbe9a5d0c	-0.30149114
118	0x3e35b046	0.17743024
119	0xbd4072d0	-0.046984494
120	0xbe51d457	-0.20491157
121	0x3d8f746a	0.07004626
122	0x3d3f2bc6	0.046672605
123	0x3e61af26	0.2203947
124	0x3e3346d7	0.17507492
125	0x3b9febb5	0.0048803934
126	0x3df41b39	0.11919255
127	0xbdd0adb4	-0.10189381
128	0x3ececb4f	0.40389487
129	0x3af6637d	0.001879796
130	0x3ece0236	0.40236062
131	0x3edd40d5	0.43213525
132	0x3d260e91	0.040541235
133	0xbe088528	-0.13332045
134	0x3cdc2053	0.026870882
135	0xbc42041a	-0.011841798
136	0xbed25c94	-0.41086257
137	0x3d93ab93	0.072104596
138	0x3e02b1a5	0.12763079
139	0x3ebe6643	0.37187394
140	0xbd6cf55d	-0.057851184
141	0xbdd60388	-0.10449892
142	0x3e46d346	0.19416532
143	0xbd17cefe	-0.037062638
144	0x3d0922d3	0.033480477
145	0x3e30bd68	0.17259753
146	0x3db6468f	0.08900177
147	0xbd42b776	-0.047538243
148	0xbe16a24c	-0.14710349
149	0xbc41c5c0	-0.011826932
150	0x3d2b02da	0.041750766
151	0xbd9be2b1	-0.07611597
152	0x3d676963	0.05649699
153	0x3ea87440	0.32901192
154	0xbd85160f	-0.06498348
155	0x3d90283c	0.07038924
156	0x3daabb50	0.08336508
157	0xbe765994	-0.24057609
158	0x3e8ff76d	0.28118458
159	0xbe2221b7	-0.15833174
160	0x3e228cba	0.15873995
161	0xbe56d6cd	-0.20980377
162	0xbe278834	-0.16360551
163	0xbd8d83a0	-0.06909871
164	0x3e3182c9	0.17335047
165	0x3dd2bfce	0.1029049
166	0x3dcede39	0.10100979
167	0xbd09147d	-0.033466805
168	0xbe4bcd8d	-0.1990263
169	0xbdf29b15	-0.11845986
170	0xbe127184	-0.14301115
171	0xbcb930e4	-0.02260632
172	0xbdea7657	-0.11448353
173	0xbe3ec363	-0.18629222
174	0xbe33b2ef	-0.17548726
175	0x3d9f32fb	0.07773396
176	0xbd0c0c23	-0.034191262
177	0x3e1d6ad2	0.1537278
178	0xbdc9c101	-0.09851266
179	0xbe11a668	-0.14223635
180	0x3ce87d16	0.028379958
181	0x3bf463c3	0.0074581816
182	0x3dc08eaf	0.09402215
183	0x3e2ead82	0.17058375
184	0x3deefd59	0.11669416
185	0xbdf0f69e	-0.117657885
186	0xbe04c966	-0.12967452
187	0xbe25f9d7	-0.16208588
188	0x3ce725f1	0.028216334
189	0x3ebf2a58	0.37336993
190	0x3e9c2225	0.304948
191	0x3c70da66	0.014700508
192	0x3e802148	0.25025392
193	0x3e9f74bf	0.31143758
194	0xbdbbff04	-0.091795
195	0x3e0ce63e	0.13759705
196	0x3bc0de0d	0.0058858455
197	0xbd4220c8	-0.047394544
198	0x3eb0aec9	0.3450835
199	0x3e39005b	0.18066542
200	0xbe2b0d24	-0.16704232
201	0x3a22f2ec	0.0006216008
202	0xbda2ea09	-0.07954795
203	0xbdf109da	-0.11769457
204	0xbe58d114	-0.21173507
205	0x3df65f5f	0.12029909
206	0xbdf946bb	-0.12171694
207	0xbd03f675	-0.03221746
208	0x3e9bfaa6	0.30464667
209	0xbc9c7075	-0.019096592
210	0x3e47467e	0.19460484
211	0x3e0cbe3d	0.13744445
212	0x3e376d71	0.17912842
213	0xbd556c5c	-0.052105293
214	0xbba31888	-0.0049772896
215	0x3e5bbeba	0.21459475
216	0xbde9af36	-0.11410372
217	0xbd56b472	-0.05241818
218	0x3cc4de10	0.024031669
219	0x3e974c0c	0.29550207
220	0x3e45aa2b	0.19303195
221	0xbd368bab	-0.04456679
222	0x3e981e10	0.29710436
223	0xbe115a3c	-0.14194578
224	0xbdf3726a	-0.11887057
225	0x3bb115d1	0.005404212
226	0xbd30976a	-0.04311315
227	0x3dc8036d	0.097662784
228	0xbccf7c12	-0.025327716
229	0x3ea42041	0.32055858
230	0xbba4a4a7	-0.005024511
231	0x3c3b7711	0.011441962
232	0xbd000a6e	-0.031259947
233	0x3e778b75	0.24174292
234	0xbe3a2835	-0.181794
235	0xbddf91f3	-0.109165095
236	0x3d21ec68	0.039532095
237	0xbdabad7f	-0.08382701
238	0x3b2ef8d4	0.0026698606
239	0xbe191080	-0.149477
240	0x3d986ade	0.07442258
241	0xbe1bc91b	-0.15213434
242	0x3ca28d20	0.019842684
243	0x3e9db496	0.3080184
244	0xbe4b38d1	-0.19845892
245	0x3d661f70	0.056182325
246	0x3e498d89	0.19682898
247	0xbe4dd9b3	-0.20102577
248	0x3e610011	0.21972682
249	0xbdec211d	-0.11529753
250	0x3eaca263	0.3371764
251	0x3e9989ff	0.29988095
252	0x3d07f0a3	0.033188473
253	0x3dd621fc	0.10455701
254	0xbe2bb930	-0.16769862
255	0xbd92340f	-0.07138836

fc5.bias f4 [20]
0	0xbccdbf95	-0.025115767
1	0x3d8a5749	0.067549296
2	0x3e8cb930	0.27485037
3	0xbe217902	-0.15768817
4	0xbdf80bc1	-0.12111617
5	0x3daa71c5	0.08322481
6	0x3d22d1a2	0.039750703
7	0x3eb20e22	0.34776407
8	0xbda3a429	-0.079902954
9	0x3eaa1041	0.33215526
10	0xbbb724fa	-0.0055891247
11	0x3e0b98f6	0.13632569
12	0x3d883b19	0.06651897
13	0x3e09d54f	0.13460277
14	0x3d0f75a1	0.03502429
15	0xbe352ee4	-0.17693669
16	0x3d683e06	0.056699775
17	0xbe57b758	-0.21066034
18	0xbc94e850	-0.018177181
19	0xbd8101f2	-0.06299199

fc6.weight f4 [3, 20]
0	0xbd8ae596	-0.06782071
1	0x3e436f91	0.19085528
2	0x3e86d615	0.26335207
3	0x3cb31d37	0.021864517
4	0x3e21ed52	0.15813187
5	0x3e042845	0.12905987
6	0xbeae8efc	-0.34093463
7	0x3ded2b6b	0.11580547
8	0x3d16dd7a	0.03683231
9	0x3e4ff6d0	0.20308995
10	0xbe2ee23e	-0.17078492
11	0x3dc224f0	0.094797015
12	0xbea85d96	-0.328839
13	0xbe4066ee	-0.18789265
14	0xbe665af0	-0.22495627
15	0xbe637e99	-0.22216262
16	0xbe2fc742	-0.17165855
17	0xbd9f64da	-0.07782908
18	0x3e3d6e06	0.18499002
19	0x3b4fe1b3	0.003172022
20	0xbe243944	-0.1603747
21	0x3e09d9e7	0.1346203
22	0xbe1a250f	-0.15053199
23	0xbdd18077	-0.10229581
24	0xbc42209c	-0.011848595
25	0xbe8b2465	-0.27176204
26	0xbaa80c8e	-0.0012821124
27	0xbe40343d	-0.18769927
28	0x3d7503ff	0.059818264
29	0xbf000781	-0.5001145
30	0xbe7dc792	-0.24783161
31	0xbe21b575	-0.15791877
32	0xbeaa247e	-0.33230966
33	0x3db6a911	0.089189656
34	0x3df42c3c	0.119224995
35	0xbe0b84c3	-0.13624863
36	0xbe7b07cc	-0.24514693
37	0x3d3ed878	0.04659316
38	0xbd5e7d35	-0.054318625
39	0xbeea0b41	-0.4571171
40	0x3e5c7eec	0.21532792
41	0x3dc64d62	0.09682728
42	0xbea066bc	-0.3132838
43	0xbb5e4e0c	-0.0033921031
44	0xbe81ea7f	-0.2537422
45	0xbed38693	-0.4131361
46	0x3e8ef505	0.2792131
47	0xbec0d373	-0.37661323
48	0xbe1fb0db	-0.15594809
49	0x3e04dd69	0.12975086
50	0x3e19de37	0.15026174
51	0xbe94dc09	-0.29074124
52	0x3e8e9f7c	0.27856052
53	0xbdea8f0d	-0.11453066
54	0xbe2a6039	-0.16638269
55	0x3e05fc24	0.13084465
56	0x3e84408b	0.25830492
57	0x3dd44eb4	0.10366574
58	0xbdd186f1	-0.10230816
59	0x3e5bda08	0.21469891

fc6.bias f4 [3]
0	0x3e876d11	0.264504
1	0xbe81cb44	-0.25350392
2	0xbe8afe05	-0.27146927
