models_3val/xor.pth (torch, 11762 bytes, 12 tensors)

fc1.weight f4 [20, 12]
000000 78 58 4b be bd 5a d3 bc 7e a0 2d be b8 94 52 be
       -0.19857967 -0.025800103 -0.16955754 -0.20564544
000010 58 03 30 bd 69 83 7e be 84 ba 8a be 1a 54 c1 bb
       -0.04297194 -0.24854816 -0.27095425 -0.0058999183
000020 af 34 1a be 55 db fc 3d 3f 7d 1f 3c f4 c7 10 bd
       -0.1505916 0.12346522 0.009734451 -0.03534694
000030 c4 b0 69 3e fa 4e cf bd a3 48 99 bd e5 df 91 3e
       0.22821337 -0.101224855 -0.074845575 0.2849113
000040 eb 3b 5f 3e 0a 95 55 3e d0 04 db 3d aa a2 39 be
       0.218002 0.20857635 0.10694277 -0.18128458
000050 a8 99 37 3e 57 0a 14 3e d5 17 e4 bc 7d 8f 65 3e
       0.17929709 0.1445707 -0.027843395 0.22418018
000060 e9 2f 74 3e 15 25 d5 3e 7e 46 94 bd f1 b1 7b 3e
       0.23846401 0.41629854 -0.07240008 0.24579598
000070 cb 08 95 bd f0 2e f1 3d 48 f2 9f 3e 85 21 95 bd
       -0.07277068 0.11776531 0.31239533 -0.07281784
000080 cf 9c 1d 3c a8 68 07 3d 30 dc db 3c 4f 8e f1 3d
       0.009619906 0.033058792 0.026838392 0.11794721
000090 2e 2a 23 3d 68 4f 0c 3f 4e dc e2 3c b2 81 9f bd
       0.039835148 0.54808664 0.02769294 -0.07788409
0000a0 91 38 90 3e ed 2b 01 3e 1d a8 0c b9 fd e9 be bd
       0.28168157 0.12614413 -0.00013414068 -0.093219735
0000b0 6f 2a 92 3e cc e4 18 3e c2 1c 15 3e 44 9a 38 bb
       0.28548 0.14931029 0.14561751 -0.0028168121
0000c0 8f 3e 29 3e 2a 65 39 3f 42 de 84 3e 51 6e ce 3d
       0.1652777 0.7241999 0.2595082 0.10079635
0000d0 29 47 dc bc d5 de 07 3e e7 c1 bc 3d b0 ba 5d 3e
       -0.0268894 0.13268597 0.092166714 0.21653247
0000e0 41 8b 0d 3e d2 48 01 3e 35 9b a2 3e b8 d8 e2 3d
       0.13822652 0.12625435 0.3175904 0.11076492
0000f0 73 f6 04 3f f2 63 13 be fe 34 42 3e 7e 3d ca bd
       0.5193855 -0.14393595 0.18965527 -0.0987501
000100 51 64 01 bd 96 96 e7 bc 95 9e 9c 3e 63 87 b1 3e
       -0.03158981 -0.028270047 0.30589738 0.34673604
000110 88 34 4e 3e 66 f3 76 3e 13 41 8e 3e 72 6e aa 3e
       0.20137227 0.24116287 0.27784023 0.33287388
000120 0f 36 d6 3e d4 8c 8e 3e 55 bc a1 3d 3c 3e 2b 3e
       0.41838118 0.27841818 0.078972496 0.1672296
000130 48 41 6a 3e b0 8b d1 bd 00 d1 b2 bd a0 c5 9f bc
       0.22876465 -0.102317214 -0.0873127 -0.019503415
000140 2b 2d 6c bd c6 2f c1 3d d2 01 96 3d 7e 2c ef bd
       -0.057660263 0.0943294 0.07324566 -0.11678408
000150 7d 1f ef be 3f 30 27 bd 8c 20 1f 3e 64 15 1f 3c
       -0.4670371 -0.040817495 0.1553976 0.00970969
000160 95 9c c0 bd a0 a5 8f bc ef 7c e6 3d b1 7d 44 bc
       -0.09404866 -0.01753503 0.11254298 -0.011992858
000170 ce a5 d1 bc a3 7c 33 3e 7d cb 1d 3e e2 8e 8c 3d
       -0.025591757 0.17528014 0.15409656 0.0686319
000180 3e be ec 3e b5 fe d6 be dc 8a 89 3b 5d 9e 70 3e
       0.46238893 -0.419912 0.0041974615 0.23497911
000190 ce 67 2c 3e 8a 69 3a 3e 2b 73 0a 3e e1 fc af 3d
       0.16836473 0.18204322 0.13520496 0.08593155
0001a0 7c 83 82 bd 24 51 68 3e 2a f7 4f 3a df c6 fa bc
       -0.06372735 0.22687203 0.00079332537 -0.030612407
0001b0 b2 d2 f4 3e cf 45 5c 3e 46 3c 6c 3e 1b 43 5d 3d
       0.47816998 0.21511005 0.23069867 0.054019075
0001c0 69 9b 3b 3b 43 7c bc 3d 86 8f ac bb f9 aa f1 bd
       0.0028626567 0.092033885 -0.0052661328 -0.118001886
0001d0 47 bf 38 3e 2f 91 9c 3d d5 d7 71 3e 63 1b 00 3e
       0.18041717 0.07644879 0.2361749 0.12510447
0001e0 f8 9a d3 3e 4d 28 1d bf de 41 01 3e ab 8f 46 bd
       0.4132917 -0.6138962 0.12622783 -0.048476856
0001f0 36 8f 8a bd 39 85 c5 bd 0e f8 2c bd 24 ab 76 bc
       -0.067655966 -0.09644551 -0.04222875 -0.015055452
000200 bb 77 c1 bd 2f dd 34 3d 2e c1 36 3e 3f ec 2a bb
       -0.09446665 0.04415625 0.1784713 -0.0026080755
000210 a0 9b a8 3e c4 c4 72 3e 09 72 15 be 43 e6 78 3e
       0.32931232 0.23707873 -0.14594282 0.24306588
000220 a5 31 c8 bd d9 f0 05 be fb 54 c6 3d 5f 38 22 3e
       -0.09775094 -0.13080157 0.096841775 0.15841816
000230 b3 b8 0c be f3 c9 98 bd 8c 5a 55 be 55 54 2f 3e
       -0.13742332 -0.07460394 -0.20835322 0.17122014
000240 60 f7 0f bf 7a ba c7 3e c6 f8 10 bc b0 ef 17 bc
       -0.5623684 0.39009458 -0.008848375 -0.009273455
000250 90 0a 73 bc 9d c9 a0 bb f2 e0 9d bc ed 3b 98 3a
       -0.014834061 -0.0049068467 -0.019272301 0.0011614539
000260 24 5a 8d bc 6d 9d 01 bc 8b e0 82 bb 04 07 3c bc
       -0.017254896 -0.007911068 -0.0039940528 -0.011476282
000270 aa b0 80 be 14 42 1a be 26 03 87 3e dc 3d 5b 3d
       -0.25134784 -0.1506427 0.2636959 0.05352579
000280 8c 28 98 3e f0 0b 62 3e 32 5e 7a 3e 58 0f 00 3d
       0.29718435 0.22074866 0.24449995 0.031264633
000290 1e 38 2b 3e 0e 20 44 be 42 27 8f 3e 55 8f 48 3e
       0.16720626 -0.19152853 0.2795964 0.19585927
0002a0 18 b5 23 3e e6 74 b4 be 25 29 d0 3b bb a5 4f be
       0.1598705 -0.35245436 0.006352561 -0.20278065
0002b0 d8 0e 67 be fb b2 7f 3e a5 43 85 3e 2c ca d9 3d
       -0.22564256 0.2497062 0.2602817 0.10634264
0002c0 47 39 7f 3e e1 65 fe 3b 81 9f db 3d ab df 39 be
       0.24924193 0.0077636098 0.10723782 -0.18151729
0002d0 ad 8d f2 3e 24 5d cc 3e e7 7c 8f 3e af c3 de 3c
       0.47373715 0.3991481 0.2802498 0.027192919
0002e0 81 2e db 3d 05 09 4f 3e 19 72 74 3c 54 71 ab 3e
       0.10702229 0.20218284 0.014919781 0.334849
0002f0 e7 8e fb 3b 15 70 1a bd 95 c0 4d 3d 00 91 9f 3e
       0.0076769474 -0.037704546 0.05023249 0.31165314
000300 b1 c7 3c be 6f 38 ae 3d b8 f4 81 3e 67 fd 9b bd
       -0.18435551 0.085068576 0.25382018 -0.07616692
000310 f6 c1 a2 3c bb ed 3c 3e 74 c3 8f 3d e5 0e 9b 3e
       0.019867878 0.18450062 0.070197016 0.302848
000320 21 ab 63 3e 44 4a 07 bd 94 68 ea 3d df 88 31 3e
       0.22233249 -0.03302981 0.11445728 0.17337368
000330 91 7c 84 be ca 12 10 bf 2a 52 11 3e eb 17 b3 3e
       -0.25876287 -0.5627867 0.141915 0.34979185
000340 81 72 60 3e 88 df 68 3e b9 14 a7 bd a2 eb 15 3e
       0.2191868 0.2274152 -0.081582494 0.14640668
000350 5d e6 ac 3e 82 da 65 3e 02 2d 90 3e 98 ce 74 3d
       0.33769503 0.22446635 0.28159338 0.059767336
000360 7b 31 fb 3d af 4e 8f be 0f ce 27 3e ad 0c 74 3c
       0.12265297 -0.27989718 0.16387199 0.0148956
000370 61 6a c6 bd 15 a3 09 3e c4 77 8a 3e 6e 86 07 bd
       -0.09688259 0.13441117 0.270445 -0.033087187
000380 c6 8c 0c 3e c9 a1 08 3e ff 35 11 be 37 5f a6 3e
       0.13725576 0.13342966 -0.14180754 0.32494518
000390 a9 4b dd 3e 2f 45 df 3e bf f7 c1 3d e0 e4 60 3d
       0.43221787 0.4360747 0.09471082 0.054905772
0003a0 1b 67 61 bb 0c 30 5a 3c 6d f7 39 3d 58 9e b0 3d
       -0.003439373 0.013317119 0.04540198 0.08623952
0003b0 f5 29 9e 3d 10 8f f1 3d 0a 46 01 3e e2 e3 a1 bd
       0.077228464 0.11794865 0.12624374 -0.07904793

fc1.bias f4 [20]
000000 50 ed 8d be 36 a5 d8 3e 60 96 d1 bd d6 20 04 3e
       -0.27720118 0.42313546 -0.1023376 0.12903151
000010 c6 fb a9 3e 3a 9c 37 3e f8 91 04 3f f3 5c 61 3e
       0.331999 0.1793069 0.5178523 0.22008114
000020 1e 0a 57 3e be 5c a1 be 57 dd ad 3e 97 be c4 3e
       0.20999953 -0.3151607 0.3395793 0.3842666
000030 e4 17 8e 3e b9 e8 fe 3e 64 cc a7 3e 46 49 98 3d
       0.27752602 0.49786928 0.32773125 0.07435851
000040 fb 9a a4 3e ea 5e f1 3c 3d b1 c7 3e c5 ce 78 be
       0.3214949 0.029464204 0.3900241 -0.24297626

fc2.weight f4 [20, 20]
000000 10 7d e2 3c 1c 48 6a 3e e3 84 0a 3d 80 22 79 be
       0.027647525 0.2287907 0.033818137 -0.24329567
000010 67 6b 15 3d 9d d0 72 bd ba e2 91 be 96 1d 75 3e
       0.03647938 -0.05928098 -0.2849329 0.23937067
000020 c0 06 fa 3d a7 f5 ee bd e9 f4 87 be ac 0e a7 bd
       0.12208319 -0.11667948 -0.2655404 -0.08157095
000030 35 a7 a1 be 57 4c 8f 3e 12 58 ab 3d 28 38 05 3e
       -0.3157288 0.2798793 0.083664075 0.13009703
000040 3d 6f d7 3d 92 8e c1 3e 53 c4 28 3e 56 42 12 3d
       0.10519264 0.37804085 0.16481142 0.035707794
000050 e2 21 4f be f4 3d 68 bc 99 15 97 3e 6a 3a bf 3e
       -0.20227769 -0.014174927 0.29508665 0.37349254
000060 a8 33 23 3e b8 dd 81 3d 26 f8 00 3e d0 bc e7 bd
       0.15937674 0.063411176 0.12594661 -0.1131531
000070 a8 27 16 bb 55 68 a8 3e 2c f6 b3 be 69 8d 7c 3d
       -0.002291182 0.328921 -0.35148752 0.061658297
000080 f5 f9 63 be 02 c4 99 be 2a 5d 00 3d f4 f9 61 3e
       -0.2226332 -0.30032355 0.03133885 0.22068006
000090 11 76 86 3d 5c 6c 7e be 12 7d fb bd 7c 51 49 3e
       0.06565488 -0.24846023 -0.12279715 0.1965999
0000a0 fc 4a 45 be 6c 35 ac 3e 96 5f d2 bc aa 82 47 3e
       -0.19266886 0.33634508 -0.025680345 0.19483438
0000b0 71 d4 20 3e b2 02 3a 3e f4 83 2f 3e 0f 9a 5d 3e
       0.1570604 0.1816509 0.1714018 0.216408
0000c0 97 04 3b 3e d2 b6 8e bd 45 d5 d5 3e 9d 85 02 3e
       0.1826347 -0.06968464 0.41764274 0.12746282
0000d0 bc c5 f7 3e 0e 4a 03 be 79 40 49 3e 44 15 d8 3d
       0.48393047 -0.12821218 0.196535 0.10550931
0000e0 d6 4b 05 3e 50 58 fe 3d ee f3 0e 3e 28 58 6a 3e
       0.1301721 0.12419188 0.1396024 0.22885191
0000f0 41 4c b4 3c b6 2b 3d 3c fc 7a ca 3e ba 9d 33 3e
       0.022009017 0.011546066 0.39546955 0.17540637
000100 1a ab 49 3e 50 40 4c 3e 03 93 b3 3d 71 8c 96 be
       0.19694176 0.19946408 0.08768275 -0.29404023
000110 68 d8 31 bd 2c 28 94 3e 22 a7 58 be 87 0d 91 3c
       -0.04341927 0.289369 -0.21157506 0.017706646
000120 79 f7 63 be fb 7a 44 3d f4 6a 67 be f8 11 bc 3e
       -0.22262372 0.047968846 -0.22599393 0.3673246
000130 b0 fd e8 3d 80 50 85 bd 28 da eb 3d 35 91 be 3e
       0.11376512 -0.06509495 0.115162194 0.3722016
000140 22 08 e1 3d 96 78 d9 3b 8c ef 13 be b8 70 65 bd
       0.10987879 0.0066366894 -0.14446849 -0.0560157
000150 7e 6d 2b be c6 17 f1 3d b5 7d 2c be cc 19 78 3d
       -0.16740987 0.117721125 -0.16844828 0.060571477
000160 62 04 e8 bd 33 fd 36 be ac b1 43 be 26 7f 18 3e
       -0.11328961 -0.17870025 -0.19110745 0.14892253
000170 ce 3d ba 3d 1e 79 06 be e2 c2 01 be 5e af 3d 3b
       0.090938196 -0.1313214 -0.12671998 0.0028943638
000180 b9 6e ce bd fe ed f3 bd fd 55 42 3d b4 bf 57 3d
       -0.100797124 -0.11910628 0.047445286 0.052673057
000190 67 92 cd 3d d0 ee 82 3e 70 c5 be 3e d3 a6 cd 3e
       0.1003769 0.25572824 0.37260008 0.4016634
0001a0 bc 68 57 3c e0 c3 6f 3e fc f4 73 3e e5 bd a1 be
       0.013147529 0.23414564 0.23823923 -0.3159019
0001b0 90 82 b6 3c 7f 37 b0 3e 1e 89 6f be 2c 30 4b 3e
       0.022279054 0.3441734 -0.2339215 0.19842595
0001c0 7e f3 b0 be b4 6d 1f 3e 22 14 82 bb 81 71 03 3e
       -0.3456077 0.15569192 -0.003969685 0.12836267
0001d0 93 5f 0c be 7f 99 8e be 67 79 17 bd 0e a7 a0 3e
       -0.13708334 -0.27851483 -0.036981013 0.31377453
0001e0 0c 1a a9 bd 11 52 22 be 36 f0 90 3e ed 58 b7 3e
       -0.08256921 -0.15851618 0.28308266 0.35810032
0001f0 5d 88 92 3d b3 7a 41 be 5f 72 60 bd d7 79 10 be
       0.071549155 -0.18894462 -0.054796573 -0.14108978
000200 62 62 43 3e 8d 33 cf 3e 5f bd 3b b9 b0 2c 61 3e
       0.19080499 0.40469018 -0.00017904256 0.21989703
000210 2f f1 07 bf e8 9a b0 bb b1 9f b7 3d 9f a3 62 3e
       -0.5310239 -0.00538956 0.089660056 0.22132729
000220 3b 44 cd bc 0c a5 98 bd a7 77 b7 bd f2 09 c4 3e
       -0.025056949 -0.07453355 -0.08958369 0.38288838
000230 bb 98 95 3d 70 95 60 3e 62 61 3c bd d7 4b 24 bc
       0.07304522 0.21932006 -0.04599131 -0.010027847
000240 7b af 30 3e c6 db cf bb fe f3 8c bd 79 cd f3 3e
       0.1725444 -0.0063433377 -0.06882475 0.476177
000250 43 0b 0d 3d 80 42 73 be 61 66 8d 3e 69 a2 01 3d
       0.034434568 -0.23755836 0.2761717 0.031649027
000260 54 1d 3a 3f 1a a9 09 3e 2f bb a9 3e 8a 6c fd bc
       0.72701 0.13443413 0.33150622 -0.030935545
000270 5e 48 7e 3d 6c 0d b3 3e 66 17 90 3e 37 dd c0 be
       0.062080733 0.34971178 0.28142852 -0.37668774
000280 15 ac 05 be 1d 1e 9c 3e 21 a6 f8 bd 38 1a be 3d
       -0.13053925 0.30491725 -0.121410616 0.092823446
000290 e3 56 97 3e fe f9 68 3e f3 c3 c0 3e 81 a4 70 3e
       0.29558477 0.22751614 0.37649497 0.23500253
0002a0 34 d5 3f 3e 0e cf f7 3d e4 a8 de 3e 1c c6 23 bb
       0.18733674 0.121000394 0.43488228 -0.0024989909
0002b0 77 ce c3 3e f6 a8 e4 3d 04 e5 88 3e 9c 8f 7c 3d
       0.38243458 0.11165039 0.26737225 0.061660394
0002c0 32 da eb 3d 15 5b ac bd f9 97 8b 3e 89 be 90 3e
       0.11516227 -0.0841581 0.27264383 0.28270367
0002d0 ff a3 10 bd 69 4d ad 3d 8b ee a0 3e d3 1b bf 3e
       -0.03531265 0.084620304 0.31431994 0.37325916
0002e0 7d f8 57 3e d7 1c 11 3e ab a8 1a 3e 61 86 a8 be
       0.21090885 0.14171158 0.15103404 -0.32915023
0002f0 1a dc 64 be 17 ca d5 3e 9e 55 82 be 48 10 65 bc
       -0.22349587 0.41755745 -0.25455946 -0.0139809325
000300 04 6b f6 be be db 99 bd c7 62 25 be da 23 c2 3e
       -0.4812852 -0.075126156 -0.16150962 0.37917978
000310 23 de 55 be cf 5f 0d be 7d 07 b2 bd 23 0e e2 3e
       -0.2088552 -0.1380608 -0.086928345 0.4415141
000320 f0 c2 50 3e 5e 18 84 be 8c f2 a8 3e f7 20 dd 3e
       0.20386863 -0.2579984 0.3299755 0.43189213
000330 f6 47 c0 3e 58 ea 74 be 1a 86 b2 bd fd f6 01 3f
       0.37554902 -0.2391752 -0.08716984 0.507675
000340 37 46 e8 be 3e bd 01 be 70 7e f4 be 5a 6f 1e 3c
       -0.4536607 -0.12669846 -0.47752714 0.009670103
000350 d6 e6 8d 3e 21 5f a4 3b 4a e7 a2 be b5 69 b2 bd
       0.27715176 0.005016223 -0.31817085 -0.08711568
000360 7c 33 73 3e 8d a9 3d be 67 3c b6 be f5 a7 17 3d
       0.23750108 -0.1852171 -0.35592958 0.03702541
000370 3d c3 31 be cb ed 90 3d 77 74 c4 3e af 02 41 3d
       -0.17359634 0.070766054 0.38370106 0.0471217
000380 5e fb 41 3e f2 28 16 3e d3 c6 4d 3e 28 78 74 bd
       0.18943545 0.14664057 0.20095377 -0.059684902
000390 6d 1f 65 3e dc 20 a9 3e fa 5c b6 be 9e c6 3d 3e
       0.22375269 0.33032882 -0.3561781 0.18532798
0003a0 9d 2f ce be cd 03 83 be d9 74 33 be 03 9a af 3e
       -0.402707 -0.25588837 -0.17525043 0.3429719
0003b0 57 68 a4 bd 3a d9 d6 be dc 93 1e 3e a4 1b de 3e
       -0.08027714 -0.41962606 0.15486091 0.43380463
0003c0 71 88 88 ba 00 cd b8 3e d9 70 67 bc d7 69 9e 3d
       -0.0010416639 0.36093903 -0.014126026 0.07735031
0003d0 17 e3 19 3d d2 8c 54 bd 06 b3 b7 3e 17 23 07 bd
       0.037570085 -0.05189211 0.35878772 -0.03299245
0003e0 22 d1 08 3e a9 81 29 3e 12 53 ce 3e f2 65 96 3e
       0.13361028 0.16553368 0.40297753 0.29374653
0003f0 6a b5 e6 3e 13 b0 9f 3e 0a c1 2c 3e f1 7a 90 3e
       0.45060283 0.3118902 0.16870514 0.28218797

fc2.bias f4 [20]
000000 99 0d ca bd 70 c5 a6 bd f1 01 44 3e b8 b4 1d bd
       -0.09865875 -0.08143127 0.19141366 -0.038502425
000010 85 ff 66 3d f3 10 56 3d 87 f6 40 bd 03 f1 9c 3d
       0.056396026 0.052262258 -0.047110107 0.07663157
000020 b2 95 e2 3d 09 5a bb be 97 3a 6c 3e 85 7e bd 3b
       0.11063708 -0.3659213 0.23069225 0.0057829046
000030 bf cf 40 3e 87 c4 c8 3d 52 3b be 3c 4a bd 36 3e
       0.18829249 0.098031096 0.023221646 0.17845646
000040 9c 9a 36 3e 73 db 87 3e 9c 5e 34 3e d0 b1 8b be
       0.17832416 0.26534614 0.17614216 -0.27284098

fc3.weight f4 [20, 20]
000000 a2 eb 4b 3e 34 a9 c7 be 93 4f 6b 3e 50 1a 24 be
       0.19914106 -0.3899628 0.22979574 -0.16025662
000010 75 49 66 3a 80 d1 8a be 18 c6 c4 be cd c2 ed 3e
       0.00087847497 -0.2711296 -0.38432384 0.46437684
000020 61 6d 4a 3e f6 44 05 bf ef bf 0e bf d9 17 b4 be
       0.19768287 -0.5205835 -0.5576162 -0.35174444
000030 ce 27 1b 3e 18 f0 e1 be 74 ff 3a be 36 9c 25 3e
       0.15151903 -0.4412849 -0.1826151 0.16172871
000040 b4 fd f7 be 07 d8 ef 3e 74 2f 11 be fd b9 df 3e
       -0.48435748 0.46844503 -0.14178258 0.43696585
000050 7e 51 db be 77 9b 22 be 97 47 cf 3d 89 32 6c 38
       -0.4283561 -0.15879618 0.101210766 5.631385e-05
000060 0a 68 4d be cd 24 78 bd 60 ff a3 be 1a 4d f7 3e
       -0.20059219 -0.06058197 -0.32030773 0.4830101
000070 ac 47 81 3e c6 d4 3b be 1b 24 f3 3e 0b 96 34 be
       0.25249994 -0.18342885 0.47488484 -0.17635362
000080 6f af 5f 3e da 03 bb 3d de e2 8b be fa 00 60 3e
       0.21844266 0.09131594 -0.27321523 0.21875373
000090 66 45 25 bc e6 7a b8 3e eb 34 c3 3d ed 00 cd be
       -0.010087347 0.36031264 0.09531578 -0.4003977
0000a0 66 4c 81 3c 5c d6 bd 3e b7 65 73 bd 78 0e df bc
       0.0157835 0.37077606 -0.059423175 -0.027228579
0000b0 ac 23 17 3e e5 4e 41 3e 9b 2b ed 3d 56 ce 8f be
       0.14759701 0.18877752 0.11580583 -0.2808711
0000c0 7c ee f3 3d d3 2b b1 3e 4b 76 09 bf bf 58 99 3e
       0.11910722 0.34603748 -0.53696126 0.2995052
0000d0 ff 1b 27 3d 56 2c 69 3e d1 2b 8a 3e 13 c7 59 bd
       0.040798184 0.22770819 0.26986554 -0.053168368
0000e0 a9 dd e2 3e 79 8d 91 be 04 53 65 3e 39 9b 93 3d
       0.44309738 -0.28428248 0.22394949 0.07207341
0000f0 6c 4f 05 3e e5 2b c0 3e c9 85 50 be 71 af 81 3e
       0.13018578 0.3753349 -0.20363535 0.25329164
000100 16 85 21 be b1 ae 2e 3e 08 e1 47 3e 55 ee 64 be
       -0.15773425 0.17058827 0.19519436 -0.22356541
000110 be 2e 32 3e c9 7b 64 3e 55 1c c5 be 93 0f 2b 3e
       0.17400643 0.22312845 -0.38498178 0.1670516
000120 87 b6 aa 3c 1f 81 c2 bd 1d d7 99 3d f0 52 72 bc
       0.020838989 -0.09497284 0.07511733 -0.014790282
000130 a9 bc 59 3e f1 c5 da be 12 15 9b 3e e2 d0 40 bd
       0.21263374 -0.42729142 0.30289513 -0.047074206
000140 95 3f 60 bd a8 ca bd 3e d8 6c 33 3e 49 4f d6 3d
       -0.054748137 0.37068677 0.1752199 0.10464341
000150 97 a3 78 3a 62 88 ff 3d 38 58 bd 3e ac b8 16 be
       0.0009484826 0.12477185 0.36981368 -0.14718884
000160 4c b0 14 be 10 47 dc 3e e1 41 cb 3c fb 68 4a 3e
       -0.14520377 0.43022966 0.024811687 0.1976661
000170 46 ae be bc 6a 9f 55 3e 3a ad b4 3e b6 3a d8 3d
       -0.02327646 0.20861593 0.3528841 0.10558073
000180 c8 51 b3 3e a7 3f ad be a3 20 7e 3d 7c f4 86 3d
       0.35023332 -0.33837625 0.062042844 0.065896004
000190 cd b7 fa bd 67 03 e8 bd 07 2d 47 be a4 ac b7 bc
       -0.122420885 -0.11328774 -0.1945077 -0.022421189
0001a0 73 a9 1c be dd e8 56 bd 0b 8a 02 bd 94 d7 8d bc
       -0.15299015 -0.05246817 -0.03186993 -0.01731471
0001b0 84 8b 24 be ff af 83 3d ca 4a 4a 3e 6b 6f 03 be
       -0.16068846 0.06430053 0.19755092 -0.12835471
0001c0 9e 3c 37 3e b6 79 05 3d 33 df 38 3e 65 20 02 3d
       0.17894217 0.032586776 0.18053894 0.031769175
0001d0 41 84 85 bd 1f a9 17 be 50 06 27 be a1 0a 10 be
       -0.06519366 -0.14810608 -0.16311002 -0.14066555
0001e0 6f 9c 62 be a1 24 8b 3e 4a 02 25 be a5 b0 82 3e
       -0.22129987 0.27176383 -0.16114154 0.25525394
0001f0 19 ca 5a be a7 ed c6 3e 18 c5 52 3e 5d 9a d6 be
       -0.21366157 0.3885319 0.20582998 -0.41914645
000200 c7 d0 e0 3c 6d 2c a3 3e 5e 65 df be d0 e8 ac 3e
       0.027443303 0.31869832 -0.43632025 0.33771372
000210 a1 cb 10 3e 13 06 97 3d 85 c0 da 3e 9f 20 0c be
       0.14140178 0.073742054 0.42725006 -0.13684319
000220 99 06 f7 3c 66 5d 1e be b3 47 08 3e 4d 43 3a 3e
       0.030154513 -0.15465316 0.13308601 0.18189736
000230 f4 c3 b4 be b8 56 1d be b0 d8 4e 3e 1b 30 b6 bd
       -0.3530575 -0.15365112 0.20199847 -0.08895894
000240 ba f1 b1 3d 69 1b 8f 3e 4d ca 7c 3e 57 7f c1 3e
       0.08688684 0.279506 0.24686547 0.37792465
000250 da 95 b3 3e b5 63 c5 be 21 77 d3 3e ff 2b 70 3e
       0.35075265 -0.38552633 0.41301826 0.23454283
000260 8e 27 9f 3e 90 22 79 3e d1 0a da 3d b2 ce 84 3e
       0.31084865 0.24329591 0.10646594 0.25938946
000270 6c d0 b9 3e bf 26 17 3f 0b 23 8f 3d 36 04 3d be
       0.36291826 0.59043497 0.06989106 -0.18458638
000280 f3 e6 20 bd f1 a0 fa bd 9e 97 e3 3d fe c5 9e 3d
       -0.03928275 -0.122377284 0.11112903 0.07752608
000290 33 c5 05 3e 4a cc 83 be 34 e1 b2 3c 02 e2 08 3f
       0.13063507 -0.25741798 0.0218359 0.5346986
0002a0 0f d7 62 3e 16 b4 34 be 77 62 d3 3e 74 69 6b be
       0.22152351 -0.17646822 0.4128606 -0.22989446
0002b0 cf 91 c4 3e 08 dc 9a 3e c7 25 ac be 7f 0e 53 3e
       0.38392493 0.30245996 -0.33622572 0.20610999
0002c0 ca d1 2f 3e 14 e8 f7 3e b1 86 60 be 04 18 d3 be
       0.17169872 0.4841925 -0.2192638 -0.4122926
0002d0 5a d6 9e bc a2 53 8a bd ec 01 b4 3d 36 f1 5e be
       -0.01938932 -0.06754233 0.08789429 -0.21771702
0002e0 84 c0 d7 bc cb 00 21 be d4 d3 25 be bd f8 1a be
       -0.026336916 -0.15722959 -0.16194087 -0.15133949
0002f0 31 5a a1 3d f1 12 ed bd c3 09 2c 3e 1c e4 34 3e
       0.07878531 -0.115758784 0.16800599 0.17665142
000300 ce ff 1c be b6 74 53 be d4 5a f2 3d be fc 5e be
       -0.15331957 -0.2064999 0.1183373 -0.21776101
000310 62 3b 0c bc b1 d2 20 3e f7 76 16 be 09 a7 a0 3c
       -0.00855908 0.15705372 -0.14693819 0.019610899
000320 d8 38 58 bd 65 a6 cc 3e 63 67 e2 3c 67 14 99 3d
       -0.052788585 0.399707 0.02763719 0.074745946
000330 cb 49 51 3e 2d 23 51 3e dc 9e ac 3e a3 ea a0 be
       0.20438306 0.20423575 0.3371495 -0.31429014
000340 67 2d 16 be 83 b4 25 3f 01 5f b8 be 17 3a 57 3e
       -0.14665757 0.64728564 -0.36009982 0.21018253
000350 87 1f 4d 3e 0e d4 7f 3d 99 11 fe 3d 08 fd 3a 3e
       0.20031558 0.06245809 0.124057 0.18260586
000360 5e c3 c2 3e 7b 1e ca be f9 80 5d 3e 40 97 e3 3d
       0.38039678 -0.3947638 0.2163123 0.11112833
000370 0c ee 04 be d3 52 a6 be 58 0a c2 3e 00 00 41 3e
       -0.12981433 -0.32485065 0.37898517 0.18847656
000380 21 6c ed bd 69 36 17 3d 4c 68 13 3e 92 c1 f6 3e
       -0.115928896 0.036917124 0.14395255 0.48194557
000390 a1 80 8a 3e d6 e7 e0 be 83 a7 bd 3e 62 61 f8 bb
       0.2705126 -0.43926877 0.37041864 -0.0075799683
0003a0 e7 18 ae 3e 9e 5c 69 3c e7 3f 12 be 0b d8 c6 3e
       0.34003374 0.014243273 -0.1428219 0.38836703
0003b0 98 87 1c be 6a 5f 2b 3f b0 42 8b 3d ac 45 10 3e
       -0.152861 0.66942465 0.06799829 0.14089078
0003c0 de 13 5f be b9 d5 6b bd c9 d6 5c 3d be 8b 16 be
       -0.21784922 -0.05757687 0.053915773 -0.14701745
0003d0 21 9c 16 be 53 95 27 be 51 dd 8a bd ec b4 0e 3e
       -0.14707996 -0.16365556 -0.06780494 0.13936204
0003e0 26 05 3e be 20 91 85 3d 4a 2b 24 bd a5 bc e0 3d
       -0.18556651 0.06521821 -0.040080346 0.10973481
0003f0 34 6c 9b bd e1 eb d7 bd 64 64 49 3e 25 aa f9 bc
       -0.075889975 -0.10543037 0.19667202 -0.030476639

fc3.bias f4 [20]
000000 7b 3f 4e 3e d8 97 cd 3d f7 ae 45 be 1d 34 8f 3d
       0.20141403 0.100387275 -0.19305025 0.06992362
000010 9e 3b 55 3e 2d 41 59 3d c8 a9 95 be c7 06 c4 3d
       0.20823523 0.053040672 -0.29231095 0.09571605
000020 10 a1 89 3e dc 7a 67 3d 7d 11 02 be 04 0f 8b 3e
       0.26880693 0.056513652 -0.12701984 0.27159894
000030 a3 b0 f5 bd 06 2c 13 be b3 4b 6c 3e 6a ab 2f 3e
       -0.119965814 -0.14372262 0.23075752 0.17155233
000040 3f b6 85 3d 35 92 6e 3e d8 5a 05 3d 08 8d cc 3d
       0.06528901 0.23297961 0.03255734 0.09987837

fc4.weight f4 [20, 20]
000000 02 0d 75 be a4 ea 95 be 29 d6 84 3e 47 cf 1e 3e
       -0.23930743 -0.2928058 0.2594464 0.15508758
000010 44 b8 d1 3c 2d 89 b8 bd fe 3f e7 3e 22 82 80 be
       0.02560056 -0.09010539 0.4516601 -0.25099283
000020 9f 9e 92 be 03 f7 b6 3d 1b ba 2b 3e 78 24 bc bd
       -0.28636643 0.089338325 0.16770212 -0.09186643
000030 64 b4 cc bd a6 64 cc 3e b9 7c 76 be d1 8e 66 3e
       -0.09995344 0.3992054 -0.24071015 0.22515418
000040 da 33 00 3e a9 b1 94 3e a6 2c 2b be 87 70 e1 bd
       0.1251978 0.29041794 -0.16716251 -0.11007791
000050 30 68 f4 bb 98 28 d3 bd 4c d1 f0 3d e5 42 c3 bd
       -0.007458709 -0.10310477 0.1175867 -0.095342435
000060 68 3e 20 be 64 08 4b be 25 b7 aa bd 70 7d 26 be
       -0.15648806 -0.1982742 -0.08335713 -0.16258788
000070 97 ec bf 3b 4b 06 93 bd 27 3f a1 bb fb b8 7d bd
       0.005857061 -0.07178935 -0.0049208584 -0.06194399
000080 b6 74 d8 bd 42 24 67 3d 6c 0d fe bd bb 6c 83 3d
       -0.10569136 0.056431063 -0.12404904 0.06417223
000090 22 a4 43 bd 4e 57 61 be eb 6e 62 be 0e aa 6a 3c
       -0.04776395 -0.2200596 -0.22112624 0.014322771
0000a0 2d d3 ff 3d be 47 97 be 45 ed 7b 3e b2 99 e0 3e
       0.124914505 -0.29546922 0.2460223 0.4386726
0000b0 fc 21 93 3e c3 b7 34 bd 28 d7 b0 3e 3c e8 3e be
       0.28736866 -0.04412056 0.3453915 -0.18643278
0000c0 47 87 e5 be 9a 34 cd bb 67 05 fb 3e 60 59 96 be
       -0.4482977 -0.006262374 0.4902756 -0.29365063
0000d0 90 6b 1c 3e 02 84 24 3f e9 b9 50 be 68 f8 52 3d
       0.15275407 0.6426393 -0.20383419 0.05150643
0000e0 d3 71 21 3e bb 3d 10 3e ab f6 34 be 9d 6d 46 3d
       0.15766077 0.14086048 -0.17672221 0.04844438
0000f0 4c 3b fa be ed 53 87 3e 90 85 ce 3d cb 63 2e bc
       -0.48873365 0.26431218 0.10084069 -0.01064391
000100 39 36 18 3e aa c6 c1 bd aa cd 9d 3e 85 21 ff 3d
       0.14864434 -0.0946172 0.30820972 0.12457565
000110 d1 8b 5d 3d b9 4f 4f be de 31 8b 3d 4c d7 c0 3d
       0.054088417 -0.20245256 0.06796621 0.094160646
000120 21 94 84 3d aa ef b2 be 98 5c 53 be 57 a1 02 be
       0.06473566 -0.34948474 -0.2064079 -0.12756859
000130 c3 18 a9 3e d1 7c 97 3e 33 1e 58 3e bd 80 f3 3d
       0.33026704 0.29587415 0.2110527 0.11889789
000140 c8 8c 09 be 64 35 92 3d 04 c6 4c 3e e8 0b 1e be
       -0.1343261 0.0713909 0.19997412 -0.1543423
000150 b4 7d b4 3d f1 ff b0 bd e8 67 01 bd 12 a7 75 be
       0.088130385 -0.08642567 -0.031593233 -0.23989514
000160 a5 05 ce 3d 20 d2 07 be 51 d5 36 be bc e8 2b 3e
       0.1005967 -0.1326375 -0.17854811 0.16788
000170 85 4b 63 bc 25 39 18 3e 9b 64 ae bd c9 de c7 3d
       -0.013872986 0.14865549 -0.08515283 0.0975929
000180 8c a9 fc 3c dc 5a 61 3c c9 c6 90 3d 94 2d 61 be
       0.030842565 0.013754573 0.07069165 -0.21990043
000190 ab d4 8b be c9 e1 c3 3e 1b bb 6f 3e 54 76 1c bd
       -0.2731069 0.38258198 0.23411219 -0.038198784
0001a0 1e 4d b7 3e e3 ef fb 3d 72 08 d5 3d 9b a5 ac 3e
       0.35801023 0.12301614 0.104020014 0.33720097
0001b0 06 f0 da bb dd f2 ac bd bf 61 8e 3e 01 a7 28 3e
       -0.006681445 -0.0844476 0.2780895 0.16469957
0001c0 5a 9a 0e 3e 07 3a 87 be 2f 87 94 3e bc b9 0c 3d
       0.13926068 -0.2641146 0.29009387 0.034356818
0001d0 a2 e3 72 3e 57 81 9c 3e 2a 8d 55 3e e5 3b 09 be
       0.23719648 0.30567428 0.20854631 -0.13401754
0001e0 ca f6 d7 bd ea 34 51 3e 16 fa 4e be b0 d6 2e be
       -0.10545118 0.20430341 -0.20212588 -0.17074084
0001f0 2d 29 32 bd 58 08 03 be 53 8e 0f be d8 9f 66 bd
       -0.0434963 -0.12796152 -0.14019136 -0.056304783
000200 89 4e 0b be e9 36 b4 bd 7c ad 19 3e ca 4d 53 be
       -0.13604178 -0.08799536 0.15007585 -0.20635143
000210 47 40 08 3e 9f de 3e 3e d6 b8 52 3e 49 ad 41 3e
       0.1330577 0.1863961 0.20578322 0.1891376
000220 59 59 9f bd 7f e7 34 3e e9 05 ea 3c d5 71 be bc
       -0.077807136 0.17666434 0.028567271 -0.023247639
000230 01 01 b7 be ca 75 ed 3d b2 9c bd 3d ea ae 97 3e
       -0.35742953 0.11594732 0.09258403 0.29625636
000240 e8 34 5c 3e 04 6d 09 bd c1 a0 10 3e 55 f2 38 3e
       0.21504557 -0.03355123 0.14123823 0.18061192
000250 17 b1 60 be f7 61 6c 3e 05 df ef 3e e5 58 a9 3d
       -0.21942554 0.23084246 0.46849838 0.082689084
000260 4c 05 03 bd 05 49 00 3e 6d e7 bb 3d 47 5a 50 3e
       -0.031987473 0.12527855 0.09175 0.20346938
000270 96 c7 0e 3e 5b 82 7e 3e 7d 51 93 3d 46 ae 1c be
       0.13943323 0.24854414 0.07193277 -0.15300855
000280 04 d6 ce be c9 e1 a0 3e ae b1 de bd 54 30 66 3e
       -0.40397656 0.3142226 -0.108737335 0.22479373
000290 44 25 a5 3d 4f c2 47 be dd ec b0 bd 14 00 72 3e
       0.080637485 -0.19507717 -0.08638928 0.23632842
0002a0 92 79 eb 3e 6f bd b4 3d d4 dd 87 bd e3 3a bf 3e
       0.45991188 0.08825194 -0.06634107 0.37349615
0002b0 c7 7e 30 be a0 b9 c3 be 4c ae c8 3e e7 16 2d be
       -0.17235862 -0.38227558 0.39195478 -0.16903268
0002c0 6e 03 08 3d 2d 8e 61 3e 3f 52 10 3e cc 73 75 bd
       0.033206396 0.22026892 0.14093874 -0.059924886
0002d0 7f 49 0c be 26 54 50 bc 58 92 bd 3e ad d0 5a 3e
       -0.13699912 -0.012715375 0.37025714 0.21368666
0002e0 b5 e9 e6 3e 08 ca 67 be c2 32 2f 3d ad 06 9e 3e
       0.4510018 -0.22635663 0.042773016 0.30864468
0002f0 a7 3a 2b be 0b b6 28 3e 5c dd 83 3e 95 c6 ae 3d
       -0.16721593 0.16475694 0.2575482 0.0853397
000300 a5 ea 72 3d 28 c1 19 3e 1a 81 72 be 4b 0a 48 be
       0.059305806 0.1501509 -0.23682061 -0.19535176
000310 ac 50 e9 3e 1c dc 8f 3d 84 87 36 3e 3e 9e b5 bd
       0.4556936 0.070244044 0.17825133 -0.08868073
000320 18 41 44 bd 63 b0 ca bd d9 72 8a bd 95 69 c5 3d
       -0.04791364 -0.09896924 -0.06760187 0.09639279
000330 33 0f 60 3e 27 33 c0 3d ed 05 30 3e d4 50 14 3d
       0.21880798 0.093847565 0.1718976 0.036209896
000340 be ee b9 3d 2a 6f 23 3e 53 91 12 3d 7a 2e 4b be
       0.090787396 0.15960374 0.035783123 -0.19841948
000350 ab 06 8a 3d 1d 67 d5 bd d0 94 20 be 2c 79 14 be
       0.06739553 -0.10420058 -0.15681767 -0.14499348
000360 83 67 9a bd 53 d2 ec bd ff b4 30 bd 87 12 13 3e
       -0.075392745 -0.11563554 -0.04314136 0.14362536
000370 f5 a8 0b be a8 c3 28 be 51 5d 30 3d a0 67 42 be
       -0.1363867 -0.16480887 0.043057743 -0.18984842
000380 ff 02 04 be 7c 32 10 be d8 dc 00 3e 34 bf 05 bd
       -0.12891768 -0.14081758 0.12584245 -0.03265305
000390 89 ba 23 be d1 8b 69 3d 77 d6 cd bd 6b af 02 be
       -0.15989126 0.057018105 -0.100506715 -0.12762229
0003a0 3c a7 4c 3e ac aa 1c bd fa 58 ac 3d d2 8d 58 3e
       0.1998567 -0.038248703 0.084154084 0.2114785
0003b0 86 bf 5d be 5d 32 f2 3d bb 4f c6 3d 80 ac 1e 3e
       -0.21655092 0.11826012 0.09683176 0.15495491
0003c0 f1 0e 73 3d 93 e4 02 be 35 6b a9 3e 20 f3 18 3e
       0.05934042 -0.12782507 0.33089605 0.14936495
0003d0 20 aa 54 3e be ec 0b be 45 ce 18 3e 50 e1 80 3e
       0.20768023 -0.13664529 0.14922436 0.251719
0003e0 83 39 a2 be fb 3d e2 bd c4 fb 8a 3d a9 80 ec 3d
       -0.31684503 -0.11046978 0.06786302 0.115479775
0003f0 8b 54 3a be db 01 11 3f 65 b5 d3 bd 80 05 40 3e
       -0.18196313 0.56643456 -0.10337333 0.18752098

fc4.bias f4 [20]
000000 7d df c2 ba f3 7c 3d 3e 37 4a bb 3d 22 bd 3b 3e
       -0.001486763 0.18504696 0.09145015 0.18333867
000010 3e 5a b2 bd 28 a5 aa 3d e8 e2 ce bd 8c 86 8b b9
       -0.087086186 0.08332282 -0.10101873 -0.0002661239
000020 24 85 bf 3d c8 4a 6a 3e 0e 27 fe bd 68 ec fc bd
       0.093515664 0.2288009 -0.12409793 -0.123497784
000030 e0 89 fe bc f5 d3 87 be 2a 13 24 be a2 cf 86 3d
       -0.031071603 -0.26528898 -0.16022936 0.065825716
000040 82 24 3a be 60 3c f4 bd f0 23 22 3e 0e 50 0a 3c
       -0.18177989 -0.11925578 0.15834022 0.008441938

fc5.weight f4 [20, 20]
000000 15 fa 85 be c9 c5 79 bd 85 7a 1e be 92 65 09 3b
       -0.2616736 -0.06097964 -0.15476425 0.0020965082
000010 dc b0 e9 bd 28 c5 91 3d 23 2d ae 3d 5e 91 99 bc
       -0.114106864 0.07117683 0.08504703 -0.018746074
000020 a8 55 d6 bd bf 10 19 3e c9 25 a5 b9 49 4b 90 3d
       -0.104655564 0.14947794 -0.00031499405 0.070456095
000030 f7 f3 e4 3c 05 99 11 3d 8e bc d4 bd 09 9f d2 bd
       0.027948363 0.03554632 -0.103875265 -0.1028424
000040 40 b7 d6 bd 1f 52 66 bd 15 5e 8b bc 8a 18 fc bd
       -0.10484171 -0.05623066 -0.017012635 -0.12309368
000050 15 67 59 3e 63 f8 29 3e 78 11 b3 3d 9b 00 de bd
       0.21230729 0.16598658 0.08743566 -0.10839959
000060 d1 ff af bd f2 fa 90 3d 60 91 0e be 0d 75 5b 3e
       -0.08593715 0.07079114 -0.13922644 0.2143137
000070 e4 9c 42 3e fd 3a 1b 3c 12 c9 3f bb 64 6c 4c be
       0.19005162 0.009474513 -0.0029264134 -0.19963223
000080 ff 6b 9e 3e 67 69 fc 3d 78 2b 50 3e 56 0f 07 3e
       0.3094177 0.123247914 0.20329082 0.13189444
000090 b6 9d 02 3e 25 7b 3e 3e 69 29 57 bb d2 15 7e 3d
       0.12755474 0.18601663 -0.003283108 0.06203253
0000a0 83 4c e8 be 1b 65 36 3d 4d 28 ae be a9 1d ae 3e
       -0.45370874 0.044530015 -0.34015122 0.34007004
0000b0 e6 8e 28 3d 7d cc 23 bd a6 92 31 be 75 54 97 3e
       0.041151904 -0.039989937 -0.17341098 0.29556623
0000c0 88 32 b2 3e 07 c9 77 3d 19 91 6d 3d 4a a2 36 3e
       0.34804177 0.06049445 0.057999704 0.17835346
0000d0 48 eb a6 3c 92 3c aa bd e9 8e df 3b 9d 37 a0 3e
       0.020375863 -0.08312334 0.006822456 0.3129243
0000e0 11 d6 c0 be 49 d1 2e 3d 54 39 0b 3e b7 10 6a 3e
       -0.3766332 0.04268006 0.13596088 0.22857939
0000f0 ec 28 ad be c1 53 bf 3d 13 98 bf be 63 2f 18 3e
       -0.33820283 0.09342147 -0.3742071 0.14861827
000100 40 de 07 3e b6 63 9a 3e 3c c4 e5 3a e0 71 85 3e
       0.13268375 0.30154198 0.0017529796 0.26063442
000110 99 b8 f3 bc 3c c2 76 bd f3 b5 2a be 53 40 dc bd
       -0.029751109 -0.06024383 -0.1667097 -0.10754456
000120 db 78 2a 3e 33 35 84 3d 91 37 31 be a8 de fb 3c
       0.16647665 0.064554594 -0.17306353 0.03074582
000130 0c 65 30 be 32 bb 22 3e 77 fd 77 bd 84 57 d0 3d
       -0.17226046 0.15891722 -0.060544457 0.10172942
000140 9a de 31 3e b2 e1 f3 bd 26 2c f4 3e e1 0e b8 be
       0.17370072 -0.11908282 0.47689933 -0.35948852
000150 74 4e 56 be 30 49 f7 3d 20 5b ab bd 6a d4 ab bb
       -0.20928365 0.12074506 -0.0836699 -0.0052438276
000160 c0 92 12 3e 9a 8e 77 bd 3d 39 2e be 06 e1 15 3d
       0.14313793 -0.06043873 -0.17014022 0.036591552
000170 b8 2f 4c 3d 27 88 be 3e a8 87 17 bc ea 07 13 3e
       0.049850196 0.3721325 -0.009248652 0.14358488
000180 64 98 61 3e f9 0c 65 3e 44 b0 f3 3d e8 e8 b3 3c
       0.22030789 0.2236823 0.118988544 0.021961644
000190 be bc 31 bd 56 21 72 3e ad 1a ff bd 92 3e f2 3d
       -0.04339289 0.23645529 -0.1245626 0.118283406
0001a0 4b b9 19 3e fb 6b 4d be 2f 76 78 bc e7 b2 aa 3d
       0.1501209 -0.20060723 -0.015164896 0.08334904
0001b0 4a e4 6d 3e 43 d2 45 be 02 e8 fc ba 59 2a ef 3d
       0.23231617 -0.1931849 -0.0019295218 0.11677999
0001c0 c9 38 f8 bd b1 77 51 be f5 49 d6 3d 5d aa c5 3c
       -0.12120206 -0.20455815 0.10463325 0.024129087
0001d0 09 b7 27 3d 1f 1e 63 be f1 29 2d be 92 fb af 3c
       0.04094604 -0.22179459 -0.1691053 0.021482263
0001e0 33 15 7d be dc 66 01 be 06 41 a1 bb 22 00 92 3d
       -0.24715118 -0.12636894 -0.0049210815 0.071289316
0001f0 f7 60 35 3e a8 87 f9 3d 33 1d 5e be ef ac 27 be
       0.1771277 0.121840775 -0.21690826 -0.16374563
000200 fc 7b c0 bd 95 f3 17 3e 2f c4 e4 3b fb f3 fb 3d
       -0.09398648 0.14839013 0.0069813947 0.12302395
000210 a0 68 59 be 25 d5 90 3c b1 33 a5 3d 73 62 24 be
       -0.21231318 0.01767976 0.080665 -0.1605318
000220 82 86 30 3e 37 e1 37 3e ee 9b 6a bc 2e c5 d2 3d
       0.1723881 0.17957006 -0.014319403 0.10291515
000230 d9 3e 69 3e 62 51 1a be 82 c8 a7 3e f6 da df be
       0.2277788 -0.15070108 0.32770163 -0.4372174
000240 48 45 07 3c 44 e4 18 be b2 7c e0 3d 82 77 56 3e
       0.008256264 -0.14930826 0.10961284 0.20944026
000250 d5 12 b8 3d af 6f 2d 3e 8b 70 c6 bc 2f 71 ec 3c
       0.08987967 0.16937135 -0.024223587 0.028862564
000260 5a 91 90 3e 62 07 fe 3d 87 cb 3e be 7b 71 31 be
       0.28235894 0.12403752 -0.18632327 -0.17328446
000270 41 a3 ca 3e 76 22 00 3e 5c c3 2b 3d 58 87 21 bc
       0.39577678 0.12513146 0.041934356 -0.009858929
000280 ba 8b 3a be 86 0a e6 3d 6a 03 a7 be 35 6e f8 be
       -0.18217364 0.11232476 -0.32619792 -0.4852158
000290 fc be 4f 3e 00 66 a9 bd eb 93 a1 bd db b0 fa bd
       0.20287699 -0.08271408 -0.07889541 -0.12240764
0002a0 ac 76 95 3e 9e 70 b4 be dd cf 21 3e c5 b8 b7 bd
       0.29192102 -0.3524217 0.1580195 -0.08970789
0002b0 ce a8 99 be 5a ff d3 be d3 1e 19 3e ec 33 06 bf
       -0.300116 -0.41405755 0.14953165 -0.52422976
0002c0 e6 0c b5 3e f3 b8 88 3c 8c bc 02 3f d9 74 dc 3c
       0.35361403 0.016689753 0.5106895 0.026911186
0002d0 d1 f9 f0 bc 66 19 50 3d 35 b1 37 bd e6 4c 33 be
       -0.029415997 0.05080547 -0.044846732 -0.17509803
0002e0 85 1a 61 3e d2 97 5d be cb 8c 76 3d 45 71 ed 3a
       0.21982773 -0.21639946 0.060192864 0.0018115422
0002f0 5c 94 16 bd f3 1a 2e 3e 71 ba 04 3e 14 f7 30 be
       -0.03676258 0.17002468 0.12961747 -0.17281753
000300 12 23 60 be 50 46 a2 bd 22 f9 14 3e b6 11 42 3e
       -0.21888378 -0.07923567 0.14548162 0.18952069
000310 59 ec da bd a1 e8 33 bd f3 7f c1 bd 58 56 17 3e
       -0.10689611 -0.043923024 -0.094482325 0.14779031
000320 7b 6f 95 3d b1 67 32 3d 4e b5 61 be 1c cd 25 3e
       0.07296654 0.04355592 -0.22041818 0.16191524
000330 c5 e7 20 3e 42 26 f4 bd 1c ed 05 be 38 09 8d bc
       0.15713413 -0.119213596 -0.13078731 -0.01721631
000340 78 fc f5 bd e0 f7 02 be b6 5b 2b 3e af 8f 40 be
       -0.12011045 -0.1278987 0.16734204 -0.18804811
000350 f0 b1 93 bd 3f 61 91 3d bc d1 61 3d 5b 05 8f 3d
       -0.07211673 0.07098626 0.05513166 0.06983443
000360 0f fc 41 be e0 09 24 be 93 67 72 bc fa ba ea 3c
       -0.18943809 -0.16019392 -0.014795202 0.02865361
000370 49 ce 1e 3c e0 97 02 bc 87 c5 84 3d 3c 42 69 be
       0.009692737 -0.00797078 0.06482988 -0.22779173
000380 7c 4c 50 be 52 e6 1e be a1 db 60 3e 77 f9 0a 3c
       -0.20341676 -0.15517548 0.21958782 0.008482329
000390 31 be e3 bd 8e c5 30 be c7 e0 0c 3e d2 38 5f be
       -0.111202605 -0.17262861 0.13757621 -0.21799019
0003a0 09 60 cf 39 33 d3 44 bd 40 ed 49 be e1 62 2c 3e
       0.00039553668 -0.048052978 -0.1971941 0.16834594
0003b0 4b 97 a6 3c 7e f3 14 be 83 d6 22 be f9 fe 8a b9
       0.020335814 -0.1454601 -0.15902142 -0.0002651138
0003c0 d1 f5 08 3f 9a 0b 4e 3e 53 93 bf 3e 5f 65 8e be
       0.53500086 0.20121613 0.37417087 -0.27811715
0003d0 b9 66 13 be af 42 07 3e 3f 62 63 3e 06 67 63 3e
       -0.14394654 0.13209032 0.22205447 0.22207269
0003e0 e2 f8 cf 3d fa f1 63 bd 6b f5 e2 3b 97 d0 14 be
       0.101548925 -0.05565069 0.0069262288 -0.14532696
0003f0 d6 ae 93 3e cb 8c b8 3e a6 01 22 be c6 8a a9 3d
       0.28844327 0.36044917 -0.15820941 0.08278422

fc5.bias f4 [20]
000000 09 5d 72 bd 9c 7d d2 bd 16 b6 88 3e ae de d1 3d
       -0.059170756 -0.10277864 0.2670142 0.10247551
000010 81 26 7f 3c 01 e1 bf 3a a7 ed 00 3e c8 14 9e bb
       0.015573145 0.00146392 0.12590657 -0.0048242547
000020 d8 5b d4 bc 39 2a 21 be 94 d5 1c 3e 16 09 72 3c
       -0.0259227 -0.15738763 0.15315849 0.014772674
000030 e5 ec 0e bd 95 4c 26 be 24 48 17 bd d9 fd 4b 3e
       -0.03489389 -0.16240151 -0.036934033 0.19921054
000040 2e ca c6 3e 6e fd 3b 3d 83 b2 a5 be 27 6c cd bd
       0.38826126 0.045895986 -0.32362756 -0.10030394

fc6.weight f4 [3, 20]
000000 3d 03 01 3e ca 75 3b 3e d6 8d 01 bb 7a 92 1d be
       0.12598892 0.18306652 -0.0019768379 -0.15387908
000010 12 72 bc 3e b8 4c 83 3d b7 9f 1f 3d 82 44 c8 3e
       0.3680578 0.06411117 0.038970675 0.39114767
000020 da d4 2f 3f 55 d3 13 3e be 79 01 3e 36 5b 16 bd
       0.6868416 0.14436086 0.12644097 -0.03670808
000030 87 a4 9b 3e 30 77 03 3f e0 68 32 be 70 c2 87 3e
       0.30398962 0.5135374 -0.17422819 0.26515532
000040 a9 f1 63 be d0 73 fd be f6 ec d9 3e d4 41 d1 be
       -0.22260155 -0.4950242 0.425636 -0.40870535
000050 95 4d bd 3d 12 2d bb be fa 6b 40 be df 54 ce be
       0.09243313 -0.36557823 -0.1879119 -0.40299127
000060 49 3d bf be 3e 22 01 be 2c e2 33 3e 0f 8b 07 be
       -0.37351444 -0.12610719 0.17566746 -0.1323664
000070 65 c2 70 be 87 f3 1b 3e 7b 4a 25 3d 4c e4 b4 3d
       -0.23511656 0.15229617 0.040354233 0.08832607
000080 91 05 89 be 61 eb b7 bd e2 8a fc bd 1a d1 a1 be
       -0.2676206 -0.08980442 -0.12331177 -0.31604844
000090 9f 90 cb be 25 81 8b be b2 a5 d0 3c 82 eb 29 be
       -0.39758775 -0.27246967 0.025469635 -0.16593745
0000a0 57 20 fe 3c 55 01 aa 3d e8 e1 b7 3e ae 75 82 3e
       0.03102128 0.08301035 0.3591454 0.25480407
0000b0 8f 1a 70 3d d5 8f c0 bd 1a 43 af bd d7 06 8f bc
       0.05861908 -0.09402434 -0.085577205 -0.017459316
0000c0 d9 c6 c8 be dc fe 0b be 26 ad 1a be 84 1e 03 3e
       -0.3921421 -0.1367144 -0.15105113 0.1280461
0000d0 88 73 9b bd 34 d6 42 be a0 bb c8 3e 53 00 d3 be
       -0.07590395 -0.19027025 0.39205647 -0.41211185
0000e0 78 df 86 3e 8b 56 04 3f 4f f3 a7 be 80 98 27 3e
       0.26342368 0.51694554 -0.32802817 0.16366768

fc6.bias f4 [3]
000000 dc 8e 51 3d 75 c0 a5 be 63 68 a6 3e
       0.051161632 -0.32373396 0.32501516
