models_3val/xor.pth (torch, 11762 bytes, 12 tensors)

fc1.weight f4 [20, 12]
-0.19482197 -0.42435735 0.11837921 0.019742047 -0.00084600766 0.04807683 0.27327222 0.13050473
0.23797892 0.18312117 0.21750914 0.20188576 -0.25753254 0.07183074 -0.12199265 0.13757943
0.057098947 -0.19053024 -0.033970807 0.19878294 -0.13451095 0.09466545 0.15805288 0.16066614
-0.53454936 0.26179942 -0.07148178 -0.036795914 -0.02645352 0.12154826 -0.0047434624 -0.023806026
-0.010100715 0.018178834 -0.0019984744 0.12152025 0.39291006 0.30537367 0.11993964 -0.06795208
-0.027294345 -0.093494415 0.15253887 0.11316627 0.121246934 -0.13689706 0.23714274 0.094300635
-0.23148192 0.31350246 -0.17149769 -0.07295419 0.036548514 -0.17823288 0.12135265 -0.08079984
0.13239765 0.013660851 -0.12318203 -0.0024751537 -0.5544535 0.002347649 0.006879213 0.13176633
-0.028917536 0.087073706 0.09416021 0.09688438 0.07211396 -0.033874616 -0.011037352 -0.14063834
0.097241044 0.62602204 0.057181627 0.23801869 -0.094513156 -0.15014397 -0.11436666 0.09577714
0.17616557 0.16829623 0.035182063 0.046161868 -0.30015957 0.5656597 0.11639156 0.25955275
0.062290136 0.15219884 0.32071066 0.17654897 0.072323725 0.22553773 0.30716804 0.0037535187
0.3297363 0.31098342 0.2446071 0.08669166 0.30433396 0.16926087 0.041005332 -0.08432624
-0.082106076 0.29603988 -0.0022001509 0.12592243 0.20284523 0.31649736 0.251319 0.09132882
0.16836144 -0.14772655 0.23321745 -0.17639287 0.057318892 -0.081299774 -0.027897682 0.21906403
0.39792737 0.33854952 0.0522095 0.0797391 -0.013250468 0.21662004 0.2933056 0.10497046
-0.12792665 0.09615664 -0.012052611 0.04082673 -0.3880482 -0.3645751 0.057511237 0.119366914
0.1120187 0.098658286 0.08526541 0.1558009 0.08739568 0.13064934 0.1640466 0.055691473
-0.42647403 0.25479996 0.06762791 -0.008933286 0.08403799 0.002247064 0.06953835 -0.021061322
-0.038220756 -0.05084579 0.014875842 0.034625698 -0.050826207 -0.41296798 0.23187014 0.4603425
-0.026866961 0.24010529 0.11482313 0.11409958 -0.055560496 0.0046645594 0.2779562 -0.065757394
0.17029233 0.53093255 0.114054374 0.18043898 -0.03259624 0.19409013 0.22127482 -0.114256226
0.16650873 -0.029759668 0.2050727 -0.034493253 0.18610623 -0.32768908 0.12073686 0.15460704
0.10264272 0.052766804 0.28769258 -0.1537918 0.13657497 -0.09452577 -0.124688044 0.0808969
-0.3808055 0.4489591 0.035779413 0.034995995 -0.07248123 -0.0072265533 -0.0023945472 -0.06456131
-0.011290036 -0.07505882 -0.025543889 0.02787695 0.50610363 0.26317504 0.010835772 0.041460484
0.15574497 0.18039279 -0.08797161 0.11466592 0.12429225 -0.064875245 0.033851907 0.26396582
-0.5565775 0.115234695 0.07847594 0.007843612 0.033650354 -0.050117716 -0.042086724 -0.027073504
0.035414588 0.05374233 0.005576868 0.01590535 0.09145538 0.44514796 0.16283233 -0.20047759
0.19060643 0.04469155 -0.0018076962 0.09291235 0.1805886 0.004877247 -0.098850824 0.10431142
00000000: 697f 47be 5e45 d9be cd70 f23d 13ba a13c
00000010: 9dc6 5dba 36ec 443d 56ea 8b3e 08a3 053e
00000020: bfb0 733e 1e84 3b3e b7ba 5e3e 24bb 4e3e
00000030: 4edb 83be ff1b 933d 48d7 f9bd 9fe1 0c3e
00000040: 96e0 693d 5c1a 43be f924 0bbd c18d 4b3e
00000050: 3dbd 09be f6df c13d 9dd8 213e aa85 243e
00000060: 3ad8 08bf 930a 863e 0a65 92bd 50b7 16bd
00000070: 0db5 d8bc 4bee f83d 0c6f 9bbb db04 c3bc
00000080: 787d 25bc c7eb 943c d6f8 02bb 9cdf f83d
00000090: 822b c93e f059 9c3e eaa2 f53d 762a 8bbd
000000a0: 6498 dfbc 007a bfbd 2633 1c3e b8c3 e73d
000000b0: 5050 f83d be2e 0cbe 8cd5 723e b120 c13d
000000c0: 9909 6dbe 6583 a03e 179d 2fbe 0269 95bd
000000d0: e5b3 153d ae82 36be bd87 f83d 637a a5bd
000000e0: 4093 073e c3d1 5f3c dc46 fcbd 3036 22bb
000000f0: aaf0 0dbf 04db 193b 056b e13b c1ed 063e
00000100: 78e4 ecbc b353 b23d 11d7 c03d 516b c63d
00000110: 7cb0 933d 1cc0 0abd 02d6 34bc 7f03 10be
00000120: 5026 c73d fb42 203f 4837 6a3d 2cbb 733e
00000130: 1d90 c1bd 57bf 19be 1139 eabd ce26 c43d
00000140: bf64 343e d955 2c3e 111b 103d 3a14 3d3d
00000150: 84ae 99be 13cf 103f b35e ee3d 19e4 843e
00000160: f123 7f3d 03da 1b3e 3034 a43e 41c9 343e
00000170: 761e 943d 5df3 663e 2145 9d3e 98fd 753b
00000180: 32d3 a83e 3839 9f3e 497a 7a3e 668b b13d
00000190: a9d1 9b3e b952 2d3e 35f5 273d 3cb3 acbd
000001a0: 3b27 a8bd 8a92 973e 6830 10bb cff1 003e
000001b0: a9b6 4f3e f10b a23e e2ac 803e 9b0a bb3d
000001c0: f166 2c3e a145 17be 8ed0 6e3e 55a0 34be
000001d0: 37c7 6a3d 7f80 a6bd ae89 e4bc 5252 603e
000001e0: 23bd cb3e 5d56 ad3e a1d9 553d 414e a33d
000001f0: 7e18 59bc a5d1 5d3e 272c 963e c1fa d63d
00000200: 34ff 02be c6ed c43d 5178 45bc ee39 273d
00000210: 41ae c6be 96a9 babe e790 6b3d a476 f43d
00000220: 0f6a e53d 5b0d ca3d a29f ae3d 458a 1f3e
00000230: 82fc b23d f1c8 053e d5fb 273e be1c 643d
00000240: ce5a dabe 2475 823e 8080 8a3d eb5c 12bc
00000250: 1c1c ac3d 7a43 133b 1f6a 8e3d cb88 acbc
00000260: 5e8d 1cbd ad43 50bd ceb9 733c add3 0d3d
00000270: 242f 50bd 8a70 d3be 5e6f 6d3e 03b2 eb3e
00000280: 1a18 dcbc 29de 753e 6428 eb3d 0aad e93d
00000290: 6793 63bd 29d9 983b 4650 8e3e d0ab 86bd
000002a0: 1d61 2e3e 32eb 073f 5795 e93d ffc4 383e
000002b0: a383 05bd 90bf 463e de95 623e 2bff e9bd
000002c0: 4481 2a3e 8cca f3bc 94fe 513e cc48 0dbd
000002d0: a292 3e3e ddc6 a7be e344 f73d 4f51 1e3e
000002e0: 5936 d23d 0122 583d 714c 933e 997b 1dbe
000002f0: 4fda 0b3e ba96 c1bd 725c ffbd 46ad a53d
00000300: f0f8 c2be f8dd e53e 6f8d 123d f657 0f3d
00000310: 0a71 94bd b9cc ecbb d6ed 1cbb b838 84bd
00000320: d8f9 38bc 70b8 99bd 6b41 d1bc 345e e43c
00000330: 0290 013f e1be 863e 8688 313c 78d2 293d
00000340: 9c7b 1f3e e3b8 383e 762a b4bd f7d5 ea3d
00000350: ef8c fe3d 50dd 84bd 4ca8 0a3d 8726 873e
00000360: dd7b 0ebf 2b00 ec3d feb7 a03d 7e82 003c
00000370: f4d4 093d 3c48 4dbd 2163 2cbd 41c9 ddbc
00000380: e30e 113d eb20 5c3d 29be b63b f04b 823c
00000390: f54c bb3d 6fea e33e 85bd 263e ff49 4dbe
000003a0: 552e 433e 7d0e 373d 38f0 ecba d548 be3d
000003b0: 38ec 383e 50d1 9f3b 4d72 cabd 3aa1 d53d

fc1.bias f4 [20]
0.55445266 0.013061164 0.19762188 0.055467676 0.17177965 0.2352966 0.26431516 0.31689402
0.46326762 -0.22857651 -0.29255018 0.28442475 -0.01204122 0.45249614 -0.2654737 0.16362591
0.06576804 0.23873898 0.31648827 0.6064733
00000000: 9cf0 0d3f 7efe 553c 645d 4a3e 1332 633d
00000010: 01e7 2f3e 98f1 703e 5154 873e ef3f a23e
00000020: 6a31 ed3e f60f 6abe 23c9 95be 1fa0 913e
00000030: 8a48 45bc 93ad e73e 2bec 87be 8d8d 273e
00000040: 65b1 863d fe77 743e c00a a23e d641 1b3f

fc2.weight f4 [20, 20]
0.46207252 0.16083813 0.06708581 -0.16527924 0.21798433 0.35469943 -0.25508904 0.07813645
0.23907864 0.09297057 -0.0410603 -0.23132977 0.42770404 0.049986947 -0.20545618 0.19412318
0.2907631 0.03240268 0.4175102 0.19542778 0.58628124 0.11124886 0.565256 0.064354666
0.22494559 0.29879078 -0.2790175 -0.022399765 0.052650895 -0.41191655 -0.35854116 -0.34780225
0.18558379 0.2666481 -0.45164853 0.46281427 0.40217486 0.13565528 0.45527533 0.17051402
-0.4379069 0.004538008 -0.13440724 0.37764266 -0.08486763 -0.14767683 0.41969264 0.19893385
-0.040111173 -0.06711895 0.44231066 -0.06516236 -0.3701878 -0.32238358 0.36476615 -0.081825614
-0.04802155 0.28959534 -0.16229935 0.22584097 0.2608758 0.37038338 0.5339165 0.14415593
0.052984748 0.22048084 0.03844199 0.2880842 0.34270757 -0.28609672 -0.3212648 -0.21938612
0.28293118 0.49728122 -0.16606282 0.35066617 0.42548376 -0.0003583108 0.50024444 0.25784233
-0.38055494 0.1658436 0.050273545 0.100634776 -0.045946326 -0.35763887 0.3894143 0.09368393
0.11558842 0.08985974 0.42045173 0.2683807 -0.41342556 -0.22585309 0.12877803 -0.2290636
-0.32244235 0.38042524 -0.29305273 0.28197014 0.43977782 0.2027374 0.50577205 0.011187554
0.18060066 0.4649107 -0.0568921 0.15739398 0.0043851305 -0.06513914 -0.28960708 0.27857912
0.47336212 0.39496973 -0.018471342 0.21647349 0.3028418 -0.119823836 0.39098945 0.04114653
0.40913403 -0.15237044 -0.37019834 0.0886787 -0.05650946 -0.14485975 -0.054624263 -0.45586982
0.04907367 -0.07265621 0.11942771 0.16816743 -0.32786343 0.27928865 -0.38433897 0.26478362
-0.35666272 0.2388211 0.077429995 -0.2610233 -0.09212886 -0.1600624 -0.3064732 0.44634706
0.10859568 0.028706932 0.18862274 0.021743309 0.21519051 0.2555875 0.5160197 0.05275434
-0.4263608 -0.17371185 0.2719324 -0.17215173 -0.2939663 0.19618729 -0.16256143 0.3054765
-0.1564623 -0.11245533 0.052381042 0.24681695 0.1252817 -0.3654804 0.3819717 -0.024132976
-0.020686917 0.15432155 0.303974 0.33657196 -0.14869034 -0.21660742 0.503362 -0.018780826
0.033015154 0.123522565 -0.2224656 0.13532273 0.13208815 0.32435954 0.19434157 -0.024502745
0.31667036 0.12181 -0.023005186 0.12334141 0.37722155 0.01037835 -0.13893385 -0.14982995
0.26862282 0.25440955 0.0030971945 0.36763304 0.1674152 -0.002855731 0.61614484 0.32790238
-0.043059554 0.05308654 -0.1726979 -0.09044434 0.18475974 -0.059519686 -0.23985569 -0.0726302
0.16026314 -0.22028635 -0.23312353 -0.16842392 -0.10196127 0.036902696 -0.1375625 -0.14451498
0.10924135 -0.16013817 -0.11301345 -0.044161864 0.18175319 0.09163794 0.33984724 0.032514304
0.25901625 0.35136905 0.02910397 0.023355115 0.1324142 0.04566329 -0.090904646 -0.14821045
0.1547986 0.15935008 -0.009439203 0.18226443 0.11916988 -0.031270854 0.32290196 0.23359562
-0.2116298 0.17030676 -0.10291448 -0.00989124 0.14530987 0.120035045 0.29885578 0.27232444
0.3136283 -0.081592955 0.21779315 0.06304628 -0.01575873 -0.14321126 0.20740114 0.02826399
00000000: c594 ec3e c0b2 243e 4964 893d f63e 29be
00000010: 4937 5f3e 2a9b b53e 089b 82be 0106 a03d
00000020: 08d1 743e 5b67 be3d d82e 28bd b6e1 6cbe
00000030: 06fc da3e 1dbf 4c3d 1b63 52be 3ac8 463e
00000040: e7de 943e acb8 043d e6c3 d53e 381e 483e
00000050: 8716 163f 71d6 e33d 9eb4 103f 61cc 833d
00000060: 2358 663e 1bfb 983e 62db 8ebe b67f b7bc
00000070: 77a8 573d bae6 d2be b592 b7be 2313 b2be
00000080: ad09 3e3e 1a86 883e 7a3e e7be fef5 ec3e
00000090: dde9 cd3e 38e9 0a3e d919 e93e 3a9b 2e3e
000000a0: 5535 e0be 92b3 943b 0da2 09be 615a c13e
000000b0: 14cf adbd 9838 17be f4e1 d63e 51b5 4b3e
000000c0: 9d4b 24bd a975 89bd 8b76 e23e d873 85bd
000000d0: 4189 bdbe 760f a5be a1c2 ba3e 3094 a7bd
000000e0: 3fb2 44bd d745 943e cd31 26be db42 673e
000000f0: 8391 853e e4a2 bd3e c0ae 083f 9d9d 133e
00000100: 8906 593d bbc5 613e 5975 1d3d c67f 933e
00000110: 5e77 af3e 457b 92be d27c a4be c1a6 60be
00000120: 5bdc 903e a59b fe3e 5f0c 2abe 848a b33e
00000130: 02d9 d93e a9db bbb9 0510 003f e903 843e
00000140: 19d8 c2be e8d2 293e a2eb 4d3d 9b19 ce3d
00000150: 3732 3cbd 711c b7be 5061 c73e 5cdd bf3d
00000160: 9fb9 ec3d 6208 b83d 7345 d73e 3269 893e
00000170: 84ac d3be 0846 67be 63de 033e a68f 6abe
00000180: 2a17 a5be 19c7 c23e 020b 96be 645e 903e
00000190: 8f2a e13e 659a 4f3e 477a 013f 014c 373c
000001a0: 61ef 383e c608 ee3e b107 69bd e32b 213e
000001b0: 24b1 8f3b ab67 85bd 6147 94be eca1 8e3e
000001c0: 855c f23e 7939 ca3e 3651 97bc 3aab 5d3e
000001d0: 150e 9b3e 3366 f5bd c52f c83e 4489 283d
000001e0: 047a d13e ff06 1cbe a38a bdbe 2e9d b53d
000001f0: 7776 67bd 1d56 14be b1bd 5fbd c567 e9be
00000200: 7901 493d c7cc 94bd 8496 f43d 1534 2c3e
00000210: b7dd a7be ecfe 8e3e 14c8 c4be b891 873e
00000220: 7f9c b6be 858d 743e 9e93 9e3d d9a4 85be
00000230: 0eae bcbd 66e7 23be 0eea 9cbe 9a87 e43e
00000240: 6967 de3d cd2a eb3c 5226 413e 061f b23c
00000250: e75a 5c3e 5ddc 823e de19 043f ef14 583d
00000260: f64b dabe 85e1 31be b93a 8b3e 8b48 30be
00000270: c082 96be 52e5 483e 8176 26be 6a67 9c3e
00000280: a737 20be fb4e e6bd 818d 563d 95bd 7c3e
00000290: d949 003e 3f20 bbbe cb91 c33e 85b2 c5bc
000002a0: 9c77 a9bc 7806 1e3e 7ba2 9b3e 2953 ac3e
000002b0: 4842 18be 56ce 5dbe 55dc 003f 3fda 99bc
000002c0: e63a 073d 66f9 fc3d 06ce 63be 0b92 0a3e
000002d0: 1e42 073e 7412 a63e 7a01 473e fbb9 c8bc
000002e0: 9e22 a23e 8577 f93d 5f75 bcbc 6c9a fc3d
000002f0: 2f23 c13e f409 2a3c ad44 0ebe 066d 19be
00000300: ee88 893e f841 823e 4dfa 4a3b 663a bc3e
00000310: e46e 2b3e 3727 3bbb abbb 1d3f d2e2 a73e
00000320: 375f 30bd 4671 593d b8d7 30be e23a b9bd
00000330: a831 3d3e eaca 73bd bb9c 75be 24bf 94bd
00000340: 051c 243e bf92 61be efb7 6ebe 5277 2cbe
00000350: 12d1 d0bd 4827 173d 2fdd 0cbe bcfb 13be
00000360: eeb9 df3d 43fb 23be 9873 e7bd 12e3 34bd
00000370: 821d 3a3e acac bb3d 7500 ae3e b82d 053d
00000380: c79d 843e a5e6 b33e 736b ee3c 3a53 bf3c
00000390: 9797 073e 6e09 3b3d 372c babd 7bc4 17be
000003a0: 8683 1e3e ab2c 233e e3a6 1abc 87a3 3a3e
000003b0: 570f f43d de15 00bd 6853 a53e b133 6f3e
000003c0: 7bb5 58be e564 2e3e d4c4 d2bd de0e 22bc
000003d0: 1ccc 143e efd4 f53d a003 993e 1c6e 8b3e
000003e0: e393 a03e 351a a7bd 2b05 5f3e 681e 813d
000003f0: 7418 81bc f9a5 12be f760 543e e289 e73c

fc2.bias f4 [20]
0.27737594 0.44382676 0.23986913 0.27116832 0.03471624 0.047898643 0.19367537 -0.093256444
-0.12148837 0.38608053 -0.07813517 0.36867747 0.28685808 -0.24641739 -0.034559477 0.11333947
0.09407077 0.42389002 -0.113379665 0.033628844
00000000: 3804 8e3e 433d e33e 41a0 753e 93d6 8a3e
00000010: 9e32 0e3d 5e31 443d d652 463e 3cfd bebd
00000020: e5ce f8bd 59ac c53e 5505 a0bd 4bc3 bc3e
00000030: 10df 923e d754 7cbe 3d8e 0dbd 861e e83d
00000040: 2da8 c03d 1d08 d93e 9933 e8bd 66be 093d

fc3.weight f4 [20, 20]
-0.19039114 0.020886261 0.038389128 -0.10943546 -0.058853105 -0.040059607 0.07082021 -0.11625596
0.117035784 0.016209865 0.049900234 0.1640628 -0.12990469 -0.10295587 -0.01638097 0.0432599
-0.21397427 -0.08348253 0.19065216 0.101370744 -0.041459512 -0.024347618 0.026993955 0.14876428
-0.12319022 -0.20719175 -0.1612466 -0.020741493 -0.16124792 -0.24609385 -0.091869354 -0.1895256
0.058088783 -0.12534946 -0.025074048 -0.17884715 0.039809857 -0.11838799 -0.013777398 0.055192668
-0.19640395 -0.30498907 0.46746483 -0.16265652 0.23485969 -0.12433785 -0.15993859 0.36520082
0.48531106 0.020596894 -0.017426014 0.0033760178 0.232571 0.14269565 0.3488352 0.5217624
0.15839453 -0.013319857 0.115231864 0.4340184 -0.16500902 0.02165542 -0.08617312 -0.1269812
0.043170445 -0.19402382 0.046009786 0.21009225 -0.1986222 0.027317423 0.12883614 -0.1390505
0.02925766 -0.14976043 0.00495943 -0.0028882583 0.0010967081 0.08054627 0.16402827 -0.032895725
-0.041940056 -0.4188631 0.19330366 -0.15316583 0.45454788 -0.29939744 -0.0073116748 0.4340469
0.47702765 -0.08035134 -0.08985478 0.16668521 0.34941846 0.36826894 0.19401872 0.60888284
0.24718393 0.03441039 0.14866985 0.16005811 -0.10973908 -0.4892766 0.24835822 -0.2327882
0.32474983 -0.29080564 -0.58562315 0.32510725 0.11731251 -0.10301846 -0.14270726 -0.3245078
-0.010967412 0.33529127 0.29906338 0.24385951 0.27674106 -0.26471043 -0.22159573 0.10869949
0.18462832 0.081415296 -0.2903826 0.021747634 -0.13347535 0.41265112 -0.43058145 -0.10478285
0.11904118 0.21105005 0.049976382 0.011489283 0.13131139 0.28843722 -0.013147266 0.26492018
0.146789 0.11665616 -0.0837301 -0.07047658 -0.17856808 -0.07327992 -0.039560538 -0.20396525
0.053585887 -0.060560748 -0.24589862 -0.07145013 -0.01207193 0.019608611 0.005142799 0.17511413
-0.23425284 -0.16673398 0.14567877 -0.24215224 0.029328603 -0.28698415 0.16717546 0.120075926
-0.2323676 -0.14202619 0.44662526 -0.12927856 0.4385336 -0.1490015 -0.55609316 0.2832132
0.07905464 0.09276275 -0.015064476 -0.10476538 0.31296086 0.43143868 0.4396297 0.20778811
0.2109576 -0.013425164 0.06158 0.43772843 0.06641149 -0.18425532 0.048986506 -0.19781974
-0.06347622 -0.2715673 -0.2625802 -0.110735 -0.20429578 -0.103182614 0.083380714 -0.058418985
0.15737838 0.061741978 -0.20320292 0.06714088 -0.12652811 0.04855198 -0.043359622 -0.21803175
0.35984144 0.55433017 0.14548449 0.44646856 0.012434373 0.1715469 0.29433152 0.22128728
0.037177786 0.3171884 -0.08273551 0.39569575 0.11511359 -0.34240875 -0.1912435 -0.33199412
0.063820384 0.44880047 -0.07772816 0.18184696 -0.18480192 -0.20403762 0.3388249 -0.031155542
0.48707554 -0.21152812 -0.15611447 0.383035 0.3236385 -0.05553476 -0.118393645 -0.13220663
0.017247317 0.40396026 0.39913607 0.3802969 0.4194136 0.12840167 0.02895302 0.49217463
-0.07937481 0.07237015 -0.10555795 -0.17444393 -0.14356868 -0.20492458 0.13993524 0.04345994
-0.13196456 0.059439883 0.06813261 0.101161115 0.18624297 0.096819796 -0.09904669 0.17318417
00000000: e5f5 42be aa19 ab3c eb3d 1d3d b31f e0bd
00000010: f40f 71bd 8b15 24bd 300a 913d 9b17 eebd
00000020: 75b0 ef3d 8dca 843c 3064 4c3d 1400 283e
00000030: bc05 05be 87da d2bd 6231 86bc 4b31 313d
00000040: 121c 5bbe e4f8 aabd 523a 433e 779b cf3d
00000050: 73d1 29bd a874 c7bc 6d22 dd3c aa55 183e
00000060: 274b fcbd 132a 54be d41d 25be 10ea a9bc
00000070: 2d1e 25be 0700 7cbe 0026 bcbd 0013 42be
00000080: 81ee 6d3d 9c5b 00be 1768 cdbc b523 37be
00000090: a90f 233d 6775 f2bd 98ba 61bc b511 623d
000000a0: 1e1e 49be 8727 9cbe 8d57 ef3e 6e8f 26be
000000b0: 0f7f 703e d8a4 febd f1c6 23be 9afb ba3e
000000c0: b17a f83e d1ba a83c 00c1 8ebc 2e40 5d3b
000000d0: 1827 6e3e cf1e 123e 879a b23e 3892 053f
000000e0: 2d32 223e 883b 5abc affe eb3d a937 de3e
000000f0: 20f8 28be b566 b13c 887b b0bd 5c07 02be
00000100: 7ed3 303d 2eae 46be c274 3c3d 6c22 573e
00000110: 9e63 4bbe cac8 df3c 9fed 033e 4163 0ebe
00000120: c3ad ef3c cc5a 19be b782 a23b ef48 3dbb
00000130: 6bbf 8f3a 71f5 a43d 07f7 273e abbd 06bd
00000140: 56c9 2bbd 3975 d6be 65f1 453e 81d7 1cbe
00000150: 80ba e83e 9f4a 99be c696 efbb 653b de3e
00000160: f83c f43e 3e8f a4bd c805 b8bd 87af 2a3e
00000170: fae6 b23e bf8d bc3e d8ac 463e bfdf 1b3f
00000180: c91d 7d3e e9f1 0c3d e93c 183e 46e6 233e
00000190: e2be e0bd 7682 fabe 9e51 7e3e 0860 6ebe
000001a0: 9c45 a63e 7ae4 94be 66eb 15bf 7574 a63e
000001b0: 8b41 f03d 58fb d2bd da21 12be e325 a6be
000001c0: a9b0 33bc 4cab ab3e d61e 993e 4fb6 793e
000001d0: 01b1 8d3e 2088 87be fee9 62be d79d de3d
000001e0: 350f 3d3e 10bd a63d 07ad 94be 1828 b23c
000001f0: c3ad 08be 0247 d33e 2c75 dcbe 6498 d6bd
00000200: ddcb f33d 811d 583e 09b4 4c3d 8c3d 3c3c
00000210: 7e76 063e 0bae 933e a167 57bc 9ea3 873e
00000220: db4f 163e 6de9 ee3d b07a abbd 0656 90bd
00000230: 8dda 36be c813 96bd 3b0a 22bd 44dc 50be
00000240: e07c 5b3d 8c0e 78bd d9cc 7bbe 7254 92bd
00000250: 58c9 45bc 3da2 a03c ed84 a83b 1e51 333e
00000260: fadf 6fbe 50bc 2abe d12c 153e c2f6 77be
00000270: 8a42 f03c 96ef 92be 0b30 2b3e 5eea f53d
00000280: c6f1 6dbe 506f 11be 11ac e43e 9961 04be
00000290: 7a87 e03e d993 18be 1f5c 0ebf 5201 913e
000002a0: 66e7 a13d 66fa bd3d fed0 76bc 3b8f d6bd
000002b0: 683c a03e 88e5 dc3e 2517 e13e 68c6 543e
000002c0: 4505 583e 38f5 5bbc 4f3b 7c3d f11d e03e
000002d0: bf02 883d 6dad 3cbe 13a6 483d 4291 4abe
000002e0: d2ff 81bd df0a 8bbe e970 86be 08c9 e2bd
000002f0: ea32 51be 6851 d3bd 82c3 aa3d bf48 6fbd
00000300: cc27 213e 28e5 7c3d 6d14 50be 2881 893d
00000310: 9690 01be 71de 463d dc99 31bd b743 5fbe
00000320: 233d b83e 95e8 0d3f e3f9 143e 8797 e43e
00000330: 8ab9 4b3c fea9 2f3e 9fb2 963e 2299 623e
00000340: bc47 183d 8566 a23e 3c71 a9bd a298 ca3e
00000350: adc0 eb3d 3350 afbe 56d5 43be 22fb a9be
00000360: 43b4 823d 2dc9 e53e f12f 9fbd 1736 3a3e
00000370: b73c 3dbe 3def 50be 757a ad3e e839 ffbc
00000380: f761 f93e d49a 58be 79dc 1fbe 2a1d c43e
00000390: f2b3 a53e 6b78 63bd 5e78 f2bd 2d61 07be
000003a0: 3f4a 8d3c e1d3 ce3e 905b cc3e 46b6 c23e
000003b0: 61bd d63e ba7b 033e e22e ed3c 50fe fb3e
000003c0: 438f a2bd cd36 943d c42e d8bd 6ea1 32be
000003d0: ab03 13be c0d7 51be 2f4b 0f3e 0d03 323d
000003e0: b821 07be 3c77 733d 1c89 8b3d 8f2d cf3d
000003f0: 7ab6 3e3e 7549 c63d fed8 cabd 3157 313e

fc3.bias f4 [20]
-0.21292005 -0.14733808 0.27092415 -0.19132434 0.091673225 -0.032321934 0.07600439 0.07633785
0.0086395135 0.16401114 0.46164843 0.43304268 0.040279042 -0.089202754 0.28052256 0.32154316
-0.015853686 -0.166312 0.25829074 -0.0044216136
00000000: b707 5abe cbdf 16be 92b6 8a3e 87ea 43be
00000010: 2cbf bb3d 0164 04bd 31a8 9b3d 0557 9c3d
00000020: bf8c 0d3c 89f2 273e 2f5d ec3e c5b7 dd3e
00000030: a3fb 243d efaf b6bd a7a0 8f3e 4ea1 a43e
00000040: 97df 81bc b14d 2abe af3e 843e 2fe3 90bb

fc4.weight f4 [20, 20]
0.15404806 0.07286145 -0.38248196 -0.18103859 -0.5242864 -0.23356114 0.27581683 -0.1429937
-0.35707974 -0.031845506 0.2831462 -0.37012514 0.09377701 -0.2185762 -0.478824 0.16065228
0.08022792 -0.057299886 0.43353158 0.14390163 -0.114346914 -0.0041882885 0.36978632 -0.19620949
0.12670015 0.53323585 0.17613609 0.17659882 0.30193236 -0.050956894 0.00082359725 0.25710553
-0.22781709 -0.097762495 0.07402652 -0.10701312 0.0116057405 0.15366866 0.032232128 -0.15136303
0.11353678 -0.15627642 0.004953914 0.00037592967 -0.011425603 -0.517071 -0.08893669 -0.08791859
-0.08418331 -0.008974941 0.2762148 0.26607344 0.049862333 0.095610335 0.046705287 -0.061498497
-0.22163932 -0.06393571 0.137747 0.07239498 0.21804845 -0.18517484 0.42058465 0.02448389
0.34788555 0.6629 -0.03088671 -0.10786553 0.15868233 0.022605503 -0.13843946 0.27914417
-0.14815842 -0.035911772 0.26886046 -0.35549992 0.024037398 0.11936416 -0.31835812 0.14400974
-0.16731815 -0.13281757 -0.011918386 0.12026782 -0.124379486 -0.26994482 -0.08829707 -0.004338444
-0.1248856 0.1736454 0.21771978 -0.019143084 -0.13667503 0.06851321 -0.122963235 0.29692742
0.15131715 0.026301961 0.2891619 0.09507306 0.038193233 -0.09467598 0.11594142 0.15536182
0.017936854 -0.09677101 0.12665322 -0.08558151 -0.05205913 -0.213992 0.15414916 -0.14351408
-0.21723121 0.19742087 -0.20994252 -0.19733098 -0.06344543 0.20423552 -0.08643645 0.009343917
-0.049588144 0.14303361 0.28273353 0.04538617 0.30994618 -0.39970127 -0.025284253 -0.11126497
0.10525582 0.0139825605 0.22764935 0.21721384 -0.13010173 0.19673765 -0.008730894 0.24721327
-0.07937602 -0.02664849 0.015427182 0.043737166 -0.06991604 -0.21573262 -0.23705487 -0.21331494
-0.08024657 -0.18952492 0.21127695 0.10629466 -0.23925266 0.050377805 0.41555437 -0.28618875
-0.07464837 -0.022946749 0.010026188 0.3909257 -0.13850547 0.1784025 0.38168582 -0.21969636
0.12572534 -0.03755922 0.08933387 -0.15938304 0.3428579 0.66418993 0.30528107 -0.035007715
-0.0061588804 0.21599907 -0.060752537 0.29773808 0.2300947 -0.014818916 0.0072346316 0.09915015
0.14158122 0.20854992 -0.23429726 0.23060404 -0.033767805 -0.07535107 -0.16624993 -0.03188109
-0.0689982 0.044703085 0.19546314 0.14537755 0.1667175 0.23076095 0.048444364 -0.15418188
0.19922136 -0.110362776 -0.074263185 -0.1700913 0.22182985 -0.20483729 0.012385621 -0.0461456
0.053166047 -0.13375829 -0.2024883 0.027811171 0.0839013 0.025060603 -0.17795146 -0.19037762
-0.030793644 -0.05011745 -0.1881405 0.1961944 -0.120782204 -0.17039189 0.05382336 0.01318117
-0.11283552 -0.03891753 0.06240512 0.035862487 -0.066086665 -0.19049479 0.052692708 -0.20265189
-0.23833781 0.058711648 0.07078413 0.029683866 0.0015283262 0.14303721 0.12624998 0.0611171
-0.18930933 0.041730594 -0.04107404 -0.10082859 0.0856816 -0.17471653 -0.12700722 -0.22078213
0.20202647 -0.11213535 0.5591485 -0.19656096 0.15591708 0.110776015 -0.19403581 -0.1106752
0.44848895 -0.038540047 0.108551435 0.4301707 0.17427245 0.12394546 0.44648936 -0.18364668
00000000: c6be 1d3e 6238 953d add4 c3be 2e62 39be
00000010: a237 06bf a72a 6fbe dd37 8d3e f16c 12be
00000020: 28d3 b6be 6f70 02bd 8af8 903e 0b81 bdbe
00000030: 290e c03d 70d2 5fbe 6b28 f5be 0882 243e
00000040: 894e a43d 49b3 6abd daf7 dd3e f35a 133e
00000050: b72e eabd e93d 89bb a254 bd3e 24eb 48be
00000060: afbd 013e 2582 083f 055d 343e 52d6 343e
00000070: e196 9a3e 2db8 50bd ade6 573a 56a3 833e
00000080: e248 69be b437 c8bd 379b 973d b229 dbbd
00000090: 0126 3e3c 515b 1d3e d605 043d e9fe 1abe
000000a0: f985 e83d ed06 20be 7154 a23b 6d18 c539
000000b0: 7432 3bbc c45e 04bf 7024 b6bd a90e b4bd
000000c0: 4d68 acbd a20b 13bc 076c 8d3e c73a 883e
000000d0: 723c 4c3d 5acf c33d 0b4e 3f3d d9e5 7bbd
000000e0: 6bf5 62be baf0 82bd 8d0d 0d3e d243 943d
000000f0: 1848 5f3e 799e 3dbe df56 d73e 7092 c83c
00000100: 0e1e b23e d0b3 293f 2006 fdbc 9ae8 dcbd
00000110: 9f7d 223e 2d2f b93c 13c3 0dbe fceb 8e3e
00000120: d7b6 17be 3918 13bd 14a8 893e 1604 b6be
00000130: 14ea c43c 3275 f43d d6ff a2be 4a77 133e
00000140: 7355 2bbe 5401 08be 5645 43bc fa4e f63d
00000150: acba febd 3536 8abe 18d5 b4bd 8229 8ebb
00000160: 05c4 ffbd 1ad0 313e eff1 5e3e f5d1 9cbc
00000170: 8af4 0bbe a750 8c3d 26d4 fbbd df06 983e
00000180: e2f2 1a3e 3677 d73c 070d 943e aab5 c23d
00000190: 8270 1c3d 7be5 c1bd b272 ed3d 2b17 1f3e
000001a0: 4ff0 923c e12f c6bd 62b1 013e 5c45 afbd
000001b0: f43b 55bd b820 5bbe 47d9 1d3e 5bf5 12be
000001c0: dc71 5ebe b228 4a3e 2cfb 56be 2211 4abe
000001d0: adef 81bd 1e23 513e 9805 b1bd 3a17 193c
000001e0: f01c 4bbd 6777 123e 73c2 903e d9e6 393d
000001f0: 44b1 9e3e a5a5 ccbe ec20 cfbc e3de e3bd
00000200: 5d90 d73d 1c17 653c e91c 693e 4e6d 5e3e
00000210: 6339 05be 9875 493e 060c 0fbc 7a25 7d3e
00000220: e58f a2bd ef4d dabc 4bc2 7c3c be25 333d
00000230: 2430 8fbd 03e9 5cbe 83be 72be 3b6f 5abe
00000240: 5058 a4bd d212 42be fc58 583e 04b1 d93d
00000250: a6fe 74be f558 4e3d 8bc3 d43e 5587 92be
00000260: 3fe1 98bd d2fa bbbc e144 243c 6a27 c83e
00000270: 61d4 0dbe 25af 363e 536c c33e 15f8 60be
00000280: 25be 003e b2d7 19bd adf4 b63d 4f35 23be
00000290: 128b af3e 5a08 2a3f cd4d 9c3e 4064 0fbd
000002a0: 6fd0 c9bb dc2e 5d3e a7d7 78bd 2071 983e
000002b0: f29d 6b3e 0acb 72bc 7d10 ed3b 3c0f cb3d
000002c0: abfa 103e 1c8e 553e 9feb 6fbe 7723 6c3e
000002d0: 1c50 0abd a951 9abd 6c3d 2abe bf95 02bd
000002e0: ee4e 8dbd 951a 373d 7d27 483e dadd 143e
000002f0: feb7 2a3e 994c 6c3e 996d 463d dbe1 1dbe
00000300: af00 4c3e e105 e2bd 4c17 98bd 6a2c 2ebe
00000310: 5d27 633e dec0 51be 0fed 4a3c 2b03 3dbd
00000320: a4c4 593d eff7 08be 1859 4fbe 41d4 e33c
00000330: 72d4 ab3d e54b cd3c e838 36be 5af2 42be
00000340: f442 fcbc f547 4dbd e7a7 40be 2fe7 483e
00000350: a95c f7bd 367b 2ebe e275 5c3d d6f5 573c
00000360: 4f16 e7bd fd67 1fbd 839c 7f3d 8be4 123d
00000370: 7258 87bd 1111 43be 4fd4 573d fa83 4fbe
00000380: d40e 74be a07b 703d 45f7 903d 942b f33c
00000390: 1e52 c83a 5978 123e ad47 013e ed55 7a3d
000003a0: 4eda 41be b3ed 2a3d 413d 28bd 387f cebd
000003b0: d679 af3d e4e8 32be 2e0e 02be b614 62be
000003c0: 07e0 4e3e 38a7 e5bd 5b24 0f3f 4747 49be
000003d0: baa8 1f3e 89de e23d 53b1 46be aea9 e2bd
000003e0: 58a0 e53e 2bdc 1dbd 3750 de3d 563f dc3e
000003f0: 7a74 323e 1ed7 fd3d 419a e43e e00d 3cbe

fc4.bias f4 [20]
-0.30689785 0.007694842 0.3395026 0.11571834 0.25226623 -0.115590096 0.16205508 0.25225216
0.040485952 -0.13230284 -0.14758769 -0.113362364 0.33338875 -0.35843685 -0.11896408 0.17417733
0.01329954 0.3200254 0.41274488 -0.01964188
00000000: b721 9dbe 0325 fc3b 49d3 ad3e bdfd ec3d
00000010: 0a29 813e 80ba ecbd c4f1 253e 3227 813e
00000020: 99d4 253d 657a 07be 3a21 17be 872a e8bd
00000030: eeb1 aa3e 0985 b7be 71a3 f3bd 8b5b 323e
00000040: 50e6 593c 5fda a33e 4c53 d33e 02e8 a0bc

fc5.weight f4 [20, 20]
-0.5218117 0.24292257 0.35136068 0.0436323 0.19543307 -0.097589 0.15610977 -0.021739613
0.053266708 -0.12311952 -0.119951904 0.06734258 0.36348295 -0.102734305 -0.0978807 0.017675145
-0.1788423 0.22605263 0.43593535 -0.032430742 -0.44904804 0.25940767 0.27273872 -0.317012
0.03558805 0.08168677 0.34939712 0.21165928 0.2826951 -0.19453356 0.18117645 0.17898628
0.17941074 -0.3737804 -0.019985022 0.34407118 -0.14937519 0.4123572 0.17699942 0.009043525
0.39647204 0.17819658 0.023437133 0.1167822 -0.083479844 0.060933154 0.006875661 0.10043413
0.088300005 0.102951966 -0.009260973 0.03309613 0.06587465 0.57643646 0.20369324 0.038181134
0.37879968 0.06791658 0.11923462 0.14743848 -0.229457 0.33286986 -0.37246662 0.42284098
-0.39853635 -0.19309294 -0.043441743 -0.30331278 0.26761127 -0.03896156 0.009253399 0.024487382
0.28468996 0.49007806 -0.22299501 0.31908682 0.37915558 -0.19512324 -0.24348833 -0.33967474
-0.5713957 -0.08905458 0.36251235 -0.28139102 -0.0017454807 -0.117967226 0.4634804 0.21352635
-0.12315268 0.1337208 0.087722965 -0.00022713072 0.33676904 -0.112826265 -0.22228676 0.3661815
-0.4018228 0.28280005 0.22329985 -0.11960179 0.11263411 -0.17209478 -0.11152537 -0.08865799
0.04215978 -0.16631186 0.100698106 -0.20355897 -0.221656 -0.04450279 0.08997477 0.17128322
0.032627754 -0.15878914 0.19285792 -0.0067142216 -0.18618368 -0.011548982 0.15986076 -0.2042811
0.057986997 0.014931754 -0.15961215 0.06519034 0.20677084 -0.17351986 -0.021400535 -0.109712444
-0.09643623 -0.15368846 -0.048014052 -0.20544645 0.16432154 -0.09744399 0.010691645 -0.18249929
0.18395427 -0.14079794 -0.20146088 -0.046714865 0.014016795 -0.12595345 0.07197047 -0.20568591
0.086486265 -0.15297197 0.17458525 -0.2015646 0.09123824 0.14034891 0.21227445 -0.19479498
-0.078547336 -0.11469072 -0.22341242 0.096998386 -0.20235004 -0.033374786 -0.023283942 -0.09325135
0.37424088 0.16911726 -0.13826175 0.13896254 -0.16732046 -0.020049876 -0.1048846 0.14863138
0.032560524 -0.14614944 0.09644321 -0.040985927 0.058188267 0.5166061 -0.13523674 0.16601263
0.33996865 0.07739313 -0.14988616 0.13896164 -0.12135129 -0.105199024 -0.34375188 0.2674397
-0.10501372 -0.044434737 -0.04076711 -0.40353766 0.08562813 0.10883528 -0.12600419 -0.12939613
0.28940195 0.13388498 -0.061865073 0.14682394 0.45839027 0.055375695 -0.16141886 0.029644225
0.5874459 0.15472355 -0.04034846 0.45752367 -0.0834731 -0.11475918 0.030190576 -0.086543664
0.10028184 0.0019869304 -0.20047526 0.010835463 0.07941132 0.419051 0.07791849 0.17765892
0.21088141 -0.08543172 0.07529412 0.2181342 -0.12683488 -0.13372125 0.020682396 -0.15612964
-0.12479719 -0.028246438 -0.05240987 0.13788371 0.020198189 0.21599555 0.015590379 -0.11132439
-0.057641216 -0.040392194 0.11959687 0.21737385 -0.006402666 -0.18660434 0.015303641 -0.21319863
-0.05934043 0.14848827 0.13982818 -0.08074928 0.0116402125 -0.0654551 -0.06324059 -0.13316816
-0.24532056 -0.20521942 -0.016357725 0.03835371 0.16292143 0.18010089 -0.19798504 -0.119784646
00000000: 7495 05bf b2c0 783e 8ce5 b33e c8b7 323d
00000010: 9b1f 483e bedc c7bd 3ddb 1f3e 4617 b2bc
00000020: 312e 5a3d 1626 fcbd 58a9 f5bd e8ea 893d
00000030: 701a ba3e 5d66 d2bd ad75 c8bd 77cb 903c
00000040: 7022 37be 577a 673e eb32 df3e 19d6 04bd
00000050: a0e9 e5be 15d1 843e 69a4 8b3e 664f a2be
00000060: c6c4 113d 654b a73d 2ee4 b23e 36bd 583e
00000070: 6abd 903e ce33 47be 5286 393e 2e48 373e
00000080: 73b7 373e 2560 bfbe a1b7 a3bc 192a b03e
00000090: cff5 18be 7c20 d33e 563f 353e 4b2b 143c
000000a0: 62fe ca3e 2a79 363e 3bff bf3c 822b ef3d
000000b0: 7bf7 aabd 0b95 793d 3a4d e13b 69b0 cd3d
000000c0: a2d6 b43d 7bd8 d23d 56bb 17bc cf8f 073d
000000d0: 4ae9 863d 5791 133f f694 503e d263 1c3d
000000e0: 08f2 c13e d917 8b3d 4831 f43d 1dfa 163e
000000f0: c7f6 6abe eb6d aa3e f2b3 bebe 9d7e d83e
00000100: f50c ccbe 28ba 45be f8ef 31bd d04b 9bbe
00000110: 5804 893e 2896 1fbd 929b 173c c399 c83c
00000120: e2c2 913e 83eb fa3e ce58 64be 595f a33e
00000130: ae20 c23e 63ce 47be 0155 79be d9e9 adbe
00000140: fd46 12bf 3f62 b6bd 389b b93e 7c12 90be
00000150: 9dc8 e4ba cd98 f1bd 4e4d ed3e a7a6 5a3e
00000160: 7937 fcbd 1bee 083e 19a8 b33d f029 6eb9
00000170: fe6c ac3e 7511 e7bd 249f 63be 247c bb3e
00000180: b8bb cdbe 2bcb 903e b7a8 643e c9f1 f4bd
00000190: b6ac e63d 9d39 30be 6a67 e4bd 5292 b5bd
000001a0: bcaf 2c3d a84d 2abe cf3a ce3d c371 50be
000001b0: caf9 62be 8f48 36bd b144 b83d de64 2f3e
000001c0: aea4 053d 9f99 22be 8c7c 453e f902 dcbb
000001d0: efa6 3ebe f137 3dbc 8ab2 233e 112f 51be
000001e0: c683 6d3d 51a4 743c 5e71 23be 8382 853d
000001f0: bcbb 533e 31af 31be 2d50 afbc ebb0 e0bd
00000200: 5c80 c5bd 8260 1dbe 62aa 44bd 8e60 52be
00000210: e843 283e b790 c7bd 022c 2f3c 18e1 3abe
00000220: 825e 3c3e 562d 10be c34b 4ebe 1658 3fbd
00000230: b3a6 653c f1f9 00be 4165 933d 549f 52be
00000240: b61f b13d afa4 1cbe 7ac6 323e f366 4ebe
00000250: 1ddb ba3d a0b7 0f3e 795e 593e 5678 47be
00000260: 6ddd a0bd f8e2 eabd 3ac6 64be 17a7 c63d
00000270: d934 4fbe 00b4 08bd f7bd bebc 90fa bebd
00000280: 809c bf3e 132d 2d3e 7d94 0dbe 324c 0e3e
00000290: 0e56 2bbe a33f a4bc bdcd d6bd d332 183e
000002a0: 2f5e 053d 33a8 15be 0584 c53d dce0 27bd
000002b0: d256 6e3d 4c40 043f 807b 0abe 37ff 293e
000002c0: 5f10 ae3e 4a80 9e3d c27b 19be f64b 0e3e
000002d0: 0687 f8bd 9672 d7bd 3f00 b0be dbed 883e
000002e0: 6f11 d7bd 3301 36bd 6afb 26bd 7d9c cebe
000002f0: cd5d af3d 08e5 de3d 3e07 01be 6b80 04be
00000300: 7e2c 943e 2519 093e 3b66 7dbd 0459 163e
00000310: 21b2 ea3e a0d1 623d fc4a 25be 72d8 f23c
00000320: db62 163f da6f 1e3e 6d44 25bd 8b40 ea3e
00000330: f2f3 aabd dc06 ebbd 3a52 f73c ce3d b1bd
00000340: 9160 cd3d 2937 023b 6349 4dbe 3a87 313c
00000350: 67a2 a23d da8d d63e bb93 9f3d 38ec 353e
00000360: 4cf1 573e d3f6 aebd ce33 9a3d 925e 5f3e
00000370: 01e1 01be 39ee 08be 216e a93c 73e0 1fbe
00000380: ab95 ffbd 1365 e7bc bbab 56bd 6331 0d3e
00000390: ac76 a53c f02d 5d3e ca6e 7f3c 0bfe e3bd
000003a0: 3219 6cbd 4972 25bd 34ef f43d 4097 5e3e
000003b0: 75cd d1bb 3515 3fbe 1fbc 7a3c be50 5abe
000003c0: f30e 73bd 4f0d 183e 1e2f 0f3e e15f a5bd
000003d0: 97b6 3e3c 530d 86bd 4884 81bd 3c5d 08be
000003e0: 5035 7bbe 0a25 52be a300 86bc c818 1d3d
000003f0: e0d4 263e 5e6c 383e 97bc 4abe a751 f5bd

fc5.bias f4 [20]
0.50774676 0.17481393 -0.1355261 -0.13002296 0.4412933 -0.21918142 -0.09391268 -0.19475907
0.00458673 -0.2803727 -0.073073305 -0.070469104 0.14918394 -0.16597469 -0.0057887034 0.34778646
-0.18494295 0.035286438 -0.15640134 0.34990275
00000000: b1fb 013f 6c02 333e 5bc7 0abe bd24 05be
00000010: 32f1 e13e 1871 60be 4b55 c0bd ec6e 47be
00000020: 484c 963b 038d 8fbe 75a7 95bd 1b52 90bd
00000030: adc3 183e 45f5 29be 2aaf bdbb 1111 b23e
00000040: af61 3dbe 8388 103d ac27 20be 7426 b33e

fc6.weight f4 [3, 20]
-0.24850783 -0.1118714 0.30819005 0.31684005 -0.29479176 -0.18531789 0.15933578 -0.17357488
0.43364716 0.1748224 0.41479433 -0.13500772 -0.017337132 0.18065475 0.2927061 -0.16326034
0.548476 0.27805611 0.154575 0.06444703 -0.3900076 -0.48510316 -0.18699156 0.04328931
-0.43846327 0.07232593 -0.0120056365 -0.18942891 -0.095081076 0.13372265 -0.4340829 0.08109163
0.12795974 -0.15369792 -0.29646426 -0.42790097 -0.17418644 -0.13355023 0.023485553 -0.27450082
0.047135346 0.3210036 0.08519916 -0.61156696 0.2828087 -0.18602145 -0.096658684 -0.008529069
0.121843435 -0.31878716 0.024756774 0.07856597 -0.019739168 -0.42849854 -0.40395194 0.21384382
-0.33083847 -0.44616023 -0.44276878 0.2927847
00000000: d678 7ebe d51c e5bd 16cb 9d3e dc38 a23e
00000010: f2ee 96be f9c3 3dbe eb28 233e 9dbd 31be
00000020: 0007 de3e a504 333e ec5f d43e 773f 0abe
00000030: 9a06 8ebc 8ffd 383e 93dd 953e b82d 27be
00000040: ec68 0c3f 5f5d 8e3e e948 1e3e cefc 833d
00000050: 13af c7be 715f f8be b77a 3fbe 2250 313d
00000060: 427e e0be 9e1f 943d 4ab3 44bc a7f9 41be
00000070: deb9 c2bd 97ee 083e 1d40 debe 5e13 a63d
00000080: e107 033e fd62 1dbe 2aca 97be d615 dbbe
00000090: ee5d 32be 64c1 08be c664 c03c 5f8b 8cbe
000000a0: fe10 413d 955a a43e e67c ae3d a78f 1cbf
000000b0: 4dcc 903e 687c 3ebe fdf4 c5bd 82bd 0bbc
000000c0: 0d89 f93d 1238 a3be b8ce ca3c 32e7 a03d
000000d0: 09b4 a1bc 2964 dbbe cad2 cebe e0f9 5a3e
000000e0: a963 a9be 1d6f e4be 97b2 e2be e0e7 953e

fc6.bias f4 [3]
0.03905147 -0.12124472 0.29817677
00000000: 6ff4 1f3d 274f f8bd a0aa 983e
