models_3val/xor_and_9.pth (torch, 12178 bytes, 12 tensors)

fc1.weight f4 [20, 12]
00000000: fa07 783e 860a 913e ccb5 99bd 4ad7 823e
00000010: 8d30 c53e 7a39 623e 3ae9 2d3e c6fd 8d3d
00000020: 2535 fd3e dad0 19be f448 e7bc 5aff 803e
00000030: 2fdd 7a3e df03 a9bd 7554 453e 0f6b 803e
00000040: 4cab d9bd e550 243e 273c d33d fc5c dd3d
00000050: 8564 a03e bb83 a8bd b37c 4d3e 8f83 c83d
00000060: 3a4f a93d 5395 4d3d 46f3 4dba b3fb bf3d
00000070: e184 b2bc cca7 a03d a7b1 173e c771 9a3e
00000080: 969f 1abf e207 bfb9 f977 25bc fee6 9739
00000090: 6b11 303e 3a1b 0f3e 7283 55bd b2e9 b43d
000000a0: c5bd d03e 184b 6a3e 0cdf 8a3e 0168 bb3d
000000b0: 54e5 ea3e 68a3 f4b8 9590 1f3e 5cad bf3b
000000c0: bb61 debc 42f0 8abc b60a 0d3d d0f6 55bd
000000d0: bd67 8fbd 1c68 503e 60f9 a33d 44c6 013f
000000e0: a1e9 42be 14c2 55bc c764 0bbc c615 74bb
000000f0: da6d 483e d0c8 e63a ba5a 6b3e 70ba bb3d
00000100: b1ea 823d 9790 82bd 1d49 893e 3c88 603e
00000110: cd71 bf3e 6647 b9bc 7a42 243d c0da 923e
00000120: f6dd 4c3c 4534 943c f91a b4bd 7088 b03d
00000130: 6d88 c03d 8817 c83d bf86 2ebf 2d24 44bf
00000140: a6c1 213e e532 743b 76aa a63b 83d5 a13b
00000150: e659 04be d1a3 15bd 96fd ad3c 7b0c 453e
00000160: 019b e33c db12 8b3e f949 d7bc 88a8 4dbd
00000170: 0d5b 353e 5c2a 3a3e 6eed 0f3d 6537 be3d
00000180: aca5 533e bd39 9d3e e203 5d3e fe1c 8b3e
00000190: fde3 113e ff10 7b3e bf0e 82bc f722 0abe
000001a0: f6b8 2bbd a4f6 2ebe f8fe 863d 01e2 593e
000001b0: 47cd 663e 117b 503e 0b66 57bc 7b11 c0bc
000001c0: 5e4b ff3d 014d 9b3e 26e2 1b3e 4982 2d3e
000001d0: 8f0b 8a3e ec04 0cbd 9a00 e23d 840b 763d
000001e0: 8915 b43e 30f1 ce3d bfa6 b53d 0b5a e33d
000001f0: c49d 353c 4a7e 3f3e ab8a d53e cf36 443e
00000200: 829f 7bbe 35ee 903b 4591 c93d 4dc4 fc3d
00000210: 17ac 113c b0f8 583b c491 9f3c b189 68bc
00000220: cdba 07be 3e10 12bd afe1 24bf 283e b83e
00000230: acb2 0f3e efa7 043b 9822 afba db52 a5bc
00000240: 6333 1aba aebb a23d 0c26 7abd cfe0 65bd
00000250: 0e2d 033f 1408 80be f759 1abe 09a7 073f
00000260: 4778 173e f972 14bc 46d2 52bc 6fad 413c
00000270: 03d9 ba3c 6373 273d 4cb8 fc3d 311c 193e
00000280: f62d e73e 82c1 79be 3ca7 c5bc c94a b5be
00000290: b7af 8abe 1b58 9d3b 7d5e e43c f854 243d
000002a0: 0976 083d 2962 603e a2cc 083d 47ee 3e3e
000002b0: 49a2 8e3e ea49 243e ee53 033f 3117 dd3e
000002c0: 9341 43be a39f 5d3e 4168 89bd b25d 9abd
000002d0: 1e93 5f3e 89f3 9e3d aa4e ab3b a074 cd3d
000002e0: 7f75 a7be c21a 553e cbd3 76bd 3714 933d
000002f0: 7d4c 88be c81e 4fbd 0566 263e 0819 b43e
00000300: 7adc 043e 1625 453e a967 89bc ce27 563e
00000310: ee28 163e 000d b23e 830e 33bc 78f3 cebe
00000320: 6336 8cbe c9dc 82bc e04d 06bd 19b3 febd
00000330: 0f23 313e 84f7 843e b086 a63d 477e 083e
00000340: d334 a8bd 006d c73e 5df9 db3b 9613 64be
00000350: b16f f23e 52cb 453e 79b1 c3bd bbdc e3bd
00000360: 114a 183e c62d 3f3e cd42 623e 6222 4c3e
00000370: ed7e 04be 3f9c 7dbd 3dd1 aa3e 3bf5 363f
00000380: 01f6 8c3e 3d06 de3c 7ff5 303c b132 47bc
00000390: 275b 993e 871c 453e 2bc6 06be a5d0 ad3c
000003a0: 9a87 98bd 6ca8 543d 37b2 a03c a8ad 1dbe
000003b0: 8e12 953e 5f84 203e 14d2 8ebd a7ee a4bc
0.24221793 0.2832834 -0.07505378 0.25554878 0.38513604 0.22092238 0.169835 0.06933169
0.4945461 -0.15021077 -0.028233029 0.25194818 0.24498437 -0.082526915 0.19270499 0.2508168
-0.106283754 0.16046484 0.103142075 0.10808751 0.3132669 -0.082282506 0.200671 0.09790718
0.082670644 0.050191235 -0.000785638 0.0937418 -0.021791877 0.07844505 0.14813863 0.3016493
-0.6039976 -0.00036436232 -0.0100994045 0.00028973067 0.17194144 0.1397523 -0.05212731 0.08833636
0.40769783 0.22880208 0.27123296 0.091506965 0.45878088 -0.000116652634 0.15582497 0.0058495235
-0.02714621 -0.016960267 0.034434043 -0.052237332 -0.070022084 0.20352215 0.08006549 0.50693154
-0.19034435 -0.01304676 -0.008507914 -0.0037244423 0.19573155 0.0017607454 0.22983828 0.091664195
0.0639242 -0.063752346 0.26813594 0.2192697 0.3739151 -0.022617053 0.04010246 0.28682518
0.0125040915 0.01809133 -0.08794207 0.086197734 0.09401021 0.09770113 -0.68174356 -0.766177
0.15796527 0.003726178 0.0050862385 0.0049387827 -0.12924919 -0.03653318 0.021239083 0.19243042
0.027783873 0.27162823 -0.02628039 -0.050209552 0.17710514 0.18180221 0.03513854 0.092879094
0.20668668 0.30708113 0.21583512 0.27170557 0.14247127 0.24518202 -0.015876172 -0.134899
-0.04192444 -0.17086273 0.065916 0.2127762 0.22539245 0.20359446 -0.0131468875 -0.023445835
0.12465547 0.30332187 0.15222988 0.16944231 0.26961944 -0.03418438 0.11035271 0.060069576
0.3517268 0.101045966 0.08869695 0.11101159 0.011084978 0.18700519 0.41707358 0.19161533
-0.24572566 0.0044229277 0.09842161 0.12342129 0.008891127 0.0033107214 0.019478686 -0.014192984
-0.13254853 -0.03566002 -0.64406866 0.3598492 0.14033002 0.0020241698 -0.001336175 -0.02018111
-0.0005882291 0.07945953 -0.06107144 -0.056122597 0.51240623 -0.25006163 -0.15073381 0.5298925
0.14791976 -0.009060615 -0.012867516 0.011821135 0.022808557 0.040881526 0.12339839 0.1495216
0.45152253 -0.24390224 -0.024127595 -0.3540862 -0.27087185 0.0048017628 0.027877087 0.040120095
0.033315692 0.21912445 0.033398278 0.18645583 0.2785819 0.16043821 0.5129994 0.43181756
-0.19067983 0.21642928 -0.06709338 -0.07537402 0.21833465 0.077612944 0.0052278833 0.1003201
-0.3270683 0.20810989 -0.060260575 0.0718159 -0.26620856 -0.050566465 0.16249855 0.35175347
0.1297473 0.19252428 -0.016773062 0.20913622 0.14664051 0.34775543 -0.010928753 -0.40420127
-0.27385244 -0.01597442 -0.03278911 -0.12436504 0.1729853 0.2597009 0.08131158 0.13329421
-0.082132004 0.38950348 0.006713076 -0.22273096 0.4735084 0.19315842 -0.095553346 -0.11126085
0.14872004 0.18669805 0.22095795 0.19934991 -0.12939043 -0.061916586 0.3336276 0.7146794
0.27531436 0.027102584 0.010800718 -0.012158082 0.29952356 0.19249164 -0.13161533 0.021217654
-0.07447739 0.051918432 0.01961623 -0.15398276 0.2911572 0.15675496 -0.06973663 -0.02013333

fc1.bias f4 [20]
00000000: 07cd a33d 0749 03be 92b7 113e a5e9 17be
00000010: 34bc 7abd 0cf5 72be 1c63 283d c737 263d
00000020: 563f d63e d35f a73d 9b4b f53e 8904 413d
00000030: d35c 12bd 79b1 f13e e8a3 0c3e 9205 af3e
00000040: ce0a bd3e 930a 5a3e dbcf 2f3e ece6 323e
0.0799809 -0.12820826 0.14230183 -0.14835222 -0.06121464 -0.2372629 0.041110143 0.040580537
0.41845196 0.08172574 0.47909245 0.047123466 -0.035733055 0.47205713 0.137344 0.34183937
0.36922306 0.21293096 0.17169134 0.17470902

fc2.weight f4 [20, 20]
00000000: 37b2 1d3e 012e 2a3e 8ef7 4a3e e761 5bbd
00000010: d565 99be cad4 0bbe cbd5 433f 6680 2f3e
00000020: 144d 3b3d 4258 983d 29ea 70bd 504f 9ebd
00000030: c08b c7be 237a 8a3e 456b bdbd 5f33 fabd
00000040: b079 5d3e 5bdf 063e 5697 c7be 00d1 a53d
00000050: e03d 183e dfb5 b53c 5e8e 093e 3e4e 5b3e
00000060: 74d7 aebe 7a4c f9bd 5fc3 20bf 4e35 993e
00000070: 9db9 2f3d b297 9c3e f6e7 e83d 07a9 f93e
00000080: e65d cd3e 176a b5bd 7881 033e b611 393e
00000090: e579 b03e 6f0f 803e 735c d93d 15cc b8bc
000000a0: ccb6 f5bc 2c93 22bd 8afb 923e 2e81 9b3e
000000b0: 1936 be3e d872 9ebd f271 0b3f 4555 0fbe
000000c0: 12b3 b73d a0ca 473d 262e 723e de36 35bf
000000d0: fca5 59be 4bd2 913e c3e1 833e e89f e0bd
000000e0: d5d0 c03d 2322 c7bd ca99 793e 7137 093e
000000f0: 91eb 0bbe 8660 963e c249 513e 5f56 b8bd
00000100: 5d45 9abe fa9b 2939 c2d5 50bf e7e0 163e
00000110: d966 683e 2616 5d3e ac28 513e 5091 153e
00000120: bc3e 953e 9f41 75be d6e8 883e 47ef 663e
00000130: d887 943e 11ba 453e 1cdf ac3e 25ab 983d
00000140: 43b7 3c3e 0e18 c93d f725 bebe 4768 c83e
00000150: 4a18 103f db53 483e ac8c 0e3f 746c 95bd
00000160: 4959 253e eb3d 773d 6c83 7a3d 5acc 32be
00000170: 1579 51be 18c8 713e 3a94 4f3e f5b8 25bd
00000180: ac04 07be 49e8 5dbd 2f04 903e c150 9fbd
00000190: 8afd a4bd f357 623e 2a4f 393e 1ef9 98bc
000001a0: d02f 943e e1b4 2ebd b46e 463f 2df2 063e
000001b0: 0002 453e 8c9e 0a3e 0f39 b23c aff5 42be
000001c0: 4c5a 623b 458e 423e 1ab6 323a 6226 d03e
000001d0: 1b50 073e cdb2 4e3e fdb7 8f3d 6560 bb3e
000001e0: 1824 963e b5b9 e03c 357d 8fbe 1132 663e
000001f0: a22a bdbe 7a40 b13e 1079 6dbf b159 863d
00000200: b8bc aebd ce98 0d3e 1690 3dbc aa1a 3c3e
00000210: 805a 353e 63c0 f4bd b57b 073e ec88 9bbe
00000220: 0be7 f8bd 02e0 823d b22f 993e 2c9b 293d
00000230: f788 383e 7768 ce3d 9ac7 f63c ee02 343e
00000240: 7aca e63e b06c 0abd e652 543f 81a7 d93d
00000250: 39d2 9a3d 2eec 083e 75d1 a3bd 857e 08bf
00000260: eef8 6bbe 3595 973e 832e 47be 3ba1 14bd
00000270: 77be 81bd 9242 84bd 2c55 443d a68e 6a3e
00000280: 56b5 4c3e 6f39 bcbd ddaa 153e 456c 493e
00000290: 478b 213f 53ca 103e d361 023f b6ac 933e
000002a0: 28a3 af3c d008 dd3d 6fb0 9dbd e1ab dfbe
000002b0: 9882 1a3e 5147 c13e 09e1 663d c4f2 9a3e
000002c0: 90b3 57be cd2c 3c3e 176f 143e 71dd 8d3e
000002d0: c7db 55bd efb3 643e c79f 8b3e dfe4 9b3e
000002e0: 8b31 b13e 59f9 40be 5330 673f 4349 1bbd
000002f0: 98a4 cc3d d098 80bd b30a 7b3b cc36 49be
00000300: a450 a3bd 17e0 6e3d 8bcd cebd 00aa 19bd
00000310: 9b08 eb3c 86c1 3a3e fe5a 573d 31a1 a43e
00000320: 99eb 843e 03ef 0b3e c012 943e 38d0 763e
00000330: c712 61be ebaa 8d3d 108e d9be 829b 18bd
00000340: 2026 59bd ea5a 643e 6b28 0f3c 25dc 223e
00000350: 3478 ae3e 515e a93d 73f4 003d a3d5 c0bd
00000360: c916 c33e c7f7 b93c 133e ef3d 1574 883d
00000370: 2f63 833b 141e 5d3e 9b10 c23d 23f4 913e
00000380: 83d6 0bbe b52a ac3e 771b 76bf d3a8 813e
00000390: 6616 f5bd 8c7d b2bd 0108 033e 2f41 4e3b
000003a0: d664 3c3e 0a42 12be 608b b73e 2869 303e
000003b0: 0ccd 053e ed7d 5dbc a5c2 413d f420 afbd
000003c0: 6a75 9dbe 4ae5 95be 95ea 213f 2146 cdbd
000003d0: aa3a 1b3e 1eba 9dbe 4ae8 2f3f c4c3 123c
000003e0: afac 953e eb9a 8dbd a9b1 633e 3671 20bd
000003f0: 622c a8be 8c06 2b3e bce0 f33d 9cc8 a03e
0.15400015 0.16619112 0.19820997 -0.053560164 -0.29960504 -0.13655391 0.764981 0.17138824
0.045727804 0.07438709 -0.058817063 -0.077299714 -0.38973808 0.27046308 -0.09248976 -0.122168295
0.21628451 0.13171141 -0.38982648 0.08096504 0.14867353 0.02218145 0.13433215 0.21416566
-0.34148753 -0.1217279 -0.6279811 0.2992348 0.042901624 0.30584484 0.11372368 0.4876177
0.401107 -0.08858126 0.12842357 0.18073162 0.34467998 0.25011775 0.106133364 -0.022558251
-0.02999439 -0.039691135 0.28707534 0.30371994 0.37150648 -0.077367485 0.5447074 -0.13997371
0.08969702 0.048777223 0.23650417 -0.70786846 -0.21254724 0.28480753 0.2575818 -0.10968
0.094148315 -0.09723308 0.24375072 0.13400055 -0.1366408 0.29370517 0.20438293 -0.09000849
-0.30131045 0.00016175202 -0.8157617 0.14734231 0.22695483 0.2159048 0.20425671 0.14606214
0.29149425 -0.23950814 0.2674014 0.22552215 0.2900989 0.1930926 0.3376397 0.07454518
0.18429284 0.09819041 -0.3713834 0.39142057 0.5628706 0.19563238 0.556834 -0.072960764
0.16147341 0.060361784 0.06116049 -0.17460766 -0.20456345 0.23611486 0.20271388 -0.040459592
-0.13185376 -0.054176603 0.28128192 -0.077790745 -0.08056171 0.22103862 0.18096605 -0.018673476
0.28942728 -0.04265297 0.7751267 0.1317832 0.19239044 0.13537043 0.021755723 -0.19039033
0.0034538684 0.18999584 0.00068172964 0.40654284 0.13214152 0.20185395 0.07017515 0.3659698
0.29324412 0.027432302 -0.28025213 0.22480036 -0.3694659 0.34619504 -0.9276285 0.06560076
-0.08532089 0.13827822 -0.011569997 0.18369547 0.17710304 -0.11950757 0.13230784 -0.303779
-0.12153443 0.06390382 0.299192 0.04140775 0.18020998 0.10078519 0.030124474 0.17579243
0.45076352 -0.03379506 0.8293899 0.10627652 0.07559628 0.13371345 -0.07998935 -0.53318053
-0.23044178 0.29606023 -0.19451337 -0.036286574 -0.063351564 -0.0645801 0.04793279 0.22905979
0.19991049 -0.09190642 0.1461596 0.19670208 0.63103145 0.1413968 0.5093052 0.28842705
0.021440104 0.107926965 -0.07699668 -0.4368582 0.1508888 0.37749723 0.056366954 0.3026334
-0.21064591 0.18376465 0.14495502 0.2770801 -0.05221155 0.22334264 0.27270338 0.30448052
0.3460811 -0.18845119 0.9030811 -0.037911665 0.09992331 -0.06279147 0.0038305938 -0.1964981
-0.07974365 0.058319177 -0.10097798 -0.03751564 0.028690627 0.18237886 0.05257701 0.3215423
0.25960997 0.13665394 0.28920555 0.24102867 -0.21979819 0.06917366 -0.42491198 -0.03725768
-0.053014874 0.22300306 0.008737664 0.15904291 0.34076083 0.082699426 0.031483125 -0.09415748
0.3810332 0.022701157 0.116817616 0.06662766 0.0040096263 0.21593505 0.094758235 0.28506574
-0.13656048 0.33626333 -0.9613566 0.25324115 -0.11967163 -0.087153524 0.12796022 0.0031471958
0.18397841 -0.14283004 0.35848522 0.17227614 0.130665 -0.013518793 0.047304768 -0.08551207
-0.30753642 -0.29276496 0.6324857 -0.10023142 0.15159097 -0.3080606 0.6871382 0.008957807
0.2923331 -0.06914314 0.2223574 -0.039170466 -0.3284636 0.16701716 0.11908099 0.31403053

fc2.bias f4 [20]
00000000: c75f 69be 0c57 3b3e d284 14bd 8c06 453e
00000010: 61ee 31bd f425 203e 74ee 87be 0daa 913e
00000020: fe60 763e 8418 2d3e aafe 4b3e c42b 7abd
00000030: 522b 5a3e 4059 8d3e 552d 3dbe fa8f d33e
00000040: b889 8b3d 0522 e23d 5aa2 443d 6977 483e
-0.22790442 0.18294924 -0.03625948 0.19240779 -0.043440226 0.15639478 -0.26549113 0.2845005
0.24060437 0.16903883 0.19921365 -0.061076894 0.21305588 0.27607155 -0.18474324 0.41320783
0.06813377 0.11041645 0.048006393 0.19576801

fc3.weight f4 [20, 20]
00000000: d805 41bd 1d80 953e 53ac 4c3e 2a30 903e
00000010: 5d1e 573e 7bef 963e 6fb0 62be bc96 03bd
00000020: b198 983e 93d3 873e d494 663e 6ded b93d
00000030: dbe6 573f e2a4 723e e406 02be 6226 c93e
00000040: c2e3 8ebc e1b2 babd 371b 25bd 5820 773e
00000050: d0a4 9abe 6be2 933e 5fd3 eb3d 8a52 9c3e
00000060: cce2 4e3d 368d 9bbd e74e ae3e e597 ffbb
00000070: 4fad ec3c bda2 993b 7e37 813c 5829 a73e
00000080: c83c 45bf ea14 dc3d 8a6b 33be 3b2b 153e
00000090: 1f4e 913e c505 3bbe 518f 233e 667f dcbe
000000a0: 6796 883c 3b58 3ebe bdbd 11be f873 f53c
000000b0: 3ce5 4fbe 4b1c 093e e678 63be 9392 0ebe
000000c0: f741 893c d634 473e 1fee f1bd e103 07be
000000d0: 944e 22be 19f9 c73c c26e 0b3e 5217 1dbd
000000e0: 7eb1 b3bd 64fb 40be e90d 513d fc8f ccbc
000000f0: f54e 68bd 1e40 8e3e 1c2f 3dbd 4a01 563e
00000100: 4601 4ebd 8154 8abe e545 493e e06b 9ebd
00000110: 8baa 6bbd 29c3 7fbe eda0 003e 5775 c33d
00000120: 6257 3fbf e797 063e ebf3 ad3d 7a1d 15bd
00000130: cbb3 4a3e fc9a 4e3d d029 333e 4df5 1bbf
00000140: deaa fc3e 508c 8fbd 4970 f63d e2c2 493d
00000150: 1c32 4ebd 78a7 6d3d ea4d f8be 3a9a 713d
00000160: 0a58 493e 0d3a bf3e 0dbc 3ebe a1c2 b4bb
00000170: d6a4 483f 3774 a23e eab9 9e3d 85cb e1bc
00000180: 71c1 b3be 18f7 cdbd c8d1 50bc 46e2 0c3f
00000190: 8761 f93b 82f6 38be 5cac 02be d4b3 01be
000001a0: 2da9 0bbe 5be4 d43c 74ec 13be 16ea ae3d
000001b0: 56a9 8f3d c125 603d b860 1e3c 8310 61be
000001c0: f02a d8bc b5ec 2e3e 30cf 313a 92ab 3cbe
000001d0: d861 03be 9f55 03be d9ea 0c3d 3416 12be
000001e0: 3a19 17bd bae0 2cbe 2687 f2bd f704 2abc
000001f0: ab34 b8bd a61b 4cbe 54a7 cf3d f53c f2bd
00000200: e0d1 4ebe fa4a 4ebe fd39 893c d79f 16be
00000210: aa9b 03be a4fb 5d3e c6f1 45bd 07e9 ea3d
00000220: 981b e03d bbd4 08be 496d ef3c 9e09 753d
00000230: 3b5e b23e 51e8 823e 0a69 3d3e 6018 34bd
00000240: aba4 e2bd 3e96 eb3d 120a c5bd 718c b23e
00000250: e9e6 493e 209b 9f3e b03d 843e 803d 40be
00000260: 6ba3 663e 621e 653e b9e2 ecbd 0eeb 053e
00000270: baaa 613e f46f 80bd c00a 203c 0979 7d3e
00000280: c869 c0bd 2b72 c3bd 22fe 3abe cf32 473d
00000290: 75a4 093e a323 513e ebdc b53d 30d3 d9bd
000002a0: e9e1 e13d f1a5 35be 26b6 28be ac68 0bbe
000002b0: 7026 e8bc 2e1c 5c3c eadc 1b3e a701 2ebe
000002c0: 951f aa3c 5091 88bd 33f3 c9bd ed3f f53d
000002d0: 3f38 acbe 5688 dabd 1d7b ab3d 7649 243e
000002e0: a822 1c3e a710 dcbd d145 2c3e febe 90bd
000002f0: 8f3a 1e3d 4c95 2b3e 2ecc 8e3e 8f18 8e3e
00000300: 8cec e5be 511a 383e a2a5 b43d 87b3 83bd
00000310: 1837 573e b1d9 b13c b29f 773e 4d54 6bbe
00000320: 1d84 523e bbec 02be 74cb b73c 4afb dc3c
00000330: a06b f23d feab c33c 0857 24be 26a5 95bc
00000340: 994a 523e 2546 a33e 70e0 8c3e d0df 873e
00000350: 66c0 cf3e f667 863e 0efa 86bd 0a50 01bb
00000360: a629 573e c088 153e 4f0d 743e f306 c23e
00000370: 9467 63be 4b0d 0e3e f6df 54be 1279 9cbc
00000380: 641e 703e 7140 83be e1ad 983e ffa0 30be
00000390: 47f0 8fbd 430e b4bb 7e11 823e 456e ce3e
000003a0: c795 3dbf 9dd7 06bd 6d60 133e d156 b8bd
000003b0: 1fab d83d 7006 1ebd ebb6 ae3e c842 23bf
000003c0: ee89 80be 3b7b e73d b765 3abe e6dd 753d
000003d0: a97c 28bd 3302 153e 1f70 933e 47d2 a7be
000003e0: d04e 66bd b006 18bd a5a3 8a3e 00a7 c63d
000003f0: 72bb 2abf 5d7e ccbd 50f4 d3bd 6e93 babd
-0.047124714 0.29199305 0.19987611 0.28161746 0.21007676 0.29479584 -0.22137617 -0.032126173
0.29803994 0.26528606 0.22517711 0.090784885 0.8433663 0.2369571 -0.12697941 0.39287096
-0.017442588 -0.0911615 -0.040309157 0.24133432 -0.30203867 0.2888368 0.11514925 0.30531722
0.05050926 -0.07595293 0.34044573 -0.0078000897 0.028891234 0.0046885894 0.015773531 0.3264873
-0.7704587 0.107461765 -0.17521492 0.14567272 0.28379914 -0.1826392 0.1597264 -0.43065947
0.01667328 -0.18588345 -0.14232536 0.029962525 -0.2030229 0.13389699 -0.22214088 -0.13923101
0.016755087 0.19453749 -0.11812996 -0.13185073 -0.15850288 0.024410771 0.1361647 -0.038352318
-0.08774088 -0.18845898 0.051038656 -0.024971 -0.056715924 0.27783293 -0.046187505 0.20898929
-0.050294183 -0.27017596 0.19655569 -0.07735419 -0.05753569 -0.24976791 0.12561388 0.09543865
-0.7474271 0.13143884 0.08493789 -0.036405064 0.19795148 0.050440773 0.17496419 -0.60921174
0.4934911 -0.07009184 0.120331354 0.04925812 -0.050340757 0.05802104 -0.48496944 0.058984973
0.1966249 0.37348977 -0.18626423 -0.0055163656 0.7837652 0.3172929 0.07750304 -0.027562866
-0.35108522 -0.10056895 -0.012745328 0.55032766 0.007610503 -0.18062785 -0.12761062 -0.12666255
-0.13638754 0.025987795 -0.14445668 0.08540742 0.0701472 0.054723505 0.009666614 -0.21978955
-0.026387662 0.17082484 0.00067828875 -0.18424824 -0.12830293 -0.1282563 0.034403656 -0.14266282
-0.036889292 -0.16882601 -0.11842184 -0.01037716 -0.089944206 -0.19932422 0.10139337 -0.11828033
-0.20197248 -0.20145789 0.016751284 -0.14709412 -0.1285235 0.21678025 -0.048326276 0.11470228
0.10942763 -0.133624 0.029226916 0.059823625 0.34837517 0.25567868 0.184971 -0.04396856
-0.11066564 0.11503266 -0.096210614 0.34872773 0.19716991 0.31173038 0.25828314 -0.1877346
0.22523277 0.22374871 -0.115666814 0.13077947 0.22037783 -0.06271353 0.009768188 0.24753202
-0.09395176 -0.0954326 -0.18261006 0.04863244 0.13441642 0.2042375 0.088800274 -0.10635984
0.11029417 -0.17739083 -0.16475734 -0.13614148 -0.02833864 0.013434453 0.15220991 -0.16992818
0.020767013 -0.06668341 -0.0986084 0.119750835 -0.33636662 -0.10670535 0.08373091 0.16043648
0.15247595 -0.10745364 0.16823508 -0.07067679 0.038630065 0.16756171 0.27890152 0.27753112
-0.44907033 0.17978789 0.088206545 -0.064307265 0.2101711 0.021710249 0.24182013 -0.22981377
0.2055821 -0.12785618 0.022435881 0.026975293 0.11836934 0.023885723 -0.16048825 -0.018267225
0.20536269 0.31889454 0.27514982 0.26537943 0.40576476 0.2625119 -0.06590663 -0.0019731545
0.21011981 0.14602947 0.23833202 0.37895927 -0.2220748 0.13872258 -0.2078856 -0.0191007
0.23449093 -0.25635102 0.2982016 -0.17248915 -0.07028251 -0.005494864 0.2540397 0.40318504
-0.7405667 -0.03292047 0.14392252 -0.09000934 0.10579514 -0.038580358 0.3412393 -0.63773775
-0.25105232 0.11302801 -0.18202864 0.060026072 -0.04113451 0.1455162 0.2879648 -0.32777616
-0.056227505 -0.037115753 0.27077976 0.096998215 -0.6669227 -0.099850394 -0.10349333 -0.09110151

fc3.bias f4 [20]
00000000: 5c72 af3e 8985 dabd a1cb 5abe 96bf 84be
00000010: e126 a73e e7a8 08be 9b4f febd 8a04 6a3d
00000020: d331 dfbd 1f66 963c 838c 38be d0a4 a1bd
00000030: 8aa0 54be 00b3 f2bd 0c76 36be 2013 9b3e
00000040: 5fdf 153e fa7b febc dd77 db3d 67f7 3b3e
0.34266937 -0.10670001 -0.21366741 -0.25927418 0.3264685 -0.13345681 -0.12417527 0.057133235
-0.10898175 0.018359242 -0.18022351 -0.078927636 -0.20764366 -0.11850548 -0.17818469 0.3028803
0.1463599 -0.031064976 0.107162215 0.18356095

fc4.weight f4 [20, 20]
00000000: 6263 173e 100b b23d b91b 963b 6704 b2be
00000010: 410e 483f 8675 7ebd 2f93 293e b2e4 dd3a
00000020: a72e 2ebe 13b4 05be a217 303e 9f78 babe
00000030: d428 55be efb9 1cbd 0509 d83d 2cb6 e0be
00000040: a920 913d 77b4 4ebe 4f48 7ebe f281 873d
00000050: 2ac0 41be 1993 e23d d192 e7bd 744a 34bc
00000060: 00ea 9dbd 0344 0d3d 05ae c5bd efd0 2cbe
00000070: 01d9 acbd de00 74bd 153c ee3b 0e8b 21be
00000080: a56b f03d efb7 64be 3564 c8bc d962 0a3e
00000090: 507d 13be a747 92bc 3de1 223e b1a0 d7bc
000000a0: 706e 8f3e 86b8 34be 8e68 513e 12fd cd3d
000000b0: 4c34 a63e fca7 02be 8d02 4fbd 75a8 7e3e
000000c0: 43cf 483d 5bfd 55bd 38bc 393e 464d 60be
000000d0: 72c5 8cbe 6210 3f3e aa85 67bd e412 2bbf
000000e0: 445d e13d f710 1d3d 3e81 b3be 0e64 5e3e
000000f0: 53b3 2f3e d094 c53d ff38 5bbe 8c49 793c
00000100: 2f19 11bf 3fea 3dbe 1df9 b2bd c7d7 823d
00000110: c29c 2c3e 8ab5 893e 9269 1e3e 613e 0c3e
00000120: 5c90 4d3e f583 e9bd 28a9 18bd 0301 5e3f
00000130: bf1a c33d 60b5 a4be 80df 273f bb41 843d
00000140: 139e ebbd 416c 6a3e 8669 9dbb 57e6 1dbe
00000150: 5999 0a3f 3190 06bd 97c0 f63d 0242 943e
00000160: e770 e7bd a806 123e e53f 943e dbcb 543c
00000170: fcbb 92bc 86d2 983b 2fbb 97ba 3f02 67bf
00000180: 4ee0 02be ad00 b63e 31ad 20bf 4466 473e
00000190: 9cf5 a03e c072 b33e a8e7 10be 03d5 083e
000001a0: 394b e9be 3420 f6bc 05cb 333d 11f4 c43d
000001b0: 7580 27be 9d9a e53c da87 db3a e8d0 9d3e
000001c0: ddef 1dbd e202 cbbd 2508 883d ee5d 583f
000001d0: cbed 15be 8ee9 81be ec26 d03e ce84 63be
000001e0: 53c6 953e 5643 76be 304b 89bd 419b d5be
000001f0: 4572 193f 55e3 1d3d b72e 74be b774 863e
00000200: 0c41 66bd cad3 eabd 8836 913c 2515 e0be
00000210: f483 c0be 1287 2dba 0111 db3d cbc2 d9be
00000220: ab0f f13c d275 fdbd cc70 c4bd b0ab d23e
00000230: 39c8 653e e8c3 c03c f969 1cbe 5128 b63e
00000240: 1b53 20bf 4b16 7d3c db30 25be 7298 9abd
00000250: 14f2 16bd 4031 423e e9df b93d d850 f9bc
00000260: b715 6b3d a6ca 58be 9bcb d53d 7963 4a3f
00000270: a769 4d3e 300d e9be d27d 593f c7b2 b2be
00000280: f4ae a7bd c017 12be 5850 33be 48c8 143e
00000290: 17ba 0b3e 2f7b d83d 3fb1 533e bf88 7bbd
000002a0: 1f62 463e 1c54 8fbb 721a c1bd 9817 0e3e
000002b0: f1b7 51be 1dde 453e c5bb d3bd b03c 83bd
000002c0: 1043 0f3d 6260 3e3e 1238 1fbe edd9 ddbd
000002d0: 1d5a ddbd 4165 f8bd f462 1dbd 55f4 f5bd
000002e0: 8411 323e 4ba8 d6bd 967d 253e 13de 34be
000002f0: 0222 ac3d 4da0 58bd 1b22 c23d 0dae 6bbe
00000300: fe21 36be 0d5b a3bc 8dc6 133d 8c64 04be
00000310: f69d b7bd 4dc0 10be 067e 29be c84d de3c
00000320: 660a adbd 3ebf efbb 9539 253e d1ec 94bd
00000330: 6170 9e3d 0509 70bd 9a4c 1abe 772d ee3c
00000340: 92b4 e9bd abb4 c1bb 8c3a 8dbd 7155 49be
00000350: d306 3a3b 31c1 f1bd b28d 20bd cef6 343e
00000360: 03f9 7cbd 9c80 593e fdfe d93c 2663 a5bd
00000370: aa29 7ebc fe5b 5cbe a10a 07be 0e50 a23d
00000380: 7268 acbd 7f9a 3abe 3141 0fbe 26ac 47be
00000390: 7d9a b1bd 8585 4a3e e54b 2cbd 8508 863d
000003a0: c30e 763d d971 313e b2eb a13d 3395 01be
000003b0: c1d5 bf3d 07da ebbd 843e 57be e715 263e
000003c0: 7cd3 4e3e 2bd7 013e 2dea 493e e635 31bd
000003d0: df52 adbe 45cb 46be 09d0 e13d b4d2 0f3e
000003e0: b638 47be 6ff0 283e 5c65 03be a4a0 01be
000003f0: c858 07bf c9cf 2a3e 1c00 d43d 69c0 263f
0.14784005 0.08693516 0.0045809415 -0.34768984 0.7814675 -0.062123798 0.16560052 0.0016929118
-0.17009984 -0.13056974 0.17196515 -0.36420152 -0.20816356 -0.038263258 0.10548595 -0.43888986
0.070863076 -0.2018603 -0.24832271 0.06616582 -0.18920961 0.11063213 -0.113073 -0.011004079
-0.077106476 0.03448869 -0.09652332 -0.16876577 -0.08439828 -0.05957114 0.007270346 -0.15775701
0.117392816 -0.2233579 -0.024461845 0.1351427 -0.14403272 -0.017856432 0.15906234 -0.02632174
0.28013945 -0.17648515 0.2045004 0.10058035 0.32461774 -0.12759393 -0.050539542 0.24868949
0.049025785 -0.05224357 0.18138206 -0.21904477 -0.2749439 0.18658593 -0.056523956 -0.668257
0.11004117 0.038346257 -0.3505954 0.21717855 0.1715825 0.09647524 -0.21408461 0.015215289
-0.5667905 -0.18546389 -0.08738921 0.063888125 0.16856673 0.26896316 0.1546996 0.1369567
0.200746 -0.11402122 -0.037270695 0.86720294 0.09526586 -0.32169628 0.6557541 0.064578496
-0.1150476 0.22892858 -0.004803839 -0.15419899 0.5414024 -0.032852355 0.12048452 0.2895661
-0.11300831 0.14260352 0.28954998 0.012988056 -0.017911904 0.004663768 -0.0011576171 -0.902378
-0.12780878 0.3554739 -0.6276427 0.19472605 0.31437385 0.35048485 -0.1415087 0.13362508
-0.45565203 -0.030044653 0.043894786 0.096168645 -0.16357596 0.028027827 0.0016748861 0.30823445
-0.03855883 -0.09912659 0.066421784 0.84518325 -0.14641492 -0.253735 0.40654695 -0.2221863
0.29252872 -0.24049124 -0.06703794 -0.41720012 0.59939986 0.03854688 -0.23845945 0.2626092
-0.056214377 -0.11466177 0.017726198 -0.43766132 -0.37600672 -0.00066195533 0.106966026 -0.42531428
0.029426416 -0.12375988 -0.09591827 0.41146612 0.2243966 0.023530915 -0.152748 0.35577634
-0.6262681 0.01544721 -0.16131918 -0.07548608 -0.036851957 0.189641 0.090759106 -0.030434057
0.057393756 -0.21171054 0.10439225 0.79058033 0.20059834 -0.45517874 0.8495761 -0.3490202
-0.081876665 -0.14266872 -0.17511117 0.14529526 0.13645206 0.105703704 0.20673083 -0.061409708
0.19373368 -0.0043740403 -0.09428872 0.13876188 -0.20480324 0.1932301 -0.103385486 -0.064080596
0.034976065 0.18591455 -0.15548733 -0.10832582 -0.10808203 -0.12128688 -0.038424447 -0.12009493
0.17389494 -0.10481318 0.16161188 -0.1766284 0.08404924 -0.05288725 0.09479161 -0.23015614
-0.17786404 -0.019940877 0.036078025 -0.1292898 -0.089656755 -0.14135857 -0.1655198 0.027136698
-0.08449249 -0.007316499 0.16135247 -0.07271732 0.07736278 -0.05860235 -0.15068284 0.029074414
-0.11411394 -0.00591143 -0.068959326 -0.196615 0.0028385415 -0.118044265 -0.03919763 0.17672274
-0.061760914 0.21240467 0.026610846 -0.08075552 -0.015512863 -0.21519467 -0.13187648 0.079254255
-0.08418359 -0.18222998 -0.13989712 -0.19499263 -0.086720444 0.19777496 -0.042064566 0.06544594
0.06007267 0.17328586 0.079062834 -0.12654571 0.09366942 -0.11516195 -0.21019942 0.16219293
0.20197862 0.12679736 0.19718237 -0.043264292 -0.33852288 -0.19413479 0.11026008 0.1404522
-0.19455227 0.16497968 -0.12831634 -0.12658936 -0.52869844 0.16680826 0.10351583 0.65137345

fc4.bias f4 [20]
00000000: 83b0 873d 00f4 50be be96 f33d ffe0 4f3e
00000010: 5e9b be3c 2750 2d3e c178 003e 13fd 0cbe
00000020: fd5c 63bc 77b8 293e ef9f d1bd 0e6d 85bd
00000030: 3da9 fe3e fa0b 89bc fedc 023e b49d 323e
00000040: 7df9 563e 6cdc 0a3e 2536 a23d 9d22 66bb
0.06625464 -0.20405579 0.11893986 0.20300673 0.023267444 0.16925107 0.12546064 -0.13768415
-0.013877151 0.16574274 -0.10235583 -0.06514941 0.49738494 -0.016729344 0.12779614 0.17442971
0.2099361 0.13560647 0.079204835 -0.0035115846

fc5.weight f4 [20, 20]
00000000: ffab fb3d 7c41 453d 1935 c9bd e7b1 b0bd
00000010: df00 1bbd f788 74bc 6652 103e 959d fcbd
00000020: 6181 40be 1a78 adbd c62f 413e 64b8 46bd
00000030: a790 853b 24f1 bd3b 81f2 3bbe fd06 7e3b
00000040: 7119 d03d d644 473e a0fa e0bc 9174 8f3d
00000050: cbd4 143f ef06 283e 423c 7c3d d94c 07be
00000060: 1ddb c03d 0936 153e bf6d 2c3f b37c aebe
00000070: e44c 463d 8599 b73d 8af9 8dbd 7647 febc
00000080: 46c9 2bbe ef3e 043e 535c f13d 06dd 0fbf
00000090: d2f3 183e cdee 683d cba2 2cbd 0233 643d
000000a0: 2eba 4abf 3712 c1bd 04ed 29be df05 993e
000000b0: 31ca eb3d ff1d 6b3d aae0 3bbf 4b47 a93e
000000c0: 0de3 693e 081a 3f3e 0b7d 163e 867a 3cbe
000000d0: 873f 9fbd a590 863e 358a 653e 2000 e13e
000000e0: e3a9 a03c 68e4 4e3e e776 263e 8c0b b93a
000000f0: 1f64 de3d 42db 5fbe 0589 3abe fbe9 1bbe
00000100: b4eb adbd 92e7 37be 0f67 d7bd 81f2 063e
00000110: c4dc aebd ed9f 39be 3e55 943c d6b5 f5bd
00000120: 95e8 26be c114 a13d eb04 28bd 94e2 f23d
00000130: 145b 993d 7a42 97bd 6aea 633e 3cb2 423d
00000140: b850 a3bd 6855 043e 02eb 6fbe cdc3 bfbd
00000150: 6d80 4e3e 3c0b 0f3e 00b6 80be 2f1c 28be
00000160: ed7a 4d3e db0b 54be db84 073e e1d2 14be
00000170: e252 a1be 5310 333d 67f0 a33c 0878 1f3e
00000180: 6028 a5bd d66b 473b 7ae8 833d 65ab 143e
00000190: 3ac6 453f dfd2 233e a848 a1bd 2ede 56be
000001a0: ef35 b93d 6d45 343e 463e 4b3f a7ad 453d
000001b0: cdbd 08be 03ee 8bbc a4c9 60bd 02c0 1d3e
000001c0: cdd4 29be 6f52 723e ab8c 7bbd bd5d cebe
000001d0: ef43 263e 328e a6bd 1c54 2e3e 23ca 603e
000001e0: 512a 70bd c4db 99bd b6ca dcbc 99a1 7c3e
000001f0: 5d33 9abe a345 753e 431b e7be db47 fe3e
00000200: 91ab b03d debf a73c da25 423d f22f c53d
00000210: 78be 6e3e b2b5 8cbe 79ec e6bd 8671 4f3f
00000220: 0218 72be 91df 2d3d 9767 5cbe 60e7 f43d
00000230: 75a2 253b 5e6e cf3c cccd 1abd 6198 8dbd
00000240: ed4d 073e 5d71 94bc 89a2 ca3d 9eca 83bd
00000250: 8829 ca3d 5c0b ce3d 2d2b 0ebe bff3 99bd
00000260: 4149 06be 4c88 0cbe ad77 cabc f039 f43a
00000270: acbc 9d3d 0a5c 8a3d 6602 403e 6448 333e
00000280: 6ce0 a0bd 0081 f93c 844e e93d 4628 67bd
00000290: 9c20 043d 3567 0cbe 42e7 27be 9fcd bf3d
000002a0: 66e6 973c b8cd 44be 2409 73bd 5031 bcbd
000002b0: 4e9b 043d f1b9 8abc 4c0c 2abe 25cf 923d
000002c0: 3a75 20be d3c0 f0bd 76d0 c7bd b63a 4abe
000002d0: b4e0 383f 43ca 453e 34c2 ad3d 8cfc 763d
000002e0: 8920 653e df9f 543e b2dd 373f 416f f03d
000002f0: 72d8 86bd d2db 14be b038 d5bd 2913 1cbe
00000300: 912e 503e 1fc9 2d3e 9e03 933e 437c dabe
00000310: 83e2 673d 32b0 393e a30d 0fbe 237e 0a3e
00000320: d5b9 89bd 7d9d af3d 6139 d33c 4b03 a5bd
00000330: 5c00 223e bc13 4ebe 9bc2 dd3d cb69 3abe
00000340: 023c 50be d4fd 9cbd 136e 9a3c b3ca 103e
00000350: b346 1fbc 757d b8bd 4921 38be 4fc5 603e
00000360: e21a 87bd d73e 3abd b715 1c3e 5dce c8bc
00000370: c2c7 333f b821 f2bd e7a9 9f3e 2c93 35be
00000380: 8ec6 a43e c8d3 28be 6a2d 4c3f ab03 7bbe
00000390: 9dd3 06be caa4 d43d 5d1e 9e3c 2dda a4bd
000003a0: 4df8 1ebc 7f03 a73e 0ac1 5d3e 79e7 bfbe
000003b0: b083 913e cc9f 66be a1b5 b8bd 6019 2e3e
000003c0: 5b6c 033d e479 553e 882b f7bd 223e 093d
000003d0: 259f 7ebd 97db 07be 44f4 5d3c b479 d9bd
000003e0: 99e7 3abe ff6b e2bd 0573 d7bc 42d0 36bd
000003f0: c147 a2bd bb0d 383e bad3 babd 3111 b8bd
0.12288665 0.048158154 -0.09824581 -0.08627682 -0.037842628 -0.014925233 0.14093933 -0.12334744
-0.18799354 -0.08470173 0.1886588 -0.048515692 0.004076082 0.0057965685 -0.18354227 0.003876149
0.101611026 0.19459853 -0.027463257 0.07004655 0.58137196 0.16408895 0.061580904 -0.13212909
0.094167925 0.14571394 0.6735496 -0.34079513 0.048413172 0.089648284 -0.069323614 -0.031039935
-0.16775998 0.12914632 0.117851876 -0.5619663 0.1493676 0.056868363 -0.04214744 0.055712707
-0.7919034 -0.09427302 -0.1659432 0.29887292 0.11513174 0.057401653 -0.73389685 0.33062205
0.22840519 0.18662274 0.14696138 -0.18406114 -0.07775789 0.2628223 0.22416003 0.43945408
0.019612258 0.20204318 0.16256295 0.0014117821 0.1085894 -0.21860984 -0.18216331 -0.15225975
-0.084922224 -0.17959431 -0.10517704 0.13178445 -0.085382015 -0.18127413 0.018107053 -0.11997573
-0.1629966 0.078652866 -0.041020315 0.118596226 0.07488075 -0.07385726 0.2225739 0.04753326
-0.0797438 0.12923205 -0.23429492 -0.09363518 0.20166178 0.1396913 -0.25138855 -0.16417001
0.20066424 -0.20707648 0.13234274 -0.14533569 -0.31508547 0.04371674 0.020012094 0.15573132
-0.080643415 0.0030429265 0.06440826 0.14518507 0.77255595 0.1599841 -0.07875186 -0.20983192
0.0904349 0.17604609 0.79391897 0.04826131 -0.13353653 -0.017081266 -0.0548798 0.15405276
-0.16585083 0.23664258 -0.06141345 -0.40305892 0.16236852 -0.0813259 0.17024273 0.21952109
-0.058634106 -0.0751262 -0.026952129 0.2467102 -0.30117312 0.23952346 -0.45137987 0.49664196
0.08626474 0.020477232 0.04739938 0.096282855 0.23314846 -0.27482373 -0.11275572 0.810326
-0.23641971 0.042449538 -0.21523891 0.11958194 0.0025273834 0.025321182 -0.03779392 -0.069138296
0.1321332 -0.018120462 0.09894282 -0.064351305 0.09871203 0.100607604 -0.13883658 -0.07517194
-0.13113882 -0.13723868 -0.024715269 0.0018632989 0.07702002 0.06755836 0.18750915 0.17508084
-0.07855305 0.03045702 0.11391929 -0.056434892 0.03225766 -0.13711245 -0.16396812 0.09365391
0.01854248 -0.192191 -0.05933489 -0.09189093 0.032374673 -0.016934367 -0.16606253 0.07168416
-0.15669718 -0.11755528 -0.09756558 -0.19748959 0.7221787 0.19315438 0.08484307 0.06029944
0.22375692 0.20764111 0.71822655 0.1173997 -0.065842524 -0.1453698 -0.10411203 -0.15241684
0.20330264 0.16971253 0.28713697 -0.4267293 0.056612503 0.1813362 -0.13970046 0.1352468
-0.06724898 0.085749604 0.025784196 -0.08057269 0.1582045 -0.20124716 0.10828134 -0.1820442
-0.20335391 -0.076656014 0.018851316 0.14139824 -0.009721446 -0.09008304 -0.17981447 0.21950267
-0.06596924 -0.045470085 0.15242659 -0.024512464 0.7022668 -0.118228376 0.31184313 -0.17731923
0.32182735 -0.16487038 0.79756796 -0.24513118 -0.13166662 0.103829935 0.019301588 -0.08049426
-0.009702754 0.32619855 0.2165567 -0.37481287 0.28420782 -0.22521895 -0.09019018 0.17001867
0.032085758 0.20847279 -0.1206885 0.03350652 -0.06216349 -0.1326736 0.013547007 -0.10618916
-0.1825241 -0.11055755 -0.026299963 -0.044632204 -0.07923842 0.17973988 -0.09122415 -0.08987654

fc5.bias f4 [20]
00000000: 7653 4fbe de35 81be 9b1d 533e 8ed4 4cbe
00000010: a1dd 9e3d 7a14 85bd 2eec 853e 3de9 b1bc
00000020: a2dc 473d a30a f8bb 8834 2ebe 2987 78bd
00000030: 2549 72bd 262d f0bc c63f 8c3d 2e40 d1bd
00000040: d91e 8ebe 2aa6 00be e4ac 013e cfe1 8e3d
-0.20246682 -0.2523641 0.20616762 -0.20002958 0.07757116 -0.06498046 0.26156753 -0.021717662
0.048794396 -0.0075696274 -0.17012227 -0.060675774 -0.059151787 -0.029318403 0.06848101 -0.102173194
-0.2775791 -0.12563387 0.12663609 0.06976663

fc6.weight f4 [3, 20]
00000000: c860 9fbd b596 ae3e c166 08be c876 0bbe
00000010: 8d5a 08bf 47e4 a13e 95f5 51bf 72d3 30be
00000020: 8555 92bc e362 603e cedc 8ebd c1ec d83e
00000030: b690 dc3d e63b 313e adb4 763e d50d bc3d
00000040: b360 90be 31ac f23d 3e73 efbd bfc9 55be
00000050: 3cf2 55be d567 99be 98d3 31bf 8216 d9bc
00000060: eda3 44bd 5138 debe 35f2 0ebf 94bc 0c3e
00000070: aa7c cbbc 376e 2bbf 48b3 323e a24d 26bf
00000080: ec94 113e e2eb 74be bba2 10bf f3d7 89bc
00000090: 64a3 07bf e640 e53b e93a 31bf 8826 dfbd
000000a0: dc40 353d a524 debe 087e c53e 0ebd 9dbd
000000b0: 875b 313f 7348 e4be 5c33 3e3f ff19 073e
000000c0: 331d 26be 7774 dc3c 2981 a1bd ef32 c1be
000000d0: 3760 e9bd 86d0 0ebf ed36 98bd 567d c93c
000000e0: fe2e 053e f5e6 8fbd 6d03 573e e762 10be
-0.077821314 0.34099355 -0.13320448 -0.1361953 -0.5326317 0.31619474 -0.82015353 -0.1726816
-0.017863045 0.21912722 -0.06975709 0.4236813 0.10769789 0.17308006 0.2409236 0.09182326
-0.28198776 0.11849249 -0.116919026 -0.20877741 -0.20893186 -0.2996203 -0.6946349 -0.02649999
-0.048007894 -0.4340234 -0.5583833 0.13743812 -0.024839718 -0.6696505 0.17451203 -0.6496221
0.14216965 -0.23918107 -0.56498307 -0.016826605 -0.5298369 0.006996262 -0.69230515 -0.10896021
0.044251308 -0.43387333 0.38572717 -0.07702075 0.69280285 -0.44586524 0.7429712 0.1319351
-0.16222076 0.026911004 -0.078859635 -0.37734172 -0.11395305 -0.5578693 -0.07432351 0.024595898
0.13006207 -0.070264734 0.209974 -0.14100228

fc6.bias f4 [3]
00000000: c92b 283c 9f11 21bf 8c44 1cbe
0.010264345 -0.6291751 -0.15260524
