models_3val/xor_and_10.pth (torch, 12194 bytes, 12 tensors)

fc1.weight f4 [20, 12]
000000 2f ea 16 3e b6 4a c2 3e 1e 3f 9e 3e bf a2 2f bd
       0.14737771 0.37947625 0.3090753 -0.042879816
000010 4f df 9f bd 2d f1 46 3d d3 b6 02 be 9c bc 6c 3e
       -0.078062646 0.048569847 -0.12765054 0.23118824
000020 0c 83 09 bf 1b 28 7b 3e cd 35 a8 3e 70 20 78 bd
       -0.53715587 0.24527018 0.32853547 -0.06057781
000030 bb b8 06 3e b5 66 b9 3d 2d c4 4f 3d 92 46 33 3d
       0.13156407 0.09052793 0.050724197 0.043768473
000040 25 e1 28 bd e2 d7 85 be 1f c6 01 3e 02 f2 ce 3e
       -0.04123034 -0.26141268 0.12673233 0.40419012
000050 c1 60 f1 3e 60 de 81 3e f3 49 11 3e 76 df d5 3c
       0.4714413 0.2536497 0.14188366 0.026107531
000060 45 fd f8 3d 22 18 15 3e dd 56 34 be 7a bc 54 3e
       0.12157682 0.14559987 -0.1761126 0.20775023
000070 7b 1e 89 3e 96 de 08 3d d4 fe df be a5 08 70 3e
       0.26781067 0.0334154 -0.43749106 0.23440798
000080 8b b1 c9 be 5e 36 99 3a d2 08 84 3c 12 69 95 3d
       -0.39393267 0.0011689176 0.016117487 0.07295431
000090 ff da 26 3d 90 67 6e 3e f6 ba 82 3c 7c 9e ea 3d
       0.040736195 0.23281693 0.01595829 0.1145601
0000a0 30 f2 76 3e e2 dc 9c 3d 3e cd c7 3d 9a 12 75 be
       0.24115825 0.076593176 0.09755944 -0.23932877
0000b0 7b c9 a1 bc 84 51 bc 3e 4e 99 59 3c a4 b1 9a bd
       -0.019749394 0.3678094 0.01328118 -0.075534135
0000c0 90 ba 44 3e 84 5b 98 3e 3b 75 0c 3d 51 31 b4 bd
       0.19211793 0.2975732 0.034291487 -0.08798469
0000d0 e0 da 92 3e 5c 94 81 3e 37 0d 15 3d ae 6d 78 3e
       0.28682613 0.25308502 0.036389556 0.2426059
0000e0 17 e5 0b 3f 5d 12 b6 be 32 08 65 3e 24 e1 9f 3c
       0.5464644 -0.35560885 0.22366408 0.019516535
0000f0 4c 14 ed 3a a2 cd df ba a7 71 f7 bb b2 e4 2f 3c
       0.0018087714 -0.0017074833 -0.00755139 0.010735678
000100 cf 4a f6 3c 9c be 40 bd 9d e1 3d bf 90 5b 63 bf
       0.030064968 -0.04705678 -0.74172384 -0.8881159
000110 49 40 d7 bc 68 e4 e9 3e c6 11 4c bb 04 52 44 bb
       -0.02627577 0.45682073 -0.0031138523 -0.0029956112
000120 6e 6e 89 3e 75 d9 00 be a7 50 f2 3c 99 c9 aa bc
       0.26842064 -0.12582953 0.029579474 -0.020848082
000130 23 fa 25 3e c4 5e 67 3c c7 bd 70 3e 7e 32 aa 3e
       0.16208701 0.014121715 0.23509894 0.33241647
000140 7e 73 03 bf cd 02 84 3e b4 f7 89 bd 26 6d 9d 3d
       -0.513481 0.25783387 -0.06736699 0.07686834
000150 f7 3b b7 3e 34 ea 25 3e 7c 1f d4 bd f9 ac a9 3e
       0.35787937 0.16202623 -0.10357568 0.3313978
000160 b0 32 6f 3a 7e db 99 3b 87 1f a9 3d ff f8 90 3e
       0.00091246795 0.004695355 0.082579665 0.2831497
000170 ea 66 3b be 6a 5c f1 3e 60 b8 86 3d f9 93 30 bd
       -0.18300977 0.4714082 0.065781355 -0.043109868
000180 ae 8d d7 bd 73 91 dc bc fe f0 a4 3e 0b bb 64 3a
       -0.1052507 -0.026924824 0.32215112 0.00087253813
000190 97 a5 17 bc 6e 84 06 3e 73 f4 40 be 6b 90 0f 3e
       -0.009255788 0.13136455 -0.1884325 0.14019935
0001a0 5c 6a 6d 3e 07 d0 23 be 62 1a 0e 3e 15 28 ad 3e
       0.23185104 -0.15997325 0.13877252 0.33819643
0001b0 5d 44 88 bd 54 99 71 3e 1a f5 15 3e 7d 3d de 3b
       -0.06653664 0.23593646 0.1464428 0.0067822323
0001c0 e7 52 80 3e 5c bc 06 3e 69 3a e1 3e 03 6f ba 3e
       0.2506325 0.13157791 0.43989876 0.3641282
0001d0 47 5d 6d be 72 cd e4 bc c8 68 22 bd dd fd 09 3e
       -0.23180114 -0.027929995 -0.03965071 0.13475747
0001e0 2a 99 0a 3d 58 92 2e 3d de 88 3a bd b9 a4 15 3e
       0.033837475 0.042620033 -0.045540683 0.14613618
0001f0 09 64 57 3e 08 22 8f 3e 26 c9 05 3d 32 39 99 3e
       0.21034254 0.2795565 0.032662533 0.2992645
000200 40 ec 6b be 79 d6 1b bf da 50 2e 3c 3c c9 43 3c
       -0.23039341 -0.60874134 0.010639394 0.0119498335
000210 2e 11 1f 3e 54 82 6b 3e b7 52 60 3d 93 3f 32 3e
       0.15533897 0.22998935 0.054766383 0.17407064
000220 8b 9c 8d bd b3 0e 15 3e 56 22 eb 3e 82 b0 ae 3e
       -0.06914624 0.14556389 0.45924634 0.3411904
000230 37 3e 1e 3d df 13 8f bd 9a 16 6c 3e 80 81 b4 3e
       0.03863355 -0.06986212 0.23055497 0.3525505
000240 c3 b8 a7 3b 3d db 1d 3c 0f 7d 3a 3c 2c 1d 12 bb
       0.005118461 0.00963479 0.011382355 -0.002229522
000250 b8 98 ba bc 72 5c 32 bc d4 4b 30 bf ba c6 ab 3e
       -0.0227779 -0.0108862985 -0.68865705 0.33550054
000260 ad a9 fa 3d 91 0a f5 3d 58 19 20 3c 89 39 7d 3c
       0.12239394 0.11964906 0.009771667 0.015455612
000270 0a cf 87 3d 96 3b 89 3e c9 8a 86 3c bf 45 cd 3d
       0.066312864 0.26803273 0.0164236 0.10023069
000280 40 2a 4f 3e fe 16 d0 3d 60 09 13 be 82 8c 4b 3b
       0.20230961 0.101606354 -0.14359045 0.003105909
000290 7d ef bd be b5 ea e2 3d f3 7d 15 3d 8a a1 64 3e
       -0.37096778 0.11079923 0.036497068 0.22327247
0002a0 be 49 a0 3e 1e 86 33 3e 04 d5 9e 3c f7 b6 e8 3d
       0.3130626 0.1753163 0.019388683 0.11363023
0002b0 08 37 3c 3e b8 98 1d 3e ca 2a 50 be e9 68 1a be
       0.18380368 0.15390289 -0.20328823 -0.15079083
0002c0 01 93 4f 3e 0a 17 e2 3e ac 69 80 bd 1c 23 4a 3e
       0.20270921 0.44158202 -0.06270155 0.19739956
0002d0 2c b8 1c 3e 64 b2 11 3c f3 38 03 3c ae a7 7b 3d
       0.15304631 0.008892629 0.008009183 0.06143921
0002e0 54 2d c8 bd da 7f 06 3e 10 3b 8f bc d1 51 b0 3d
       -0.09774271 0.13134709 -0.017484218 0.08609355
0002f0 02 37 d0 be 4c af 6c 3e 86 a0 5e 3e 78 6c 12 3d
       -0.40666968 0.23113745 0.21740922 0.035747975
000300 8f 9d bb 3c 8d 59 6a bb f4 4d e0 3d 71 40 c8 3d
       0.022902278 -0.0035758943 0.109523684 0.09777916
000310 79 0e a6 3e d0 46 d8 bd 44 f7 ee bd 5c 71 e2 3e
       0.32432917 -0.105603814 -0.11668256 0.4422711
000320 83 ad 28 be 60 7b ba 3e d1 9a 2f bd 2c 7a c8 3d
       -0.1647244 0.36422253 -0.042872254 0.097889274
000330 3f 24 d5 bd 3f e3 63 3d 88 1a 86 3d ec f8 35 bb
       -0.10407304 0.05563664 0.06548029 -0.0027766777
000340 ac 3c d7 3c 71 c4 84 3e e1 12 26 be dd e5 af 3e
       0.026274048 0.25931123 -0.16218139 0.3435506
000350 d6 f7 78 be 30 7a 80 3e 11 84 bb bc 7b c9 21 3e
       -0.24313292 0.25093222 -0.022890123 0.15799515
000360 83 09 b0 3e b9 db 64 3e 27 a8 a4 bd e0 a8 fa 3d
       0.34382257 0.22349443 -0.08039885 0.122392416
000370 10 20 83 3d 6e 11 37 3d e5 aa 34 3e 11 61 29 3e
       0.064026 0.044694357 0.17643316 0.16540934
000380 5d 05 34 3e 7e 17 52 bd eb 09 de bd 30 a0 56 3e
       0.17580171 -0.051291935 -0.108417355 0.20959544
000390 ae 91 9a 3e 43 5a 5a 3e 0f 2e 8d 3e 9f a5 a8 3e
       0.3018927 0.21323495 0.27574202 0.3293886
0003a0 ed 23 d7 3d 4a 9a 49 3d b7 5a 47 3c 27 62 59 3d
       0.10504899 0.049219407 0.012167624 0.05307212
0003b0 47 10 d6 3e 2d 28 6f be 1d aa de 3d af ab 2e bd
       0.41809294 -0.2335517 0.1087229 -0.0426442

fc1.bias f4 [20]
000000 de 96 9a 3e 07 a6 13 be 5f 10 dc ba 20 46 95 3e
       0.30193228 -0.14418803 -0.0016789547 0.29155064
000010 11 8d 8c 3e c8 da ce bc 0d 14 44 3e 45 30 4b be
       0.27451375 -0.025250807 0.19148274 -0.19842632
000020 75 f3 d7 3e 49 ce 48 be af db 42 3e fe 71 e5 3e
       0.4217793 -0.19609942 0.19029115 0.44813532
000030 65 81 52 be 19 3c 4a 3e 7b 89 a2 3d b1 84 54 3d
       -0.20557173 0.19749488 0.079363786 0.051884357
000040 63 1e 40 3d f7 2b 25 3d a9 22 a1 3e 9a 6d 03 bd
       0.04690398 0.04032513 0.31471756 -0.032086946

fc2.weight f4 [20, 20]
000000 2e a1 bd 3e f5 c6 8e be 1f 5a 77 3c 41 51 96 3e
       0.37037033 -0.27886167 0.01509717 0.29358867
000010 fd 65 bb be a5 26 49 3f 01 e1 98 3e b6 41 79 bd
       -0.36601248 0.7857459 0.29859164 -0.060853682
000020 38 d8 d2 3d 65 1c 9b 3e b9 e7 09 be 49 72 4c 3d
       0.10295147 0.302951 -0.13467301 0.04991368
000030 01 ca 79 be 1d 12 a3 3e 3f 2c 93 3e 5e b5 c4 3e
       -0.24393465 0.31849757 0.28744695 0.38419622
000040 3b 02 cf 3d 70 a8 1d 3e 8b 92 01 3d 3a 13 03 bc
       0.10107847 0.15396285 0.031633895 -0.008000189
000050 5a 8c af 3e 7b 9b cd be f6 81 21 bd 7a 92 53 3e
       0.34286767 -0.40157685 -0.03943058 0.20661345
000060 d6 a5 66 be 1c 6d 29 3f fd 5b 04 3f 74 c0 74 3e
       -0.22524199 0.6618211 0.5170286 0.2390154
000070 51 50 27 be af e2 ed 3d a4 4c a9 be 10 da 09 bd
       -0.16339232 0.11615502 -0.33066285 -0.033655226
000080 a6 0e 13 bf c3 16 47 3e 4a 02 18 3e 79 66 93 3e
       -0.57444227 0.19442277 0.14844623 0.28789118
000090 72 f4 3e 3e 7f 8e cb 3d 66 5f 4a be 95 db 82 be
       0.18647936 0.09939288 -0.19762954 -0.25558153
0000a0 a3 20 6f 3e 9f e4 da be b1 f7 96 3e 32 2c c5 3d
       0.23352294 -0.4275255 0.2948585 0.0962757
0000b0 ba 9c 71 be af 2a 56 be 21 48 38 3e 1c 88 48 3e
       -0.23594943 -0.2091472 0.17996265 0.19583172
0000c0 5c 05 69 be 1d b4 2f 3e a6 6c 2b 3e b4 87 be bd
       -0.2275595 0.17158552 0.16740665 -0.09303227
0000d0 e1 a2 7f be 02 26 4b 3e 59 0c c7 be 88 6f 17 3f
       -0.24964477 0.19838718 -0.38876608 0.5915456
0000e0 9c 8c 96 3e a2 50 d0 3d 18 a1 01 3e 14 a0 94 be
       0.2940415 0.101716295 0.12659109 -0.2902838
0000f0 a8 c3 9e bd d6 f9 97 3d cc 75 61 3d 8f 7d 62 3d
       -0.07752162 0.07420699 0.05504398 0.055295523
000100 0d 4a a9 3d fc cd 46 3f f4 d8 68 3d 29 e5 e8 3d
       0.08266077 0.7765806 0.056847528 0.11371834
000110 cc e2 67 3d 21 54 03 3f 31 7a 06 3f f4 83 d0 3e
       0.056612775 0.51300246 0.525302 0.40725672
000120 af 11 c4 bd ca aa 71 bd 8c d4 a6 bd ad 23 1d be
       -0.095736854 -0.059000768 -0.08146009 -0.1534564
000130 70 46 80 3e 75 a1 02 bd da 67 a5 3e 8d b6 2d 3d
       0.2505374 -0.03189226 0.32305795 0.042410422
000140 57 96 8a 3e 97 70 9b bd ed 6d 81 3e 86 5e be 3d
       0.27067825 -0.07589834 0.2527918 0.09295373
000150 d7 98 0b be ba 44 7e 3f 51 cf 3d 3e 31 69 60 3e
       -0.13632523 0.9932362 0.18536116 0.21915127
000160 30 a0 d9 bd d3 00 dc 3c 21 85 d4 bd 1d ce 60 3e
       -0.106262565 0.026855862 -0.10376955 0.21953626
000170 11 a2 7a be d6 6a 09 3e 9f ea 5c 3d 36 34 07 3f
       -0.24475886 0.13419661 0.05393469 0.5281404
000180 d1 e2 b3 3d 24 7c a4 3d a9 d9 6d bd 42 2b bc bb
       0.08783496 0.080314904 -0.058068905 -0.0057424614
000190 34 9b 64 be 68 7d 3b 3e e5 c7 ce bc fc 2d 69 bd
       -0.2232483 0.18309557 -0.025241802 -0.05692862
0001a0 ae 30 06 3f 45 df 52 bf 75 15 13 bd 03 68 02 3e
       0.5241803 -0.8237193 -0.035909135 0.1273499
0001b0 19 72 d7 3e 05 bc fe bd 89 0b 74 3e 9f 14 0d bb
       0.42079237 -0.12438206 0.23832525 -0.0021527184
0001c0 9f 6b b1 3e d5 5c 43 3d 92 fa 97 3e 24 19 05 be
       0.3465242 0.047695953 0.29683357 -0.12997872
0001d0 87 51 16 3e 25 51 32 3e b2 47 b3 3e 68 8f c8 3e
       0.14679538 0.17413767 0.35015637 0.3917191
0001e0 bb fd 87 be 08 08 57 3e 69 ea 35 be da f1 91 3d
       -0.26560768 0.20999157 -0.17765202 0.07126208
0001f0 b1 20 70 3e 5c 64 06 3f 62 68 6b be 23 9d bf bd
       0.23449971 0.52496886 -0.22989038 -0.09356143
000200 12 bf 2d 3e ed fe 73 bd 5a 7e 9d 3e 67 69 73 3e
       0.16967419 -0.059569288 0.3076046 0.23770677
000210 0c 24 23 3f 0c dc f2 bd e9 85 e5 3d a6 c5 32 bd
       0.6372688 -0.11858377 0.11207182 -0.043645523
000220 74 dc 7a bc ac 4d 59 be 22 30 53 3d 11 13 87 3e
       -0.015311349 -0.21221036 0.051559575 0.26381734
000230 4d 6a c2 bd 98 a4 d8 3d a7 e0 00 be 42 5a aa 3b
       -0.094929315 0.10578269 -0.12585698 0.005198748
000240 20 1c 1c be 7b 7c d6 bd a6 a1 e3 3d cc 7a 3c bd
       -0.15245104 -0.104729615 0.11114816 -0.046015546
000250 38 2b 19 3e 67 14 0c be b6 d9 f5 3c ef 65 dc bd
       0.14957893 -0.13679658 0.03001104 -0.1076163
000260 67 0c 4a be ef fa 85 bd dd 1c a2 bd 0b 5d 44 bb
       -0.19731294 -0.065420024 -0.079156615 -0.0029962684
000270 cc 6b d0 bd 33 b0 e4 bd ac 6c 10 3e 95 c3 80 bd
       -0.101768106 -0.1116642 0.14103955 -0.06287304
000280 95 db ec 3c 77 e0 29 3e a3 56 06 be 57 3f 27 be
       0.028913299 0.16589533 -0.13118987 -0.16332756
000290 7c aa dd 3e f2 1c 20 3f 8e e3 2d 3e 76 54 c0 bc
       0.43294132 0.6254417 0.16981336 -0.023477774
0002a0 c4 6b 73 3e 76 aa 65 3e 1e e8 60 3e 36 5e 7f 3d
       0.23771578 0.22428307 0.21963546 0.062345706
0002b0 21 c0 5d 3d 20 fd 2b be 17 86 57 3d fd ab a6 be
       0.054138307 -0.16795778 0.052618112 -0.32553092
0002c0 9b 97 10 be 9f f0 34 be 0f a9 c4 3e bf 65 d7 3e
       -0.14120333 -0.17669915 0.3841023 0.42069814
0002d0 a0 fc 3b 3e 6e 2a 28 3e 4a 35 99 3e e7 fd 16 bd
       0.18358088 0.16422436 0.2992347 -0.036863234
0002e0 48 de f0 3e 67 7b 20 bf 1b 08 9d bd 89 69 8b 3e
       0.47044587 -0.626883 -0.076675616 0.27228954
0002f0 a5 bc 7c 3e ea ee ca bb 67 07 59 3e 20 a3 26 bd
       0.24681337 -0.0061930316 0.2119423 -0.040682912
000300 ea 0e 1a 3e ea dc 3f 3d 09 32 79 3e e9 79 52 be
       0.15044752 0.04684154 0.24335493 -0.20554318
000310 9d c4 42 3d 10 b6 38 bc 1a a6 20 3e 63 a7 42 3e
       0.047550786 -0.011273876 0.15688363 0.19009165
000320 65 95 4c 3d 5f d0 35 3e 6f ac 82 3e d6 a1 c8 3c
       0.04994716 0.17755269 0.2552218 0.024491232
000330 1b ab 1f 3e 0f 9f 4b bf 70 6e 46 be 58 4d 75 3e
       0.15592615 -0.7953958 -0.19378066 0.23955286
000340 68 1c 35 3e 5f fe 44 3e f5 af ba bd 5a 6b 02 3c
       0.17686617 0.1923766 -0.091155924 0.007960165
000350 b7 21 9e 3e 17 30 7f 3e 4a e3 5c 3e bc c5 b8 bd
       0.30885097 0.24920689 0.21571079 -0.0902209
000360 ed 35 00 3e a4 39 8f 3e fc 7c dd 3b 0f 90 10 3e
       0.12520571 0.27973664 0.006759284 0.14117454
000370 cb 8d 81 be 9f 6d 11 bd 2d ba d2 bd ca c6 0a 3c
       -0.25303492 -0.035504933 -0.102894165 0.008470247
000380 b4 03 83 3d 91 cc 86 be cc 98 86 3e 34 ae 96 bd
       0.06397191 -0.26327947 0.2628845 -0.07357445
000390 1a d7 14 3e a7 de 72 3e 31 11 40 3e 60 e6 d1 ba
       0.1453518 0.23717748 0.18756558 -0.0016014092
0003a0 b3 15 6b bf 02 99 3e 3e 01 de 7c be 11 d6 f1 3d
       -0.91829985 0.18613055 -0.24694063 0.11808408
0003b0 af f3 02 bf 2e db 28 be 10 ce 13 3d 2a 9b 69 3e
       -0.5115308 -0.1648986 0.03608519 0.22813097
0003c0 eb e7 57 be be 15 05 3d bf a6 a5 3d 93 04 73 bd
       -0.21084563 0.032491438 0.08088445 -0.059330534
0003d0 e4 0d da 3e 6c 61 42 3f 19 50 30 be 0a 6b b2 bc
       0.42588723 0.75929904 -0.17218055 -0.021779556
0003e0 0a e5 d6 3d f7 e4 f2 3d 7f 43 ad 3e f5 ec a8 3d
       0.104929045 0.11860078 0.33840558 0.08248321
0003f0 fa f1 29 bd 17 c0 a1 be 85 ef 00 be 20 25 65 be
       -0.041490532 -0.31591865 -0.1259137 -0.22377443

fc2.bias f4 [20]
000000 99 04 06 be 00 27 75 be 4e 4c 22 3c 5f d0 04 3e
       -0.13087691 -0.23940659 0.009905888 0.12970112
000010 96 3c 28 bd 5f b3 54 3e b4 cb 8d 3d b4 2e 2f be
       -0.041073404 0.2077155 0.06923619 -0.1710766
000020 70 81 c5 3e 8b a5 bd 3e 55 b1 3a 3e fa 19 1f 3e
       0.38575315 0.37040362 0.1823171 0.15537253
000030 be e1 87 3e f2 e5 ec 3e 17 a7 6b 3d eb 68 fd bc
       0.26539415 0.46269184 0.057532396 -0.030933818
000040 e5 eb 4f 3e 13 e6 b7 3e 32 ca 6c 3d 38 97 0b 3e
       0.2030483 0.3591772 0.057810016 0.13631904

fc3.weight f4 [20, 20]
000000 0a c2 2b 3c 28 73 82 3d ef af 14 be 64 f4 fd bd
       0.010483274 0.063696206 -0.14520238 -0.124001294
000010 82 25 18 be 51 75 1c bd 3a 7e 0a bd 7c 69 04 3e
       -0.14858058 -0.03819782 -0.033811785 0.12930864
000020 df 3b 53 be 35 ed 0e 3e fa 00 46 bc 1d 69 3e 3e
       -0.20628308 0.13957675 -0.012085194 0.18594785
000030 fb e5 56 bc e6 78 39 3e a3 fe 67 3c c9 79 e8 bc
       -0.013116355 0.18112525 0.014159831 -0.028378384
000040 4b 7d a9 bd b5 95 4b 3e 02 9e 82 bd 69 49 4c be
       -0.08275851 0.19881327 -0.06377794 -0.19949879
000050 c1 8d 5c 3d 99 8d fe 3d d2 a3 24 be a4 03 5b be
       0.053846125 0.12429351 -0.16078117 -0.21388108
000060 fc 41 26 3e b9 6e 40 3d 97 be 47 be b1 bb 29 3d
       0.16236109 0.046980593 -0.19506298 0.041438762
000070 3b 26 af bc d1 42 2d be d3 1d 78 3d ff 58 0c be
       -0.021380534 -0.1692002 0.060575318 -0.13705824
000080 40 58 f6 3d 19 a3 ef 3c 98 55 88 bd 1c f9 03 be
       0.12028551 0.029252576 -0.06656951 -0.12887996
000090 d7 d1 58 be 9a ad 43 be 25 ce 2a bc b7 8a b2 3c
       -0.21173798 -0.19109192 -0.010425125 0.02179466
0000a0 9a 62 4b 3e 32 ae 67 3e 8d d0 fb 3e a1 e8 a9 3d
       0.19861832 0.22625044 0.4918255 0.082963236
0000b0 2a d7 7b bc cd c1 5b 3e 65 83 d3 bc 7e 24 c1 bd
       -0.015371123 0.21460648 -0.02581949 -0.094307885
0000c0 66 bc f6 bc 84 b1 43 3e f5 e4 96 3e 05 3c 77 3e
       -0.030119132 0.19110686 0.29471555 0.2414399
0000d0 c8 14 c0 bd 3d 3c 03 be ee b1 8d bd dd b0 87 3e
       -0.09378964 -0.12815948 -0.06918703 0.26502123
0000e0 14 b2 01 3f ca e0 ab 3e e2 c0 c7 bd 51 18 8b 3e
       0.5066235 0.33569938 -0.09753586 0.2716699
0000f0 9d ed cd 3e b8 3a d8 3e ff ef 54 3e 7e 30 cb 3b
       0.40220347 0.422323 0.20794676 0.006200849
000100 eb 58 c0 3e e2 b1 a4 be 29 ba 04 bf 72 5b 13 bd
       0.3756784 -0.32166964 -0.5184656 -0.03597588
000110 10 82 40 be d5 ad 9b bd 26 20 7c be 61 af 83 be
       -0.18799615 -0.07601515 -0.24621639 -0.2571974
000120 8a 9c 4b be 6f 3d 14 bf 3e 90 e1 3e f2 71 fb 3e
       -0.19883934 -0.5790624 0.4405536 0.4911037
000130 ba ff 81 3e ac a0 fb 3d e0 cf 20 3e b8 bc 0a 3e
       0.25390416 0.12286505 0.15704298 0.13548553
000140 44 3a bb 3d 83 87 90 bb ad cd cf 3d 4f 0b 41 be
       0.09141973 -0.0044106855 0.101466514 -0.1885197
000150 12 de 08 3e 94 db e8 bc 6b f0 de bc fb 88 25 be
       0.13365963 -0.028425016 -0.02721425 -0.16165535
000160 b2 38 a4 bd 74 c3 06 3e 4b 30 36 be 3f 98 d7 bd
       -0.08018626 0.13160497 -0.1779186 -0.105270855
000170 5a 29 0a be 31 30 b6 bd ec 2a dc bd 03 36 b8 3d
       -0.13492337 -0.088959105 -0.10750374 0.08994677
000180 db 08 42 bd 8b 4d 00 3e 6c 76 c6 bd 46 6d dd bd
       -0.047371726 0.1252958 -0.09690556 -0.10811858
000190 f7 30 15 bd 61 2a 1c bd f4 e4 09 3e d0 03 06 3e
       -0.03642365 -0.038126353 0.13466245 0.13087392
0001a0 dd 4c 28 3d 58 00 69 be 39 0d 15 be 05 f8 39 be
       0.041088928 -0.22754037 -0.14555825 -0.18161018
0001b0 a6 f3 24 be 48 43 b8 bd 24 a6 5b be bc db 3f be
       -0.1610857 -0.08997208 -0.21450096 -0.18736166
0001c0 63 a5 1e 3e 2a 33 3e 3d a7 e4 ba bd f2 79 cf 3d
       0.15492778 0.046435513 -0.09125643 0.10130681
0001d0 9c 0f 2c 3e 47 7c 19 be ec c8 37 3e f9 18 5a be
       0.1680283 -0.14988814 0.1794774 -0.21298589
0001e0 22 62 5d bd 7d 66 b0 bd 7b 3f a6 be b3 5d b7 be
       -0.054048665 -0.08613298 -0.32470307 -0.35813674
0001f0 07 bf e0 bd 09 f6 93 3e c8 2d cd bc 0a 65 ea bd
       -0.109739356 0.28898647 -0.025046244 -0.11445053
000200 93 77 98 be 5d 47 4b 3e 9b 4d 9b 3e 8b 05 ce 3e
       -0.29778728 0.19851442 0.30332646 0.40238604
000210 32 9b c0 be de 2b 3b 3d 38 54 60 be 00 37 0e bd
       -0.37618405 0.045696132 -0.21907127 -0.03472042
000220 3a 8d b7 3e 8e 67 c3 3e 90 97 d7 3d 92 bf 57 bd
       0.35849935 0.38164943 0.10526955 -0.05267293
000230 c4 fb 4f 3e 49 94 e9 bd c7 e7 69 3c 56 81 06 3e
       0.20310885 -0.11405236 0.014276451 0.13135275
000240 f9 48 19 3d c9 ea 38 bc 3a 88 5f be fd e4 4f 3d
       0.037423108 -0.011286446 -0.2182931 0.05075549
000250 9d c8 73 3d 6b 38 c5 bd 43 df c7 3d a2 5d 1f 3e
       0.05951749 -0.096299015 0.09759381 0.15563062
000260 f0 ff 38 be 44 1b dd bc 7b 0e 77 bd 8f dc f7 bb
       -0.18066382 -0.02699054 -0.060316544 -0.0075641344
000270 c8 5e 0b be ce 1e 22 be f8 32 4e be f5 65 b9 bd
       -0.13610375 -0.15832064 -0.2013663 -0.0905265
000280 ea 68 47 be 3d 54 2d be a5 7f 01 3e 07 ae 24 bd
       -0.19473615 -0.16926666 0.12646349 -0.040205028
000290 a9 43 28 bd 6c 88 1b bb 00 2a 03 be ec 65 89 3d
       -0.04108015 -0.0023732437 -0.1280899 0.06708893
0002a0 b0 7f 18 3e 1a 0b f9 bd 1c d6 57 be dc 2e 50 3e
       0.14892459 -0.121603206 -0.2107777 0.20330375
0002b0 09 a8 ea bd 3e be 4b 3d ac c1 2d 3e 0a a5 2a be
       -0.114578314 0.049741976 0.16968411 -0.1666452
0002c0 a3 61 32 3e f2 07 67 be b7 0f 59 bd 94 66 36 be
       0.17420058 -0.22561625 -0.052993502 -0.17812568
0002d0 c7 7d 22 be 1f 8e eb bd 0e 61 16 bf 1b 58 66 3d
       -0.15868293 -0.11501717 -0.58741844 0.056236368
0002e0 d5 37 96 3d 88 03 af bd 86 0f c7 3d 00 87 27 3c
       0.07334868 -0.085455954 0.09719758 0.010225058
0002f0 37 18 58 3e ff de 8d 3d 11 34 05 be 27 5a 02 bf
       0.21102987 0.06927299 -0.13008143 -0.5091881
000300 9d 11 78 3e bc 51 c0 3e 39 be 0d be 3e a1 0a bf
       0.24225469 0.37562358 -0.13842095 -0.54152286
000310 ee 8c 25 bf 57 b3 5b bf f3 e6 6d 3e 29 51 28 3d
       -0.64668167 -0.85820526 0.23232631 0.041093025
000320 83 12 ee 3b ad 08 08 be 76 ff 26 be 11 9c 1d 3d
       0.0072653904 -0.1328456 -0.16308388 0.038478915
000330 df 2b 16 be 85 de 25 3e 39 46 21 be 2e e4 04 be
       -0.14665173 0.16198166 -0.15749444 -0.12977669
000340 9c ee a1 3d e4 f0 51 be 2c 57 56 be b1 37 24 be
       0.07906839 -0.20502049 -0.20931691 -0.1603687
000350 c6 fd 0b 3e ac 98 5c 3b e5 2e 1e 3e df 5f b1 bd
       0.13671026 0.0033660335 0.15447576 -0.08660864
000360 b3 ec 0a be 0d 58 68 bd 11 bf 80 be 8f be 60 be
       -0.13566856 -0.056724597 -0.25145772 -0.21947692
000370 0e ae 14 be 39 7c 4b be 5b 4c be 3e 81 0c 05 3e
       -0.14519522 -0.19871606 0.3716763 0.12993051
000380 95 c1 e9 bb 48 9e 9d 3e c9 a4 a1 3d b2 98 be bd
       -0.0071336725 0.30784822 0.078927584 -0.09306468
000390 63 19 b5 3e 8e 80 a8 3e 6a ef a4 3e f2 6c 8e 3e
       0.3537093 0.3291058 0.32213908 0.27817494
0003a0 81 0e 05 3d 71 da 2c 3d 5b a4 9e 3c 2f 7e 03 3f
       0.032484535 0.04220051 0.01936548 0.51364416
0003b0 4c 7d 2b 3e 66 04 ff 3e 9c 4c 0a bd f2 cb 30 3e
       0.16747016 0.49808043 -0.033764467 0.17265299
0003c0 c6 be 62 be ba b3 e5 bd ad d2 37 be cb f8 80 be
       -0.22143087 -0.11215921 -0.1795146 -0.25189814
0003d0 26 37 34 3d e0 98 0f be 4d ac ec 3d 51 dd c0 bd
       0.043997906 -0.14023161 0.11556301 -0.09417213
0003e0 56 b5 36 be e1 ab f2 bb ec 30 e8 bd ce 01 01 be
       -0.17842612 -0.0074057435 -0.11337456 -0.12598345
0003f0 c6 ac 27 3e 9f 41 bc 3d d3 29 b1 3d 8b ef 31 be
       0.16374502 0.09192204 0.086505555 -0.17376535

fc3.bias f4 [20]
000000 07 d3 27 bd bb b2 9e 3d 5b e3 26 3e f4 a0 3c be
       -0.040972736 0.07748934 0.16297667 -0.18420774
000010 a9 b1 ea bc 9d 2b 60 bd af 01 03 3d 0c 47 d3 bd
       -0.028649168 -0.054729093 0.031984027 -0.103162855
000020 fe bf 27 be 7f 32 8b bd 71 18 53 3d aa 37 06 3d
       -0.16381833 -0.06796741 0.05153698 0.03276793
000030 91 bf fc 3d a6 ee be 3d 73 ce cb 3b e6 43 9e 3d
       0.12341226 0.09322862 0.006219679 0.07727794
000040 5d c1 56 3e 7a ef 03 bd 63 e3 d8 3b c1 ba 7b 3e
       0.209722 -0.032210805 0.0066189035 0.2458296

fc4.weight f4 [20, 20]
000000 57 84 9c 3d aa 9f b9 bc 0b df 4c bd 5c 15 85 3e
       0.07642429 -0.022659142 -0.050017398 0.25992858
000010 b3 5a 20 be 02 2b a3 3d 71 c5 66 be f5 72 5e be
       -0.15659599 0.079671875 -0.22536255 -0.2172354
000020 d7 c5 03 be 31 1d b6 be c2 d8 05 be 88 30 23 be
       -0.12868439 -0.35569146 -0.13070968 -0.15936482
000030 5e 96 79 bc 81 5d 66 3e 70 b5 59 bd 4e a2 91 3d
       -0.015233604 0.22496606 -0.053151548 0.07111035
000040 0c 37 e8 bd 3b a3 3d 3e 23 67 9b b9 b2 c4 46 3d
       -0.11338624 0.18519299 -0.00029640747 0.048527427
000050 5a 3f a8 3d 9c 5b 25 be ce e8 7d be e3 a4 14 bd
       0.08215208 -0.16148227 -0.24795839 -0.03629006
000060 46 f3 04 3d 1b b1 e9 bd d1 4a 85 bd 46 26 12 be
       0.032458566 -0.11410733 -0.06508411 -0.14272413
000070 a7 23 bf bd 36 ea 46 bd 20 c1 ed bd 36 97 32 3c
       -0.09332972 -0.048563205 -0.11609101 0.010900309
000080 18 9c 2e be 2c f8 d6 3d 5f d6 58 be ea 5f c8 bc
       -0.17051733 0.10496554 -0.21175526 -0.024459798
000090 c0 e1 16 be df d3 13 3d 11 3a ee 3d 1d dc 7e 3d
       -0.14734554 0.036090728 0.11632169 0.062221635
0000a0 64 f2 06 be fe dc 49 be 0f af 47 bd 28 1c 0f 3d
       -0.13178402 -0.19713208 -0.048750933 0.03493896
0000b0 6b fa ac bd 61 d3 b1 bd b5 54 84 3c f7 d4 57 3e
       -0.08446201 -0.086828955 0.016153673 0.21077333
0000c0 b9 e1 3e be b0 dd d4 bd 85 f3 3d 3d 7a 49 37 3e
       -0.18640794 -0.10393846 0.046374816 0.17899123
0000d0 64 7c 5c bd 92 86 a0 bc 7e 61 91 3d 2d 65 4f be
       -0.053829566 -0.019595418 0.07098673 -0.20253439
0000e0 9d db a2 bd 93 84 00 be dc 0e 32 bd 99 f6 48 be
       -0.07952044 -0.12550573 -0.043471202 -0.1962532
0000f0 e0 c4 45 be 0f 26 1b 3e 6c 26 8e 3e 97 9b e9 be
       -0.19313383 0.15151237 0.2776369 -0.45626518
000100 74 49 60 be bd e0 33 be 38 73 06 3f a1 11 57 3e
       -0.2190302 -0.175662 0.5251956 0.21002819
000110 a7 7e f9 bd 36 68 ef be 08 b4 b7 bc 22 54 94 3e
       -0.1218236 -0.46759194 -0.022424713 0.28970438
000120 91 48 5d be f6 ed 2b be 8e 61 11 bd f5 b5 8b 3e
       -0.21609713 -0.16789994 -0.035493426 0.2728726
000130 06 70 31 3d 4e 4e 37 3e 12 70 19 be 84 42 35 3e
       0.043319725 0.17900965 -0.14984158 0.17701155
000140 de 29 96 bd e3 36 8c 3d 78 bd 18 3e 93 83 8a 3e
       -0.07332204 0.06846406 0.14916027 0.27053508
000150 bc c2 55 3d 80 1d 0b 3d f6 3e 26 bf 54 8e f5 bc
       0.052187666 0.03396368 -0.6493982 -0.029975094
000160 4d 9e de 3c 12 91 8b 3d 64 99 fc bd 98 59 80 3e
       0.027175093 0.06814779 -0.123339444 0.25068355
000170 e5 b0 0c be 4f 0a 88 3e e6 3f 8b 3e 21 5f 9b bd
       -0.13739355 0.26570365 0.27197188 -0.07586504
000180 1f 50 c6 3e bb cd 0c 3e 3f 09 87 3e 1b 82 5a 3e
       0.38733003 0.13750355 0.26374242 0.21338694
000190 0c 58 d0 3d 39 50 97 bd 43 25 9d 3d cf 26 84 be
       0.101730436 -0.07388348 0.07673123 -0.2581086
0001a0 e1 68 1c be 8f 9d 21 bd 07 90 b3 3e 35 22 96 bc
       -0.15274383 -0.0394569 0.35070822 -0.018326858
0001b0 42 8c 20 be 80 8c a6 bd e0 5a 19 be 2d c8 86 3e
       -0.15678504 -0.08132267 -0.14976072 0.26324597
0001c0 18 89 66 bd 7c b5 9c be 49 6b 60 be f3 c0 62 3e
       -0.056283087 -0.30607212 -0.21915926 0.22143917
0001d0 c1 71 52 be a9 9c 68 3e 53 46 93 bd 15 a8 cb bd
       -0.20551206 0.22716011 -0.07191148 -0.099441685
0001e0 78 20 1f be e5 5c 41 bd 28 c6 6a bd 5f e9 e7 3e
       -0.1553973 -0.04720773 -0.057317883 0.45295236
0001f0 c8 7c 1e be 92 bc 82 ba 55 4b 49 bf 54 80 20 3e
       -0.15477288 -0.0009974411 -0.7863057 0.15673953
000200 1b 5a 65 bd 42 d0 b4 3e fb c8 3a bd 78 e3 84 bd
       -0.055994134 0.35315138 -0.045601826 -0.06488699
000210 96 9a ed bd c2 8e 97 3e e5 62 23 3c 0d d0 5f 3e
       -0.116017506 0.29601103 0.009972309 0.21856709
000220 c3 a9 8d 3e 80 a8 78 3e dd 96 ec 3d 55 06 b0 3e
       0.2766858 0.24283028 0.115522124 0.3437983
000230 f3 fe ae 3d 56 0e e1 bd 69 9a 36 3e bd 25 be 3e
       0.085447215 -0.109890625 0.1783234 0.37138167
000240 15 e6 78 3e d4 79 aa bd 3c 39 30 bf fc a7 f4 3d
       0.2430652 -0.08324018 -0.6883733 0.11946103
000250 0b 68 13 3d 55 f6 83 3e b0 81 d1 3d 4e ac 5e 3b
       0.035987895 0.25773874 0.10229814 0.0033977213
000260 b0 b5 0b be fa 5a 0c 3f ea 65 5c 3e 38 16 31 3e
       -0.13643527 0.5482632 0.21523252 0.17293632
000270 3c c3 7c 3d e5 ec 1d 3e 3c 9f 6d 3e 65 4a 2c bd
       0.061709628 0.154224 0.23205274 -0.042063136
000280 84 4a a7 3b 89 66 66 3d c7 0f b5 bd e9 40 07 3d
       0.0051053185 0.05625013 -0.088409 0.033020888
000290 55 78 c3 bb ce 05 f8 bc dc d4 24 be 8e fb 19 3e
       -0.0059652724 -0.030276205 -0.16096824 0.15037367
0002a0 0a 91 f1 3d 6d 47 e7 3d 78 b9 49 3d 4d 75 1b bd
       0.11795242 0.1129292 0.049249142 -0.037953664
0002b0 af c1 cc bd e1 68 f4 bd 22 78 5c 3c 6b be 05 3d
       -0.0999788 -0.119340666 0.013456376 0.0326523
0002c0 c9 76 cd 3d 96 3e c5 bd c7 00 e2 bd b1 68 ac bd
       0.10032422 -0.09631078 -0.110353045 -0.08418406
0002d0 b2 e9 3e be eb 8d 45 3e 1f 5a a0 3d a6 56 04 3f
       -0.18643835 0.19292419 0.07829689 0.51694715
0002e0 c4 30 44 be 27 e4 d7 bd 05 ad 3b bf 5d bf a2 bd
       -0.19159228 -0.105415635 -0.7331088 -0.07946656
0002f0 e8 5a e3 3d 10 ca b0 3e 9d 9f 40 3e 1f 57 26 be
       0.11101323 0.3452916 0.18810888 -0.16244172
000300 f9 90 d3 3d 63 2a ec 3e 29 ab c8 3d 98 f7 97 3d
       0.10330386 0.46126089 0.09798271 0.07420272
000310 62 5d 7b 3e b3 5f 57 3d 55 ad 20 3e 4d be 1b 3e
       0.24547341 0.0525815 0.15691121 0.15209313
000320 03 e8 33 bd e6 f4 07 be 30 e7 79 3e 20 0a af 3e
       -0.043922435 -0.13277015 0.24404597 0.34187412
000330 f0 65 27 be 47 de 49 3d b4 da 22 bf e0 0f f2 bd
       -0.1634748 0.049284246 -0.63614964 -0.11819434
000340 f1 64 7e 3d 67 0c 82 3e 74 b4 26 bd b4 3b 08 bd
       0.062107984 0.25400087 -0.040699437 -0.033260062
000350 9d 3c c4 3b 0e ad 7d 3e 4e 66 0a 3e 12 29 62 3e
       0.005988671 0.24773046 0.13515589 0.2208598
000360 ea 5b 72 3e dd 68 a9 bc 4f 57 44 3e a4 d3 2a 3e
       0.23667875 -0.020679886 0.1917393 0.16682297
000370 97 b1 42 3e 0b a8 8f bd 23 8a 6b 3d fd 15 13 be
       0.19013058 -0.070144735 0.057504784 -0.14363857
000380 33 22 a7 3d c5 e9 12 bb 90 43 51 be 1f 2c a8 3d
       0.0816082 -0.002241717 -0.2043593 0.082115404
000390 0a 04 ed bc b0 32 01 3d fb 11 c8 3b dd d9 07 be
       -0.02893259 0.03154248 0.006105659 -0.13266702
0003a0 bd 9c 0b 3d d3 69 ab 3d c6 c9 cb bc 95 3d 33 be
       0.034085024 0.08369794 -0.024876487 -0.1750396
0003b0 03 5e 17 be da 4a a8 bd f7 80 c8 3d 3b 53 ca 3d
       -0.14781956 -0.08217402 0.09790223 0.09879156
0003c0 9c 7c c9 3c 47 ea e2 bd 7d 8c 37 be 1e c9 45 3e
       0.024595551 -0.11079841 -0.17924686 0.19315001
0003d0 85 b2 89 bd ef 92 17 3e 32 eb 93 3d bb 8d d8 3d
       -0.06723503 0.14802144 0.07222594 0.10573908
0003e0 5f 99 94 3d 6f 51 fb 3c 02 19 2c be 05 1e af bd
       0.07255816 0.030678479 -0.16806415 -0.08550648
0003f0 d1 3c 0f 3e 17 78 20 bd a0 70 01 3d bf 3f 05 bd
       0.13988043 -0.039177027 0.03160155 -0.032531496

fc4.bias f4 [20]
000000 4b 82 c3 3b 62 e6 33 be 4c 91 78 bd b4 a1 d3 bd
       0.00596646 -0.17568353 -0.06068544 -0.10333577
000010 08 20 83 3e cd 15 84 3e b7 78 98 3d 43 92 8d bd
       0.25610375 0.25797883 0.074448995 -0.06912663
000020 7e 10 8e 3d 67 ff 3a bd 20 d3 14 3e f4 93 a2 bd
       0.069367394 -0.045653727 0.14533663 -0.07938376
000030 e9 5a 19 be 2b 1e 11 3b 15 66 57 3d af f0 37 bc
       -0.14976086 0.0022143226 0.052587587 -0.011226817
000040 ce 6a b3 bc 2a c2 1d 3e f8 bc e4 3d 4c e7 a0 bd
       -0.021901514 0.15406099 0.111688554 -0.078566164

fc5.weight f4 [20, 20]
000000 bb ef 44 3c f3 84 0d bd 80 64 21 3d ec a5 4e be
       0.012020047 -0.03455062 0.039402485 -0.20180482
000010 6f 75 4b be fa cd 1f 3e 9e bd 12 bc f0 a5 32 3e
       -0.19869016 0.15605918 -0.008956341 0.17446113
000020 5e a6 1f be 72 df 24 be 94 90 1f 3e 6f f5 60 be
       -0.15590808 -0.16100863 0.15582496 -0.21968625
000030 df 63 22 3e 10 3f b6 bd ba a2 50 be 77 04 c3 bc
       0.1585841 -0.08898747 -0.20374575 -0.02380584
000040 ea d7 e4 bc 9b 57 9c bc 47 34 1d bd f0 56 75 3d
       -0.027934987 -0.019084742 -0.038379934 0.059897363
000050 7d 54 0c bb 74 97 09 3e 05 3c 25 3e 5e 8d 20 be
       -0.0021412664 0.13436681 0.16136177 -0.15678927
000060 d8 40 a3 3c eb 47 43 be f5 42 88 3d 90 48 03 3e
       0.01992838 -0.19070403 0.06653396 0.12820649
000070 ae 6b 3e bd 68 0d 7c 3e c2 86 80 3e f7 00 2f bb
       -0.04648941 0.24614489 0.25102812 -0.0026703456
000080 18 cb c8 bd fc 20 82 3e e6 e1 12 3e f8 c1 64 3e
       -0.09804362 0.2541579 0.14343986 0.22339618
000090 0e 60 47 bc c2 5a 50 3e 89 57 e8 3d 26 ee a0 3e
       -0.012168897 0.20347121 0.11344821 0.31431693
0000a0 2b a0 43 be d8 13 f2 bd af ec 57 be 81 ce 95 3e
       -0.19104068 -0.11820191 -0.21086381 0.29259112
0000b0 89 a8 1d 3e 68 fc c6 3e 1b be 54 3e 37 9f b6 3c
       0.15396322 0.38864446 0.20775644 0.022292716
0000c0 38 b7 0e be 56 cb ce bd 80 51 4b 3e 4d 3a 56 be
       -0.1393708 -0.10097377 0.19855309 -0.20920677
0000d0 1f 2b 4e be 95 1b 4b be e4 1b 41 be 49 56 a9 3d
       -0.20133637 -0.1983474 -0.18858296 0.08268411
0000e0 6d 3e 93 3e 79 47 a3 3d 88 01 c1 bd 53 73 81 be
       0.28758565 0.07972617 -0.0942412 -0.25283298
0000f0 70 5e 89 bd 7e ff 2f 3e a8 99 51 be 6c e4 37 3e
       -0.06707466 0.17187306 -0.20468771 0.1795823
000100 82 e6 40 be 9a 00 86 bd 41 37 26 3d 9c 04 fa 3d
       -0.18837932 -0.065430835 0.040580038 0.122079104
000110 bc bf 45 3d e1 26 01 be 2b 24 f6 3d 74 16 0b 3e
       0.048278555 -0.12612487 0.12018617 0.13582784
000120 11 f8 39 bd eb 23 16 bd 01 62 e3 3d 11 ba 4e be
       -0.04540259 -0.036655348 0.11102677 -0.20188166
000130 18 65 82 be 13 e7 81 bb e1 6e 06 be cb d5 64 bc
       -0.25467753 -0.003964314 -0.13128234 -0.013966988
000140 c2 25 a7 3e 07 94 42 3e 31 fc 26 be a1 ba 71 be
       0.32645994 0.1900178 -0.16307141 -0.2360635
000150 90 93 95 3e 6c 3a 1d bd 01 d1 82 bd fb 44 8e 3e
       0.29214144 -0.038385794 -0.063875206 0.27787003
000160 03 53 3a be 5b 09 8a 3c e7 6e 40 3d 65 30 1f 3d
       -0.18195729 0.016850164 0.046980765 0.038864512
000170 3f ed 8a bd 2f 56 1c 3e 03 84 87 3d fe c4 bd 3d
       -0.06783532 0.15267251 0.06616976 0.09266089
000180 04 6c fb 3c 2c f2 cc 3d d1 1b 8c bd c9 89 f5 3d
       0.030691154 0.10007128 -0.06841243 0.11989171
000190 fd a3 0b 3e 8a 81 54 3e c6 dc 18 3e b4 c1 80 be
       0.13636775 0.2075254 0.14927968 -0.25147784
0001a0 43 6f 7e 3e ba cd 93 3d cd 76 2a bc e1 69 3d 3e
       0.2484713 0.072169736 -0.010404301 0.18497421
0001b0 af 0f 19 be ce bf 62 3e 3c ad 34 3e c2 ba 30 3e
       -0.14947389 0.2214348 0.17644209 0.17258742
0001c0 c5 0b 58 be 04 40 c2 3e 02 b1 84 3e 3c dc 47 be
       -0.2109824 0.37939465 0.25916296 -0.19517606
0001d0 89 e3 8d be 0f 52 d3 3c 4e 84 a6 3d 55 82 5f 3e
       -0.27712658 0.025795965 0.08130704 0.21827061
0001e0 b7 85 d2 bd 86 c2 4d bd d8 94 e0 bd d2 8f 49 3e
       -0.1027941 -0.05023434 -0.1096589 0.1968377
0001f0 40 8e d0 bd 07 c0 af 3d 5f 32 1f be e1 42 6e be
       -0.10183382 0.08581548 -0.15546559 -0.232677
000200 d8 f6 ea 3d 94 0d 35 be ff 60 90 3d ff d3 7d bd
       0.11472863 -0.17680961 0.070497505 -0.061969753
000210 2d 9e ee 3d f8 57 90 be 7f 26 84 be d8 0c 4a 3e
       0.116512634 -0.28192115 -0.2581062 0.19731462
000220 6d 1b a9 3e ea b2 2f be f3 42 85 bd 7d 55 86 bc
       0.33028737 -0.17158094 -0.0650691 -0.016398186
000230 27 5d f9 bc 47 9b 26 be ab 92 7a bd ed cc 58 3e
       -0.030439926 -0.16270171 -0.06117503 0.21171923
000240 29 1d 03 be 27 d2 8e 3e 6c 98 18 be fa ea e3 3b
       -0.12804092 0.2789471 -0.14901894 0.0069555016
000250 e2 0e d1 3d 27 e3 ae be cd 79 fe 3d e3 11 1d be
       0.10207917 -0.34157678 0.124255754 -0.15338854
000260 c5 5e 5a be 13 f4 7b be 4f 59 e8 3d f4 1f 59 bd
       -0.21325214 -0.24604826 0.11345159 -0.05300899
000270 b5 c7 be 3d 47 7c 26 3d 68 7e db 3d e2 cd 17 be
       0.09315435 0.040645864 0.107174695 -0.14824632
000280 d2 b1 3e be 93 b8 e7 bd 50 ec 44 3e 57 df e6 3d
       -0.1862252 -0.113145016 0.19230771 0.112730674
000290 3e 94 df 3c 37 b5 70 3e 8e 3f 03 be a4 72 62 be
       0.027292367 0.23506628 -0.12817213 -0.22114044
0002a0 e7 7b 60 3d c8 8f 55 be 5c 6b 1e 3e fb 5e 24 3e
       0.054805662 -0.2085563 0.15470642 0.16051857
0002b0 34 1f fa bd 9c 3d 13 bd 17 20 97 3d 6d c3 4a be
       -0.12212983 -0.035947427 0.073791675 -0.19801112
0002c0 13 d9 f8 3d be 84 1b 3e 34 28 23 3e d1 90 a0 be
       0.121507786 0.15187356 0.15933305 -0.31360486
0002d0 1d bb 16 be ad 50 8d 3d a5 10 dd bc f7 5b ea 3e
       -0.14719816 0.06900153 -0.026985476 0.4577329
0002e0 15 5f 61 3e e7 fb b5 3e ca d2 3f 3e 41 22 7d bd
       0.22008927 0.3554375 0.18732753 -0.061800245
0002f0 07 7d 4e be 4c 26 16 3d cf 4e 7b 3d 19 7e 1f 3e
       -0.20164882 0.036657616 0.061354455 0.15575446
000300 21 5a 57 3e a5 d6 5e be 3d e4 21 bc 8f 4d 0e be
       0.21030475 -0.21761568 -0.009881076 -0.13896774
000310 c2 04 aa 3e 87 a9 23 be 31 ee 1e be c9 9f 49 be
       0.33206755 -0.15982638 -0.1552055 -0.1968986
000320 50 50 b3 3e ac 6c e6 bb f4 4d be bd 31 f1 5c be
       0.3502221 -0.0070319977 -0.09292212 -0.21576382
000330 e6 d3 02 3d 70 de ad bd b0 c9 1e 3e 8e 2b 7d 3e
       0.031940363 -0.08489692 0.15506625 0.24723646
000340 02 98 24 bd 1a 46 ea 3e 51 62 a5 3e d9 88 a9 3c
       -0.04018403 0.45756608 0.32301572 0.020695137
000350 9b f6 53 be d4 5d 1b 3f 3c 75 85 3e b0 f8 3d 3d
       -0.20699541 0.60690045 0.26066005 0.046379745
000360 0a e4 8c be d1 3b 9b 3d 2b aa 13 3e 06 22 e7 3e
       -0.2751773 0.075797684 0.14420383 0.45143145
000370 73 e3 81 be 80 a7 08 3e 8c 7f 03 3e ff 50 e7 bc
       -0.25368842 0.13345146 0.12841624 -0.028236864
000380 3d ee 5d 3e d9 c6 92 3e 9e 6c ad bd ab d0 3c be
       0.21672912 0.28667334 -0.08467983 -0.18438976
000390 0f 01 63 3c 48 36 63 be d8 27 8f bd fc 28 e3 bd
       0.013855233 -0.22188675 -0.069900215 -0.110918015
0003a0 8a 97 9a bd f0 09 a9 be 8f d0 99 3d 4f 45 ff bd
       -0.07548435 -0.33015394 0.075104825 -0.124643914
0003b0 57 88 65 3e 51 c8 4b be 0a a6 1e 3d 04 d6 0a be
       0.22415291 -0.19900633 0.038732566 -0.13558203
0003c0 19 74 9f be 4b de 19 be 9f 86 cd 3d 37 b5 92 3e
       -0.31143263 -0.15026204 0.100354426 0.2865388
0003d0 50 42 88 3e 2d 1e eb 3e 86 e2 a5 bd b5 3b 01 3d
       0.26613092 0.4592146 -0.080998465 0.03155108
0003e0 b1 be 24 be 74 c0 be 3d 6f 78 1e 3e 92 12 3e 3e
       -0.16088368 0.09314051 0.1547563 0.18561772
0003f0 67 8a 93 bd ff c9 8f be 76 41 40 bd 9e da 3c 3e
       -0.072041325 -0.28083798 -0.04693743 0.18442771

fc5.bias f4 [20]
000000 86 cb 20 be 86 27 82 be 4e 9c 8f 3e 69 80 ab 3a
       -0.15702638 -0.2542078 0.2804894 0.0013084534
000010 62 90 c0 bc 5f c0 ad 3d 44 a1 7d bc 91 1d 2b 3e
       -0.023506347 0.084839575 -0.015480343 0.16710497
000020 55 aa 81 3e 42 47 d4 3b d5 c1 5d 3d 29 fe 46 be
       0.25325266 0.006478221 0.05413993 -0.19432892
000030 f1 9f 0b 3e b0 dc 6b 3d 99 cd 91 bd 46 b4 55 3e
       0.13635232 0.05758351 -0.07119293 0.2086955
000040 8a 4f be bd 2f cb 0b 3e 54 21 91 bd eb b0 8e bd
       -0.092925146 0.13651727 -0.07086435 -0.06967338

fc6.weight f4 [3, 20]
000000 cc 5a df bd 04 f4 17 be af 68 5b 3e 8e 2b 76 bd
       -0.1090599 -0.14839178 0.21426652 -0.06010013
000010 7d 7f ad 3d 97 d8 15 be 63 a8 d5 3e eb ef e5 3e
       0.08471582 -0.14633404 0.4173003 0.44909605
000020 1a db 17 3f e8 59 9d 3e b2 64 89 be 91 ea a0 3d
       0.593187 0.30732656 -0.26834637 0.0785724
000030 ae 2a d2 3e 4a df 29 3b fa 04 dd 3d 66 63 99 be
       0.41048187 0.0025920444 0.10791965 -0.29958647
000040 d5 e4 52 3e 80 64 0e be 3b fa f2 bd 62 61 14 be
       0.20595105 -0.13905525 -0.11864134 -0.14490274
000050 8d c6 71 3c 7a 15 ec be 5d 7c 34 bf 84 2b b8 bd
       0.014756811 -0.46110135 -0.70502263 -0.08992675
000060 9a 90 f7 be cc 44 cb be b0 e0 17 3d 37 e8 98 be
       -0.4835251 -0.39700925 0.037079513 -0.29864666
000070 1a ae 04 bf ea 08 1d bf af d5 19 bf 34 0b 1c bf
       -0.5182816 -0.61341727 -0.6009168 -0.60954595
000080 e7 64 bd be 80 89 11 bf 27 fd 62 3e d6 74 d7 be
       -0.36991045 -0.56850433 0.22166882 -0.42081326
000090 7e 19 34 be 4b 7f c9 be b6 c0 5e bb ab 49 18 bf
       -0.1758785 -0.3935493 -0.0033989376 -0.5948741
0000a0 41 d4 5e bb a7 6f 81 3e 1b 90 5e bb 16 2e 05 be
       -0.0034001025 0.25280496 -0.0033960405 -0.13005862
0000b0 7e ae 39 3e 19 9e e5 3e c6 9c 32 be c6 40 ea be
       0.1813297 0.4484718 -0.17442617 -0.45752543
0000c0 4a 51 fb be 93 b4 d9 3d 9e 0e e4 3e e1 d8 8e be
       -0.49085456 0.10630145 0.44542402 -0.2789984
0000d0 11 3b 94 3d ef 9f 3d 3e 3f ba a3 3d 14 fd fa 3e
       0.072378285 0.18518041 0.07994508 0.49021208
0000e0 78 35 5d be cb f7 08 3f 9a 32 58 3e 75 c2 0b 3e
       -0.21602428 0.535031 0.21113053 0.13648398

fc6.bias f4 [3]
000000 db 42 8e 3d f7 bb e2 be 69 92 47 bd
       0.069463454 -0.4428403 -0.048723612
