models_3val/xor_and_3.pth (torch, 12178 bytes, 12 tensors)

fc1.weight f4 [20, 12]
0.27892455 0.46976417 -0.03445508 0.26778162 0.13565835 -0.13388428 0.1310312 0.11170676
0.039160725 -0.06361248 -0.16641074 0.10803739 0.34311825 0.4162811 0.11441194 0.07630679
-0.1597737 0.05299195 0.024580346 0.19676603 0.16719487 0.012930656 0.08513987 0.025350094
-0.20219572 0.29127774 0.20840788 0.116781965 0.0867243 0.33546877 0.3772066 -0.08392292
0.097041674 0.19876273 0.09160057 -0.08635031 0.462303 0.02333436 -0.19371481 0.06838073
-0.106547646 0.15554225 0.1935911 0.0087979715 0.025499376 0.08661001 0.22207943 0.08827957
0.056434765 0.2987334 -0.058465473 -0.17986296 0.0037009364 -0.010433725 -0.027067354 -0.0896937
-0.007161817 0.013508283 0.12365531 0.10745414 0.0578175 0.14966755 0.2988934 0.40212366
0.18128523 0.22433457 0.03590264 0.17084113 0.15990327 0.2757898 0.35883394 0.240613
0.35873255 0.1478489 0.1626786 -0.0014672669 0.10023299 -0.032735147 0.011773548 0.04385334
0.03689029 -0.030424152 0.01720522 0.09198452 0.308459 -0.057315953 0.3606188 0.28852022
0.1810231 0.21298794 -0.10534691 0.2834567 -0.027565945 0.09299911 -0.1328984 0.13992272
-0.057863355 -0.066053435 -0.6578675 0.076129854 0.1309133 -0.00390583 0.04292627 0.014870971
0.016671048 0.0061232406 0.031292476 0.0068764105 0.20744832 0.18972665 0.20544875 0.20692992
0.0924062 0.06440047 0.071227595 0.24390808 0.27246386 0.033542447 0.22038788 0.2725799
0.5141699 0.29361677 -0.22813044 0.20475784 0.004858347 0.18782185 0.10875921 -0.027927361
-0.052303247 0.03524584 0.11646456 0.21018468 0.26215768 0.22524108 0.28766832 -0.12871507
-0.014802439 -0.008549575 0.15143745 -0.0033739756 0.22343574 0.15896563 -0.04427165 0.010880965
0.17410517 0.07130591 -0.41111505 0.0029610966 -0.058669284 -0.027045237 0.11899605 0.09565537
0.025041394 -0.009229359 0.0114660375 0.0049655605 0.5608676 0.42848232 0.20048223 0.124496266
-0.029486772 0.06689651 0.004987306 0.13917272 -0.13924392 -0.10143302 0.27626002 0.11617855
-0.38282377 -0.25366262 0.28836334 0.024720892 0.0026224009 0.09229797 0.1345755 0.31883648
0.24628021 0.14347684 0.14122844 0.37795347 -0.006250285 -0.008005336 -0.58979464 0.036283482
0.0023586028 0.0056043933 0.015004847 0.01009755 0.01246395 0.0055222968 0.018178182 0.041349564
0.25182703 0.17163455 -0.23138574 -0.11022136 0.10359671 0.22184797 -0.041041702 0.20770012
0.20932247 0.22209245 -0.038869243 -0.053185314 0.52111876 -0.40312797 -0.036217693 -0.002401573
-0.00080990756 -0.0008852775 -0.0011800291 -0.0017510513 -0.0020034537 -0.00094758766 -0.00031903968 9.323615e-05
-0.22940429 -0.43918663 0.22519681 -0.008217557 0.033545934 -0.0031770705 -0.012454937 0.037757654
0.1149871 0.02258052 0.004965741 -0.04594346 -0.0077147693 -0.013149031 -0.53197175 -0.0035459376
0.0016135612 0.008724488 0.0074781813 0.008664633 0.0016725122 0.003012858 0.0043328223 0.030545661
00000000: 33cf 8e3e ee84 f03e c520 0dbd ac1a 893e
00000010: 06ea 0a3e f618 09be 0b2d 063e 84c6 e43d
00000020: ff66 203d 4347 82bd 9467 2abe b542 dd3d
00000030: 32ad af3e cc22 d53e cf50 ea3d bc46 9c3d
00000040: b89b 23be 160e 593d b95c c93c 097d 493e
00000050: 2235 2b3e 1adb 533c d05d ae3d 00ab cf3c
00000060: 650c 4fbe 5b22 953e e068 553e 622b ef3d
00000070: 839c b13d 90c2 ab3e 3921 c13e c8df abbd
00000080: c9bd c63d 7588 4b3e 1499 bb3d 6ed8 b0bd
00000090: fbb2 ec3e b327 bf3c 2d5d 46be 320b 8c3d
000000a0: a735 dabd 7846 1f3e bf3c 463e 5e25 103c
000000b0: 11e4 d03c 9760 b13d ca68 633e ebcb b43d
000000c0: 2428 673d 96f3 983e 7e79 6fbd ff2d 38be
000000d0: 698b 723b 37f2 2abc 5bbc ddbc 55b1 b7bd
000000e0: adad eabb d851 5d3c ff3e fd3d eb10 dc3d
000000f0: 0bd2 6c3d 7342 193e 8e08 993e 27e3 cd3e
00000100: d6a2 393e f6b7 653e a60e 133d faf0 2e3e
00000110: afbd 233e 5234 8d3e 15b9 b73e 4163 763e
00000120: cbab b73e b465 173e 3895 263e 4f51 c0ba
00000130: f446 cd3d 4a15 06bd d7e5 403c 8f9f 333d
00000140: 461a 173d 123c f9bc f6f1 8c3c 6162 bc3d
00000150: 57ee 9d3e 22c4 6abd 07a3 b83e ecb8 933e
00000160: 1f5e 393e 8319 5a3e 1fc0 d7bd 3d21 913e
00000170: fad1 e1bc 5176 be3d 8516 08be e747 0f3e
00000180: 2002 6dbd 0647 87bd 016a 28bf f8e9 9b3d
00000190: 230e 063e f4f8 7fbb 75d3 2f3d 60a5 733c
000001a0: b991 883c 77a5 c83b 8a2c 003d 8353 e13b
000001b0: 556d 543e b447 423e 2861 523e 70e5 533e
000001c0: 763f bd3d 65e4 833d c6df 913d 0ac3 793e
000001d0: 6280 8b3e ce63 093d 5cad 613e 988f 8b3e
000001e0: a3a0 033f f054 963e 079b 69be 0aac 513e
000001f0: c532 9f3b 5f54 403e 26bd de3d ecc7 e4bc
00000200: ee3b 56bd f15d 103d f984 ee3d a73a 573e
00000210: 8839 863e 99a5 663e 4349 933e e2cd 03be
00000220: ee85 72bc 8413 0cbc 6b12 1b3e eb1d 5dbb
00000230: 57cc 643e e3c7 223e 3156 35bd 1346 323c
00000240: a048 323e d508 923d ac7d d2be f50e 423b
00000250: 344f 70bd f98d ddbc 33b4 f33d f6e6 c33d
00000260: 9c23 cd3c bd36 17bc 0cdc 3b3c 24b6 a23b
00000270: 0595 0f3f 0962 db3e 374b 4d3e e6f7 fe3d
00000280: 3e8e f1bc 0a01 893d 8e6c a33b 4b83 0e3e
00000290: f595 0ebe 1dbc cfbd f471 8d3e 05ef ed3d
000002a0: 7a01 c4be 11e0 81be 5ca4 933e 7883 ca3c
000002b0: 96dc 2b3b b806 bd3d 29ce 093e 893e a33e
000002c0: e130 7c3e 98eb 123e 309e 103e 1e83 c13e
000002d0: 31cf ccbb d028 03bc c8fc 16bf fd9d 143d
000002e0: ca92 1a3b 0fa5 b73b e4d6 753c 3270 253c
000002f0: 9835 4c3c 62f4 b43b 69ea 943c 295e 293d
00000300: 79ef 803e f8c0 2f3e 62f0 6cbe bdbb e1bd
00000310: 832a d43d 1d2c 633e 581b 28bd 57af 543e
00000320: a158 563e 346c 633e 5b35 1fbd d8d8 59bd
00000330: 0a68 053f ca66 cebe 0159 14bd b563 1dbb
00000340: fa4f 54ba f811 68ba 35ab 9aba 8883 e5ba
00000350: 604c 03bb 8867 78ba c844 a7b9 c787 c338
00000360: f5e8 6abe 12dd e0be fe99 663e efa2 06bc
00000370: 7667 093d 6636 50bb cb0f 4cbc c5a7 1a3d
00000380: 5b7e eb3d c8fa b83c a8b7 a23b 362f 3cbd
00000390: 2dcc fcbb 096f 57bc 4d2f 08bf f662 68bb
000003a0: 217e d33a 28f1 0e3c 880b f53b 1bf6 0d3c
000003b0: 3238 db3a 5f73 453b 59fa 8d3b e53a fa3c

fc1.bias f4 [20]
0.00596908 -0.24982622 0.01043399 0.46521884 0.18489319 0.099772826 -0.27512935 0.32932308
0.012459909 0.032331467 -0.18931288 -0.20570299 0.273305 -0.081556246 0.2534534 0.29829112
0.099222176 -0.037326735 -0.045700938 0.40744302
00000000: 4698 c33b 72d2 7fbe 53f3 2a3c 2a31 ee3e
00000010: a454 3d3e b255 cc3d c1dd 8cbe 099d a83e
00000020: a524 4c3c 006e 043d 3cdb 41be cea3 52be
00000030: a2ee 8b3e f606 a7bd a5c4 813e 9db9 983e
00000040: ff34 cb3d ebe3 18bd e830 3bbd 5f9c d03e

fc2.weight f4 [20, 20]
0.004599327 -0.02849175 0.43649 0.1184431 0.29488024 0.3224906 -0.37710992 0.30801958
-0.34130484 0.37064278 -0.06570551 -0.11349761 -0.042353116 -0.01990446 0.36256447 -0.44749457
-0.113052815 0.5892766 0.09216473 -0.35204154 0.021764766 0.012985067 -0.09656087 0.007640422
-0.292466 -0.04581222 0.532776 -0.08855501 0.1319005 -0.03457704 0.26790667 0.42059827
-0.08342193 0.26259768 -0.24075669 0.4781956 -0.0397607 -0.5030447 -0.2541507 0.28943738
0.17108229 -0.02562861 -0.15502465 0.29136568 0.05642795 0.021279855 0.093021885 -0.1964589
0.610961 0.12325895 0.11639852 -0.233942 0.34430632 -0.16134375 -0.25093824 0.48022532
0.33219168 -0.33545262 0.20491685 0.50080335 0.25432238 0.31279024 -0.16215597 0.19025217
0.2006143 0.025429323 0.18318027 0.108285904 0.029617986 -0.11991328 0.23912309 0.37857923
-0.15997821 0.031820398 -0.30410495 0.4755837 0.13847524 -0.21484233 -0.015041865 0.34269062
-0.019203022 0.22572793 -0.06801779 -0.008390528 0.0047286926 -0.12223811 0.33890465 0.20209675
0.45961976 0.1544031 0.29505613 0.15915965 0.13950399 0.013713603 0.035601553 0.41181162
0.17212494 -0.56771666 -0.036914133 0.31743348 0.09022108 0.19126128 0.04701088 0.13113557
0.16464418 0.19992115 0.18981647 -0.10101508 0.24499686 0.031387825 0.2725419 0.02873918
-0.08144226 0.20941879 -0.374801 0.4611546 0.13008271 -0.35694012 -0.015323609 0.33492047
0.11997179 0.02475047 0.10623672 0.11635393 0.16424552 0.21260245 0.25594923 0.11269943
-0.07286995 0.12078427 0.15502772 0.3870351 0.13044496 0.08955901 -0.13103104 0.4191548
0.17221124 -0.36119398 -0.37708735 0.036507178 0.2169718 0.33704355 -0.17829803 0.063314885
0.096159995 0.060130373 0.17657422 -0.14222519 -0.040620197 0.119657256 0.36678615 0.18582177
0.039087113 0.18577652 -0.20036104 0.5778357 0.05950166 -0.27285194 -0.25103858 0.29339626
-0.138115 -0.035273515 -0.062814966 -0.106187195 -0.07776762 0.1603207 -0.2231034 -0.14450654
-0.062121835 0.010721685 0.14675108 -0.16775146 -0.2682509 -0.12624523 -0.15096278 0.10108469
-0.1788213 -0.218951 -0.23284583 -0.09978091 -0.17026386 -0.013910183 -0.1098173 -0.05964226
-0.05944312 0.18787329 0.3938986 0.019411195 0.11421475 -0.13582897 0.14981562 0.40293068
-0.09997298 0.27617413 -0.11795588 0.44869125 0.12454933 -0.48299685 0.112680994 0.4359882
0.15503643 0.14735131 0.069001205 0.13174917 -0.097054385 0.1158303 0.20256594 -0.04848432
0.2789987 -0.13517743 0.3282657 0.23922639 -0.16669711 0.16281079 -0.17179738 0.43017665
0.27953616 -0.54754865 -0.12973332 0.46236354 0.11145008 -0.15724547 -0.13665982 0.10291852
0.12776521 -0.024491694 -0.00067246496 -0.1853819 0.44008824 -0.09790654 0.066833556 -0.22968927
0.38525975 -0.11043458 0.025837947 0.2679567 0.2957597 0.009287587 0.0028304541 0.16795601
-0.0725056 -0.0008974262 0.3091264 0.41037324 0.043030392 0.31044835 0.24053045 0.26079717
0.2109637 0.26012906 0.27257004 0.19758241 0.39675686 0.158082 0.37281844 -0.113550074
00000000: f4b5 963b 8867 e9bc 9e7b df3e 4c92 f23d
00000010: 8bfa 963e 7d1d a53e 8d14 c1be beb4 9d3e
00000020: 82bf aebe e4c4 bd3e 9c90 86bd 6f71 e8bd
00000030: 767a 2dbd ae0e a3bc 0da2 b93e 021e e5be
00000040: 3c88 e7bd d5da 163f ddc0 bc3d ca3e b4be
00000050: 064c b23c 52bf 543c b5c1 c5bd 815c fa3b
00000060: 1bbe 95be 98a5 3bbd 0264 083f 545c b5bd
00000070: ed10 073e a7a0 0dbd 102b 893e a858 d73e
00000080: 1ed9 aabd 3473 863e ec88 76be 0ed6 f43e
00000090: 1edc 22bd 8ac7 00bf 0a20 82be 2331 943e
000000a0: 3230 2f3e 17f3 d1bc c8be 1ebe e22d 953e
000000b0: fe20 673d 1753 ae3c 4282 be3d 862c 49be
000000c0: f167 1c3f 306f fc3d 5962 ee3d 7e8e 6fbe
000000d0: eb48 b03e 4c37 25be fa7a 80be 18e0 f53e
000000e0: 0715 aa3e 72c0 abbe b9d5 513e a634 003f
000000f0: 8b36 823e 0b26 a03e 370c 26be 77d1 423e
00000100: d66d 4d3e 2851 d03c 9c93 3b3e 00c5 dd3d
00000110: 6ba1 f23c 1895 f5bd afdc 743e 23d5 c13e
00000120: 54d1 23be 1b56 023d a5b3 9bbe b57f f33e
00000130: 74cc 0d3e a1ff 5bbe 2872 76bc 2575 af3e
00000140: a84f 9dbc 3925 673e e94c 8bbd 6d78 09bc
00000150: 26f3 9a3b f957 fabd e984 ad3e 73f2 4e3e
00000160: 4853 eb3e d91b 1e3e 9911 973e bffa 223e
00000170: 22da 0e3e 05af 603c efd2 113d f9d8 d23e
00000180: 8541 303e e155 11bf 4633 17bd a486 a23e
00000190: d4c5 b83d ffd9 433e 7b8e 403d 6748 063e
000001a0: 7c98 283e 21b8 4c3e 405f 423e ffe0 cebd
000001b0: 75e0 7a3e 8590 003d 9d8a 8b3e 6e6e eb3c
000001c0: 33cb a6bd e171 563e ebe5 bfbe 751c ec3e
000001d0: 6734 053e dbc0 b6be e00f 7bbc b27a ab3e
000001e0: c5b3 f53d 7fc1 ca3c a392 d93d f84a ee3d
000001f0: fa2f 283e 75b4 593e c70b 833e f5ce e63d
00000200: d73c 95bd be5d f73d 96bf 1e3e 7729 c63e
00000210: 5d93 053e b76a b73d 002d 06be 759b d63e
00000220: 2558 303e 6bee b8be 9811 c1be 8d88 153d
00000230: db2d 5e3e f990 ac3e c293 36be 3cab 813d
00000240: 88ef c43d 444b 763d dfcf 343e 7ba3 11be
00000250: 5d61 26bd dd0e f53d 65cb bb3e 1048 3e3e
00000260: cf19 203d 333c 3e3e 722b 4dbe 0aed 133f
00000270: 03b8 733d 40b3 8bbe 2188 80be 0938 963e
00000280: 056e 0dbe f67a 10bd 22a5 80bd ac78 d9bd
00000290: a144 9fbd 1c2b 243e 3875 64be 86f9 13be
000002a0: 7773 7ebd 02aa 2f3c ea45 163e 0ac7 2bbe
000002b0: 2f58 89be 6e46 01be fd95 1abe 7d05 cf3d
000002c0: ee1c 37be b134 60be 236f 6ebe ef59 ccbd
000002d0: a659 2ebe 89e7 63bc e5e7 e0bd 714b 74bd
000002e0: a17a 73bd db61 403e 14ad c93e 3a04 9f3c
000002f0: 6ce9 e93d c016 0bbe 4469 193e ee4c ce3e
00000300: a2be ccbd b266 8d3e da92 f1bd dcba e53e
00000310: b813 ff3d 5d4b f7be 4bc5 e63d d839 df3e
00000320: dfc1 1e3e 43e3 163e 8150 8d3d 41e9 063e
00000330: 73c4 c6bd 7038 ed3d 726d 4f3e 7f97 46bd
00000340: ebd8 8e3e f46b 0abe 7112 a83e c3f7 743e
00000350: a6b2 2abe dfb7 263e a7eb 2fbe 1d40 dc3e
00000360: 5d1f 8f3e 262c 0cbf d0d8 04be eaba ec3e
00000370: f13f e43d f504 21be 8df0 0bbe f2c6 d23d
00000380: e2d4 023e cea2 c8bc 5c48 30ba c1d4 3dbe
00000390: 3f53 e13e 3983 c8bd 08e0 883d aa33 6bbe
000003a0: c440 c53e 862b e2bd 1aaa d33c 9f31 893e
000003b0: d16d 973e f72a 183c 247f 393b a9fc 2b3e
000003c0: d17d 94bd 4141 6bba d145 9e3e 711c d23e
000003d0: a340 303d 16f3 9e3e 9d4d 763e 3587 853e
000003e0: de06 583e a32f 853e 4d8e 8b3e 0b53 4a3e
000003f0: b723 cb3e 3fe0 213e 0fe2 be3e f18c e8bd

fc2.bias f4 [20]
0.15435328 -0.018334877 0.035937604 0.14979401 -0.2370622 0.07191392 0.082146384 0.15232068
0.093250334 -0.10506012 -0.16856088 0.17107594 0.012941165 0.21748963 0.03718105 0.25316003
-0.20530328 -0.21412726 -0.170184 0.3682071
00000000: c90e 1e3e 0633 96bc 4f33 133d 9a63 193e
00000010: 6fc0 72be 9b47 933d 5d3c a83d f4f9 1b3e
00000020: 08fa be3d c329 d7bd 399b 2cbe 882e 2f3e
00000030: 2e07 543c 9ab5 5e3e 284b 183d 319e 813e
00000040: 063b 52be 2d44 5bbe b744 2ebe a485 bc3e

fc3.weight f4 [20, 20]
0.38444632 -0.35236827 -0.404901 0.11739129 -0.26446968 -0.10412603 -0.010723693 -0.23116161
-0.1024458 -0.30181283 -0.29868114 -0.17605853 0.31395313 0.16729717 0.17150456 0.15928909
-0.0034184197 -0.10211727 -0.13596527 -0.40969127 0.008218327 -0.16988368 -0.1658307 -0.0921537
-0.006582372 -0.20313996 0.1754016 -0.15206186 0.10471591 -0.20402747 -0.09718273 -0.009363763
0.108798936 -0.23751841 0.1533107 -0.23308153 -0.019125631 -0.08642755 -0.089609124 0.14823776
-0.09467712 -0.0623455 -0.14352864 0.18158977 -0.19622277 0.141541 -0.22670239 0.028498909
0.17902775 0.1426349 -0.2678249 -0.23191719 -0.26134834 -0.14963086 0.15636113 0.17098224
0.026930138 0.0340599 -0.19944842 0.1708532 0.25278905 0.45728543 0.15206026 -0.1163568
0.17144045 -0.09200132 0.06265916 -0.09778944 -0.050567992 0.08329397 0.22686148 0.03357199
0.09816774 0.058620926 -0.20798023 -0.25156012 -0.17419885 0.1709896 -0.19689551 0.24351409
-0.28915918 0.3986642 0.41574526 0.0957678 0.40471306 0.3040034 -0.10314039 0.16431344
-0.04287948 0.23605686 0.08255453 0.22261095 0.25482357 -0.0907918 -0.002265234 0.243561
-0.06468198 0.038235083 -0.036696605 0.1600256 0.5047778 -0.23389713 -0.3579688 -0.13616438
0.12526368 0.09835353 0.25837275 -0.02811483 0.25019544 -0.3817501 -0.20712738 -0.1531563
0.2742518 0.44077045 -0.0013687282 0.29331076 -0.11190573 -0.13441443 0.1298005 -0.23668295
0.12978308 0.3474238 0.11099549 -0.0134834405 0.2627979 0.10635408 0.06638865 0.20102379
-0.097503565 0.36725917 0.4140734 0.3051574 0.13170055 0.11153769 0.27507436 0.21050565
0.105620086 -0.17023668 -0.02494691 0.09670713 -0.103818186 0.18547921 0.28968632 0.16111773
0.07603108 0.21889807 0.10890479 0.22110981 0.16512008 0.34969184 0.2869932 0.028468654
0.03717401 -0.18109795 0.29573736 -0.03539824 0.02829743 0.12788625 -0.16801682 -0.055192783
0.36472887 -0.25623325 -0.45853657 -0.042747773 0.08648405 -0.026875596 0.18060589 0.09046242
-0.023345662 -0.24051833 -0.28800473 -0.2647375 0.0061136633 0.04976065 0.25925708 0.148442
-0.16860682 0.0983085 0.007895003 -0.5203478 -0.27634376 0.22549531 0.27510303 0.11458475
0.41260704 -0.07652588 0.25536513 -0.00013223855 -0.20027848 0.32752332 0.2649024 0.5403392
0.05090094 -0.04721418 0.22534245 0.25000295 -0.032723956 0.0631307 0.112417564 -0.07628911
-0.04296067 0.30365905 0.08716599 0.11436152 0.26737502 0.052322198 0.117950514 0.056730796
0.11925408 0.42610186 0.34984648 0.29862973 0.0263178 -0.15474048 -0.006147765 -0.082290106
0.18754087 -0.18047516 -0.1473005 0.16160138 0.14808194 -0.18127204 -0.31357548 0.21916622
-0.05741113 -0.03579004 -0.12880248 0.07324125 -0.0076479437 -0.3137892 -0.17085205 -0.015845278
0.039259758 0.20848082 0.2006148 0.022747682 -0.18966699 -0.12149387 -0.058451626 -0.10869651
0.2644768 -0.083481774 0.27845487 -0.23322895 -0.23560138 -0.15005156 -0.24494423 -0.23394829
0.13246824 -0.3182969 -0.3482049 0.218944 0.1534971 0.013761462 -0.2481293 -0.17145671
00000000: 26d6 c43e 9d69 b4be 2f4f cfbe d86a f03d
00000010: 9268 87be 0740 d5bd 6eb2 2fbc a1b5 6cbe
00000020: 1bcf d1bd 3687 9abe bcec 98be b048 34be
00000030: 77be a03e f34f 2b3e e49e 2f3e ae1c 233e
00000040: 9107 60bb dc22 d1bd 7b3a 0bbe 0ec3 d1be
00000050: 29a6 063c fdf5 2dbe 86cf 29be 14bb bcbd
00000060: f0b0 d7bb ec03 50be 7a9c 333e 1bb6 1bbe
00000070: 4c75 d63d 94ec 50be bd07 c7bd 786a 19bc
00000080: fad1 de3d 0738 73be 7bfd 1c3e edac 6ebe
00000090: 5bad 9cbc ed00 b1bd fd84 b7bd a4cb 173e
000000a0: 14e6 c1bd ff5d 7fbd 2cf9 12be abf2 393e
000000b0: 9fee 48be 20f0 103e ac24 68be 8b76 e93c
000000c0: 0d53 373e e20e 123e 5820 89be b37b 6dbe
000000d0: 73cf 85be d538 19be 221d 203e f815 2f3e
000000e0: 989c dc3c 6582 0b3d 353c 4cbe 24f4 2e3e
000000f0: 916d 813e 5121 ea3e afb5 1b3e 794c eebd
00000100: 168e 2f3e 306b bcbd 7253 803d d445 c8bd
00000110: 6220 4fbd 0796 aa3d 604e 683e c882 093d
00000120: 2b0c c93d 7f1c 703d c5f8 54be 7dcc 80be
00000130: 2f61 32be e617 2f3e fa9e 49be c25b 793e
00000140: ac0c 94be b71d cc3e 90dc d43e e921 c43d
00000150: 8d36 cf3e 55a6 9b3e 453b d3bd c841 283e
00000160: 65a2 2fbd e4b8 713e 5912 a93d 20f4 633e
00000170: 3c78 823e 0df1 b9bd 5274 14bb 0e68 793e
00000180: fc77 84bd 649c 1c3d 2e4f 16bd c0dd 233e
00000190: 1e39 013f bb82 6fbe b047 b7be ad6e 0bbe
000001a0: 1f45 003e 936d c93d 6f49 843e 1251 e6bc
000001b0: 9e19 803e c074 c3be 3319 54be 01d5 1cbe
000001c0: bb6a 8c3e aaac e13e e666 b3ba d42c 963e
000001d0: d52e e5bd f0a3 09be 6cea 043e 045d 72be
000001e0: dbe5 043e 88e1 b13e 9a51 e33d a6e9 5cbc
000001f0: 728d 863e 2bd0 d93d c6f6 873d 2ed9 4d3e
00000200: f3af c7bd 6509 bc3e 6e01 d43e 973d 9c3e
00000210: 82dc 063e df6d e43d 8cd6 8c3e cb8e 573e
00000220: 584f d83d 8652 2ebe 765d ccbc 630e c63d
00000230: a19e d4bd 43ee 3d3e c451 943e 0cfc 243e
00000240: 2fb6 9b3d d126 603e 7909 df3d 9c6a 623e
00000250: 3d15 293e cf0a b33e c6f0 923e 1837 e93c
00000260: c643 183d be71 39be e36a 973e bffd 10bd
00000270: 03d0 e73c 9df4 023e 9a0c 2cbe d411 62bd
00000280: bebd ba3e 0131 83be 4ec5 eabe 4a18 2fbd
00000290: 8d1e b13d 362a dcbc c0f0 383e 5c44 b93d
000002a0: 673f bfbc 704a 76be 5b75 93be ac8b 87be
000002b0: 2055 c83b d3d1 4b3d 58bd 843e 2e01 183e
000002c0: 44a7 2cbe f855 c93d 0b5a 013c 8335 05bf
000002d0: ee7c 8dbe 3ee8 663e 4eda 8c3e 69ab ea3d
000002e0: 3b41 d33e 9ab9 9cbd 38bf 823e 84a9 0ab9
000002f0: cd15 4dbe 23b1 a73e 4aa1 873e ab53 0a3f
00000300: 817d 503d a863 41bd 2cc0 663e 6300 803e
00000310: 8e09 06bd ab4a 813d 2e3b e63d 773d 9cbd
00000320: 87f7 2fbd 3379 9b3e 1584 b23d 5f36 ea3d
00000330: 61e5 883e cd4f 563d 0a90 f13d 8d5e 683d
00000340: 7c3b f43d 062a da3e 141f b33e ffe5 983e
00000350: 6d98 d73c 4a74 1ebe 3173 c9bb b787 a8bd
00000360: b70a 403e 7bce 38be f1d5 16be d57a 253e
00000370: cba2 173e 619f 39be f78c a0be 1c6d 603e
00000380: ef27 6bbd 9498 12bd cce4 03be 82ff 953d
00000390: 9a9b fabb faa8 a0be d7f3 2ebe f5cd 81bc
000003a0: d7ce 203d ff7b 553e f76d 4d3e 5959 ba3c
000003b0: 1038 42be c7d1 f8bd f96a 6fbd 479c debd
000003c0: 8169 873e 7ef8 aabd a391 8e3e 92d3 6ebe
000003d0: 7d41 71be 1ea7 19be a9d2 7abe 2490 6fbe
000003e0: c1a5 073e d0f7 a2be ea47 b2be db32 603e
000003f0: 582e 1d3e c177 613c 9b15 7ebe 5992 2fbe

fc3.bias f4 [20]
0.3814712 -0.17905708 -0.06715656 -0.2636987 -0.02097368 0.26690894 0.038912237 0.10725158
0.0072030607 0.09423265 -0.14435168 0.03439358 0.2430504 0.024306487 -0.20933464 -0.2380834
0.010513743 0.1086003 -0.36208588 0.08363828
00000000: 3150 c33e bd5a 37be 6189 89bd 8403 87be
00000010: ffd0 abbc 4aa8 883e 7062 1f3d b7a6 db3d
00000020: a707 ec3b 0cfd c03d edd0 13be 48e0 0c3d
00000030: 34e2 783e 661e c73c d25b 56be 23cc 73be
00000040: d641 2c3c d669 de3d 5263 b9be 8c4a ab3d

fc4.weight f4 [20, 20]
0.38290596 0.20799258 0.04592216 -0.46713176 -0.076661065 0.30911008 0.11013413 -0.116016485
0.13979618 -0.102122195 -0.025465874 0.29268938 -0.13608685 -0.08015841 0.068458386 -0.15751584
0.043914255 0.008831628 -0.43859905 -0.3790785 0.09405837 0.14085615 0.02794406 0.2150304
0.15389729 -0.03614148 -0.09979024 -0.2332739 0.035091173 -0.15460397 -0.2112662 -0.00016349962
0.48375118 -0.15921222 0.054916106 -0.12512861 -0.19528309 -0.1954005 0.28360617 0.37308776
0.2426994 0.21590242 -0.058886986 0.1643672 -0.35501352 0.2944806 -0.21892762 -0.65286803
0.07503583 -0.4503015 -0.3139099 0.13365121 0.5305488 -0.009259257 -0.15674263 -0.32037875
-0.3424722 -0.2190986 0.2765076 0.62453115 0.32944182 -0.19936246 0.03651836 -0.18988267
0.14653541 0.397312 0.051209033 -0.009099391 0.43253034 0.07232766 -0.19330794 0.38040864
-0.32110307 -0.1524765 0.20041555 -0.0018179042 0.31520146 -0.10431813 -0.23652036 -0.43961042
-0.112306476 -0.05963439 0.19410555 0.030898338 -0.10857472 -0.20297387 0.015978998 -0.18004405
-0.07691207 -0.20810942 -0.17381449 -0.19730297 0.1855432 0.19553922 -0.11026337 -0.13153715
0.020836841 0.03760246 0.09817754 -0.021908652 0.27006963 0.20020393 -0.09387379 0.24616347
-0.15078506 0.31450248 -0.08530459 -0.55006945 0.10125783 -0.51948565 -0.5097339 -0.04718731
0.48248774 0.046220236 -0.45060152 -0.17174141 -0.48872054 0.065208964 0.060840167 0.5219849
0.24015021 -0.21752839 -0.15350789 -0.34674966 -0.09533338 0.01979447 0.22632295 0.2762987
0.20258993 0.15951963 -0.08631335 0.31496635 -0.33859044 -0.17041221 0.07762501 -0.12048082
-0.08310262 0.04999901 -0.57061255 -0.5421473 0.2148556 0.20909443 -0.014507889 0.22321913
-0.14350285 0.110588774 -0.13191731 -0.11199113 -0.2225546 -0.2300601 -0.183028 0.088492684
0.4499767 -0.2095182 -0.025937986 -0.2038126 -0.12745191 0.17004506 0.20044066 0.2285736
0.036464006 -0.2011786 -0.106720194 -0.06727307 0.035022374 -0.19778574 -0.19207369 0.035977136
-0.023511384 -0.13404743 -0.07076797 0.19144183 -0.044573437 0.09443853 0.08626923 -0.04964955
0.03919871 -0.15444452 0.11526636 -0.12565492 -0.3010221 -0.11294346 0.17434302 0.12910013
0.31898916 -0.1153023 -0.0037684957 0.24371228 -0.27655783 0.07427626 0.33775726 -0.41257071
-0.02919535 -0.028127776 0.23008303 0.38354635 -0.0009349292 -0.14054085 0.46074682 0.030664088
-0.22704478 -0.010198163 0.06796252 -0.1836346 -0.12673733 -0.114790425 -0.046000764 -0.22704633
0.15933448 0.1599095 0.005732256 0.11550316 0.10170238 -0.08458012 -0.0113762 0.13581611
-0.23373741 -0.22871135 -0.081150934 -0.05172945 -0.41905636 -0.083469406 -0.17696632 0.30309582
0.2832637 -0.23336908 0.21985997 0.221438 -0.4332107 0.14877047 0.36241737 -0.22762804
0.08804616 -0.1292544 0.17752068 0.4056847 0.2901325 -0.20939332 0.33268908 -0.1541023
0.18794237 0.114443704 0.18400082 0.45877177 -0.008815197 0.07503355 0.15092099 -0.13505368
0.030081617 -0.1409348 0.057668585 -0.072734356 0.48519254 -0.0026906144 0.024504779 0.12689376
00000000: 400c c43e 02fc 543e e018 3c3d e52b efbe
00000010: 7a00 9dbd ad43 9e3e 018e e13d 0d9a edbd
00000020: bb26 0f3e 7125 d1bd cf9d d0bc 62db 953e
00000030: 5a5a 0bbe 182a a4bd e933 8c3d d54b 21be
00000040: 6fdf 333d 88b2 103c 0e90 e0be 9416 c2be
00000050: ada1 c03d 983c 103e f1ea e43c ee30 5c3e
00000060: 4097 1d3e 1709 14bd d35e ccbd 5adf 6ebe
00000070: c3bb 0f3d 8150 1ebe 2b56 58be 1871 2bb9
00000080: 3cae f73e 8708 23be b6ef 603d b721 00be
00000090: 4af8 47be 1217 48be d434 913e 5c05 bf3e
000000a0: 3186 783e 8615 5d3e 7b33 71bd e04f 283e
000000b0: 55c4 b5be 29c6 963e 902e 60be 5c22 27bf
000000c0: 63ac 993d eb8d e6be ccb8 a0be dddb 083e
000000d0: 0cd2 073f 24b4 17bc 2481 20be af08 a4be
000000e0: 8458 afbe 625b 60be 6792 8d3e 46e1 1f3f
000000f0: 99ac a83e ac25 4cbe 4794 153d 9a70 42be
00000100: 610d 163e 7a6c cb3e 90c0 513d 9d15 15bc
00000110: 9e74 dd3e 8620 943d 84f2 45be ecc4 c23e
00000120: 9f67 a4be cd22 1cbe bc39 4d3e be46 eeba
00000130: 1662 a13e bea4 d5bd 6532 72be 9e14 e1be
00000140: f000 e6bd 3143 74bd 9bc3 463e 831e fd3c
00000150: 6c5c debd 62d8 4fbe 63e6 823c 785d 38be
00000160: 1384 9dbd a31a 55be 6dfc 31be ca09 4abe
00000170: 09ff 3d3e 6f3b 483e c3d1 e1bd adb1 06be
00000180: 06b2 aa3c 0905 1a3d 4e11 c93d c679 b3bc
00000190: 9146 8a3e 4202 4d3e e740 c0bd 4712 7c3e
000001a0: 6667 1abe 7806 a13e 2cb4 aebd 5ad1 0cbf
000001b0: 4460 cf3d 03fd 04bf ec7d 02bf 7b47 41bd
000001c0: a208 f73e 6e51 3d3d 3eb5 e6be fbdc 2fbe
000001d0: 9439 fabe 478c 853d 8a33 793d cda0 053f
000001e0: f0e9 753e c3bf 5ebe 2c31 1dbe 2c89 b1be
000001f0: 263e c3bd 0328 a23c 34c1 673e 0677 8d3e
00000200: bc73 4f3e 1d59 233e 0ec5 b0bd 4543 a13e
00000210: ba5b adbe 8a80 2ebe dcf9 9e3d a6be f6bd
00000220: b531 aabd c3cb 4c3d aa13 12bf 2aca 0abf
00000230: 1b03 5c3e da1c 563e 7fb2 6dbc 8e93 643e
00000240: 69f2 12be 5e7c e23d 5515 07be 9b5b e5bd
00000250: 5ae5 63be e094 6bbe b16b 3bbe a73b b53d
00000260: 5963 e63e f08b 56be e67b d4bc 40b4 50be
00000270: c182 02be 4b20 2e3e 5140 4d3e 330f 6a3e
00000280: 485b 153d c301 4ebe 1e90 dabd 77c6 89bd
00000290: 9f73 0f3d 5888 4abe f7ae 44be c35c 133d
000002a0: f29a c0bc bb43 09be ccee 90bd 5409 443e
000002b0: a392 36bd fd68 c13d ecad b03d 545d 4bbd
000002c0: d48e 203d b426 1ebe c510 ec3d afab 00be
000002d0: 921f 9abe e74e e7bd fa86 323e d332 043e
000002e0: 8c52 a33e 9d23 ecbd def8 76bb b68f 793e
000002f0: fd98 8dbe 271e 983d 85ee ac3e 783c d3be
00000300: 162b efbc 396c e6bc e39a 6b3e 3060 c43e
00000310: 0916 75ba f1e9 0fbe 02e7 eb3e 4133 fb3c
00000320: 6d7e 68be 3216 27bc ef2f 8b3d b50a 3cbe
00000330: 6ec7 01be 3e17 ebbd 4c6b 3cbd d57e 68be
00000340: 9428 233e 51bf 233e a6d5 bb3b ec8c ec3d
00000350: 5649 d03d 5838 adbd 3e63 3abc 6113 0b3e
00000360: dc58 6fbe 4f33 6abe 7632 a6bd 42e2 53bd
00000370: 8e8e d6be 02f2 aabd a936 35be 602f 9b3e
00000380: f107 913e 4ef8 6ebe f922 613e a5c0 623e
00000390: cbcd ddbe 4957 183e c58e b93e 5317 69be
000003a0: 8c51 b43d 445b 04be fbc7 353e e8b5 cf3e
000003b0: 3f8c 943e 346b 56be 3956 aa3e fecc 1dbe
000003c0: f773 403e 7661 ea3d b66a 3c3e 22e4 ea3e
000003d0: 9e6d 10bc 31ab 993d 088b 1a3e 834b 0abe
000003e0: b96d f63c 3651 10be e535 6c3d c0f5 94bd
000003f0: 286b f83e 0555 30bb 3fbe c83c 70f0 013e

fc4.bias f4 [20]
0.28619614 0.2776471 0.05661223 0.31289825 -0.19056323 0.06664949 0.40571117 0.059928924
-0.0011873543 0.20760024 0.13988288 -0.18972792 -0.13042729 -0.18034919 0.24513444 0.070761755
0.13519104 -0.2695878 -0.26230735 -0.053943336
00000000: 4d88 923e c327 8e3e 3ae2 673d 3334 a03e
00000010: 0223 43be 877f 883d 60b9 cf3e 0878 753d
00000020: 00a1 9bba 2895 543e 753d 0f3e 0948 42be
00000030: bb8e 05be 75ad 38be 8604 7b3e 8aeb 903d
00000040: 856f 0a3e 6a07 8abe 264d 86be b0f3 5cbd

fc5.weight f4 [20, 20]
0.42793247 -0.36778224 -0.35555708 0.34453723 -0.0027754235 -0.50192225 0.18943627 -0.3887775
-0.0015031819 -0.30473313 -0.08552339 -0.038626462 -0.23297682 0.05423306 -0.07320955 0.031181877
-0.0319237 -0.40058935 -0.31227183 0.1310487 0.4204637 -0.17055285 -0.50198483 0.040751297
-0.12194332 -0.48198918 0.2569598 -0.06882315 -0.09533749 -0.0024450566 -0.032016285 -0.0100044925
-0.2369347 0.2691302 0.02075464 0.21764123 0.2156209 -0.29261294 -0.4439474 0.010915761
-0.28655002 0.52457094 0.643407 -0.023737583 0.031958874 0.46519798 -0.0443009 0.35701263
0.0997483 0.33009705 0.10036812 0.43403795 0.34099177 0.24450728 -0.032260988 0.12419416
0.21046017 0.1709764 0.31797624 0.15412112 0.06396252 0.40706474 0.6327136 -0.06436067
-0.13887583 0.2265757 -0.11473852 0.18022487 -0.13354687 0.2016294 -0.03699813 0.072643064
0.114476554 0.034415446 -0.26832944 0.0978501 0.23259595 0.5345731 0.45884824 0.085451014
-0.17874162 0.10238317 0.46511358 0.1657572 -0.20112261 0.47453123 -0.025671508 0.090845354
-0.057385143 0.14146364 -0.014370059 0.30130246 0.048700176 0.1386826 0.1128216 0.2230101
0.2078348 0.3780166 0.43675014 -0.20630985 0.1875422 -0.25721315 -0.42739123 0.25624433
0.108796574 -0.2230858 0.42396703 -0.3884598 0.13790417 -0.018032255 0.033857714 -0.2860173
-0.26904702 0.29850647 0.1491139 0.25302795 0.088266656 -0.31063876 -0.4767507 0.0244076
-0.2968711 0.53910625 0.43141153 0.17270331 -0.18724555 0.23261108 -0.16843879 0.12880012
0.00807486 0.4709342 -0.18996565 0.43646476 0.043763 0.030111114 -0.10401858 0.25649238
0.08512636 0.49483493 0.5310503 -0.011162155 0.21055894 0.08755331 0.47145894 0.0700274
-0.023770815 0.40860274 -0.18659587 0.4835202 -0.19660462 -0.2700037 0.14289737 0.12362189
0.59750867 -0.21801744 -0.23319425 -0.16484493 -0.22390771 -0.10513875 -0.14173108 0.20722468
0.08046496 0.35445246 0.5090979 0.075577736 -0.17859642 0.6483321 -0.10145514 0.41093153
0.16713962 0.026220143 -0.23077248 0.10357057 0.4076748 -0.2221312 -0.10899119 -0.0411633
-0.03997368 0.04816931 -0.2590083 -0.018161831 -0.21130452 0.5539475 0.4885677 -0.22815527
-0.19660363 0.6170524 -0.030764733 0.18615043 0.0463511 0.38336402 -0.14495157 0.31650242
0.47768778 0.12860227 0.10212349 0.15542957 0.21841311 0.5445826 0.394242 -0.18315968
0.43856782 -0.051586982 -0.60949826 0.2170693 -0.1806182 -0.33930144 0.35514224 -0.25936985
0.016815431 0.107420586 -0.09756148 -0.2971642 -0.13700591 -0.104874454 0.25940275 0.092801966
0.0006426934 -0.2660603 -0.45324343 0.19462849 0.4090265 -0.12155369 -0.25710553 0.27200973
0.17892206 -0.41908956 -0.00048827697 -0.3586498 -0.08641675 -0.29150802 0.13364728 -0.0791083
0.12314763 -0.19382037 0.39150858 -0.28667775 -0.027244037 -0.3273293 -0.01800972 -0.009473758
-0.18534687 0.053174924 -0.20660658 -0.13444778 0.14869659 0.014097909 0.13587305 0.13710512
0.22021951 -0.0080531 0.14967012 0.16035254 0.065457344 -0.20638147 0.09341803 -0.07251524
00000000: f719 db3e f44d bcbe 940b b6be 2f67 b03e
00000010: e1e3 35bb fa7d 00bf 95fb 413e d80d c7be
00000020: 6a06 c5ba fb05 9cbe e326 afbd c836 1ebd
00000030: 7a91 6ebe 7c23 5e3d e3ee 95bd 2371 ff3c
00000040: 6dc2 02bd 0c1a cdbe 18e2 9fbe a131 063e
00000050: 0547 d73e 68a5 2ebe 1482 00bf d5ea 263d
00000060: 6bbd f9bd 49c7 f6be 3c90 833e 27f3 8cbd
00000070: 4d40 c3bd 3e3d 20bb 8223 03bd e2e9 23bc
00000080: 039f 72be 6fcb 893e a305 aa3c 58dd 5e3e
00000090: bacb 5c3e 5dd1 95be 134d e3be 05d8 323c
000000a0: afb6 92be 484a 063f 52b6 243f 5275 c2bc
000000b0: 4fe7 023d 6e2e ee3e dc74 35bd 5cca b63e
000000c0: d648 cc3d 7b02 a93e cd8d cd3d 393a de3e
000000d0: 7996 ae3e 1e60 7a3e 1924 04bd 8259 fe3d
000000e0: df82 573e 7014 2f3e c8cd a23e edd1 1d3e
000000f0: c8fe 823d ca6a d03e 85f9 213f 87cf 83bd
00000100: 7735 0ebe 7603 683e 07fc eabd de8c 383e
00000110: 83c0 08be f077 4e3e 5a8b 17bd e3c5 943d
00000120: af72 ea3d 36f7 0c3d 7a62 89be a265 c83d
00000130: a22d 6e3e c8d9 083f 28ee ea3e f100 af3d
00000140: 0b08 37be 44ae d13d 5e23 ee3e 41bc 293e
00000150: 16f3 4dbe c2f5 f23e 0e4d d2bc 210d ba3d
00000160: af0c 6bbd d8db 103e 6570 6bbc 5144 9a3e
00000170: d679 473d d002 0e3e 030f e73d c25c 643e
00000180: a5d2 543e 648b c13e b79d df3e e442 53be
00000190: 100b 403e 71b1 83be 06d3 dabe 7532 833e
000001a0: bdd0 de3d 9b70 64be 3512 d93e 34e4 c6be
000001b0: c036 0d3e 61b8 93bc 63ae 0a3d dc70 92be
000001c0: 88c0 89be d7d5 983e 50b1 183e e18c 813e
000001d0: 26c5 b43d 0b0c 9fbe ab18 f4be 72f2 c73c
000001e0: 7dff 97be de02 0a3f f9e1 dc3e 23d9 303e
000001f0: 4cbd 3fbe 9931 6e3e 387b 2cbe 2ee4 033e
00000200: 6b4c 043c 4a1e f13e 5b86 42be 4f78 df3e
00000210: d540 333d 95ab f63c b107 d5bd f852 833e
00000220: bb56 ae3d 015b fd3e eaf2 073f 79e1 36bc
00000230: c39c 573e 264f b33d 1163 f13e 876a 8f3d
00000240: 03bb c2bc 6134 d13e fd12 3fbe f68f f73e
00000250: b952 49be ed3d 8abe b053 123e 792d fd3d
00000260: 54f6 183f f73f 5fbe 79ca 6ebe 1ccd 28be
00000270: 1048 65be fc52 d7bd f421 11be b532 543e
00000280: d0ca a43d cb7a b53e 3d54 023f 80c8 9a3d
00000290: fbe1 36be 18f9 253f b6c7 cfbd 9e65 d23e
000002a0: a626 2b3e a0cb d63c 9f4f 6cbe cf1c d43d
000002b0: c0ba d03e 5c76 63be c636 dfbd d99a 28bd
000002c0: 71bb 23bd 2f4d 453d bc9c 84be 1fc8 94bc
000002d0: 3660 58be 81cf 0d3f 8c25 fa3e 89a1 69be
000002e0: 7652 49be 25f7 1d3f 5206 fcbc 389e 3e3e
000002f0: a7da 3d3d 4a48 c43e 2f6e 14be 9b0c a23e
00000300: 7e93 f43e 50b0 033e 1f26 d13d ee28 1f3e
00000310: b0a7 5f3e c469 0b3f 16da c93e 368e 3bbe
00000320: f68b e03e df4c 53bd 1408 1cbf 6a47 5e3e
00000330: faf3 38be ebb8 adbe 34d5 b53e 20cc 84be
00000340: 84c0 893c 53ff db3d 50ce c7bd e825 98be
00000350: 474b 0cbe 6bc8 d6bd 70d0 843e f50e be3d
00000360: 6d7a 283a 0e39 88be 860f e8be b14c 473e
00000370: ec6b d13e 24f1 f8bd 56a3 83be dc44 8b3e
00000380: 5837 373e e892 d6be 6dff ffb9 f2a0 b7be
00000390: 44fb b0bd 8a40 95be d5da 083e 8803 a2bd
000003a0: d334 fc3d d978 46be d073 c83e 6dc7 92be
000003b0: e32e dfbc b597 a7be 1f89 93bc d237 1bbc
000003c0: 92cb 3dbe f3cd 593d ad90 53be aeac 09be
000003d0: eb43 183e ebfa 663c 4e22 0b3e 4965 0c3e
000003e0: 3981 613e 26f1 03bc 2043 193e 7533 243e
000003f0: 800e 863d aa55 53be f451 bf3d df82 94bd

fc5.bias f4 [20]
0.31897745 0.14670247 -0.07298633 0.00043081597 0.15297678 0.091057844 0.1332656 0.22448304
0.04843226 -0.017479671 0.2348085 -0.04012139 -0.18511514 -0.002881857 0.094844066 -0.16473104
-0.1147224 -0.41032913 0.16556948 0.031176854
00000000: 0351 a33e 2c39 163e db79 95bd 24df e139
00000010: f2a5 1c3e 897c ba3d c776 083e e2de 653e
00000020: e860 463d 8731 8fbc a471 703e 5456 24bd
00000030: d38e 3dbe 8add 3cbb 9b3d c23d 41af 28be
00000040: 94f3 eabd a916 d2be 0c8b 293e 9a66 ff3c

fc6.weight f4 [3, 20]
-0.23266284 0.0126532735 0.4205782 0.120690785 0.30605778 -0.06789295 0.43704334 0.22762837
0.40512776 0.5075096 -0.07124572 -0.23099978 -0.01631161 -0.13086177 0.17280848 0.5349136
-0.3269354 0.46963817 -0.24415416 -0.40415782 -0.41877168 -0.44390208 -0.4271056 -0.34159246
-0.37554362 -0.5094719 -0.30117673 -0.28010014 -0.23179021 -0.2039205 -0.35568136 -0.062498424
-0.076457106 0.009626375 -0.4060745 -0.31067768 -0.081194885 -0.40026757 -0.4845923 -0.5163537
0.32669878 0.21919866 -0.10427113 -0.43425608 -0.24687825 0.18654273 -0.09763095 -0.4705232
-0.480675 -0.27535468 0.28791428 0.372223 0.21465115 0.12066041 0.012105524 -0.3283873
0.42347386 -0.5373435 0.46905354 0.06860999
00000000: 2b3f 6ebe ad4f 4f3c 0756 d73e bb2c f73d
00000010: 9bb3 9c3e 750b 8bbd 25c4 df3e 6917 693e
00000020: e86c cf3e 26ec 013f 47e9 91bd 358b 6cbe
00000030: ed9f 85bc a100 06be b5f4 303e 19f0 083f
00000040: 1464 a7be 6a74 f03e 8c03 7abe c6ed cebe
00000050: 3e69 d6be 2247 e3be 96ad dabe 35e5 aebe
00000060: 4147 c0be c06c 02bf d633 9abe 4969 8fbe
00000070: 6a5a 6dbe 89d0 50be de1b b6be 59fe 7fbd
00000080: 8b95 9cbd f1b7 1d3c ffe8 cfbe 2511 9fbe
00000090: 8149 a6bd dfef ccbe 7b1c f8be c22f 04bf
000000a0: 1045 a73e 9d75 603e 1a8c d5bd d056 debe
000000b0: a7cd 7cbe 0f05 3f3e bcf2 c7bd 6be8 f0be
000000c0: 091b f6be 4afb 8cbe 8069 933e 0394 be3e
000000d0: 83cd 5b3e ce1c f73d 3f56 463c 6122 a8be
000000e0: 91d1 d83e 588f 09bf c927 f03e 6583 8c3d

fc6.bias f4 [3]
0.029926047 -0.41970548 0.2116727
00000000: 7827 f53c a3e3 d6be bac0 583e
