models_3val/xor_and_xor.pth (torch, 12210 bytes, 12 tensors)

fc1.weight f4 [20, 12]
0	0x3ec17463	0.3778411
1	0x3e72a4e6	0.23695716
2	0x3e43f0ae	0.19134781
3	0x3ed7282c	0.42022836
4	0x3cf74f61	0.030189218
5	0xbdf7bfd4	-0.12097135
6	0x3ddd042e	0.10791813
7	0xbdb81b15	-0.089895405
8	0x3e55552e	0.20833275
9	0xbafbea8e	-0.0019219683
10	0x3e75ece6	0.24016151
11	0xbc9ad5ee	-0.018900838
12	0x3e302527	0.17201672
13	0x3ed85974	0.42255747
14	0xbcbd70c9	-0.02312507
15	0xbddc3119	-0.10751552
16	0x3e231647	0.15926467
17	0x3e3ac252	0.1823819
18	0x3d29941a	0.041401006
19	0x3d5c0ecf	0.05372506
20	0x3e2727e9	0.16323818
21	0xbcb9a2d9	-0.02266066
22	0xbd853b88	-0.06505495
23	0xbdda0d48	-0.106470644
24	0x3d8fcd1b	0.07021543
25	0x3cab3a46	0.02090181
26	0x3ecf9386	0.4054224
27	0x3edfec2c	0.43734872
28	0xbcc9031b	-0.024537614
29	0xbd53dae5	-0.051722426
30	0xbd2f3dc5	-0.042783517
31	0x3ccde8b4	0.025135376
32	0xbd16fb61	-0.036860827
33	0x3dad6f20	0.08468461
34	0xbd12a60f	-0.035802897
35	0xbcef545a	-0.029215027
36	0x3ea22655	0.3166987
37	0x3e833857	0.2562892
38	0xbe074081	-0.132082
39	0xbe04c054	-0.12963992
40	0x3d396f7c	0.045272335
41	0x3ce4c644	0.027926572
42	0x3ccceeed	0.025016272
43	0x3b0e8ecc	0.0021752594
44	0xbc725972	-0.014791833
45	0x3d8b3746	0.06797652
46	0x3d86bbd1	0.06578792
47	0xba846076	-0.0010099548
48	0x3eb7c269	0.3589051
49	0x3ee678a5	0.4501392
50	0xbd0e6194	-0.034761027
51	0xbd2319ec	-0.039819643
52	0x3c89c17c	0.016815893
53	0xbd09434c	-0.033511445
54	0x3c9d6b14	0.019216098
55	0x3d45a0ae	0.04824894
56	0x3c9f04bd	0.01941144
57	0xbdb00a4c	-0.08595714
58	0x3e472932	0.19449309
59	0x3dab64a8	0.08368808
60	0x3e2c2c2a	0.16813722
61	0xbcb79485	-0.022409687
62	0x3e68e704	0.22744375
63	0x3e8ea5d6	0.27860898
64	0x3c214f02	0.009845497
65	0x3d057566	0.032582663
66	0x3e279269	0.16364445
67	0x3d470431	0.04858798
68	0x3e83f9ff	0.2577667
69	0x3dbc48d8	0.09193581
70	0x3e886462	0.26639086
71	0xbe356a26	-0.17716274
72	0x3f012bf1	0.50457674
73	0x3ee7419b	0.4516724
74	0xbe901c7d	-0.28146735
75	0xbe858225	-0.26075855
76	0x3d46ee27	0.048566964
77	0x3c234286	0.009964591
78	0x3bf15dfd	0.0073659406
79	0x3cca02d0	0.024659544
80	0x3db7b59d	0.08970187
81	0x3d27b0d6	0.04094013
82	0xbd5d1be1	-0.053981666
83	0xbc413ad3	-0.01179381
84	0x3d885a0b	0.06657799
85	0x3e9c1f06	0.3049242
86	0x3e99ea96	0.30061787
87	0x3ea29b00	0.3175888
88	0x3e891ccf	0.26779792
89	0x3b31e39e	0.0027143727
90	0x3e187a27	0.14890347
91	0xbc74fd5f	-0.0149529865
92	0xbbc373dd	-0.0059647397
93	0xbaa352f7	-0.0012460639
94	0xbd51d1ec	-0.051225588
95	0xbbab996d	-0.0052367956
96	0x3e9912fd	0.298973
97	0x3ded0873	0.11573877
98	0x3ebc87f6	0.3682248
99	0x3e68b6b6	0.22725949
100	0x3df122ca	0.117742136
101	0x3ded3242	0.115818515
102	0xbdb5f364	-0.08884314
103	0x3e15a8ce	0.14615175
104	0xbdb730bd	-0.08944843
105	0xbc1966f8	-0.009362929
106	0xbdffda0c	-0.12492761
107	0x3d981f7b	0.074278794
108	0x3e2e168f	0.17000793
109	0x3d95a8fc	0.07307622
110	0x3ebe18ec	0.3712839
111	0x3f08ad08	0.53389025
112	0xbd095509	-0.03352836
113	0xbd5ef93c	-0.054436907
114	0xbd49f5fc	-0.049306855
115	0xbdb8b5e8	-0.09019071
116	0xbd0e24e1	-0.03470314
117	0xbe6a1f2d	-0.22863455
118	0x3e4633eb	0.19355743
119	0x3e3c205e	0.18371722
120	0x3d8b446e	0.06800161
121	0xbc9ef5a7	-0.019404246
122	0x3e962e34	0.29332125
123	0x3edc9df9	0.43089274
124	0x3d68c896	0.05683192
125	0xbd4fd58b	-0.05074076
126	0xbc420619	-0.011842274
127	0x3c0ca210	0.008583561
128	0x3bf884c6	0.007584187
129	0xbcd34bf7	-0.025793059
130	0x3d195153	0.037431072
131	0xbd7d4863	-0.06183661
132	0x3f04c194	0.51857877
133	0xbf02989e	-0.51014125
134	0x3e1b182a	0.15145937
135	0xbde9c3dd	-0.11414311
136	0x3c96cfed	0.018409694
137	0x39e5c881	0.0004382767
138	0x3c6065fe	0.013696192
139	0x3cedbb71	0.029020043
140	0x3c0899bb	0.008337433
141	0x3ad2410e	0.0016041116
142	0x3c699068	0.014255621
143	0x3c05989a	0.008154059
144	0x3d787e23	0.06066717
145	0xbe200394	-0.15626365
146	0xbcf34558	-0.029696152
147	0xbd561529	-0.052266274
148	0x3df8a390	0.12140572
149	0x3d8fd5a7	0.07023173
150	0x3e0568c1	0.13028242
151	0x3d66a63f	0.05631089
152	0x3e82cfd5	0.25549188
153	0xbe082bd1	-0.13297965
154	0x3e3af822	0.18258718
155	0x3e494e6c	0.19658822
156	0x3f17cb74	0.5929482
157	0x3ef4a27c	0.47780216
158	0xbe8ab5bd	-0.2709178
159	0xbe7a4873	-0.244417
160	0xbd99bbab	-0.07506498
161	0xbd1af308	-0.03782943
162	0xbd580920	-0.052743077
163	0x3c8ba762	0.017047588
164	0xbd90118c	-0.07034597
165	0xbe0cbf77	-0.13744913
166	0x3e08f90a	0.13376251
167	0x3d73f5de	0.05956065
168	0x3ebeb527	0.37247583
169	0x3efa7490	0.48917055
170	0xbe9d92dd	-0.3077611
171	0xbed0766e	-0.40715355
172	0x3c3c4918	0.011492036
173	0x3c61e9a5	0.013788615
174	0x3bfa82e9	0.0076450002
175	0x3c4bc3b8	0.0124368
176	0x3baa1e76	0.0051916195
177	0x3c776dd7	0.015101871
178	0x3be8c751	0.0071038385
179	0x3bafa423	0.005360143
180	0x3eab4b87	0.3345606
181	0x3f1bd3f1	0.6087027
182	0x3e80dc9f	0.2516832
183	0x3d9c5dc3	0.07635071
184	0x3cb6c975	0.02231286
185	0xbc2fffbf	-0.010742127
186	0xbdd1be7e	-0.102414116
187	0x3e401795	0.18758996
188	0xbccf18c8	-0.025280371
189	0x3e2bf052	0.16790894
190	0x3d617aac	0.05504863
191	0x3c7a4f0e	0.015277637
192	0x3e7cb4d6	0.24678358
193	0xbda9d69f	-0.08292889
194	0xbeb0c4f4	-0.34525263
195	0x3ecfa3bc	0.40554607
196	0xbd5c1150	-0.053727448
197	0xbceba6da	-0.028766084
198	0xbd2aa19d	-0.041658033
199	0xbd8dd193	-0.06924739
200	0xbd05690a	-0.032570876
201	0xbd1bc1d7	-0.038026657
202	0xbd1bf5e8	-0.03807631
203	0xbcf9bd8c	-0.03048589
204	0x3e8649ae	0.26228088
205	0x3e319e85	0.17345627
206	0x3ed49ebe	0.4152736
207	0x3ee34046	0.44384974
208	0xbdf67942	-0.12034847
209	0x3de4c79e	0.111708865
210	0x3d11077c	0.03540753
211	0xbd6ff9b3	-0.05858774
212	0xbcfaadcc	-0.030600451
213	0xbd057c91	-0.0325895
214	0xbe11e0c8	-0.14245903
215	0x3d473a9c	0.04863988
216	0xbe727213	-0.23676328
217	0x3e8a94c2	0.27066618
218	0x3eb13074	0.3460728
219	0x3e720fe8	0.2363888
220	0x3e9c86a5	0.30571476
221	0x3e523ee5	0.20531805
222	0x3db91220	0.0903666
223	0x3e949564	0.29020226
224	0x3ea78843	0.32721147
225	0x3e156650	0.1458981
226	0x3e913ab7	0.28365108
227	0xbe095a12	-0.13413265
228	0xbed31763	-0.4122878
229	0xbecf028f	-0.4043164
230	0xbecf8f5d	-0.40539065
231	0xbf021163	-0.5080778
232	0x3daa1698	0.08305091
233	0x3c3ed726	0.011647975
234	0x3d26c7df	0.040717956
235	0x3dd3fcaa	0.10350926
236	0x3b957068	0.004560519
237	0x3e0fd98e	0.14047834
238	0x3c6898ba	0.014196569
239	0x3dc06826	0.09394865

fc1.bias f4 [20]
0	0x3e354200	0.17700958
1	0x3e27e2c3	0.16395096
2	0xbe2668c4	-0.16250902
3	0xbe04f45d	-0.12983842
4	0x3e4215ab	0.18953578
5	0x3db0e1b0	0.086367965
6	0xbe8a5fea	-0.27026302
7	0xbc95da10	-0.018292457
8	0xbded2079	-0.11578459
9	0x3d92f6bf	0.07175969
10	0xbe233d75	-0.15941413
11	0xbd988e57	-0.07449024
12	0x3e5fe62d	0.21865149
13	0x3e089e9b	0.13341753
14	0xbe5d3e65	-0.21605833
15	0x3d63f593	0.05565412
16	0x3e5a3b5d	0.21311708
17	0xbe78338b	-0.24238412
18	0x3ea758a7	0.32684824
19	0x3eec73cb	0.46182093

fc2.weight f4 [20, 20]
0	0x3e348ab5	0.17631038
1	0x3d19cbc9	0.03754786
2	0x3e3ffa27	0.1874777
3	0x3d6a41e0	0.05719173
4	0xbd20a66c	-0.039221212
5	0x3d93e82b	0.07222017
6	0x3e76e58a	0.24111
7	0xbe18ef1b	-0.14934961
8	0x3d2a7b61	0.04162157
9	0x3e713c22	0.23558095
10	0x3eb78050	0.35840082
11	0xbe065616	-0.13118777
12	0x3e19a450	0.15004086
13	0x3e8ec4e0	0.2788458
14	0x3e050247	0.1298915
15	0xbd4d68dd	-0.050148834
16	0xbe96fa23	-0.29487714
17	0x3d4979c2	0.049188383
18	0x3e4e9927	0.2017561
19	0x3f3ad19f	0.72976106
20	0x3df983e2	0.12183358
21	0x3e38c81b	0.18045084
22	0xbdf97529	-0.1218055
23	0x3ddb681d	0.107132174
24	0xbd027c75	-0.031856973
25	0xbe62b2b0	-0.22138476
26	0xbd899fdb	-0.06719943
27	0xbc7d77a5	-0.01547042
28	0xbcbab2e9	-0.02279039
29	0xbcc1aa1f	-0.02364069
30	0xbe4fb82a	-0.20285097
31	0x3d592d78	0.053021878
32	0xbe727297	-0.23676525
33	0x3e20637e	0.15662953
34	0xbe615cde	-0.22008082
35	0xbd1e2e91	-0.038618628
36	0xbe3d269a	-0.18471757
37	0x3c4c66f8	0.012475722
38	0xbc9c47df	-0.01907724
39	0xbb7eebfb	-0.003889798
40	0xbd2e4e85	-0.04255535
41	0xbe1bc287	-0.15210925
42	0x3eae38f2	0.3402782
43	0x3ddfe3aa	0.10932095
44	0xbc202835	-0.009775211
45	0x3e514434	0.20436174
46	0x3e2cb086	0.16864213
47	0xbe477b32	-0.19480589
48	0x3e6d7b67	0.23191606
49	0xbdee0ec7	-0.11623912
50	0x3eb97c01	0.3622742
51	0xbe0a39b9	-0.13498582
52	0xbbcbccab	-0.0062194667
53	0x3e600525	0.21876962
54	0x3eb29342	0.34877974
55	0xbe5ececf	-0.21758579
56	0xbe8ffcc8	-0.28122544
57	0x3e2a3108	0.16620266
58	0xbcf45125	-0.029823849
59	0x3e69738d	0.22797985
60	0xbd2749ab	-0.04084174
61	0xbe0c7aa3	-0.13718657
62	0x3ea3799a	0.31928712
63	0x3e96803b	0.29394707
64	0xbeacdc46	-0.33761805
65	0xbda0b9a1	-0.07847906
66	0x3e519cff	0.20470046
67	0xbd6bd7a8	-0.057578713
68	0xbd8338a1	-0.064072855
69	0x3ba23b25	0.0049508982
70	0x3e32ca4b	0.17459981
71	0xbe41fff2	-0.18945292
72	0x3de976e2	0.11399628
73	0x3ebc48f2	0.36774403
74	0x3ed44537	0.41459057
75	0xbe232f47	-0.15936004
76	0xbde59002	-0.11209108
77	0x3e0ac77d	0.13552661
78	0x3de31aa5	0.110890664
79	0x3eba4d23	0.36386976
80	0xbe4d8940	-0.20071888
81	0x3e074561	0.1321006
82	0xbe827b62	-0.2548476
83	0x3e329b71	0.17442109
84	0x3e9bd209	0.30433682
85	0xbeaa1c6c	-0.3322481
86	0x3e932c1a	0.28744584
87	0xbeb3546f	-0.35025355
88	0xbf004fe7	-0.5012192
89	0xbeac8d92	-0.3370176
90	0xbcf8561f	-0.030314503
91	0x3db79496	0.089638874
92	0x3e5d541d	0.21614118
93	0x3d9ddea1	0.07708479
94	0x3e633efd	0.22191997
95	0xbe2bf605	-0.16793068
96	0x3ee64a66	0.44978637
97	0xbecca82e	-0.3997206
98	0x3d722d3b	0.059125166
99	0x3eaa6e71	0.33287385
100	0x3e2c6af4	0.16837674
101	0xbe0f78ca	-0.14010921
102	0x3e801244	0.25013936
103	0x3dff66dc	0.12470791
104	0xbeb44789	-0.35210827
105	0xbbc16197	-0.005901526
106	0x3e7bd477	0.24592768
107	0xbbc9e944	-0.0061618406
108	0x3e1029a1	0.1407838
109	0x3c9e4c01	0.01932335
110	0x3d10e68f	0.035376128
111	0xbe819f2f	-0.2531676
112	0x3cd0e459	0.02549951
113	0x3e8ff8f2	0.28119618
114	0x3e15139f	0.14558266
115	0xbd1eb468	-0.038746268
116	0xbe5e4412	-0.21705654
117	0x3df7f0a0	0.121064425
118	0x3dbea9ec	0.09309754
119	0x3d8a9b13	0.06767859
120	0xbd9f4306	-0.077764556
121	0x3cae4d7d	0.021277184
122	0x3ecd168a	0.40056258
123	0x3eb48529	0.35257843
124	0xb7854903	-1.5888834e-05
125	0x3d2db7f8	0.042411774
126	0x3e002b14	0.12516433
127	0x3dd8b46a	0.10581286
128	0x3ddbb330	0.10727537
129	0xbd85b67a	-0.06528945
130	0x3ebb084f	0.36529776
131	0xbe9f16bb	-0.3107203
132	0x3e49643e	0.19667146
133	0x3e571b24	0.21006447
134	0x3ece6070	0.4030795
135	0xbe189adf	-0.14902829
136	0xbe5af898	-0.21383893
137	0x3d9ae57c	0.07563302
138	0xbdab18ab	-0.083543144
139	0x3dc3f48a	0.095681265
140	0x3db8ead9	0.09029169
141	0xbd8cac67	-0.06868821
142	0x3e51d343	0.20490746
143	0x3de7367b	0.11289688
144	0x3d5a9652	0.053366013
145	0xbdad22c7	-0.08453899
146	0x3edf912f	0.43665454
147	0x3e38238b	0.17982309
148	0xbb16fd4c	-0.002303916
149	0x3d72b56c	0.05925505
150	0x3e67cf23	0.2263761
151	0xbed0a695	-0.40752092
152	0xbd8ec98c	-0.06972036
153	0xbcd06b01	-0.025441648
154	0x3e1752e4	0.14777714
155	0xbe083f33	-0.13305359
156	0xbc8fd15a	-0.017555881
157	0xbae354c6	-0.001734399
158	0x3e0d412f	0.13794397
159	0x3ee3bab0	0.4447837
160	0x3dac5ee2	0.08416535
161	0xbe539ccb	-0.2066528
162	0xbdd5299c	-0.10408327
163	0x3dcdc252	0.10046829
164	0x3e24e0aa	0.16101328
165	0x3d536f15	0.051619608
166	0x3e144add	0.14481683
167	0x3e3beeb9	0.18352784
168	0xbd36004f	-0.044433888
169	0xbe47eb98	-0.19523466
170	0xbe635b4a	-0.22202793
171	0xbd83ec65	-0.06441573
172	0x3d7b7ac3	0.06139637
173	0xbd21b22e	-0.039476566
174	0xbda8d6a4	-0.082440645
175	0xbe2e05dc	-0.16994423
176	0xbd444b0b	-0.04792313
177	0x3e3cf9b0	0.18454623
178	0xbdc7ccc3	-0.09755852
179	0xbe29e271	-0.16590287
180	0xbece1fd3	-0.40258655
181	0xbc07e0b2	-0.008293318
182	0x3e8ea8b4	0.27863085
183	0x3e7f0a79	0.24906339
184	0xbe0ab468	-0.13545382
185	0xbd617df0	-0.055051744
186	0x3d9fbff0	0.07800281
187	0xbe602209	-0.21887983
188	0xbe61ab89	-0.22038092
189	0xbc8e282a	-0.017353136
190	0xbd8aede6	-0.06783657
191	0x3da621cf	0.08111917
192	0x3e011cfc	0.12608713
193	0x3e832a18	0.25618052
194	0x3e825a6a	0.25459605
195	0xbebea326	-0.37233847
196	0x3e485e50	0.19567227
197	0xbe16d1a5	-0.1472841
198	0x3e8a5847	0.27020475
199	0x3ea624dd	0.3245
200	0xbdb884ef	-0.0900973
201	0xbe33a2bd	-0.17542548
202	0xbc89d8a9	-0.016826944
203	0xbd897bec	-0.06713089
204	0xbe1822d4	-0.14857036
205	0xbe70b4e6	-0.23506507
206	0xbdbf5e71	-0.09344185
207	0xbe50d1d3	-0.20392542
208	0x3dd4a062	0.10382153
209	0x3e0ad2e8	0.13557017
210	0x3d2b13bd	0.04176687
211	0x3b26a80d	0.0025429756
212	0xbc25055c	-0.010072079
213	0x3ca088f9	0.019596564
214	0xbe157aae	-0.1459758
215	0xbdb6a6cb	-0.08918532
216	0x3e199a35	0.15000232
217	0xbe116887	-0.1420003
218	0xbd4926ac	-0.049109146
219	0x3d276952	0.040871926
220	0xbe0f56c7	-0.13997947
221	0xbe78ea78	-0.24308193
222	0x3e1be0bf	0.15222453
223	0x3e2754e0	0.16340971
224	0xbdac1aca	-0.08403547
225	0x3db0aca0	0.086266756
226	0x3d1dd473	0.038532685
227	0xbe172e59	-0.14763774
228	0x3e79924b	0.24372213
229	0x3e7401a1	0.23828746
230	0x3e9f4d2e	0.3111357
231	0xbd46924c	-0.048479363
232	0xbe08e900	-0.13370132
233	0xbd5a1ea5	-0.05325188
234	0x3ebc1dd0	0.36741495
235	0xbe4937dc	-0.19650215
236	0xbeb0eab3	-0.3455406
237	0x3e83e370	0.2575946
238	0x3e5f74c6	0.2182189
239	0x3e39bf3c	0.18139356
240	0x3db8118f	0.08987724
241	0xbe0778ad	-0.13229628
242	0x3eff56fa	0.49871045
243	0x3e1dd55f	0.15413426
244	0xbd070011	-0.032959048
245	0xbdc87a27	-0.09788924
246	0x3e3dc0fb	0.18530647
247	0xbda1a0cd	-0.078919984
248	0xbe117a0d	-0.14206715
249	0x3e7971d9	0.24359836
250	0x3eda1413	0.4259344
251	0xbe2c4f5d	-0.1682715
252	0x3e335ba3	0.17515425
253	0x3d049554	0.032368973
254	0x3e667f20	0.22509432
255	0xbe8603ac	-0.26174676

fc2.bias f4 [20]
0	0x3e6f9c71	0.23399521
1	0xbe6d9516	-0.23201403
2	0x3e57c3f7	0.21070848
3	0xbd96c3cc	-0.07361564
4	0x3ef9df03	0.48802957
5	0xbe886584	-0.2663995
6	0xbe5f66ab	-0.21816508
7	0x3e5d4c4d	0.21611138
8	0xbe718c3c	-0.23588651
9	0x3ef09d7e	0.46995157
10	0xbda124b1	-0.078683265
11	0xbdeab428	-0.11460143
12	0xbd5fb03b	-0.054611426
13	0x3e985822	0.2975474
14	0xbe771d0e	-0.24132177
15	0xbeba07b3	-0.36334
16	0xbebe577d	-0.37176123
17	0xbde95198	-0.11392516
18	0x3d92ef15	0.071745075
19	0x3e9f350f	0.31095168

fc3.weight f4 [20, 20]
0	0x3d898072	0.06713952
1	0x3d3f4fad	0.046706844
2	0xbe3bd478	-0.18342769
3	0xbe27c6fd	-0.16384502
4	0xbe25d04b	-0.16192739
5	0xbe5b927c	-0.21442598
6	0x3dbd3d35	0.0924019
7	0x3dd9bfd9	0.10632295
8	0x3e355f86	0.1771222
9	0xbe60faff	-0.21970747
10	0xbdc4174e	-0.095747575
11	0x3da8efdc	0.082488745
12	0xbe30f58e	-0.17281172
13	0xbd28b425	-0.041187424
14	0x3e23a843	0.15982156
15	0xbe09bfb9	-0.13452043
16	0xbe1d8f45	-0.15386684
17	0xbe241400	-0.16023254
18	0xbe2ef93a	-0.1708726
19	0xbcd24406	-0.025667202
20	0x3b6f03fa	0.0036470876
21	0xbe16cb1e	-0.1472592
22	0x3e35230c	0.1768915
23	0x3eac68d7	0.33673736
24	0x3e9595ab	0.2921575
25	0xbbf107d4	-0.0073556695
26	0x3e6dd647	0.23226272
27	0xbd8877de	-0.06663488
28	0x3ddb2812	0.10701002
29	0x3e6c79a5	0.23093279
30	0xbe0a44ad	-0.1350276
31	0x3daa5b5f	0.08318209
32	0x3e27cd07	0.16386805
33	0x3f02189d	0.50818807
34	0x3e5329ce	0.20621416
35	0x3e4a2224	0.19739586
36	0x3de72944	0.11287168
37	0xbd84f7a8	-0.06492549
38	0x3e1fe317	0.15613972
39	0xbddc6aca	-0.10762556
40	0x3e72276b	0.2364785
41	0x3cf2c395	0.029634276
42	0x3ebe911a	0.3722008
43	0x3f098e21	0.53732497
44	0x3e858a32	0.26081997
45	0x3dff9537	0.12479632
46	0x3efc64b6	0.49295586
47	0x3e7dbe62	0.24779657
48	0xbdf92359	-0.12164945
49	0x3f13a322	0.57670796
50	0xbe5b39e2	-0.214088
51	0x3d87c28c	0.06628904
52	0x3ea2991f	0.31757447
53	0x3ed1afce	0.4095444
54	0x3ea88634	0.3291489
55	0x3ec74e76	0.38927048
56	0x3de7bd15	0.113153614
57	0x3eeac7ca	0.45855552
58	0x3ebb0de5	0.36534038
59	0x3dbecf00	0.09316826
60	0xbe5a013b	-0.21289532
61	0x3e46a3ed	0.1939847
62	0x3e1852af	0.14875291
63	0xbe17927f	-0.14801978
64	0x3e242d3b	0.16032879
65	0x3e14765e	0.14498278
66	0x3b88028b	0.004150694
67	0x3e033fd0	0.12817311
68	0xbdcda0b5	-0.10040418
69	0x3d7bb5f5	0.061452825
70	0xbde0e694	-0.10981479
71	0xbdc3e4bb	-0.09565111
72	0xbd78eccd	-0.060772706
73	0x3d8566fb	0.065137826
74	0x3e1200c9	0.14258112
75	0xbe666360	-0.22498846
76	0xbde3968a	-0.111126974
77	0xbe715795	-0.23568566
78	0x3d7b79ac	0.061395332
79	0xbe7336fd	-0.23751445
80	0x3e3457f9	0.17611684
81	0xbe2ba55e	-0.16762301
82	0xbe237ffc	-0.15966791
83	0xbef5c9e9	-0.48005608
84	0xbede02f7	-0.43361637
85	0xbe721297	-0.23639904
86	0xbefb02c3	-0.49025545
87	0x3e8cbd0e	0.27487987
88	0x3e3febf5	0.18742354
89	0x3de7630e	0.1129819
90	0xbe240d3a	-0.1602067
91	0xbec45926	-0.38349265
92	0x3dbb7943	0.09153988
93	0xbe3652b2	-0.17804983
94	0xbe317534	-0.17329866
95	0xbe33b7aa	-0.17550531
96	0xbd909c44	-0.07061055
97	0xbe316f98	-0.17327726
98	0xbd5b7ed6	-0.053587757
99	0x3ecae8e8	0.39630818
100	0x3f01de9d	0.50730306
101	0x3dce49eb	0.100726925
102	0x3ed6e0eb	0.41968474
103	0xbcc83551	-0.024439486
104	0x3e8580e4	0.26074898
105	0x3e75d98e	0.24008772
106	0x3e2b6030	0.16735911
107	0x3ecc4e75	0.39903608
108	0x3e4b8a6e	0.19877025
109	0x3f3fcb00	0.7491913
110	0xbe33bee0	-0.17553282
111	0x3e75a02d	0.23986883
112	0x3e2d367c	0.16915315
113	0x3dd377b6	0.103255674
114	0x3ec9b4e9	0.39395836
115	0x3e98dcf8	0.29856086
116	0x3e6157e8	0.2200619
117	0x3eeccb73	0.4624897
118	0x3e62d8c4	0.22153002
119	0x3ed1017f	0.40821454
120	0x3da90f9f	0.082549326
121	0x3e4aa3aa	0.19788995
122	0x3dd73e9a	0.10509987
123	0x3f02edbf	0.5114402
124	0x3f059938	0.5218692
125	0x3eb1ab87	0.34701177
126	0x3e6a94c4	0.22908312
127	0x3d146e41	0.03623796
128	0xbe5ff85e	-0.21872088
129	0x3e0adade	0.13560054
130	0x3dca317e	0.09872721
131	0x3d2e8da3	0.042615544
132	0x3e544b33	0.20731811
133	0x3e766b5b	0.2406439
134	0x3e159761	0.14608528
135	0x3e5d57aa	0.21615472
136	0x3cc35d97	0.023848338
137	0x3e281241	0.16413213
138	0x3ea31e2a	0.3185895
139	0xbe17bd40	-0.14818287
140	0x3d8b7639	0.068096586
141	0xbdf6938f	-0.12039863
142	0x3eeb05d4	0.45902884
143	0x3f185c14	0.595155
144	0x3f0838c6	0.5321163
145	0x3e2105bb	0.15724842
146	0x3ecc02e1	0.39845946
147	0x3e44c9f3	0.19217663
148	0x3cc2a271	0.023759099
149	0x3ea38849	0.31939915
150	0x3e3751d1	0.17902304
151	0x3ea43008	0.32067895
152	0x3e8ec68d	0.27885857
153	0x3ebe8fa2	0.37218958
154	0x3ee84378	0.45363975
155	0x3eacc7a5	0.33746067
156	0x3ec90b68	0.39266515
157	0x3e090498	0.13380659
158	0x3ebb79e1	0.36616424
159	0xbe359736	-0.17733464
160	0xbe5ac897	-0.21365581
161	0xbd2a0cdc	-0.04151617
162	0xbd00c423	-0.03143705
163	0xbe58482b	-0.2112128
164	0x3e4554b1	0.19270588
165	0xbe274178	-0.16333568
166	0xbdf94a9c	-0.12172434
167	0xba83ec6f	-0.001006497
168	0x3b75fcc3	0.003753469
169	0x3e396b86	0.18107423
170	0x3db1f1eb	0.0868872
171	0xbdf35263	-0.118809484
172	0x3e101e40	0.1407404
173	0xbdb05380	-0.08609676
174	0xbd008fe9	-0.031387243
175	0xbe5b9b26	-0.21445903
176	0x3dfd32ef	0.123632304
177	0x3e471865	0.194429
178	0xbe67b5d3	-0.22627954
179	0xbdcf0821	-0.10108972
180	0xbd536d67	-0.051618006
181	0xbe3c5cce	-0.18394777
182	0x3e67a1a8	0.2262026
183	0x3e8f98c3	0.28046235
184	0x3f2b620b	0.66946477
185	0x3efdd6ac	0.49577844
186	0x3eaacecf	0.33360907
187	0x3c78ef37	0.015193752
188	0xbcf2be61	-0.029631795
189	0x3ebeac91	0.37241033
190	0x3e5592fa	0.20856848
191	0x3efbafd7	0.49157593
192	0x3ee0e206	0.43922442
193	0x3f1ca1e8	0.6118455
194	0x3f028847	0.5098919
195	0x3eef31fa	0.46717817
196	0x3e27dad4	0.1639207
197	0x3eddb988	0.43305612
198	0x3eede65a	0.46464807
199	0xbe2d9cd9	-0.16954364
200	0xbde15ff2	-0.11004628
201	0x3d367dc0	0.04455352
202	0x3e0fe537	0.14052282
203	0xbdaf3168	-0.08554345
204	0xbe58f089	-0.21185507
205	0xbd09067e	-0.033453457
206	0x3e44828a	0.19190422
207	0xbded5bce	-0.11589776
208	0xbe655352	-0.22395065
209	0x3e03813a	0.12842265
210	0xbe2c50ed	-0.16827746
211	0xbe4479eb	-0.19187133
212	0xbdfd6fb8	-0.12374824
213	0x3d93443a	0.071907476
214	0xbe66ab89	-0.22526373
215	0xbe5173b3	-0.20454292
216	0x3e448ce4	0.1919437
217	0x3e5be18d	0.2147276
218	0x3dc09917	0.094041996
219	0xbe018479	-0.1264819
220	0xbdaf9399	-0.08573074
221	0x3e1093ad	0.14118834
222	0x3e9980c6	0.2998106
223	0x3eb8b1f5	0.3607327
224	0x3f15f942	0.5858346
225	0x3f07f6d8	0.5311103
226	0x3e9fd92c	0.31220376
227	0x3e136ac3	0.14396195
228	0x3c82efb0	0.015983433
229	0x3e6444b8	0.22291839
230	0xbdee4119	-0.1163351
231	0x3ecb5433	0.39712676
232	0x3e8f793c	0.28022182
233	0x3e7b7d2d	0.2455947
234	0x3eff9885	0.4992105
235	0x3eb4d0f7	0.35315678
236	0x3e41d5b4	0.18929178
237	0x3edb2e29	0.42808655
238	0x3ef60984	0.48054135
239	0xbe695db2	-0.22789648
240	0xb98c85dc	-0.00026802614
241	0xbe5acd39	-0.21367349
242	0x3d010b47	0.031504896
243	0xbddcbe74	-0.107785136
244	0x3c9933ae	0.0187014
245	0xbd478dfe	-0.0487194
246	0xbdd658b7	-0.1046614
247	0x3d38e75a	0.04514251
248	0x3e43c6c4	0.19118792
249	0xbe624bf9	-0.22099294
250	0x3e48a83d	0.19595428
251	0x3e1c5df8	0.15270221
252	0xbdc7d610	-0.09757626
253	0x3db06ec9	0.086148806
254	0x3cdef7e2	0.02721781
255	0xbe5d0834	-0.2158516

fc3.bias f4 [20]
0	0xbe34a039	-0.17639245
1	0x3e756685	0.2396489
2	0x3e4e08b0	0.20120502
3	0xbd3250d2	-0.043534108
4	0x3e175c08	0.14781201
5	0x3e84c5f0	0.25932264
6	0x3ba67179	0.005079445
7	0xbe89e422	-0.26931864
8	0xbe5e245d	-0.21693559
9	0xbe2fa22c	-0.17151707
10	0xbdc5ff09	-0.09667785
11	0x3d02f609	0.03197292
12	0xbe5e24fb	-0.21693794
13	0xbe0ffb17	-0.14060627
14	0xbe60c1da	-0.21948949
15	0xbd62fd1f	-0.055417176
16	0xbe4b0954	-0.19827777
17	0xbe699c5f	-0.22813557
18	0x3eccca4a	0.39998084
19	0x3ebf08db	0.37311444

fc4.weight f4 [20, 20]
0	0x3e54d267	0.20783387
1	0xbeea3cf2	-0.45749623
2	0x3ea5d8e3	0.32392034
3	0xbe1d1856	-0.15341315
4	0x3e3c93ed	0.18415804
5	0x3ea701cc	0.32618558
6	0xbe179e40	-0.14806461
7	0xbea61163	-0.3243514
8	0xbe2ece36	-0.1707085
9	0xbe810985	-0.25202575
10	0x3e482668	0.19545901
11	0xbea14364	-0.31496727
12	0xbe250e59	-0.16118754
13	0x3e1d8740	0.15383625
14	0xbe54385b	-0.20724623
15	0xbe057d18	-0.13036
16	0x3bc71679	0.006075677
17	0x3e204d6f	0.15654539
18	0x3e14b105	0.14520653
19	0xbf16c77e	-0.5889815
20	0xbe0823a6	-0.13294849
21	0xbdb9e58d	-0.090769865
22	0xbda601b3	-0.08105793
23	0xbdfb08c9	-0.12257535
24	0x3ea11d15	0.314675
25	0x3e4fb65a	0.20284405
26	0xbed25001	-0.41076663
27	0xbe74fdef	-0.23924993
28	0xbdc01772	-0.09379472
29	0xbd8e25c4	-0.06940797
30	0xbe1c3178	-0.15253246
31	0xbdf41642	-0.11918308
32	0x3d665f2d	0.05624311
33	0xbd2e4052	-0.04254181
34	0xbd125326	-0.035723828
35	0xbec34eae	-0.38145965
36	0xbdedacf2	-0.11605252
37	0xbe34b088	-0.17645466
38	0x3dad32dc	0.08456966
39	0xbe783d6a	-0.24242178
40	0x3dc9d9f3	0.09856024
41	0x3ea85d62	0.32883745
42	0x3e7bda16	0.24594912
43	0xbc71640d	-0.014733327
44	0xbe0cbcbb	-0.1374387
45	0xbdb84271	-0.08997048
46	0x3e145bc5	0.14488132
47	0x3e5466b5	0.20742305
48	0xbe29ae65	-0.16570432
49	0x3ec94ee1	0.39317992
50	0x3e5c15d3	0.214927
51	0x3eae66ce	0.3406281
52	0xbe03eaa6	-0.1288248
53	0xbc55bf4f	-0.0130461
54	0xbe014148	-0.12622559
55	0x3f111b78	0.5668254
56	0x3d42c927	0.047555115
57	0x3e769d27	0.24083386
58	0xbe088747	-0.13332854
59	0x3ec57ac0	0.38570213
60	0x3e1c3a51	0.15256621
61	0x3e4f8147	0.20264159
62	0xbd51ef14	-0.051253393
63	0xbdff6c45	-0.12471823
64	0x3da43b84	0.08019164
65	0xbc8c5d7c	-0.01713442
66	0x3e7c8056	0.24658331
67	0x3d29386f	0.041313585
68	0xbe57ad9e	-0.21062323
69	0x3ec7c9e4	0.39021218
70	0xbc07a623	-0.008279356
71	0x3eadd909	0.33954647
72	0x3da17ed4	0.07885519
73	0x3e49cff6	0.19708237
74	0x3de28fbf	0.11062574
75	0x3ddd9943	0.10820248
76	0xbe0a75c0	-0.1352148
77	0xbd8d94dc	-0.06913158
78	0xbde73ddd	-0.11291096
79	0x3ec8a7c1	0.39190486
80	0x3b12e0d3	0.0022411838
81	0x3e3c4879	0.18387021
82	0x3e81c4d2	0.25345474
83	0x3de651fc	0.11246106
84	0xbeb7930f	-0.35854384
85	0x3df48277	0.11938947
86	0x3ea2607b	0.31714234
87	0x3f0104b8	0.50397825
88	0xbe16d127	-0.14728223
89	0x3f17ba1a	0.59268343
90	0xbdaf429f	-0.08557629
91	0x3e977bda	0.2958668
92	0xbda26fb2	-0.079314604
93	0x3e90eeb6	0.28307122
94	0xbe03a37a	-0.1285533
95	0x3e8520c1	0.26001552
96	0xbe574c34	-0.21025163
97	0x3e2ba8ec	0.16763657
98	0x3d604fbb	0.054763537
99	0x3e9cce30	0.3062606
100	0x3dc72cfd	0.09725378
101	0x3e9e9418	0.30972362
102	0x3ef2476c	0.47320116
103	0x3e59f198	0.21283567
104	0xbeaa6735	-0.33281866
105	0x3ea48763	0.32134542
106	0x3eb78301	0.35842136
107	0x3eb1a85c	0.3469876
108	0x3e5466d6	0.20742354
109	0x3e95351b	0.2914208
110	0xbda7711c	-0.08175871
111	0x3e869ecd	0.2629303
112	0xbe436dd0	-0.19084859
113	0x3ee5cc47	0.44882414
114	0xbd027a7b	-0.031855088
115	0x3f00d0b7	0.50318474
116	0x3c6ef5ad	0.014584941
117	0x3e522f83	0.20525937
118	0xbd94339a	-0.07236405
119	0x3ebec6ed	0.37261143
120	0xbe5230b2	-0.20526388
121	0x3eea2fa7	0.4573948
122	0x3e8a26ce	0.2698273
123	0xbcf62c13	-0.030050313
124	0xbead6041	-0.33862498
125	0xbd40bc1c	-0.047054395
126	0x3f0d5244	0.5520365
127	0x3e975b35	0.29561773
128	0xbde27787	-0.11057954
129	0x3f1350a1	0.57544905
130	0x3e338287	0.17530261
131	0x3eafcde4	0.3433677
132	0x3d86dae0	0.06584716
133	0x3e196f83	0.14983945
134	0xbd6f6dc7	-0.0584543
135	0x3ef7e132	0.48413998
136	0xbceed2f6	-0.029153328
137	0x3ed7d8c2	0.4215756
138	0xbe6efa38	-0.23337638
139	0x3efaac03	0.4895936
140	0xbd8e492b	-0.069475494
141	0xbe7ba4ed	-0.24574633
142	0x3e4b4798	0.1985153
143	0xbde07f3b	-0.10961767
144	0x3e9025f8	0.28153968
145	0x3d948458	0.07251805
146	0xbe4b0241	-0.19825079
147	0xbf075dac	-0.52877307
148	0x3dd4d8b0	0.10392892
149	0xbe969039	-0.29406908
150	0xbc0a9641	-0.008458675
151	0xbe4dcb18	-0.20097005
152	0xbddf6671	-0.10908211
153	0x3e4eb860	0.20187521
154	0xbe409388	-0.18806279
155	0xbf04a38f	-0.5181207
156	0x3dc575cf	0.09641611
157	0xbea8cba5	-0.32967868
158	0x3e63d843	0.22250466
159	0xbe1d4fde	-0.15362498
160	0x3caa3f25	0.020782063
161	0x3db92f89	0.0904227
162	0x3e9b7031	0.30359033
163	0x3c25879c	0.010103133
164	0xbec43fcd	-0.38329926
165	0x3ea1684c	0.31524885
166	0x3f05417c	0.52053046
167	0x3e546912	0.20743206
168	0x3d250dd5	0.040296394
169	0x3ef1c11a	0.47217637
170	0x3d82c893	0.06385913
171	0x3f1b9e62	0.6078855
172	0xbe1be79e	-0.15225074
173	0x3ec53b39	0.38521746
174	0x3d8a0ae6	0.0674036
175	0x3e885ec4	0.266348
176	0xbe3259d3	-0.17417078
177	0x3e17023e	0.14746949
178	0xbea00c52	-0.312594
179	0x3ec22d3c	0.37925136
180	0x3e074abe	0.13212106
181	0x397f475f	0.00024345283
182	0xbe28c49d	-0.16481252
183	0xbd886bab	-0.06661161
184	0x3e1471f7	0.14496599
185	0x3d87477d	0.06605432
186	0xbdc97ab7	-0.09837859
187	0xbcbf5bae	-0.023359146
188	0x3d6151c4	0.05500962
189	0xbdcc56a3	-0.09977462
190	0x3da56470	0.080757976
191	0xbdb584d8	-0.088632286
192	0xbe04335d	-0.12910219
193	0xbe0f1c78	-0.13975704
194	0xbd91df77	-0.07122701
195	0xbdbfab43	-0.093588375
196	0x3d9737ed	0.07383714
197	0x3d13a19b	0.03604279
198	0x3ceb6cbd	0.028738374
199	0xbd3adac0	-0.045618773
200	0x3d1593f0	0.036518037
201	0x3e9d939e	0.30776685
202	0x3e4b4ee0	0.19854307
203	0xbe061b30	-0.13096309
204	0xbdbe7456	-0.09299533
205	0x3e91d812	0.2848516
206	0x3e563ca0	0.20921564
207	0x3f1131b1	0.5671645
208	0x3d2495e8	0.040182024
209	0x3ef7ebc0	0.4842205
210	0xbd0a5cd3	-0.03377993
211	0x3eab934a	0.3351081
212	0x3de9ada7	0.11410075
213	0x3e641e62	0.22277215
214	0xbe47b2a6	-0.19501743
215	0x3eb65d15	0.3561789
216	0x3d480111	0.048829142
217	0x3edefb3f	0.4355106
218	0xbe9ce168	-0.3064072
219	0x3f330dcb	0.6994292
220	0xbe17ac56	-0.14811835
221	0xbe5c323c	-0.21503538
222	0x3e808b13	0.25106105
223	0xbde07413	-0.109596394
224	0x3deecce2	0.11660172
225	0x3e5c0738	0.21487129
226	0xbeecdb94	-0.46261275
227	0xbe55755f	-0.20845555
228	0xbe18069c	-0.14846271
229	0xbe50986f	-0.20370649
230	0xbc64b51c	-0.013959195
231	0x3b7b61a5	0.0038357761
232	0x3dece3db	0.115668975
233	0x3f0df669	0.5545412
234	0xbd6a2ecd	-0.05717354
235	0x3d3b3cac	0.045712158
236	0x3d05d838	0.032676905
237	0x3e5f2cd4	0.21794444
238	0x3f02b486	0.51056707
239	0xbe884d73	-0.2662159
240	0x3d540a08	0.05176738
241	0x3e49ff96	0.19726405
242	0xbe5cfcee	-0.2158086
243	0xbc9733aa	-0.018457253
244	0x3d7fdab0	0.062464416
245	0xbe5340bf	-0.20630167
246	0x3db8b949	0.09019715
247	0x3e509496	0.20369181
248	0xbd057a0d	-0.0325871
249	0xbca1c22c	-0.019745909
250	0x3e26c9dc	0.1628794
251	0xbdc3c239	-0.095585294
252	0xbe41b271	-0.18915726
253	0xbda52e18	-0.08065432
254	0x3d83a239	0.06427426
255	0xbdc12f01	-0.094327934

fc4.bias f4 [20]
0	0x3ec57ff9	0.38574198
1	0x3e47d9c7	0.19516669
2	0xbd8d98ec	-0.06913933
3	0xbe497112	-0.19672039
4	0xbeb7f2a4	-0.35927308
5	0x3d20e4f3	0.039280843
6	0xbd10508e	-0.035233073
7	0x3ee6e174	0.45093882
8	0xbe1df014	-0.15423614
9	0xbdda1844	-0.106491596
10	0xbca73e4a	-0.020415444
11	0x3ef4f927	0.47846338
12	0x3e13c9ae	0.14432403
13	0x3ba16ed6	0.0049265428
14	0xbdb41905	-0.087938346
15	0x3d943a75	0.07237712
16	0x3ee32b43	0.44368944
17	0x3dfaf230	0.12253225
18	0x3d4c4a5a	0.049875595
19	0xbde0ab5b	-0.109701835

fc5.weight f4 [20, 20]
0	0xbde62656	-0.11237781
1	0xbe52e937	-0.20596777
2	0x3f019518	0.50618124
3	0x3e1dd6c0	0.15413952
4	0x3eec6153	0.46168002
5	0x3e5b9734	0.21444398
6	0x3f18fc74	0.5976021
7	0x3d82c5bb	0.0638537
8	0x3e96a095	0.2941939
9	0xbd146587	-0.036229637
10	0x3ef9f137	0.48816845
11	0xbeb1747e	-0.3465919
12	0xbce301ec	-0.027710877
13	0x3f02d9f8	0.51113844
14	0xbe498d94	-0.19682914
15	0x3f0b794a	0.5448195
16	0xbe527a02	-0.20554355
17	0x3ed7068f	0.4199719
18	0xbe3314a4	-0.17488343
19	0xbdce3dbe	-0.1007037
20	0xbde5e8d7	-0.11226051
21	0xbdaaca23	-0.08339336
22	0xbd96136c	-0.07327923
23	0xbddaf63e	-0.10691498
24	0x3de3a758	0.11115903
25	0x3db853a4	0.09000328
26	0x3e070264	0.13184506
27	0xbdc204a4	-0.094735414
28	0xbe32b270	-0.17450881
29	0xbbcff8c7	-0.0063467952
30	0xbc50cc91	-0.012744085
31	0xbe0ee344	-0.13953882
32	0x3e0d78ce	0.13815615
33	0x3dcfd5cf	0.10148203
34	0xbe3c2f42	-0.18377402
35	0xbc7a3dd4	-0.01527353
36	0x3dc0b1a6	0.09408884
37	0xbdcc0b55	-0.09963099
38	0x3dbef862	0.09324719
39	0x3d59486d	0.053047586
40	0x3c6d5f48	0.014488049
41	0xbe8bb62f	-0.27287433
42	0x3e7f60a1	0.24939205
43	0x3dcdcdab	0.10048994
44	0x3ddd39a2	0.10802008
45	0x3ef56580	0.47929
46	0x3e80c928	0.2515347
47	0x3d204f56	0.03913816
48	0x3e7aba85	0.24485214
49	0x3e2b735f	0.1674323
50	0x3eaec01d	0.34130946
51	0x3ea0e693	0.31425914
52	0x3e5249dd	0.20535989
53	0x3ed18827	0.40924188
54	0x3db8a07b	0.09014984
55	0x3ebb8bf5	0.36630216
56	0xbd6b1a9d	-0.057398427
57	0x3ebbad66	0.3665573
58	0xbdaae333	-0.08344116
59	0x3e294104	0.16528708
60	0xbd94c33a	-0.07263799
61	0x3c483267	0.012219048
62	0x3e2ac884	0.16678053
63	0x3e257dd9	0.16161288
64	0x3eb36087	0.35034582
65	0x3e42440a	0.18971267
66	0x3e1d0b35	0.15336306
67	0xbe7c285e	-0.24624774
68	0x3e7da388	0.24769413
69	0x3e1842cd	0.14869232
70	0x3e8109f5	0.2520291
71	0x3d001ea4	0.03127922
72	0xbbd7dd4a	-0.006587659
73	0x3e362b9b	0.17790072
74	0xbe1c6972	-0.15274599
75	0x3ee54236	0.44777077
76	0xbe27049a	-0.16310349
77	0xbd73774c	-0.059439942
78	0xbe4a612a	-0.19763628
79	0x3e3ce55c	0.18446869
80	0x3e9d15aa	0.3068059
81	0x3ebdd0a1	0.37073234
82	0xbe14817f	-0.14502524
83	0xbe9227aa	-0.28545886
84	0xbdef0c20	-0.116722345
85	0x3ed8d963	0.42353353
86	0x3ddf1942	0.108934894
87	0x3ecd8046	0.40136927
88	0xbd9b6723	-0.07588031
89	0xbe3f3298	-0.18671644
90	0x3e90be4e	0.2827019
91	0x3efb8d0e	0.49131054
92	0xbe0e84a2	-0.13917783
93	0xbd00f8e1	-0.03148735
94	0xbe2b0d80	-0.16704369
95	0xbebf719a	-0.3739136
96	0x3f14f247	0.58182186
97	0x3e853a82	0.260212
98	0xbd87a298	-0.06622809
99	0x3daec656	0.08533923
100	0x3c9e1d10	0.019300967
101	0x3e0a7ef3	0.1352499
102	0xbe82a9ad	-0.25520077
103	0xbcc6b077	-0.024254067
104	0xbe5169c2	-0.204505
105	0x3e0597f1	0.13046242
106	0x3ccb867d	0.024844402
107	0x3c9103e6	0.017702054
108	0xbe840ee8	-0.25792623
109	0x3d104da0	0.03523028
110	0x3d9a2482	0.075264946
111	0xbe35e602	-0.17763522
112	0xbe77ee9c	-0.24212116
113	0x3d149725	0.036276955
114	0xbda64f72	-0.08120622
115	0x3be0ba5c	0.0068581533
116	0xba786c7a	-0.00094766135
117	0xbde2d35d	-0.110754706
118	0xbd8abc46	-0.067741916
119	0x3d4e2fba	0.050338484
120	0x3d26fe20	0.040769696
121	0x3cb886d6	0.022525232
122	0x3e03d64d	0.12874718
123	0x3e4e259d	0.20131536
124	0x3e4ca871	0.1998613
125	0xbd40f973	-0.047112893
126	0xbdd8d2af	-0.1058706
127	0xbddd7bd9	-0.10814638
128	0x3e0ec1ce	0.13941118
129	0xbe084fe3	-0.13311724
130	0xbe46f0bc	-0.1942777
131	0x3d1e4c09	0.03864673
132	0xbe181e84	-0.14855391
133	0xbdee10d1	-0.11624301
134	0xbe3fc531	-0.18727566
135	0xbd221f9a	-0.03958092
136	0xbd8fa3c6	-0.07013659
137	0xbd3d4546	-0.046208642
138	0x3d61669a	0.05502949
139	0xbe15a866	-0.1461502
140	0x3d9ac20d	0.075565435
141	0x3c4c33e4	0.012463544
142	0xbf00a579	-0.5025249
143	0xbb7ff93a	-0.0039058463
144	0xbe1835e4	-0.14864308
145	0x3e263675	0.16231711
146	0xbeca7383	-0.39541253
147	0x3ee2bba7	0.44283792
148	0x3d9cf4d2	0.07663883
149	0x3cab3bad	0.020902479
150	0xbe742807	-0.23843394
151	0x3ea625ce	0.32450718
152	0x3dbec635	0.09315149
153	0xbd042a71	-0.032267038
154	0xbe3aab89	-0.18229498
155	0xbe23771e	-0.15963408
156	0x3e17bc81	0.14818002
157	0xbda268f6	-0.07930176
158	0xbe116a2b	-0.14200656
159	0x3de322dd	0.11090634
160	0xbe61f77f	-0.22067069
161	0xbebca207	-0.36842367
162	0x3f0179fa	0.50576746
163	0x3e88a1e0	0.26686
164	0x3ed40b47	0.41414854
165	0x3e51debe	0.20495126
166	0x3ed70b3c	0.4200076
167	0xbeae365d	-0.3402585
168	0x3e53feb5	0.20702632
169	0xbcab8a4a	-0.020939965
170	0x3efef771	0.49798158
171	0xbdbe5cf9	-0.09295077
172	0x3ccdb37c	0.025109999
173	0x3ef5a5df	0.47978112
174	0x3d2c3b8b	0.042048972
175	0x3e7a523f	0.24445437
176	0xbe5a24f8	-0.21303165
177	0x3e6bf016	0.23040804
178	0x3d84374a	0.06455858
179	0x3e291ba5	0.16514452
180	0x3d25881a	0.040413
181	0xbd6cc7f6	-0.057807885
182	0xbd2e72fa	-0.04259012
183	0x3d7ac34f	0.061221417
184	0x3e57d1a8	0.21076071
185	0x3c0baf90	0.008525744
186	0xbe18da32	-0.14926985
187	0x3e2e55d5	0.1702493
188	0xbccb5a6b	-0.024823388
189	0xbe120daf	-0.14263032
190	0xbe5f4855	-0.21804936
191	0xbe4f875e	-0.20266482
192	0x3d6a6eb2	0.057234474
193	0x3d30e984	0.043191448
194	0x3aba491f	0.0014212466
195	0xbe07f4ab	-0.13276927
196	0xbda3e519	-0.08002681
197	0xbe31503f	-0.17315768
198	0xbda6dcb1	-0.08147562
199	0xbdc02b17	-0.09383219
200	0x3e4bb84d	0.19894524
201	0xbdb75519	-0.08951778
202	0xbdd5b6be	-0.10435246
203	0x3df06285	0.11737541
204	0x3cb74380	0.022371054
205	0x3dcfa448	0.10138756
206	0x3e42a803	0.19009404
207	0xbdc27179	-0.094942994
208	0xbe3cfaa3	-0.18454985
209	0x3dfbb245	0.122898616
210	0xbdcbee63	-0.09957578
211	0x3dc3bfc0	0.09558058
212	0x3c87120d	0.0164881
213	0xbdecbec0	-0.1155982
214	0x3d6e988b	0.058250945
215	0xbe0e09f7	-0.13870989
216	0xbd6491bc	-0.055803046
217	0xbe5efbf3	-0.21775798
218	0x3dab05e0	0.0835073
219	0xbe2f5919	-0.17123832
220	0xbeacdfca	-0.33764488
221	0xbdbcc5cf	-0.092174165
222	0x3ec75842	0.38934523
223	0x3e89bc08	0.2690127
224	0x3e824305	0.25441757
225	0x3eb2fb28	0.34957242
226	0x3cfc7498	0.030817315
227	0xbeaa7408	-0.3329165
228	0x3e9889eb	0.29792723
229	0xbc61ee56	-0.013789734
230	0x3d67272e	0.05643385
231	0x3d8ccdff	0.06875228
232	0xbdb17043	-0.0866399
233	0x3ea8eba5	0.32992283
234	0x3db0cd7d	0.08632944
235	0x3ed35129	0.41272858
236	0xbdc08b12	-0.094015256
237	0x3dbf81b6	0.09350912
238	0x3e4d7046	0.2006236
239	0x3e0b573d	0.13607498
240	0x3db4c0ff	0.088258736
241	0x3bd485c5	0.006485673
242	0x3e1744ce	0.1477234
243	0xbde6a2ff	-0.11261558
244	0xbe013cf7	-0.12620912
245	0x3d6d66ae	0.05795925
246	0xbdb52c2c	-0.08846316
247	0xbe364d36	-0.17802891
248	0xbe221179	-0.15826978
249	0x3e0532fd	0.13007732
250	0x3e6202d7	0.22071396
251	0xbe572820	-0.210114
252	0x3e42bd01	0.19017412
253	0xbbdc2e5b	-0.006719393
254	0xbdeb3716	-0.11485116
255	0xbdabd85c	-0.08390877

fc5.bias f4 [20]
0	0xbe1b93c9	-0.15193094
1	0xbe227b62	-0.1586738
2	0xbd358e73	-0.044325303
3	0xbe3a7288	-0.18207753
4	0x3f0416d9	0.5159736
5	0x3d6c2cdf	0.05765998
6	0x3cdd7d0a	0.027037162
7	0x3e2b6538	0.1673783
8	0xbd6a7573	-0.057240915
9	0x3dd1d7d2	0.102462426
10	0xbe30ae54	-0.17254001
11	0xbe4492e8	-0.19196665
12	0xbd9db72b	-0.07700952
13	0xbe031f4e	-0.1280491
14	0x3dee3682	0.1163149
15	0x3dd34c93	0.1031734
16	0x3e0979bc	0.13425344
17	0x3d4c9ff3	0.049957227
18	0x3cc99928	0.024609163
19	0xbe8389d1	-0.25691083

fc6.weight f4 [3, 20]
0	0x3ed841ad	0.42237607
1	0x3e4b0936	0.19827732
2	0x3e1f1708	0.1553613
3	0x3eac6e9c	0.33678138
4	0xbe581766	-0.21102676
5	0xbd4a5779	-0.049399827
6	0xbe00f691	-0.12594058
7	0xbeec4a9d	-0.46150675
8	0x3eb251e8	0.34828115
9	0xbe176b6d	-0.14787073
10	0x3dd83e60	0.10558772
11	0x3eb34b3e	0.35018343
12	0xbb98577c	-0.004649101
13	0xbe3c9f5f	-0.1842017
14	0x3d475c0c	0.048671767
15	0x3e4a33ba	0.19746295
16	0xbdc357a6	-0.09538202
17	0x3beeb7e8	0.007285107
18	0xbca92e3e	-0.020651933
19	0x3ebb0a5b	0.36531338
20	0xbf03c2d9	-0.5146919
21	0x3e228af7	0.15873323
22	0xbf297560	-0.66194725
23	0xbd6bd1c3	-0.05757309
24	0xbf380ae7	-0.71891636
25	0x3dd55754	0.10417047
26	0x3e5381e7	0.20655023
27	0xbec4eb12	-0.38460594
28	0xbeca845a	-0.395541
29	0x3dcbfa78	0.099598825
30	0x3e4df784	0.20113951
31	0xbe0a1979	-0.1348628
32	0xbdda6b9b	-0.10665055
33	0x3ce7d2e9	0.028298812
34	0x3d9bc3a4	0.07605675
35	0xbf2ca7ac	-0.67443347
36	0xbdf648b8	-0.12025589
37	0x3e489fdd	0.19592233
38	0xbe29d2d9	-0.16584338
39	0xbeaa4b18	-0.33260417
40	0xbee55dbb	-0.44798073
41	0x3d6a6bf8	0.057231873
42	0x3d420090	0.047363818
43	0xbeb6b5e7	-0.35685655
44	0x3e77e1bc	0.24207205
45	0xbe791bb7	-0.24326979
46	0x3e162d35	0.14665683
47	0x3e4a8cf7	0.19780336
48	0xbeadcdf8	-0.33946204
49	0xbdd2c1f3	-0.10290899
50	0x3e2c19c2	0.16806701
51	0xbf0a9316	-0.54130685
52	0xbd883f19	-0.0665266
53	0xbd5a2e42	-0.05326677
54	0xbdf4fad5	-0.11961905
55	0x3ecbba7e	0.3979072
56	0x3e059769	0.1304604
57	0x3e1f6130	0.15564418
58	0xbe756444	-0.2396403
59	0xbedd5e16	-0.43235844

fc6.bias f4 [3]
0	0xbe9f74f7	-0.31143925
1	0xbf1703da	-0.5899025
2	0x3d9ef17f	0.077609055
