models_3val/xor_and_4.pth (torch, 12178 bytes, 12 tensors)

fc1.weight f4 [20, 12]
0	0xbd9c4942	-0.0763116
1	0xbed85df1	-0.42259172
2	0x3e817830	0.25287008
3	0x3ed5be02	0.41746527
4	0x3cae191e	0.021252211
5	0x3c8c8f4e	0.017158177
6	0x3c80ddf1	0.01573083
7	0x3c8d7951	0.017269762
8	0x3ca596bd	0.02021348
9	0x3c98ee1a	0.018668223
10	0x3c1d09ea	0.009584883
11	0x3c9f5ccb	0.019453427
12	0x3e8099d2	0.25117356
13	0xbd78461c	-0.060613737
14	0xbd91d5fa	-0.07120891
15	0xbe508214	-0.20362121
16	0xbd98634d	-0.07440815
17	0x3cea0737	0.028567893
18	0x3de6db9d	0.11272357
19	0x3e29abdf	0.1656947
20	0x3dfe971e	0.12431167
21	0x3de63ad7	0.112416916
22	0x3d977ab9	0.07396454
23	0x3d3426b5	0.043982226
24	0xbe9463b2	-0.2898231
25	0x3ef11ffe	0.4709472
26	0x3c011598	0.0078786835
27	0xbf034394	-0.5127499
28	0x3cbae87f	0.02281594
29	0x3ca772b4	0.020440437
30	0x3c7a7bf1	0.015288339
31	0x3c808f33	0.015693283
32	0x3c9fe971	0.019520493
33	0x3c9259d2	0.017865095
34	0x3c61308d	0.013744486
35	0x3c8eec4e	0.017446663
36	0x3d9548a6	0.07289247
37	0x3dfaa10c	0.122377485
38	0x3ed7c567	0.42142794
39	0x3de90088	0.113770545
40	0x3e5c4ff0	0.21514869
41	0x3e39c013	0.18139677
42	0xbc2c7f77	-0.010528437
43	0x3e2e0a79	0.16996183
44	0x3e3b4122	0.18286565
45	0x3eeb6e9e	0.45982832
46	0xbe022d0f	-0.12712501
47	0x3e7da4b9	0.24769868
48	0x3eba46b4	0.36382067
49	0x3dca70e7	0.09884816
50	0xbe023a88	-0.1271764
51	0xbeeec8b0	-0.46637487
52	0x3e3fb02d	0.1871955
53	0x3e602478	0.21888912
54	0x3d4d0807	0.050056484
55	0x3d4d9d73	0.050198983
56	0x3d3fb2d5	0.046801407
57	0x3d171722	0.036887296
58	0x3decd0c4	0.115632564
59	0x3ca38fbc	0.019965999
60	0xbd61f9cd	-0.05516987
61	0x3e6a8e25	0.22905786
62	0x3e206ef4	0.15667325
63	0x3eb6efc8	0.35729814
64	0x3d8481f6	0.064701006
65	0xbb747c70	-0.0037305616
66	0x3e85be53	0.26121768
67	0x3ea0be94	0.313954
68	0xbce83d9f	-0.028349696
69	0x3d5840b1	0.05279607
70	0x3e9e586b	0.30926833
71	0xba72cf56	-0.0009262463
72	0x3e5fb2c5	0.21845539
73	0xbe587e7f	-0.21142004
74	0x3d1ecab4	0.03876753
75	0x3e92a252	0.28639466
76	0x3e98edac	0.2986883
77	0x3d8c5e33	0.068539046
78	0x3e8355c3	0.25651368
79	0x3d40be6a	0.047056593
80	0x3ea50cac	0.3223623
81	0x3eb85e5d	0.36009493
82	0x3d93d6b9	0.072186895
83	0x3e78d988	0.24301732
84	0x3ccaf38d	0.024774337
85	0x3f44e067	0.7690491
86	0xbd7050cd	-0.058670808
87	0x3d6712a3	0.056414258
88	0x3e23529b	0.1594948
89	0xbd9f9d76	-0.07793705
90	0x3d0548b3	0.032540035
91	0x3dcbc6d6	0.09950034
92	0x3e714d90	0.23564744
93	0x3d073793	0.033011984
94	0x3da3beda	0.079953864
95	0xbd0403ae	-0.03223007
96	0x3ef3fb92	0.4765287
97	0x3d80057f	0.06251048
98	0xbdf41d16	-0.1191961
99	0xbd2c889f	-0.04212248
100	0x3dc5afc8	0.09652668
101	0x3d3d5518	0.04622373
102	0x3cda933f	0.02668154
103	0x3d69e83c	0.05710624
104	0x3dc1af6c	0.09457287
105	0x3e134520	0.14381838
106	0x3e69d9a6	0.22836933
107	0xbde06708	-0.10957152
108	0x3ede7928	0.4345181
109	0xbe857b85	-0.260708
110	0xbda919dd	-0.08256886
111	0xbe767685	-0.24068649
112	0x3d9d3693	0.07676425
113	0x3d2a01a2	0.041505463
114	0x3caea4da	0.021318842
115	0x3cc1ae9c	0.02364283
116	0x3d4b0430	0.04956454
117	0x3cefb745	0.029262194
118	0x3d08d412	0.03340537
119	0x3caa4883	0.02078653
120	0x3ed1cec8	0.40978074
121	0x3e8d1094	0.2755171
122	0xbe2e77b1	-0.17037846
123	0xbda5e25b	-0.080998145
124	0x3d3ebf48	0.04656914
125	0x3dbb7d22	0.091547266
126	0x3d5bbc29	0.05364624
127	0x3dbab4d9	0.09116525
128	0xbda5146d	-0.080605365
129	0x3de1208d	0.10992537
130	0x3e608087	0.2192403
131	0xbe26d952	-0.16293839
132	0x3dd02f65	0.1016529
133	0x3e85a022	0.26098734
134	0x3e82b2fa	0.25527173
135	0xbd6af9c0	-0.057367086
136	0x3e5dee0d	0.2167284
137	0xbd269262	-0.040666945
138	0xbbd2ef32	-0.0064372057
139	0x3d8ddfb4	0.069274336
140	0x3c06a8db	0.008218969
141	0x3e6e35ca	0.23262706
142	0x3c9e4569	0.019320207
143	0xbc51d57a	-0.012807244
144	0xbe87c7a4	-0.265195
145	0x3f06a2a3	0.52591914
146	0x3e1fdda0	0.15611887
147	0x3e92425b	0.2856625
148	0x3cf59d44	0.029982217
149	0x3e23f877	0.1601275
150	0x3e91e70f	0.28496596
151	0xbd0b6eac	-0.03404109
152	0x3e2f7b1a	0.17136803
153	0x3d6a0f83	0.0571437
154	0x3e7f46cb	0.24929349
155	0x3d54ed89	0.051984344
156	0xbde3ea6a	-0.11128695
157	0x3dcd0777	0.100111894
158	0x3e3c3e6a	0.18383184
159	0x3f04bff0	0.51855373
160	0x3e1ba444	0.15199381
161	0x3e1bd5b0	0.15218234
162	0xbe046b22	-0.12931493
163	0x3e2396cf	0.15975498
164	0x3d915622	0.07096507
165	0x3e49b603	0.19698338
166	0xbca8947a	-0.020578612
167	0xbd8a79e8	-0.06761533
168	0x3d220651	0.039556805
169	0x3ea6a71b	0.32549366
170	0xbebadb85	-0.36495605
171	0x3e20f6ea	0.1571919
172	0x3e165f4f	0.14684795
173	0x3e4522cb	0.19251554
174	0x3dc6be00	0.097042084
175	0x3e0291bb	0.12750904
176	0x3bebc99d	0.007195665
177	0x3e6ceca1	0.23137142
178	0x3e055fcc	0.13024825
179	0x3db57528	0.088602364
180	0x3ec296d0	0.38005686
181	0x3ed3cd3a	0.41367513
182	0xbe8c4103	-0.2739335
183	0x3eb9ceea	0.36290675
184	0xbd2c1860	-0.042015433
185	0xbd236976	-0.039895497
186	0xbc9babf1	-0.019002886
187	0xbcf6ab8f	-0.030111102
188	0xbd69cd3d	-0.057080496
189	0xbd01a09d	-0.031647313
190	0xbcea4a0a	-0.028599758
191	0xbd1119a2	-0.035424836
192	0xbd9c9d40	-0.076471806
193	0x3ed47f05	0.41503158
194	0x3e9e7b6b	0.30953535
195	0xbd4c1d75	-0.04983278
196	0xbcf04217	-0.02932839
197	0x3e3aac52	0.18229797
198	0x3e5363a0	0.20643473
199	0xbd980643	-0.07423069
200	0xbd87cf51	-0.06631339
201	0x3df457ca	0.11930807
202	0x3de0a89d	0.109696604
203	0x3e2f3d68	0.17113268
204	0x3ee8f645	0.4550039
205	0xbe6f9aa4	-0.23398834
206	0x3eef22f9	0.4670637
207	0xbe9328f3	-0.2874218
208	0x3d37916b	0.044816416
209	0x3d96a148	0.07354981
210	0x3e397d13	0.18114118
211	0x3e170a79	0.14750089
212	0xbbf90d36	-0.007600452
213	0xbc7d0fa6	-0.015445625
214	0x3e863149	0.26209477
215	0xbd367216	-0.044542395
216	0x3f18fd8b	0.59761876
217	0x3ec4eb9d	0.3846101
218	0xbe6665e6	-0.22499809
219	0x3dc8ba34	0.098011404
220	0xbd45a099	-0.04824886
221	0x3dcfc86c	0.10145649
222	0x3d9e4fdb	0.07730075
223	0xbc4c72a6	-0.012478506
224	0xbcfcbc74	-0.03085158
225	0xbbd1e8a9	-0.006405909
226	0xbe32f134	-0.17474824
227	0x3e861cdc	0.26193893
228	0xbf32d027	-0.69848865
229	0x3f03538b	0.5129935
230	0x3d19c197	0.037538137
231	0xbf03488c	-0.5128257
232	0xb914a8b9	-0.00014177234
233	0xb7954d72	-1.7798247e-05
234	0xb7648b8b	-1.3622349e-05
235	0x3864e24d	5.4570195e-05
236	0xb80267f1	-3.109122e-05
237	0x37f6e3db	2.9431589e-05
238	0x398cedaf	0.0002687997
239	0xb8dcca88	-0.00010528142

fc1.bias f4 [20]
0	0xbe8448cb	-0.25836787
1	0x3e172cf7	0.14763246
2	0x3e81786f	0.25287196
3	0x3e794df7	0.24346147
4	0x3e243801	0.16036989
5	0x3a0f9405	0.0005477074
6	0x3e72a277	0.23694788
7	0xbd56eaa1	-0.052469853
8	0x3bd6a533	0.006550455
9	0x3eab01f7	0.33399937
10	0x3eb0e542	0.3454991
11	0x3d1b7060	0.037948966
12	0xbdb83637	-0.08994716
13	0xbe21c045	-0.15796001
14	0xbd94db6f	-0.07268416
15	0xbed6a45f	-0.4192228
16	0x3e0840c4	0.13305956
17	0x3eae9d03	0.34104165
18	0x3eb35c40	0.3503132
19	0xbd995a87	-0.0748797

fc2.weight f4 [20, 20]
0	0x3e814c32	0.25253445
1	0x3e422319	0.18958701
2	0x3f084492	0.5322963
3	0xbd57e133	-0.052705
4	0x3e2775ef	0.16353582
5	0xbba8532b	-0.0051368675
6	0xbc2e503a	-0.010639245
7	0x3dcd75da	0.10032244
8	0xbd4511b9	-0.048112605
9	0x3e86620d	0.26246682
10	0x3e0f91b3	0.14020424
11	0x3dfc1b26	0.12309866
12	0x3e2098a8	0.15683234
13	0x3e37a2c1	0.1793318
14	0x3e55be2e	0.20873329
15	0xbc20e559	-0.009820306
16	0x3e1ffefd	0.15624614
17	0xbd1c6440	-0.038181543
18	0x3ba169a6	0.0049259244
19	0xbf0d9b83	-0.5531542
20	0xbe72a4af	-0.23695634
21	0xbe30618e	-0.17224714
22	0xbe11b136	-0.14227757
23	0x3df8d705	0.12150387
24	0x3c8dba57	0.017300768
25	0x3d25b14f	0.040452298
26	0xbc95646f	-0.018236367
27	0x3da0e6e5	0.0785654
28	0x3e965cea	0.29367763
29	0xbf075c25	-0.52874976
30	0x3d57b51d	0.052662957
31	0xbdf25668	-0.11832887
32	0xbc00b450	-0.00785549
33	0xbd191a6c	-0.037378713
34	0xbdad5631	-0.08463705
35	0x3e95f056	0.29284924
36	0xbd51a889	-0.05118612
37	0x3c2ae1ec	0.010429841
38	0x3e396673	0.18105488
39	0xbe440c1e	-0.19145247
40	0xbeb1a604	-0.34696972
41	0x3d829494	0.06375995
42	0xbe0ee5c1	-0.13954832
43	0x3e92f1de	0.28700155
44	0x3e975ba1	0.29562095
45	0x3ddd26ec	0.107984394
46	0x3eada6ea	0.33916408
47	0x3dfc97af	0.12333619
48	0x3dc2c2b6	0.095097944
49	0x3d53a914	0.051674917
50	0x3e75d69f	0.24007653
51	0x3d8ba427	0.06818419
52	0xbd51a1ec	-0.05117981
53	0xbb3d4db5	-0.0028885428
54	0x3e1c8ef9	0.15288915
55	0x3e15a147	0.14612304
56	0xbd55fefb	-0.05224512
57	0x3ea5f9dd	0.32417193
58	0x3e2ca405	0.16859443
59	0x3ee44f40	0.44591713
60	0x3f04a311	0.5181132
61	0x3d478b7e	0.048717014
62	0x3ef7e985	0.4842035
63	0x3e22e9e9	0.15909542
64	0xbe35a2cc	-0.17737883
65	0x3ea547b5	0.3228127
66	0x3d139481	0.036030296
67	0x3e83bee2	0.2573157
68	0x3d352e90	0.04423386
69	0x3dc35161	0.09537006
70	0xbd0cda34	-0.034387782
71	0x3e7f232e	0.24915764
72	0x3eb04010	0.34423876
73	0x3e52a6e3	0.20571475
74	0x3ed1dbac	0.4098791
75	0xbbc11d04	-0.0058933515
76	0x3dca6093	0.09881701
77	0xbcf48886	-0.029850256
78	0x3e8f814d	0.28028336
79	0xbeeb501e	-0.45959562
80	0x3eb6f1bd	0.35731307
81	0x3dda564f	0.10660993
82	0x3ed25cb0	0.4108634
83	0x3e842e98	0.25816798
84	0x3d4aae63	0.049482714
85	0xbd04394a	-0.032281198
86	0x3dac54f2	0.084146395
87	0x3e9c3067	0.30505678
88	0xbd72a6dd	-0.059241164
89	0x3eb0db68	0.34542394
90	0x3e53ec5d	0.20695634
91	0x3e5ecf3e	0.21758744
92	0x3dd2a890	0.10286057
93	0xbdbef7e6	-0.093246266
94	0x3bc6715e	0.006055995
95	0xbd26211d	-0.040558923
96	0x3e36bd68	0.1784569
97	0x3c85d4ea	0.016336877
98	0x3a4dcfec	0.0007851112
99	0xbf2eb1c9	-0.6824003
100	0x3e705ca0	0.23472834
101	0xbe865658	-0.2623775
102	0x3e97dc1c	0.29660118
103	0x3e0fe4f8	0.14052188
104	0x3d9a313b	0.07528921
105	0x3e9ccdb6	0.30625695
106	0x3de44ae1	0.111470945
107	0x3e5958b8	0.2122525
108	0x3e29e97c	0.16592973
109	0x3e6c3040	0.23065281
110	0xbe6547f8	-0.22390735
111	0x3e4a3227	0.19745694
112	0x3e486be4	0.19572407
113	0x3e5df27c	0.21674532
114	0x3e7da825	0.24771173
115	0xbdd567b3	-0.1042017
116	0x3d4417e8	0.04787436
117	0xbdcae111	-0.09906209
118	0x3e5b2415	0.21400483
119	0xbefaaab0	-0.4895835
120	0xbf40bf96	-0.75292337
121	0x3ee8a41b	0.45437703
122	0x3f08c9ec	0.5343311
123	0x3e453c09	0.19261183
124	0x3eb8b27f	0.36073682
125	0x3cc1df36	0.023666006
126	0x3be56e97	0.0070017087
127	0x3edcd4e7	0.43131182
128	0x3eba0776	0.36333817
129	0xbe5b5b6e	-0.21421596
130	0x3ed6b729	0.41936615
131	0x3e7454af	0.23860429
132	0x3d9fbb64	0.07799414
133	0xbe974fd6	-0.29553097
134	0x3e354695	0.17702706
135	0x3eb8f840	0.361269
136	0x3e81a85f	0.2532377
137	0xbd798e1c	-0.06092654
138	0x3eb4b5a7	0.3529484
139	0x3e746b73	0.23869114
140	0xbec507c8	-0.384825
141	0xbd8272a1	-0.0636952
142	0xbe9f0a33	-0.3106247
143	0xbe5bde54	-0.2147153
144	0x3e04b391	0.12959124
145	0xbbd98030	-0.0066375956
146	0x3e7ba724	0.24575478
147	0x3df46389	0.11933047
148	0x3de9eefd	0.114225365
149	0xbefbe5da	-0.491988
150	0x3bad2ec5	0.0052851164
151	0xbe547a70	-0.20749831
152	0xbd9723d5	-0.07379881
153	0xbd351da8	-0.044217736
154	0x3ef3bce5	0.47605053
155	0x3f1eaad7	0.6197943
156	0xbe812bee	-0.25228828
157	0xbe4e510d	-0.20148106
158	0x3e1f2762	0.15542367
159	0xbdb5af9a	-0.08871384
160	0x3df55c4f	0.11980497
161	0x3d27f438	0.04100439
162	0x3f02951b	0.51008767
163	0xbddcf897	-0.10789602
164	0xbdfe517b	-0.12417885
165	0x3e5143ac	0.20435971
166	0xbcce90c4	-0.025215514
167	0x3e7128b6	0.23550686
168	0x3d7bddf3	0.061490964
169	0x3ea3407b	0.31885132
170	0x3d9e33c6	0.07724719
171	0xbc8dbf86	-0.01730324
172	0xbc544278	-0.0129553005
173	0xbd109e62	-0.035307296
174	0x3ea85a6c	0.32881486
175	0xbe6fcbec	-0.23417634
176	0x3d457e0b	0.048215907
177	0xbd5b7989	-0.0535827
178	0xbd86f00b	-0.06588753
179	0xbf4c8cc3	-0.79902285
180	0xbd990a4c	-0.07472667
181	0xbd24219a	-0.040071107
182	0xbe28f5df	-0.16500042
183	0x3c81978f	0.01581934
184	0x3db62a1d	0.08894751
185	0xbc928db0	-0.017889827
186	0xbda36dbb	-0.07979914
187	0xbdb85436	-0.09000437
188	0x3b9c6278	0.0047724806
189	0xbe204ef9	-0.15655126
190	0x3da942f0	0.082647204
191	0x3c79bdd5	0.015243013
192	0xbbbf32d3	-0.005834916
193	0x3e1f061b	0.15529673
194	0xbe3a50b3	-0.18194847
195	0x3d58d74d	0.0529397
196	0x3d184535	0.037175376
197	0xbe2e79d3	-0.1703866
198	0xbe38cb86	-0.18046388
199	0x3dc544ab	0.09632238
200	0xbd025dd5	-0.031827766
201	0xbe01cce9	-0.12675823
202	0x3dbe4251	0.092899926
203	0x3e19e259	0.15027751
204	0xbdbce601	-0.09223557
205	0xbca7a007	-0.02046205
206	0x3d90234f	0.070379846
207	0xbdd93426	-0.1060565
208	0x3dec17b8	0.115279615
209	0xbe8a81f0	-0.2705226
210	0x3e156cfd	0.14592357
211	0xbd87413e	-0.06604241
212	0xbe67cbc2	-0.22636321
213	0xbd847e4f	-0.06469404
214	0xbe3b10e3	-0.1826816
215	0x3dc97097	0.09835928
216	0xbb58741c	-0.003302819
217	0xbe489b3f	-0.19590472
218	0xbe70f776	-0.23531899
219	0x3da74285	0.081669845
220	0xbcdadda8	-0.026717022
221	0x3d13d52c	0.03609197
222	0xbcdc96f2	-0.026927445
223	0xbe2f4957	-0.1711782
224	0x3e1a5b80	0.15073967
225	0x3d176111	0.036957804
226	0x3c290ea8	0.010318436
227	0xbe40d3b6	-0.18830761
228	0xbd1aed2e	-0.03782385
229	0xbbb535cf	-0.005530096
230	0xbe0a61a0	-0.13513803
231	0x3c3635a7	0.01112119
232	0xbe15c2b6	-0.14625058
233	0xbde7ff0d	-0.11327944
234	0x3ddc36dd	0.10752652
235	0x3c48c92f	0.012254997
236	0xbc45c68a	-0.012071261
237	0x3dc07632	0.09397544
238	0xbd8b7ce1	-0.06810928
239	0xbe41ee7f	-0.18938635
240	0xbe7642d4	-0.2404893
241	0x3e8c4fd5	0.27404657
242	0xbe6b6f96	-0.22991785
243	0x3d1dd050	0.03852874
244	0x3e9626f5	0.29326597
245	0x3e81edf0	0.25376844
246	0x3eadc791	0.3394132
247	0xbce62be4	-0.0280971
248	0x3ed35c47	0.4128134
249	0xbe16b1d6	-0.14716277
250	0xbccfeb91	-0.025380882
251	0xbd86ce17	-0.06582277
252	0xbd5d0438	-0.0539591
253	0x3da77513	0.08176627
254	0xbd936a3a	-0.071979955
255	0x3d8ff9fe	0.07030104

fc2.bias f4 [20]
0	0x3e0e5d72	0.13902834
1	0xbe0b50ee	-0.13605091
2	0x3e9913a6	0.29897803
3	0x3e41263a	0.18862239
4	0x3e3c44b2	0.1838558
5	0xbde9a61f	-0.11408638
6	0x3eba41f0	0.3637843
7	0xbd33b234	-0.04387112
8	0x3bf124d6	0.0073591275
9	0xbdf4cd06	-0.119531676
10	0xbdbdc52b	-0.092661224
11	0xbe3069e7	-0.17227899
12	0x3da197ca	0.078902796
13	0x3da81ebf	0.08208989
14	0x3e18e0ee	0.14929554
15	0x3decbf11	0.115598805
16	0x3e79a7f8	0.24380481
17	0xbd467e73	-0.048460435
18	0xbd856d5b	-0.065149985
19	0x3de834c0	0.11338186

fc3.weight f4 [20, 20]
0	0x3e52b934	0.20578462
1	0xbf2380f8	-0.63868666
2	0xbe8d7388	-0.27627206
3	0x3e6e6f69	0.23284687
4	0xbdbae4bb	-0.09125658
5	0x3ea7ddd5	0.32786432
6	0xbbc73c88	-0.006080214
7	0xbf113f2d	-0.56737024
8	0x3e1a5092	0.15069798
9	0x3e4847ce	0.19558641
10	0xbe4d99a5	-0.20078142
11	0xbb320947	-0.0027166174
12	0xbe672931	-0.22574307
13	0x3eb5d03b	0.3551043
14	0xbebc5927	-0.36786768
15	0x3d8c7cd9	0.0685975
16	0x3e4a9cba	0.19786349
17	0xbdbf1407	-0.09329992
18	0xbe37203e	-0.17883393
19	0x3e389c08	0.18028271
20	0x3d8fabf7	0.070152216
21	0xbf1e2a5d	-0.6178339
22	0xbdadeab3	-0.08492031
23	0x3daafd6b	0.08349117
24	0x3e835cc7	0.2565672
25	0x3e9a339e	0.30117506
26	0x3e10b821	0.1413274
27	0xbf1e71f7	-0.61892647
28	0x3eca0345	0.3945562
29	0x3d83731d	0.064184405
30	0x3d7e7e38	0.06213209
31	0xbdee8948	-0.11647278
32	0xbe272f0e	-0.16326544
33	0x3f12893b	0.5724065
34	0xbf437995	-0.76357394
35	0x3de3b2b4	0.11118069
36	0x3dd2b4a9	0.102883644
37	0xbd8ca85a	-0.06868048
38	0xbe55f54a	-0.20894352
39	0x3e4edcfb	0.20201485
40	0x3ea17c57	0.31540176
41	0xbec65cc0	-0.38742638
42	0x3e29afee	0.16571018
43	0x3cd7db39	0.02634965
44	0x3de19d08	0.110162795
45	0x3e477e20	0.19481707
46	0x3e456faf	0.19280885
47	0xbf2185ee	-0.63094985
48	0x3df23d6b	0.11828121
49	0xbd991b75	-0.0747594
50	0xbd2cd097	-0.042191114
51	0x3e3a6d24	0.18205696
52	0x3c703382	0.014660718
53	0x3ef63308	0.4808581
54	0xbf44ae7f	-0.7682876
55	0x3e4f21ec	0.20227784
56	0x3c938d57	0.018011732
57	0x3e194b37	0.14970098
58	0xbe1ec6f9	-0.1550559
59	0x3ecb2f72	0.39684635
60	0x3e71bb31	0.23606564
61	0xbee09d15	-0.43869844
62	0xbe4cabe4	-0.19987446
63	0x3e371ee5	0.17882879
64	0x3e7aa1d2	0.24475792
65	0x3d0cac7e	0.03434419
66	0xbd779936	-0.060448848
67	0xbeb4fd5f	-0.35349557
68	0x3ee0e855	0.43927255
69	0xbdc15a05	-0.09440998
70	0xbe0f72cf	-0.1400864
71	0x3d71ebfb	0.05906294
72	0xbe36ccfc	-0.17851633
73	0x3f0d9ee2	0.5532056
74	0xbf110762	-0.5665189
75	0xbd064fd5	-0.032790978
76	0x3de4078f	0.11134254
77	0xbdc85455	-0.0978171
78	0xbd1e2906	-0.03861334
79	0x3e973727	0.29534265
80	0xbdd67c5b	-0.10472938
81	0x3da5e010	0.08099377
82	0xbcfe9bdf	-0.031080185
83	0xbe2a346d	-0.16621561
84	0xbd595603	-0.053060543
85	0xbe0c9c74	-0.13731557
86	0x3ca2f2a1	0.019891085
87	0xbdc574b5	-0.09641401
88	0x3b706fcc	0.003668773
89	0xbe4c730c	-0.19965762
90	0xbdba1d97	-0.09087675
91	0xbe22fa67	-0.15915833
92	0xbe0208b1	-0.12698628
93	0x3d0bfe37	0.034177985
94	0x3d0c44d2	0.03424532
95	0x3d4acf92	0.04951436
96	0xbca0aa03	-0.019612318
97	0x3db22eb9	0.08700318
98	0xbe4c64bb	-0.199603
99	0xbe55b19d	-0.20868535
100	0xbdfaa533	-0.122385405
101	0x3d802188	0.062563956
102	0xbda9d9af	-0.08293473
103	0xbe2159ac	-0.15756863
104	0x3e1b421b	0.15161936
105	0xbda0a304	-0.07843593
106	0xbde1dc57	-0.110283546
107	0x3d8fca7f	0.07021045
108	0x3dff4880	0.12465
109	0x3da1fa25	0.079090394
110	0x3d9cf7af	0.076644294
111	0x3d98cc40	0.074608326
112	0xbbda616f	-0.006664447
113	0x3c9c2ab4	0.019063331
114	0xbbe7cf25	-0.007074254
115	0xbd6e6732	-0.058203883
116	0xbdbe35f7	-0.09287637
117	0x3e3f950e	0.18709204
118	0x3d0beb4c	0.034159943
119	0x3de10843	0.10987904
120	0x3e317e0a	0.17333236
121	0xbedba5b7	-0.42899868
122	0x3d373c7f	0.044735428
123	0x3e0ba353	0.13636522
124	0x3bf6b35f	0.007528707
125	0x3bee8606	0.0072791604
126	0x3d97d7ca	0.07414205
127	0xbef12bdc	-0.47103775
128	0x3edc0c6b	0.42978224
129	0xbe433ae9	-0.19065441
130	0x3d762727	0.060095932
131	0xbc90a21d	-0.017655427
132	0xbe207b50	-0.1567204
133	0x3ee60ada	0.44930154
134	0xbf195cc3	-0.5990717
135	0x3ee0814d	0.4384865
136	0xbd04baae	-0.032404594
137	0xbd9fcf44	-0.07803205
138	0x3bacb1ad	0.005270204
139	0xbdc3a85b	-0.09553596
140	0xbe24cdf3	-0.16094188
141	0xbca876e0	-0.020564497
142	0xbe569c22	-0.20957997
143	0xbe2a4e22	-0.16631368
144	0x3e4d98a0	0.20077753
145	0x3d6a90e8	0.0572671
146	0xbd9e1642	-0.07719089
147	0xbe5506b8	-0.20803344
148	0x3d0b439e	0.03400003
149	0x3df2c6ac	0.118543
150	0xbd23acde	-0.03995978
151	0xbe02470a	-0.12722412
152	0xbb074a02	-0.0020643477
153	0x3ca74b69	0.0204217
154	0x3c8ded08	0.01732494
155	0xbc8ff70a	-0.017573852
156	0xbd6c86b5	-0.057745654
157	0x3e4bc402	0.1989899
158	0x3bcb2d2d	0.0062004537
159	0x3d46567b	0.048422318
160	0xbd84de84	-0.06487754
161	0xbdba0bab	-0.09084257
162	0xbe536d99	-0.20647277
163	0x3cadcc56	0.021215599
164	0xbdd82f75	-0.10555927
165	0x3e0e8136	0.13916478
166	0xbdf465a2	-0.119334474
167	0x3e4a00cc	0.19726866
168	0x3bf0effe	0.007352828
169	0x3c7e0c64	0.015505884
170	0x3e32ff02	0.1748009
171	0x3da2b592	0.07944788
172	0xbe3c22c9	-0.18372644
173	0x3e58d81f	0.21176194
174	0x3d71fe4d	0.05908041
175	0x3e28b071	0.16473557
176	0xbe2131a0	-0.15741587
177	0xbd6c6190	-0.05771023
178	0xbe3de9cd	-0.18546219
179	0xbd7d87c0	-0.06189704
180	0xbebb44ee	-0.36576027
181	0x3f1a5805	0.6029056
182	0x3eb3cdb0	0.35117865
183	0xbe902430	-0.2815261
184	0xbe90f923	-0.28315076
185	0xbe2409e9	-0.16019405
186	0x3e0899c8	0.13339913
187	0x3f086709	0.5328222
188	0xbec05aa7	-0.37569162
189	0x3e56a2f0	0.20960593
190	0x3e5eab96	0.21745142
191	0x3de6b0f4	0.1126422
192	0x3ecdaf7d	0.4017295
193	0xbec322f1	-0.38112596
194	0x3eeb0acb	0.45906672
195	0x3e815fd1	0.25268415
196	0x3d267db2	0.040647216
197	0xbb883053	-0.0041561513
198	0x3e2d396d	0.16916437
199	0xbe391ea5	-0.18078096
200	0xbca522c4	-0.02015818
201	0x3ef134e0	0.47110653
202	0x3e183d8e	0.14867231
203	0xbd94ecc5	-0.07271723
204	0x3e2b16f6	0.16707978
205	0xbe6feb36	-0.2342957
206	0x3e482661	0.1954589
207	0x3eeafd4d	0.45896378
208	0xbe38f25a	-0.180612
209	0xbde1cad1	-0.11025012
210	0x3c6eb85e	0.014570324
211	0x3e2b21c2	0.16712096
212	0x3e5dbc8c	0.21653956
213	0xbecbce97	-0.39806053
214	0x3eec4dc1	0.46153072
215	0x3e47c64d	0.1950924
216	0xbd8f0501	-0.06983376
217	0xbdbdb4a8	-0.09262973
218	0x3ea3a640	0.31962776
219	0xbe33111f	-0.17487
220	0x3e4fccec	0.20293015
221	0x3e929c8d	0.28635064
222	0x3eaf5fdf	0.3425283
223	0x3dbfc29c	0.09363291
224	0x3d7a8ae7	0.061167624
225	0x3e38cf3a	0.180478
226	0xbd72a08b	-0.059235137
227	0x3f319922	0.6937429
228	0xbeccd21c	-0.4000405
229	0xbe205449	-0.15657152
230	0xbc853367	-0.016259862
231	0x3e1db903	0.15402608
232	0x3eb61020	0.35559177
233	0xbece85f7	-0.40336582
234	0x3f1dbfc4	0.61620736
235	0x3e77f73e	0.24215409
236	0x3eb64ad2	0.35603958
237	0xbdca239e	-0.09870075
238	0x3e72293a	0.23648539
239	0x3e25e575	0.16200812
240	0xbdb0f8f7	-0.08641236
241	0x3e0c231e	0.13685271
242	0xbb99a94a	-0.0046893703
243	0xbe36036a	-0.1777474
244	0xbe60281c	-0.218903
245	0x3e080aa2	0.13285306
246	0xbdc281ab	-0.094973885
247	0xbcad6c68	-0.021169856
248	0x3ddca3fd	0.10773466
249	0xbcdecdb7	-0.027197702
250	0xbd57cc3e	-0.052685015
251	0x3dc25e5e	0.09490655
252	0xbd651ff8	-0.05593869
253	0xbe13339a	-0.14375153
254	0x3e4ca0a8	0.1998316
255	0xbd4c495e	-0.049874656

fc3.bias f4 [20]
0	0xbe79cc73	-0.24394397
1	0xbe2289cf	-0.15872882
2	0x3d93cb0c	0.072164625
3	0xbd9f55af	-0.07780015
4	0xbd7c86bd	-0.061651934
5	0xbbb8e1b8	-0.005642142
6	0xbda2729b	-0.079320155
7	0xbbe540bc	-0.0069962423
8	0x3c7cb6a1	0.0154244015
9	0xbdebef4d	-0.115202524
10	0xbd7dc437	-0.061954703
11	0x3df8deb9	0.12151856
12	0x3da8c4b6	0.08240645
13	0x3e905ca0	0.28195667
14	0x3da66c96	0.0812618
15	0x3ec030ef	0.37537333
16	0x38b36737	8.5546104e-05
17	0x3eae7bfb	0.34078965
18	0xbd8ff3b4	-0.070289046
19	0xbe4fd3cc	-0.20295638

fc4.weight f4 [20, 20]
0	0x3d6e71a2	0.058213837
1	0x3eb2e9e8	0.3494408
2	0x3c9a7c15	0.018857995
3	0x3ec30b57	0.3809459
4	0xbd885949	-0.06657655
5	0x3e54ff94	0.2080062
6	0x3e787f71	0.24267365
7	0x3d53b472	0.051685758
8	0x3e0ff225	0.14057215
9	0xbf4125c0	-0.75448227
10	0xbd7a0f5a	-0.061049797
11	0xbd36a9a3	-0.044595372
12	0x3e4ab222	0.19794515
13	0xbe195f7f	-0.14977835
14	0xbd9b834a	-0.07593401
15	0xbda75765	-0.08170966
16	0x3e3f16bb	0.18661015
17	0x3d1a0f5e	0.03761231
18	0x3e8b3d3a	0.2719515
19	0x3e5905d1	0.21193625
20	0xbdeca575	-0.11554996
21	0xbe985420	-0.29751682
22	0xbe1d8c11	-0.15385462
23	0xbeb1fdbc	-0.34763896
24	0xbdac4cc3	-0.08413079
25	0x3e255ab0	0.16147876
26	0xbdfad68e	-0.12247954
27	0xbd08d2cd	-0.03340416
28	0x3e31b18c	0.17352885
29	0x3f404105	0.7509921
30	0x3d14d507	0.03633597
31	0x3ec7d8ff	0.39032742
32	0xbcac1f85	-0.021011123
33	0x3dfdcdf4	0.12392798
34	0xbe24308b	-0.16034143
35	0x3e5b0032	0.21386793
36	0x3e654256	0.22388586
37	0x3dd5dc94	0.104424626
38	0xbc00ec57	-0.007868848
39	0xbe2240d8	-0.15845048
40	0xbf0e79ca	-0.55654585
41	0xbe853aee	-0.26021522
42	0x3d8e5165	0.069491185
43	0xbea1acfd	-0.31577292
44	0xbda2a40c	-0.07941446
45	0xbe302f6f	-0.17205594
46	0xbd2eb980	-0.042657375
47	0x3e3b0bea	0.18266264
48	0xbdbc488e	-0.09193526
49	0x3f3cdaac	0.73771167
50	0x3ee493fd	0.44644156
51	0x3dd95dd1	0.10613597
52	0xbd8b1408	-0.0679093
53	0x3e128a6c	0.14310616
54	0x3da1d336	0.079016134
55	0x3e92ae96	0.28648823
56	0xbe189980	-0.14902306
57	0xbd3a7fea	-0.045532145
58	0xbde05189	-0.109530516
59	0xbd91f97d	-0.07127664
60	0xbd0c3931	-0.03423423
61	0xbd9064a6	-0.07050447
62	0xbe5c6016	-0.21521029
63	0x3d671e3f	0.05642533
64	0x3dc8a80b	0.09797677
65	0xbdff6680	-0.12470722
66	0xbd884c75	-0.06655208
67	0x3d89b76d	0.06724439
68	0xbe0b958e	-0.1363127
69	0xbdbd6b66	-0.09249
70	0x3d96fd7f	0.07372569
71	0x3dff9b98	0.12480849
72	0xbd909961	-0.07060505
73	0x3dfb92e8	0.122838795
74	0x3e4b002d	0.19824286
75	0x3d71e00c	0.05905156
76	0xbd5de12f	-0.05416983
77	0xbe107b7e	-0.14109609
78	0xbc3a2669	-0.011361697
79	0x3d36553f	0.04451489
80	0xbf06375e	-0.52428234
81	0xbea5269d	-0.32256022
82	0xbea5ac72	-0.32358128
83	0xbf016366	-0.50542295
84	0x3d908406	0.070564315
85	0xbe1e1f3b	-0.15441601
86	0xbde2f937	-0.1108269
87	0x3e0d6322	0.13807347
88	0x3d76f230	0.06028956
89	0x3efd8163	0.49512777
90	0x3ebc077f	0.3672447
91	0x3e76759a	0.24068299
92	0xbe390459	-0.18068065
93	0x3ece689e	0.40314192
94	0x3c239844	0.009985033
95	0x3e36bc5c	0.17845291
96	0xbe27e063	-0.1639419
97	0x3e00c9be	0.12576959
98	0xbe2d47ee	-0.1692197
99	0x3e26134c	0.16218299
100	0xbe3d2d7b	-0.1847438
101	0xba59f5f2	-0.0008314542
102	0xbe1186dd	-0.14211603
103	0x3d50896c	0.050912306
104	0xbe328ca5	-0.17436464
105	0x3d8aff67	0.067869954
106	0xbd1cf44c	-0.038318917
107	0xbda416a6	-0.08012132
108	0xbe45a88e	-0.1930258
109	0xbe0b994d	-0.13632698
110	0x3e120a86	0.14261827
111	0xbe28621f	-0.1644368
112	0xbd00e119	-0.03146467
113	0xbe12d6f0	-0.14339805
114	0x3e01f4c5	0.12691028
115	0xbdeec1ac	-0.11658034
116	0xbdc42e33	-0.09579124
117	0xbd32d23d	-0.04365753
118	0x3da1bfe9	0.07897932
119	0x3dd6aada	0.10481806
120	0x3e1bf6ca	0.15230861
121	0x3cbcc329	0.023042278
122	0xbe3013bf	-0.17195033
123	0x3d82f9a5	0.06395272
124	0xbda26f26	-0.07931356
125	0x3e545644	0.20736033
126	0xbe522fd5	-0.20526059
127	0xbe536a2b	-0.20645969
128	0x3db32727	0.08747702
129	0xbd4cb16c	-0.04997389
130	0x3e463659	0.1935667
131	0x3e39a47d	0.18129154
132	0xbcf47712	-0.029841933
133	0xbde8dc8e	-0.113701925
134	0x3e3e5f11	0.18590952
135	0xbdde5892	-0.10856737
136	0xbd0dc881	-0.034615044
137	0x3cb0e488	0.021593347
138	0x3a93e109	0.0011282276
139	0xbdae95a2	-0.08524634
140	0x3e2f4008	0.1711427
141	0x3e69ef0b	0.22845094
142	0x3e490799	0.19631805
143	0x3e9684ce	0.29398197
144	0xbdd9a63b	-0.10627409
145	0xbe3564f6	-0.17714295
146	0x3e8e0f54	0.2774607
147	0xbd110ee9	-0.03541461
148	0xbd47857e	-0.048711292
149	0xbea869cc	-0.32893217
150	0x3d61a077	0.05508467
151	0x3e8768a2	0.26447016
152	0xbe73c53a	-0.23805705
153	0x3e1f7017	0.15570103
154	0xbd27b595	-0.040944654
155	0x3e7cb51e	0.24678466
156	0x3eaff939	0.3436983
157	0x3d4f089a	0.050545312
158	0x3ef0b3f0	0.4701228
159	0x3cb18513	0.0216699
160	0x3cef1c14	0.029188193
161	0x3e7dbaa8	0.24778235
162	0x3e7b32f8	0.24531162
163	0x3e302983	0.17203335
164	0xbdd47731	-0.103742965
165	0xbe572151	-0.21008803
166	0x3e8e72eb	0.2782205
167	0x3e48526a	0.19562688
168	0x3cd6ee3f	0.026236651
169	0xbeb827d6	-0.35967892
170	0x3eb68074	0.35644877
171	0xbce6c8c5	-0.028171906
172	0x3dc8a5e0	0.09797263
173	0xbe1e2046	-0.15441999
174	0x3e09f44d	0.134721
175	0xbe787aa5	-0.24265535
176	0xbd97dc78	-0.07415098
177	0xbd4ab325	-0.04948725
178	0x3e913f31	0.28368524
179	0x3d6a7196	0.05723723
180	0xbe2ea4c1	-0.17055036
181	0xbe8be185	-0.27320495
182	0xbde17c25	-0.11010007
183	0xbd962b9d	-0.07332537
184	0xbcad6726	-0.02116735
185	0xbe1f139c	-0.15534824
186	0xbeb6582c	-0.35614145
187	0xbdfcdf50	-0.12347281
188	0x3deab5ca	0.11460455
189	0x3ef61206	0.48060626
190	0xbe1a3b67	-0.15061723
191	0x3eda385b	0.4262112
192	0x3e086fbe	0.13323876
193	0x3e3bf638	0.18355644
194	0xbe63fe97	-0.22265087
195	0x3e9ae1fc	0.30250537
196	0x3d0bde0c	0.034147307
197	0x3e46779f	0.1938157
198	0xbe9fdf35	-0.3122498
199	0xbca077aa	-0.01958831
200	0xbd6672d3	-0.05626185
201	0x3cccbdf5	0.024992922
202	0x3d60b71d	0.05486213
203	0xbd9fdcec	-0.078058094
204	0x3da09643	0.0784116
205	0xbcfadf73	-0.030624127
206	0xbb94fb0c	-0.0045465287
207	0x3e01c44a	0.12672535
208	0x3e445412	0.19172695
209	0x3cfa05d3	0.030520355
210	0x3d3ea815	0.046547014
211	0x3e4a5c37	0.1976174
212	0xbd4e8c70	-0.0504269
213	0xbe11c4c9	-0.14235224
214	0x3e031223	0.12799887
215	0xbe6657f7	-0.22494493
216	0x3c978973	0.018498158
217	0xbcb3f90a	-0.021969337
218	0xbe4230fa	-0.18963996
219	0x3e24c96d	0.16092463
220	0xbdd2eeb7	-0.102994375
221	0xbce56cb4	-0.028005935
222	0xbcd3bb85	-0.025846252
223	0x3e2a9516	0.16658434
224	0x3deb0b11	0.1147672
225	0xbe063e80	-0.1310978
226	0xbd270e4f	-0.04078513
227	0xbb8ab286	-0.0042327074
228	0x3dce3857	0.1006934
229	0xbe631690	-0.22176576
230	0x3e568642	0.20949653
231	0xbd861286	-0.06546502
232	0xbe2d9be5	-0.16954
233	0xbe4fbb82	-0.20286372
234	0xbe312d7c	-0.17302507
235	0xbe0bac3d	-0.13639922
236	0xbe769dbd	-0.2408361
237	0x3cf0ecdf	0.029409824
238	0xbe4f2d61	-0.20232154
239	0x3e25bac8	0.16184533
240	0x3d9f6929	0.077837296
241	0x3e2b2feb	0.16717498
242	0x3d78c134	0.060731128
243	0xbe5c992f	-0.2154281
244	0x3d4c3407	0.049854305
245	0x3da7a1d0	0.0818516
246	0xbe530ac0	-0.2060957
247	0xbe283f8a	-0.16430488
248	0x3c373d07	0.011183984
249	0xbc05336d	-0.008129937
250	0xbe57eb85	-0.21085937
251	0xbe3dee31	-0.18547894
252	0x3dbdff4f	0.09277212
253	0xbdf07958	-0.117418945
254	0xbcde8df2	-0.027167294
255	0xbe615a20	-0.22007036

fc4.bias f4 [20]
0	0xbdb726b7	-0.08942931
1	0x3e3c5ac0	0.18393993
2	0xbda89924	-0.08232334
3	0xbe611f84	-0.21984679
4	0x3e8e3e8b	0.27782091
5	0xbe63163d	-0.22176452
6	0xbd44cc60	-0.04804647
7	0xbd9767bb	-0.07392832
8	0x3e21b344	0.1579104
9	0x3eab7356	0.33486432
10	0xbdd292ca	-0.10281904
11	0x3e16b115	0.14715989
12	0x3e322877	0.17398249
13	0xbca76c81	-0.02043748
14	0xbe1ad8bf	-0.15121745
15	0xbe3e56f8	-0.18587863
16	0xbe3d4d42	-0.18486503
17	0x3d8ded75	0.06930057
18	0x3d941a25	0.07231549
19	0x3c5ad8af	0.013357325

fc5.weight f4 [20, 20]
0	0x3e96a89c	0.29425514
1	0xbe36d005	-0.1785279
2	0xbf0ab590	-0.5418329
3	0xbe018435	-0.12648089
4	0xbf37349e	-0.7156466
5	0xbd4ff0c9	-0.05076674
6	0xbe5d88e2	-0.21634248
7	0x3d2bcfbd	0.04194616
8	0x3f2247e9	0.63390976
9	0xbdf7a82b	-0.12092622
10	0x3d392ccf	0.04520875
11	0x3dc151b1	0.094394095
12	0x3ccc59d1	0.024945172
13	0x3e2e4f34	0.17022401
14	0x3e561572	0.20906618
15	0x3c55f1cd	0.013058138
16	0xbe5c1902	-0.21493915
17	0x3e1813a9	0.1485125
18	0x3e4dcb77	0.20097147
19	0xbd3e2239	-0.046419356
20	0x3eba09cb	0.36335596
21	0xbe7e9cd0	-0.24864507
22	0xbf1430a4	-0.5788672
23	0xbd10d3af	-0.035358127
24	0xbf40be43	-0.75290316
25	0xbd96b7c6	-0.07359271
26	0xbc3d2122	-0.011543544
27	0x3d8b93d9	0.06815309
28	0x3f38ed37	0.7223696
29	0x3ca358b5	0.01993976
30	0x3e74d105	0.2390786
31	0xbe6cd823	-0.23129325
32	0x3d8c2e99	0.06844825
33	0x3bc4b6ef	0.0060032527
34	0x3e2fcd79	0.17168225
35	0xbdfb1cff	-0.1226139
36	0xbda6d071	-0.08145226
37	0x3da2c431	0.07947577
38	0xbe06c27b	-0.13160126
39	0x3db92d73	0.09041872
40	0x3ead1aee	0.33809608
41	0xbd98692d	-0.07441936
42	0xbf3f3898	-0.7469573
43	0xbe09a2a7	-0.13440953
44	0xbf301866	-0.6878723
45	0x3db21a80	0.08696461
46	0x3dab376e	0.08360182
47	0xbc8a1619	-0.01685624
48	0x3f2db8dd	0.67860204
49	0xbdeeb0f9	-0.116548486
50	0x3da87e49	0.08227212
51	0x3caad0a7	0.020851446
52	0xbd911c93	-0.07085528
53	0xbd918d92	-0.071070805
54	0xbdf0319e	-0.11728214
55	0x3c40a7f2	0.011758791
56	0x3e24bc03	0.16087346
57	0x3e909d0d	0.2824482
58	0x3d009496	0.031391703
59	0xbe36a82c	-0.1783759
60	0xbe33f737	-0.17574774
61	0x3dcaeee6	0.099088475
62	0x3ee61a84	0.44942105
63	0x3d9b3d09	0.07580001
64	0x3ef7a79a	0.48370057
65	0xbda3c83b	-0.07997175
66	0x3c31ec5c	0.010859575
67	0x3dbdfad6	0.09276359
68	0xbf3600e4	-0.7109511
69	0x3e8f5ad5	0.27998987
70	0xbdb1e054	-0.08685365
71	0xbd6127c9	-0.054969583
72	0xbd834916	-0.064104244
73	0xbdef4c81	-0.11684514
74	0x3e450561	0.19240333
75	0x3e48d42f	0.19612192
76	0xbdfa2d43	-0.12215664
77	0x3e6165b3	0.22011451
78	0xbba15870	-0.0049238726
79	0x3e587fdf	0.21142529
80	0x3ef5794d	0.47944108
81	0x3e83f8cc	0.25775754
82	0xbf36bff4	-0.7138665
83	0xbc5e1dde	-0.013556926
84	0xbf03b6d8	-0.5145087
85	0xbda0b644	-0.078472644
86	0x3e4f5e1c	0.20250744
87	0x3eb02edf	0.3441076
88	0x3f31d140	0.69459915
89	0x3e7eb495	0.24873574
90	0xbdeb4d64	-0.114893705
91	0x3e07214f	0.131963
92	0xbcd20479	-0.025636898
93	0xbdeaa267	-0.11456757
94	0xbccfb4cd	-0.025354767
95	0xbcbb635f	-0.022874532
96	0x3e64e6c4	0.22353655
97	0x399d23df	0.000299721
98	0xbe2ab967	-0.16672288
99	0xbe4917ec	-0.19638032
100	0x3dfb8d0b	0.12282761
101	0x3c9e6187	0.019333614
102	0xbf50c562	-0.8155118
103	0xbe24b514	-0.16084701
104	0xbed7501c	-0.42053306
105	0xbe25b3f3	-0.16181926
106	0xbdb47981	-0.088122375
107	0x3df74038	0.12072796
108	0x3f19702c	0.59936786
109	0xbe81fa2e	-0.25386184
110	0x3c744b4f	0.014910533
111	0xbd5e0459	-0.054203365
112	0x3dd8ce9a	0.10586281
113	0x3c9c53dc	0.019082956
114	0xbe2840c1	-0.16430952
115	0xbdf63340	-0.12021494
116	0xbe07d2f3	-0.13264064
117	0x3e40a232	0.18811873
118	0xbe5837de	-0.21115062
119	0xbe0e5233	-0.13898544
120	0x3e8bc7e4	0.27300942
121	0xbdc2ea0b	-0.095172964
122	0xbf53e41c	-0.8276994
123	0xbe276ead	-0.16350813
124	0xbf33f91e	-0.70302
125	0x3dae05de	0.08497213
126	0x3e01f911	0.12692668
127	0x3e316b10	0.17325997
128	0x3f098502	0.5371858
129	0xbdd119ff	-0.102100365
130	0x3a48e638	0.00076637
131	0xbe33c259	-0.17554606
132	0x3c081a6f	0.0083070835
133	0x3e0cad76	0.13738045
134	0xbc90d6c2	-0.01768053
135	0x3d5de9b6	0.054177962
136	0x3c3c17d3	0.0114802895
137	0x3e257289	0.16156973
138	0xbe26d3d9	-0.16291751
139	0xbdfb38a8	-0.12266666
140	0xbeb5188e	-0.35370296
141	0x3e89e1c8	0.2693007
142	0x3f0fc12e	0.56154144
143	0x3dcc7fa9	0.09985287
144	0x3eeafd7d	0.4589652
145	0x3e4ca452	0.19984558
146	0x3dad8cc8	0.084741175
147	0x3e2a77c7	0.16647254
148	0xbf2012e2	-0.6252881
149	0x3ec041f8	0.3755033
150	0x3dd6c21e	0.10486244
151	0xbd93f079	-0.07223601
152	0xbe0902bf	-0.13379954
153	0xbd86520f	-0.0655862
154	0xbdd4b0a5	-0.10385255
155	0xbe31d7e1	-0.17367508
156	0x3e591a46	0.21201429
157	0x3e981bef	0.29708812
158	0xbd9757cf	-0.07389795
159	0x3e3e5c92	0.1859
160	0x3e1abc6b	0.15110938
161	0xbe430ffe	-0.1904907
162	0xbda40094	-0.08007923
163	0xbe5d1d96	-0.21593317
164	0xbe344c03	-0.17607121
165	0x3dc7ff9c	0.097655505
166	0xbdf3cf0b	-0.11904725
167	0x3e45d9d4	0.19321376
168	0x3e4e4c67	0.20146333
169	0xbd15eb7a	-0.03660152
170	0x3d11e75d	0.035621036
171	0xbdaaea78	-0.083455026
172	0x3e28a3cd	0.16468735
173	0x3e2a1868	0.16610873
174	0x3da2e1c7	0.0795322
175	0xbc16f482	-0.009213569
176	0xbd604313	-0.054751467
177	0xbe43eb45	-0.19132717
178	0x3e4fd91a	0.20297661
179	0x3daa06fa	0.08302112
180	0xbe4027ae	-0.18765137
181	0x3e0ca37f	0.13734244
182	0x3e5cd194	0.21564323
183	0x3d970db5	0.07375661
184	0xbdaf3754	-0.08555475
185	0xbc912fec	-0.017723046
186	0x3d42d67d	0.047567833
187	0xbe5aefd2	-0.21380547
188	0x3d798718	0.06091985
189	0xbe25868a	-0.16164604
190	0xbc4800b4	-0.012207199
191	0xbc4671c9	-0.012112089
192	0x3e39bf35	0.18139346
193	0xbe4c09be	-0.19925591
194	0xbc8aba20	-0.016934454
195	0x3d23e163	0.040009867
196	0x3d529c36	0.051418506
197	0x3de8c8c0	0.11366415
198	0xbe127ed9	-0.14306201
199	0xbdbd2dc8	-0.09237248
200	0x3e564536	0.2092484
201	0xbe9180ab	-0.28418478
202	0xbe95625b	-0.29176602
203	0x3d4e6837	0.050392356
204	0xbe1c0533	-0.15236358
205	0x3d927000	0.071502686
206	0xbd81bed5	-0.063352264
207	0x3e97de84	0.29661953
208	0x3f194624	0.5987265
209	0xbeb38038	-0.3505876
210	0xbd429ad0	-0.047510922
211	0xbdf56e08	-0.119838774
212	0x3d59db9e	0.05318796
213	0x3e51e915	0.2049907
214	0xbdf293b7	-0.118445806
215	0xbda28fb6	-0.07937567
216	0x3cf39878	0.029735789
217	0x3d3b8a50	0.045786202
218	0x3de9e448	0.11420494
219	0xbdd39f05	-0.10333065
220	0x3e068013	0.13134794
221	0xbe228e38	-0.15874565
222	0xbe5aa3b1	-0.21351506
223	0x3e0a84e6	0.13527259
224	0xbeb93af0	-0.36177778
225	0xbe5afc67	-0.21385346
226	0xbc46cb3b	-0.012133415
227	0x3e21d38c	0.15803355
228	0x3e7d0d1e	0.24712035
229	0xbda88331	-0.08228148
230	0xbe40cfa4	-0.18829209
231	0xbe4c7f5a	-0.19970456
232	0x3e2d2212	0.16907528
233	0x3e133df1	0.14379098
234	0xbd72f9cb	-0.059320252
235	0xbd2abbf2	-0.041683145
236	0xbb8d0873	-0.0043039857
237	0xbb91e045	-0.004451784
238	0x3d4bfb83	0.049800407
239	0xbe3be520	-0.18349123
240	0xbd44b0a9	-0.04802004
241	0xbdf52e41	-0.11971713
242	0xbd25dad9	-0.040491913
243	0xbd9a60ba	-0.075379804
244	0x3cf3f7d0	0.029781252
245	0xbe63f1a7	-0.22260152
246	0x3e4bae97	0.1989082
247	0xbbf4014e	-0.0074464446
248	0x3e15d81f	0.14633225
249	0x3db7f748	0.08982712
250	0x3e057fe3	0.13037066
251	0xbd1e20cb	-0.038605493
252	0x3d4abb65	0.04949512
253	0xbe0e13c9	-0.13874735
254	0x3ddc66a6	0.10761766
255	0x3e1f1a64	0.15537411

fc5.bias f4 [20]
0	0xbd948455	-0.07251803
1	0x3c1574cc	0.009122085
2	0x3e2fa5d7	0.17153107
3	0x3e3af0f5	0.1825598
4	0x3dab76b9	0.08372254
5	0x3d1e91c9	0.03871325
6	0x3e100cf8	0.14067447
7	0x3eb4ee8a	0.3533824
8	0xbe208cad	-0.15678664
9	0xbe5d900e	-0.21636984
10	0xbe8e3fa9	-0.27782944
11	0x3b167a0c	0.002296093
12	0x3d2b0d1e	0.041760556
13	0x3cd53d8d	0.026030326
14	0x3e230dd1	0.1592324
15	0x3d2dd9e8	0.04244414
16	0x3e240f27	0.16021405
17	0x3ea0db98	0.31417537
18	0xbe4ff8e7	-0.20309792
19	0x3d019e8c	0.031645343

fc6.weight f4 [3, 20]
0	0x3eac4754	0.3364817
1	0x3f1729f0	0.59048367
2	0x3ee8f903	0.4550248
3	0x3e01d8c8	0.12680352
4	0x3da7fae8	0.082021534
5	0x3ee10629	0.43950012
6	0x3ebfd082	0.37463766
7	0xbe2332a2	-0.15937284
8	0xbe395b16	-0.18101153
9	0xbe4098e6	-0.18808326
10	0x3f028f7c	0.5100019
11	0x3ed0b9fa	0.4076689
12	0x3c1bea5c	0.009516325
13	0x3e8cca71	0.274982
14	0xbdbc9aa5	-0.092091836
15	0x3eac4482	0.33646017
16	0xbea60f74	-0.32433665
17	0xbd7ab958	-0.061211914
18	0xbe2ce3e4	-0.16883808
19	0xbe1ca24c	-0.15296286
20	0xbf1b0e22	-0.6056844
21	0xbe32f237	-0.1747521
22	0xbec957b6	-0.3932473
23	0xbf31f9c1	-0.6952172
24	0xbf152499	-0.5825897
25	0xbed4c38f	-0.4155545
26	0xbe9f1733	-0.31072387
27	0xbf1f0d34	-0.6212952
28	0xbe1ad807	-0.1512147
29	0xbdcde330	-0.10053098
30	0xbee19c06	-0.4406435
31	0xbe98cf2f	-0.2984557
32	0x3c66233b	0.014046486
33	0xbea5471c	-0.32280815
34	0x3d610602	0.05493737
35	0xbed98d56	-0.42490643
36	0xbf0ba94f	-0.5455522
37	0xbf2aee74	-0.667701
38	0x3e448edc	0.19195122
39	0x3c81cd98	0.015845105
40	0xbf10ab3b	-0.56511277
41	0xbf0408f1	-0.51576144
42	0xbdd0b907	-0.10191541
43	0x3ebe13df	0.37124535
44	0x3c55be35	0.013045837
45	0xbe6080fb	-0.21924202
46	0xbd603e3f	-0.054746863
47	0x3ec88ecf	0.39171454
48	0x3d263c41	0.040584806
49	0xbe1230a0	-0.14276361
50	0xbf14690d	-0.57972795
51	0xbed0e2af	-0.40797946
52	0xbb46a054	-0.0030307965
53	0x3cb81cc2	0.02247465
54	0x3e42c418	0.19020116
55	0xbe8ae4b2	-0.27127606
56	0x3f07fd3c	0.5312078
57	0x3e1acc62	0.15117028
58	0xbd0f3e6d	-0.034971643
59	0x3e0891cb	0.13336866

fc6.bias f4 [3]
0	0x3c2a88fa	0.010408634
1	0xbeaa0e0d	-0.33213845
2	0x3e97be16	0.29637212
