models_3val/xor_and_7.pth (torch, 12178 bytes, 12 tensors)

fc1.weight f4 [20, 12]
00000000: 5ef5 d73c e443 493e 44f6 a3bd 941c 963c
00000010: 28f3 a33e e7fa a9bd f882 803e 9c8f 473e
00000020: 918b 3f3e 17be 693e b36f febd 9d10 733e
00000030: d4be 5a3d 4cd0 c73d 8679 ddbc 8f6c ea3d
00000040: 710a 413e 8775 bbbd a64d 3dbe 2dc0 cabd
00000050: 87a1 933e bbb1 d53d 3feb 8fbc f0bd 323e
00000060: f1a7 103d 02c8 ed3d cd00 593e 81e5 af3e
00000070: d82b 143f c6c8 593e af6b 5dbc bc3c 3a3d
00000080: e6e0 533d 2383 2f3e b968 dcbd 4744 853e
00000090: bafa e13d 20bb 7d3e 0894 6b3d 5138 273d
000000a0: eaff 8e3e 4deb fd3c 04c3 993e d11b b0bd
000000b0: f986 9abd 3a53 793e d1d5 a83d 2c73 f63d
000000c0: d779 8f3e 574e 1dbd ff6b d33e e0d5 2bbe
000000d0: 23c6 7dbe d7e2 673e 52aa 8b3e b180 6d3d
000000e0: c30a d93d bb97 00be 622b b63d 2925 423e
000000f0: 52a1 163e fc95 1e3e 37ee 62be 09a0 4cbf
00000100: a3a4 0fbd 20b2 4cbf 0e0d a6bd ad2e ce3a
00000110: dba7 eb3a 8f85 333a 09be cd3a b679 323b
00000120: af47 e4bb f1b2 533e cc0e 623e 77b4 aebd
00000130: 0572 e33e 3f07 c7bd 4e58 ca3e 06ee 9c3e
00000140: 89ca 5c3e 5782 7cbd b6a7 03be 158a 83bd
00000150: 0346 963d 21fd d13e 5566 5bbe 56c2 a5bd
00000160: 6af4 3bbe 71eb b03e 3ee3 8d3e e745 313e
00000170: 23f2 9bbd a14c 923e 2b4a 373e 9f8e 593e
00000180: 24c6 d0bd 502e 09bd 1b62 8a3e b30e 503d
00000190: 4b47 93bc db79 9a3c c2fb 923e 7b91 323e
000001a0: 88be 73bd fea9 643e af86 8f3e c03c 943c
000001b0: 0892 023f 5877 783e 53ef d0be b9e1 d53e
000001c0: 559c cabe c7e2 243d 25be 0e3e 9f28 b63e
000001d0: 7d06 fc3d 70f5 8c3d e59b 253e e8c9 eb3d
000001e0: 0ee0 7f3e 10d2 263e 9e81 d53b a540 d8bd
000001f0: d1fc 8f3c fefb 033e f58a 953e 11e0 5bbd
00000200: 01b4 133e 5f2b 6a3c b3a7 793d eb21 2e3e
00000210: f633 8a3d 9a2d 34be b089 a63d ab7e 42be
00000220: 8781 683c 9c88 5f3d 5035 2bbf be4b aa39
00000230: 4020 ba38 3e42 8d39 0534 9839 f095 db39
00000240: c731 a03d 13ab 993d ff22 b3bc b53c bdbe
00000250: 22ff 55be 9d44 26bf 4f9d 773e 3663 a8bb
00000260: 9361 72bb 10b2 77bb 385a c7bb 52e1 ddba
00000270: b145 e1bc db4e e1bc 8ae8 af3d 0a8b c13c
00000280: 38ca 08bf 30f6 5ebf e215 4ebb 644b 283b
00000290: d662 053b 5cb0 083b 7053 ed3a 1681 e43a
000002a0: 7010 d93d a57f 563d e96a ae3e 82e7 b53e
000002b0: f99d b93e 2f20 843e 23f6 b43e f92f 893e
000002c0: 0bff 94bd dd25 343e 6ed4 9ebd 17ae 313e
000002d0: 9b5a b83e 4916 8d3d 1f96 3e3e 4638 3d3d
000002e0: b499 943d d30d 6c3d 13df 743e 15e4 d53e
000002f0: f4ec f7bd c247 0dbe 02fc b9bd 48e5 623d
00000300: 78d3 eb3d 487a ee3d e1e6 4abd 8016 0c3e
00000310: a3bf d03d b89d 0a3e 551f 51bf 25b0 f73a
00000320: 67c7 113b 7262 c33a 5c35 0c3b 11dc 663b
00000330: 0156 5dbc 6153 ca3d e5a3 953e 591f 3e3e
00000340: 81e8 143e aa5e c43e 7d6a 1f3e 7d7d 52be
00000350: 7ad5 96bd 86f5 e83c 8178 f93d 272e 093e
00000360: 5263 25be dc8d 0dbe e0ae a43e d7b9 203c
00000370: b605 8a3e ab55 da3e bc9e a63d fc2f c0bd
00000380: 29ce 3b3e 37bf d6bd cb21 2a3e aefb 7c3e
00000390: adfb 573e 7b26 2fbc a480 23bd 9e64 fd3d
000003a0: af18 8c3e b943 99bd 0995 e03d 1500 893e
000003b0: 587b c3bc 668a 493e 8710 6a3e 8077 1d3d
0.026362117 0.19654804 -0.08005956 0.018324174 0.3202145 -0.08299809 0.2509992 0.19488376
0.18705584 0.2282642 -0.12423649 0.23736806 0.053404644 0.09756526 -0.027035486 0.11446487
0.1885164 -0.09153276 -0.18486652 -0.09899936 0.28834173 0.1043429 -0.017568229 0.17455268
0.03531641 0.11610414 0.21191712 0.34354785 0.578794 0.21267995 -0.013514443 0.045468077
0.05172815 0.17139868 -0.10762162 0.26028654 0.110341504 0.24778414 0.05751422 0.040825192
0.27929622 0.03099599 0.30031598 -0.085990556 -0.07545275 0.24348155 0.08243907 0.12033686
0.28022644 -0.03840479 0.41293332 -0.16780806 -0.24782614 0.22645126 0.27278382 0.057984058
0.10597756 -0.1255788 0.08894993 0.18959488 0.14709976 0.15486902 -0.22161184 -0.79931694
-0.03506912 -0.799593 -0.08107959 0.0015730463 0.0017979102 0.000684821 0.0015696894 0.002723319
-0.006966553 0.2067373 0.22075957 -0.08530515 0.44422927 -0.09718179 0.39520496 0.30650347
0.21561636 -0.06164774 -0.12856945 -0.064228214 0.073375724 0.41013435 -0.21425755 -0.08093707
-0.18354955 0.34554628 0.27712435 0.17311822 -0.07614543 0.28574088 0.17899387 0.21245812
-0.10194042 -0.033491433 0.27027974 0.05079527 -0.017978331 0.018856933 0.287077 0.17438309
-0.059507877 0.22330472 0.28032443 0.018095374 0.51004076 0.24264276 -0.4080759 0.41773775
-0.39572397 0.040255334 0.13939722 0.35577866 0.12305925 0.06882751 0.1617275 0.1151312
0.24987814 0.1629107 0.0065156957 -0.10559205 0.017576607 0.12889096 0.29207578 -0.053680483
0.14424135 0.014292567 0.060950946 0.17005126 0.06748192 -0.1759552 0.081317306 -0.18993632
0.014191038 0.05457364 -0.66878223 0.0003248136 8.875178e-05 0.0002694297 0.00029030457 0.00041882647
0.07821994 0.07503333 -0.021867273 -0.36960378 -0.20898107 -0.64948446 0.24181102 -0.00513878
-0.0036984428 -0.0037795343 -0.006083753 -0.0016928113 -0.027499052 -0.027503422 0.08589275 0.02362587
-0.5343356 -0.870944 -0.0031446149 0.0025679702 0.00203531 0.0020857072 0.0018106531 0.001743349
0.10598838 0.052367825 0.3406594 0.3552819 0.36253336 0.25805804 0.35344037 0.26794413
-0.07275208 0.17592569 -0.077553615 0.17351566 0.36006626 0.06889016 0.18611954 0.046196245
0.07255879 0.05763037 0.23913221 0.41775575 -0.12105742 -0.13796905 -0.0908127 0.05539444
0.11514944 0.11644417 -0.04953659 0.13680458 0.10192802 0.13536727 -0.81688434 0.00188971
0.0022244097 0.0014906658 0.002139411 0.0035226385 -0.013509274 0.098791845 0.29226604 0.18566646
0.14541818 0.38353473 0.15567966 -0.20555682 -0.07364936 0.028437387 0.121811874 0.13396512
-0.16151169 -0.13823646 0.3216467 0.009809933 0.26957482 0.42643484 0.08135745 -0.09384152
0.18340363 -0.1048569 0.16614453 0.24705383 0.210921 -0.010690327 -0.039917603 0.12372707
0.27362582 -0.0748362 0.10965926 0.26757875 -0.023862526 0.19681701 0.22857867 0.038444042

fc1.bias f4 [20]
00000000: a073 0a3e c6d5 833e 2488 bf3e 982b 5fbd
00000010: d5f9 3a3e e16c 9c3e 375a d53d 82fb 8e3e
00000020: 3cef 7d3e 9d35 b43e 3b5a 36bd aed8 d83e
00000030: 522d 0bbe c1b2 003f 152f 113e 3154 ba3e
00000040: d472 8fbc f2df 4c3e 7040 833d f4ad d6bc
0.1352067 0.25749034 0.37408555 -0.054484934 0.18259366 0.30551818 0.10417598 0.2792626
0.24798292 0.35197154 -0.044519644 0.42352813 -0.13591507 0.50272757 0.14178117 0.36392358
-0.017510809 0.20007303 0.06408775 -0.026205994

fc2.weight f4 [20, 20]
00000000: c925 793d c018 6c3e f52b 713e 89b9 503e
00000010: b50f b93c a808 77be e29b fd3d 993f e03d
00000020: c470 7a3e c044 133e 9963 e3bc c90b 40bf
00000030: 621d 4ebe 5762 09bf 71cf e03d 1405 e5bd
00000040: 92a3 8ebe 424f 613e 306f 853c 3017 c6bb
00000050: 528f 103e efde d23d e59c f3bc f8fc 523e
00000060: f046 773e 406f a3be 98ad b73c ca97 623e
00000070: 8cee af3e 5017 2fbb 04e2 dcbd 5101 2abf
00000080: b487 9abe 5401 17bf 1114 893b a2c2 e33c
00000090: 1293 ecbe c8de 723c 1eb2 6a3e 12d6 1e3e
000000a0: 75af 96bd 333c 9e3d f73c 683d 57ed 043e
000000b0: 348a 5dbe bac4 263f 4eea 063e 2925 dd3d
000000c0: 084d 36be 2281 fb3d ec72 d4bd 1b3b 493f
000000d0: 20cb 4d3e fd16 093f 1804 7a3e 17c1 6cbd
000000e0: 2ef0 203f 838d 03bd 3389 9d3e 40ae d4bd
000000f0: 6e4f 073e 98f8 083e 2c0c 8f3e 1418 383e
00000100: 17a8 a83d f215 00bf 814c a53e 3346 6b3e
00000110: 7ef8 203e 4d79 8d3d 416e de3d 9a76 0bbf
00000120: 5b5c 8cbe 87eb 26bf 77cd a03e 724e 5d3e
00000130: 2741 02bf b0b1 af3e 5b10 4f3e 161a 823e
00000140: 86a4 793e 169b b83e 1ba7 873e fb38 6f3e
00000150: 283d c83d b58f eabe 7417 ba3d 0e5d 9b3e
00000160: c765 5e3e 5540 b4bd 42fa 333e 549b 4bbf
00000170: fe34 5bbe 7f16 21bf 902c 96bd 73de 943e
00000180: 3911 cabe 466e 1e3e a51e 923e db75 613e
00000190: 64d8 833e ba61 dabd a491 04bd 304f a63d
000001a0: c076 853e 6d1a cf3e 5412 a2bd 834e 873e
000001b0: be47 0b3e 3736 193e d123 b43e 9824 673f
000001c0: 450d ec3e 4442 1a3f 324e 0a3e 4ee0 fd3d
000001d0: 3ff1 0d3f be3f c9bd 59d3 d53d 4248 9f3e
000001e0: 6004 00be 8600 993d 4069 f7bd ddda 71be
000001f0: 0c7f 0cbd ff90 98bd f540 76be 4187 36be
00000200: 36f2 7abc e90f b93d f7dc 4fbe 9751 f8bd
00000210: 8c44 37be 5014 95bd df2a 6fbe ee56 873d
00000220: 13e9 e33d 4715 1abe dd9e 5fbe 8eae afbd
00000230: 80db 003e e915 4c3e d6da 5bbd b967 11bd
00000240: 5a89 0b3d 12ae b33e c870 8cbd 7b9c 2a3e
00000250: 927a 243e 402b 003e 5242 cb3c 1397 4e3f
00000260: 44ac 9b3d b829 513f f4ff 733e 814e c6bb
00000270: 8cff 553e 5f97 edbd 727a 763e dcd0 a13e
00000280: f781 23bb fb0b 00bb 4e1e e8bd 9127 6dbe
00000290: d3b6 0bbe f8c5 833c 7812 a33d 8b72 093e
000002a0: ff3b 83be 2a85 bebd 9007 49be eb85 42be
000002b0: 970c c1bd 0d6e 12be 221b 0d3d 3331 023d
000002c0: 227d db3d 5a2e 19be 3397 8ebd 0aa8 62be
000002d0: 009b fd3d 0d1a 7c3e 9f1a f33c cbbc 1ebd
000002e0: 3d79 7d3e 0ece 33be 130b 29be bf0e 503e
000002f0: 4f3f bd3c 8f60 aa3e 4aca 853d ebb7 12bf
00000300: af89 a8be acec 03bf 7afe aa3d 929c 613e
00000310: 03a6 14bf ed03 aebd 0ffd 32bd 3dfd 85be
00000320: 2c4e 653d c578 4c3e 57fd 7a3e 1fca 003d
00000330: 8e6c 433d 8ee5 073f 42eb 003d ca4a 8a3e
00000340: dfc2 e13d 8389 8b3e 6c9c 013e 31f7 6b3f
00000350: 9df5 bb3e eede 313f 407f 813e bcb9 bd3d
00000360: 0ec5 323f f6d3 323e 3661 443e b7ee 663e
00000370: 9649 ecbd d77a 013e a3af 15be 4806 07bd
00000380: 2d8b 81bc 27d9 dd3e 8d34 5b3e 03d3 a33d
00000390: eadd 10be d636 61bb 3374 883d 3248 6a3f
000003a0: 3565 e43e 7dd9 603f 8bd1 f53d 2e89 613b
000003b0: fe23 2b3f fd55 563b c303 4a3e 1498 593e
000003c0: 18e1 a8bd c926 903d a10f e93c d1c9 153d
000003d0: 9841 013e e409 0f3f 6e8f 873e fbe7 74bd
000003e0: bf18 88bd 4b54 c93d 6c4d f13d 11ba 693f
000003f0: 90bf 083e 884e 573f 0d2b 323e 77a7 eb3d
0.06082705 0.23056316 0.23551925 0.20383276 0.022590498 -0.24124396 0.12383248 0.1094963
0.24457079 0.14381695 -0.027757453 -0.7501798 -0.20128396 -0.5366568 0.10977066 -0.11182609
-0.2785917 0.2200289 0.01628837 -0.0060452446 0.14117172 0.102964275 -0.0297379 0.20604312
0.24148154 -0.31920815 0.022421643 0.22128215 0.34361684 -0.0026716776 -0.107852966 -0.6640826
-0.30181658 -0.589864 0.0041833003 0.02780277 -0.46205956 0.014823623 0.22919509 0.15511349
-0.073576845 0.07726326 0.056698766 0.12981163 -0.21634752 0.6514393 0.13175318 0.10798103
-0.17802823 0.122804895 -0.10373482 0.7860581 0.20097017 0.535507 0.24415624 -0.057801332
0.62866485 -0.032117378 0.30768737 -0.10384798 0.13213894 0.13376081 0.27938974 0.17977935
0.082351856 -0.50033486 0.3228493 0.22975998 0.15719792 0.06907902 0.10860873 -0.54477847
-0.27414212 -0.65203136 0.31406757 0.21611956 -0.50880665 0.34315252 0.20221083 0.25410527
0.24379167 0.3605582 0.2649468 0.2336158 0.0977729 -0.45812765 0.090865046 0.30344433
0.21718512 -0.08801333 0.17575935 -0.79533887 -0.21406934 -0.6292495 -0.07332718 0.29075965
-0.39466265 0.15471753 0.28539005 0.22017615 0.2575103 -0.10663171 -0.032365456 0.081205726
0.26067162 0.4044985 -0.07913652 0.26427087 0.13601586 0.14962088 0.35183576 0.9029021
0.46103874 0.60257363 0.13506392 0.12396298 0.5544624 -0.09826611 0.10440702 0.31109816
-0.12501669 0.07470803 -0.12080622 -0.23618646 -0.03430085 -0.07449531 -0.24048217 -0.17825033
-0.015316537 0.09036238 -0.20299135 -0.12124937 -0.17897242 -0.07279265 -0.23356198 0.066083774
0.1112844 -0.15047179 -0.21837945 -0.085782155 0.12583733 0.19930233 -0.053675495 -0.03549931
0.034066536 0.35093743 -0.06857449 0.16661255 0.16062382 0.12516499 0.024811897 0.8069927
0.076012164 0.8170428 0.23828107 -0.006051839 0.20898265 -0.11601137 0.24070147 0.3160466
-0.0024949291 -0.001953839 -0.11333905 -0.23159625 -0.1364396 0.01608561 0.07962507 0.13422601
-0.2563171 -0.09302743 -0.19631791 -0.18996398 -0.094262294 -0.14299794 0.034449704 0.0317852
0.107172266 -0.14959088 -0.06962433 -0.22134414 0.123830795 0.24619313 0.02967578 -0.038754266
0.2475328 -0.17559072 -0.1650813 0.20318125 0.023101477 0.33276793 0.06532724 -0.57311887
-0.32917544 -0.5153301 0.08349319 0.22032383 -0.58065814 -0.084968425 -0.043698367 -0.26169768
0.055982754 0.19967945 0.24510704 0.031442758 0.047710948 0.5308465 0.03147436 0.27010185
0.11023497 0.2725335 0.12657326 0.9217406 0.36710826 0.6948079 0.25292397 0.09263942
0.6983193 0.17463669 0.19177708 0.22552 -0.11537473 0.12644516 -0.14617781 -0.032964975
-0.015813434 0.43329737 0.21406765 0.07999232 -0.14147153 -0.003436496 0.06662788 0.9151641
0.44608465 0.8783186 0.12002858 0.003441404 0.66851795 0.0032705062 0.19727997 0.2124942
-0.08246058 0.07038648 0.028449835 0.03656942 0.12622678 0.55874467 0.26476616 -0.059791546
-0.06645345 0.09830531 0.11782345 0.9129954 0.13354325 0.84104204 0.17399235 0.11506551

fc2.bias f4 [20]
00000000: de64 e73e e80e 113e 39ee 4ebe 3b93 8f3e
00000010: 2388 713e 013f 5dbc 67f7 283e c3b4 c93d
00000020: 40c0 1dbc 698f 3c3e 9f27 253e b5d4 49bb
00000030: 3fae 3b3e 0f19 2b3e b09d a23d 4eef b43d
00000040: 7866 b23e 9dfb 453d b2d9 693e 68a0 c43c
0.45194143 0.14165843 -0.20208062 0.28042015 0.23587088 -0.013503791 0.16500627 0.09848931
-0.0096283555 0.18414082 0.16128395 -0.003079695 0.18328188 0.16708778 0.07940233 0.08834706
0.34843802 0.04833566 0.2283695 0.024002269

fc3.weight f4 [20, 20]
00000000: 084f 18be 7ab3 09be c185 d93e 5cbe 8a3d
00000010: 7a9a b2bd 4ce7 843e cdb1 87bd fe47 6b3e
00000020: 5e78 6c3d 115f b9be 55a2 b93d f113 8c3e
00000030: d72b 4c3e b4d9 15bd 9eae 8abe 8887 de3c
00000040: b7c0 563c f3c4 8f3e 9d67 033e 9cbd 3ebc
00000050: 3774 02be 72fe 93be 874e d33e ed66 7cbd
00000060: 8ffd 7c3c 62e0 6e3e 1a41 723c 5ff2 073e
00000070: 65a9 21be ffcf 95be 4004 443e 855f 1d3e
00000080: e30a 683e ac72 833e 4764 93be 06b9 843e
00000090: 7c8e 54be 2cfb db3d 55bb 9ebd 3fb9 43bd
000000a0: 4e7c 5939 2563 d23e ea6a fabd 3005 aa3e
000000b0: 8970 b33e 5120 ba3d 929b 24be fae4 033e
000000c0: ece7 0fbe 479d 2bbb 03c3 c73d e910 40be
000000d0: e74c 58be 49ab a9bc b871 9a3e 2b05 81bb
000000e0: 38ff 523d 4b7b 023e 1b68 973e 60b2 1b3e
000000f0: 909a 3e3e f648 90bc 887f e23d e06d b4bd
00000100: af50 433d 2476 af3d 42cd 273e ac7c 6b3b
00000110: 04a5 d13c 6f74 2c3e aeea 183e bdee 893d
00000120: c1c1 8f3e a7a5 173e 4634 473e 073b 9a3e
00000130: 9bdc 193e 0d85 b33e cbba ad3e 428f 17be
00000140: 691a f03d dd74 e03d db50 743d ed5e da3d
00000150: a91c 5c3e 59a2 143e db9f c8bd a683 933e
00000160: 94f5 2dbe cd95 ab3e 4836 663e 534f 1bbe
00000170: 7bc6 a23d 2039 d63d a3a9 24bd dd7c 46be
00000180: 9abb b53e dcc5 9e3d e896 6b3e b9c3 1b3e
00000190: 3f82 b13e 6856 ae3e 60b2 87be 4b72 a93e
000001a0: fbfc 7d3e 778a 8c3c 0245 083e c320 6abe
000001b0: 7894 f7bd cd12 743e 9e8e e7bd 19c8 88be
000001c0: aaa6 853d 893b 80bd f84d 2b3e c21f 76bc
000001d0: 6bad 883e 0816 3a3d 446a 8f3e da2f 2b3d
000001e0: eccc ea3c 842d 16bd a4a9 983c 193e 4a3e
000001f0: 08dc 853e d0de 573e 9afc b4bd 2a7a aa3e
00000200: d64c 87bb 3d4c 963d a3d1 4d3e b58b 3e3e
00000210: 5b45 ac3e 348c 1d3d 82a3 cd3d 3db0 a53e
00000220: 1967 27bb afca 4f3e 7232 c2bd a76c cd3d
00000230: d3f9 1f3e 426d 193e 211a 9e3d 5ad7 60be
00000240: 0a3e 013e 2343 cdbd e513 5d3e 2ee6 c5bb
00000250: ed46 183c f01c 0d3e 55b3 193e 7b05 d0bd
00000260: fa3d 273d 10d1 37be 46b8 2fbe 1ee0 3fbe
00000270: 44bc 983c ce38 55be a03b d23b 2cdc 483b
00000280: 981e 9bbd 763b 6abc 4cdd b03e 07a3 943e
00000290: 5c7a f5bd c732 313e 4dd0 4b3e ac87 ba3e
000002a0: fb77 3c3e 2085 773d 4d11 bd3e 9297 f03e
000002b0: 2884 673e 2b0e af3e f0cf 323e 65ed 8b3e
000002c0: 0cc5 f5bd b82f 1f3d 2c97 0bbd 7ddb 353e
000002d0: 504b 0ebe 4961 65bc 204f 973c e72a 9f3e
000002e0: 29b6 0d3e 8304 823d a504 b23d 02b2 d6bb
000002f0: 93ea 06be f742 30be 14d5 333b 8f0f 803e
00000300: db5d c73d 04e0 bcbc 8d52 35be fcd6 253e
00000310: 8bf2 51bc b9b1 37bc d451 7f3e b455 44be
00000320: b728 cf3e a637 9a3e 9596 9f3d 637c ab3e
00000330: 1a72 af3e 9745 5fbd 3902 503e 4a14 38be
00000340: 4ebb b1bd d3af cdbc 5d5e 03be 7a5e 54be
00000350: c286 b1bd e3c1 debd 7b04 9e3c 238d 713d
00000360: af61 973e 167a 11be fb9d 943e 939d 0f3c
00000370: f935 153e e561 92bd 2a4d 3bbd d60c 74be
00000380: d3b5 303e e435 8ebd c7e8 69be 41ac bfbd
00000390: db75 0d3e c7df 08be b0be 7b3b d136 61be
000003a0: d9b1 253d 93bb 6dbe e275 7ebd 8cdb 903c
000003b0: bd70 2a3e 52f2 1d3d 355b 50be b95f 05be
000003c0: fe18 a03e 4caa cf3e 31c0 893d 4542 af3e
000003d0: 30d8 a73e 6e25 07be 502d e93d 9050 5dbc
000003e0: c257 38be 6deb a93e 4b6c d5bd 41af 34be
000003f0: 4ec7 29be d7ea 673d 5556 a93e 37e4 953d
-0.14873898 -0.13447371 0.4248486 0.067745894 -0.0872087 0.25957716 -0.0662571 0.22976682
0.05773198 -0.36205342 0.090641655 0.27358964 0.19938599 -0.03658457 -0.27086347 0.027164236
0.01310747 0.28079948 0.12832494 -0.011641886 -0.12739645 -0.28905064 0.4127085 -0.061621595
0.015441312 0.23327783 0.014786029 0.13276051 -0.15787275 -0.2926025 0.19142246 0.15368469
0.22660403 0.25673425 -0.28787443 0.25922412 -0.20757478 0.107412666 -0.077505745 -0.047784086
0.0002074104 0.41091266 -0.122274235 0.33207083 0.35046795 0.09088195 -0.1607497 0.12880316
-0.14053315 -0.0026186274 0.097539924 -0.1875645 -0.21123086 -0.020711558 0.30164886 -0.0039373836
0.051512927 0.12742345 0.29571614 0.15204763 0.18613648 -0.017612915 0.11059481 -0.088100195
0.047684368 0.085674554 0.16386893 0.0035932465 0.02559138 0.16841291 0.14933273 0.06734989
0.2807751 0.14809285 0.19453534 0.3012316 0.1502556 0.35062447 0.33931574 -0.14800742
0.11723787 0.1095979 0.059647422 0.10662637 0.21495308 0.14515056 -0.09796115 0.28811377
-0.16988212 0.33512726 0.22481644 -0.15166979 0.079480134 0.104601145 -0.04020084 -0.19383569
0.3549469 0.077525824 0.23006785 0.15211381 0.34669682 0.34050298 -0.26503277 0.3309501
0.24803536 0.017155869 0.13307574 -0.2286406 -0.12088865 0.23835297 -0.11306499 -0.26715162
0.06525929 -0.062613554 0.16728961 -0.01502222 0.26694807 0.045431167 0.28010762 0.04179368
0.028662167 -0.0366645 0.018635578 0.19750251 0.26144433 0.2108109 -0.088372424 0.3329633
-0.0041290326 0.0733876 0.20099501 0.18607982 0.33646664 0.038463786 0.10040952 0.32361022
-0.0025543629 0.20292161 -0.09482278 0.100304894 0.15622644 0.14983085 0.077198274 -0.2195715
0.12621322 -0.10022571 0.2158962 -0.0060394024 0.009294254 0.1378057 0.15009816 -0.10157295
0.04083059 -0.17950845 -0.17160138 -0.18737838 0.01864446 -0.2082245 0.0064157993 0.003064881
-0.07574195 -0.014296403 0.34543836 0.2903063 -0.11986229 0.17304526 0.19903679 0.36431634
0.18405144 0.060429692 0.36927262 0.4699064 0.22609007 0.34190497 0.17462134 0.27329555
-0.12000474 0.038863868 -0.034079716 0.1775951 -0.13895917 -0.014000245 0.018470347 0.3108742
0.1383902 0.06348517 0.08692292 -0.006551982 -0.1317542 -0.17213045 0.0027440237 0.2501187
0.097346984 -0.023056038 -0.17707272 0.16195291 -0.012814174 -0.011211806 0.24933559 -0.19173318
0.4046075 0.3012058 0.07792393 0.33493337 0.3426674 -0.054509725 0.20313348 -0.1797649
-0.08678304 -0.025108254 -0.12828965 -0.20739165 -0.08668281 -0.10876825 0.019289246 0.05897249
0.29566714 -0.14206728 0.2902678 0.008765596 0.1457137 -0.07147578 -0.045727886 -0.23833022
0.1725686 -0.069438726 -0.22842704 -0.09359027 0.1381449 -0.13366614 0.003841322 -0.21993567
0.040452812 -0.23216085 -0.06212414 0.017682813 0.16644569 0.038561173 -0.20347293 -0.13024797
0.31269068 0.40559614 0.06726111 0.34230247 0.32782125 -0.13197872 0.11385596 -0.013507977
-0.18002227 0.33187428 -0.10421046 -0.17644979 -0.16579935 0.056620445 0.3307368 0.07318919

fc3.bias f4 [20]
00000000: e8bf be3d b4fd 463e 431f c83e 4094 253b
00000010: 702e db3e a512 b53e faef 3d3b 8fb3 abbd
00000020: 20d9 9fbb 6a7c 95be 36fe 1a3e 7f37 17bd
00000030: 7732 f43d 1b12 68be 8d8f 62be 6cf3 843e
00000040: 5e74 cbbd d985 04be 9ef4 893d ba30 403e
0.09313947 0.19432718 0.3908635 0.0025265366 0.42808867 0.35365787 0.0028982149 -0.083838575
-0.0048781782 -0.29196483 0.15136036 -0.03691816 0.11923688 -0.22663157 -0.22125073 0.25966966
-0.09934305 -0.12941684 0.0673611 0.18768588

fc4.weight f4 [20, 20]
00000000: 2cac 923d d413 c53e 4e7c 2ebd 938a 703e
00000010: 8bf5 763c 539d 44be 4387 633e 150f 04be
00000020: 4795 233e 5782 07be 1e99 d7bd 02cc 20be
00000030: 1e87 0b3e c2f7 f63d 2888 403e 4d11 e1bd
00000040: b479 993e b941 30be 9996 803e 43a0 9d3c
00000050: a7dc 1c3e e370 173e 1fd8 5b3e ed0b b33d
00000060: f80f c13d 33ef 253e bf7b 7d3e cfac 04bd
00000070: 6e96 9e3d 1e49 aa3e 95d2 c43d 418b b83d
00000080: 429f 46bc 651a 00bd ab0c e83d 7658 6e3e
00000090: e2bb b43e 772a 693e 805e 8e3e 0f5d 03be
000000a0: d897 75be 8c52 debc 23bc f4bc 6855 a43c
000000b0: 9aba 7ebd 7b1a 163e 7992 f0bc c0f4 72be
000000c0: 4ce1 57bd b330 78bd dd78 80bd 301e 4f3e
000000d0: 04fd 41be 1434 b23d 9c13 173e 41ac f0bd
000000e0: 76fd 093c d522 e13c 8fd7 efbc 6ef6 2dbe
000000f0: 7c34 82be f8ab b8be 2f3f 0a3e 4ccd 463e
00000100: d3df 863e c9f4 8f3e e492 0b3d c957 16be
00000110: b5b6 ebbd 1395 e23d 5d95 9abd 46f6 47be
00000120: 8929 4f3e dec5 3cbd f0ba 25be 8274 5d3e
00000130: 5c6e 6cbe 34e7 10bd f173 00be cc2a 5a3e
00000140: 6702 02be 6dbe 543e 79a8 be3d 7a48 ed3d
00000150: c96c 29bd af7c 8ebd 632a 5ebe cc3b 41be
00000160: b9ac ecbc cef5 583e d285 2bbe c366 983d
00000170: d7bd 453e 96bf e3bd 392d 73bd c418 06be
00000180: 5ee4 d33d 8e7e e1bd 247d c2bd 356d babd
00000190: 6488 d7bd d8d5 62be 0ddc c8bd e1e6 56be
000001a0: 0f5e 253e dc52 55bc 1075 363e 47e4 413e
000001b0: 07d2 8cbd 717a 233e e5c0 953d 0782 a9ba
000001c0: 01fd 043d 45fe 53be 4c2b 21be 5ae5 c23c
000001d0: 438d 27be 6e89 25bd bb2e d4bd da01 583e
000001e0: 8b6f d3bd cec5 a43d 8ac0 36bc 5839 36be
000001f0: b85e a53d 82ee b43d a9d2 6d3c f51d 10be
00000200: 72f1 a9bd e119 1ebe da3a a43d 71c9 c43d
00000210: 073e 01be 7299 8cbd 9e6c f4bc 0b3f fa3b
00000220: a432 acbd 805e 583e 8a60 493e 289b fdbd
00000230: 86dd d0bd 4d5c e2be a32b 1b3e 0312 493e
00000240: d261 5b3e 034f 403e 1577 853c 3c17 4f3e
00000250: 2e0e 7b3d 3b45 6f3d 1643 ec3d 40f6 3a3e
00000260: cc5d 933e dc6a 3cbd ef58 123e 79ce 133e
00000270: 6309 32be e4b4 89bd 3598 8bbd 96a3 e83d
00000280: c89a a73d 7506 333e 7b51 61be d64c 733e
00000290: 0c32 c13c 4420 32be 7573 753e 9b8d 01be
000002a0: 6fb9 6bbd 84cc 57be 472d 69be be46 99bd
000002b0: e92a 95bd 5ea3 253d c61a 55bd f612 473e
000002c0: a434 623e 906f 2dbd 0fea 6abb d036 b03d
000002d0: 1fdf 2bbe a3b0 593d 182b 5bbe 01cd 57be
000002e0: d962 c63d 7623 573e e039 a2bd 6276 523d
000002f0: 2740 48be fd3e 57bd 703f 5a3d 87cd 71bd
00000300: 754c 65bd 5102 f3bb fd0d 473e c2b5 363d
00000310: 5f12 433e b662 7a3d 2354 553e c6a7 09bd
00000320: 610b 58bd 7406 d3bc b3b8 46bd ee55 003d
00000330: 1422 ac3c bf92 08be 6d46 0fbe f602 983b
00000340: 7a1a f93c 61f0 e53d d857 8fbd 1a4b 98bd
00000350: 76c7 4cbe 311f b6bd 0aa8 98bd e57d c8bd
00000360: 9836 61be 6432 473e c0de 13be 572d 68bd
00000370: d607 fd3d 16e7 bb3e f512 fcbd 9d20 a53e
00000380: fc2b 813e a577 e5bd 8eb0 a43e 57b3 5fbe
00000390: c6f7 ab3e a8f7 59bc 0931 883d 6f8a 793d
000003a0: 5199 383e a6e2 023e b08e ddbd 116d 643d
000003b0: a3aa 28bc a268 703c c921 a03e f9d7 793d
000003c0: 7888 023d 548a 373d d65a ebbd 41e7 aa3d
000003d0: 13ee aabd dc93 a8bd 60bd 95bd aa80 49be
000003e0: 591b 3ebe 2a91 21be 8d25 98bd 2932 1abe
000003f0: ee93 1c3e 86ee 633e 54b9 823c d18a 1bbe
0.071617454 0.3849169 -0.042599015 0.23490362 0.01507319 -0.1920064 0.22219567 -0.12896378
0.15974914 -0.13233314 -0.10527252 -0.15702823 0.13625762 0.12058975 0.1880194 -0.10989628
0.29975665 -0.17212571 0.25114897 0.019241458 0.15318547 0.14789157 0.21469162 0.08742509
0.09426874 0.16204529 0.24754237 -0.032391366 0.07743536 0.3325891 0.09610478 0.090109356
-0.012122931 -0.03127517 0.11330541 0.23275933 0.35299593 0.22770105 0.27806473 -0.12828468
-0.23983705 -0.02713897 -0.029874867 0.020060256 -0.062189676 0.14658539 -0.029366719 -0.23726177
-0.052705094 -0.06059332 -0.06273053 0.2022636 -0.18944174 0.08701339 0.14753574 -0.11751605
0.008422246 0.02748243 -0.029277591 -0.16988537 -0.25430667 -0.36068702 0.13500665 0.19414252
0.2634264 0.28116444 0.034075633 -0.14681925 -0.11509458 0.1106359 -0.0754802 -0.1952754
0.20230688 -0.04608714 -0.16184592 0.21626475 -0.23088974 -0.035376742 -0.12544228 0.21305388
-0.12696229 0.20775767 0.09309477 0.115860894 -0.04136351 -0.06957375 -0.21695857 -0.18870467
-0.028890954 0.21187517 -0.16750267 0.07441475 0.193107 -0.111205265 -0.0593693 -0.13095385
0.10346292 -0.110104665 -0.09496525 -0.09102861 -0.10524061 -0.22151887 -0.09807596 -0.20986511
0.16149162 -0.0130202435 0.17818093 0.18934737 -0.06875997 0.15964676 0.07312182 -0.0012932428
0.032467846 -0.20702465 -0.15739173 0.023791004 -0.16362481 -0.040414266 -0.10360476 0.21094456
-0.103240095 0.08045541 -0.011154303 -0.17795312 0.08074707 0.08834554 0.014515557 -0.14073928
-0.08298005 -0.1543956 0.080190375 0.096087344 -0.12621318 -0.06865205 -0.029836949 0.00763691
-0.084080964 0.21129799 0.19665733 -0.12383109 -0.10198502 -0.44211045 0.15153365 0.19635777
0.21424034 0.1878014 0.016292134 0.20223707 0.06129282 0.058415633 0.11536233 0.18258
0.287825 -0.046000347 0.14291738 0.14434232 -0.17386393 -0.06723955 -0.068161406 0.113593265
0.08183819 0.17482932 -0.22003739 0.2375978 0.023583435 -0.17395121 0.23969825 -0.12651674
-0.05754989 -0.2107411 -0.22771178 -0.07484196 -0.07283575 0.040439002 -0.052027486 0.19440827
0.22090393 -0.042342722 -0.0035845076 0.08604205 -0.16784333 0.05314697 -0.21403158 -0.21074297
0.096868224 0.21009621 -0.07921195 0.05138243 -0.19555722 -0.052550305 0.053283155 -0.059033897
-0.05598112 -0.0074160476 0.1943893 0.04460693 0.19049977 0.061129294 0.20832877 -0.033607267
-0.052745227 -0.025759913 -0.048515987 0.03133195 0.021012343 -0.13337229 -0.13991709 0.004639025
0.030408133 0.11227489 -0.06999177 -0.074361995 -0.19997963 -0.08892668 -0.07453926 -0.097896375
-0.21993482 0.19452816 -0.14440441 -0.056683864 0.1235501 0.36699742 -0.12308303 0.32251444
0.2522887 -0.11204461 0.3216595 -0.21845756 0.33587474 -0.013303675 0.06649978 0.060923036
0.18027236 0.12781772 -0.10818231 0.055768076 -0.010294589 0.014673384 0.31275776 0.060996983
0.031868428 0.044809654 -0.11491935 0.083448894 -0.0834619 -0.08231327 -0.07311511 -0.19677988
-0.1856512 -0.15778032 -0.07429037 -0.15058197 0.15290806 0.22258958 0.015957512 -0.15189673

fc4.bias f4 [20]
00000000: 64b4 1d3b 1605 82bc d802 dd3d c9d3 733d
00000010: 196f 94bd 4106 3bbe 17e0 3d3d 1105 c93d
00000020: de09 bebe b285 8cb9 d489 62be 289a 52be
00000030: eb6f 2abd eaeb 9a3e e3e9 c3bd ad36 0e3e
00000040: 5144 f8bd 20a3 1d3e 4c9a 2d3d 83bf 54bc
0.002406382 -0.015871566 0.10791558 0.059528146 -0.07247753 -0.18264104 0.046356287 0.098154195
-0.37116903 -0.00026802492 -0.2212289 -0.20566618 -0.04161064 0.30258113 -0.09566095 0.13888045
-0.12122405 0.15394258 0.042383477 -0.012985113

fc5.weight f4 [20, 20]
00000000: f933 973d 6e2e 93bc 8c1d 54be ac71 2f3e
00000010: 2593 893d 11ba a7bd 4dbe be3d 73b7 51be
00000020: f6ee 683e f04a 37bd b8a2 4b3e 7f2c dcbb
00000030: 38da ca3d d522 a43e 1885 f83d 34a8 d03b
00000040: 55be 1d3e f2e1 663c 1a3e cbbd dca5 0a3e
00000050: 6b9d 98bc c99a 30be a587 fb3d b21e 583c
00000060: 675c ccbd 3c53 55be cbc1 fabd 5136 a53d
00000070: 5df8 063e 4f70 b03d 24fc 963d 266b 81bb
00000080: 5e65 7ebc 3379 39be 241b 15be 4206 223e
00000090: a5b5 86bd 9ef6 1cbe 2b55 563d 22c9 563c
000000a0: 8e54 f1bc 7d97 a03e c71d 9bbc b56f 573e
000000b0: 2cbe 8f3d 96be ddbd edc6 7d3e 4825 853e
000000c0: 2070 8ebe 66fa a63d 0c11 1f3e e64a f93d
000000d0: 90c2 55be 71c7 17bf 26df 0f3e 5e56 753e
000000e0: 196a 85bd ef70 f73d caf6 363e 3d67 6f3e
000000f0: 9ba2 5fbc a2a0 64bc 3ee9 3a3e d158 b2bc
00000100: bfcf 7c3d f57a c83d 1864 39ba a000 f33d
00000110: 9876 913d 4379 8fbc 83db 303e e175 3dbd
00000120: 07c5 d7bc 428a 3f3e cd2c 343d a221 34be
00000130: a2d1 c7bd dd0b 003b 6c87 06be d4ff 57be
00000140: cc83 383e d738 14be 1be1 83bc 6d53 3e3e
00000150: baab 963b e3a8 f8bd 268b af3d 12c4 793e
00000160: 7dea b1be 11c0 12be 0035 1fbe e606 9e3b
00000170: ebb8 e3bd cc59 0bbf 05a1 e23c ccdc a73e
00000180: b19a 753e 022b be3d d2e7 73bd 96b5 5cbe
00000190: 1cd7 b33d b567 02bd 8112 353e 3ac5 f1bd
000001a0: bc60 45be f262 693d 1920 143e 7930 b4bc
000001b0: 209b 18bd 1506 723d ae6b 8a3d 5993 71be
000001c0: 1f33 093d 1d50 c9bd 2edf acbd b2e8 de3d
000001d0: c43e 553d f1be 18be 8cd9 68bb bb2e 2e3e
000001e0: 7a30 5d3e 6f25 523e 378f 263d 2225 86be
000001f0: ec3a 483d 5fc4 e73d 7ca5 37bd c0d6 8a3d
00000200: 889d 2a3d e963 28be b32a aabd bf1a 233b
00000210: 8535 433e 9552 323f a41d 093e c932 c8be
00000220: 040b c0bc 2078 1e3e be74 c2bc 1e20 073e
00000230: bf67 b43a 3bde 953b cae3 f73d e198 503d
00000240: 26fc 4cbe 62c9 fb3d ebfe 063e 34bd b9bc
00000250: 0e5f 8ebd 227b 6abd ac33 b33d 7fc5 8ebd
00000260: 63eb ebbd 0499 9fbd 452e eb3d d35a 083e
00000270: 829f e1bd 7f89 64be 4bca 4ebd d3c2 47be
00000280: f6c8 71bd 6ecb 3abd 8b67 3fbd 9883 073e
00000290: 73b3 9c3c 45da 11be 262a 64bd 36d6 723d
000002a0: 82ec a83d 929e 593d 5511 63be 7275 adbd
000002b0: b3d1 583e 9770 f73d a705 343e 68e0 133c
000002c0: 47c0 c93d 4bd8 0abe bbb2 2fbe b69f 14be
000002d0: 678d 053d 5d82 1ebe 88db 573d 85bc dd3d
000002e0: 0541 ab3b 0fa4 07be 18e4 70bc 3fe6 4b3d
000002f0: 2d71 0e3e 8b90 733d 3da2 aebd 5815 0ebe
00000300: 084e 613a f5ed c9bd a535 1c3d 5fc8 c93d
00000310: 82b6 423e 5782 17be a66f 1fbe 3c08 17bd
00000320: 35bf 18be a31e 0bbe 6f9f 03bd ae27 cb3d
00000330: 3f83 0fbe c5c8 4bbe 892c 56be e14b 8f3d
00000340: deba 0abe d020 1d3d 3669 493e 9a5a de3d
00000350: 3c54 413d 03de 35be 5162 213d 1bf0 c63d
00000360: 2cec 49bd 6751 c6bd a59f 1bbe 7d82 d7bd
00000370: a4c0 8d3e a9a1 6f3d b96f e6bd 790e 97bd
00000380: 55bf 073e c797 56be aac1 64bd c74c 9cbc
00000390: 6f16 e13e 05f7 3ebe 2e23 a33d a138 953e
000003a0: b54e 2abe 96df 403f 37d7 303e 8d5c d7be
000003b0: 398b 98bd 87d9 51be 26e1 58be 1308 993e
000003c0: 406a 28be 1c54 e53d 7585 143e 49ae 123e
000003d0: aebb 03be d49a 10be 3604 dbbd 39a0 913e
000003e0: 41a8 59be 34de 8dbd 2f77 b1bd 696c 1d3e
000003f0: aa66 523e 9148 2dbf 150f 2a3e ea5e 123d
0.0738296 -0.017966475 -0.20714396 0.17133206 0.06717519 -0.08189786 0.09313641 -0.20480137
0.22747406 -0.0447492 0.19886291 -0.0067191715 0.09904903 0.32057825 0.121347606 0.0063677076
0.15404637 0.0140919555 -0.09923954 0.13539833 -0.01862975 -0.17246546 0.122817315 0.013190912
-0.09978562 -0.20832533 -0.12243994 0.08067001 0.1318068 0.08615171 0.07372311 -0.0039495407
-0.0155270975 -0.1811264 -0.14561135 0.158227 -0.06577615 -0.15328452 0.052327316 0.013109477
-0.029459264 0.31365576 -0.018935097 0.21038707 0.07018694 -0.10827367 0.24782915 0.26005006
-0.2781992 0.081532285 0.15533847 0.12172489 -0.20875001 -0.592887 0.14049968 0.23958728
-0.06514377 0.12082087 0.1786758 0.23379226 -0.013649608 -0.0139543135 0.18253037 -0.021770867
0.06172156 0.09789077 -0.0007072105 0.118653536 0.07102698 -0.017513877 0.17271237 -0.046254996
-0.026339067 0.18705085 0.043988038 -0.17590955 -0.09756781 0.001953832 -0.13137597 -0.21093684
0.18019027 -0.14474808 -0.01609855 0.18586512 0.004598108 -0.121415876 0.08571462 0.24391201
-0.34749213 -0.1433108 -0.15547562 0.0048225997 -0.11119255 -0.54433894 0.02766467 0.32785642
0.23984791 0.09285547 -0.059547253 -0.21553645 0.08781263 -0.031837184 0.1768284 -0.11805196
-0.19275182 0.056979127 0.1446537 -0.02199577 -0.037257314 0.05908783 0.067588195 -0.23591365
0.03349602 -0.098297335 -0.08441006 0.10884227 0.05206181 -0.14916588 -0.0035530059 0.17010014
0.21600524 0.20522092 0.040663924 -0.26200205 0.048884317 0.11316752 -0.044835553 0.067792416
0.04165414 -0.16444363 -0.083089255 0.0024887768 0.19063385 0.6965726 0.13390213 -0.39101246
-0.023442753 0.15475512 -0.023737308 0.13195845 0.0013763829 0.004573611 0.12103994 0.050927047
-0.20018062 0.1229427 0.13183181 -0.022673227 -0.06951724 -0.057246335 0.0875009 -0.06971263
-0.11519506 -0.07792857 0.114834346 0.13315897 -0.11016752 -0.22318076 -0.05048589 -0.19507913
-0.059029542 -0.045604162 -0.046729606 0.13233793 0.019128537 -0.1424342 -0.05570426 0.05928632
0.08248235 0.05312974 -0.2217458 -0.084696665 0.21173744 0.12082022 0.17580281 0.009025671
0.09851127 -0.13559072 -0.17158024 -0.1451405 0.032605555 -0.15479417 0.052699596 0.10826973
0.005226257 -0.13246177 -0.014702819 0.049780127 0.1391036 0.05946402 -0.08527038 -0.1387533
0.00085946964 -0.0985984 0.038137097 0.09852671 0.19014934 -0.14795814 -0.15569934 -0.036873087
-0.1491669 -0.13585906 -0.03213447 0.09919678 -0.1401491 -0.19900806 -0.20915426 0.06996895
-0.13547847 0.03836137 0.19669041 0.108571246 0.047199473 -0.17760472 0.039400402 0.09713765
-0.049297497 -0.09683495 -0.15197618 -0.105229355 0.27686036 0.05850378 -0.11251778 -0.07375807
0.13256581 -0.20956336 -0.055848755 -0.019079579 0.43962428 -0.18648918 0.07965694 0.29144767
-0.16631587 0.75341165 0.17269598 -0.42062798 -0.074484296 -0.20493136 -0.21179637 0.29888973
-0.16446781 0.11197683 0.14504035 0.14324297 -0.12864563 -0.14121562 -0.106941625 0.28442553
-0.2125559 -0.069271475 -0.086653106 0.15373386 0.20546976 -0.6768885 0.16607316 0.03573505

fc5.bias f4 [20]
00000000: 5ced 38be 90a3 4ebe 8d20 573e 64a1 67bd
00000010: 76e0 6cbd 78b4 183e d5fa 90be a4ca 73bd
00000020: 16ca 37bd 5da2 8e3d 56e6 203e 0fe4 1cbe
00000030: 4951 2a3e 594d 163e 47d2 ecbd e209 753d
00000040: 3005 1cbe 1fbd b2bd 81de e63d f822 b1bd
-0.18059295 -0.20179582 0.21008511 -0.0565504 -0.05783125 0.14912593 -0.2831637 -0.059519425
-0.04487046 0.06964562 0.15712866 -0.15321372 0.1663257 0.14677943 -0.11563545 0.059823878
-0.15236354 -0.08727478 0.11272908 -0.08649248

fc6.weight f4 [3, 20]
00000000: 84e6 893e 4715 a4bd 932f 1a3d f9cf 393e
00000010: 6865 15be 3d30 1bbe f204 903e a2ab 20bd
00000020: 863f 13bd 0c5f 683e 4d01 f23b cfb1 e93d
00000030: a60d 31bd 37c8 2fbe 33bc 803b ef3c c1bd
00000040: 3e2e 9a3e 7455 d3bd c1a4 f5bd 24d6 dcbd
00000050: 7174 333d 6bf1 4b3d 0955 18bf 51bb 3ebe
00000060: 078c 96be acbc ce3d c458 a0be 53c1 3cbe
00000070: 1f6d 4a3e 1c55 253e d7ca f53d 6f67 04bf
00000080: b202 1ebf 3ab4 dbbe 0063 2bbf ff1a 5e3d
00000090: 85e4 94be f23f 4b3e 208b 1c3e 7358 173c
000000a0: 003c 1abe 4f6c 06be 533a 0b3e 1f18 4a3e
000000b0: f1fa a63e 1512 aa3d 3cf9 2fbe 9df4 7d3d
000000c0: c478 363e 6e90 6fbe 9282 393e b73b e5be
000000d0: 3a79 b43b c0d8 b93e f460 48bd 7312 c93d
000000e0: c2bf acbe 5bb4 043c 7273 fb3d 86d4 a1bd
0.26933682 -0.08011871 0.037643027 0.18145742 -0.14589465 -0.1515512 0.28128773 -0.03922618
-0.035949253 0.22692508 0.007385409 0.114108674 -0.043225907 -0.1716622 0.003928685 -0.0943545
0.30113405 -0.10319033 -0.11994315 -0.107830316 0.04381222 0.04979078 -0.59504753 -0.18626143
-0.29403707 0.1009458 -0.31317723 -0.18433122 0.19768189 0.16145748 0.12001579 -0.5172033
-0.6172286 -0.4291094 -0.66947937 0.054224964 -0.29080597 0.19848612 0.15287447 0.0092373965
-0.1506195 -0.13127254 0.13596468 0.19735764 0.32613328 0.0830423 -0.17184919 0.06200086
0.17819506 -0.2339494 0.18116215 -0.4477212 0.0055076154 0.3629818 -0.048920587 0.09817972
-0.3374005 0.008099641 0.12277879 -0.07901864

fc6.bias f4 [3]
00000000: 816f 073e 4702 13bf 5723 3b3d
0.13226129 -0.5742535 0.045688
