models_3val/xor_and_5.pth (torch, 12178 bytes, 12 tensors)

fc1.weight f4 [20, 12]
000000 f2 07 bc 3e 5e 3a bb be a8 85 c6 3d aa f1 de 3e
       0.36724812 -0.36567968 0.09693462 0.4354375
000010 dd 8f 2a bf 3d 43 b3 3b 49 cf 81 3b bf e5 aa 3b
       -0.6662577 0.005470662 0.003961478 0.005215376
000020 7b 2a 21 3b 03 06 74 3b 7f 3f c2 3b 74 96 1b 3b
       0.002459197 0.0037235029 0.0059279795 0.00237408
000030 32 37 e0 3e 10 b7 86 3d 22 0e 1f be fb 65 03 3d
       0.4379211 0.06577885 -0.15532735 0.032079678
000040 b2 30 11 bd ac 61 0d be 91 f3 8c 3e 00 ff 6b 3e
       -0.03544683 -0.1380679 0.27529576 0.23046494
000050 16 08 93 3e 34 7e 90 bc 24 96 21 3d 48 0d e0 3d
       0.28717107 -0.017638303 0.039449826 0.10940033
000060 44 53 d2 3e fa f4 d1 3e 46 3a be be e6 82 19 bf
       0.41079152 0.41007215 -0.37153834 -0.5996536
000070 92 fa 0e be f0 55 ff 39 f9 1d 36 bb f9 28 1b 3a
       -0.13962772 0.0004870142 -0.0027788861 0.0005918886
000080 b8 b5 0e 3b 5b fc 71 ba 5b 4c 4e 39 0a 30 b7 3a
       0.0021775793 -0.00092310243 0.00019674136 0.0013976109
000090 5d 63 8e be cc 8a c0 be b1 9d fa be d1 97 07 bf
       -0.27810183 -0.37605894 -0.48948434 -0.5296603
0000a0 fe 26 e7 3e d6 14 65 3c 97 4d b2 3a 5c 04 86 3c
       0.45146936 0.013982018 0.0013603446 0.0163595
0000b0 1e 5b c8 3b 28 1e 18 3b d3 51 af 3c a5 8d 92 39
       0.0061143776 0.0023211334 0.021401322 0.00027952823
0000c0 4f 36 53 3e a6 7e b8 3e 26 18 84 3e d7 c5 93 3e
       0.20626186 0.36034125 0.25799674 0.28861877
0000d0 9d 41 41 3e b0 e0 b0 3e 34 85 03 be 76 89 fb bc
       0.18872686 0.34546423 -0.12843782 -0.030705195
0000e0 54 29 6f 3e 69 c7 90 3e 46 72 1f 3d 74 b5 a9 3d
       0.23355609 0.28277138 0.03892734 0.082865626
0000f0 69 c8 be 3d fd 36 28 3d 30 0f 9d 3b 06 6a d4 3b
       0.09315569 0.041068066 0.0047930703 0.0064823655
000100 7c 29 8a be cd 4b 0b 3e 28 eb 8f 3c 21 cc be bd
       -0.26984775 0.13603134 0.017568186 -0.09316278
000110 c3 0b 67 bd 40 4e e6 3d 2d 49 24 3e 70 29 57 3e
       -0.0564077 0.11245394 0.1604354 0.21011901
000120 59 dc d7 bc 59 ac 98 3e 2e b2 22 3e 22 a9 72 3e
       -0.026350187 0.2981899 0.15888283 0.23697332
000130 92 0c c3 3e 45 76 b6 3e 5c 96 74 3e 5c 50 86 3e
       0.38095528 0.35637107 0.23885483 0.26233184
000140 4b 93 8d bd 85 93 1f 3d e7 6a 84 3e be a6 bb 3d
       -0.069128595 0.038959045 0.2586281 0.09162663
000150 74 5a f8 3d 50 18 f2 3d 29 c3 66 be 57 ba 17 bd
       0.121266276 0.118210435 -0.22535385 -0.037042942
000160 22 12 83 be 2f 79 3e 3e 97 08 63 bd 65 bf 8a 3e
       -0.25599772 0.18600915 -0.055428114 0.27099147
000170 bb 7e 84 3e 4e f2 b9 3d 86 75 4d 3e c4 76 2b bd
       0.25877938 0.09079419 0.20064363 -0.04186131
000180 36 01 50 3e e1 70 01 be 02 4d ce bd cf ab b8 3e
       0.20312962 -0.12640716 -0.10073282 0.3606858
000190 3e 55 65 3e d7 19 2a 3e 3c 66 80 3d fb 67 1b 3e
       0.22395799 0.1661142 0.062695 0.15176384
0001a0 15 72 f3 3c ea d2 6e be f2 09 85 bd b1 fe ea bc
       0.029717484 -0.23322645 -0.064960375 -0.0286859
0001b0 4a 72 b6 be 4d df c4 bd 27 e3 d2 3e 99 05 79 3e
       -0.3563407 -0.09612904 0.41188928 0.24318542
0001c0 bc 17 1c 3e 92 83 f2 bc 31 ad b6 3d bf 07 9a bd
       0.15243429 -0.029603753 0.089197524 -0.07521009
0001d0 a9 96 a4 3c 47 a4 46 3e b3 12 00 3e fc ed a7 bc
       0.020091372 0.19398604 0.12507133 -0.020499222
0001e0 11 f7 4c 3e d1 20 57 3e dd d6 9b 3d b5 ee e2 3e
       0.20016123 0.21008612 0.07609341 0.44322744
0001f0 de 75 a8 3e c7 d8 24 be a8 3b e4 3d 61 9c 5f 3e
       0.32902426 -0.16098319 0.11144191 0.21836998
000200 4e c7 31 3e 1a 00 28 3d 66 6d ec 3d 18 57 5a 3e
       0.17361185 0.04101572 0.115443036 0.21322286
000210 f9 9f f7 3c 96 64 85 3d 4f b0 d6 3e 3e 5b b9 3e
       0.030227648 0.06513326 0.41931388 0.36202425
000220 4e 0c f4 be 74 8b 96 3c 1c 24 70 3c 91 58 d8 3c
       -0.47665638 0.018377043 0.014657047 0.02640942
000230 ee 51 16 3c 09 ae 89 3c 35 34 9d 3c 04 b0 e7 3b
       0.009174807 0.01680662 0.019189933 0.0070705432
000240 4f 05 07 3f 98 5a b3 3e 5f 9b 32 3f ea d8 34 3e
       0.52742475 0.35030055 0.6976833 0.17660871
000250 6a 43 92 be 19 ed 27 bd fa 02 d9 3c f5 d0 d4 3d
       -0.28567058 -0.0409976 0.026490677 0.10391418
000260 c6 16 60 bd 5b 6a a0 3c 5e 4e 07 bb fe fe 63 3d
       -0.05470922 0.019581964 -0.0020646076 0.0556631
000270 65 f3 97 bd aa a5 45 be c1 4d 13 be 4a 3c ee 3e
       -0.07419471 -0.19301477 -0.1438513 0.46530372
000280 95 89 ce 3e 6d ff e0 bd bb 41 a6 3e c1 5b e7 3d
       0.40339342 -0.109862186 0.32472023 0.112967975
000290 85 de 1c 3d de 8e a5 3e d9 0b 77 3d 03 4c 74 3e
       0.03829815 0.32335562 0.060314033 0.23857121
0002a0 c4 e0 4a 3e a4 f6 b7 3e 63 5d 81 be 32 a5 92 3d
       0.19812304 0.3593036 -0.2526656 0.07160415
0002b0 ad f7 7d be bd 38 0f 3e 46 dc dd 3d 04 5a 63 3e
       -0.24801512 0.13986488 0.108330294 0.22202307
0002c0 82 81 4e bc a3 86 4b 3e be 0c 8d 3d bc b6 4e 3d
       -0.012604119 0.19875579 0.06887196 0.050467238
0002d0 34 8e 80 3d 45 f9 8e 3e f6 57 10 be 9f bc a9 be
       0.06277123 0.27924553 -0.14096054 -0.3315172
0002e0 fa 07 db bc 47 01 98 3e e4 b2 bd 3e 2b 6a d3 3d
       -0.026737202 0.29688475 0.37050545 0.10322984
0002f0 35 f9 6d 3c f1 21 a6 3e 4d b5 0b 3e 56 80 2a 3e
       0.014524748 0.3244777 0.1364338 0.16650519
000300 a1 75 28 bf ea d1 31 bf 21 e5 45 3e 4a b9 1d bf
       -0.6580449 -0.6946093 0.19325687 -0.61610854
000310 c9 eb c1 3c a4 75 92 bc 8a 14 5e 3c 24 de 8a 3a
       0.023672001 -0.017878361 0.013554702 0.0010594768
000320 7a df 8e 3b d4 ef 8d 3c b9 f2 94 bc 54 61 bf 3c
       0.0043601366 0.017326273 -0.018182145 0.02336184
000330 e8 ca 6f 3e 9d 29 e9 be 1a 99 8d be d6 7b 0f 3f
       0.23417246 -0.4553956 -0.2765587 0.56048334
000340 c9 c2 3c 3e f4 b0 8e 3d ca c2 5e 3d 65 2e 63 3d
       0.1843368 0.06967345 0.054384984 0.055464167
000350 7a c5 8f bb 1a 6a 3f 3d 09 2a fa 3d 7e ce 62 bd
       -0.0043875547 0.046732046 0.12215049 -0.055372708
000360 03 48 52 3d 45 4f 0a 3e 50 ac 33 be d5 d1 4d bf
       0.051338207 0.13506801 -0.17546201 -0.80398303
000370 c6 da 8e 3e eb 4c 5a 3c 77 9e f2 3b 2a f5 8b bb
       0.27901286 0.013324003 0.0074041444 -0.004271169
000380 e8 f1 28 bc dc bc b6 3a 5b 67 13 3d e1 f0 06 bd
       -0.010311581 0.0013941783 0.03598724 -0.032944564
000390 36 08 42 be f2 e8 47 be 23 e7 ad 3e f1 57 c1 3e
       -0.18948445 -0.19522455 0.33965406 0.37762406
0003a0 4c 6b ae be bb c1 23 3d 77 e1 b5 3c 04 70 a3 3d
       -0.34066236 0.039979678 0.022202237 0.0798035
0003b0 1d 60 13 3d 37 14 91 ba 9f d1 2d 3d 46 dd e1 3c
       0.035980333 -0.0011068647 0.04243624 0.027571332

fc1.bias f4 [20]
000000 66 33 6f 3e 66 fb ef 3e da ed 4e 3e 0e 32 04 3f
       0.2335945 0.4687149 0.2020792 0.5163888
000010 57 4b 0d be 52 cd dc 3e b6 e9 af bc ec bb 04 3f
       -0.13798271 0.43125397 -0.021473747 0.51849246
000020 19 73 74 3e 32 88 13 3f ca 22 c0 be 32 0f 4b bc
       0.23872031 0.5762969 -0.37526542 -0.01239376
000030 03 5e f4 3e 19 5f 28 3e 20 07 0e 3f 7b a1 3b 3e
       0.47727975 0.16442527 0.5547962 0.18323319
000040 89 c2 a8 3e e3 a9 6d bd ea 41 73 3e 09 d9 88 3e
       0.3296092 -0.058023345 0.23755613 0.26728085

fc2.weight f4 [20, 20]
000000 69 51 46 3f b6 06 c0 3d 7f 19 0c 3e 10 b8 6f 3c
       0.7746797 0.0937628 0.13681601 0.014631286
000010 46 c3 0a 3e f3 25 bf bc a2 6a 28 bc e6 9a 0b 3e
       0.13551053 -0.023333525 -0.0102793295 0.13633308
000020 36 7c 10 3e 77 af 1b 3e bb c0 e3 3d 5f 2b 11 3f
       0.14109883 0.15203653 0.11120745 0.56706804
000030 72 3f ed 3e 93 d4 4f be 1b 2f 04 bd 05 03 da 3d
       0.46337467 -0.20295934 -0.032271486 0.10645107
000040 b9 f4 a1 3e 0b 33 a3 be 4a af 8a 3d 54 5a 3a 3d
       0.3163202 -0.3187488 0.06771715 0.0454963
000050 14 da f7 3e 40 d8 f2 bb c7 38 a0 3e 70 60 26 3f
       0.48408568 -0.007411033 0.31293318 0.649909
000060 86 9c 15 bd a5 c5 14 3e 58 4d 31 3e 4c 12 4d 3e
       -0.036526226 0.1452852 0.1731466 0.20026511
000070 8a 98 8a 3d 15 f8 fe 3d 11 49 1c be 5f 91 56 3e
       0.06767376 0.12449662 -0.15262248 0.20953892
000080 6b 1d 8c bc 4e b5 17 3b 6c 30 bd bd dd 02 98 bc
       -0.017103871 0.0023148837 -0.09237751 -0.018556053
000090 95 0c 27 3f 58 27 bf be 87 2c 9f bd 26 0a b5 3e
       0.65253574 -0.37334704 -0.07772165 0.35359305
0000a0 3c 93 c3 be 01 c4 a2 bd 1a cf b6 3c 92 af 4b bf
       -0.38198268 -0.07947541 0.02231555 -0.79564774
0000b0 4c 4d 5e 3e 1f 0d 4d be a7 ba a9 3e 6f 9e e8 bd
       0.21709174 -0.20024537 0.33150217 -0.11358344
0000c0 30 52 0c 3d e0 7c 2c 3e e1 79 98 3e d1 a3 ab be
       0.034258068 0.16844511 0.29780486 -0.3352342
0000d0 00 d9 b5 3d 3d 1b 95 3e 7a 27 3e bc 62 bf 89 be
       0.0887928 0.29122344 -0.011606092 -0.26903826
0000e0 e6 73 83 be 1f c2 d3 bb 72 6c a4 3e fd f7 5b be
       -0.2567436 -0.00646235 0.32113987 -0.21481319
0000f0 c6 89 c7 be d7 06 b1 3e 71 ff 14 be be 59 09 bf
       -0.389723 0.3457553 -0.14550568 -0.5365256
000100 c8 dd a0 3e 4a 3d f2 bd d9 02 7a 3e 03 34 e9 bd
       0.31419206 -0.11828096 0.24415149 -0.113868736
000110 78 06 b4 bd bd 7b dd 3e 1c e7 01 3e af dc 32 3e
       -0.08790296 0.43258467 0.12685817 0.17466997
000120 9a 62 16 3f ab 58 3b 3e f0 49 05 3e 10 c7 33 3b
       0.58744204 0.18295543 0.13016486 0.0027431883
000130 73 99 5a bf c2 c0 73 3d 8a 6c 0c 3f 51 2c 35 be
       -0.85390395 0.05951 0.5485312 -0.17692687
000140 c7 00 54 3d 37 ae 8b 3e 60 5d d2 3e 92 bf 9f 3e
       0.051758554 0.27281353 0.41086864 0.31200844
000150 b4 de ac bd 81 72 a9 3d 2d 16 07 bd 9e a8 f6 bc
       -0.08440915 0.08273793 -0.032980133 -0.0301097
000160 6e 51 d4 be 85 bd 02 bf 6e 78 5b 3d 61 ed db 3e
       -0.41468376 -0.51070434 0.053581648 0.42954543
000170 40 0b 65 3e 78 e8 b6 be e1 27 44 3e 5b 7c a5 3e
       0.22367573 -0.35724235 0.19155838 0.32321438
000180 2a 3d 53 be 3f 9b 37 be 4f ef 41 3e a6 51 ff 3b
       -0.20628801 -0.17930315 0.18938945 0.0077917157
000190 e2 6d 1d 3f 8f a1 2b 3e 28 d3 11 3f cd a4 30 3f
       0.6149579 0.16760848 0.56962824 0.69001466
0001a0 a0 cf 84 be ce c9 ad 3e 30 dd 4f bd e5 57 9b 3d
       -0.25939655 0.33943027 -0.05074805 0.07585124
0001b0 ea 4c c8 bd 30 74 84 bb 06 e6 4d bd be 99 11 3e
       -0.09780295 -0.004042171 -0.050268196 0.14218804
0001c0 fc fa 76 3c d5 70 84 3d 1c 34 c6 3e e1 25 99 bd
       0.015074488 0.064668335 0.3871163 -0.07477928
0001d0 fc 96 78 3e a8 ad e2 bd 14 4e f2 bd f4 dc 43 3d
       0.24276346 -0.110682786 -0.118312985 0.04781814
0001e0 98 d6 f5 3d 2b ed 79 be 44 2c 2e be 81 0f ff 3d
       0.12003821 -0.24406879 -0.17009073 0.12454129
0001f0 1f 6f 9c 3d 64 de 50 be 78 11 5f be c0 fa 05 ba
       0.07638382 -0.20397335 -0.21784008 -0.0005110912
000200 45 7a 42 bd d7 a7 3c be b1 28 a8 bd fe b5 a2 3d
       -0.047479887 -0.18423401 -0.08210886 0.079448685
000210 91 61 34 3d 01 c4 df bd d4 c3 5a be 4d 31 28 3c
       0.04403836 -0.10926057 -0.21363765 0.0102656605
000220 54 15 14 be f8 cc 85 bd 08 ce d6 3d a0 f0 d1 bc
       -0.14461261 -0.06533235 0.10488516 -0.025627434
000230 fb ef cb bd 5e 2d 31 3c 2d 9f 5b be 72 ed 30 bf
       -0.09957882 0.010814039 -0.2144744 -0.6911231
000240 2d 8d 9e 3e 7d a9 6f 3d ed 7f 05 3e 93 f6 90 bd
       0.30967084 0.058511246 0.13037081 -0.0707828
000250 0c 87 82 3e 06 01 a7 3d 89 e8 94 3a 92 e2 a8 be
       0.25493658 0.08154492 0.0011360805 -0.3298536
000260 7c 6c b1 3e 89 de 92 bc f8 7a 12 3d 70 6d a0 be
       0.3465308 -0.017928379 0.035761803 -0.31333494
000270 b2 1c 36 bf eb 7a d0 3e fd e2 5b 3e 6c 07 b3 bc
       -0.71137536 0.4071878 0.21473308 -0.021854125
000280 b4 98 cf 3e 63 25 14 3e 2c 7d f8 3e 57 53 86 3e
       0.4054619 0.14467387 0.48533 0.26235458
000290 b4 2f 94 3d 8a 61 35 bc 9a 2b 06 be 69 a2 1a be
       0.07235661 -0.011070618 -0.1310257 -0.15101017
0002a0 88 7f 2b be 14 95 9e be f3 cd 40 bd 9f 14 83 3e
       -0.16747868 -0.30973113 -0.04707141 0.2560167
0002b0 95 5b d0 3d 55 fe 47 bd 99 e0 b9 3c b7 61 e1 3d
       0.10173718 -0.048826534 0.022690104 0.11004966
0002c0 e8 c8 29 bc b7 b6 97 3e a0 00 98 3e 5e d7 4f 3e
       -0.010362841 0.29631588 0.29687977 0.20297
0002d0 7a e4 5c be 39 cd df 3b 27 f1 c4 be e3 ec 68 bf
       -0.21571532 0.0068298844 -0.38465235 -0.9098646
0002e0 64 ec fb 3d 73 b9 1a be bd 0c f1 3c 50 da 82 3d
       0.12300947 -0.15109806 0.02942502 0.06389296
0002f0 f8 b1 49 3e 6c a7 3b 3e 73 a9 61 bd dc bc 09 bf
       0.19696796 0.18325585 -0.05509324 -0.538038
000300 db ad bc 3e 4b 87 a9 3d 61 3d 26 be b7 01 2d 3c
       0.3685139 0.08277758 -0.16234352 0.010559491
000310 37 12 6f bf 7e d5 1f 3e 94 8d fa 3c 5a 86 88 be
       -0.9338717 0.15608785 0.030585088 -0.26665002
000320 b7 7b 63 3e ee 8b 27 3e 48 f4 bf bd 5f 2c 5c bf
       0.22215162 0.16361973 -0.09372765 -0.86005205
000330 1e ca 2d 3e 27 68 3b 3d de ff b6 3e 92 b9 53 be
       0.16971633 0.045753624 0.35742086 -0.20676258
000340 8a 54 db bd 52 26 55 3e ee 6d c4 3e 19 98 22 3f
       -0.10709484 0.208154 0.3836512 0.6351333
000350 66 29 20 3f 6d 41 27 3d 15 49 2d bd 87 e0 37 3e
       0.6256317 0.04083388 -0.042306025 0.17956744
000360 3b c7 f2 bd bf 5d 3b 3e 4e de e8 3e e1 d2 d8 3e
       -0.118544064 0.1829748 0.45482105 0.42348388
000370 86 3a aa bd f7 6a 2e be 25 2e 63 3c 52 5f f9 3b
       -0.08311944 -0.17032991 0.013865982 0.00761024
000380 5b e0 29 be 1a 49 51 bd 0f 75 bf 3c 29 80 3a be
       -0.16589491 -0.051095106 0.023371248 -0.18212952
000390 95 3c b6 bd e6 90 0d be f2 b5 2c 3e 4d d4 44 be
       -0.08898274 -0.13824806 0.16866282 -0.19221611
0003a0 94 7d f8 bd af 28 e9 3a dd 1c e0 3d 3d 7c d1 bd
       -0.12133327 0.0017788614 0.10943005 -0.10228775
0003b0 33 5f 5c be 49 d6 0f 3e 81 f1 f3 bd 26 92 df 3d
       -0.2152069 0.14046587 -0.119112976 0.109165475
0003c0 dd b2 2a bf 98 a4 cf bd b4 3c 27 3e 68 03 99 be
       -0.66679174 -0.10138816 0.1633175 -0.2988541
0003d0 37 f1 60 3e 21 24 81 be 3d 28 8f 3e 31 f0 8c bd
       0.21967016 -0.25222877 0.27960387 -0.068817504
0003e0 14 5b 61 bb a7 fc bf bd f9 37 4b 3d ab a1 e0 be
       -0.0034386562 -0.093743615 0.049613927 -0.43873343
0003f0 9e c4 0c 3e 4c c1 25 3e 9e e6 90 bd f4 85 04 be
       0.13746879 0.16187018 -0.07075237 -0.12941724

fc2.bias f4 [20]
000000 ff 5b 81 3e b7 64 b1 3e c2 62 5a 3d 20 9f bb 3c
       0.252655 0.34647152 0.05331684 0.022903025
000010 0b b7 11 be 6d 80 f3 3e 88 9d cf 3b 80 88 db 3d
       -0.14229982 0.4755892 0.006335918 0.10719395
000020 6a 45 d0 bd e7 50 b8 3e 80 86 77 3d 10 40 f9 3c
       -0.1016949 0.35999224 0.060431004 0.030426055
000030 34 b1 6c 3e 20 6d 92 3e b0 61 a8 3d e3 eb f6 3e
       0.23114473 0.2859888 0.082217574 0.48226842
000040 ca 00 32 3e 96 10 a7 bd 68 1a a0 3e 21 6e fd 3e
       0.17383114 -0.081574604 0.31270146 0.49498084

fc3.weight f4 [20, 20]
000000 8e 80 f1 3d 7d a5 06 3e a9 9f 13 bf 5e e9 be bc
       0.11792098 0.13149066 -0.576655 -0.023304638
000010 20 67 24 be f8 13 48 3f ac dc e5 3c df 9b 30 bb
       -0.16054964 0.7815547 0.028059326 -0.0026948375
000020 0b 29 0a 3d 14 86 c3 bd 45 d6 86 bd 76 5e 99 bd
       0.033730548 -0.09547058 -0.065838374 -0.0748872
000030 ca d3 1a bf 33 d6 df 3d 15 30 a2 3e 15 05 b8 3e
       -0.60479414 0.10929527 0.3167731 0.35941377
000040 3f 14 08 bd ad ff 44 be 40 20 2b be 56 13 f8 3e
       -0.033222433 -0.19238158 -0.16711521 0.48452252
000050 a5 1f e2 3e 82 9e 20 3e 92 6d 9a be fc 2b d0 3c
       0.44164768 0.15685466 -0.3016172 0.025411598
000060 d7 34 89 3d 14 3e e6 3e 21 92 3b be d0 a4 16 be
       0.066995315 0.44969237 -0.18317463 -0.14711308
000070 38 c1 21 3e 7a e3 27 bd d2 54 a7 3c 5b 1e 56 be
       0.15796363 -0.040988423 0.020426188 -0.20910017
000080 9e 64 16 be 1d fa 08 3e 27 51 60 3e 14 81 bd 3e
       -0.1468682 0.1337666 0.21905957 0.3701254
000090 8b 7c b4 3e 02 41 a1 be 7c 6d af 3d 6e 96 cb 3e
       0.3525127 -0.3149491 0.08565804 0.39763206
0000a0 b3 c3 d9 bd 11 de 28 3e bb d2 d2 3e 00 4d 9c 3c
       -0.1063303 0.16490962 0.411764 0.019079685
0000b0 31 5c c5 3d d1 06 cc 3e d7 f8 f4 3d 12 0c 50 bd
       0.09636725 0.3984895 0.11961525 -0.05079276
0000c0 1a 28 10 be 9e 8c b1 bb 05 87 6b be 48 3c 17 be
       -0.14077798 -0.005418374 -0.23000725 -0.14769089
0000d0 c8 c4 b6 3e 22 80 f4 be 56 3c d0 3d 66 ee d5 bd
       0.35697007 -0.47754008 0.10167758 -0.104458615
0000e0 fd cb b4 3d ab 35 e9 3e 8a ad 3c be 97 fa 01 bd
       0.0882797 0.45548758 -0.18425575 -0.03173312
0000f0 24 f0 b1 3d 0b 89 8a 3e 7c f8 d0 be 99 50 8b be
       0.08688381 0.2705768 -0.4081458 -0.2720993
000100 26 e4 91 be d0 38 2c 3f 42 0e 75 bd cb a3 3c 3d
       -0.28494376 0.6727419 -0.05982805 0.046054643
000110 8d 04 11 3e bc a0 32 bd 6a d1 29 bd 15 fd 0a 3d
       0.14161892 -0.04361032 -0.04145948 0.033932764
000120 40 ce 37 bf b6 97 d8 3e 2a 8f 3f 3e 20 50 25 3f
       -0.7179909 0.42303246 0.18706957 0.64575386
000130 10 be 14 3e dd d5 f6 be ff 2d 81 bd b7 90 e2 3e
       0.14525628 -0.4821004 -0.06307601 0.44251034
000140 02 87 b3 3e a2 1f ee 3d 14 01 ab 3d d7 ff 73 3d
       0.3506394 0.11627127 0.08349815 0.05957016
000150 87 04 dc 3e 4f 0c 72 bc 72 dc a4 3d 9a 23 41 bd
       0.42972204 -0.014773442 0.08049859 -0.047153093
000160 df e4 15 3f 80 74 0d bf c9 a6 8b 3e 8b f8 41 3d
       0.58552355 -0.5525589 0.27275684 0.04735617
000170 9c a4 1d 3d dc 05 5f be b9 77 d3 3e 4c 3b 5d 3d
       0.03848706 -0.21779579 0.4130228 0.054011628
000180 c3 9a 8e bc b5 d3 64 bd f8 ca c9 be 00 0e 5a bd
       -0.01740778 -0.055865962 -0.39412665 -0.053236008
000190 8f 8b 0b 3e 0a b1 1d be 71 b9 88 3e 20 c7 75 3e
       0.13627456 -0.15399566 0.2670398 0.24001741
0001a0 c4 d5 e8 be 2a a8 c6 3e 19 a8 e3 3d 20 f4 8f 3e
       -0.4547559 0.38800174 0.111160465 0.2811594
0001b0 6f 40 1d bf 64 29 19 3f 59 32 3e 3e 4e fc 91 3b
       -0.6142644 0.5982878 0.18573894 0.004455126
0001c0 79 df be 3e 9b 07 b3 3e be 69 8f be ff 45 a1 3e
       0.3727987 0.3496674 -0.28010362 0.31498715
0001d0 1d c6 60 3e 77 33 d0 3e fd 46 06 3f 64 4a 88 3e
       0.21950574 0.40664265 0.5245207 0.26619256
0001e0 e1 31 c8 bd b4 39 84 bd 46 11 fb bd 1d f3 07 3e
       -0.09775139 -0.064563185 -0.12259154 0.13276334
0001f0 f3 59 9e bd 41 2a a7 bd 62 0e d0 3d 38 38 23 be
       -0.07732 -0.08162356 0.10158993 -0.15939415
000200 84 05 4a be a1 96 83 be 82 c5 ca bd c0 14 a6 3d
       -0.19728667 -0.25700858 -0.09900953 0.081094265
000210 4a 3b 52 3d 15 6f 9f bd 48 5d d2 bd 88 c8 35 be
       0.051326074 -0.07784859 -0.10271698 -0.17752278
000220 3c c2 c2 3d 79 97 12 3e 57 47 03 be 4e a7 13 3e
       0.095097035 0.14315595 -0.12820183 0.1441929
000230 7d 4f ec bd 58 68 15 3f 0c 86 2c be e3 8b 9c be
       -0.11538599 0.5836234 -0.1684801 -0.30575475
000240 c6 10 f1 3d fb 09 4e 3e af 82 07 be dc e9 95 be
       0.117707774 0.20120995 -0.13233446 -0.29279983
000250 0c 6c 7d 3e f3 1d 60 be 4d 81 f8 bd 2f 6e 0c be
       0.24748248 -0.21886425 -0.12134037 -0.13713907
000260 f4 89 f6 bd 9f 9b cb 3c 73 73 18 3f 5b 11 9d 3e
       -0.12038031 0.02485448 0.5955116 0.30677304
000270 86 18 c2 3e 1f 60 9b bd 12 ca 14 3b 1b c7 7c 3d
       0.37909335 -0.07586693 0.002270345 0.06171332
000280 4e ea 2a 3e 87 7a c5 be d6 88 b6 3e c1 83 c3 3e
       0.16690943 -0.38570043 0.35651273 0.38186458
000290 e0 36 f5 be fb 6c b2 be 52 34 50 3e 8b 73 33 3e
       -0.4789343 -0.3484877 0.20332459 0.17524545
0002a0 3b e5 0b bf d8 56 e7 3e f4 36 b6 3e 8f b8 8b 3d
       -0.5464665 0.45183444 0.355888 0.06822311
0002b0 5f d0 c2 3c bb 37 7a 3e bf 8b 0b bf 9a f0 1a be
       0.023781 0.24435322 -0.5451011 -0.15130845
0002c0 e4 c8 22 be ae 56 21 3d 31 25 81 3e 7e 70 5b bd
       -0.15896946 0.039389305 0.25223687 -0.053574078
0002d0 cd dc 69 3d 14 e7 e0 bc a0 c6 40 3e de 57 53 be
       0.057095338 -0.027453937 0.1882577 -0.20638987
0002e0 f0 fc 01 be e5 4c 78 bd 66 67 10 3e bc bb 2c be
       -0.12694144 -0.060620207 0.14101943 -0.1686849
0002f0 8a 89 1a 3e 16 e1 fc 3d 10 46 0e bd e9 22 08 be
       0.1509153 0.12347619 -0.034734786 -0.13294567
000300 27 21 e0 3d e7 d2 6d be 1e b4 c9 3d c9 a8 8c bd
       0.10943823 -0.23224984 0.09848808 -0.06868131
000310 fc 59 d1 bd 73 4a 4d 3d e1 85 0a be 66 38 c7 3d
       -0.10222241 0.05011983 -0.13527633 0.09727554
000320 bb d0 71 3d ea b1 e1 be 68 ea 31 3e 13 47 b7 3d
       0.05903695 -0.4408105 0.17374575 0.08949103
000330 25 29 e5 be f1 5b 35 3d 77 c2 64 bc 13 e0 73 3e
       -0.44757953 0.044277135 -0.01396238 0.23815946
000340 04 8b e9 be 27 86 b1 3e f8 a0 84 3d 56 23 41 3e
       -0.45613873 0.34672663 0.06476015 0.18861136
000350 94 67 11 3e 43 61 91 3e 7c bc bc be 5b 50 44 3d
       0.14199668 0.28394517 -0.36862552 0.047928195
000360 05 09 4c be f8 e5 ec 3e d9 3f 8c 3e 72 09 2f be
       -0.19925316 0.46269202 0.27392462 -0.17093447
000370 51 16 b3 3e 89 4a af 3e 2e 71 3d 3e 8f de 0f 3d
       0.34977964 0.34236553 0.18500206 0.035124358
000380 12 77 12 3f 3a 97 06 3e 69 c4 5e be 39 e1 79 bd
       0.57212937 0.13143626 -0.21754612 -0.061005805
000390 4a 89 d5 3e e9 b5 f2 3d 22 6f 82 3e 2c 1d e1 3d
       0.41706306 0.11851103 0.25475413 0.10991892
0003a0 7b eb ae be 73 22 5d be e5 f2 6a 3e 91 33 11 bb
       -0.34164032 -0.21595173 0.2294422 -0.002215598
0003b0 a8 68 ab 3e a9 b4 27 bf f0 b3 29 bd 82 52 40 3e
       0.33478284 -0.6551004 -0.041431367 0.18781474
0003c0 c6 5a aa 3e ba 57 ba 3e 7c 7b 7c be 0b 5d d6 3d
       0.3327238 0.36395055 -0.2465648 0.10466965
0003d0 10 40 ce 3e 96 e5 01 3e b9 25 0c 3e 26 c2 86 be
       0.4028325 0.12685236 0.13686265 -0.26319999
0003e0 af 93 d6 3e 66 0c 7f be 1a e4 24 3e 34 44 46 be
       0.4190955 -0.24907073 0.16102639 -0.19361955
0003f0 99 bf 57 bd cc 13 38 be 80 01 0c 3f 48 c0 7e 3e
       -0.052672956 -0.17976302 0.5468979 0.24878037

fc3.bias f4 [20]
000000 d7 a8 b9 3e 8d 2f e1 3e 23 18 86 3e f3 de 40 3e
       0.36261627 0.4398159 0.2619029 0.18835048
000010 c9 25 6d be ba 61 d9 3e e4 ff 46 be 6f 7a 8f 3e
       -0.23158945 0.42457372 -0.19433552 0.28023097
000020 1e c8 32 3e 15 83 25 bd a1 28 e7 3d c1 b4 02 3c
       0.17459151 -0.040408213 0.11287046 0.007977665
000030 17 38 94 3e db de 0d 3e 4c 14 01 3f 6a 4e 11 bd
       0.28949043 0.13854544 0.50421596 -0.035475172
000040 2a f7 c4 bd f8 3d a6 3e 3c cc 66 be 7e 01 71 3e
       -0.09617455 0.32469153 -0.22538847 0.23535725

fc4.weight f4 [20, 20]
000000 13 93 0e bd b4 95 d1 3e 70 95 cd 3e d7 43 e7 3d
       -0.03480823 0.40934527 0.40153074 0.11292236
000010 c8 3e 04 3f 13 91 97 bd 19 e9 1c be 3a 0c 19 3f
       0.51658297 -0.074007176 -0.15323295 0.5978428
000020 11 15 ec bd 51 53 1b be 3f 8e a3 be 2f ba c5 3e
       -0.115274556 -0.15168501 -0.31944463 0.3861861
000030 0d b6 7e 3d fa 7d b4 3e d0 d3 52 3e 2e 4e 82 be
       0.062185336 0.35252362 0.20588613 -0.2545027
000040 f7 82 83 3e 1a d2 f5 bc 1c 6e 22 3e e2 93 b8 3e
       0.25685856 -0.03000741 0.15862316 0.36050326
000050 9c e4 2f 3f a9 82 4f 3e 31 c7 cb 3d 42 23 58 3f
       0.68708205 0.20264687 0.09950102 0.844288
000060 75 89 29 be 6f 55 9d 3e 2d 8a 1f 3e aa 81 64 be
       -0.16556342 0.30729243 0.15580054 -0.22315088
000070 30 8e 11 be 01 e7 68 3d b1 f6 53 3e a7 e1 de 3b
       -0.14214396 0.056860927 0.20699574 0.006801802
000080 d8 62 12 3e e5 1f 5c 3e ef 3c 81 bd a0 39 ba be
       0.14295518 0.21496542 -0.0631045 -0.3637209
000090 e6 e9 81 3d 34 ee 46 be 04 ea 77 3c b8 df d1 3c
       0.06343441 -0.19426805 0.015131477 0.025619373
0000a0 dd b2 01 bd 6c 12 8f 3e d9 54 51 bf 0b 18 17 be
       -0.031664718 0.27943742 -0.8177009 -0.14755265
0000b0 15 a2 9f bd 16 b8 b0 3c 09 f6 10 be c8 06 f0 bd
       -0.077945866 0.021572154 -0.14156355 -0.117200434
0000c0 02 81 fb bb 33 ce 0c 3e ed cb ec 3d 37 f5 b8 3e
       -0.007675291 0.13750534 0.11562333 0.36124584
0000d0 a8 90 d0 3e 34 90 2e 3d da 65 5a be fc 3f 1e 3d
       0.40735364 0.04261799 -0.21327916 0.03863524
0000e0 1e c9 0e 3f f9 5f 09 be c0 22 76 be 43 8e fc 3d
       0.5577563 -0.13415517 -0.24036694 0.12331822
0000f0 a2 1f e9 3d 87 a4 b8 3d 92 94 72 3e 90 40 1d 3e
       0.113829866 0.09015756 0.23689488 0.1535666
000100 07 f8 9a bd d5 16 d0 3e 3b d7 23 be 38 da a4 be
       -0.07566839 0.4064242 -0.16000073 -0.32197738
000110 01 a4 bf 3e ec 90 44 3e 18 67 0a 3e 2c 85 73 3e
       0.37429813 0.19195908 0.1351589 0.2378127
000120 2e 55 c6 3e a8 90 5b 3c d9 87 63 3e e0 a9 2d be
       0.38736862 0.013401188 0.2221979 -0.16959333
000130 23 f8 6f 3e b2 de 2c 3e 4e 1a cd be 5b 0d b5 3e
       0.234345 0.16881827 -0.4005913 0.35361752
000140 54 14 dc 3b a1 f3 cf bc cf a3 32 3e 3f 78 a0 be
       0.0067162905 -0.025384726 0.174453 -0.3134174
000150 8b 5f 15 3f 4b f7 7b bd 05 40 04 3e bc 0c c9 3e
       0.5834891 -0.061515134 0.12915047 0.39267528
000160 30 e6 af be a8 3d 48 be 19 a2 c7 be c3 ca 96 3e
       -0.34355307 -0.1955477 -0.38990858 0.2945157
000170 3b c6 66 3e 70 55 25 3e 38 98 47 3e 56 81 62 3c
       0.22536556 0.16145873 0.1949166 0.013824781
000180 b3 f4 2a 3d bf 6c 2e bd a6 e1 cf 3e 8d aa c5 3e
       0.04173727 -0.042584177 0.40601844 0.38606682
000190 d7 2c 33 3f ed 81 1b 3e 4f 61 f1 3e a7 f0 2c 3f
       0.69990295 0.15186282 0.47144553 0.67554706
0001a0 36 22 f6 3d 04 b3 f9 3c 4f b4 4f be 00 41 cd 3e
       0.12018244 0.03048087 -0.20283626 0.40088654
0001b0 4d b0 9b be 52 b5 be 3d 21 5f 53 be 5f d5 65 3e
       -0.30407944 0.09311928 -0.20641758 0.22444676
0001c0 ae 94 ff 3d 7f 1f 8b 3e 87 c2 02 3e 45 ed 95 be
       0.1247953 0.27172467 0.12769519 -0.29282585
0001d0 f8 b1 13 3e 34 fc 42 3e 30 86 18 3f d3 98 46 3c
       0.14423358 0.1904152 0.59579754 0.012121397
0001e0 67 7f 42 3f 67 0c 86 be 07 ff cb 3e 3c d6 ab 3e
       0.7597565 -0.26181337 0.39843008 0.33561885
0001f0 fa 7a 0f bf 87 f4 a4 3e de f5 e4 3d 89 28 01 bc
       -0.5604702 0.3221781 0.11179708 -0.0078831995
000200 50 dd 4b 3e 5c 67 f1 bd 66 79 06 3f d7 6d 09 bf
       0.19908643 -0.11787292 0.5252899 -0.5368323
000210 d0 8c 0b bf 7d 8d f3 be 1b bb 4a 3e 46 cf 6e 3d
       -0.5451174 -0.47568884 0.19797938 0.05830314
000220 cb 0b 69 be d3 30 ce 3e 34 9d 90 be 89 51 5c bc
       -0.22758405 0.40271625 -0.28244936 -0.013447174
000230 8c e8 01 bf 53 20 d6 bd ac a3 3e bf 4c ed ef be
       -0.50745463 -0.10455384 -0.74468493 -0.4686073
000240 19 c8 38 3f e1 7f 50 3c de 7f f8 3d 97 b0 f9 3e
       0.72180325 0.012725801 0.12133764 0.4876754
000250 3f 0a 8b 3e 4a c5 1f be e0 e6 30 be 91 cd b5 3e
       0.27156255 -0.15602604 -0.17275572 0.35508397
000260 fa 1b af bc 10 b3 07 3e de b0 2c be a9 42 3c be
       -0.021375645 0.132519 -0.16864344 -0.18384804
000270 d7 3c f9 3e ac 10 19 be 5f f6 00 3f aa 55 b8 3e
       0.4867923 -0.14947766 0.5037593 0.36002856
000280 4d 9c 67 bd d4 1f 7c 3e 63 a2 85 3d c7 08 e0 bd
       -0.056545544 0.24621516 0.065251134 -0.10939174
000290 a2 89 c6 3e 49 60 46 bc 3d fb 08 3e 69 cd 49 3f
       0.3877688 -0.012107917 0.1337709 0.78829056
0002a0 13 76 95 be 7d a8 78 3d 6f b7 3f be 6d 34 a3 3e
       -0.29191646 0.060707558 -0.18722318 0.31875935
0002b0 0f 99 9d 3e b6 c3 d2 3e ff b0 a8 3e 43 74 2f be
       0.30780837 0.4116494 0.32947537 -0.17134194
0002c0 57 ac ca 3e 1d 33 37 bd 33 fd df 3e 36 f3 a7 3e
       0.3958461 -0.04472648 0.43747863 0.32802743
0002d0 00 f9 11 3d 99 3c 91 bd 13 a5 31 be 08 c5 36 be
       0.035637856 -0.07091636 -0.17348127 -0.17848599
0002e0 7d 3a 91 bd 6a 63 c2 bd 23 8c 24 3d 68 09 16 be
       -0.07091234 -0.09491618 0.040172707 -0.14652026
0002f0 72 ab 35 bd 80 4b d8 bd 3e 99 12 bd 4e 33 11 be
       -0.044352956 -0.105612755 -0.035790674 -0.14179727
000300 55 e5 88 3d 7f e3 ab bd d5 70 15 3e 6d 27 df 3d
       0.066843666 -0.08393001 0.14593823 0.10896192
000310 b1 f5 a2 3d 4f 7a f3 bd 3f a2 45 be 53 5f 2a be
       0.07957018 -0.11888563 -0.19300173 -0.16637926
000320 fa 0d 25 be 26 30 07 3e 02 a6 43 be 2b 57 c0 3c
       -0.16118613 0.13201961 -0.19106296 0.023479065
000330 4a aa fc bc 33 a0 e4 bd 6f 57 e8 bd c2 78 bc bd
       -0.030842919 -0.11163368 -0.11344802 -0.0920272
000340 08 31 e9 bd a7 b1 55 bd 3b 6b 8f 3d c7 e8 29 bd
       -0.11386305 -0.052171376 0.070028745 -0.04148176
000350 62 68 37 be 8e f3 45 be 70 fc 02 bd 4b c9 45 be
       -0.17910913 -0.1933119 -0.031979024 -0.19315068
000360 09 62 dd bc fc ff 2d bd e4 1c 5f bc d6 a7 18 be
       -0.027024286 -0.042480454 -0.013617728 -0.14907774
000370 85 1b f3 3d c6 a9 b9 bd 28 83 98 3e 77 4f a3 3e
       0.11870483 -0.09065585 0.29787564 0.31896564
000380 f8 68 ff 3e 99 61 a2 be 54 c2 00 be f8 65 01 3f
       0.49884772 -0.31715086 -0.1257413 0.50546217
000390 b2 7c 71 be 29 da d0 bd de 0d 9d be 76 a2 b5 3c
       -0.23582724 -0.10197861 -0.30674642 0.022172194
0003a0 63 5d 6f 3e 95 3a 04 3e a7 99 2c bd ab fa c0 be
       0.23375468 0.12912972 -0.04213872 -0.37691244
0003b0 28 c3 7f 3e bc 31 6c be ca f5 0c 3f 6d 80 1f 3e
       0.2497679 -0.23065847 0.55062544 0.15576334
0003c0 47 db 2f 3e 5a fe 9a bc 51 34 cf bd b3 2d 09 bd
       0.17173491 -0.018920112 -0.101174004 -0.033490848
0003d0 55 ea bc be 53 04 aa 3e 92 de 3a 3e bb e7 be be
       -0.3689753 0.33206424 0.18248966 -0.3728617
0003e0 dd 8e d3 3e 23 7e 13 3e 2b ea e7 3e ac c2 07 bd
       0.41319934 0.14403586 0.45295843 -0.033144638
0003f0 0a 9a 34 be 68 13 68 3c bb 3e 0a 3e 83 5f cf 3e
       -0.17636886 0.014164783 0.13500492 0.40502557

fc4.bias f4 [20]
000000 69 94 ba 3e 00 ca be 3e 84 bd 55 bd 7b 75 22 3e
       0.36441353 0.3726349 -0.05218269 0.15865128
000010 d9 23 30 3e 3b f4 76 3e 19 90 c5 3d 77 56 0b bf
       0.17201175 0.24116604 0.09646625 -0.5442881
000020 ed 17 d5 3d f6 66 ff bd d9 7f b7 bd a5 08 4b be
       0.10404954 -0.1247081 -0.08959932 -0.19827516
000030 4a 89 69 be 63 c3 8b 3d 82 60 14 3e 96 66 92 3d
       -0.22806278 0.068243764 0.1448994 0.07148473
000040 03 d5 f5 bd 2f 54 e8 3d d0 8b ea 3e 4b 08 cc bb
       -0.120035194 0.11344182 0.45809793 -0.0062265745

fc5.weight f4 [20, 20]
000000 2e 78 2f 3e 2b 7d 93 bd 6e c8 44 bd ea c9 1e be
       0.17135689 -0.07201608 -0.048042707 -0.15506712
000010 6e 2c 38 3e 03 df 70 bd 7d b1 f4 3d 38 a5 0f be
       0.17985699 -0.05880643 0.11947916 -0.1402787
000020 fd 6c 12 be 1b 62 ec 3d 13 a2 53 be 38 8b a6 bd
       -0.14299388 0.1154215 -0.20667295 -0.081320226
000030 89 bb ce bc e7 7c c8 bd dc 85 4b be bd 01 ca bd
       -0.025235908 -0.09789448 -0.19875282 -0.09863613
000040 ce 15 31 be 69 c9 90 bd d2 1f 2b be 6a 34 3a bd
       -0.17293474 -0.07069666 -0.16711357 -0.045460142
000050 62 3a 03 3f 6c 99 d0 3b e5 e5 f2 be 6c e6 a9 3e
       0.5126096 0.0063659456 -0.4744102 0.3318361
000060 1a 36 4e 3f e4 f5 bd 3e ca 75 9a be bb d9 35 be
       0.805513 0.37101662 -0.3016799 -0.17758839
000070 ae 30 c8 3e a6 16 a4 3d ef 6d 77 bd ba 69 00 3e
       0.3909964 0.08012132 -0.060407575 0.12540331
000080 da 4d 02 bd 9f 62 4c 3d 87 e2 bd bd a9 4a 51 3e
       -0.031812526 0.04989874 -0.09271722 0.20438637
000090 d8 e0 fc bd cb fa 6d bd 5d aa 18 3d 2b 2f e4 bc
       -0.12347573 -0.058100503 0.037271846 -0.027854523
0000a0 51 d9 02 be 69 61 60 bd ee 7f e5 3e 2f 49 56 3e
       -0.12778212 -0.054780398 0.44824165 0.20926355
0000b0 db f7 f1 be b1 d0 24 bf 4f 51 4e 3e 49 31 f0 3e
       -0.4725941 -0.6438094 0.20148204 0.46912602
0000c0 53 e6 f3 be a9 69 8d bc bb 59 4e be a5 45 18 be
       -0.4763666 -0.017262297 -0.20151417 -0.14870317
0000d0 99 3c 45 3e d9 49 22 3e a9 a0 bd 3e d6 7f 51 be
       0.19261397 0.15848483 0.37036636 -0.20458922
0000e0 a7 0e 92 3e 08 a8 5e 3e 85 b6 ca bc dd e4 b1 3d
       0.28526804 0.21743786 -0.024745235 0.0868623
0000f0 aa 84 15 3c e2 b8 03 bf 39 81 0a 3f f8 c0 18 3e
       0.009125868 -0.51453984 0.5410343 0.14917362
000100 ca 78 85 3d 9c cb df be 7f 56 82 bd 65 38 1d 3f
       0.06517179 -0.4371003 -0.06364154 0.61414176
000110 5d cd 50 be 11 4e 28 bd 7a 55 e7 bc c9 75 3f 3e
       -0.2039084 -0.041090075 -0.028239 0.18697275
000120 fc ed a6 3e 37 8d a9 3d ec 24 0a 3d 88 83 8c 3d
       0.32603443 0.08278888 0.033726618 0.06861025
000130 63 1a 48 3e 44 e0 f6 3d 6d 70 1d bf 45 e0 71 3d
       0.19541316 0.12054494 -0.61499673 0.05905177
000140 44 72 93 3e 47 57 f8 3e e3 dc e4 be 45 90 2f 3e
       0.28798115 0.48504087 -0.44699773 0.17144878
000150 c6 59 e5 3d 0a 5e 2a 3f d2 c0 6a be cf d6 01 bf
       0.111987635 0.6654974 -0.22925118 -0.50718397
000160 32 6d fa bd af 28 a1 3c b2 7e 0b be 1b ee 25 be
       -0.122278586 0.01967272 -0.13622549 -0.16204111
000170 ce 0f 67 be d0 b7 d0 be 31 f3 ce 3d 83 84 6e 3e
       -0.22564623 -0.40765238 0.10104979 0.23292737
000180 89 fb 05 3e 63 3d 3a bd f4 5e 0e 3f 58 f6 31 3e
       0.13084234 -0.0454687 0.55613637 0.17379129
000190 20 5a f2 bd ce e2 9b bc c6 a4 55 bc f5 3e 41 bd
       -0.11833596 -0.019029047 -0.013039773 -0.04717918
0001a0 4b 03 42 3e ee 81 89 3e d6 f8 0d 3e 5e df b5 3e
       0.18946569 0.2685694 0.13864455 0.35521978
0001b0 04 58 66 3e 5f 18 c6 3d b6 e7 d5 3d f9 6b e5 3e
       0.22494513 0.09672617 0.10444586 0.4480894
0001c0 ab 26 ed be a2 57 27 3f 0a c6 e7 be 85 7d 4f 3d
       -0.46318564 0.6536809 -0.4526828 0.050656814
0001d0 6b 4a 5d be 89 c3 40 be c9 7d c0 3d 8f 1b 29 be
       -0.2161042 -0.1882459 0.093989916 -0.16514419
0001e0 71 b3 4d 3c e4 1a 65 bd f3 3e 70 bd 2d 15 9c bd
       0.012554989 -0.055933848 -0.058653783 -0.076212265
0001f0 fa 7f ed ba e4 77 e7 3d fc d2 2b be 25 f8 ec 3d
       -0.0018119805 0.11302164 -0.16779703 0.11570767
000200 92 3a 03 3e 50 79 d1 bd b3 39 2a 3e 3a fc 9b bd
       0.12815312 -0.10228217 0.16623573 -0.07616468
000210 3f 87 b4 bd 8f 82 f3 bd 34 24 34 bd 13 96 13 be
       -0.08814859 -0.118901365 -0.04397984 -0.14412718
000220 40 2e 01 bd 77 a5 e3 bd ed 63 0a 3e 72 3a 37 3d
       -0.031538248 -0.11115544 0.13514681 0.044733472
000230 3e c2 b5 3d 2b d6 1c 3f 4e 33 66 3e 92 0a ff bb
       0.088749394 0.61264294 0.22480509 -0.0077832425
000240 58 e0 9f be 76 87 7f 3c ba 48 3e 3f 6b 19 6a bf
       -0.31225848 0.015596261 0.7432972 -0.91445035
000250 9d 4d 7e be 1c 1a cf 3d 23 ba 81 3d e5 18 e4 be
       -0.24834295 0.10112402 0.06334331 -0.44550243
000260 0d 22 18 3e 11 cd c4 be 47 2a ac 3e 39 26 b0 bd
       0.1485674 -0.38437703 0.33626005 -0.086010404
000270 da 0b 50 3e 4e 25 13 3d b4 30 af 3e a8 81 42 3c
       0.20317021 0.03592425 0.34216845 0.011871733
000280 d2 39 8e be 60 fc 08 3f 3b cf e7 3d f7 1a 36 3e
       -0.27778488 0.53510094 0.11318823 0.17783724
000290 39 ea be be ce 13 62 3e bb e0 cd 3e ef ad 20 bf
       -0.37288073 0.22077867 0.40210518 -0.627654
0002a0 9a 0b 1e be 69 7f 45 3e 6a 85 01 3e 85 85 ca be
       -0.15434113 0.19286884 0.1264855 -0.39554992
0002b0 26 eb be 3e dd db c9 be be 79 e7 3e b0 54 3d be
       0.3728878 -0.39425555 0.4521007 -0.18489337
0002c0 98 0f 17 bc b0 a1 08 be 75 c1 0a 3f f9 9b 3c 3d
       -0.009220026 -0.13342929 0.5420144 0.046047185
0002d0 33 57 c3 bc 06 44 32 be 71 27 21 be aa 36 b4 3c
       -0.02384529 -0.17408761 -0.15737702 0.021998722
0002e0 46 28 97 bb f2 b8 c4 3b 3d 5e 5a be 77 53 16 3e
       -0.0046129553 0.0060034925 -0.21325012 0.14680277
0002f0 02 bf 9c 3d af 24 55 3e 0a e9 7c bd 67 e0 f4 3d
       0.07653619 0.20814775 -0.06174568 0.11956864
000300 be 4f 3e 3e c0 09 39 be 1e 1c b7 3d 44 81 86 3d
       0.18585107 -0.18070126 0.0894091 0.06567624
000310 b5 64 59 be 27 4c c0 bd 28 d4 3d be 6c 99 5e 3e
       -0.21229823 -0.09389525 -0.18537962 0.21738213
000320 ef 13 1b bd 06 6d 34 be eb bb 13 be e5 6b 10 3e
       -0.037860807 -0.17619714 -0.14427154 0.14103658
000330 e2 b9 22 3e eb 4f 9c bd 21 35 5b be eb 2f 00 3d
       0.15891221 -0.07632431 -0.21406986 0.031295698
000340 ff 36 c1 bd 67 14 51 3e 97 c8 16 3e 85 c4 46 be
       -0.09434318 0.20417939 0.14724956 -0.19410904
000350 ea d2 98 3d f8 82 58 3e d7 fd 31 be 40 8f fd bd
       0.07462104 0.2114371 -0.17381988 -0.123808384
000360 bd e3 8e bd 8e cb e6 bd 8e 28 a6 bc 28 8b 21 bd
       -0.069770314 -0.11269294 -0.02028301 -0.03943935
000370 83 f4 27 3d be 1c 4a be e1 18 d8 3c d5 9a 7a 3d
       0.04100467 -0.19737527 0.02637905 0.061182816
000380 d2 84 f3 3d 5f 3a 00 3e 23 6d 74 3d 45 78 37 be
       0.11890568 0.12522267 0.059674393 -0.17916973
000390 6f 79 bb bd b8 2f 46 3e 23 16 61 be 74 06 32 be
       -0.09154021 0.19354141 -0.219811 -0.17385274
0003a0 c8 38 bd bd 4e 88 b2 bd e4 ee 7a 3d 47 65 78 bd
       -0.09239346 -0.08717404 0.06126298 -0.06064346
0003b0 fe 01 7c bd d2 08 d0 3d 39 d7 16 be 42 92 b3 3c
       -0.061525337 0.10157932 -0.14730538 0.021920327
0003c0 ef da 2c 3e 9d 1c a3 3d b7 bd 88 bd f2 ed 15 bd
       0.16880392 0.07964442 -0.0667681 -0.036603875
0003d0 9b d6 42 3e 8a a9 05 3c e8 4d 04 3f d3 3b fe 3d
       0.19027178 0.008158097 0.51681376 0.12413754
0003e0 93 e2 15 3e 4d ec ff 3d 54 58 ff 3d 77 11 18 3f
       0.14637212 0.12496243 0.12468019 0.5940165
0003f0 d3 87 62 be cf 3e 2a 3f 47 ea 54 be fb d9 5a 3e
       -0.22122125 0.6650209 -0.20792495 0.21372215

fc5.bias f4 [20]
000000 5d bb ad bd 7e f2 1f 3e 56 ee e8 bd da 84 90 be
       -0.08483002 0.15619847 -0.11373584 -0.28226358
000010 f0 f9 b4 3e b7 30 27 3d 01 6f 54 be 06 b8 e0 3d
       0.35346937 0.040817942 -0.2074547 0.109726
000020 3d 30 f5 3d 90 cb 3c be d5 0c 0a bc 6d 8d 56 be
       0.11972091 -0.18437028 -0.008425911 -0.20952387
000030 0f 9e 99 bd c5 d5 32 3e 53 db bf 3e 88 4b 91 be
       -0.075008504 0.17464359 0.3747202 -0.28377938
000040 88 37 9b bb 40 86 78 bd 8e 8b 50 be 4c da b3 bd
       -0.0047368445 -0.060674906 -0.20365736 -0.08781871

fc6.weight f4 [3, 20]
000000 d2 a3 91 bd 61 b5 66 3e bb 5d 1b be fa 91 37 3e
       -0.07111324 0.22530128 -0.15172474 0.1792678
000010 5f c5 0c 3d 38 0b e0 3e e9 33 7d bd 6b 8d 48 bf
       0.034367915 0.4375856 -0.061817084 -0.78340787
000020 46 b5 3d bf 9a f2 31 3d 42 09 77 bd 31 0a d9 3c
       -0.74104726 0.043444254 -0.060311563 0.026494117
000030 55 17 20 3f c1 64 d6 3e 7e b1 28 bd b7 31 b8 3e
       0.625356 0.41873744 -0.041184895 0.3597543
000040 25 62 22 3f 18 21 3f be 16 c2 d1 be d2 96 18 3f
       0.63431007 -0.18664968 -0.40968388 0.59605134
000050 1c b9 8d 3d 38 4e 0f 3d be d4 11 be 9b 00 24 bf
       0.069200724 0.034986705 -0.14241311 -0.64063424
000060 fe ef 00 3f bd c9 d2 be 6c df 29 3e 2d cc 08 3f
       0.503662 -0.4116954 0.16589135 0.5343655
000070 a8 cf f4 3e e7 11 10 3d b6 17 cb bb 0e 5f a8 3c
       0.4781468 0.035173323 -0.006197895 0.020553138
000080 2f 9f 97 be 97 8f c0 3d 6d c2 54 3f b7 e3 dc be
       -0.29613635 0.094023876 0.8310917 -0.43142483
000090 13 97 1e bf c2 b3 f0 be ae ae 64 bf 7a ad a9 be
       -0.6194927 -0.47012144 -0.8932904 -0.33140165
0000a0 22 d8 16 3e c9 c0 22 bf 25 38 00 3f 92 4a d0 3e
       0.14730886 -0.63575417 0.5008567 0.40681893
0000b0 2f ed c2 be 5f 2c 0e bf 0d 30 2a bc 5a 66 62 3e
       -0.38071582 -0.55536455 -0.010387433 0.22109357
0000c0 d5 ec 50 3e dc c5 35 bd 67 30 20 3e 06 80 1d be
       0.20402844 -0.044378147 0.15643464 -0.15380868
0000d0 cd 2f 56 be 2a a4 bb be 5f 30 2a bf 85 fa 9f be
       -0.20916672 -0.36648685 -0.6648006 -0.3124582
0000e0 bc ff b5 be 75 0f 2f 3f a9 fb 3f 3f 29 fd 62 be
       -0.35546672 0.6838296 0.7499338 -0.22166885

fc6.bias f4 [3]
000000 9a 1f 27 be cf c7 d9 3e 09 a6 81 be
       -0.16320649 0.42535254 -0.25321987
