models_3val/xor_and_8.pth (torch, 12178 bytes, 12 tensors)

fc1.weight f4 [20, 12]
00000000: 0e6b a63e ecc4 06bd 0c1a 2bbe d641 2e3c
00000010: 0b7a 353e 24bb 05be 1bc2 913e 4906 0d3c
00000020: 39c9 3c3e 84b1 b03e 98b6 2d3e 0b52 c4bb
00000030: c983 783e c3be a23d 6b4a 093e bbbe 353e
00000040: 6587 51be 7902 813e a64f 49be 80c5 98bd
00000050: 2a72 9a3d 2ad6 043e 8d7a 88bb 18ca d83d
00000060: 5dba bb3e d6c8 0e3e 7ddb d13c bffe 15be
00000070: e87c c0bb 31dd bfbd ec2d 8abe 3fae 593e
00000080: 0189 823e 446b 203e 5ec8 313d 93f7 163d
00000090: f3b5 83bc c810 ed3c 5a16 2a3e 5a76 8a3e
000000a0: d24b ec3e 0d9f 5dbe 0e92 8a3e 6873 08be
000000b0: 745c 683e f52d 83bd e957 183e 7e1f 93bd
000000c0: d844 983d 90be d73c a9e4 c73d 67df 213e
000000d0: 0234 863d ac59 dabd 4666 acbe 7c6c c73e
000000e0: 1e88 d9bd c6e9 863c 2219 9aba 634c 853e
000000f0: 41c8 583c 65ed 9a3d ecd2 c7bd 11d6 0abe
00000100: 7152 e83e c4b7 94be fd42 e53e 6cc5 89bb
00000110: d16f 91bb 584b 09bd 4acc 1abd e4d5 343c
00000120: 1114 a83b 639e 1fbc 4d48 c13c 1893 023d
00000130: 2c8c b73e 7256 50be e1e7 be3e a5c9 dcbe
00000140: 37e5 a33c 7595 6e3c dbc5 3d3c 8bd6 1fbb
00000150: eceb c8bd 0fc3 5c3e 751f b33e 94e8 80bd
00000160: efd4 8a3d 87cb b43e eb02 693e cc8d 55be
00000170: e37f b6bd 9a16 283e 2edf 5e3e 6395 003e
00000180: a02f cfbc 3611 d6bd 40bd 453e fd6e 283e
00000190: 820b 2c3e 0731 40bb f060 6ebe ac08 d13e
000001a0: a73f 873e 6007 95bc b297 443e 0998 bb3e
000001b0: fff0 10bd adab df3d 002f 5e3c d88f 9d3e
000001c0: 2552 533e a475 983e 61ed c53c 1d09 73be
000001d0: 441f 58bd 5bde b63c 10f5 c53d 3945 173d
000001e0: dbc4 46bd 946f a03e 3e2c b03e 4a61 8d3e
000001f0: 114d f03c 1510 973d 820d c9be e855 b33e
00000200: 16af 653e cd37 943d 968b 48bd b89d aabd
00000210: 3335 143d 61c3 0bbc cb0e ab3e cf69 923c
00000220: 8a90 8f3d b057 123e 9d5e da3e ba38 10be
00000230: 5ecc a53d fcf9 7f3e 9df5 11be 328d 663e
00000240: e83e 593d 3161 b53a eb4c 91bd 78bf 4e3d
00000250: f734 1b3e 8507 f8bd 864a c13e 17f5 66be
00000260: 0632 623d a343 933d 55b1 ae3e 2bb2 ab3e
00000270: 0ec4 bc3c 1bf9 2c3e 05ed 5b3e 3988 e3bd
00000280: 267a 0a3f e7a2 0abe d409 473e e3b7 40be
00000290: 8ee1 83bb caf9 b53d 5614 183e 4c44 76bd
000002a0: d89d 743d c87c f0bc 4748 6c3d 4968 fabd
000002b0: c998 0abf 94f5 cd3e 8984 35bd 00bf 18bd
000002c0: 2007 053e 6b52 8f3d 63ce 983e c4ff dd3c
000002d0: 271a c43c 2706 a73c 367f cd3d 7f3d 1e3e
000002e0: 8321 81be addc b43e be52 1d3f 77b7 b9bd
000002f0: 30e0 813d 336b a73c 6abb 7dbc 8475 993d
00000300: 39b2 81bd 535f 3a3e 8ab0 d2bd 92a8 9b3d
00000310: 30f1 8fbc 9765 a9bd 0c2e 703e ddf3 08be
00000320: 304a 7c3e 1f6b 4e3e f5b4 38bd 1319 26bd
00000330: 368e abbd 2ac6 ecbb 6898 22be 93da 223e
00000340: 3731 a23e 9e77 5d3e 22e5 13bf 79d0 873e
00000350: f799 cdbd 2d5d 503e cf14 833d 599f 7cbb
00000360: 24b6 e83d 6a1b e73d 0ff4 183d 25d1 373d
00000370: 5959 f6be 8a75 e33e 8444 1dbd ccf2 9cbf
00000380: c26b 293e e0af f83d 2cf1 353d 5559 4a3d
00000390: b6ec ff3d 42dc 393e d4f9 66bd 5be7 a83e
000003a0: e943 883d d33c 2fbb 33ef 133f c855 513d
000003b0: 6e15 cf3d 0e2d 173e 7da7 71bd b870 43bd
0.3250355 -0.032902643 -0.16709155 0.010635814 0.17722337 -0.1305967 0.28468403 0.0086074555
0.18436135 0.34510434 0.16964185 -0.0059912256 0.24269022 0.07946541 0.13407294 0.17748539
-0.20461805 0.251972 -0.1965929 -0.07459545 0.07541306 0.12972322 -0.004165 0.10585421
0.3666562 0.139438 0.025617355 -0.14647959 -0.005874265 -0.09368361 -0.2698816 0.21257876
0.2549515 0.15665919 0.043403976 0.0368572 -0.016077971 0.028938666 0.16610089 0.2704342
0.46151596 -0.21642704 0.27064556 -0.13325274 0.22691518 -0.0640525 0.14877285 -0.07183741
0.07435006 0.026335984 0.0976041 0.15807877 0.065528885 -0.10661635 -0.33671778 0.38949955
-0.106216654 0.016468894 -0.0011756758 0.2603484 0.013231338 0.07564811 -0.09757027 -0.13558222
0.45375398 -0.29046452 0.4477767 -0.0042044427 -0.0044383784 -0.03351912 -0.03779248 0.011037324
0.005129345 -0.009742352 0.023594046 0.03187856 0.3584913 -0.20345476 0.37286285 -0.43122593
0.02000676 0.0145620005 0.011582817 -0.0024389352 -0.098106235 0.21558784 0.34984937 -0.06294361
0.06778895 0.3531153 0.2275502 -0.20854872 -0.08911111 0.16414872 0.21764824 0.12556987
-0.025291264 -0.104525015 0.19310474 0.16448589 0.16801265 -0.0029326098 -0.23279166 0.4082693
0.2641575 -0.018191993 0.19198492 0.3663943 -0.03538608 0.109214164 0.01356101 0.30773807
0.20636804 0.29777253 0.024161043 -0.23733945 -0.052764192 0.022322824 0.096658826 0.03693125
-0.04852758 0.31335127 0.34408754 0.27613288 0.029333623 0.07376114 -0.39268118 0.3502648
0.22430071 0.07237206 -0.048961245 -0.08330864 0.036183547 -0.008530469 0.33409724 0.01787272
0.070099905 0.14291263 0.4265031 -0.1408414 0.080956206 0.24997705 -0.1425385 0.22514799
0.053038508 0.0013838169 -0.07094749 0.050475568 0.15156923 -0.12110809 0.3775217 -0.22554432
0.055223487 0.07190635 0.3411967 0.3353437 0.023042705 0.16891901 0.21477135 -0.11109967
0.54092634 -0.13538705 0.19437343 -0.18820147 -0.004024691 0.08885534 0.14851508 -0.060123727
0.059720844 -0.029356375 0.057686117 -0.12226922 -0.5413938 0.40226424 -0.04431585 -0.037291527
0.12990999 0.06998142 0.2984496 0.027099498 0.023938252 0.020388676 0.10034029 0.15453146
-0.2522088 0.35324612 0.6145438 -0.09068196 0.063415885 0.020436859 -0.0154865775 0.074931175
-0.063328214 0.18200426 -0.102875784 0.076005116 -0.017571062 -0.0827133 0.23455065 -0.13374276
0.24637675 0.20158051 -0.04509445 -0.040551256 -0.08376734 -0.0072257714 -0.15878451 0.15903692
0.31678173 0.21627662 -0.57771504 0.2652624 -0.10039132 0.20348044 0.06400453 -0.0038547127
0.113628656 0.11284526 0.037342127 0.04487719 -0.48115042 0.44425613 -0.03839542 -1.2261596
0.16545013 0.121429205 0.044419453 0.0494016 0.12496321 0.18150428 -0.0563906 0.3298901
0.06653578 -0.0026739135 0.57786864 0.051107198 0.10111509 0.14763281 -0.05899762 -0.04771492

fc1.bias f4 [20]
00000000: 8c45 9f3e 1fcd 853e ddec c53c 838d 283e
00000010: 4a14 a93e 04d4 c7bd 3393 d43e 9019 cf3c
00000020: 0b54 08be 9a99 d53e 6aac 1cbe daee febd
00000030: 3d48 9ebc 5054 203e d391 a83e 6bbd 123e
00000040: a01d b83e 44cb 9b3e 32a7 c13e e64e 0dbe
0.31107748 0.26133057 0.024160797 0.16460232 0.33023292 -0.09757236 0.41518554 0.025280744
-0.1331331 0.4171875 -0.15300146 -0.12447901 -0.019321555 0.15657163 0.32923755 0.1433007
0.35960102 0.30428517 0.37822872 -0.13799629

fc2.weight f4 [20, 20]
00000000: 776b a8bd e59a b6bd 25d7 4fbe 5e96 193e
00000010: a5eb fd3d 576d a13c 978a 193e a86c 8f3e
00000020: f4f7 de3d 7ffc d13d 9956 b9bc e591 e03b
00000030: 2055 c13c b87e 18be c8a9 c63e 6a5b f03e
00000040: 46ad 873e 79e4 abbe 0ce8 253f 9930 d83d
00000050: c4d3 8cbc d04d a53d 7091 e6bd 7c85 b73b
00000060: a3b6 98be bba8 fabb d326 fa3e a4bd 153c
00000070: 04b9 21be fd65 4a3e 527f acbe 7193 a03e
00000080: d691 043d 215c 52bd 6844 1d3e f527 eb3e
00000090: 99a0 c53d 7f08 11be fe45 ea3e 89f7 c53e
000000a0: f4d1 ac3e 2598 81bd 500f e33d 47b9 b63e
000000b0: dfd0 efbd fb8e 003f 628d 213f 1cb1 193e
000000c0: 2604 633e b786 84bb 6c7a d23d 4c49 a43e
000000d0: 1e50 903e 0253 403e b6f9 c5be 9cec a43e
000000e0: f81d bc3c d267 1cbe 4ee4 eabe a75f 433e
000000f0: add3 adbd 37bb 22bd e82c 43be 1459 033e
00000100: e7c5 45be 768c 59be 63e3 4e3e f12a 87bd
00000110: 2572 11bd ec34 c5bd 9c75 de3d 4568 76be
00000120: 0c30 1fbe 4dbc a2bd d494 903d 5c29 febd
00000130: 0dc6 46bc b54e 2dbe 337f dabd f5a6 14bd
00000140: 3ba3 673e 3b51 b53d d1c9 05bd b8a6 3f3e
00000150: a8b5 9abd 1076 fcba d63f 273e 7df1 583d
00000160: 338d a03d ddf0 943e 53c7 4bbd bfd6 243e
00000170: 54e2 6c3e 5832 c93d 28a1 0c3e c3a1 b73e
00000180: 9656 953e ca20 a2be 1efc d13e 3e1f bb3c
00000190: e524 3a3e 15dc 693d a1f3 83bd 226a 3f3e
000001a0: dbfa b63d ca81 70bd fa87 0b3f 8191 453e
000001b0: a352 4ebe 33c0 743e cdd4 81be f967 313e
000001c0: 7426 9a3e 7040 e73d 1f7d 8e3d 7e90 863e
000001d0: a5b5 743e 02b4 cdbe 264d 433f 3e98 b33e
000001e0: e438 693d 61b4 e03d 0b39 2b3e 2bb5 623e
000001f0: 59ed 943e 9b97 ba3d 4a2c 213d aa55 e0bd
00000200: 4a38 3e3e c659 6bbe f1d2 a73d 4d3f b2bd
00000210: 0ce0 c03d 7963 353e 78a7 56be e43a efbd
00000220: 7d46 1d3e d006 633e 804a 83bf fffb 5f3e
00000230: 56d9 0c3e 6234 a23d e852 8f3c 1dcf 863e
00000240: 20c0 10be d938 ab3d 44ff f63d 7510 893e
00000250: 2b1b e5bd 81eb 893e 6582 2fbe 4c18 663d
00000260: c631 853e 84e6 7bbd 4972 8cbd f049 0c3f
00000270: 133a ae3e eef0 c6be 71f8 04bf fdf7 033f
00000280: ddbd 263e 25a2 d6bd 4e4f 7d3e 90f5 07be
00000290: 4530 a93e 4eba a0be 2031 17be 4371 02be
000002a0: 0cd1 10bd 5956 4c3e 95a1 c73e a62c 5ebe
000002b0: 2e65 3bbe 4541 5a3c 4d43 84bd 177c b2be
000002c0: 8697 56be c0d4 da3e b1ae f53e 48c4 a8bd
000002d0: 353d 8b3e d7dd 793e aec6 1b3c 35cb 97bd
000002e0: 77f3 4cbd ed96 633e e3aa b43e 5e7e 433e
000002f0: e055 893d 9da6 ffbd b947 0fbe ecb4 e3bc
00000300: aa6a 16bc b244 623d 6b00 a6bd 69c4 ff3e
00000310: c9b8 4b3e e0ba bbbe be67 3cbd fa5b d33e
00000320: 2f36 2bbd fe82 873e 636e b23e 9819 63be
00000330: a61d 473e b7a8 e1be 8067 03bf 7448 0abe
00000340: f52b a93e 954a 893d 0d4f 2f3e b83a 903d
00000350: 7e60 6fbe f991 5fbd d55e f6bc 5d82 42be
00000360: c33c cebd 7393 cd3e f326 ad3c 9aef 5bbe
00000370: 42e6 9f3d 6e98 c0bd 3c3f afbd ff4f 3fbe
00000380: d209 58be 221b bdbd 859e 3e3e aa08 20be
00000390: 90ee d5bd 6b58 7dbe ddf5 fa3b 1e10 85be
000003a0: c03d 1e3e eb8b 61be 28cf 6fbe b043 81be
000003b0: da2c 0dbe 69bf e03d 394f 17bd 7fdf 3dbe
000003c0: 58f4 02be 0199 903e 72d5 1a3d f7d4 24be
000003d0: 1aaa 39be 1678 dcbd 7f65 a43e 14b7 003e
000003e0: 07f8 7cbe 658a 793d 4042 52bc 1283 623e
000003f0: bfe5 a03d 44a8 3f3e 85c4 b13e e59f f53e
-0.08223622 -0.089162625 -0.20296915 0.14998767 0.12398461 0.019705458 0.14994274 0.28012586
0.10887137 0.10253238 -0.0226243 0.0068533295 0.023600161 -0.1489209 0.38801408 0.46944743
0.26499385 -0.33572748 0.648072 0.10556144 -0.017190821 0.08071482 -0.11258209 0.0056006294
-0.2982684 -0.007649509 0.48857746 0.009139452 -0.15793234 0.19765468 -0.33690888 0.3136249
0.032365642 -0.051357392 0.15358126 0.45928922 0.09649772 -0.14163397 0.45756525 0.38665417
0.33753932 -0.063278474 0.11086905 0.3568823 -0.11709761 0.5021817 0.6310636 0.15008968
0.22169551 -0.0040443796 0.10277256 0.3208717 0.28186125 0.18781665 -0.38667077 0.3221177
0.022963509 -0.1527398 -0.45877308 0.19079457 -0.084876396 -0.039729323 -0.19060099 0.1282695
-0.19313775 -0.21244988 0.20203929 -0.06599987 -0.035509247 -0.09629235 0.10862276 -0.24063213
-0.15545672 -0.07946072 0.07059637 -0.124102324 -0.01213218 -0.16924556 -0.106687926 -0.036292035
0.22620861 0.08853384 -0.03266317 0.18715942 -0.075541794 -0.001926126 0.16332945 0.052964676
0.078394316 0.29090014 -0.049750637 0.16097544 0.23133212 0.098240554 0.13733351 0.35865602
0.29167622 -0.3166564 0.41012663 0.022842046 0.18178137 0.057094652 -0.06442953 0.1869283
0.08934566 -0.058717526 0.5450436 0.19293787 -0.20148711 0.23901443 -0.25357667 0.17324819
0.30107462 0.11291587 0.06957459 0.26282114 0.23897417 -0.40176398 0.76289594 0.3507709
0.05693902 0.109719045 0.16720979 0.22139423 0.29087332 0.09110948 0.039348878 -0.10953839
0.1857616 -0.22983465 0.08194531 -0.0870348 0.094177336 0.17713727 -0.20962322 -0.11681154
0.1535892 0.22170568 -1.025711 0.21873473 0.13754782 0.079201475 0.017495587 0.2632989
-0.1413579 0.08360452 0.12060407 0.26770368 -0.111868225 0.26937488 -0.17139585 0.056175515
0.26014537 -0.061499134 -0.06857736 0.5480032 0.34028682 -0.3885569 -0.5194159 0.51550275
0.16283365 -0.10480145 0.24737284 -0.13277268 0.3304464 -0.3139214 -0.14764833 -0.12738518
-0.035355613 0.19954814 0.38990465 -0.2169672 -0.18300316 0.0133212255 -0.06458149 -0.34860298
-0.20956239 0.4274044 0.4798484 -0.08240563 0.27195135 0.24401031 0.009507818 -0.074118055
-0.050036874 0.22225542 0.35286626 0.19091174 0.067058325 -0.12482951 -0.13992204 -0.027796231
-0.009180704 0.055241294 -0.081055485 0.49954537 0.19894709 -0.36666012 -0.045997374 0.4128111
-0.04179972 0.26467127 0.34849843 -0.22177732 0.19444904 -0.44074032 -0.51329803 -0.13504201
0.3304135 0.067036785 0.17119999 0.0704245 -0.23376653 -0.05458257 -0.030074516 -0.18995042
-0.10070183 0.40151557 0.021136736 -0.2147812 0.0780759 -0.09404074 -0.08556983 -0.1868286
-0.21097496 -0.09233691 0.18615158 -0.15628305 -0.10445893 -0.2474076 0.0076587037 -0.2598886
0.15453243 -0.2202603 -0.23418868 -0.25246954 -0.13786641 0.109740086 -0.036940787 -0.18542288
-0.12788522 0.28241733 0.037801214 -0.16096865 -0.18131295 -0.10765092 0.32108685 0.12569839
-0.2470399 0.060923 -0.012833178 0.22120312 0.078563206 0.18716532 0.34720245 0.47973552

fc2.bias f4 [20]
00000000: 7c97 943e ce2a 513e 866c dcbd 96f5 f9bd
00000010: 258e 363e 8704 8dbd cc57 d7bd 0094 9d3c
00000020: dd8b 263e dc0e 003d dfdc c4bd 6fc5 2a3e
00000030: 54d0 66bd 8b7b 983e f660 6c3d dd59 583e
00000040: 2e84 ad3c 512b f63e 8ec8 343e 59c1 6c3d
0.29021823 0.20426485 -0.10762887 -0.12205045 0.17827661 -0.06885629 -0.10514793 0.019235611
0.16264291 0.03126417 -0.0961244 0.16676877 -0.05635102 0.29781756 0.057709657 0.2112803
0.021181192 0.48079923 0.1765463 0.05780158

fc3.weight f4 [20, 20]
00000000: 6dd0 a03e b1b0 0e3f 8121 153e c82a d63c
00000010: fe6d 093e 759f 7b3e 37e2 013e 94bc 4b3e
00000020: 63ad 89be 3fb2 a43e df16 a0be 0f8b 243e
00000030: daa4 013f faa2 20be b2a0 973c bdc4 61bd
00000040: 458d a4be a238 993e 0654 af3d db45 ce3d
00000050: d95b 5a3e 0b5c 13be 90af 39be 4e12 2b3e
00000060: 6363 2d3e 79ed 4cbe d80b c4be c4bc 793e
00000070: 8975 5a3d a16b 713e 88f6 c93e b93b 63bd
00000080: 79a8 e33d 46af 103e 01e6 2ebe 3bc9 583f
00000090: d763 213e 466e 8cbd d5bb 3abf bcc0 04be
000000a0: eed3 303e 8378 c33e f5a9 823e 9458 11be
000000b0: 383b 8c3e e901 c93e 09ec 92be de0a aa3e
000000c0: 2027 0dbe 438e 86bd 265c 18be 0d20 37bd
000000d0: 229a 3f3e d25b 85bd 96ae 06be f7c0 433e
000000e0: fdc5 32be 1cec a53d 3840 8a3d 9720 823d
000000f0: d83d fcbd 7047 263e 3b6d c53d 3e63 323e
00000100: f66f 13be d564 173d 3ade b93e b7a4 703e
00000110: 3e21 153e e205 d1bd fd61 bc3e cb8f 7c3d
00000120: 53a7 99be 8fb4 813d ef1c c53e cba0 c0bd
00000130: 7dcb 8a3e 660c 5f3d 1bf9 56bd bef0 123e
00000140: 9395 bdbd 4264 71be fee1 d8be 0615 273e
00000150: fd1e 80bb 33c5 05bd c9ae e4bd 6fe6 edbe
00000160: 2a18 013f 8697 1bbe d0f1 513e 042b 1fbe
00000170: 8743 2e3a eb96 ad3e c46d de3e 4c57 8d3e
00000180: 1c20 283f 4934 483e 5754 b03e 80e1 ae3e
00000190: e331 193d b81a 8bbe cbd9 34bd 5be3 473e
000001a0: 36fa 46bc 1c25 39be 4dfa 6fbc c693 bebe
000001b0: f840 2f3f da74 8cbe beca 3c3c 226a 6b3e
000001c0: a052 99bd 86ea d73e 2b6f 2c3f 7385 0b3f
000001d0: d2fb 353f be52 233e 562a 523e a14a a13d
000001e0: 1be6 1c3e 8bbd 26bd 59a2 16be 9f58 853d
000001f0: 5fc6 f83c e18c 3b3e 6963 113e 0e8f a3be
00000200: 8c6b 1a3d b4ee 93bb db8f 8d3d de15 45be
00000210: 7f16 6a3e 0239 a73e f67b d83e 3746 9c3e
00000220: e3a3 a13e 5203 c6bc 289b 6d3d 3dbc 333e
00000230: 0268 7c3e 3a4d d93e 299f 163d d242 34bd
00000240: a038 d13d a42d ac3e c74a c5bc 657b bb3d
00000250: 7ef1 9bbe 5d80 0d3e 879b b4be db41 01be
00000260: dcaa eb3e 2527 bc3c 54e2 89be 5bf6 0fbe
00000270: 2394 6ebe 8e6c 403e 4657 193e d782 1b3c
00000280: 636b babd f8fa f2bd 01d8 343e fae4 22bd
00000290: 369f e6bd 4eed 15be 206c e23e 5224 e73d
000002a0: e292 a93e 9171 11be 99dd 063e cd62 2ebe
000002b0: 898d c2bd 6979 b43e f869 c93e b723 c43c
000002c0: 8fb9 063f f557 873e 3900 27be e2f7 a93e
000002d0: 70d8 68be 9be2 b83b 9cd0 5e3e 3e7b 13be
000002e0: 87ca 06bc 4341 cfbd 2ba2 32bd 9223 67be
000002f0: 9eeb 963c 98d9 8c3c 4a51 8a3e e2fe 613e
00000300: a46a 173d 7ef2 3d3b 4545 c23e da15 8e3e
00000310: c131 ed3e 1dfb 8e3e ceba 423d ec72 983e
00000320: 6f09 943e f7a0 683e 9b7c 253e 0178 5fbe
00000330: 31ba b83d 4f45 dd3e 8a71 8d3d ca44 683e
00000340: f797 acbe cd6e 803e 9ba2 4bbe fa4b 3a3e
00000350: 806e ad3e e479 b5bd 8d45 7dbe f0ea c0bd
00000360: 6543 fbbe 2231 5f3e 2bcd c83e aa47 2ebd
00000370: 479e 003e 9727 e23e 645d 833e 7fc9 25be
00000380: a16b 873e 7222 ba3e ba6c 47bd 85d6 273d
00000390: 3cb1 05bc de92 01bd 7d7c 0ebe b5f3 2f3e
000003a0: 324b 713e d6cc 923d ef1e a3bd 0d12 9d3d
000003b0: d80a b7be d2d7 153e fec2 323e cd98 0fbe
000003c0: 801d 33bd b5c2 46be 3058 d43d eba3 95bd
000003d0: c74f 84bd 746f 573d 6f3f e43e cce3 a3be
000003e0: 5cd7 223e 8fa9 47be 58a6 ed3e f0f2 1bbe
000003f0: a4b3 9cbe 6bc5 543e 0aaa 933e 05b8 923e
0.31409016 0.5573836 0.14563562 0.026143447 0.13420865 0.24572547 0.1268395 0.19896156
-0.26890096 0.3216724 -0.3126745 0.16068672 0.5064217 -0.1568717 0.018509243 -0.055119265
-0.3213903 0.2992602 0.08560948 0.100719176 0.213241 -0.1439058 -0.18133378 0.16706201
0.16932444 -0.20012464 -0.38290286 0.24388415 0.053334747 0.23576213 0.394459 -0.055476878
0.11116118 0.14129362 -0.17079927 0.84682053 0.15760742 -0.068569705 -0.7294286 -0.12964147
0.17268345 0.3817788 0.25520292 -0.14193946 0.2738893 0.3925927 -0.28695706 0.33211416
-0.13784456 -0.06570103 -0.14878902 -0.0447083 0.18711141 -0.06511654 -0.13152537 0.19116579
-0.17458339 0.08101675 0.0675053 0.06353872 -0.12316483 0.16238189 0.09639975 0.1742067
-0.14398178 0.036961395 0.36302358 0.23500334 0.14563462 -0.102062 0.3679351 0.06166057
-0.3001047 0.06333267 0.38498637 -0.09405669 0.27108374 0.054455183 -0.05248366 0.14349648
-0.09257045 -0.23573402 -0.42359918 0.16316614 -0.003909944 -0.032658767 -0.1116615 -0.4646487
0.50427496 -0.1519452 0.205024 -0.15543753 0.00066476356 0.33904204 0.4344312 0.27605665
0.65673995 0.19551195 0.34439346 0.34156418 0.03740109 -0.27168822 -0.044153016 0.19520323
-0.012144616 -0.18080562 -0.014647079 -0.37222117 0.6845851 -0.274329 0.011522947 0.22989705
-0.074864626 0.42171115 0.6735713 0.545005 0.7108737 0.15949532 0.20523962 0.078755625
0.15322153 -0.040708106 -0.14710368 0.06511044 0.030368028 0.1831546 0.14198078 -0.3194508
0.03770022 -0.0045145396 0.06912204 -0.19246623 0.22860144 0.3266068 0.42282075 0.3052232
0.31570348 -0.024171505 0.058009297 0.17552276 0.24649051 0.42441732 0.03677288 -0.044009037
0.102158785 0.3362857 -0.024083508 0.09154395 -0.3045768 0.13818498 -0.35274908 -0.12622778
0.46028793 0.022967884 -0.26930487 -0.14058821 -0.23298697 0.1879141 0.14974698 0.009491644
-0.09102514 -0.11864275 0.17660524 -0.03976915 -0.11260836 -0.14641306 0.44223118 0.112862244
0.33119875 -0.14203478 0.1317047 -0.17029877 -0.09499652 0.3524888 0.3933866 0.023942811
0.5262689 0.26434293 -0.16308679 0.33196932 -0.22738814 0.005642248 0.21759266 -0.14402482
-0.008226997 -0.101198696 -0.043611687 -0.22572163 0.018422898 0.0171936 0.27015144 0.22069886
0.036966935 0.0028983648 0.37943473 0.27751046 0.46327022 0.2792596 0.047541432 0.29775178
0.28913447 0.22717653 0.16160814 -0.21823122 0.09019888 0.4321694 0.069064215 0.22682491
-0.3370969 0.25084534 -0.19886248 0.18193045 0.33873367 -0.088611394 -0.24733563 -0.09419811
-0.49074855 0.21796086 0.3921903 -0.042548813 0.12560378 0.4417083 0.2565719 -0.16190146
0.26449302 0.36354405 -0.048687674 0.040976066 -0.008159932 -0.031634204 -0.13914676 0.1718281
0.23563841 0.071679756 -0.079648845 0.076694585 -0.3575046 0.1463311 0.17457196 -0.14023133
-0.043729305 -0.19410212 0.10368383 -0.073066555 -0.06460529 0.052596524 0.44579646 -0.32009733
0.15902466 -0.19498275 0.46415973 -0.15229392 -0.30605805 0.20778434 0.28840667 0.2865602

fc3.bias f4 [20]
00000000: 045c b8bd 1656 913e 81e6 d8bc def4 28bd
00000010: 0bf9 e23e 963f c13e ed5f 8f3e 350b 94bc
00000020: e0c6 a93d 59b2 603e 3bdc 76bd f73e e7bd
00000030: 200c 00bc fc49 a83d b740 92bd 71db d73c
00000040: 89c0 2b3e c4fa 3a3e b88c 36bd 1683 883c
-0.090019256 0.2838599 -0.0264771 -0.04124915 0.4433063 0.37743825 0.28002873 -0.01807175
0.082898855 0.21943034 -0.060268622 -0.112913065 -0.007815391 0.082172364 -0.071412496 0.026349755
0.16772665 0.18259722 -0.044567794 0.01666407

fc4.weight f4 [20, 20]
00000000: 08a1 923b dc25 f73c 6636 a8bc e24a e53e
00000010: be9b b0bd f191 1a3e 5cae b53e bd13 abbe
00000020: 8b7d ed3e d86d 3d3e 6d7b 9f3c b205 e63d
00000030: 9846 223e 4121 123d d32a 9bbd 50c5 4e3e
00000040: 0470 203e a83f 0ebe 794c d83a f0a4 17be
00000050: 222c e6bd 8e98 7cbe a930 1abe 53f1 d33e
00000060: f94b cabe c5e4 a5be 2029 c83c 4b37 b0bd
00000070: 27bf 6f3e 37a5 a03d 3698 fd3d d928 0dbe
00000080: ff0d 67bd ecb2 2c3e 15a1 5a3e 246b 893d
00000090: 505c db3d 0600 913e 7dd9 663e 76f1 acbd
000000a0: 0bb7 71bc 9b87 bf3c 2dee 1dbe 36d0 3a3e
000000b0: d09f b2bd f248 eabd 5963 bdbd c29b 82bc
000000c0: bd9e ffbd 0c17 4fbe 7ad5 5f3e 1ec4 993d
000000d0: 98b2 1ebe 61fc 543e 7797 f3bc cc07 b6bd
000000e0: e023 3f3b c574 41be 6b47 31be 6df7 593e
000000f0: 098e 833e edf2 85bf 8d65 c03d d076 693e
00000100: 8f2e 69bf 2930 1cbf f424 c93d bdc1 863e
00000110: 3de1 ce3d 46a6 efbd daca b63e 19fe 833e
00000120: d7af f7be ec0f e83d 1f0a b2bd 688e e6bb
00000130: 2720 abbd 7e13 ebbe a90e 03be 2b8f 1c3e
00000140: 0555 d93d 5b6a c13e 53ee 6bbd bdfb 1b3c
00000150: dd9c 82be 3f52 69be 57f5 ffbd 3f11 12be
00000160: 5221 053e e3da 443e a51a 3b3e d60b e9bd
00000170: 5cda 953d c1dc d43d 6861 d73d e053 3ebe
00000180: 217f 6fbe f6dd 0f3e 7e60 5d3e 386d 043e
00000190: c893 4b3e 0268 153d 541b 263e ec44 f33e
000001a0: 6afe 19bd 1482 8d3e 5928 333e cb17 71bd
000001b0: a526 dd3e 9f8c 5b3c cdd3 1dbe 9a40 7b3d
000001c0: 6045 2f3e c762 1d3e 3494 49be 5e2d 5a3e
000001d0: a0d6 813e 26d0 b13d ed92 db3d ae08 1fbd
000001e0: 67d1 5d3e 9e8a fb3d 73b3 f23d 36b4 44be
000001f0: 24c5 94bd 0cda 133e 69c1 fd3d 8eaa 2f3d
00000200: 54e2 173c 7609 fb3d 99f1 ebbb 2687 643e
00000210: 07fd d5bd dee6 7fbd bec1 66be 85a5 aabd
00000220: f561 8abd 3866 bfbd 27e3 a73e 9548 c3bd
00000230: fb07 21bd 99f0 2ebe 31a7 e6bc ea1f 533e
00000240: e586 23bd 8681 033e fc3e 4cb7 2b9b edbd
00000250: a80c c33c 35bc 0dbe d705 0bbd 2180 63be
00000260: d4ab fdbd 03ef 0b3e 00fa 8dbd 2e7c 5f3c
00000270: 397b 6dbd 7d56 103e 3d60 d23d 45c4 15be
00000280: 3722 eebc fdf3 69be 7f2a 01be d6cc 00bd
00000290: 55e1 4e3d 8f22 71be 6135 153e 83ee 6bbd
000002a0: 77ce 50be a0e2 c6bc 9c3b 503c 673c 333e
000002b0: 2ab3 ec3d ce5e 143e 8994 16ba d5fb 26be
000002c0: 235a a6bd e2c0 e7bc e8f7 213e 16ab 433d
000002d0: b201 a43c 6452 1e3f be9b b7bd bd79 83be
000002e0: 6696 ef3e 32f1 333e fbb5 96be 2e6d 61be
000002f0: b72f 08be 2a27 733e b463 023c 10e9 523e
00000300: 3f27 813e da84 30bd 9520 463e cb11 8e3d
00000310: 6c68 9c3e 177e 8a3e cd7a 29bd 54c9 d0bd
00000320: c162 ffbd a2ea ef3d 8cb1 10be 6963 04bd
00000330: 1f68 06be 1c2e e6bd ca7a 8c3c 01a3 aebc
00000340: 3a8e 82bd 4628 cebd 7aad d93d 09af 21be
00000350: e2a9 38be c0f9 f63d c4e5 3b3d 6e05 e9bc
00000360: 77e1 333e 0d3d ff3d f93e ffbc 9e45 3dbe
00000370: ad79 cfbe 1492 093f a44e a4be 4aac e43e
00000380: af18 b63e 3b57 9a3e 7ca4 a73e 2446 c0be
00000390: aac0 e43e 699c a13e c594 02bf 8fb9 bdbe
000003a0: 82af cb3e 5d78 d6bd dec4 dd3d 7c21 22be
000003b0: 5e3e 863e 7140 a03e 8510 babd baa2 18bd
000003c0: 80c0 873d 6d36 51be 727a 5bbe b2ac ec3c
000003d0: 6704 52bc 9f6c 77be c6a6 153e a45e 0cbd
000003e0: b93a 663c 6ad9 9cbc 5e51 553e 7a3b 68be
000003f0: d608 fb3d 3baa 913d bfa9 843d 2ee1 953d
0.004474763 0.03016942 -0.020533752 0.44783694 -0.086234555 0.15094735 0.35484588 -0.33413497
0.46384844 0.18498933 0.019468034 0.11231555 0.15847242 0.035676245 -0.075765274 0.20192456
0.1566773 -0.1389147 0.0016502283 -0.14809012 -0.112388864 -0.2466757 -0.15057625 0.41395053
-0.39511088 -0.324011 0.024433672 -0.08604296 0.23412763 0.07844012 0.123825476 -0.13785113
-0.056409832 0.16865128 0.2135051 0.067098886 0.107109666 0.2832033 0.22543903 -0.084444925
-0.0147531135 0.023380091 -0.15422888 0.18243489 -0.08721888 -0.114396945 -0.09247465 -0.015943412
-0.12481449 -0.20223635 0.21858779 0.075081095 -0.15497816 0.207994 -0.02973531 -0.08888206
0.002916567 -0.188922 -0.173124 0.21285792 0.25694302 -1.046476 0.09394369 0.2279923
-0.9108667 -0.61010987 0.098215014 0.26319686 0.101015545 -0.11701636 0.35701638 0.257798
-0.48376343 0.11331162 -0.08693337 -0.007036019 -0.08355742 -0.4591331 -0.12798561 0.15288989
0.10611919 0.37776455 -0.05760033 0.009520468 -0.25510302 -0.2278528 -0.12497967 -0.14264391
0.13000992 0.19224124 0.18271883 -0.11379211 0.07317039 0.10393668 0.10516626 -0.18586683
-0.2338834 0.14049515 0.2161884 0.12932289 0.19880593 0.036476143 0.16221362 0.4751352
-0.037596144 0.27638304 0.1749586 -0.05886058 0.43193546 0.013400226 -0.15412827 0.061340906
0.17116308 0.15369712 -0.19685441 0.21306369 0.25359058 0.08682279 0.10721383 -0.038826637
0.21661912 0.122822985 0.118506335 -0.1920937 -0.07264164 0.14438647 0.12390406 0.042887263
0.009270269 0.12257664 -0.0072004315 0.2231718 -0.10448652 -0.06247603 -0.22534844 -0.083323516
-0.06756965 -0.093456686 0.3279049 -0.09535328 -0.03931425 -0.17083968 -0.028155895 0.20617643
-0.039923567 0.12842378 -1.2174012e-05 -0.116018616 0.023809746 -0.13841327 -0.033941116 -0.22216846
-0.12386289 0.13665394 -0.06932449 0.013640447 -0.057978842 0.14095493 0.10272262 -0.14625652
-0.02906905 -0.2284698 -0.12613867 -0.031445347 0.050507862 -0.2354834 0.14571144 -0.05760051
-0.2039126 -0.024277985 0.0127095245 0.1750351 0.1155761 0.1448929 -0.00057441794 -0.16307004
-0.08122661 -0.028290216 0.15817225 0.047770582 0.02002034 0.6184447 -0.08965252 -0.25678816
0.46794432 0.17572477 -0.29435715 -0.22014305 -0.13299452 0.23745409 0.007958341 0.20596719
0.25225255 -0.043095447 0.19348367 0.069369875 0.30548418 0.27049324 -0.041376878 -0.1019465
-0.12470008 0.117146745 -0.14130229 -0.032321367 -0.13125657 -0.112392634 0.017148394 -0.02131796
-0.06374784 -0.10066275 0.10628791 -0.15789427 -0.18033555 0.12059355 0.04587342 -0.028444972
0.17566477 0.124628164 -0.031157957 -0.18483588 -0.4052252 0.5373852 -0.32091248 0.44662696
0.35565707 0.30144677 0.3274268 -0.37553513 0.4467824 0.31564644 -0.51008254 -0.37055632
0.3978234 -0.10472176 0.10828565 -0.15833086 0.26219457 0.31299165 -0.09085182 -0.037264563
0.06628513 -0.20430918 -0.21433428 0.028890941 -0.012818432 -0.2416253 0.146144 -0.034269944
0.0140520865 -0.01914664 0.2083182 -0.22678939 0.12257545 0.07112547 0.06477689 0.0731834

fc4.bias f4 [20]
00000000: c641 4b3d e3b7 c13c 33aa 59bd ef46 b2bd
00000010: 1ec5 3fbe b7b9 293e 818f e13d dd60 76be
00000020: b9c7 b3bc e32c 863c 89a9 c6bd f6d3 2b3e
00000030: 409d f7bc 30cb f13c 536b 463b d544 45be
00000040: 049b 963b 931f 32be 8ab9 15be 9de9 003e
0.049623273 0.023647254 -0.05314083 -0.08704936 -0.18727538 0.16574751 0.11013699 -0.24060388
-0.021945821 0.016378826 -0.09700305 0.16780075 -0.03022635 0.029515833 0.0030276373 -0.19264539
0.004596116 -0.17394857 -0.14621559 0.12589116

fc5.weight f4 [20, 20]
00000000: 5ecf 60be c8fb 2fbe 1420 ff3d 20c7 153e
00000010: d38c 34be c5df 153e 2431 293d 6dd3 023e
00000020: 5162 54be 1bd6 30be 68a3 0c3e 84b7 d8bd
00000030: dc5c 17bd 7b2a 273e a235 2dbe 212a f9bc
00000040: 3623 3c3e 502f 4ebe e9bf 39be d679 02be
00000050: 1285 c03d a668 d43e ded2 daba cd78 823e
00000060: 7dac c7be c08d 903e dc68 cb3d 8a6a 943d
00000070: 32fa 3f3d e314 7c3d 884f 8c3c 5592 f33e
00000080: 8d2f 63bd 03d3 87bd 061f 36bd 0532 88bd
00000090: 9aa4 23bd 36ac f23d b4a2 0b3e efc7 3a3e
000000a0: 092f 313d be47 d2be 8e19 0dbe a11e 06bf
000000b0: bf2f e93d 3719 013e 38ff 073e cfef d73d
000000c0: 24f2 08be 5b44 a33e d925 c23a 4c09 e1bd
000000d0: f66c fc3d ab57 303e e41e 933e 9e76 8d3d
000000e0: 7b43 c4bd 7382 503d 585d f93d 5f22 513d
000000f0: 78bf c63d aa8c 16bd bfee d0bd 989c a8bd
00000100: 1d4c 77bc c304 72be df03 a3bb 8fb5 febd
00000110: 10f9 5ebe 77d5 323e 3674 e33d f239 21bd
00000120: 25f9 613d d38a 883c 1e6b 953d 1642 ea3c
00000130: e22f 1abd 499d 27be d626 203e 3ac7 303e
00000140: 17ec 963e 830a bd3e d0f1 1fbe 7658 4a3e
00000150: fe89 92be b33c 933e ea42 813e aed5 b5bd
00000160: d5a4 05be ea6c e03d 62cc bd3d 13e2 223f
00000170: 8baf acbd 18e2 d03d 6537 7c38 3bbb 183e
00000180: df9b 0c3d 8bed 07be 064b 0f3e 60b3 533e
00000190: 13dc 5f3e 7d1b 8e3e df0c 4bbe 0380 fa3d
000001a0: 8373 71be f79e 3d3e 6013 453d 9f3c ad3d
000001b0: 8623 9a3d 0de5 67bd 0871 0ebd 877c 223f
000001c0: d42b 2dbe 4104 f7bd d08e 9abd 89b7 0f3d
000001d0: 5595 ac3d 1ce6 113d 1c50 24be 46fb d13c
000001e0: 9594 723d 12e1 0fbd 496e 54be 3fac 3f3e
000001f0: 48de fdbd 8ec3 be3d 1f6b 47be fb0b 6ebd
00000200: 4e1c c1bd 0f80 2dbe d89e 27bd 3493 05be
00000210: 5e0b 4ebe f4e1 afbd 624f 1abc a61d 95bd
00000220: 1507 bc3d 3cce 11ba 911f 5cbe f5f0 28be
00000230: 8611 c0bb 524a 4ebe 5486 17bd 19c1 ef3d
00000240: cac6 293d 1327 41be 9cc5 d1bc 69d1 4c3e
00000250: b402 9cbd 252c 66be 33ae 133e 5abb 233e
00000260: efa5 c0bc e9ab 1dbd 8e8a 6cbc 9346 093e
00000270: e4d8 23be 8cdb babc 6d0e 0b3d 40bc b13d
00000280: 2cbb 4bbe c782 d13e 6202 e13d 5204 793e
00000290: 9f30 5bbe da97 4b3c d05d 7b3e 65cc 0ebe
000002a0: ca09 5dbe 3dd3 f3be cb62 4ebd 3a09 12be
000002b0: 48ad 3e3d ab29 e63d a664 f8bb a6ff fc3c
000002c0: d2f8 d73d b000 3a3e befe 093d c9df 55be
000002d0: 393c 76bb ff96 56be ef04 593e 9c4f 84be
000002e0: 7bdc ba3e 2f4a 9a3a 3781 853e 7f8e 60be
000002f0: 7dad b9bd 124c 3f3e 1ac6 b33c e9c8 dfbe
00000300: 4f77 53be f3c5 623e 563c 89bd ae0d 3ebe
00000310: 0c4f 443e 9db4 893e 9854 293c 4930 483e
00000320: 7f1d 9cbd 6190 763e 94bf 29bd e4c8 e73e
00000330: 92fb d1be 4636 ff3d 9dcd 873c 7e0b 61be
00000340: a31e 9e3d 102c 8ebd 3a57 bdbd 2ce3 173f
00000350: dc51 ef3d 35e1 4fbe 193d 7b3e 4a37 63be
00000360: 8817 b2bd 2c8a 463e aadb 53bd 75de 413d
00000370: dadf 123e 252c db3e a200 943d 817c d23e
00000380: c52b c2be 214d 833e ed54 3e3d 5bdc bd3d
00000390: 9126 20be 9698 05bd a8c9 fcbd 56db 283e
000003a0: f915 c63c 9ea7 16be cb7d 8d3e 7855 64bd
000003b0: b4ca f7bc 7212 1dbe 4a4c 30be 8ff8 f7bd
000003c0: 7693 8dbd d392 4dbe a686 c43d 4a78 a9bd
000003d0: 50b2 33be 4118 60be e8e2 1dbd d3ad ae3d
000003e0: 50c2 243e 9dcc d9bd 5562 d33c 2803 b4bd
000003f0: 0e05 bb3d de16 59be 4bce c9bd ddff 523e
-0.21954104 -0.1718589 0.1245729 0.14626741 -0.17631845 0.14636143 0.04130663 0.12775965
-0.2074063 -0.17269175 0.1373421 -0.10581878 -0.036953792 0.16324799 -0.1691499 -0.030415596
0.18372807 -0.20135236 -0.18139614 -0.12741789 0.09400381 0.4148609 -0.0016694923 0.2548279
-0.38998786 0.28233147 0.0993211 0.07246883 0.046869464 0.061543357 0.017127767 0.4757258
-0.05546527 -0.06632044 -0.04446318 -0.066501655 -0.0399519 0.11849253 0.13636285 0.18240331
0.043257747 -0.4107036 -0.1377928 -0.52390486 0.1138606 0.12607275 0.13280952 0.10543787
-0.1337362 0.3188809 0.0014812305 -0.10988101 0.1232547 0.17220943 0.28734505 0.0690739
-0.095831834 0.050905656 0.12176007 0.05105817 0.097044885 -0.03675524 -0.10201787 -0.08232993
-0.01509383 -0.23634629 -0.0049748267 -0.12436973 -0.21774697 0.17464243 0.1110615 -0.0393619
0.055169243 0.016667759 0.072958216 0.028595965 -0.03764332 -0.16368593 0.15639815 0.17263499
0.29476997 0.36922082 -0.15619588 0.19760308 -0.28620905 0.28757247 0.25246364 -0.08878647
-0.1305116 0.10958274 0.092674986 0.6362621 -0.0843192 0.10199374 6.0133072e-05 0.14915173
0.034328338 -0.13274209 0.13993463 0.20673895 0.21861295 0.27755347 -0.19829129 0.122314475
-0.2357922 0.18517672 0.04811418 0.08458828 0.07526307 -0.056614924 -0.034775764 0.63471264
-0.1691125 -0.12061358 -0.075467706 0.035087142 0.0842692 0.03561984 -0.16046184 0.025632512
0.05922373 -0.035126753 -0.20745195 0.1871805 -0.123959124 0.09314643 -0.19474457 -0.058116894
-0.09429227 -0.16943382 -0.04092297 -0.13044435 -0.20121524 -0.08588019 -0.00941834 -0.072810456
0.09181038 -0.00055620424 -0.21496417 -0.16498168 -0.005861464 -0.20145538 -0.03699334 0.11706752
0.041449346 -0.18862562 -0.025606923 0.20001759 -0.07617703 -0.22477777 0.1442192 0.15989438
-0.023516623 -0.038494024 -0.014437331 0.13405828 -0.16000706 -0.022809766 0.033949304 0.08678484
-0.19895619 0.40920088 0.109867826 0.24318054 -0.21405266 0.012426341 0.24547505 -0.13945158
-0.21585765 -0.476221 -0.050387185 -0.14261332 0.046551973 0.11238416 -0.0075803576 0.030883621
0.105455056 0.18164325 0.033690207 -0.20886149 -0.0037572517 -0.20956038 0.21193288 -0.25841987
0.36496338 0.0011771376 0.26075146 -0.21929358 -0.090662934 0.18681362 0.021945048 -0.4370797
-0.20650981 0.22145824 -0.06700961 -0.18559906 0.19170779 0.2689561 0.01033511 0.1954967
-0.076228134 0.24078514 -0.04144247 0.45270455 -0.41012245 0.12461524 0.016577536 -0.2197704
0.07720687 -0.06941998 -0.09245153 0.5933101 0.11685535 -0.20300753 0.24535026 -0.2218906
-0.086958945 0.19388646 -0.05172316 0.047331292 0.14343205 0.42807117 0.07226683 0.41110614
-0.37924019 0.25644782 0.04646771 0.09270545 -0.15639712 -0.03261622 -0.123431504 0.1648992
0.0241804 -0.14712378 0.27635035 -0.05574557 -0.030248024 -0.15339068 -0.17216602 -0.12107956
-0.069128916 -0.2007554 0.09595995 -0.082748964 -0.1754849 -0.21884252 -0.038546473 0.08529248
0.1608975 -0.1063473 0.025803724 -0.087896645 0.091318235 -0.2120013 -0.098538004 0.20605417

fc5.bias f4 [20]
00000000: d3a4 f83d 6d89 0c3e c0ce 1b3e da9d b4bd
00000010: 667e 4dbd e493 303e 319b 2dbb e67e 20be
00000020: 867b 56bd b3c9 213d aa7d a23d 851a 5c3e
00000030: 0c54 b33d f590 3cbe 731b 3f3e f31f 5c3c
00000040: 8515 de3d ca8e 02be 718d a9bd c926 f83d
0.12140813 0.13724299 0.15215588 -0.0881917 -0.05016937 0.17243916 -0.0026490206 -0.15673408
-0.052363895 0.039498996 0.07934125 0.21494491 0.08756265 -0.18414672 0.18662815 0.013435352
0.10843948 -0.12749782 -0.08278931 0.12116773

fc6.weight f4 [3, 20]
00000000: 5824 19bd 7b64 69bd b23c a13e d96c 783c
00000010: 5ad0 30be 7e08 ddbd 2aa2 11be 47c5 433e
00000020: 1962 b1be a1af e43d f3aa a4bd 2800 f5bc
00000030: 68c4 18be 1dfb 48be 46c9 d83e 5164 d73e
00000040: f8c1 b23e 2595 7d3e 2f38 64bd bf3a 013c
00000050: 817a 023d fb45 07bf fbd3 fdbe b292 f63d
00000060: 829a cbbe c1e3 91be 304f 00be d8fb 20be
00000070: ce3a afbe af67 e8be 74bf 95be f55e f6be
00000080: 3f18 9f3d a991 4a3e 28cf 11bf 684c f8be
00000090: e5d6 bcbe 5a6b d9be c3a9 c83c 69a9 9abe
000000a0: e8d8 30bd ab1e 313e bb3b 6c3d 9b36 b7bd
000000b0: f772 ce3e 4801 cb3e 7f86 27be 8754 b8bc
000000c0: 7cd2 8f3e 45cc 83be e9b3 c43e 74a6 883e
000000d0: c840 d2bc 5998 04bd 6388 77bd 1fc9 fbbd
000000e0: cf07 523d f4ba efbe 9c98 a9bd 3cc4 973e
-0.037388176 -0.05698059 0.3149162 0.01516267 -0.1726698 -0.107926354 -0.14222017 0.19118224
-0.34645155 0.11166311 -0.080404185 -0.029907301 -0.14918673 -0.19627042 0.4234106 0.42068723
0.3491361 0.24763925 -0.055717643 0.007887541 0.03185511 -0.52841157 -0.4957579 0.12039699
-0.39766318 -0.28494075 -0.12530208 -0.15721071 -0.34224552 -0.45391604 -0.2924763 -0.4811932
0.077682965 0.19782127 -0.5695672 -0.48495793 -0.36882702 -0.42464715 0.024495011 -0.30207375
-0.043175608 0.17296855 0.05767415 -0.08945962 0.40322086 0.39649415 -0.163599 -0.022501243
0.28090274 -0.25741783 0.3841851 0.26689494 -0.025665656 -0.032371853 -0.060432803 -0.1229422
0.051276978 -0.4682232 -0.08281061 0.29641902

fc6.bias f4 [3]
00000000: e56f 0ebe 6cbc 86be 6fa2 8d3d
-0.13909872 -0.2631563 0.069157474
