models_3val/xor_and_6.pth (torch, 12178 bytes, 12 tensors)

fc1.weight f4 [20, 12]
00000000: 5cf3 8b3e 83fe 993e dc63 b63e ec9e 193f
00000010: fdbb ffbe a3d9 5fbe 9abe c23c 44f4 28bb
00000020: 0d08 213c 99f6 993a 0ce7 a23a 414c 6e3c
00000030: ec82 9e3d 7fd0 563e 18db d93e 64a9 e23e
00000040: e22e f6bd 04b7 bbbc b46e 9b3e de0b 503e
00000050: 1296 463d 3b18 863e f4bd 2fbc b401 2c3e
00000060: 93c1 1dbd d26b 903e ddcc b43d f80e babd
00000070: 576f 4bbe f35e 863e fa84 2d3d 3366 25bd
00000080: 5d8c 14bc b986 1c3e bd6a 1f3e ef79 553e
00000090: e402 3a3e 8e44 adbc 1d70 473e 2303 e33e
000000a0: 1d66 9e3d 6378 183f 885e 963d 3592 18bb
000000b0: 6a97 9e3e 7593 abbb 0cf9 10ba 26a1 693d
000000c0: 6c4c 663c 7dec df3d d1b6 913d 79f0 b93d
000000d0: a3af 14bf 2744 a7be d52c 503c 9ddb 663c
000000e0: 389d cd3d ecc0 833c 7424 923c 7054 b83b
000000f0: 5001 ed3d e646 943e 0487 9f3e 3418 f23e
00000100: 10f5 93bd ca82 e73e 271e 41bc b1d5 d83d
00000110: 498e 3c3e f092 fb3c 4d13 4c3e d772 713e
00000120: 6bf8 7dbd cded 6c3e 44e6 173d 9a40 66be
00000130: ad7e 2f3e d634 f13e 902a 3c3d bd27 623d
00000140: e84b ef3c 2c66 283c ed67 883c 7bb1 a93c
00000150: 5179 1e3e 766c 2ebe f490 af3e 63a5 f93e
00000160: d037 0e3e 8808 9cbd 2d26 eebc 68bb 9d3d
00000170: 545f 1a3e 8483 f23d 570e 1cba 060f 0abd
00000180: f97d 55be bfe1 033e 186b 803d f350 c53e
00000190: f666 e83e 4436 17be 7e77 803d 9d9d 073d
000001a0: 6729 253c 6216 12bd c9d6 113e 928d 863d
000001b0: 5eca 3e3d 12db a63d 2e69 26be c7d8 ffbd
000001c0: dc5c 01bf 9041 c33e 7953 873c d3ac 823c
000001d0: 8f5f 8c3c 23c9 983c 5543 b83c bccd ab3c
000001e0: f00e 633e 3667 633c bb73 63be b36f 85bd
000001f0: 06df 01bd 8455 bf3e ed50 443d 2faa 563e
00000200: 3123 243e 3061 4e3e 4537 983d 3146 ca3d
00000210: d5de 83bd ce4c 933c dcdf a4bd 939e a23c
00000220: 102c d9bd 8d4b 133f bed5 ef3d 18ce 773e
00000230: d394 0abc 53d2 b83d b4c0 223e 6921 43bc
00000240: 48d2 a93e 3ba7 413e 0bd0 a23e e9ac 233e
00000250: 5914 6a3e 63cf bc3e 95bf 533d 9bbb 16bc
00000260: eab6 5fbd d365 053e 89cb 4f3d ff6f 9a3d
00000270: ca79 7bbc c73e 883d e517 963e 0fb4 4b3e
00000280: a53e e03d 6ead 0e3f 5099 573e 1aba f13d
00000290: f60a 9e3d fd5c 0e3e b1a2 6f3e f90c 483d
000002a0: 40af ce3e 9011 d53e 6d7f c13e 4db9 1abe
000002b0: e64a d6bd 02bf 7ebe 3e83 a73d 80e4 913e
000002c0: 3973 aa3e 360f 063e 1740 9b3e 0bf3 143e
000002d0: c037 edbd 9d59 2d3e 74b8 d5bd 01aa 07be
000002e0: a5e2 55be db2b 34bf 5681 ec3d 9715 6a3d
000002f0: 83a2 c33d 21f7 053e 1f9e 2f3e 4858 f93d
00000300: 2e84 dabe b967 c2be 084b 883e 51b2 e53e
00000310: fc56 f1bd d08c 9d3b 1efa 2e3d 146c a53c
00000320: 26bf cb3c 85c8 b13c c4cc e63c 3507 f33c
00000330: 6083 afbc 6ec5 b0bc 0858 153f d57b e63e
00000340: 5bb5 9cbe f4b6 dfbb a1be b03a e5a8 073a
00000350: 13f2 83b9 9400 9fba 332a 99bb 8816 5abb
00000360: b556 8c3c 397a dbbd e944 68be d19c 4bbf
00000370: 5e5a 193f 7303 ac3c d2dd ae3d 9a63 363c
00000380: 2d22 ce3c 5dc0 883c e77a 983b 7764 f43b
00000390: 7fcc 9b3d 6d42 4f3e f0e9 e13d f91c dd3d
000003a0: 710c 11bf c9e7 05be 1412 3d3c 9a82 b0b8
000003b0: 6993 86bc 6103 803a e0b2 d03b bc24 ac3b
0.27334106 0.3007699 0.35623062 0.6000812 -0.4994811 -0.21860366 0.023772527 -0.002578036
0.00982858 0.0011746465 0.0012428476 0.014544548 0.07739815 0.20977972 0.42549968 0.4426986
-0.12020661 -0.022914417 0.30357897 0.20317027 0.048482962 0.2619036 -0.010726441 0.16797525
-0.038514685 0.2820726 0.08828137 -0.09084886 -0.19866692 0.26244316 0.042363144 -0.040380668
-0.009066668 0.15285768 0.15568061 0.20847295 0.18165165 -0.021150853 0.19476362 0.4433833
0.0773432 0.59558696 0.07342249 -0.0023280506 0.30974895 -0.005236084 -0.0005530275 0.05703845
0.014056306 0.109337784 0.071149476 0.0907907 -0.580805 -0.32669184 0.012706001 0.014090446
0.10039753 0.016083203 0.017839648 0.0056253 0.11572516 0.2896034 0.31157696 0.4728409
-0.07224476 0.45216972 -0.011786974 0.105876334 0.18413652 0.030709714 0.19929238 0.23578964
-0.062004488 0.23137589 0.037084833 -0.22485581 0.17138167 0.47110623 0.04593903 0.05521368
0.029211 0.010278266 0.016651118 0.020714512 0.15475966 -0.17033562 0.34290278 0.48758993
0.13888478 -0.07618815 -0.029070938 0.077017605 0.15075427 0.11841491 -0.00059530645 -0.033705734
-0.20848836 0.12879084 0.062704265 0.38538322 0.45391053 -0.14766794 0.06272791 0.033109296
0.010080672 -0.035665877 0.1424209 0.06569971 0.04657971 0.08147253 -0.1625106 -0.12492519
-0.5053232 0.38135958 0.016519295 0.01595155 0.01713541 0.018650597 0.022493044 0.020972125
0.22173667 0.013879588 -0.22212116 -0.065154456 -0.031706832 0.3736993 0.04792874 0.20963357
0.1602905 0.20154262 0.07432417 0.09876669 -0.06438986 0.01798096 -0.0805051 0.019851005
-0.106041074 0.57537156 0.1171069 0.24199712 -0.008458334 0.09024491 0.15893823 -0.011909821
0.33168244 0.1891145 0.3179935 0.15983929 0.22859325 0.36876974 0.05169638 -0.009200002
-0.0546178 0.13027124 0.050731216 0.07540893 -0.015348861 0.06652599 0.29315105 0.19892906
0.109494485 0.5573338 0.21054578 0.11803074 0.077169344 0.1390266 0.23401906 0.048840497
0.4036808 0.41614962 0.3779253 -0.15109749 -0.104635045 -0.24877551 0.08179329 0.28494644
0.33291033 0.1309174 0.30322334 0.14545839 -0.11582899 0.16928716 -0.10435572 -0.13248445
-0.2088724 -0.7037942 0.11548106 0.057149496 0.09552481 0.13082553 0.17150162 0.121750414
-0.4267897 -0.3796976 0.26619744 0.44862607 -0.11784169 0.004808046 0.042719 0.020193137
0.02487142 0.02170206 0.028173812 0.029666523 -0.02142495 -0.021578517 0.5833745 0.4501635
-0.30607113 -0.0068272296 0.0013484546 0.00051750086 -0.00025166626 -0.001213091 -0.00467422 -0.003327759
0.017131189 -0.107166715 -0.22682537 -0.7953616 0.59903514 0.020997738 0.085384026 0.011132145
0.02516278 0.016693288 0.004653323 0.0074582654 0.07607364 0.20240183 0.11030948 0.10796542
-0.5665961 -0.130767 0.011539955 -8.4166604e-05 -0.016427713 0.0009766632 0.00636898 0.0052534025

fc1.bias f4 [20]
00000000: 55f1 35bd 75d3 973e cd1d fc3e 887e bc3e
00000010: e1f5 3f3d 2ffb d6bd 6dc6 03bf 6768 733e
00000020: e928 913e 6f36 aebe 7e3c 703c 0482 c23e
00000030: 87fc 17be 32e7 14be 09ed 383e 7786 013f
00000040: 0714 083f 9542 47be bdb9 363e 5f0e debc
-0.044419605 0.29653516 0.49241486 0.36815286 0.046865348 -0.10497128 -0.5147465 0.23770295
0.28351524 -0.34025905 0.01466286 0.3798982 -0.14842425 -0.14541319 0.18059172 0.505958
0.5315556 -0.19458993 0.17844291 -0.027106462

fc2.weight f4 [20, 20]
00000000: 0151 b1be 2d34 723e 2104 843d a118 8e3e
00000010: d545 f2bd a82b 8d3d 9e2a 82bc 1326 173e
00000020: 5f4f be3e 04b2 51bf 5194 93be b19f 733e
00000030: 9902 b33e e378 4a3e 719e 543e 33cf 47be
00000040: 1441 97be e0b6 613d 8f96 c0be 793c fdbe
00000050: cae0 a13e 2603 8e3d 8f45 0cbd de91 b7bd
00000060: 49f8 fa3d 85b7 83be c7a1 8fbe 97ae 44be
00000070: 8ea5 493d 05d5 b7be 6f0a be3d 1395 76be
00000080: a521 143d cb40 21bc 4a4f 933e c7b3 a33e
00000090: 0bfd 013f cfd9 583e 6487 843e 7720 a73c
000000a0: 4030 cf3e 17f6 223d cbf4 a13d adde 9ebe
000000b0: 0b6e b83e e591 e1bd 5f82 3bbc ba8f 073e
000000c0: c958 1ebc 8b60 21be 7784 3abe e61e 4abe
000000d0: ce17 1a3e 87f9 5fbe f6ca 8e3e 5f0d 1f3e
000000e0: 866e 823e a961 7b3d bdde 8a3e 2467 163e
000000f0: 1161 60be 3ff8 ab3e c3f4 163e 9c43 143d
00000100: 4494 d13e 626c 3ebe ff40 f0be 09ef 823d
00000110: f0b1 7a3e 7c7e 4fbf ae1e 13be 4c2f 013e
00000120: 458b 70be e329 2cbe 6d97 833e e3ae 9f3e
00000130: bac1 a9be 258a 85be 0d92 4b3d ca6d f63e
00000140: 73bc 1dbf 6fa7 923e ddeb cd3d b07a dfbc
00000150: 9da1 9c3d 3290 ea3d d4fe cabe 2f83 a43e
00000160: 28b4 bb3e 6b37 bdbe 0219 bbbd 9ce3 47bd
00000170: 79eb eb3b d0d6 8abd d793 64bd 61e4 543e
00000180: fca0 c0be 8529 cbbe 38f4 d1be 78a0 e53d
00000190: 20f7 f9be 323d 8a3e 55e3 803e 4bf9 9a3e
000001a0: 4ef2 98bd f218 fd3d 36a4 b1be f74a 783e
000001b0: 666e 033d fca0 babe 0a81 783c 8e92 de3d
000001c0: 4d63 983d 1a10 c63d 3538 afbd a175 5ebd
000001d0: 97b0 42be 05a7 e5bd 6834 68be 2c04 02be
000001e0: fcf2 2c3e 26db e6bd f89c 57be fb49 06bc
000001f0: 71a2 24bd 4b79 21bd 96ba ecbb 9683 053d
00000200: f770 9a3d 7c32 0c3d cd8f d3bb 3f32 51bd
00000210: 23aa b73c b0a5 1ebe 7508 1dbe f0a7 e9bb
00000220: 455e 103e 1c7c 38be 3fd4 11bd 68e2 46be
00000230: c0c7 5f3e 706f d23d a27c be3e 4ae9 183e
00000240: 81b5 e43e 683f 50bd 1546 a4be da94 76be
00000250: b15a b1be 7d3f a03e 2c5c 35bd 8163 8c3d
00000260: 87f2 9bbe 5ca3 fe3c dfe9 b83e 98c0 9a3e
00000270: 8826 9c3e 2f5f 1d3f 2878 653c f143 573f
00000280: 82df f1bd 89b2 5c3e 9062 6bbe f817 21bc
00000290: d5db ffbd 49bc 273e ad8b 8ebe e450 8c3e
000002a0: 55a0 f93e 84f0 39bf cd6d 123d 9db6 5ebe
000002b0: 3a01 31bd a5b0 333e 312e 12be e2d4 7c3e
000002c0: b17f 69be 7c79 4cbe dadf 64be 0db8 56be
000002d0: 8284 7bbd 8fe1 5d3d 746b 323e aaca b33d
000002e0: 908f e1bd 4d9a b9bc c74f 45be 552c 59be
000002f0: 714b 0fbe f524 9bbd 7f99 8cbe dd9e 1ebd
00000300: 2ddd 66be b3d6 53be 2b3e c9bd af0e edbd
00000310: f0cd 843d 87ef 313e 7dfa 9a3d de3e 46bc
00000320: ae4e 84be 1ebc 003b 3e4a a13d 7dec 513e
00000330: 8553 a83d b0e9 103e ed1c 79be 1639 a13e
00000340: e173 5c3e d38d 1bbf 379d d3be 80e6 373e
00000350: 60cf 603d 7c0a 69be ad1a 2a3e 1206 683e
00000360: a7c1 80be b0f3 4abe 313a acbe 6340 8c3d
00000370: 6cc9 91be 05ef b4bc 6454 e93c 9fce 6fbe
00000380: a4a1 8d3d c24f c83d 5a7b d13e e2ac 853d
00000390: ddf4 17be 1a84 c73e ad0e 9ebd f57a 54be
000003a0: 34ac 393d 7f21 5cbd b940 823e 09f7 c4bd
000003b0: 62fd 4c3e c5df 0c3e c79e f13e 6bf6 113f
000003c0: 359f b43e 50e3 293e 6768 c4bd 5444 48be
000003d0: 634f 8d3d 0084 f6bd 7d28 57be 1a75 603d
000003e0: 2662 83bd 7e2c a1be 8c52 25bc a5aa d3bd
000003f0: 6a16 6f3c c49c 15be f617 c23e 7083 ef3e
-0.34632114 0.23652716 0.064461 0.27753165 -0.11829726 0.068930924 -0.015889462 0.14760618
0.3716993 -0.81912255 -0.28824094 0.23791386 0.3496292 0.19772677 0.20763566 -0.19512634
-0.29541838 0.055106044 -0.37614867 -0.494602 0.31616813 0.06934194 -0.034246024 -0.08963369
0.12254388 -0.25725952 -0.28053114 -0.19207226 0.04923015 -0.35904709 0.09279334 -0.24080305
0.0361649 -0.009842108 0.2877143 0.31973097 0.5077674 0.21176837 0.25884545 0.020401223
0.404665 0.03978547 0.07908019 -0.31029263 0.36021456 -0.11014155 -0.011444657 0.13238421
-0.009664723 -0.15759484 -0.18214594 -0.1973835 0.15048143 -0.21872531 0.27889222 0.15532444
0.25474948 0.061372433 0.2712306 0.14687783 -0.21912028 0.33587834 0.14741807 0.03619729
0.4093343 -0.18596032 -0.46924588 0.063932486 0.2448194 -0.81052375 -0.14367172 0.12615699
-0.23490627 -0.16812854 0.25701466 0.31188115 -0.33155614 -0.26081958 0.04969983 0.48130637
-0.61615676 0.28643367 0.10054753 -0.027280182 0.07648013 0.11453284 -0.39647543 0.32131335
0.36660886 -0.36956343 -0.09135629 -0.04880105 0.0071997014 -0.067792535 -0.055805054 0.20790245
-0.3762282 -0.39680114 -0.41006637 0.112122476 -0.48821354 0.26999813 0.2517344 0.3026832
-0.07468091 0.123582736 -0.34695596 0.24247347 0.032087706 -0.36450946 0.015167484 0.10867797
0.07440815 0.0967104 -0.085556425 -0.0543114 -0.19012676 -0.11213497 -0.22676241 -0.12696904
0.16889566 -0.11272268 -0.21055973 -0.008196349 -0.04019398 -0.039422315 -0.007224391 0.032596193
0.075410776 0.034227833 -0.0064563514 -0.05107331 0.022419995 -0.15492892 -0.15335257 -0.0071306154
0.14098461 -0.18016094 -0.035602804 -0.19422305 0.21853542 0.10275161 0.37204462 0.14932743
0.44669726 -0.05084172 -0.32084718 -0.2408022 -0.34639505 0.31298438 -0.044277355 0.06854916
-0.3045847 0.031083755 0.3611593 0.30225062 0.30498147 0.61473364 0.014005698 0.84088045
-0.11810209 0.21552481 -0.22986817 -0.009832375 -0.124931015 0.16380419 -0.2784094 0.27405465
0.48755136 -0.7263262 0.035749245 -0.21749349 -0.04321406 0.17547853 -0.14275433 0.24690583
-0.22802617 -0.19968218 -0.22351018 -0.20968647 -0.061405666 0.054170188 0.17423803 0.087788895
-0.110137105 -0.022656584 -0.19268714 -0.21208318 -0.13993622 -0.07575408 -0.27460858 -0.038725723
-0.2254531 -0.2068737 -0.09826311 -0.11575066 0.06484592 0.17376529 0.07567308 -0.01209995
-0.25841278 0.0019643377 0.07875489 0.2050037 0.08219055 0.14151645 -0.2432744 0.31488866
0.2152858 -0.6076328 -0.41330883 0.17959023 0.05488527 -0.22757906 0.16611739 0.22658566
-0.25147745 -0.19819522 -0.33638147 0.06848218 -0.28473985 -0.02208663 0.028482623 -0.23418663
0.06915596 0.097808376 0.40914422 0.065271154 -0.14839502 0.38967973 -0.07717643 -0.2075003
0.04533024 -0.053742882 0.25440004 -0.09617431 0.20018533 0.13757236 0.4719145 0.5701663
0.35277715 0.16590619 -0.09590226 -0.19557315 0.068999074 -0.12036896 -0.21011539 0.054799177
-0.06415205 -0.31479257 -0.0100904815 -0.10335282 0.014592746 -0.14610583 0.37908906 0.46779966

fc2.bias f4 [20]
00000000: ba9b 5cbd 188b 263d 96f2 093e f042 223f
00000010: e002 b63e b84e 873e 5578 42be af11 093f
00000020: b2b2 2e3e f915 433d 51c5 903d 1ec5 0fbe
00000030: 254e a3bc 05d4 41be e817 fc3c 2ee8 aa3e
00000040: ed88 813e 02ca e0bc c19d cd3e 6cc1 d33e
-0.05385945 0.040659994 0.13471445 0.6338339 0.35549068 0.26427245 -0.18991216 0.5354261
0.17060354 0.047628377 0.07068885 -0.14040038 -0.019934723 -0.18928535 0.030773118 0.33380264
0.2529978 -0.027440075 0.4015942 0.41358507

fc3.weight f4 [20, 20]
00000000: ab55 ca3e f784 13be a063 98be ab9e 023d
00000010: 0235 aa3e 7762 f9bb f266 213e 5aa5 023d
00000020: ca8a 2a3e 87ef 2b3d d0a5 ab3e 4f5b b03e
00000030: c25b 9cbe fd50 c6bd a8a3 3f3d dfd9 29be
00000040: c2a3 07bf 90b7 933e 1039 96be 9252 b33e
00000050: ad0f 0cbd 946f a33d bc9e c53e 5ccd 1fbe
00000060: e2c3 9abe b1fb 173e 86bb 39bc 5f1b be3e
00000070: c0db d9be 5683 863d f968 1ebe 873c e1be
00000080: 2dad 543e b7be 8c3d 0974 cabd 3523 8e3e
00000090: 6cc4 b23e 19d9 543e e40c fd3e 8f87 db3e
000000a0: 1a98 7a3e 8156 0bbe 7394 5a3d 2e8a cdbe
000000b0: 43c7 47be 414d 0b3e bf0a 023d 5dfb 9cbe
000000c0: 6528 403d fc61 793c c678 edbd 6a01 c23e
000000d0: f044 2a3c ab95 c0bc 5270 38be f86f 04bf
000000e0: 1d1e 9c3e e62b a23e 8e39 03bf 9f8a 2f3e
000000f0: f4d9 7c3e e2c2 2d3e 44c0 713e c60a 713e
00000100: 6c1a 973e e435 a33e fcb9 36bd aa62 3e3e
00000110: 2d56 633e 0861 8c3e 2bcf 7d3e f8ac 6bbe
00000120: acd5 073e 5aa3 d63d 180f 21bc ade9 ee3e
00000130: 4a02 17bf 210a 343c 5749 c83e 2e85 683e
00000140: 8ef5 a23e 677e 763e 77f4 923e d39d 9b3e
00000150: 500c f83e bca3 b83e 5b09 063d be64 1fbe
00000160: 0030 f43e bcf3 9d3d ac10 953e 180b c5bd
00000170: 48d9 d53e c091 443e af29 353e 1db7 c63e
00000180: 3e51 033f b5b5 cfbd 0a12 4d3b 503a 25be
00000190: e29e abbc d620 133f 2e38 193f 625d 263e
000001a0: 297c 82be 1053 46be 236f 8bbd c91f 253e
000001b0: abc1 45bd 8cea dc3c 4c90 6a3e ccb8 5f3e
000001c0: 60a7 e93e b178 65bd c8af afbd 5a63 713e
000001d0: 8350 013f b20e 923c 5d18 b23d eaf2 7cbe
000001e0: 59c9 3fbe 5190 ec3e c49b 073f 8b83 d53e
000001f0: 7701 ca3d a391 66be 9c64 f4bd f788 923d
00000200: 1114 c93d 50c3 793e dcdd 7fbc 19ee 9e3e
00000210: fea5 1f3f 5476 afbd 37da 0bbe 0c2b d33e
00000220: 664e 0e3f eab4 afbe 1686 5f3d 3301 8abe
00000230: dc26 f9bd 6858 a3bc 9b7f 09bd 58a5 023f
00000240: b058 8f3e 97d6 413e 21db 5abe 089b 8f3e
00000250: e733 6bbd 2550 92bd 8045 8e3d bebd 02be
00000260: 3a75 65be 62d6 a53d 2c7c 2b3e 0d64 d53e
00000270: c1ea ddbe 162b f43d 415a e03e 41e7 b23d
00000280: 42a2 b7bc 7741 35bd e297 8dbe 26e6 37bf
00000290: 4ea7 babe 441b a0bd cd10 c8bc 9f53 a23e
000002a0: ab67 88be 72f7 d13d eef1 aebe c801 18be
000002b0: 9522 afbe 602c 37be a3ff 6ebe 27b8 4cbd
000002c0: 94d0 babe 51ef 963e 59ba 0dbe 7a4f 083d
000002d0: 9329 3e3e 24d1 afbe 0b21 d3be afaa 39be
000002e0: 6060 adbe d78f 6e3d 9e99 0ebe e55d 093e
000002f0: 94c3 8dbe 1320 61bd 51aa 2abe 75b4 6dbe
00000300: a81e 84be 794e 1d3e 6e5f 0abe 8a86 91be
00000310: 2f01 0dbf 1d2c 433e fe03 e03d 11ce de3e
00000320: 8dae ebbd dd9d 10bc 1afa 8fbd 8b57 003d
00000330: 5d78 b5bd 4de6 0b3e 8cd3 07be 3390 043e
00000340: 628e 713d f729 0ebd 7c0a a9bd cdb3 613e
00000350: 91a5 643e 317c c03d 6a2b eabc f009 ab3e
00000360: 572f 0b3f 9289 22be 116a 723e 806d d8ba
00000370: 3fa8 3fbe 7211 3cbe 41a5 04be acba 6c3c
00000380: 5925 41be 140a a1bd 4634 d8bc dfde 39bd
00000390: 5809 0e3e 9fd7 1dbd 8087 34bc e3e1 693c
000003a0: 6963 b9bd 29c2 cdbd d670 453e 0322 de3d
000003b0: 630a 273e 3a17 28be 2882 a8bd 7c17 2abe
000003c0: 1cdf 603e adfb 43be 43c1 dcbe 43d3 c8bd
000003d0: 48cd 99bd f439 793e 2e2b 72bd ec9c bdbe
000003e0: 27f5 643c 72aa d03d 0348 1ebd 35cf 433f
000003f0: 331a bbbe 149a 82bd 6651 4fbd e3a8 2dbf
0.39518484 -0.14406191 -0.29763508 0.0318896 0.33243567 -0.007610615 0.15761927 0.031895973
0.16654506 0.041976478 0.33524942 0.34444663 -0.30538756 -0.09683416 0.046786934 -0.16587017
-0.5298425 0.28850985 -0.2934041 0.35023934 -0.034194637 0.07980266 0.38597667 -0.15605682
-0.30227572 0.14842106 -0.011336213 0.37130257 -0.42550468 0.06568019 -0.15469731 -0.4399149
0.20769186 0.068723135 -0.09885413 0.27761236 0.34915483 0.20785941 0.49423897 0.4287686
0.24472085 -0.13607217 0.05336423 -0.40144485 -0.19509606 0.13603689 0.03174853 -0.30660525
0.046913523 0.015221115 -0.11595301 0.37891704 0.010392413 -0.023508867 -0.18011597 -0.5173335
0.30491725 0.31674117 -0.51259696 0.17142724 0.24692518 0.16968873 0.236085 0.23539266
0.29512346 0.31877053 -0.044610962 0.18592325 0.22200842 0.2741778 0.2478606 -0.23015201
0.13265103 0.104803756 -0.009830259 0.46662655 -0.5898787 0.010988743 0.39118454 0.22707054
0.31827968 0.24071656 0.28702137 0.30393848 0.48446894 0.3606242 0.032723766 -0.15565774
0.4769287 0.07712504 0.29114282 -0.096212566 0.41767335 0.19196224 0.17691682 0.3881158
0.5129584 -0.1014208 0.003129127 -0.16135526 -0.020949785 0.5747198 0.5985135 0.1624656
-0.25485352 -0.19367623 -0.06808307 0.16125406 -0.0482804 0.02696731 0.22906607 0.21847838
0.4563551 -0.056023303 -0.085784495 0.23573056 0.50513476 0.017829273 0.08696053 -0.2470204
-0.18729152 0.46203855 0.52972054 0.41701922 0.09863561 -0.22516493 -0.11933252 0.0715503
0.098182805 0.24390912 -0.01561686 0.3104103 0.6236266 -0.08567491 -0.13657461 0.4124378
0.55588377 -0.34317714 0.054571234 -0.2695404 -0.12165615 -0.019939616 -0.03356896 0.51033545
0.2799735 0.18929516 -0.21372654 0.28047967 -0.057422545 -0.071441926 0.0694685 -0.12767693
-0.22408 0.08097531 0.16746587 0.41677895 -0.43343166 0.119222805 0.43818858 0.087355144
-0.022416238 -0.044251885 -0.2765494 -0.71835554 -0.36455768 -0.078177005 -0.024422074 0.31704423
-0.26641592 0.102522746 -0.34168953 -0.1484443 -0.34206071 -0.17888021 -0.23339705 -0.04998031
-0.36487257 0.2947946 -0.13840617 0.03327892 0.18570547 -0.3433925 -0.41236147 -0.18131517
-0.3386259 0.058242645 -0.13925788 0.13414724 -0.27688277 -0.05496223 -0.16666533 -0.2321337
-0.2580464 0.15361966 -0.13512966 -0.28422958 -0.5507993 0.19059797 0.109382614 0.4351659
-0.11507902 -0.0088267 -0.07030125 0.031333487 -0.08860848 0.13662072 -0.13264292 0.12945633
0.058973677 -0.03470799 -0.08253953 0.22041245 0.22328784 0.09398688 -0.028585155 0.3340602
0.5436911 -0.15872791 0.23673274 -0.0016512126 -0.18716525 -0.1836603 -0.12953664 0.014448803
-0.18861903 -0.078632504 -0.026392113 -0.045378562 0.13870752 -0.03853571 -0.011018634 0.014275047
-0.09052164 -0.10046799 0.19281325 0.10846331 0.16312556 -0.1641511 -0.0822795 -0.16610521
0.2196011 -0.19138975 -0.43116197 -0.0980592 -0.075098574 0.24338514 -0.05912321 -0.37033784
0.0139744645 0.1018876 -0.038642894 0.7648805 -0.36543426 -0.06377044 -0.050614737 -0.67835826

fc3.bias f4 [20]
00000000: 949b acbd 3efc 203e da61 3ebe 2533 e33e
00000010: 1502 5cbc 19c7 d0bd 507e 803d 531a 353e
00000020: 5648 e93d 6c08 d53e d483 163e 37c5 2ebd
00000030: cab3 44bd e1d2 403d 718c 1fbe d23a 0abe
00000040: b2d2 b33e 6589 ca3e b2f8 a93d 5732 18be
-0.08428112 0.15721223 -0.18592015 0.44374958 -0.013428231 -0.10194225 0.06274092 0.17685823
0.1139075 0.41607988 0.14698726 -0.042668547 -0.048023023 0.04707611 -0.15580918 -0.13499
0.35121685 0.3955795 0.08299388 -0.14862953

fc4.weight f4 [20, 20]
00000000: d361 ea3d 568a ebbc 227f 093e bb60 45bc
00000010: 6510 2dbe ebb7 5ebe f24e 173e f348 363e
00000020: d312 d83b 2ff4 6bbe e7c4 353e adea c0bd
00000030: e863 c6bd 7090 903d b34c 57be 3db9 0d3e
00000040: 55a9 e83c cb4b d23c e73a 3fbe 7196 b7bd
00000050: 55e7 6a3e 9025 963e e2bd a4bd e35f 683e
00000060: 0138 af3d 14bf ddbe 34b0 a8be cc2f 303e
00000070: c3ff 5abd bd34 f4bc 8762 ccbe a33a 0cbe
00000080: 744a 053e e873 b8bd f848 1dbf bfbb 4abd
00000090: ceee 763e 3d65 6c3e 0f61 1e3e 916f d9be
000000a0: 383c 7bbe 1299 363e d385 8bbe 061a cc3c
000000b0: d657 bd3e 1743 d93e 61fe 123f f68b f3bd
000000c0: 38fa ba3e d8a4 cfbe 0c09 313f fa7a 43be
000000d0: 7a9f 11bf 366d a13e 0b08 113f d4dd 25bf
000000e0: 9538 cbbd 36b9 85be 0f6b 803e 055a 5abe
000000f0: f863 8a3e f6d8 8a3e ef58 ef3e d6d6 1d3d
00000100: a01b 8d3e 0c2f f13e df54 ab3e f282 253e
00000110: 2e2e 47bd bb92 903d 880f 003e f12d 57be
00000120: af21 ad3c 7d39 493d 135f 293f d0ae 03be
00000130: 1f69 bebc 2690 5cbe e4ca 0c3b 1b7c 863e
00000140: c87d 52be 314c 7c3d 97bc 0b3e 29c8 40bd
00000150: 939b 6a3e a1ae a33e 941d 113f f22e 2f3e
00000160: c2e6 a8be 39f6 70be 73f1 063f 3f1c 4b3e
00000170: 5eeb 84be 92d6 af3b 3581 ae3e 4202 a5be
00000180: 0f9b 83bd 1583 56be 41a9 f6bd 056e bc3d
00000190: 0900 3d3e 10f8 a93e e90b 203e 4adb b53e
000001a0: 2931 f7bd 44ab 9e3e 74d4 d23e 3613 2e3e
000001b0: c81e f3be 3b59 c63e d838 9a3e 6055 03be
000001c0: 22f0 b73e f674 fe3d ea68 6b3e 126b 41bf
000001d0: 1f51 883e b6ee cf3e f3cb f33c d549 b33a
000001e0: c6fc 573e 63c0 1dbe 1d0a e4be 9d7f 343e
000001f0: 4a6b 173e bafe b5be 6995 bcbe b67f 873e
00000200: 4139 043f 62bd 6d3e b881 87be d18a 1c3e
00000210: 2672 083e 6aeb e83d 7604 d0be b259 183f
00000220: 6ac8 2d3e a63b 3b3e 3307 223d d7ab f03d
00000230: 9c2a d53c a780 9fbd 7372 7dbe 98b7 313e
00000240: b059 8bbe 992d 04bf c994 1ebf 9c94 b83e
00000250: d1c9 063f 45ec a0bd 9675 24be aac2 083c
00000260: 3370 2cbe ca9f ab3e a171 c5be dd11 453f
00000270: c4b5 493e c017 503b 5521 a93d d4dd 9cbe
00000280: d3a1 9abe 7903 c83e 9f0f 913e 644f 6dbe
00000290: 7dbb 25bf ca55 9dbe 39e5 bbbd 8d68 ab3d
000002a0: 7968 f43e 0374 ac3e f9a2 0fbf 9fb4 0a3e
000002b0: 92d1 dabd c56c f5be 2e95 7bbe 25e1 e43e
000002c0: 7b01 20be f6ea a73e 2399 e4be 8c60 93be
000002d0: e839 01be c4e2 f53c 2761 e4be 16d0 413d
000002e0: 1e33 87bc ab03 0bbf 119f 0ebf 9a2f ba3e
000002f0: e486 943d 98d3 5a3e c708 e7be 0c90 253e
00000300: 2235 04be 3eff 423c 8859 d4be 8923 11be
00000310: 0455 8f3e 571c 423d 193d 833e ec2a 35be
00000320: bb87 b1bd 8c1c 593d 335b d6be d668 723e
00000330: dcf0 22bd 22c0 66be 68cd cfbe 0d87 a43e
00000340: 4f0b e0be a2f1 163e f7f8 2fbe a429 463e
00000350: 7ce3 31bc 523d f6bd b631 26bf 7a11 21bf
00000360: 99d2 8c3e 7162 333e 8e2e 803e 3f52 10be
00000370: 403f 9a3d d1da bb3e bcd0 e5be c9da f13c
00000380: 8195 043b 4752 acbe cddc e2be 8517 b73a
00000390: 5033 d03c f02d f13d fb0d b4be 0a91 c0bc
000003a0: 2fbf 45be a4da 9dbd a2e8 23bf 9ed1 35bf
000003b0: 06d6 0c3e feca a03e e039 863e 87ce babe
000003c0: 2379 033e 91cf 55bc d51e 99bc 5804 8ebd
000003d0: 31cd 34be 323f 0d3d 4d21 273e 4deb 06bd
000003e0: 57ae d03d 3c73 70be 7e7c 653d 8bd9 bf3d
000003f0: e23f 86bc c4fc 04be a6a2 77bd ed9a 56be
0.1144444 -0.028752487 0.13427404 -0.012046988 -0.16900785 -0.21749847 0.14776209 0.17801265
0.006594041 -0.23042367 0.17750894 -0.09419761 -0.09687024 0.07058799 -0.21025352 0.13840194
0.028401056 0.025670907 -0.18674813 -0.08964241 0.22939809 0.29325533 -0.0804403 0.22692828
0.08555604 -0.43309844 -0.32946932 0.17205733 -0.05346657 -0.029810304 -0.3991892 -0.13694243
0.13016683 -0.09006482 -0.61439466 -0.049495455 0.24114534 0.23085494 0.15466712 -0.4246793
-0.2453469 0.17831829 -0.27250537 0.024914753 0.36981076 0.42433998 0.574194 -0.1189193
0.36519027 -0.40555453 0.6915443 -0.1908988 -0.56883967 0.31528634 0.566529 -0.6479161
-0.099229015 -0.26117867 0.2508168 -0.21323402 0.27029395 0.27118653 0.46747538 0.03853496
0.2756014 0.47106206 0.3346319 0.16163233 -0.048628025 0.070592366 0.12505925 -0.21013619
0.021134226 0.04912709 0.66160697 -0.12859654 -0.023243485 -0.21539363 0.0021483237 0.2626656
-0.20555794 0.0615961 0.1364616 -0.047065888 0.2291091 0.3196917 0.5668576 0.17107752
-0.32988554 -0.23531426 0.5271217 0.19834994 -0.2596082 0.005366155 0.34082952 -0.32228285
-0.064260595 -0.20948441 -0.12044001 0.09200672 0.18457045 0.3319707 0.15629543 0.35518867
-0.120699234 0.3099004 0.41177714 0.16999516 -0.47484422 0.38739952 0.30121493 -0.12825537
0.35925394 0.12424652 0.2298924 -0.75554 0.2662439 0.4061181 0.029760337 0.001367862
0.21092519 -0.15405421 -0.44538966 0.17626806 0.14787021 -0.35545903 -0.3683274 0.26464623
0.5164986 0.23216775 -0.26466155 0.1528733 0.13324794 0.11373027 -0.40628403 0.59511864
0.16970983 0.18284473 0.039557647 0.11751526 0.026021294 -0.0778821 -0.2475069 0.17355192
-0.27216864 -0.51632077 -0.6194578 0.3605088 0.526517 -0.07857565 -0.1606048 0.008347193
-0.16839676 0.33520347 -0.38563254 0.7698038 0.19698244 0.0031752437 0.08258311 -0.3063799
-0.30201587 0.3906515 0.2833223 -0.23174816 -0.6473921 -0.30729514 -0.0917458 0.08369551
0.47735956 0.3368226 -0.5610805 0.13545464 -0.106845036 -0.47934547 -0.24568626 0.44703022
-0.15625565 0.32796448 -0.44648084 -0.28784597 -0.12619746 0.030015357 -0.4460537 0.047317587
-0.016503867 -0.5430247 -0.55711466 0.36364442 0.07252291 0.21369779 -0.45123884 0.16168231
-0.12910894 0.011901675 -0.41474557 -0.14173712 0.2799455 0.04739031 0.2563255 -0.17692155
-0.08668467 0.05300574 -0.41866454 0.23672804 -0.039780483 -0.2253423 -0.405864 0.32134286
-0.43758628 0.14740613 -0.17184816 0.19351822 -0.010857459 -0.12023415 -0.649196 -0.6291729
0.27504423 0.17518021 0.25035518 -0.14093874 0.07531595 0.3669038 -0.44885814 0.02952327
0.0020230713 -0.33656523 -0.44309083 0.0013968801 0.025415093 0.1177634 -0.35166916 -0.02350666
-0.19311212 -0.07707718 -0.64026845 -0.71022975 0.13753518 0.3140487 0.2621603 -0.36485693
0.12839179 -0.013049976 -0.01869146 -0.06934422 -0.176564 0.034484096 0.16321297 -0.032939244
0.10189503 -0.23481458 0.056026928 0.09367665 -0.016387884 -0.12987047 -0.060457848 -0.20957537

fc4.bias f4 [20]
00000000: 4406 d3bd 1e36 b43e 517e d03d 83f6 b1bc
00000010: 2b20 d8bc 7cd5 e33c d053 5f3d 5309 c13e
00000020: e219 793d 00ab b53e bf35 883e ee22 e63e
00000030: b281 e8bd ed5f f2bd 14a3 153e 19d1 4dbe
00000040: 5c82 ce3c 4f06 11be a9a4 43be 9f8a 1d3e
-0.103039294 0.35197538 0.10180343 -0.021723991 -0.026382526 0.027811758 0.05452329 0.37702426
0.0608157 0.35482025 0.26603505 0.44948524 -0.113528624 -0.11834703 0.1461299 -0.20099296
0.025208645 -0.14162563 -0.19105782 0.15384911

fc5.weight f4 [20, 20]
00000000: 2b29 04bc b5d7 8c3b 20b1 5c3a fd2b eabc
00000010: b56a dcbe 2415 7f3e e0b6 8e3d 3d2a 803e
00000020: c406 56bf 5f1d da3e 229a aa3e 064e 0b3f
00000030: 4ceb 243e 5726 3bbd 0300 0ebf e17f ac3c
00000040: 6e35 19be 6588 9d3d 1ebb 2bbe 3e51 debe
00000050: a637 55bd 9271 4dbe da6d a2be 9893 ab3e
00000060: cc42 333e 2b2f ef3d fb98 56be af13 c5be
00000070: 808a 233e d597 c8be a07d 3bbe ba7e 90be
00000080: ad88 293e 1ded a43e fdcc 0c3f edde 023e
00000090: 8558 c13e 280f 4ebe 7a2d 38bd db37 723d
000000a0: 4760 22be ab82 843e 8e7d c13e 68cb 6a3e
000000b0: e589 0f3f 22da 9a3d 41bf b73d e0c3 f2be
000000c0: f5f8 24bf a3e4 0bbf add8 5b3e 4711 24bc
000000d0: 60ec e2bc 35d7 163e 6401 193e 3857 fd3d
000000e0: a8d2 a7be a8b5 4c3e 6575 473d e89e 6bbe
000000f0: cc85 d1bb 8c07 053e b6e3 93bd bd06 9ebd
00000100: 07cd 18bf c885 19be 8b65 7c3d 4882 fa3e
00000110: b793 0abf fa38 e63e 0619 623e 9437 f63e
00000120: bdfc b13d 3572 863e fea2 0cbf 192b 13bd
00000130: ebf7 133e 0c6c dfbc 71f9 3c3e 37cb c93d
00000140: 8d19 bbbd 2f5c 7a3e 1a75 c3be ffc0 cabd
00000150: a774 9fbe f3e1 37bd e099 f43c 7eb5 1e3f
00000160: 5567 5a3f d3d4 a83e 6bb5 e53d 0f54 a3bc
00000170: f1c0 65be a224 873d 3334 16bf deef ebbd
00000180: 814b 9e3e 122c 49be 5983 f8bd 9fa6 153f
00000190: 62ad 3e3e 0b1a 403e 341f 7ebe 7a83 0cbe
000001a0: 0a8f 19bf 292d 1abc 18b1 663e bdfc bb3e
000001b0: 857a 25bf 12a6 e33e 0a43 b13d f1e5 383e
000001c0: 0b92 e53d a447 643e 8692 0bbe 5b37 cdbd
000001d0: 8cba 3b3e f234 2cbd 288f 9bbd d6ae 1b3b
000001e0: 1ce3 033e c67b 243e 1baf cf3d e906 d23d
000001f0: 9b9e 90bd 6da3 02be 84ea 38be 1078 4f3c
00000200: dae0 113c 315e 08be 712d 65be 7f93 78bd
00000210: ac92 893d 8073 43be 6747 2fbe 1c2b b7bc
00000220: caca 463e 6c2d 00be e371 9a3d 56e5 003e
00000230: 6131 0c3c 1dac c23d c8e9 17bf 8a5e abbd
00000240: 88a0 0abf 181f 1bbe 33c8 dc3e ec6e 2e3f
00000250: 43c2 803f de85 f13e 8ea6 c43d a6e2 9dbd
00000260: c7a8 8d3d 666d 983e b36a 31bf 7558 a6be
00000270: 6151 043f c327 923d 2369 253e 715a 1a3f
00000280: 5c00 4d3d 802b c8bd fd1e c23e 1337 bd3e
00000290: 6932 673e b465 a03e e07d cd3d 9fae 16bf
000002a0: 18a5 a3be 586e 0fbf fafd 5ebd 7282 8bbe
000002b0: 3981 1cbb 3100 413c 212a 123f 574e 553e
000002c0: 1925 8ebd 27f4 5f3e 3771 b7bd b841 97be
000002d0: c894 a8bc 6af3 123e 0673 673e 480e 783e
000002e0: 3ef5 fa3e 31f4 8e3d b817 05be 389e adbe
000002f0: 4da3 e4bd 5016 24bf 1b6e 84be 54ff acbe
00000300: fc50 5b3a 835d f43d 4a4f ca3e 944b bb3c
00000310: 3e8c 2cbe c0e3 2b3e 7d3b 0fbb c3e0 1bbe
00000320: 18a5 873d 23ca 99bb 984d 103f 8fd5 b43e
00000330: 901e 923e 7770 c53e 32fe ac3d 4667 8fbe
00000340: ba10 02bf e4ba 22bf 9a00 2ebe 5e04 c4be
00000350: ad29 1bbc 229f 5f3c 0966 e33e 412b 903e
00000360: ceb6 9f3d e2b2 09be 4cc2 9f3c f178 ccbe
00000370: d65d 4f3e 2eda b63b c6f6 8d3e f169 2fbe
00000380: 7076 83be 87f7 bb3e 0b4d abbd b8b3 093d
00000390: a332 44bf 6319 f93e 0ad6 d73e 000f a23e
000003a0: 0ddd 54bd 0b69 373e 0db8 fabe a328 e63d
000003b0: 1513 5a3d 1313 bdbd 6020 adbd bc9a 9ebe
000003c0: f81b a9bc 3c67 3a3e 3d6d 83be 060e cc3b
000003d0: 4cd1 a5be 1cad 833e 91fa fe3c 3a0f 853d
000003e0: e383 1abf 7aca bd3e 0c4e 803d 77b3 103f
000003f0: 4967 813d 8de8 f73c 2794 debe 9c25 66be
-0.008066456 0.004298175 0.00084187277 -0.028585428 -0.4305016 0.24910408 0.069684744 0.25032225
-0.83604074 0.42600533 0.3332072 0.5441593 0.16105384 -0.04569086 -0.5546877 0.021057071
-0.14961788 0.07692031 -0.16770598 -0.43421358 -0.052055024 -0.20062855 -0.31724435 0.33511043
0.1750595 0.116789185 -0.20956795 -0.3849158 0.15970802 -0.3917834 -0.18309641 -0.28221685
0.16556044 0.32212153 0.5500029 0.12780352 0.37762848 -0.20122969 -0.044965245 0.0591353
-0.1585704 0.25880942 0.37791103 0.22929156 0.56069785 0.07561137 0.08972026 -0.47415066
-0.6444238 -0.54645747 0.21469374 -0.010013885 -0.027700603 0.14730532 0.14941937 0.12370151
-0.32777905 0.19991171 0.04869594 -0.23009837 -0.0063941237 0.1299116 -0.07221167 -0.07716129
-0.59687847 -0.1499244 0.061620276 0.48927522 -0.54131645 0.44965345 0.22079858 0.48089278
0.08690784 0.26259008 -0.54936206 -0.035929773 0.14450042 -0.0272732 0.1845453 0.09853213
-0.09135733 0.24449228 -0.3817528 -0.09900092 -0.31143686 -0.044893216 0.02985853 0.61995685
0.8531392 0.32974872 0.11216243 -0.019937543 -0.22436883 0.06598784 -0.586734 -0.115203604
0.3091698 -0.19645718 -0.121344276 0.5845737 0.18620828 0.18759935 -0.2481659 -0.1372203
-0.59983885 -0.009410181 0.22528493 0.36716262 -0.64640075 0.4446264 0.08655365 0.18056466
0.11209496 0.22292954 -0.13630113 -0.10020324 0.1833288 -0.04204268 -0.07595664 0.0023755333
0.12879604 0.16062841 0.101408206 0.10255224 -0.070615016 -0.12757654 -0.1805821 0.0126629025
0.008903706 -0.13317181 -0.22380616 -0.06068754 0.067174286 -0.19087029 -0.17117082 -0.022359423
0.19413295 -0.12517327 0.075412534 0.12587485 0.008556695 0.09505484 -0.59341097 -0.08367641
-0.541512 -0.1514858 0.4312149 0.68138003 1.0059284 0.47172445 0.0960208 -0.077092454
0.06916957 0.29770964 -0.69303435 -0.32489362 0.51686674 0.0713649 0.16153388 0.6029425
0.05004917 -0.09773922 0.37914267 0.3695608 0.22577824 0.31327593 0.100337744 -0.588602
-0.31961894 -0.56027746 -0.05444143 -0.2724796 -0.0023880734 0.011779831 0.57095534 0.20830666
-0.069406696 0.2187048 -0.08957141 -0.29542327 -0.020578757 0.14350668 0.22602472 0.24224198
0.4901523 0.069801696 -0.12997329 -0.33909774 -0.1116396 -0.64096546 -0.25865254 -0.3378855
0.00083662546 0.119318984 0.39513618 0.022863187 -0.16850373 0.16786098 -0.0021855526 -0.15222459
0.06623286 -0.004693286 0.563684 0.35319182 0.28538942 0.38562366 0.084469214 -0.2800848
-0.5080677 -0.6356642 -0.16992417 -0.38284582 -0.0094703855 0.01364878 0.44413784 0.28158
0.07798539 -0.13447145 0.019501828 -0.3993602 0.2025064 0.0055802083 0.27727336 -0.17130257
-0.25676298 0.36712286 -0.08364304 0.03361866 -0.76639766 0.4865218 0.42155486 0.3165207
-0.051968623 0.17911164 -0.48968545 0.112382196 0.053240854 -0.09232154 -0.08453441 -0.30977428
-0.02064322 0.18203443 -0.2566928 0.0062272577 -0.32386243 0.2571801 0.031125339 0.06497045
-0.60357493 0.3706854 0.06264886 0.5652384 0.06318528 0.030262256 -0.43472406 -0.22475284

fc5.bias f4 [20]
00000000: e701 923e 88b6 d2be f2f9 cabb 59e7 943e
00000010: 9f84 70bd 9beb d53e b2fb 37be 0c35 06be
00000020: 0bc9 51be f3a4 7fba c053 50bd 6a20 c13e
00000030: 3a07 b43e c1c6 5a3d ccc4 9c3e 5b52 bbbe
00000040: aca5 df3e b04d 953d 8bc3 a2be cc44 9abd
0.28517076 -0.41154885 -0.0061943466 0.29082754 -0.058720227 0.41781315 -0.17967108 -0.13106173
-0.20486848 -0.00097520574 -0.05086112 0.37720042 0.35161763 0.053412203 0.30618894 -0.3658627
0.43681085 0.07290208 -0.31789812 -0.07532653

fc6.weight f4 [3, 20]
00000000: 2f8a 94be b040 883e 6e75 c63e 24dc a9be
00000010: c778 dcbe 4d0f 16be e806 21be a0c9 8abe
00000020: 3a17 b53e f3d8 eb3e e27f c73e 32b9 11bb
00000030: 5aaa bbbe 5a9f 05bf 4e5d 8fbe 77f4 6c3e
00000040: 2a88 a43e e406 cf3e b9e1 dabc 671d 0a3e
00000050: 5005 ca3e 117f fcbe 6fe8 06be 1482 dc3e
00000060: 12d9 d6bd 1930 7f3e fe53 4d3e ef57 803b
00000070: bb4e 8fbe 885c 26bf 4e81 b0be e33b ca3e
00000080: be8c cc3e 4160 803e 00c0 c23e c0ec 09bf
00000090: 7c06 6f3e 7506 d8be 67a7 02bf c5f8 4ebd
000000a0: 7017 17bf b579 d63e 1ed1 1dbf c2f7 243e
000000b0: 5470 a03e 9dd5 913d ff4d 4abe 1406 023f
000000c0: 0662 a2be 0fb3 c03d 6337 fabe e475 0abf
000000d0: d70f f1be 3c7c d03e 5399 2e3d 2514 853e
000000e0: ba30 2cbf 4742 7f3e 4416 2c3f 22e1 6dbd
-0.29011676 0.26611853 0.38761467 -0.33175766 -0.43060896 -0.14654274 -0.15725291 -0.27106953
0.35369283 0.46063957 0.38964754 -0.002223563 -0.36653405 -0.52196276 -0.28000873 0.23140131
0.32135135 0.40434945 -0.026718961 0.13487779 0.39457178 -0.49315694 -0.13174604 0.43067992
-0.104906216 0.24920692 0.20051572 0.0039167325 -0.27989754 -0.6498494 -0.34473652 0.39498815
0.39951128 0.25073436 0.3803711 -0.53876877 0.23342317 -0.42192426 -0.51036686 -0.050530214
-0.5902014 0.4188973 -0.6164721 0.16110137 0.313357 0.071208216 -0.19756316 0.50790524
-0.3171541 0.09409153 -0.48870382 -0.54086137 -0.47082397 0.40719783 0.04262669 0.25991932
-0.6726185 0.24927627 0.67221475 -0.05807603

fc6.bias f4 [3]
00000000: f8eb 18bd bbd6 843e 7e92 c0be
-0.037334412 0.25945076 -0.37611765
