models_3val/xor_and_5.pth (torch, 12178 bytes, 12 tensors)

fc1.weight f4 [20, 12]
0	0xbe8e95d7	-0.27848694
1	0x3ee09112	0.4386068
2	0x3d913f0c	0.07092103
3	0xbe1a84d5	-0.15089734
4	0xbe61a8eb	-0.22037093
5	0xbc6b6b6c	-0.014368873
6	0x3d855725	0.06510762
7	0x3d2764f4	0.04086776
8	0x3e14e003	0.14538579
9	0x3dfc7741	0.123274334
10	0x3d05c4de	0.03265845
11	0x3d05f921	0.03270829
12	0x3e2c43a9	0.16822685
13	0x3e7df1d4	0.24799281
14	0x3ebabd0e	0.36472362
15	0xbd1e2d6d	-0.03861754
16	0xbd1369c1	-0.035989527
17	0x3d8584c1	0.065194614
18	0x3d95240c	0.07282266
19	0x3a8947b1	0.0010473636
20	0x3d059987	0.03261712
21	0x3dab4ab9	0.083638616
22	0xbcfad4ed	-0.030619109
23	0x3c9eb02f	0.01937112
24	0x3ea781db	0.3271626
25	0xbe03b9e4	-0.1286388
26	0x3d6361ba	0.05551312
27	0x3e812670	0.25224638
28	0xbef30ea1	-0.47472098
29	0x3e0bace2	0.13640168
30	0x3e474378	0.19459331
31	0x3e172dff	0.1476364
32	0x3e60a085	0.21936233
33	0x3ea997ba	0.3312357
34	0x3e5b8559	0.21437587
35	0x3d9351aa	0.071933106
36	0x3d9cf838	0.076645315
37	0x3db50d28	0.088404
38	0xbd056e6e	-0.032576017
39	0x3dc85bd6	0.09783141
40	0xbf4a8d52	-0.7912189
41	0x3d0d96cc	0.03456764
42	0x3ce0a708	0.027423397
43	0x3cb3b5bb	0.021937242
44	0x3c406442	0.011742653
45	0x3ce65275	0.02811549
46	0x3cc9a943	0.024616843
47	0x3c99c2d7	0.018769665
48	0x3da81a1f	0.08208107
49	0xbea84c3f	-0.3287067
50	0x3df037c2	0.11729385
51	0x3e921cea	0.28537685
52	0xbf06b765	-0.5262359
53	0x3c70960b	0.0146842105
54	0x3be069c6	0.0068485467
55	0x3c2102c4	0.0098273195
56	0xbad74780	-0.0016424507
57	0x3bfcc039	0.0077133444
58	0x3c19fe58	0.009399019
59	0x3b63f49b	0.0034783247
60	0x3f22943c	0.6350744
61	0xbf500de6	-0.8127121
62	0x3d6a49a1	0.057199124
63	0xbcb228f5	-0.021748045
64	0x3c7037df	0.014661758
65	0xbaba5068	-0.0014214637
66	0x3b324ecd	0.0027207613
67	0x3b34663a	0.0027526752
68	0x3c0763dd	0.008263555
69	0x3bae91d4	0.0053274427
70	0x3b41f3c3	0.0029594756
71	0x3adb820a	0.0016747129
72	0x3f2fb460	0.68634605
73	0x3d1082e9	0.035281096
74	0xbe16ac1e	-0.14714095
75	0xbd1270e4	-0.035752192
76	0x3e5a47cc	0.21316451
77	0x3cb4a7cd	0.02205267
78	0x3d0b434c	0.033999726
79	0x3d88d73d	0.066816784
80	0x3e1ed53e	0.15511033
81	0x3e6b3e3b	0.22972958
82	0xbd0fb7fa	-0.035087563
83	0xbaaa989c	-0.0013015452
84	0x3f15497e	0.58315265
85	0xbf07a8a7	-0.5299172
86	0x3cd68a82	0.026189093
87	0x3e04c276	0.12964806
88	0xbec956b2	-0.39323956
89	0x3c93d2e0	0.018044889
90	0x3c3973b6	0.011319092
91	0x3d19796e	0.03746932
92	0x3cfc3838	0.030788526
93	0x3cc6fa96	0.02428941
94	0x3c760798	0.015016459
95	0x3cef1ca7	0.029188467
96	0x3e38dce6	0.18053016
97	0x3d94eff7	0.07272332
98	0xbf416d63	-0.75557536
99	0x3da4c732	0.08045806
100	0xbe4c691c	-0.19961971
101	0x3cd44538	0.025911912
102	0x3c8cdffe	0.017196652
103	0x3cb9f45d	0.02269953
104	0x3c84402c	0.01614388
105	0x3ca98895	0.02069501
106	0x3c7c52ae	0.015400572
107	0x3c9451ae	0.018105354
108	0x3df5c5da	0.12000628
109	0xbeb588a8	-0.35455823
110	0x3e74da3a	0.23911372
111	0xbe89d265	-0.2691833
112	0x3ee3d2df	0.4449682
113	0x3da5b073	0.08090296
114	0x3d7f690b	0.062356036
115	0x3e2ad744	0.1668368
116	0x3e6f546a	0.23372045
117	0x3e3c3a3e	0.18381593
118	0x3dcbdec1	0.09954596
119	0x3e2cb7d2	0.16866997
120	0x3e8937eb	0.26800475
121	0x3eacb846	0.3373434
122	0xbd69201a	-0.05691538
123	0x3ee28115	0.44239107
124	0xbf21a1e0	-0.63137627
125	0x3d31ab90	0.043376505
126	0x3c61c444	0.0137797035
127	0xbcb755a9	-0.022379713
128	0x3d677004	0.05650331
129	0x3b946741	0.0045289104
130	0xbd942a2a	-0.07234605
131	0x3d95b492	0.07309832
132	0x3eb0bf3a	0.34520894
133	0x3e8ee1e9	0.2790673
134	0x3e214f99	0.1575302
135	0x3dfad18f	0.122470014
136	0xbeba5719	-0.36394575
137	0xbcd30cc2	-0.02576292
138	0x3c9c2d5e	0.019064602
139	0x3db2d9be	0.08732937
140	0x3d491b7b	0.049098473
141	0xbbd0fd27	-0.0063778344
142	0x3e0df1e1	0.138618
143	0x3d7947e7	0.060859587
144	0x3e0d7c3d	0.13816924
145	0x3e10465a	0.14089337
146	0xbf0247c4	-0.50890756
147	0xbf3894fb	-0.72102326
148	0x3da4f32d	0.080541946
149	0xbbfc5999	-0.0077011106
150	0xbbc75ea5	-0.0060842806
151	0xbb82ff56	-0.0039977236
152	0xbba864de	-0.0051389774
153	0xbbd19470	-0.006395869
154	0xbb8f8a39	-0.004380491
155	0xbb96b3b2	-0.004599058
156	0x3f05da4d	0.52286226
157	0x3e4e7550	0.20161939
158	0xbce321c0	-0.027726054
159	0xbf463d6e	-0.77437484
160	0xbdd5b5ba	-0.10435052
161	0x3c947eeb	0.018126925
162	0x3bcc565f	0.006235882
163	0x3a356f72	0.00069212087
164	0xbc323414	-0.010876674
165	0xbb5f98fa	-0.003411828
166	0x3c0d0ce6	0.008609032
167	0xb762bd46	-1.3514718e-05
168	0xbe029504	-0.12752157
169	0x3ec25093	0.37952098
170	0xbd32a8b5	-0.043617923
171	0x3e3d4e2b	0.1848685
172	0xbd1391fa	-0.036027886
173	0x3e989101	0.2979813
174	0xbe58b111	-0.21161295
175	0x3e9e2f6a	0.3089555
176	0xbe3a23f0	-0.18177772
177	0xbe6a8b21	-0.22904636
178	0x3e19f115	0.15033372
179	0x3e7c60bc	0.24646276
180	0xbed46cce	-0.4148926
181	0x3eb051ce	0.34437412
182	0x3ea28f81	0.3175011
183	0xbd0032a2	-0.031298287
184	0x3ecaeaaa	0.3963216
185	0x3d9385b4	0.07203236
186	0x3e5347b0	0.20632815
187	0x3d59281f	0.053016778
188	0x3dd2b40c	0.102882475
189	0x3e9c411d	0.30518427
190	0x3dde18d9	0.10844583
191	0xbd810015	-0.06298844
192	0xbec667ab	-0.38750967
193	0xbdd6a5c3	-0.10480835
194	0x3d8e283b	0.06941267
195	0xbefb41c3	-0.4907361
196	0xbc3f68e1	-0.01168272
197	0x3e581a72	0.21103838
198	0x3e09624e	0.13416407
199	0x3e00d16b	0.12579887
200	0x3ddfe3eb	0.10932144
201	0x3de15965	0.11003379
202	0x3dd3aa83	0.10335257
203	0x3e3a387c	0.1818561
204	0x3ecdc818	0.40191722
205	0xbc244d0e	-0.010028137
206	0xbc25588f	-0.010091915
207	0x3e5e468a	0.21706596
208	0x3e0bc894	0.13650733
209	0x3ea0cee1	0.31407836
210	0x3e19a5c3	0.1500464
211	0x3e785574	0.24251348
212	0x3e875287	0.2643015
213	0x3e40a788	0.18813908
214	0xbbbfe3f7	-0.005856033
215	0x3eb37f22	0.35057932
216	0x3ee7bad5	0.4525973
217	0x3f25c7ac	0.647578
218	0x3e1577bd	0.14596458
219	0x3e409722	0.18807653
220	0x3e93c876	0.28863877
221	0x3e154dd8	0.14580476
222	0x3e1c5068	0.15265048
223	0x3dc39479	0.09549803
224	0x3d13740a	0.035999335
225	0x3da4b9aa	0.08043225
226	0x3e6d2867	0.23159944
227	0x3dc3e27f	0.09564685
228	0x3f0e9245	0.5569194
229	0x3f18d263	0.59696025
230	0x3dcfa554	0.10138956
231	0xbede3de6	-0.434066
232	0xbe966fb2	-0.29382092
233	0x3be6f087	0.007047716
234	0x3adb502e	0.001673227
235	0xbaa379ce	-0.0012472214
236	0xbb9d2dba	-0.004796711
237	0x3b928e5e	0.004472538
238	0xbabc228d	-0.0014353559
239	0xbb59284e	-0.0033135596

fc1.bias f4 [20]
0	0x3eb26ec9	0.34850147
1	0x3e95784f	0.2919335
2	0x3decb7e3	0.11558511
3	0x3eb80920	0.35944462
4	0x3e8ebfcd	0.27880707
5	0x3c57a408	0.013161667
6	0xbbccb9a6	-0.006247717
7	0xbc9673b1	-0.018365713
8	0x3f16b125	0.5886405
9	0x3e18e681	0.1493168
10	0x3e996c85	0.29965606
11	0x3d08e027	0.033416893
12	0x3dd31675	0.10307018
13	0xbd806f4d	-0.06271229
14	0x3e935a5f	0.28779885
15	0x3eb8aacd	0.3606781
16	0x3f32b403	0.69805926
17	0xbd7f3988	-0.062310725
18	0x3bc61706	0.006045225
19	0x3e8b2296	0.27174824

fc2.weight f4 [20, 20]
0	0x3b286d2d	0.002569984
1	0xbe0f8964	-0.14017254
2	0xbd32becd	-0.043638993
3	0x3ed4ae96	0.41539448
4	0x3c777f7c	0.015106078
5	0x3d748456	0.059696518
6	0xbd0ae837	-0.033912864
7	0x3c973b7d	0.018460983
8	0x3ea45bd1	0.321013
9	0x3e04c069	0.12964024
10	0xbeba0426	-0.3633129
11	0xbd979811	-0.07402051
12	0x3ed9e46f	0.42557094
13	0x3efab465	0.48965755
14	0xbd42a8bd	-0.047524203
15	0xbcfe01a5	-0.031006644
16	0x3f210268	0.62894297
17	0xbe7a824a	-0.24463764
18	0xbe7473c3	-0.23872285
19	0xbeb6cb89	-0.3570216
20	0xbdaf57ab	-0.08561643
21	0xbe2e72d3	-0.1703599
22	0x3c2b23dd	0.010445562
23	0xbd6a57e9	-0.057212744
24	0xbe5ee41d	-0.21766706
25	0xbe5da0cc	-0.2164337
26	0xbe6c74cc	-0.2309143
27	0xbe593097	-0.21209942
28	0xbdf86135	-0.12127916
29	0x3c1ac6b9	0.009446793
30	0xbd5b94cd	-0.053608704
31	0xbe5da90e	-0.2164652
32	0xbd01c1d7	-0.031679
33	0xbdd80ab2	-0.10548915
34	0x3dfc08fb	0.123064004
35	0xbd8c8e05	-0.068630256
36	0xbe71a8ce	-0.2359955
37	0xbe1de380	-0.15418816
38	0xbe3ec251	-0.18628813
39	0x3dd70351	0.104986794
40	0x3e5d0273	0.21582966
41	0x3e5fd5af	0.21858858
42	0xb90f2c88	-0.00013654132
43	0x3ec3f31f	0.38271424
44	0xbebaaa83	-0.36458215
45	0x3e1e8972	0.15482119
46	0xbe527862	-0.20553735
47	0x3e213157	0.15741478
48	0xbe081a52	-0.1329129
49	0x3e4260f9	0.18982305
50	0x3d0080cb	0.031372827
51	0xbcb5deb7	-0.022200925
52	0x3ed856c8	0.4225371
53	0xbe3af69f	-0.18258141
54	0x3e353376	0.17695412
55	0x3d5ff548	0.054677278
56	0xbd7e63b2	-0.062106796
57	0x3e857fe1	0.26074126
58	0x3e4a55ed	0.1975934
59	0xbccf632c	-0.025315844
60	0xbec56a73	-0.38557777
61	0xbe4c0658	-0.19924295
62	0x3da57783	0.08079436
63	0xbe1902af	-0.1494243
64	0x3e1cbc89	0.15306295
65	0xbf4927ba	-0.7857624
66	0x3eaa89d5	0.33308282
67	0xbeb7da3c	-0.35908687
68	0x3f373b61	0.7157498
69	0xbe80b0be	-0.25134844
70	0x3dffd118	0.12491053
71	0x3e54d109	0.20782866
72	0xbf2ef74c	-0.68346095
73	0xbef53918	-0.47895122
74	0xbdadd389	-0.08487613
75	0xbe13ae05	-0.14421852
76	0xbec3fec2	-0.38280302
77	0x3e64432c	0.22291249
78	0x3e9a688a	0.30157882
79	0x3e6f4370	0.23365569
80	0x3c9d84b0	0.01922831
81	0x3d71f427	0.059070732
82	0x3dde9ad8	0.10869378
83	0xbe98f2ef	-0.29872844
84	0x3e8d163d	0.2755603
85	0xbeadad05	-0.33921066
86	0x3ed51a1a	0.41621476
87	0xbe6ad62c	-0.22933263
88	0x3ec01a66	0.3752014
89	0x3ebff3d8	0.37490726
90	0xbe0a68aa	-0.13516489
91	0x3e16648d	0.14686795
92	0xbe98fd80	-0.29880905
93	0x3ddc004d	0.10742245
94	0x3e748128	0.23877394
95	0x3e36702b	0.17816226
96	0xbd843909	-0.06456191
97	0x3d7d7edc	0.06188856
98	0x3e24b360	0.16084051
99	0x3ef021dc	0.46900833
100	0xbe86d035	-0.26330724
101	0x3d8e72f5	0.0695552
102	0xbdd00515	-0.10157219
103	0x3e729b89	0.23692144
104	0x3e457032	0.1928108
105	0xbecbcccb	-0.39804682
106	0x3e321ff9	0.17395009
107	0xbee8db0d	-0.45479622
108	0x3e4e96ba	0.20174685
109	0x3daedd5f	0.08538317
110	0xbe4f8766	-0.20266494
111	0x3e45ec26	0.19328365
112	0x3daa25c9	0.08307988
113	0x3ed8320d	0.42225686
114	0xbd3ef6d2	-0.046622105
115	0x3bffc387	0.007805291
116	0x3e22c1ed	0.1589429
117	0xbd4822f0	-0.048861444
118	0xbe07cb59	-0.13261165
119	0x3e302dcd	0.17204972
120	0x3ec071f8	0.3758695
121	0x3d897721	0.06712175
122	0xbe5fe157	-0.21863304
123	0x3ef5562d	0.4791731
124	0xbee8d8e4	-0.45477974
125	0xbee541ff	-0.44776914
126	0x3df5c289	0.11999995
127	0xbeab4304	-0.33449566
128	0x3e4917d7	0.19638
129	0xbe26ba4b	-0.16282003
130	0x3e90e9cb	0.2830337
131	0x3e8ea04c	0.27856672
132	0x3f02b65b	0.510595
133	0x3f4c55ec	0.79818606
134	0x3da83960	0.082140684
135	0x3e24373d	0.16036697
136	0x3e9a1b79	0.30099085
137	0xbe04e396	-0.12977442
138	0xbd7d517e	-0.061845295
139	0x3dc548d4	0.096330315
140	0xbcb3780d	-0.02190783
141	0xbd85ca9d	-0.06532786
142	0xbe0e1fb6	-0.13879284
143	0xbe24339c	-0.16035312
144	0x3ea81a6e	0.32832664
145	0xbe56d00b	-0.209778
146	0x3e0c2d8d	0.13689251
147	0xbe7f1ea7	-0.24914037
148	0x3dcea6ba	0.10090394
149	0x3e558000	0.2084961
150	0x3dadafea	0.084808186
151	0x3e3ea739	0.18618478
152	0xbe00ed63	-0.12590556
153	0x3e69bc02	0.22825626
154	0x3d955979	0.07292456
155	0xbd4bcb32	-0.04975433
156	0x3d49a4b0	0.049229324
157	0xbd3cabad	-0.04606216
158	0x3ebbe2d1	0.36696485
159	0x3ee1c4d4	0.4409548
160	0xbda5af55	-0.080900826
161	0x3e1a1e39	0.15050592
162	0xbe802b44	-0.2503301
163	0xbec8aacf	-0.39192817
164	0xbe4a89f4	-0.19779187
165	0xbf04a48b	-0.5181357
166	0x3e97a070	0.29614592
167	0xbf284cdb	-0.6574227
168	0xbe8203c3	-0.25393495
169	0x3dfaaf21	0.122404344
170	0xbecea92a	-0.40363437
171	0xbd322527	-0.043492462
172	0x3eb4fe29	0.3535016
173	0x3ee17722	0.44036204
174	0xbdf3447e	-0.11878298
175	0xbe5f86c4	-0.21828753
176	0xbdc8dae5	-0.09807376
177	0x3d996607	0.07490163
178	0x3ed01d7d	0.40647498
179	0xbe4e63fa	-0.20155326
180	0x3d237cf4	0.039914086
181	0x3e65ae30	0.22429729
182	0x3dfd1b96	0.12358777
183	0x3ea2f9ef	0.3183131
184	0xbcd4292f	-0.025898544
185	0x3e37840d	0.17921467
186	0x3dfc49ba	0.1231875
187	0x3e14ec51	0.14543273
188	0x3d01ba3d	0.03167175
189	0x3e76543f	0.24055575
190	0x3e213443	0.15742593
191	0x3bd474c4	0.006483646
192	0x3e8bc78e	0.27300686
193	0xbe882ea7	-0.26598093
194	0x3e90bcc9	0.28269032
195	0xbdb5ce66	-0.08877258
196	0xbdd61b72	-0.104544535
197	0x3dfb0175	0.12256137
198	0x3c233186	0.009960538
199	0xbdb6d330	-0.089269996
200	0xbe3b8171	-0.18311097
201	0xbe1b0847	-0.15139876
202	0xbe8ced2a	-0.27524692
203	0xbe2c7c7e	-0.16844365
204	0x3ed32587	0.4123957
205	0xbe7a66ba	-0.2445325
206	0xbcfa80b8	-0.030578956
207	0xbece259c	-0.4026307
208	0x3e89e523	0.2693263
209	0x3e510463	0.2041183
210	0xbd118cd0	-0.03553468
211	0xbdbb9168	-0.091585934
212	0xbebc6222	-0.3679362
213	0x3e5b27fb	0.2140197
214	0xbb442f6c	-0.0029935492
215	0x3e1b3089	0.15155233
216	0x3e7c650b	0.2464792
217	0x3dfbcf48	0.12295395
218	0xbcdb9dfb	-0.02680873
219	0x3e9adea8	0.30247998
220	0x3e2bc818	0.16775548
221	0x3e6c6f6a	0.23089376
222	0x3e771afe	0.2413139
223	0x3f327784	0.69713616
224	0x3d84bd9a	0.06481476
225	0xbe349953	-0.17636614
226	0x3d6aa0fd	0.057282437
227	0xbec5f411	-0.3866277
228	0x3f103e47	0.5634503
229	0xbe4812ef	-0.19538473
230	0x3d6f0db7	0.05836269
231	0x3ec4aa8d	0.3841137
232	0x3f34ddb2	0.7065078
233	0x3edae74b	0.42754588
234	0xbd2514c2	-0.040303
235	0xbea36045	-0.31909385
236	0x3e510c26	0.2041479
237	0xbd9a9976	-0.075488016
238	0xbe9658ca	-0.29364616
239	0x3ec05311	0.37563375
240	0xbdde6be9	-0.10860426
241	0xbdaf366c	-0.08555302
242	0xbe0c846c	-0.1372239
243	0x3d5ebecc	0.054381177
244	0xbdb51c6e	-0.08843313
245	0x3e186c6b	0.14885108
246	0x3de708da	0.11280985
247	0xbd7447a1	-0.059638623
248	0x3d439567	0.047749903
249	0xbd2e8c99	-0.042614553
250	0xbdc5c4d1	-0.096566804
251	0xbc817f18	-0.015807673
252	0xbc7bab1d	-0.015360621
253	0x3dbcf92e	0.09227215
254	0xbd1369df	-0.03598964
255	0xbdb72747	-0.089430384

fc2.bias f4 [20]
0	0x3df96002	0.12176515
1	0x3e18c77e	0.1491985
2	0xbd8aedce	-0.06783639
3	0xbd708f3e	-0.058730356
4	0x3de64079	0.11242766
5	0xbd1dcfe6	-0.038528346
6	0x3d8aae29	0.067715
7	0x3ea8ef75	0.3299519
8	0xbe3a2e42	-0.18181708
9	0xbdbc6dc4	-0.09200624
10	0x3df3a6ea	0.11897071
11	0xbdad99cd	-0.08476601
12	0x3e284c4f	0.1643536
13	0x3ec0962d	0.37614575
14	0x3e40a1d0	0.18811727
15	0x3e234bdb	0.15946905
16	0xbcd62288	-0.026139513
17	0xbe33d01e	-0.17559859
18	0x3e5c5dff	0.21520232
19	0x3d356b8e	0.044292025

fc3.weight f4 [20, 20]
0	0x3d8f532e	0.06998287
1	0x3ceca971	0.02888939
2	0x3e1883da	0.14894047
3	0xbdafda3f	-0.08586549
4	0xbb619b4a	-0.0034424835
5	0xbd4b86df	-0.04968917
6	0x3e1490d6	0.14508376
7	0xbe6bc233	-0.230233
8	0x3d53567a	0.051596142
9	0xbdb320ea	-0.08746512
10	0xbe0c926c	-0.1372773
11	0x3d342456	0.043979965
12	0x3d2f427b	0.04278801
13	0x3d6bdd89	0.05758432
14	0x3b014e44	0.0019730488
15	0xbe139774	-0.14413244
16	0xbc82daf9	-0.015973555
17	0xbe2670f9	-0.16254033
18	0xbe00e4c3	-0.12587266
19	0x3d61d572	0.055135198
20	0xbe15a005	-0.14611824
21	0x3d80f092	0.06295885
22	0xbd61a2cf	-0.055086907
23	0xbd557f42	-0.052123316
24	0xbdeef6e3	-0.11668184
25	0xbe03d9ba	-0.12876025
26	0x3e0d04e4	0.13771397
27	0x3e1c14b9	0.1524228
28	0xbdb97b48	-0.09056717
29	0xbe2b230b	-0.16712587
30	0xbd8a700e	-0.06759654
31	0x3d651986	0.055932544
32	0xbdfd1a6c	-0.12358555
33	0xbe5a02be	-0.21290109
34	0xbe011bdb	-0.12608282
35	0x3d4024b7	0.046910014
36	0x3da2988e	0.07939254
37	0xbd44ce22	-0.048048146
38	0x3bcac3aa	0.0061878758
39	0x3d0b1909	0.033959422
40	0xbe201284	-0.15632063
41	0xbdd41915	-0.103563465
42	0xbe7336d3	-0.23751383
43	0xbcf8088f	-0.030277519
44	0xbe47a561	-0.19496681
45	0xbe2d82e8	-0.16944468
46	0x3e001aaa	0.12510172
47	0xbc6161f9	-0.013756269
48	0x3e2c5409	0.16828932
49	0xbe517c1b	-0.20457499
50	0xbe786e1f	-0.24260758
51	0xbe40f1cb	-0.18842237
52	0xbe2f31f7	-0.17108904
53	0xbe5e4bb9	-0.21708573
54	0x3dd6acbe	0.10482167
55	0xbe085ff4	-0.13317853
56	0x3e093dde	0.13402507
57	0x3e3be3b7	0.18348585
58	0x3e0dd1a4	0.13849503
59	0x3ce5fd9d	0.028075034
60	0xbe20ef48	-0.15716279
61	0xbe2e56c5	-0.17025287
62	0xbcfc4ce1	-0.030798377
63	0x3e0ed512	0.13948467
64	0xbe62b1ba	-0.2213811
65	0x3dd8f0b4	0.105927855
66	0xbdef4719	-0.11683483
67	0xbd766b8f	-0.06016117
68	0xbd08b16e	-0.033372335
69	0xbe28a28e	-0.1646826
70	0xbe07e10c	-0.13269442
71	0xbc0aff1c	-0.008483674
72	0xbe2d2ac1	-0.1691084
73	0xbe28fd9b	-0.16502993
74	0xbda90e49	-0.08254678
75	0x3d245288	0.04011777
76	0x3d970db5	0.07375661
77	0xbe01abcb	-0.1266319
78	0xbdefbf50	-0.11706412
79	0xbded62a4	-0.1159108
80	0x3f365d97	0.71236557
81	0xbc998964	-0.01874227
82	0xbd8d77fa	-0.06907649
83	0xbf37db1a	-0.718187
84	0xbd1119cd	-0.035424996
85	0x3e1e3453	0.15449648
86	0x3d9c9ae3	0.0764673
87	0x3e033a00	0.12815094
88	0x3f1d571e	0.61461055
89	0x3e58c3af	0.21168397
90	0xbe62edee	-0.22161075
91	0x3f188325	0.5957511
92	0x38a625de	7.92255e-05
93	0x3dca4f54	0.09878412
94	0x3eaa7e27	0.33299372
95	0x3de87e24	0.113521844
96	0x3e8be8a1	0.2732592
97	0x3da5c948	0.08095032
98	0x3e58154a	0.21101871
99	0x3d47f1f4	0.04881473
100	0x3f354640	0.7081032
101	0x3d9b9ceb	0.07598289
102	0x3e409c8b	0.18809716
103	0xbf3028e5	-0.688124
104	0xbbffe761	-0.007809565
105	0x3e78460d	0.24245472
106	0x3eb2267b	0.34794983
107	0x3e646c16	0.22306857
108	0x3eea84f0	0.45804548
109	0x3e99e6bb	0.30058846
110	0xbe4e5be9	-0.20152248
111	0x3f16ffcd	0.5898407
112	0xbd991ea5	-0.07476548
113	0x3e485b17	0.19565998
114	0x3e71ad5a	0.23601285
115	0x3ea523f6	0.32254
116	0x3f0c2c10	0.54754734
117	0x3d18621e	0.037202947
118	0x3e565dd2	0.20934227
119	0x3e3c9ce4	0.18419224
120	0x3f1f1827	0.6214623
121	0x3c52bb8e	0.012862099
122	0xbb4f4c2b	-0.0031631093
123	0xbf1089bc	-0.56460166
124	0xbe0b9531	-0.13631131
125	0x3ec61309	0.38686398
126	0x3ef7a37b	0.48366913
127	0xbda781a2	-0.08179022
128	0x3e72d967	0.23715745
129	0x3be15424	0.0068764854
130	0x3c7a9d82	0.015296342
131	0x3f1d991a	0.6156174
132	0x3d6e2a45	0.05814578
133	0x3bec3713	0.007208714
134	0x3e70a4c3	0.23500352
135	0x3e98ce3f	0.29844853
136	0x3ed46dce	0.41490024
137	0xbe01ad50	-0.1266377
138	0xbce9758a	-0.02849843
139	0x3c959902	0.018261436
140	0x3f747f25	0.9550651
141	0xbe2db13a	-0.16962138
142	0xbdb00dc8	-0.085963786
143	0xbf33b368	-0.7019563
144	0x3e343752	0.17599228
145	0x3e9d5e28	0.30735898
146	0x3e76f8b8	0.24118316
147	0x3e8c0c70	0.2735324
148	0x3ec4d264	0.38441765
149	0x3e85a47b	0.2610205
150	0xbe893451	-0.26797727
151	0x3edebdc8	0.43504167
152	0x3c344b74	0.011004318
153	0x3e0058ec	0.12533921
154	0xbd9d8a11	-0.0769235
155	0x3eb3feaa	0.3515523
156	0x3ee8102a	0.45324832
157	0xbe04bb8d	-0.1296217
158	0x3e16d75b	0.14730589
159	0x3e59ee33	0.21282272
160	0xbf406733	-0.7515747
161	0xbd1fb301	-0.03898907
162	0xbe609d9d	-0.21935125
163	0x3f009ccf	0.5023927
164	0x3ea2ce44	0.31797993
165	0xbebc9718	-0.36834025
166	0xbe0a53dc	-0.13508552
167	0x3e726560	0.23671484
168	0xbe80727c	-0.25087345
169	0xbe128204	-0.1430741
170	0x3e96a087	0.29419348
171	0xbf134257	-0.575231
172	0xbdc1a844	-0.09455922
173	0x3e97e883	0.2966958
174	0x3e4b96d0	0.19881749
175	0x3d7020d1	0.058625046
176	0xbee7159a	-0.45133668
177	0x3e47583f	0.19467257
178	0x3e364498	0.17799604
179	0xbdacb72d	-0.084333755
180	0xbf677af7	-0.90422004
181	0x3d9d6562	0.07685353
182	0x3e8bc7e1	0.27300933
183	0x3f057203	0.52127093
184	0x3cfea290	0.031083375
185	0xbefbd3ce	-0.49185032
186	0xbe88e54b	-0.26737437
187	0x3e54900b	0.20758073
188	0xbebeaec4	-0.3724271
189	0xbd11216e	-0.03543227
190	0x3e77acfe	0.24187085
191	0xbef45c0f	-0.47726485
192	0xbd8c3f8c	-0.06848058
193	0x3e760a7c	0.24027437
194	0x3e0928ae	0.13394424
195	0xbdb36892	-0.087601796
196	0xbe4c9845	-0.19979961
197	0xbe19668e	-0.14980528
198	0xbc932cda	-0.017965723
199	0x3dfa2243	0.12213566
200	0x3f0a9266	0.54129636
201	0x3d4479c3	0.047967684
202	0x3e995813	0.29950008
203	0xbe9478a5	-0.28998294
204	0x3e376245	0.1790858
205	0x3e0e3d46	0.13890561
206	0x3ebd1c3a	0.36935598
207	0x3db303ca	0.08740957
208	0x3e9dd1c2	0.30824095
209	0x3d9f85da	0.07789202
210	0x3c09d76d	0.008413178
211	0x3ecfeac1	0.4060879
212	0xbe318014	-0.17334014
213	0x3df300c1	0.11865378
214	0x3ea0f9a3	0.31440458
215	0x3ecbe472	0.39822727
216	0x3f05c2c1	0.52250296
217	0xbd69bd70	-0.057065427
218	0xbe0084a1	-0.12550594
219	0x3e21768f	0.15767883
220	0x3f529a4d	0.82266694
221	0xbc77a5e7	-0.015115238
222	0x3dcd1ba0	0.10015035
223	0xbead905d	-0.33899203
224	0xbe08af4e	-0.13348123
225	0x3ec59321	0.38588813
226	0x3efb4d29	0.49082306
227	0xbdd59ab3	-0.10429897
228	0x3ed70307	0.41994497
229	0x3e47c3aa	0.19508234
230	0xbe4442a0	-0.1916604
231	0x3f12ae89	0.5729757
232	0xbe330584	-0.17482573
233	0x3deab5bd	0.11460445
234	0x3e956d52	0.29184967
235	0x3e54a2dd	0.20765252
236	0x3f08368f	0.5320825
237	0xbde5af51	-0.112150796
238	0x3e1d4e77	0.15361963
239	0x3e16d739	0.14730538
240	0x3f4ad6af	0.7923383
241	0x3e422163	0.18958049
242	0x3e4060d3	0.18786936
243	0xbeaaf513	-0.33390102
244	0xbe709a16	-0.23496279
245	0x3e91f99c	0.2851075
246	0x3e4cab0e	0.19987127
247	0xbb67acc5	-0.0035350781
248	0x3ed50a36	0.41609353
249	0x3cc4f9c5	0.02404488
250	0xbe18f40b	-0.14936845
251	0x3f3c0bdd	0.734556
252	0xbc24ea11	-0.010065571
253	0x3bc92a04	0.006139042
254	0x3e6460d4	0.22302562
255	0x3dad0663	0.08448484

fc3.bias f4 [20]
0	0xbe7d7680	-0.24752235
1	0x3d3a4de0	0.045484424
2	0xbdc51dd6	-0.096248314
3	0xbcf22e1d	-0.029563004
4	0x3d147196	0.036241136
5	0x3d78b583	0.060719978
6	0x3c06b188	0.008221038
7	0x3e212607	0.15737163
8	0xbdda9307	-0.106725745
9	0x3e668db2	0.2251499
10	0x3e584100	0.21118546
11	0xbd3e37dd	-0.046439994
12	0xbcf990a4	-0.030464478
13	0x3d96177b	0.07328697
14	0x3b1b53e3	0.0023701123
15	0x3dcb6b8a	0.09932621
16	0x3cfc7a71	0.030820103
17	0xbcbdba1a	-0.02316003
18	0xbd268290	-0.040651858
19	0x3de9258f	0.11384117

fc4.weight f4 [20, 20]
0	0x3c1dc8ff	0.009630441
1	0x3d57c604	0.052679077
2	0x3d471995	0.04860838
3	0xbe0eaa03	-0.13932042
4	0x3bedaa53	0.0072529702
5	0xbe0e81ec	-0.13916749
6	0xbe908dce	-0.28233188
7	0xbe2de9af	-0.16983674
8	0x3ecee556	0.40409344
9	0x3e1fa6da	0.15590993
10	0x3dcd458e	0.10023032
11	0xbe4aec4b	-0.19816701
12	0xbe8fed89	-0.28110912
13	0x3d14b4bd	0.036305178
14	0xbe8d5055	-0.2760035
15	0x3e71fb8c	0.23631114
16	0x3e1fcb2b	0.15604846
17	0x3e32726e	0.17426464
18	0x3e94f358	0.29091907
19	0x3ec1dddd	0.3786458
20	0xbe2f818a	-0.17139259
21	0x3de85b82	0.11345579
22	0xbdeee6b8	-0.116651
23	0xbe0b4710	-0.13601327
24	0xbcdd7c58	-0.02703683
25	0x3e6c5399	0.23078765
26	0xbc85b8e5	-0.016323516
27	0x3ea3b3f1	0.31973222
28	0x3e95ad0a	0.2923358
29	0x3e891054	0.2677027
30	0x3e46c7a7	0.19412099
31	0x3e002cf9	0.12517156
32	0x3d883d3f	0.06652307
33	0x3e1ae6f2	0.15127161
34	0xbea93382	-0.3304711
35	0x3e1254d9	0.1429018
36	0x3e8d97f0	0.27654982
37	0xbe2fb4a3	-0.17158751
38	0x3f082281	0.5317765
39	0x3ecc54c0	0.3990841
40	0xbd3d24a0	-0.046177506
41	0x3d9789ed	0.07399354
42	0xbe00ac4d	-0.12565728
43	0xbd72af23	-0.059249055
44	0x3ebc8d55	0.36826578
45	0x3d7ac0b9	0.06121895
46	0x3ed68f79	0.41906336
47	0x3e2ff09e	0.17181632
48	0xbe65118a	-0.22369972
49	0xbcbc3ec9	-0.022979157
50	0x3e913f8d	0.28368798
51	0x3ec36410	0.3816228
52	0x3d3a402f	0.045471366
53	0x3dc60a96	0.09669988
54	0x3ed9d374	0.42544138
55	0xbea2692f	-0.31720874
56	0x3e01e862	0.12686303
57	0x3d277bbe	0.040889494
58	0xbe5922a7	-0.21204625
59	0xbe93befb	-0.28856644
60	0xbcdc50f9	-0.02689408
61	0x3e4bba47	0.19895278
62	0x3d30261a	0.043005086
63	0x3b5edf10	0.0034007467
64	0x3e9e5bc4	0.30929387
65	0x3e2bc965	0.16776045
66	0x3f043c15	0.5165418
67	0x3ea32647	0.3186514
68	0xbe7cdf40	-0.24694538
69	0xbe80e4c0	-0.25174522
70	0x3e5715b9	0.2100438
71	0x3ecb5dc1	0.39719966
72	0x3ebdf271	0.3709903
73	0x3e69605b	0.22790663
74	0x3f0de58d	0.5542839
75	0xbe979d47	-0.2961218
76	0xbe4689e3	-0.19388537
77	0x3c43e1f2	0.011955725
78	0xbebeeffa	-0.37292463
79	0xbeccf102	-0.40027624
80	0x3dc0deeb	0.09417518
81	0xbe546ebb	-0.20745365
82	0xbe105b5d	-0.14097352
83	0x3e095026	0.1340948
84	0x3daa09b8	0.08302635
85	0x3dcde2a6	0.100529954
86	0xbebbf305	-0.36708847
87	0x3ca9ffbb	0.020751825
88	0x3eb7df08	0.35912347
89	0x3e35d573	0.17757206
90	0x3e25ec69	0.16203465
91	0xbe9b425d	-0.3032407
92	0x3d4ccd04	0.050000206
93	0x3e450dd4	0.19243556
94	0xbf0745c3	-0.5284082
95	0x3e8e3db7	0.2778146
96	0x3e8b83b0	0.27248907
97	0x3ac38366	0.0014916479
98	0x3ee780c2	0.45215422
99	0x3e21d5cf	0.15804218
100	0xbc239993	-0.009985345
101	0x3b85723c	0.0040724557
102	0x3ce69985	0.028149376
103	0xbe22f32f	-0.1591308
104	0xbd07f01a	-0.033187963
105	0xbe168aea	-0.14701429
106	0xbe9f54a1	-0.31119254
107	0x3da35e0d	0.07976923
108	0x3f043f48	0.5165906
109	0x3ebc43d6	0.36770505
110	0x3e50cc00	0.2039032
111	0xbe46e779	-0.19424237
112	0xbdcffc4f	-0.10155546
113	0x3dd97e33	0.10619774
114	0xbefd5e8e	-0.49486202
115	0x3f089394	0.53350186
116	0x3eb9f8a4	0.3632251
117	0xbe07d904	-0.13266379
118	0x3e456333	0.19276123
119	0x3f0b8cec	0.54511905
120	0xbdb31229	-0.08743698
121	0xba63e054	-0.000869279
122	0xbcf58615	-0.029971162
123	0x3ce9165e	0.028453048
124	0x3bb919da	0.0056488337
125	0xbe4c153f	-0.1992998
126	0x3e29fe5a	0.16600934
127	0xbe420b80	-0.189497
128	0x3e3dadb7	0.18523298
129	0x3e5fd31c	0.21857876
130	0x3e47c32b	0.19508044
131	0x3d79427e	0.060854428
132	0xbdb9a925	-0.09065465
133	0xbe0a45cb	-0.13503186
134	0x3ccf8797	0.025333209
135	0xbc2508be	-0.010072885
136	0x3dfd7b1b	0.12376996
137	0xbb85fe52	-0.0040891552
138	0xbe311371	-0.17292573
139	0xbe2de143	-0.16980462
140	0x3d2487e5	0.04016866
141	0x3df65a85	0.12028984
142	0xbe2787f2	-0.16360453
143	0xbe07f326	-0.13276348
144	0x3e960956	0.29303998
145	0x3e953e60	0.2914915
146	0x3ec1b5db	0.37834057
147	0x3e03f534	0.12886506
148	0xbe726587	-0.23671542
149	0xbda42eeb	-0.080167614
150	0x3e1281d6	0.14307341
151	0x3eb472a8	0.35243726
152	0x3ebf75f8	0.3739469
153	0x3e94099c	0.2891358
154	0x3e7dac64	0.24772793
155	0xbe3fc217	-0.18726383
156	0x3d9d6f74	0.076872736
157	0xbd750df6	-0.059827767
158	0x3c984969	0.018589692
159	0xbd96d1df	-0.073642485
160	0xbd8155a7	-0.06315165
161	0xbe2eb26b	-0.17060249
162	0x3e11e9d8	0.1424936
163	0x3d40a9fc	0.04703711
164	0x3e089179	0.13336743
165	0x3e6d6cb3	0.23185997
166	0x3db575f3	0.08860388
167	0x3d8db6e1	0.06919647
168	0xbb8a82aa	-0.004227002
169	0xbe083aea	-0.13303724
170	0x3e5dafe0	0.21649122
171	0x3ec85808	0.39129663
172	0x3e8ed69e	0.27898115
173	0x3eacb29e	0.33730024
174	0x3eeb6d7d	0.4598197
175	0xbe98f82d	-0.29876843
176	0x3e51b08f	0.20477508
177	0x3e6be784	0.23037535
178	0xbe450773	-0.19241123
179	0xbd15a332	-0.03653259
180	0xbd9af415	-0.07566086
181	0xbe43d471	-0.19124009
182	0x3e54b4be	0.20772073
183	0xbdf27677	-0.118390016
184	0x3dbe5bf5	0.09294883
185	0xbe25bc69	-0.16185154
186	0xbd08cd45	-0.033398885
187	0x3df4f1e6	0.11960201
188	0x3dbdcacf	0.09267198
189	0xbe3e7491	-0.18599154
190	0xbe641054	-0.22271854
191	0x3e4412e6	0.19147834
192	0xbca74b30	-0.020421594
193	0x3b70ff5a	0.0036773295
194	0xbdd94357	-0.10608547
195	0x3dc38751	0.09547294
196	0xbc927f9c	-0.017883115
197	0x3e500a48	0.20316422
198	0xbd68e407	-0.05685809
199	0xbcd33247	-0.02578081
200	0x3e06708f	0.13128875
201	0x3dcef304	0.10104945
202	0xbe333e68	-0.17504275
203	0x3e2b0270	0.16700149
204	0xbeb249fa	-0.34822065
205	0xbd2cc2b9	-0.04217789
206	0xbef39de1	-0.4758139
207	0x3d4b58dd	0.049645294
208	0x3ed6988c	0.4191326
209	0x3e87b525	0.2650539
210	0x3deb2cff	0.11483192
211	0xbeb3d637	-0.3512437
212	0xbe2d0947	-0.1689807
213	0xbdd5065a	-0.10401602
214	0xbe82c001	-0.25537112
215	0x3ea6dfb0	0.32592535
216	0x3e247c70	0.16063094
217	0x3e228116	0.15869555
218	0x3ed4acd6	0.41538113
219	0x3eb9ddad	0.36301938
220	0x3d4e0382	0.050296314
221	0x3c8a2390	0.01686266
222	0xbe1cbb68	-0.15305865
223	0x3e1d0cd8	0.15336931
224	0xbe4ab93d	-0.19797225
225	0xbd7f8124	-0.062379017
226	0x3dcce6f3	0.100049876
227	0xbd0f6fe3	-0.035018813
228	0xbe2a836d	-0.16651697
229	0xbe71717c	-0.23578447
230	0xbca9a3a4	-0.020707913
231	0xbe5de1e2	-0.21668199
232	0xbe2956eb	-0.16537063
233	0xbdac86c9	-0.08424146
234	0x3e2efab2	0.1708782
235	0xbd836dd3	-0.06417432
236	0x3c8969fa	0.016774166
237	0x3ad4f108	0.0016246149
238	0x3e15e636	0.146386
239	0x3e2de480	0.16981697
240	0x3e2f3702	0.17110828
241	0x3e11af8f	0.14227127
242	0xbdd39218	-0.103305995
243	0x3d2bc602	0.04193688
244	0xbd497b64	-0.04918994
245	0xbdb44fbe	-0.08804272
246	0xbee6a4c7	-0.4504759
247	0xbde9068e	-0.11378203
248	0x3e9e07ac	0.30865228
249	0xbd431408	-0.047626525
250	0x3e1487af	0.14504884
251	0xbd8acf6f	-0.06777846
252	0xbe9fc761	-0.31206802
253	0x3c7b4e3d	0.015338478
254	0xbf00d08a	-0.50318205
255	0x3f0dce80	0.5539322

fc4.bias f4 [20]
0	0x3c20185f	0.0097714355
1	0x3deb3145	0.11484007
2	0x3dd06e36	0.10177271
3	0xbcb8b0b3	-0.022545194
4	0xbdece812	-0.115677014
5	0x3d520f9c	0.051284418
6	0xbc815abd	-0.015790338
7	0x3ca3efeb	0.020011863
8	0x3d368a5d	0.044565547
9	0xbe3d97f4	-0.18514997
10	0x3e767c18	0.24070776
11	0x3e4284da	0.18995991
12	0xbe037ff7	-0.12841783
13	0xbdeb6afb	-0.11495014
14	0xbd51050c	-0.051030204
15	0x3bcd7ec4	0.006271215
16	0x3d8bd563	0.0682781
17	0xbe622414	-0.22084075
18	0xbe17db32	-0.1482971
19	0x3d47d8d8	0.048790783

fc5.weight f4 [20, 20]
0	0x3e8d4df2	0.2759853
1	0x3e19ff6a	0.15038839
2	0xbe93c8fd	-0.2886428
3	0xbefa7d5c	-0.48923767
4	0x3e0b9d11	0.13634135
5	0x3c6510dc	0.01398107
6	0x3d9bcf65	0.07607917
7	0x3b86919e	0.0041067144
8	0x3e1f3cbc	0.15550512
9	0x3e643815	0.22287019
10	0x3eaf8c85	0.34286895
11	0x3e03998a	0.12851539
12	0x3d2b2501	0.041783337
13	0x3d596391	0.05307347
14	0x3c7536c3	0.0149666695
15	0xbe5a1f7c	-0.21301073
16	0xbdc51a42	-0.09624149
17	0xbdcc83b7	-0.0998606
18	0xbeb5aa81	-0.35481647
19	0x3e46c7e2	0.19412187
20	0x3d89a187	0.06720262
21	0x3d74fb15	0.059809763
22	0xbd86c033	-0.06579628
23	0xbc1e8564	-0.0096753575
24	0xbe4ba5b9	-0.19887437
25	0xbca327e8	-0.01991649
26	0xbc8316a1	-0.016002001
27	0x3d7bb216	0.061449133
28	0x3d8fa22b	0.07013353
29	0x3dc99cd6	0.09844367
30	0xbdbd447a	-0.092415765
31	0xbd809dd6	-0.06280105
32	0x3e2079fc	0.15671533
33	0xbc62c1c7	-0.013840145
34	0x3df54d94	0.119776875
35	0xbd4fb812	-0.050712653
36	0xbd90868e	-0.07056914
37	0xbd1eef70	-0.038802564
38	0xbe5b0b63	-0.21391062
39	0xbcd14fca	-0.025550742
40	0xbe6eb3e6	-0.23310813
41	0xbdb0a2e9	-0.08624823
42	0xbe4e9e1e	-0.20177504
43	0xbe19400c	-0.14965838
44	0x3c38109d	0.01123443
45	0x3ddd8b45	0.10817579
46	0x3e5b3366	0.21406326
47	0x3e3663de	0.17811534
48	0x3dc7fe68	0.09765321
49	0x3e240c0e	0.16020223
50	0xbc74aec1	-0.014934243
51	0x3da4426b	0.08020481
52	0xbccedc20	-0.025251448
53	0xbd50f5d8	-0.051015705
54	0x3e6462c1	0.22303297
55	0xbe2763c8	-0.16346657
56	0xbb233e52	-0.0024908972
57	0xbc5c5cc1	-0.013449849
58	0x3db6a7fe	0.08918761
59	0x3e47f8a5	0.19528444
60	0xbe2e64af	-0.17030595
61	0xbe441ff7	-0.19152819
62	0x3e3d2973	0.18472843
63	0x3dc40c14	0.09572616
64	0xbe4a98e6	-0.19784889
65	0x3e0c9ed7	0.13732468
66	0x3e007d81	0.12547876
67	0xbe2eb845	-0.17062481
68	0xbdc94b9a	-0.09828873
69	0xbdc6adf7	-0.0970115
70	0x3d83edb2	0.06441821
71	0x3e10eb88	0.14152348
72	0xbd27feb7	-0.0410144
73	0x3e576caf	0.21037553
74	0x3d2160cf	0.039398964
75	0xbcc78812	-0.024356876
76	0x3d573ce8	0.05254832
77	0x3dd8a520	0.1057837
78	0x3e45374e	0.19259378
79	0x3e621691	0.22078921
80	0xbe5e4cee	-0.21709034
81	0x3e1977bd	0.14987083
82	0xbdce4169	-0.1007107
83	0x3d9cb884	0.07652381
84	0x3d9f31c3	0.07773163
85	0xbdf76f6a	-0.120817974
86	0x3d3e6050	0.04647857
87	0xbe68d550	-0.22737622
88	0x3e4f328b	0.20234124
89	0x3d3ba35a	0.04581008
90	0x3e09c27d	0.13453098
91	0x3e221e66	0.15831909
92	0xbe457061	-0.1928115
93	0x3e3962ff	0.1810417
94	0xbd1ade5a	-0.037809707
95	0xbdcd89f7	-0.1003608
96	0xbdf64ac9	-0.12025983
97	0x3e507b58	0.20359552
98	0xbca42c0b	-0.020040533
99	0x3d6d0809	0.05786899
100	0x3e56c890	0.20974946
101	0x3e080a91	0.13285281
102	0xbe7aa229	-0.24475922
103	0xbd2c7015	-0.042099077
104	0x3e9e8af5	0.3096539
105	0x3e7bb9b3	0.24582557
106	0x3cbd64f3	0.023119425
107	0x3e566cb4	0.20939904
108	0x3dc014f1	0.09378994
109	0xbe55500e	-0.2083132
110	0x3e7370f8	0.23773563
111	0xbca517c1	-0.020152928
112	0x3e6ccefd	0.23125835
113	0xbe520221	-0.20508625
114	0x3e31a5bd	0.1734838
115	0xbcdd7aa7	-0.027036024
116	0x3c432135	0.011909773
117	0x3e37f249	0.17963518
118	0xbd1b44dd	-0.03790747
119	0xbd69f711	-0.057120387
120	0xbe6b6f44	-0.22991663
121	0x3dc4f66c	0.09617314
122	0x3eff04d9	0.49808386
123	0x3ee6b8c6	0.45062846
124	0xbdee5dbb	-0.116389714
125	0xbd57b598	-0.052663416
126	0xbe2cc0a7	-0.16870366
127	0x3ec1c9a7	0.3784916
128	0x3e03c488	0.1286794
129	0x3d1dadb2	0.038495727
130	0xbe9e3850	-0.30902338
131	0x3cbb9723	0.022899216
132	0xbe1d55ae	-0.15364715
133	0x3e5ed519	0.21760978
134	0x3e1342f4	0.1438101
135	0x3e918f04	0.28429425
136	0xbe034b85	-0.12821777
137	0x3e3eb130	0.18622279
138	0x3ecb58de	0.39716238
139	0x3d2ff0d6	0.04295429
140	0xbd5b723d	-0.053575743
141	0x3e51bccb	0.20482175
142	0xbda32e06	-0.07967763
143	0x3d7b43f1	0.06134409
144	0xbd8b1dfb	-0.06792828
145	0xbc881396	-0.016610902
146	0xbd653c11	-0.055965487
147	0xbd30b830	-0.043144405
148	0xbe627882	-0.22116283
149	0x3d90f73d	0.07078407
150	0xbd9efd8b	-0.07763203
151	0x3e640d9a	0.22270814
152	0x3cf59cab	0.029981932
153	0xbe1affb4	-0.15136606
154	0xbbbfd689	-0.005854432
155	0x3d868762	0.06568791
156	0xbe61dc3b	-0.22056668
157	0x3ddc00a4	0.1074231
158	0xbceda763	-0.02901048
159	0xbe4cc820	-0.19998217
160	0x3ca7d222	0.020485941
161	0xbced1175	-0.028938988
162	0xbddd5670	-0.10807502
163	0x3df267ca	0.118362024
164	0x3ce9aa9e	0.02852374
165	0xbdb0ec0c	-0.08638772
166	0xbddc0c33	-0.10744514
167	0x3d689ce5	0.05679025
168	0xbdd7c609	-0.10535819
169	0x3d9c02f8	0.07617754
170	0xbe5bf680	-0.21480751
171	0xbb172728	-0.002306411
172	0xbd4a6e5b	-0.04942165
173	0x3d49c9d6	0.04926475
174	0xbd9c9fdf	-0.076476805
175	0xbcdcbc58	-0.026945278
176	0x3e156ba5	0.14591844
177	0xbe519063	-0.20465235
178	0xbe5bde14	-0.21471435
179	0xbe209e64	-0.15685421
180	0x3e646190	0.22302842
181	0x3e518637	0.20461355
182	0xbebc0f74	-0.3673054
183	0xbf0046eb	-0.5010821
184	0xbc0ffc79	-0.0087882215
185	0x3e5d4974	0.21610051
186	0xbd2d3eb4	-0.042296126
187	0xbe62cbf6	-0.22148117
188	0xbe5d7edc	-0.21630424
189	0x3ddca802	0.107742324
190	0x3ec74379	0.38918665
191	0x3e3436f9	0.17599095
192	0x3ee2319b	0.4417847
193	0x3dfa0f9c	0.122100085
194	0xbe4a4e9f	-0.19756554
195	0xbe79e625	-0.244042
196	0xbda7f564	-0.082011014
197	0xbd4b392b	-0.049615066
198	0x3d9d01fc	0.07666394
199	0xbd8c95ae	-0.06864487
200	0xbe97c6ad	-0.29643765
201	0x3e3c2e92	0.1837714
202	0x3eafc798	0.34331965
203	0x3f1646ea	0.58701956
204	0x3dab7f71	0.08373917
205	0x3da68b48	0.081320345
206	0xbc1fc466	-0.009751415
207	0x3ec0555e	0.3756513
208	0x3ec16b83	0.37777337
209	0x3e4a25aa	0.1974093
210	0xbd901725	-0.070356645
211	0xbddea854	-0.1087195
212	0xbe9742f7	-0.29543278
213	0xbe4a3b96	-0.19749293
214	0xbe210a49	-0.1572658
215	0x3ed25c22	0.41085917
216	0xbe3a6bf4	-0.18205243
217	0x3e5a2627	0.21303616
218	0x3ea477c0	0.32122612
219	0xbcac54d7	-0.021036549
220	0x3e98dc7c	0.29855716
221	0x3e8673ff	0.26260373
222	0xbe32f374	-0.17475682
223	0xbee7b76d	-0.4525713
224	0x3e958bf5	0.2920834
225	0x3eb46de5	0.35240093
226	0x3e1ca7b0	0.15298343
227	0x3c7c428e	0.015396727
228	0x3d43fbc6	0.04784753
229	0xbe0a5933	-0.1351059
230	0x3ed341b5	0.41261068
231	0x3e670bf8	0.2256316
232	0x3e4821ae	0.19544098
233	0x3be7ac9c	0.007070137
234	0xbdb31efb	-0.087461434
235	0x3dfacc1d	0.12245963
236	0x3d7f3419	0.062305544
237	0x3e64ab61	0.22331001
238	0xbe88a5d0	-0.26689005
239	0x3e1b4cdd	0.1516604
240	0xbca66e0b	-0.020316144
241	0xbd2b5af1	-0.041834775
242	0xbc9c440b	-0.019075414
243	0xbe0a6fdc	-0.13519233
244	0xbe34928e	-0.17634031
245	0xbd92cfdd	-0.07168553
246	0xbe2efd71	-0.17088868
247	0xbd42cf88	-0.0475612
248	0xbd5e7ace	-0.054316334
249	0xbd93a449	-0.07209069
250	0x3dccd39e	0.100013
251	0xbdd04323	-0.10169055
252	0xbbadbf31	-0.005302333
253	0x3e51cb0c	0.20487612
254	0x3c9ff987	0.019528164
255	0xbe520abf	-0.20511912

fc5.bias f4 [20]
0	0x3e6fa847	0.23404036
1	0xbe584bed	-0.21122713
2	0xbe09bd49	-0.13451113
3	0xbe177547	-0.14790832
4	0xbcb15d6e	-0.021650996
5	0x3d9f6441	0.07782794
6	0xbe84fcf4	-0.25974238
7	0xbe387af8	-0.18015659
8	0xbe155d81	-0.1458645
9	0xbd1e5e00	-0.038663864
10	0x3e49c219	0.19702949
11	0x3eafe92f	0.34357592
12	0x3e01d20e	0.12677786
13	0x3d63d1e4	0.05562009
14	0xbe1546e4	-0.14577824
15	0xbd2e67a6	-0.042579316
16	0x3e3bb723	0.1833158
17	0xbe0a2d28	-0.13493788
18	0xbd335f1a	-0.043791868
19	0xbdf8997b	-0.12138649

fc6.weight f4 [3, 20]
0	0xbec72d5e	-0.389018
1	0xbcde972c	-0.027171694
2	0x3dd4f072	0.10397424
3	0x3dca7dc2	0.09887268
4	0xbdc7fe60	-0.09765315
5	0xbda3a147	-0.079897456
6	0x3e9a0e7a	0.3008917
7	0xbe56956e	-0.2095544
8	0x3e40d000	0.18829346
9	0xbf321bcc	-0.69573665
10	0x3e78eb53	0.24308519
11	0xbbbe9560	-0.0058161467
12	0xbd194782	-0.03742171
13	0xbced4b98	-0.02896671
14	0xbca58053	-0.020202791
15	0xbd89b295	-0.06723515
16	0x3f21e4e1	0.63239866
17	0xbd6d38ca	-0.057915486
18	0xbedb46c8	-0.4282744
19	0x3eb59064	0.35461724
20	0xbeb315c5	-0.34977546
21	0x38afdde3	8.38598e-05
22	0x3dab2fcc	0.08358726
23	0xbe432379	-0.190565
24	0x3dd98dbd	0.106227376
25	0xbf210ac8	-0.62907076
26	0xbe8dce20	-0.27696323
27	0xbe5f63ed	-0.21815462
28	0x3a28d817	0.00064408913
29	0xbe92cb07	-0.28670523
30	0xbf2129c2	-0.6295434
31	0xbeccdaf7	-0.40010807
32	0x3d09f5b8	0.0336816
33	0x3e07676e	0.13223049
34	0xbdf29fa0	-0.11846852
35	0xbd14379e	-0.036185853
36	0xbee3f76b	-0.44524702
37	0xbe3d2246	-0.18470106
38	0xbe82c1c7	-0.25538465
39	0xbf1e3933	-0.6180603
40	0x3f105759	0.5638328
41	0x3c0bdacd	0.008536053
42	0xbe3bcfea	-0.18341032
43	0x3e5df351	0.21674849
44	0x3e22fb78	0.1591624
45	0xb8d28b41	-0.000100395184
46	0xbd4f3667	-0.05058899
47	0x3ce95609	0.028483408
48	0x3e5fe1dc	0.21863502
49	0x3ef223f9	0.4729307
50	0xbe304802	-0.17214969
51	0x3e71fb4e	0.23631021
52	0x3d4eb63a	0.050466754
53	0xbbcaec90	-0.006192751
54	0x3e29d2d1	0.16584326
55	0xbbfc0bca	-0.007691835
56	0xbeb77ffb	-0.3583983
57	0xbdab4138	-0.08362049
58	0x3efa8411	0.48928884
59	0x3d92ba6a	0.07164462

fc6.bias f4 [3]
0	0x3d5c3794	0.05376394
1	0xbe5e2009	-0.21691908
2	0x3da55c02	0.0807419
