models_3val/xor_and_7.pth (torch, 12178 bytes, 12 tensors)

fc1.weight f4 [20, 12]
00000000: 2d24 ce3d 7f77 a23e 2b09 453e 4ac3 9fbd
00000010: bdd3 bf3e 93cc ee3e ce79 91bd d12e 3abc
00000020: 259b 903e c168 873e 0ec8 52bd b06f bbbd
00000030: 8392 62be cc85 c93b 3740 803e 1e9e 183e
00000040: 9f1a 223e 24a1 ca3d b313 0fbe eb89 a03e
00000050: 2b2d 9dbe 8793 e93d 692e 7a3e ed15 bdbc
00000060: 4192 06be 25a5 333c 506b af3b 4be9 213e
00000070: 066e 003f b354 903e 84f0 793e 8862 fb3d
00000080: 9708 9d3e 6fe3 873d 6db6 9b3d 61a2 603e
00000090: 026c 12bd 0be8 5d3e ed98 b93e bd14 0b3e
000000a0: 9055 293e 93aa 773e c165 83be b291 d8bd
000000b0: 03bc 993c f95f 17bd a855 97bc b198 973d
000000c0: c392 e0bc 8ebd 9cbc 4d64 ff3c 919e 863d
000000d0: 4710 16bf f41c 16bf 2d42 9b3e d866 073b
000000e0: fcbe d03a cf3d 853c b68e 253c b477 583c
000000f0: 9b33 cabd 5a63 b8bd 1dab 99bd d962 13be
00000100: e52e be3e edb3 be3e 1575 6ebe 6e4c ae3d
00000110: cd4a a53d a407 87bd 4704 473e 6c0b bc3b
00000120: a606 6c3e 5462 643e 276d 1bbe a489 f3be
00000130: ef9f 6abb 840c d9be 1d68 d9bd cb85 92bc
00000140: 34a1 d63a 492e b13c 10fb cf3b 7b66 13bc
00000150: 7287 99be 164a 9dbe 7ee2 aebd 5ca0 c93d
00000160: 7500 e13e be76 db3e 9d53 25bd 0299 ddbd
00000170: 2925 d53d 21d0 523e 7c15 453d b109 85bd
00000180: 1f1a b0bc 84b0 a4bc 2693 903d fdd6 cebe
00000190: b64e 00be 071e d1be 042b ee3e df04 f5ba
000001a0: 2e28 8aba 9703 bb3b 87b8 193c 09f2 d73c
000001b0: 0078 dfbd c6a5 05be 6627 463d 4ea2 2cbe
000001c0: 7169 8f3e 574c 303e 93ad bdbe edfa fa3d
000001d0: e28f 8fbd 3da2 7b3d 3d42 10bd 7af1 ac3d
000001e0: b370 a2bd bc54 933e c385 853d 750d 733d
000001f0: f139 9c3e 83dd c73e d53f 993e 363c 073e
00000200: e820 e0bc 88c9 55bd 23e4 153e a052 253b
00000210: caf6 a53d 6e88 a33d 30e1 bfbe f5f5 f33d
00000220: 4037 2cbd 765f f63d 81ef c0be b119 a5bb
00000230: 44b3 1cbc 5775 d23c 318d 0f3d 7153 db3d
00000240: afbc 853e 76ab 4cbd a2c5 e33d 4b43 a6bd
00000250: 1fd7 c33e 6bf0 863e f495 9e3e d935 473e
00000260: d83e 15be 4079 b63e ea70 e13d 021b 963e
00000270: e781 6c3e 2387 3dbd 9c57 6f3e 5ca3 853e
00000280: 6b15 fa3e 1a1b 48be 8b46 a8bd 59eb 233e
00000290: 339a d73b 26c7 08bd 3eb5 023e 5446 953e
000002a0: 0a0a 7a3e 11de 563e e43a 7e3d 11ff 09bd
000002b0: b59b fdbe c015 fb3e 0d54 9fbd 0058 afbd
000002c0: 3dfa df3e a097 a73e a51a 553e 7d6d 983e
000002d0: 8209 9c3e 7a23 b53d 1d8d f63d 8448 9f3e
000002e0: 5bbb 443e aad4 b7bd 9a2c 63be b633 983e
000002f0: d62b 803e 04a9 8f3e 30f1 893e 2be7 2dbe
00000300: 2dbc 043e 761c 223e 934b 063e ff38 883e
00000310: cdf2 eb3e 7dbc 8e3d c4ef a33e 0829 68be
00000320: 8e0b ec3d da6e 283d fbfa 95bd 2981 d43d
00000330: 496b 173e 30a3 66be 9ae2 723e 286b 813c
00000340: ac23 16bd f466 c23e 41f1 a53e 8f92 9d3e
00000350: 4ef5 03bd e287 b6bd e3cb ae3e 61d5 b03c
00000360: ed05 213a a41e bcba 1909 4d3d 51ef 483d
00000370: 75bc d93e 34b7 e23e dfd7 f2be 10fb 75ba
00000380: 73ef a7ba 67e5 8a39 3ee4 27ba 8d19 62ba
00000390: e322 543e 0988 703e 8ef3 94bd 86ac 86bc
000003a0: 5996 703c b0ed adbd 817b 94bd 98d4 5e3e
000003b0: adbf 933e f17c e4bc 0780 9cbc bd41 9a3e
0.10065494 0.31731793 0.19241779 -0.0780092 0.3746623 0.46640453 -0.071033105 -0.011363701
0.28243366 0.26447108 -0.05146032 -0.09152162 -0.22126202 0.006149983 0.25048992 0.14904067
0.15830468 0.098940164 -0.13972358 0.31355223 -0.30698523 0.11405092 0.24431767 -0.023081744
-0.13141729 0.0109646665 0.005353369 0.1581165 0.5016788 0.2818962 0.24408156 0.12274653
0.30670616 0.066351764 0.07603154 0.21936943 -0.035747536 0.21670549 0.36249486 0.1358213
0.16536546 0.24186163 -0.2566357 -0.10574664 0.018766409 -0.03695676 -0.018473461 0.074021704
-0.027413731 -0.019133355 0.031175757 0.06573213 -0.5861859 -0.5863793 0.30323926 0.0020660665
0.0015926058 0.016264824 0.010104826 0.013212133 -0.09873124 -0.09003325 -0.075033404 -0.14393176
0.37145153 0.37246647 -0.23286851 0.085106716 0.08070908 -0.06593254 0.19435225 0.0057386663
0.23049411 0.22303134 -0.15178357 -0.4756595 -0.0035800894 -0.4239236 -0.10615561 -0.017886063
0.0016374947 0.021628516 0.0063470677 -0.008996601 -0.2998615 -0.30720586 -0.08539294 0.09845039
0.4394566 0.4286403 -0.040362943 -0.108201995 0.10407478 0.20587207 0.048116192 -0.06495989
-0.02149683 -0.0201037 0.07059316 -0.40398398 -0.12530026 -0.40843222 0.46517193 -0.0018693468
-0.0010540539 0.005707215 0.009382374 0.026360529 -0.1091156 -0.13051519 0.048377417 -0.1685879
0.28010133 0.17216621 -0.3704649 0.122548915 -0.07009865 0.06143402 -0.03521942 0.084444955
-0.07931652 0.28775585 0.06519654 0.059339006 0.30512956 0.39036188 0.29931512 0.13206562
-0.02735944 -0.05219415 0.14637809 0.002522625 0.08103712 0.07985006 -0.37476492 0.11912147
-0.042044878 0.120299265 -0.37682727 -0.005038463 -0.009564225 0.025690718 0.03504676 0.107092746
0.26120517 -0.049968205 0.1112168 -0.08118304 0.38250062 0.263553 0.3097378 0.19454135
-0.14574754 0.3563938 0.11007865 0.2931748 0.23096429 -0.046271455 0.23373264 0.26101196
0.48844466 -0.19541588 -0.0821658 0.16007747 0.0065796613 -0.033393048 0.12764451 0.2915522
0.24417892 0.20983149 0.06206788 -0.033690516 -0.49532858 0.4904003 -0.07779703 -0.085617065
0.43745604 0.32732868 0.20810945 0.29771033 0.30476004 0.08844657 0.12038634 0.31110013
0.19212095 -0.08976109 -0.22184983 0.29726952 0.25033444 0.28058636 0.26941824 -0.16982715
0.12962408 0.1583117 0.13114767 0.26605985 0.4608368 0.06969545 0.32018864 -0.22671902
0.115256414 0.04112134 -0.07323261 0.10376198 0.1478702 -0.22523189 0.23719254 0.015798166
-0.036655113 0.37969172 0.32410625 0.30775878 -0.032216363 -0.08912636 0.34139928 0.021586122
0.00061425456 -0.0014352393 0.050057504 0.049056355 0.42526594 0.44280398 -0.47430322 -0.00093834195
-0.001281245 0.0002649233 -0.0006404555 -0.0008625023 0.20716433 0.23489393 -0.07273017 -0.016439687
0.014684283 -0.08492601 -0.07250119 0.21760786 0.28857175 -0.027891608 -0.019104017 0.3012828

fc1.bias f4 [20]
00000000: 90b8 aa3e abfb 093f f5d9 5e3d 0a08 12bc
00000010: 4d45 a03e 1664 983e 4b27 043d 4e02 ed3d
00000020: de5a e83d cd19 2f3e 3137 c03a b301 893e
00000030: 26fc a83e 007a e03e 163f c23e 5214 ff3d
00000040: 8b08 85bc b2fa 063e d508 a83b 0e1e 0b3e
0.33343935 0.5389964 0.05440708 -0.0089130495 0.31302872 0.2976386 0.032264035 0.11572705
0.113454565 0.17099686 0.0014664886 0.2675911 0.33004874 0.4384308 0.37938756 0.12455048
-0.016239425 0.1318157 0.005128006 0.13585684

fc2.weight f4 [20, 20]
00000000: febf ffbd 3d2e 803e f7ca 2fbe 0f1d 313e
00000010: 5a3e 183f 6cc6 a13d 657f 493e 9d3f 9b3d
00000020: 9612 903e 34c5 0dbe a99f 1abe 6c39 e93b
00000030: 6f5e 203e 6399 a93e 654a 5c3e 6c42 adbd
00000040: d0a4 11be 946e 24bc 70ab b03e 3ba8 263e
00000050: bdcd 7f3d 9c8a c7bb 4a0b 133d 03ec 3dbd
00000060: cc88 88bd b5b3 0f3e 60f8 8ebe f3a4 743c
00000070: 46af 36bb d1e3 5fbe 3e1c 0b3e 1308 5b3d
00000080: 0e70 6a3d 508a 0abe 3daa d4bd ab76 4d3c
00000090: e410 81be e6d8 68be d805 cfbd aa5b 0a3e
000000a0: 2179 3e3e 69e0 40be ef90 d23c ad80 f8bd
000000b0: 5474 a1bd b721 9a3d 608d c73e 9284 d0bc
000000c0: 14f8 d7be 9fb3 b23e edae 253e 329c 5f3e
000000d0: 4e09 253e bb2e d4be 8c4d 3e3e b708 aabe
000000e0: add6 6abe 721f b73e 7e34 af3d ac2f acb9
000000f0: abe0 aa3d a6e3 253e e001 f83c d616 193e
00000100: 00f7 0b3f 5036 d13b ca9b a33d 78e2 893d
00000110: fecc a03d d190 0cbe dda1 f4bd 214c ad3e
00000120: db19 153e b1fd 513e 7860 563e de51 383e
00000130: 84f7 db3c 8e0a f33d 18cf 483e e2c2 603e
00000140: edff 013e 3d91 2d3d 0aad 443e 58f6 cf3e
00000150: da26 b53e 9169 a33e 1bed 963e 2843 603e
00000160: a34c 4b3e 0b8a 06be ea5d 9c3e a0f1 8d3c
00000170: f09a 303e ff58 d23d 1fb5 eb3d d757 d83d
00000180: e1b2 50bd 71a5 24be baaf 893e a9ba 873d
00000190: 3fd2 57be fa80 4e3d c097 29be 1d95 bbbd
000001a0: 920d 973d 97d8 8cbd 1b39 0dbe 3fc6 9e3c
000001b0: f1ae 51bd edd1 e9ba 40b3 c4bd cce7 1dbe
000001c0: 81bf 42be 226a 6dbe 5a61 7f3d d3af 8c3c
000001d0: 3eb8 b2bc d0f7 4abd bdbc 023e 798a 4fbc
000001e0: 258b 8b3d b7b1 963d 505a 8a3e e3f4 a4bd
000001f0: 9ff4 903e cc17 273e 23cb f23e 4c63 4fbd
00000200: 09f0 c23e d01d ef3d 2f09 5a3d 8e9c 7ebc
00000210: 3475 603e 734c 843e d84d 1dbe b429 723e
00000220: 6e3f 123c 9b86 ffbd 9036 b93e 82ea cd39
00000230: ea3d 763e a916 603e 09c8 ea3d 3c38 b43c
00000240: 1682 7cbe be9a 59be d1b6 e3be 1abc 0d3d
00000250: 5c74 b0be c644 313d 2641 343e a4d5 e1bd
00000260: 85a0 5b3e 068a 683e 04ab 4c3e f1f6 cebd
00000270: f0a1 a2bd 863e 82bd 9e1b d4be 99dc 133d
00000280: bfde 913e 05ee f9bd bbe5 853e 36a9 483d
00000290: c9ab 723d ecf4 83bd 5652 653e 3f4d 763c
000002a0: e0d2 0b3e d700 cbbe 035f cd3e 54e2 073e
000002b0: e9c9 bd3e 80c8 013f ae36 a6be 3380 723e
000002c0: 9065 ca3e 7aa3 00be 5430 4e3d e619 fcbd
000002d0: fe7b 513e 9600 0a3c 7f61 8f3d 2e61 65be
000002e0: fde1 2cbe 426c bd3c a076 50be e8af f3bd
000002f0: 9551 a3be 4ee2 0dbe 3981 8a3e 5c43 87be
00000300: acd4 813e 2508 be3d 2fce 793e ce3c 233e
00000310: 11f4 db3d d3e6 8b3e e1c1 c8be 4664 e0bd
00000320: 3952 863e 4a26 fd3c 65b0 6a3c 827f 55bd
00000330: bac2 bebe 7a61 71be 111c 5bbe b5e7 153e
00000340: 05eb e9be ba00 cfbd 48c9 ab3e 9407 0abe
00000350: 6525 ad3e fb1b a53e 8553 5d3e 9bff dabb
00000360: aaf1 a33e 0842 a93e a8f4 e5bd 438c 37bc
00000370: 8746 bcbd 7e61 f03b ec36 f3bd 7ab4 a7bd
00000380: ffbb 693e 5efb 1b3e 0175 663e 15b0 aa3d
00000390: 3467 e33e a84f 49bb ef99 c4bb fbc6 a23e
000003a0: 99b9 f63c 27f3 013e 3d60 343e e75e 843d
000003b0: f7e5 52be 61a7 d7bd 9f0f f23e 804a 463e
000003c0: b2b9 663b 96da 1a3d 6326 c33e b755 4dbe
000003d0: d393 d8be f94c e5bc e343 8c3d eb14 953d
000003e0: 7911 ddbd b5fc c73d 6395 02bc 73e2 2cbe
000003f0: 3f2e 9d3d 5e2e 0e3e f4f2 d93d 2e2c 38bd
-0.124877915 0.25035277 -0.17167269 0.17296241 0.5947014 0.07899174 0.19677503 0.07580493
0.2813918 -0.13844758 -0.15099968 0.007117441 0.15661024 0.33124837 0.21512754 -0.084599346
-0.14223027 -0.0100361295 0.34505796 0.16275112 0.062452067 -0.0060895216 0.035899438 -0.046367656
-0.06666717 0.14033397 -0.2792387 0.014931905 -0.0027875467 -0.21864249 0.13584992 0.053474497
0.05723577 -0.13529325 -0.10384033 0.0125405 -0.252082 -0.2273899 -0.101085365 0.1351153
0.18600895 -0.18835606 0.025703875 -0.12133918 -0.07883516 0.07525962 0.38975048 -0.02545384
-0.42181456 0.34902665 0.1618001 0.21836928 0.1611683 -0.41441903 0.1858427 -0.33209774
-0.22933455 0.35766178 0.08554934 -0.00032841915 0.08343633 0.16200122 0.030274332 0.14950117
0.5467377 0.0063846484 0.07988699 0.067326486 0.07851599 -0.13727118 -0.119449355 0.33847144
0.14560644 0.20506932 0.20935237 0.1799998 0.026851423 0.118672475 0.1961025 0.21949342
0.12695284 0.04237484 0.19206634 0.40617633 0.35381204 0.31916478 0.29477772 0.21900618
0.19853453 -0.13138597 0.305404 0.01732713 0.17246604 0.10270881 0.115091555 0.10563629
-0.050951842 -0.16078736 0.2689188 0.066273995 -0.21076296 0.05041597 -0.16561794 -0.091593005
0.07375635 -0.06877249 -0.13791315 0.01938164 -0.051192228 -0.0017839052 -0.09604502 -0.15420455
-0.19018365 -0.23185018 0.0623487 0.017173683 -0.02181637 -0.04955274 0.1276731 -0.012667292
0.06813649 0.07358115 0.27022028 -0.08054521 0.2831163 0.16317672 0.47420606 -0.050631806
0.38073757 0.11675608 0.053231414 -0.015540255 0.2191971 0.25839576 -0.15361726 0.23648721
0.008926256 -0.12476846 0.3617444 0.0003927537 0.24047056 0.21883644 0.11463935 0.02199947
-0.24658999 -0.21250436 -0.44475415 0.034603216 -0.34463775 0.043278478 0.17602977 -0.11027077
0.21447952 0.22708902 0.19987112 -0.10105694 -0.079410434 -0.06359582 -0.4142732 0.03609905
0.28490254 -0.12203602 0.26151833 0.048989497 0.05924586 -0.064431995 0.2239469 0.015033065
0.13654661 -0.39649078 0.4011155 0.13269931 0.37068108 0.50696564 -0.32463592 0.23681717
0.3953061 -0.12562361 0.050339058 -0.12309627 0.20457456 0.008422991 0.07001018 -0.22400352
-0.16883083 0.02312291 -0.20357752 -0.11898786 -0.3189818 -0.1385586 0.27051714 -0.2641858
0.25357568 0.09278897 0.24395059 0.15941164 0.10739911 0.27324542 -0.39210418 -0.10956626
0.26234606 0.030902047 0.014324282 -0.052123554 -0.3725794 -0.2357234 -0.21397425 0.1463917
-0.45687118 -0.101075605 0.33552003 -0.13479453 0.33817592 0.3224791 0.21613891 -0.0066833026
0.32020313 0.3305819 -0.11228305 -0.011202875 -0.091931395 0.0073358407 -0.1187571 -0.0818872
0.22825621 0.15232608 0.22505571 0.08334366 0.44414675 -0.0030717645 -0.0059997956 0.31792435
0.030117797 0.12690412 0.17614837 0.06463414 -0.20595537 -0.10529972 0.47277543 0.19364357
0.0035205898 0.037806116 0.38115224 -0.20052229 -0.4230028 -0.027990805 0.06848886 0.072793804
-0.10794348 0.09764997 -0.007970187 -0.16883259 0.07674836 0.13884875 0.10642043 -0.044964008

fc2.bias f4 [20]
00000000: e5df d73c 5aad 6fbe eb6d 89be 5d8f 02bc
00000010: cb36 163d f359 a73d c67d 123e 8242 babd
00000020: 70ba 70bd f343 a4be acbf aabc 9a8e 8f3e
00000030: 3241 77be 7434 043e 4e37 6bbe 546f ab3d
00000040: fe6b 233d e7b8 a53d bc5e 693e f751 d03e
0.026351878 -0.23405972 -0.26841673 -0.007968751 0.03667335 0.08171453 0.14305791 -0.090947166
-0.05877155 -0.3208309 -0.02084335 0.28038484 -0.24145964 0.12910634 -0.22970316 0.083708435
0.03989791 0.08091908 0.22790045 0.40687534

fc3.weight f4 [20, 20]
00000000: a7e4 423e 5838 d73d ddc4 61bb 1d05 5fbe
00000010: 5cea 14be aecf 9f3d 335c 51be 223f ed3d
00000020: 2f51 68be d71a 463e af37 14be ee47 c03b
00000030: b1b0 36be 004e 33be c106 bcbd bb50 8abd
00000040: 6ed7 57bd 2d13 443e ff37 c13d 71be 5dbe
00000050: 8222 e63e 71cd 2dbd d64e 29bf 14ef a53e
00000060: 30b1 29bd 68c7 123d 1d51 8e3e 3b76 8bbd
00000070: 0197 ecbd 3e78 afbc d399 6cbe 5643 a53d
00000080: cde5 5ebe a99c 88bd 8b5d febc d586 2c3d
00000090: 9117 003f cfaa ba3e 4c7a b93e cbaf 893e
000000a0: 5973 9c3e f395 bf3c ce4a 40bc 73a2 3d3c
000000b0: 6607 aabd 81f7 cf3d 7d58 3fbd 03aa 143d
000000c0: 4d8f eebc f0b8 d6bd 0b91 96bd 8871 df3e
000000d0: 9c92 3fbe 8d74 80be 492e 91be 581d ab3d
000000e0: 8d41 863e 07bf 8e3e f946 003e 77fd 873e
000000f0: 3323 8dbc 65a1 a5bd 127b 243f 2f23 d6bd
00000100: 4277 143e 3811 a0bd f9ac d23c f8ba a93e
00000110: 46dd b63e 6aca 973e 37da b03e 898d afbe
00000120: 3c47 683e 9c9c 943e fe74 e33e db75 ab3e
00000130: e737 e8be 41b6 6ebd 8f32 27be 6203 8d3d
00000140: a92c ee3a 8e5f 64bc 2380 b6be 702d ecbd
00000150: ed38 973e 3625 ecbd 63f5 c03e 5da6 82be
00000160: 9560 853e 5158 f33c fdab f7bd 124e 763d
00000170: ae07 f03d 3837 acbe b5c9 e0bd 80eb 17be
00000180: e3c9 143d 25f9 203e 3514 b63c f704 b3bd
00000190: 3bbd 96be 344b 80bd 50b2 b83e 38c1 9c3e
000001a0: 2414 e1bc 1732 ea3c 7af5 853e cc1b 453e
000001b0: d424 193e f4a7 163e f8f4 993e ebb9 d1bd
000001c0: 5ebf 753e 9d92 993e da96 393e e4f1 9e3e
000001d0: 5106 66be e987 223e 6e07 8d3d fee0 3a3e
000001e0: 0d61 b2be 0606 5d3d 9340 dd3e fe4e dd3c
000001f0: cd3e 7c3e fa7d 3fbe 119d 82bd 8240 5a3e
00000200: d50b 603e 4e21 3c3e 4c82 853e 2844 17be
00000210: 8e94 943e b843 963e 0370 81bc 6be1 af3e
00000220: 49bf 3dbe 0d31 f7bd 4abf 87bd 05fd 8d3e
00000230: 2e04 073e d080 73be 2c26 2bbf 3c69 333e
00000240: 3b8d 803d 9971 40bd 5c2f 293e 9c6a 95be
00000250: e699 003e bb9b 59be 670c 39be c36e 893e
00000260: 05e0 6ebe 682c 29be c454 fabd 729b 103c
00000270: 4010 c83e c817 23bc dd38 8d3e b7a1 e13d
00000280: c96a b63e 3cce 1f3e 7543 f1be d871 873d
00000290: 412b 163e c527 e4bc 25c4 1b3e 0832 84be
000002a0: 99fb da3d e0c9 72be 812e f73d f628 333e
000002b0: 4587 80bd d860 89be cee4 91be 6cd5 04bb
000002c0: a2c3 db3d 13b6 703e 142b 693e 5e28 023e
000002d0: 7cb8 e9bb ca43 493c d8e9 5cbe f829 833c
000002e0: e631 5ebd 282b 093e a31f 7f3d d413 033e
000002f0: 6724 25be 0d1f 17be c579 063e 29fa 443c
00000300: 75b1 63be cf02 463e db5c e8bd 96eb a83c
00000310: 419e 18be aa6a 4f3d 37d0 da3d ce71 e1bd
00000320: cd02 1ebe a441 213e 9183 c43c d54b 7abb
00000330: 0212 2abe fd0d ab3d bd46 5cbe 9d1d f93d
00000340: 085d 6b3c 6032 4fbe dc76 65be 3e96 6dbe
00000350: dd68 a33c 9fc6 313e 3188 c3bd 0cfe fc3d
00000360: 0807 11be 92cc 2b3e 2e3e fdbd a226 493e
00000370: 63cb 5abe 3a62 343e 8f95 c4bc ebf4 0cbe
00000380: d450 d2bc c498 a1bc 7d18 293a 1998 1f3e
00000390: b77a eabd 5fa4 b2bd 9aee e4bd e338 1d3c
000003a0: 3ca9 02be 5611 4dbe e099 d8bd 2904 c53d
000003b0: 979e 963c bd34 303e 1487 20be e475 1dbe
000003c0: 288d ec3d d818 4bbd 8706 f33d b2a3 75be
000003d0: b60b c23c 0f98 0a3e 031e 65be f673 3ebe
000003e0: 1240 013d fb56 78bd 4179 adbd c35a 7f3c
000003f0: bafe 7f3d 5bf1 053e 1f0e 3cbe 3d9f 7ebe
0.19032536 0.105087936 -0.0034449615 -0.21779294 -0.14542526 0.07803284 -0.20445327 0.11584307
-0.22687219 0.19346176 -0.14474367 0.0058679497 -0.1784084 -0.17510223 -0.09180976 -0.06753679
-0.052695684 0.1914794 0.094345085 -0.21654679 0.44948202 -0.042432252 -0.6613592 0.32408965
-0.041428745 0.0358347 0.2779626 -0.0680966 -0.11552239 -0.02141964 -0.23105554 0.08069484
-0.2176735 -0.066705056 -0.031050464 0.042120773 0.5003596 0.36458442 0.36226118 0.26891932
0.30556753 0.023386931 -0.011736585 0.011574375 -0.083021924 0.101546295 -0.04671525 0.03629495
-0.029121066 -0.10484493 -0.073518835 0.43641305 -0.18708271 -0.2508892 -0.28355625 0.08355206
0.26221886 0.27880117 0.12527074 0.26560566 -0.017228698 -0.08087424 0.6425029 -0.104559295
0.14498618 -0.07815784 0.025717245 0.33150458 0.35715693 0.29646617 0.34541485 -0.3428767
0.22683424 0.29025733 0.44425195 0.33488354 -0.4535515 -0.05827928 -0.1632788 0.06885411
0.0018171269 -0.013938798 -0.35644636 -0.11532104 0.29535618 -0.11530535 0.37687215 -0.2551755
0.2605025 0.029705198 -0.12093351 0.060133047 0.11720215 -0.3363588 -0.109759726 -0.1483593
0.036325347 0.15720041 0.022226432 -0.08741181 -0.29441246 -0.06264344 0.36073542 0.30616164
-0.027475424 0.028588338 0.26163846 0.19248885 0.14955455 0.14712507 0.3006971 -0.10240539
0.23998782 0.2999467 0.18123952 0.31043923 -0.22463347 0.15872158 0.06886183 0.1824989
-0.3483967 0.053960823 0.4321333 0.027015205 0.24633332 -0.187004 -0.06377614 0.2131367
0.21879514 0.1837208 0.2607597 -0.14772093 0.29019588 0.2934854 -0.015800482 0.34351668
-0.18530001 -0.120699026 -0.06628282 0.277321 0.13185188 -0.23779607 -0.6685512 0.17520612
0.062769376 -0.046983335 0.16521972 -0.291829 0.12558708 -0.21250813 -0.18071137 0.26842317
-0.23327644 -0.16520846 -0.12223199 0.008826124 0.39074898 -0.0099544 0.27582446 0.11017173
0.35628346 0.15606016 -0.47121778 0.06613511 0.14664938 -0.027850995 0.15211542 -0.2581942
0.1069252 -0.23709822 0.12069417 0.17496094 -0.062758006 -0.26831698 -0.28494877 -0.002026881
0.107306734 0.23506956 0.22770339 0.12710711 -0.007132588 0.012284229 -0.2157358 0.016011223
-0.054246806 0.13395369 0.06228603 0.12800533 -0.16127168 -0.14757939 0.13132389 0.012022533
-0.22235663 0.19337009 -0.11345836 0.020620149 -0.14904119 0.050638832 0.10684245 -0.11008035
-0.15430756 0.15747696 0.023988517 -0.0038192172 -0.16608432 0.083522774 -0.2151136 0.121638514
0.014365442 -0.2023406 -0.22408623 -0.23201844 0.019947464 0.17360924 -0.09547461 0.12353143
-0.14162838 0.16777256 -0.123653755 0.19643643 -0.21366648 0.17615595 -0.023997096 -0.13765304
-0.025673307 -0.019726165 0.00064504874 0.15585364 -0.11449187 -0.087227575 -0.11178322 0.009596082
-0.1275987 -0.20026144 -0.10576224 0.09619934 0.018386168 0.17207618 -0.15676528 -0.15377003
0.11550361 -0.04958424 0.11866479 -0.23988226 0.023687225 0.13534568 -0.2237473 -0.18598923
0.031555243 -0.060629826 -0.08470393 0.015585604 0.062498786 0.13080351 -0.18364762 -0.24865432

fc3.bias f4 [20]
00000000: 3e52 993d f543 043e d9ef 2b3e 910a 37be
00000010: 0dc3 83be 69fc 7d3e baf4 363d a8ed 36be
00000020: dfe0 743e 03d3 0dbe f7a6 933c 2730 0abe
00000030: ff90 033d f467 1ebe 6007 373e 8016 263e
00000040: be47 13be 9e6a 2cbe e9f1 7c3d 34e8 b53e
0.074863896 0.12916549 0.16790713 -0.17875125 -0.2573475 0.24803318 0.044666983 -0.17864096
0.23913907 -0.13850026 0.018023951 -0.13494931 0.0321207 -0.15469342 0.17873907 0.1621952
-0.14382836 -0.16837546 0.06175414 0.3552872

fc4.weight f4 [20, 20]
00000000: 7adb aabc b5b6 dc3d 4c1c c6bd 3c0b 0abb
00000010: 9c57 293e 283b 97ba c820 0abe 622d c43d
00000020: 833b e93e dba8 39bc e0cb 1f3e caa1 5c3e
00000030: 5886 1cbe bbe6 263d 2e26 fc3d e735 e83e
00000040: a515 4d3d 066e 3dbe f07d dc3e fd14 fc3d
00000050: 440b 643d 241f b53e 3a30 813e 1400 26bc
00000060: c113 babd f068 e0bd 0586 96bb e567 e43e
00000070: b250 c93e a37b 2c3e ec39 41be b439 0cbe
00000080: d6f6 a1bd 961f 47bd 4c3a 2b3e d059 433e
00000090: b1af 18bd 9b32 20be b26e c63e fb99 b63e
000000a0: f267 1c3e 9d3b 80be 2e42 93be 4070 b73e
000000b0: 1041 5f3c 63eb bd3e 9252 6abc 4e6c 16be
000000c0: c625 b53d d206 433d 566b 17be 36e8 c43d
000000d0: e99b 303d f295 d7bd 02a9 b73d aece 71be
000000e0: c1b2 6fbe cd8a 2a3e 7ba7 523d 9485 1dbc
000000f0: 27e0 12bd f220 8ebe 0893 10bf 126d e73e
00000100: 24fa 9dbd 00ac 443e 72ce 5e3e 7ff5 44bd
00000110: 4ae4 4cbd 436b 46be 38bc 48be 2dde 5a3e
00000120: bc7f 423e 6e33 3cbe 1de4 ac3c f9df 223e
00000130: 825a 64be 3827 603e 2d88 48be eb34 85be
00000140: e2a1 8cbd 8f9f 36bd 3c68 2dbd 3734 1abe
00000150: 89e4 db3c bd12 dd3d 23a3 7bbd cde2 cabd
00000160: dc16 ce3d dc59 99bc 865d 03be 3018 503e
00000170: c395 1cbe 30f0 2cbe 0e12 bc3d edcd 523c
00000180: c63b 093e 7a7b 933d 067c 30bd 6c29 25bc
00000190: e75b c43d fea8 a23e 0551 243e 7108 4ebe
000001a0: cdd4 033e 8ffb 79be 2270 213d e71a fd3e
000001b0: 16d7 a03e 8d20 dfbd 709b 59be 12a6 30be
000001c0: 5f14 8fbb 3e1e 18be b348 14bd 4684 903d
000001d0: 68cf 45be 3a55 593e 4527 6d3e 91d4 b7bc
000001e0: 843e 823c c4e1 f7ba d2e7 863f 1507 b5bd
000001f0: 75b0 1bbf 385a 513e 983b 4a3d 8adf 9e3e
00000200: 67dc 2b3d 5e3f 213e e1bc 33be 0532 0f3e
00000210: 39c2 a13d e6ec bfbb b7ae 20be 6373 9b3d
00000220: 3060 c4bd 3e03 c73b 2d60 8c3e 7fac 5e3d
00000230: d8b2 fa3d f1f9 89bd 7edc 3b3e d176 93be
00000240: 63ab 3f3e 8b58 0b3c 6577 8ebe 5844 b73e
00000250: 022b 613e f4c1 783d e178 c9bd 590b 46be
00000260: 7393 11be d7f5 ae3c b8bc aa3c 17f5 4b3e
00000270: cbd5 b3bc 3231 2d3e 83a7 8d3e 41da 943e
00000280: bb95 10be 8b37 9bbe 64da 823b 2806 343e
00000290: dc4d d1be 21d0 1c3e 65c4 923e f55e 8cbe
000002a0: 13c2 97bd 704f 34be 7daf 87bd ced1 3a3c
000002b0: 995f 073d 9b83 88bd 5390 593e 3975 663c
000002c0: 2777 ca3c 234a fa3c 83e0 c53d b397 26be
000002d0: 2657 483c 2b80 ba3e 24f0 c03e 751c d4be
000002e0: 02b3 383e 4e71 113d 0100 4bbd f701 6a3e
000002f0: 16a1 483e 44a1 cbbd b4be b6bd b483 f43c
00000300: 9947 273e e879 fcbd c206 483e 9601 483e
00000310: 214e 7cbe 3188 2dbe 2f35 ccbc 2097 71bd
00000320: 20aa 02bc acbf 4a3b 66a1 a3be bd3b 763d
00000330: 3638 51be db3f 903e 111c 3e3e 79f2 a8be
00000340: 956b a2be 762d a8bd 1d42 6b3e 8ef2 543e
00000350: 2a2b cb3d c686 e9bd 1bbb 263e 1204 13be
00000360: a29e fa3d 2e9c 60be 03fe 7b3d b88c cfbd
00000370: 4352 b93c 9a96 f3bd 16f5 ba3c 6ae6 6ebe
00000380: 7254 b3bd 5505 15bd e3fe 98bd 6d38 f03c
00000390: 5b5f 4bba 0f6d 293e bdab 48be 092b d0bc
000003a0: 48e9 94bd 64f7 46bd d9b3 113e dc56 1a3e
000003b0: d2ed 83bd e86c 083e 69f8 1d3e 4b5f 48bd
000003c0: 3705 9cbd 8e93 b73e 0519 fd3d 795c 1b3d
000003d0: 8338 023f 8e5d 383e f82b 79be 73fa 3c3d
000003e0: 3a8d 3c3e 8ec7 bf3c d137 4c3e d1ea 0fbe
000003f0: 7cb5 ac3a 5f6b 2a3e 71cd 403e ad67 863e
-0.020856608 0.10777036 -0.09673366 -0.0021063825 0.16537327 -0.0011538016 -0.13489068 0.095789686
0.45553216 -0.011331762 0.15605116 0.21546093 -0.15285623 0.040747385 0.1231197 0.45353624
0.05006947 -0.18499002 0.43064833 0.12308691 0.055674806 0.3537532 0.25232106 -0.010131855
-0.09085799 -0.10957515 -0.004593613 0.44610515 0.39319378 0.16844039 -0.18869752 -0.13693887
-0.07908408 -0.048614107 0.16721457 0.1907723 -0.037276927 -0.15644304 0.3875633 0.35664353
0.15274027 -0.2504548 -0.2876143 0.35827827 0.013626352 0.37093648 -0.014301913 -0.14689752
0.08845095 0.047613926 -0.14787039 0.09614603 0.043117438 -0.10526647 0.089677826 -0.23613998
-0.23408033 0.16654511 0.051429253 -0.009614367 -0.0358583 -0.2775951 -0.5647435 0.45200402
-0.07713726 0.19206238 0.2175844 -0.048085686 -0.0500224 -0.19376855 -0.1960305 0.21373816
0.1899404 -0.18378994 0.021104867 0.15905751 -0.22300151 0.21889961 -0.19583197 -0.26016936
-0.06866814 -0.04458576 -0.042335734 -0.15058981 0.026842372 0.1079459 -0.061434876 -0.0990654
0.10062954 -0.018719606 -0.12828645 0.20321727 -0.15291505 -0.168885 0.09183131 0.012866479
0.13401708 0.07201286 -0.043087028 -0.0100806765 0.095878415 0.31769556 0.16046531 -0.20120408
0.12874146 -0.24412368 0.03941358 0.49434587 0.31414098 -0.108948804 -0.21250701 -0.17250851
-0.004366442 -0.14855286 -0.036202144 0.07056479 -0.193174 0.21223918 0.23159511 -0.022440227
0.01589895 -0.0018911888 1.0539496 -0.088392414 -0.6081613 0.20444572 0.04937324 0.31029922
0.04195824 0.15746829 -0.1755252 0.13983925 0.07898373 -0.005857098 -0.15691648 0.07590368
-0.09588659 0.0060733845 0.27417126 0.054363724 0.12241143 -0.06737126 0.1834583 -0.28801587
0.18717723 0.008504997 -0.27825466 0.3579433 0.21989062 0.060731843 -0.09837509 -0.19340266
-0.14216404 0.02135746 0.020841941 0.19917713 -0.02195253 0.16913298 0.27666864 0.29072765
-0.14119618 -0.30315813 0.0039933193 0.17580473 -0.40879714 0.1531377 0.28665462 -0.27416196
-0.074100636 -0.17608428 -0.066252686 0.01140256 0.033050153 -0.06665727 0.21246462 0.014066034
0.02471502 0.03055293 0.09661963 -0.16268806 0.012227809 0.3642591 0.37683213 -0.4142796
0.18037036 0.035508446 -0.04956055 0.22852312 0.195927 -0.09942868 -0.089230925 0.029847957
0.16335906 -0.12327939 0.19533828 0.19531855 -0.24639179 -0.16946484 -0.024927704 -0.058982015
-0.007975131 0.0030937 -0.31959075 0.060115565 -0.20431599 0.28173718 0.18565394 -0.32997492
-0.31722704 -0.08211796 0.22974439 0.20795652 0.09920342 -0.11402659 0.16282313 -0.14357021
0.12237288 -0.21934578 0.06152154 -0.10134262 0.022622233 -0.11893959 0.022821944 -0.23330083
-0.08756341 -0.03638204 -0.07470491 0.02932378 -0.00077580445 0.16545509 -0.19596763 -0.025411146
-0.07271057 -0.048575774 0.14228763 0.15072197 -0.06441845 0.13322794 0.15426792 -0.048919003
-0.07618182 0.35854763 0.12358288 0.037929986 0.5086748 0.18004438 -0.24333179 0.046137284
0.18413249 0.023410585 0.19943167 -0.14054419 0.0013176645 0.16642521 0.1882837 0.26250973

fc4.bias f4 [20]
00000000: 6a1c 353e be79 8f3e f643 403e 2cd0 69be
00000010: 4792 4abd 785d 0e3c 8f56 213f d2ea 8e3b
00000020: 1bbd e33e 2f53 9f3d a811 5dbd a137 0bbe
00000030: 365b fbbd 71b8 99bd 75ad 663d 7b3f 9e3e
00000040: 5368 fc3d b6a6 903d 0407 273f 5030 283f
0.1768662 0.2802257 0.18775925 -0.22833318 -0.049455907 0.008689277 0.630227 0.004361489
0.44480214 0.07779538 -0.053971916 -0.1359544 -0.122732565 -0.075058825 0.056317765 0.30907807
0.12324586 0.070630476 0.6524508 0.6569872

fc5.weight f4 [20, 20]
00000000: 0e3e c1be 3110 44be ba6a 343e 574c eabd
00000010: 288d 08be 3a3d 4abe 74af bd3e ec34 87be
00000020: 681e ed3e 1e3c 9bbe d03f 573e a870 9dbd
00000030: f82c 95be 0c41 ab3d f20f 1bbf 9220 6d3e
00000040: 4afb 2dbe 589b 5bba fb14 c33e 661f d03c
00000050: 26ad 6fbc 07ce 663e 9426 b93d e8e3 5abe
00000060: be38 56bd 1f1d 18bf 971b 643e 22c6 96be
00000070: fcc1 dabd fede 0dbe cfe2 c0bd a59f 17be
00000080: 71de bebd c567 a6be a94e 1abf 5064 c73e
00000090: de44 2abe 9bf0 b53d dd1c aa3e b122 473e
000000a0: bd49 3a3e 8eff 8abd 5574 c73c 659f a23d
000000b0: e72f 713d bd2e a33d 1b6b 08bd c8ec 8e3b
000000c0: bc31 9ebd cfae 58be 1bc2 31be 5201 34be
000000d0: f533 fbbd eddd 2ebe 2b77 cdbd dfd7 9cbd
000000e0: e207 f43d c45f 1c3c 9d3e 32be 3660 b2bd
000000f0: 11c3 ed3c 6eed eabd e6cf 2fbe 5fb6 88bd
00000100: 98ee 233e 6092 d5be 5e9f aa3e 8e04 1dbf
00000110: 3134 673e 9995 dcbe 7a71 fcbc dc6a 363c
00000120: a5c9 f23c 321a 25be 2100 11bf 3808 903e
00000130: 77ec e6bd 202d 07bd e75c 383e 7f56 f93d
00000140: 0aaa e53e dc86 c43e 4c92 6bbc 4329 2ebe
00000150: 315c 043c fa85 7c3e 6387 833e 17c7 ad3e
00000160: 8dd8 243e e323 ae3e 4d24 a0bd 7035 fcbd
00000170: c19a d53d 19c5 8abe 6671 af3e 9d4b a83e
00000180: 8641 083f a4d9 47be 8567 fd3d 1a70 193e
00000190: 632f b63d f681 60be e7cb 24be 83c0 e5bd
000001a0: 954f 333e ce5a b43d ebac 3f3d 8810 bd3c
000001b0: 3f91 99bd 66d6 a9bd 6139 45bd eadb db3d
000001c0: f4f9 c83d 969e d1bd 4809 c83d f25b df3c
000001d0: c46b b9bd 903c 403e 2007 883d d968 17be
000001e0: 322d 313e 6543 a43e 615b 8c3d a869 96be
000001f0: 97c9 6c3e 63b2 1dbf 37e6 1c3e 2014 f0be
00000200: a74b 993e 90ff b3be 0887 12bc f67f 393e
00000210: 5d0c 98be 3c2b a1be a7ca 52be 9d89 853d
00000220: 3f51 3fbe f799 cebc 2991 9a3d e73f d73d
00000230: d395 dc3c 43a9 42be f9c8 97bd 2cd5 61be
00000240: 964c 99bd 87c1 14be 3f02 173e 93e3 3d3e
00000250: 06bc 0abe 96aa 923d 84e8 26be d9bd 4abd
00000260: c4a1 0e3e a51c 393e d670 95bd a834 523e
00000270: cbf7 10be ff24 4fbe 8e94 55be 0ae1 0a3e
00000280: d71b 793e 5469 0ebe 9c0f e7bd 939d c5be
00000290: 9df1 d9bd c64a e73e ea98 093e 64ad 9f3e
000002a0: 6ac7 1ebe 53ae 073f d277 00be a9ce 4e3e
000002b0: 22b4 c6bc b0bb 89bb c052 203f 0e6b 883e
000002c0: fcec 0d3d a38a 06bc 3da7 193d c484 3f3d
000002d0: acf4 f0bc 0ff2 2f3e 883c 0b3e 7301 d4bc
000002e0: 2fe5 833c 7fd8 03be 8227 fcbd e00e 3f3e
000002f0: 0495 1ebd 66bf 52bd 826f 103d 7c3e cebd
00000300: 4523 cb3d 6d2a 363c f6c4 a4bd 9ccf 1ebe
00000310: 083f 43be be1b a0bc 3c4d 49be 5858 70bd
00000320: b412 1f3d 4cdb a13e 8295 92be eb1f 28be
00000330: 4f13 26be 9fe2 313e 4989 81bd 43a3 1e3f
00000340: f860 9dbe 67c5 713e af07 f4be 016d 2ebe
00000350: ace0 af3d b521 90be 842c 173f 0a69 e33d
00000360: 8aa9 b93e a8b6 06bd 7970 a83d d2c4 90bd
00000370: a2c8 7d3e acfc ec3d 224f 47be 5506 adbe
00000380: b689 4dbe fff7 b33e b3b8 76bc 8b05 573e
00000390: 0064 abbe 6071 fb3e 406f 45bd 9485 42be
000003a0: f714 bcbd 545c aebe 2010 dd3e f840 3c3e
000003b0: d893 9a3e a5d8 81bd 2ea7 13bd 7cb7 ca3c
000003c0: bc85 a93c 4459 12be 9b57 713e 1c6b d63e
000003d0: 9703 803c 5bb4 c0bd 7951 5fbe b486 ffbe
000003e0: 6531 643e f64f 47bf 4085 343e 9de9 893d
000003f0: cd52 3b3e 98a8 ac3e 433b 95be 46bf bebe
-0.37742656 -0.19146802 0.17618838 -0.11440342 -0.13335097 -0.19749919 0.37047923 -0.26407564
0.4631226 -0.30319303 0.21020436 -0.07687503 -0.2913587 0.08362016 -0.60571206 0.23156956
-0.1699039 -0.0008377335 0.38101944 0.025405597 -0.014628684 0.2253953 0.09040561 -0.21376002
-0.052300207 -0.59419435 0.2227615 -0.29448038 -0.10681531 -0.13854596 -0.0941826 -0.14806993
-0.09319771 -0.32501045 -0.60276276 0.3894372 -0.16627833 0.088837825 0.33225146 0.19446827
0.18192191 -0.067870244 0.024347464 0.07940558 0.058883574 0.07967899 -0.03330527 0.0043617226
-0.0772433 -0.21160434 -0.17359202 -0.17578629 -0.122657694 -0.17076845 -0.10032495 -0.07658362
0.11915566 0.009544317 -0.17406698 -0.08709757 0.029023679 -0.11471067 -0.1716915 -0.066754095
0.16008985 -0.41713238 0.33324713 -0.61335075 0.22578503 -0.43082884 -0.030815829 0.011133876
0.029637167 -0.16123274 -0.5664082 0.2813127 -0.11275571 -0.03300202 0.1800419 0.12174701
0.44856292 0.3838414 -0.014378142 -0.17007928 0.008078621 0.24660483 0.2568923 0.33940956
0.16098233 0.34011754 -0.07819424 -0.1231488 0.104299076 -0.271035 0.34266204 0.32870188
0.5322498 -0.19516617 0.123732604 0.1498417 0.08895757 -0.21924576 -0.16093408 -0.11218359
0.17510827 0.08806382 0.046795767 0.023079172 -0.074984066 -0.082928464 -0.048150424 0.10735305
0.098133 -0.10235326 0.09767395 0.027265523 -0.09053758 0.18773103 0.06641984 -0.1478609
0.17302397 0.32082668 0.06853367 -0.29377484 0.23123775 -0.6160032 0.15322195 -0.46890354
0.2994053 -0.35155916 -0.008943327 0.1811522 -0.29696932 -0.31478298 -0.20585118 0.06520388
-0.18683337 -0.0252199 0.07547218 0.10510235 0.02692691 -0.1900988 -0.07411379 -0.22053975
-0.07485311 -0.1452695 0.1474695 0.18543844 -0.13548288 0.07161443 -0.16299635 -0.04949746
0.13928896 0.18077333 -0.07296912 0.205279 -0.14157026 -0.20228957 -0.2085745 0.13562408
0.24327026 -0.13907367 -0.11282274 -0.38596782 -0.10641787 0.45174235 0.13437238 0.31186974
-0.15505758 0.5300037 -0.12545708 0.20196022 -0.024255816 -0.0042032823 0.62626266 0.26644176
0.034649834 -0.0082117645 0.037513006 0.046757475 -0.029413544 0.17182182 0.1359731 -0.025879597
0.016100494 -0.12875555 -0.12312223 0.18658018 -0.03871633 -0.051452063 0.035262592 -0.10070512
0.099188365 0.0111185135 -0.0804538 -0.15508884 -0.19067013 -0.019544479 -0.19658369 -0.058678
0.038836196 0.31612623 -0.2862969 -0.16418426 -0.16218303 0.17371605 -0.06325013 0.6196787
-0.30738044 0.2361046 -0.47662112 -0.17033769 0.08587775 -0.28150716 0.590523 0.11104019
0.3626216 -0.03288904 0.082245775 -0.070687905 0.24783567 0.11571631 -0.1946378 -0.33793893
-0.20072064 0.35150144 -0.015058684 0.20998208 -0.3347473 0.49109936 -0.0482018 -0.18996269
-0.09183686 -0.34054816 0.43176365 0.18384159 0.3019092 -0.0634015 -0.036048107 0.024745695
0.020693652 -0.14291865 0.23568575 0.41878593 0.015626712 -0.094094 -0.21808423 -0.49907458
0.22284468 -0.77856386 0.17628956 0.06734011 0.18293305 0.33722377 -0.29146776 -0.37255305

fc5.bias f4 [20]
00000000: c7b9 a93e 6383 223f 7a7b 54be 5633 f63e
00000010: 438f ee3d 4222 d9bd a58e 163f 4c2d 08be
00000020: e5e3 dcbd f917 bbbd cc17 32be 0d1d 383e
00000030: 7c9b 01bf 8d77 bc3d 9b2f 083f 4270 9bbd
00000040: 9d86 16be 92c4 6f3d 101a d53d e3e8 bd3b
0.3314955 0.6348173 -0.20750228 0.4808604 0.11648419 -0.10602237 0.5881141 -0.1329853
-0.10785655 -0.09135432 -0.1739189 0.17979832 -0.50627875 0.0920249 0.5319764 -0.07589771
-0.14699788 0.058537073 0.10405362 0.0057955845

fc6.weight f4 [3, 20]
00000000: 3c6a 14bf ede5 3fbe ac51 fb3d a456 97be
00000010: 1152 b53e e9f6 433e db4b 74be 0868 e2bd
00000020: 6d81 1c3f b158 1abd b7f0 d53e fb26 213f
00000030: b897 e63e 9616 563e 4b49 52be 58fa 843e
00000040: c66f bd3d 94f1 083f 4639 1d3f 9101 04bf
00000050: ea94 be3e 1f5a bb3e a8bb 623e b082 d73e
00000060: 1de3 5d3e 268d fabd 3c7e 153f b25c 9d3d
00000070: 7f7d d4be 177d 0ebc 1e94 d8be c9a4 81be
00000080: 6df7 c7be ada9 e1bd 66e4 1a3f fa5a c1be
00000090: d408 e3bc 834a d3be 0662 f5be 56e5 c4bd
000000a0: 3ace 123e 90c6 01bf 8389 f03c e7de 5cbe
000000b0: 6c11 06bf 71c9 52be 1c26 04bf 1dd5 d9bd
000000c0: 2783 e6be b75d 26bc c7cf d6be a466 aabe
000000d0: 4a37 ba3e b652 03bf 352b 98be 4e8f 29bf
000000e0: 5a9c f2bd acb8 34bf 2434 27bf 08ed aa3e
-0.579746 -0.18740053 0.12271437 -0.2955829 0.35414174 0.19137157 -0.23857062 -0.11054999
0.6113499 -0.03768224 0.41785213 0.62950104 0.45037627 0.20907053 -0.20535772 0.25972247
0.09249835 0.5349362 0.6141552 -0.5156489 0.37222987 0.36592194 0.22141898 0.42091894
0.21668668 -0.12233953 0.58395743 0.07683696 -0.41501996 -0.008696816 -0.42300504 -0.25321034
-0.39055958 -0.11018691 0.6050476 -0.37764722 -0.02771417 -0.41267785 -0.47926348 -0.09614055
0.14336482 -0.5069361 0.029362446 -0.21569405 -0.52370334 -0.20584656 -0.5162065 -0.10636351
-0.45021936 -0.010154179 -0.41955397 -0.33281434 0.36370307 -0.5129808 -0.29720464 -0.6623429
-0.11846228 -0.70594287 -0.65313935 0.33383965

fc6.bias f4 [3]
00000000: b1c0 3bbe 9d73 a23e 17a7 04be
-0.18335225 0.3172883 -0.12954365
