models_3val/xor_and_xor.pth (torch, 12210 bytes, 12 tensors)

fc1.weight f4 [20, 12]
-0.3871671 -0.40067598 0.0010422743 -0.048256572 0.015845604 0.016884523 0.019248733 0.040179946
0.035061304 0.012520354 0.030232456 0.012076075 0.19139701 0.25056317 0.14392944 0.110899046
0.037527233 -0.22711489 -0.05587243 0.011858961 0.20925385 -0.12202637 0.102614805 0.08160269
-0.17270231 -0.17580932 -0.24706317 -0.28670573 0.04317879 0.04403808 -0.052048806 -0.0038168386
0.032936674 0.038623802 -0.011720495 0.045198344 -0.42321655 -0.41948307 0.3365951 0.3440535
-0.002996054 -0.0016688884 -0.02147164 -0.019173803 -0.011070548 0.0032826092 -0.012670308 -0.0019672655
0.027136777 0.22465144 -0.16900112 0.048984457 0.11161801 0.27324995 -0.24219418 0.0031145632
0.23054011 0.2782939 0.09407316 -0.1498571 -0.08032969 0.08320561 -0.019515717 0.14390826
-0.10185952 -0.09068203 0.30507693 0.07314863 -0.07412998 -0.059627466 0.038479228 -0.05037894
0.2056237 -0.32181773 0.094233066 -0.40438548 0.124114916 0.13498543 -0.0634477 0.12583685
0.15457764 0.14155035 0.015736414 0.10821605 0.24372876 0.31477606 -0.19814786 -0.14934103
0.07097525 0.27881855 0.22762524 0.28978944 0.15614279 0.19938643 0.13744228 -0.07978231
0.074104324 0.102173425 -0.48470828 -0.55005914 0.023130376 0.02647124 0.02771595 0.06141228
0.024016751 0.013932296 0.008451571 0.018566959 0.30877095 0.09358361 0.42444015 0.27682102
0.041491628 0.10069098 0.057283264 -0.10552138 -0.11972563 -0.073362485 0.14780325 -0.0068199406
0.25244844 0.019775322 0.28786027 0.22616702 -0.0027708532 0.16294305 -0.06898438 0.21195102
0.009459366 0.062609114 -0.13078347 0.20996152 0.012469954 -0.13985641 -0.11268348 0.034576423
0.03579168 0.059341908 0.20155573 0.15098183 -0.12930976 0.22040877 -0.123102956 0.30208603
-0.12560233 -0.11388244 -0.1345591 -0.11456677 -0.015461712 -0.015674187 0.009224946 -0.016410956
-0.021536939 -0.012581287 -0.003977334 -0.010807778 0.41540015 0.3965626 -0.46048814 -0.438478
-0.022957664 -0.011324439 -0.015238758 -0.0053173406 -0.007642288 0.012282942 0.0110340575 -0.013011226
-0.12550154 -0.08090593 0.2929907 0.301772 -0.056605503 -0.05807906 0.19516833 0.07980765
-0.062355142 0.004479213 -0.046296716 0.06401035 0.33371204 0.189897 0.09377627 0.050087664
-0.030906547 0.25410756 -0.16033287 0.08036323 0.041642953 0.14860022 -0.17077269 0.057710525
0.364052 0.008120949 0.34764665 0.26026857 -0.14489315 0.049294397 0.04167746 0.32067177
0.2415647 -0.036437113 0.14428397 0.0683151 -0.3190619 0.20804402 0.2095293 -0.2888393
0.10154501 0.080208994 0.048208885 0.09871782 0.09780825 -0.022745922 0.003891819 0.07363731
0.11657683 0.3189083 0.020575332 -0.004440585 0.3087865 -0.09940354 0.3876581 0.09796726
0.16169135 0.2341013 0.32459968 -0.14191265 0.26676735 -0.34714422 0.09224714 0.085907
0.015984364 -0.17256163 0.074777715 0.17392227 0.17501505 -0.23570561 0.23918071 -0.05908363
00000000: c43a c6be 6725 cdbe ec9c 883a afa8 45bd
00000010: a4ce 813c 6951 8a3c 85af 9d3c ba93 243d
00000020: 719c 0f3d 2c22 4d3c 0eaa f73c bbda 453c
00000030: 94fd 433e d149 803e 3d62 133e 0a1f e33d
00000040: 28b6 193d ce90 68be 7dda 64bd 164c 423c
00000050: a446 563e f6e8 f9bd b627 d23d 501f a73d
00000060: e0d8 30be 5c07 34be 21fe 7cbe 18cb 92be
00000070: 3edc 303d 4661 343d 2131 55bd ed23 7abb
00000080: 9be8 063d fe33 1e3d 5207 40bc e621 393d
00000090: d7af d8be 7cc6 d6be 3156 ac3e c827 b03e
000000a0: 7259 44bb 9abe daba 4be5 afbc 6112 9dbc
000000b0: 3e61 35bc 0b21 573b 2097 4fbc 3ded 00bb
000000c0: f24d de3c 070b 663e a10e 2dbe eda3 483d
000000d0: fc97 e43d 6be7 8b3e c001 78be b31d 4c3b
000000e0: b512 6c3e 8a7c 8e3e 6ea9 c03d 2474 19be
000000f0: e483 a4bd b467 aa3d 6ddf 9fbc b05c 133e
00000100: b99b d0bd 80b7 b9bd 0b33 9c3e f3ce 953d
00000110: 75d1 97bd ee3b 74bd 659c 1d3d 265a 4ebd
00000120: 058f 523e 4bc5 a4be 44fd c03d 9d0b cfbe
00000130: f62f fe3d 9f39 0a3e def0 81bd 60db 003e
00000140: 9a49 1e3e 93f2 103e a7e9 803c 60a0 dd3d
00000150: 0894 793e 542a a13e 46e7 4abe dbec 18be
00000160: 795b 913d 4ec1 8e3e 9716 693e 485f 943e
00000170: e5e3 1f3e f52b 4c3e abbd 0c3e e864 a3bd
00000180: 02c4 973d 4d40 d13d af2b f8be add0 0cbf
00000190: ea7b bd3c 37da d83c 8f0c e33c 718b 7b3d
000001a0: c7be c43c 4944 643c 7578 0a3c bc19 983c
000001b0: 3a17 9e3e c4a8 bf3d 3850 d93e 7cbb 8d3e
000001c0: 20f3 293d 1337 ce3d dba1 6a3d 981b d8bd
000001d0: b632 f5bd 123f 96bd bc59 173e cf79 dfbb
000001e0: ec40 813e dbff a13c 6c62 933e 5498 673e
000001f0: 3497 35bb 8bda 263e af47 8dbd b009 593e
00000200: 75fb 1a3c 3539 803d 1aec 05be 2700 573e
00000210: c74e 4c3c 8536 0fbe 99c6 e6bd 02a0 0d3d
00000220: 4c9a 123d 8010 733d a064 4e3e fb9a 1a3e
00000230: c769 04be d6b2 613e 671d fcbd 05ab 9a3e
00000240: e69d 00be 323b e9bd dcc9 09be fca1 eabd
00000250: 1f53 7dbc 2767 80bc 3a24 173c 4570 86bc
00000260: 3c6e b0bc be21 4ebc 4c54 82bb 1b13 31bc
00000270: 54af d43e 410a cb3e 1ac5 ebbe 3080 e0be
00000280: b611 bcbc 248a 39bc fcab 79bc 163d aebb
00000290: 296c fabb 653e 493c 31c8 343c 0a2d 55bc
000002a0: 7a83 00be 02b2 a5bd e102 963e dc81 9a3e
000002b0: 2cdb 67bd 4fe4 6dbd 35da 473e 3172 a33d
000002c0: 1b68 7fbd 5dc6 923b a0a1 3dbd dc17 833d
000002d0: 4edc aa3e 5c74 423e c60d c03d b928 4d3d
000002e0: ba2f fdbc 631a 823e 4d2e 24be 7a95 a43d
000002f0: cd91 2a3d a82a 183e 09df 2ebe df61 6c3d
00000300: 0665 ba3e bb0d 053c befe b13e ec41 853e
00000310: df5e 14be ece8 493d fcb5 2a3d 172f a43e
00000320: bd5c 773e 153f 15bd 2dbf 133e cae8 8b3d
00000330: 155c a3be 7e09 553e d98e 563e bfe2 93be
00000340: d5f6 cf3d 9d44 a43d ae76 453d 922c ca3d
00000350: b14f c83d a855 babc e30d 7f3b 28cf 963d
00000360: d5bf ee3d f347 a33e 998d a83c 5482 91bb
00000370: 4419 9e3e 1594 cbbd 1f7b c63e 0fa3 c83d
00000380: 6b92 253e 40b8 6f3e ee31 a63e 8d51 11be
00000390: bb95 883e e3bc b1be 12ec bc3d 02f0 af3d
000003a0: a4f1 823c ffb3 30be 0f25 993d ae18 323e
000003b0: 2537 333e d05c 71be caeb 743e ad01 72bd

fc1.bias f4 [20]
0.27344283 -0.016794864 0.6051006 0.2559931 0.39009953 0.4540183 -0.0059495443 -0.18674631
0.03386026 0.11784982 -0.28796032 0.4272675 0.5616368 0.1112861 0.091020085 -0.10182476
-0.017852644 0.18155359 -0.21934363 0.40129992
00000000: b300 8c3e 6295 89bc dfe7 1a3f 8711 833e
00000010: 20bb c73e 1675 e83e 65f4 c2bb 6d3a 3fbe
00000020: 0eb1 0a3d 3f5b f13d 896f 93be cec2 da3e
00000030: 6ec7 0f3f f7e9 e33d bd68 ba3d 8089 d0bd
00000040: b53f 92bc 2fe9 393e 9e9b 60be 2f77 cd3e

fc2.weight f4 [20, 20]
0.60902786 0.14940126 0.33844295 0.32388952 -0.044785626 0.13574958 0.067611486 0.0472535
0.33725855 0.10152692 -0.10417103 0.05059762 0.61292934 0.41133493 0.18996777 0.30504966
-0.052297175 0.06487211 0.12151321 -0.061527554 -0.23434795 -0.1337651 0.017589 -0.16385928
-0.1041633 -0.26880604 0.079942174 0.0981532 0.16976124 0.06626437 -0.21269028 0.065327294
-0.05917539 -0.17905512 -0.038236067 -0.22887287 -0.011400323 -0.003875671 -0.21345396 -0.006391149
-0.44616812 0.012937851 -0.21612309 -0.40880144 0.2536939 0.44048142 0.20916137 -0.12444305
-0.27174702 -0.18251789 -0.5399683 0.3889315 -0.4327376 -0.34895304 -0.32770824 -0.050279412
0.16911411 0.30351892 0.044097643 0.10707943 0.42144254 0.059562672 0.44729677 0.38256612
-0.12574126 0.10792493 -0.1238053 -0.112127155 0.4022702 0.29963604 0.053407513 -0.14723055
0.7899062 0.42655373 0.18894242 0.32167298 0.18920448 0.086145386 0.08091344 0.09413103
-0.38779524 -0.14753486 -0.0957923 -0.25239444 0.05377079 0.29562 0.22391579 -0.081766695
-0.22554861 0.1479837 -0.057478692 0.3641553 -0.4833521 -0.2412903 0.07701582 -0.060632765
0.18946163 0.2112294 0.02979416 0.30528224 0.29269654 0.24440256 0.39696327 0.32562494
0.3093337 -0.059135657 0.12930523 0.29837534 0.3744659 0.013348796 -0.055676382 -0.009799276
0.78514004 0.29994074 0.3779661 -0.111019745 -0.049889717 0.13743256 0.17382194 -0.009002012
0.4251346 -0.022902971 0.26382315 0.14043659 -0.07339009 0.007800979 -0.046531003 0.28976938
0.09541499 0.050706014 0.18364474 -0.081165634 0.46986383 -0.041116357 0.039869703 0.13462517
0.14352837 -0.15763988 0.3019312 -0.21605873 -0.48771548 -0.15737838 -0.14418288 -0.32927817
0.06767237 0.30560416 0.25448412 -0.06306854 -0.3674506 0.106487595 -0.16909799 0.13569279
-0.20922105 -0.15447114 -0.20032628 -0.15574469 -0.005681751 0.07060149 -0.014390187 0.08562053
0.07980502 0.02567893 -0.09472116 0.17818214 -0.11470365 0.17667642 -0.1446002 0.009964815
0.15051131 -0.17545563 0.105318524 -0.22296913 -0.2077624 -0.13435638 -0.0016045583 0.02374429
-0.16722691 0.15404733 -0.22204593 -0.080301486 -0.34796336 0.13041812 -0.29772666 -0.2060118
0.19217777 0.2674895 0.25227687 -0.009095951 0.0073107826 0.13487129 0.060602058 0.2274882
-0.37594953 -0.20414367 0.13956217 -0.12815079 -0.1643147 0.17856938 0.096762344 0.28775117
-0.4414092 -0.19533165 0.02367712 -0.34893253 0.18454458 0.05886405 -0.06848249 0.13547453
-0.15673752 0.12177057 0.112205945 0.34210396 -0.24725583 -0.16044182 0.1311311 -0.1449183
0.15047306 0.015478424 -0.18612675 0.066483095 -0.34362745 -0.17758696 -0.35808972 0.15868297
0.11196825 -0.02600637 0.066381924 0.22638038 0.0057418244 -0.110289335 -0.23919018 0.12628286
-0.6466633 0.05796811 0.10216055 0.10533725 0.14615484 -0.18684544 -0.1845845 0.013236773
0.26478198 0.31690234 0.5641486 0.30710948 0.11292982 0.17131422 -0.100796625 -0.04207726
0.18888128 0.3245289 0.11302482 0.10649146 0.63252187 0.5467894 0.37429047 0.31162724
00000000: 40e9 1b3f a5fc 183e 6548 ad3e d9d4 a53e
00000010: 2271 37bd f001 0b3e e477 8a3d e38c 413d
00000020: 27ad ac3e 59ed cf3d 9f57 d5bd 733f 4f3d
00000030: f0e8 1c3f 7e9a d23e e986 423e 782f 9c3e
00000040: 9035 56bd abdb 843d ebdb f83d 5104 7cbd
00000050: e9f8 6fbe b8f9 08be ce16 903c baca 27be
00000060: 9153 d5bd f2a0 89be b9b8 a33d 8b04 c93d
00000070: e4d5 2d3e 9db5 873d 7bcb 59be 51ca 853d
00000080: e561 72bd 3a5a 37be 6c9d 1cbd a65d 6abe
00000090: 6cc8 3abc f8fe 7dbb ad93 5abe d86c d1bb
000000a0: 2670 e4be 48f9 533c 5f4f 5dbe 6c4e d1be
000000b0: 2be4 813e c886 e13e 662e 563e ffdb febd
000000c0: 6d22 8bbe f8e5 3abe 5d3b 0abf 0822 c73e
000000d0: c88f ddbe f9a9 b2be 60c9 a7be c9f1 4dbd
000000e0: 402c 2d3e d566 9b3e bb9f 343d 764c db3d
000000f0: 51c7 d73e fdf7 733d 1504 e53e b5df c33e
00000100: 51c2 00be bf07 dd3d a28d fdbd eca2 e5bd
00000110: 5cf6 cd3e e569 993e d6c1 5a3d 9bc3 16be
00000120: 4b37 4a3f 4065 da3e 1f7a 413e 52b2 a43e
00000130: d2be 413e fe6c b03d f2b5 a53d c5c7 c03d
00000140: 198d c6be 6113 17be c12e c4bd d839 81be
00000150: c33e 5c3d 815b 973e 2e4a 653e 4c75 a7bd
00000160: 37f6 66be 0a89 173e c76e 6bbd 9072 ba3e
00000170: ed79 f7be ce14 77be 78ba 9d3d 105a 78bd
00000180: 3b02 423e 854c 583e e212 f43c f44d 9c3e
00000190: 52dc 953e aa44 7a3e c53e cb3e 50b8 a63e
000001a0: fd60 9e3e 3b38 72bd 9768 043e a7c4 983e
000001b0: ffb9 bf3e e9b4 5a3c eb0c 64bd 248d 20bc
000001c0: f0fe 483f d591 993e c684 c13e 525e e3bd
000001d0: 2959 4cbd 1fbb 0c3e 61fe 313e 2d7d 13bc
000001e0: 3eab d93e 039f bbbc d413 873e 9cce 0f3e
000001f0: 8b4d 96bd 5b9f ff3b 4b97 3ebd a75c 943e
00000200: ef68 c33d 1cb1 4f3d 5e0d 3c3e 2b3a a6bd
00000210: fe91 f03e a069 28bd 6a4e 233d 2edb 093e
00000220: 1af9 123e 596c 21be ba96 9a3e 803e 5dbe
00000230: d8b5 f9be cc27 21be ada4 13be 2697 a8be
00000240: d097 8a3d 2678 9c3e be4b 823e 142a 81bd
00000250: 7c22 bcbe 2b16 da3d 0628 2dbe 0df3 0a3e
00000260: 0b3e 56be af2d 1ebe 5522 4dbe 897b 1fbe
00000270: fb2d babb 8497 903d d2c4 6bbc d159 af3d
00000280: d070 a33d 9f5c d23c 2bfd c1bd 6175 363e
00000290: bfe9 eabd aaea 343e 1312 14be 7743 233c
000002a0: a31f 1a3e a4aa 33be 3db1 d73d 0552 64be
000002b0: abbf 54be b894 09be 0b50 d2ba 6383 c23c
000002c0: 883d 2bbe 95be 1d3e 0260 63be 1b75 a4bd
000002d0: 4128 b2be 548c 053e a16f 98be c2f4 52be
000002e0: 40ca 443e 62f4 883e 6f2a 813e 2f07 15bc
000002f0: 4a8f ef3b b31b 0a3e dd39 783d abf2 683e
00000300: 757c c0be 0a0b 51be 63e9 0e3e f639 03be
00000310: 1d42 28be e4da 363e 562b c63d 1f54 933e
00000320: 6300 e2be 0505 48be 85f6 c13c 49a7 b2be
00000330: 41f9 3c3e 6e1b 713d 8c40 8cbd d6b9 0a3e
00000340: cd7f 20be d962 f93d 3bcc e53d 4028 af3e
00000350: a230 7dbe dc4a 24be 3b47 063e 7665 14be
00000360: 9c15 1a3e 3799 7d3c 0398 3ebe 4a28 883d
00000370: f0ef afbe 5bd9 35be 8957 b7be ca7d 223e
00000380: 9c4f e53d 500b d5bc 3ff3 873d 42d0 673e
00000390: ea25 bc3b 60df e1bd 45ee 74be 4b50 013e
000003a0: ba8b 25bf f86f 6d3d 8d39 d13d 0ebb d73d
000003b0: 9da9 153e 6954 3fbe b803 3dbe 0ddf 583c
000003c0: 8191 873e 0641 a23e 0b6c 103f 743d 9d3e
000003d0: c047 e73d ff6c 2f3e 766e cebd 3459 2cbd
000003e0: 186a 413e a728 a63e 8f79 e73d 3218 da3d
000003f0: f4ec 213f 64fa 0b3f 00a3 bf3e 9b8d 9f3e

fc2.bias f4 [20]
0.1581423 -0.14818947 0.21101032 -0.015135059 0.12701546 -0.14398845 -0.14978902 0.48394823
-0.15117879 0.2871856 0.07159865 0.13711497 0.189751 0.20848957 0.41532847 -0.050510388
-0.21672347 0.25646454 0.4084085 -0.011744484
00000000: 0ef0 213e fbbe 17be 1713 583e 0af9 77bc
00000010: 5710 023e b571 13be 4b62 19be 10c8 f73e
00000020: 9dce 1abe fe09 933e 50a2 923d de67 0c3e
00000030: 164e 423e 4a7e 553e efa5 d43e fbe3 4ebd
00000040: c2ec 5dbe 524f 833e eb1a d13e f06b 40bc

fc3.weight f4 [20, 20]
0.43254185 0.13051727 -0.20982507 0.4672616 0.086988345 0.14187047 -0.22061856 0.15340866
0.20833555 0.13573451 -0.102556184 0.29212812 0.53813267 0.40329358 0.25068796 0.24249196
-0.023652347 0.3587744 0.122199096 0.28853375 -0.1472181 0.16056755 0.32465872 0.050530743
0.24941252 -0.12740842 -0.29976436 0.28127152 -0.19210254 0.20752461 0.21438202 0.40433738
-0.104906134 -0.6069224 0.22632515 -0.15185335 0.082986064 -0.04643649 0.24342652 0.05520904
-0.024677766 -0.024123674 0.48846775 -0.13473475 0.1605676 -0.0019505674 -0.21441504 0.5064235
-0.21631403 0.34374785 0.2723378 0.1143386 -0.15566242 -0.4925904 0.47917265 -0.07334667
0.079127654 0.21891715 0.32404512 -0.26564142 -0.08807462 -0.018829618 0.086264916 -0.09951458
0.097806886 -0.07616317 0.20248386 -0.123037495 0.2002704 -0.11724701 -0.08601496 0.026606826
0.13428245 -0.14291911 0.12754804 0.039343946 0.14006378 -0.20786445 -0.12393588 -0.17007016
0.2921601 -0.1805612 -0.22194028 0.114598356 -0.21114472 0.19257343 0.35260543 -0.061374914
0.15625927 0.20123391 0.16680804 -0.16813317 0.31607008 0.6378428 0.152357 0.1315801
-0.20924126 0.32779583 0.23571579 0.39820525 -0.00922995 -0.12965834 0.37302154 -0.2188477
0.30135697 0.12113064 -0.06858665 0.2958321 0.21421972 0.26399225 -0.051542476 0.47552577
0.1417612 -0.36304313 0.52703273 -0.28657755 -0.128944 -0.050215404 0.22657134 0.037596177
-0.14661688 -0.23011757 -0.16129307 -0.17203294 -0.23754907 -0.007280428 0.03824718 0.017130457
0.042612266 0.00089026394 0.15468377 0.1721281 -0.034603667 0.15745951 0.07796555 0.108086355
0.12334452 0.11535925 -0.1104 0.058819298 -0.19253094 0.054187365 0.15523918 0.19287097
0.05962645 0.083883286 -0.17265768 -0.16506429 0.18496177 -0.10436766 -0.15967721 -0.23183428
0.03077413 0.1100801 -0.051678374 -0.14224474 -0.14962238 -0.037395 -0.13118884 -0.049430918
-0.067118265 0.10016647 0.30516547 -0.02843095 0.2644025 0.16299 -0.36389434 0.22127672
-0.10350061 0.24367255 -0.034841944 0.30150044 0.02417423 -0.4964353 0.29538316 -0.24280278
-0.12898973 0.27749246 0.27141124 0.07821272 0.08082073 -0.17501305 0.121301234 -0.15980135
-0.22374056 0.057705376 0.15081185 -0.22189702 -0.0400036 -0.109995626 0.12043757 -0.05970271
-0.26730868 -0.16255143 0.26973155 0.08284475 -0.01248895 0.15618578 0.22595808 -0.031896543
-0.14669408 0.12683488 0.117727056 -0.09595059 -0.052088022 0.10897328 -0.04190151 0.09721331
-0.07969701 -0.080972336 0.080275096 -0.096930064 0.119760856 -0.10546308 -0.2166504 0.017766228
0.20031951 -0.07649232 -0.039010774 -0.07804524 0.31955898 -0.032470763 -0.40962788 0.3650008
-0.30080217 0.36068827 0.48367545 -0.31149024 0.17701241 -0.28085396 -0.14724322 -0.3700889
0.29084376 0.5521643 -0.23308803 0.58897156 0.050588142 0.21810763 -0.1544663 0.28709298
0.05407539 -0.031193607 -0.11620836 0.037318464 -0.1544351 0.07577751 -0.14973114 0.2090644
-0.09103832 -0.007198828 -0.0063862195 -0.028595231 -0.17418385 0.20306686 -0.12996867 -0.10723456
00000000: 2076 dd3e 52a6 053e 62dc 56be ea3c ef3e
00000010: f226 b23d 7e46 113e d5e9 61be 2917 1d3e
00000020: ea55 553e fdfd 0a3e fa08 d2bd d191 953e
00000030: 10c3 093f 7f7c ce3e 2c5a 803e d04f 783e
00000040: 91c2 c1bc 47b1 b73e 8543 fa3d b2ba 933e
00000050: 57c0 16be d26b 243e ab39 a63e 53f9 4e3d
00000060: ff65 7f3e 5a77 02be b77a 99be d202 903e
00000070: 87b6 44be 5581 543e f686 5b3e 4f05 cf3e
00000080: 07d9 d6bd 445f 1bbf c8c1 673e 727f 1bbe
00000090: 99f4 a93d 3034 3ebd cd44 793e e022 623d
000000a0: 0729 cabc 039f c5bc 7218 fa3e e8f7 09be
000000b0: d56b 243e 2eaa ffba 9e8f 5bbe f8a4 013f
000000c0: 6d81 5dbe b8ff af3e dc6f 8b3e 5b2a ea3d
000000d0: f865 1fbe cf34 fcbe 1e56 f53e c736 96bd
000000e0: ae0d a23d d12b 603e 3ee9 a53e 2702 88be
000000f0: 7760 b4bd 9240 9abc a9ab b03d 4dce cbbd
00000100: fa4e c83d 70fb 9bbd ee57 4f3e 15fb fbbd
00000110: af13 4d3e 331f f0bd 9d28 b0bd 8ff6 d93c
00000120: 5781 093e 6359 12be f49b 023e 1e27 213d
00000130: e16c 0f3e 6bda 54be 18d2 fdbd df26 2ebe
00000140: 0296 953e 09e5 38be 5044 63be 8bb2 ea3d
00000150: 5236 58be f831 453e b388 b43e 4364 7bbd
00000160: 6e02 203e 4310 4e3e bacf 2a3e 1a2b 2cbe
00000170: f0d3 a13e aa49 233f 7903 1c3e efbc 063e
00000180: 5743 56be dbd4 a73e 7b5f 713e 8fe1 cb3e
00000190: 3739 17bc 28c5 04be aefc be3e 9d19 60be
000001a0: 764b 9a3e 5713 f83d 2877 8cbd 4e77 973e
000001b0: 6a5c 5b3e fe29 873e 341e 53bd 1d78 f33e
000001c0: d929 113e cae0 b9be 9eeb 063f 4bba 92be
000001d0: e509 04be abae 4dbd 5102 683e 73fe 193d
000001e0: bc22 16be f1a3 6bbe 032a 25be 6729 30be
000001f0: 1040 73be a890 eebb 13a9 1c3d 2c55 8c3c
00000200: 338a 2e3d 9a60 693a 6c65 1e3e 5942 303e
00000210: 93bc 0dbd 113d 213e 67ac 9f3d 615c dd3d
00000220: 0d9c fc3d 7841 ec3d 6519 e2bd 81ec 703d
00000230: d526 45be 92f3 5d3d 05f7 1e3e f87f 453e
00000240: dd3a 743d 00cb ab3d 2dcd 30be 9d06 29be
00000250: 9e66 3d3e b6be d5bd 6c82 23be f765 6dbe
00000260: 071a fc3c ad71 e13d b4ac 53bd 9ba8 11be
00000270: 9c36 19be 802b 19bd 5e56 06be 1378 4abd
00000280: 4d75 89bd 1424 cd3d a63e 9c3e 06e8 e8bc
00000290: c45f 873e dae6 263e 5c50 babe 5d96 623e
000002a0: 21f8 d3bd 4c85 793e 6db6 0ebd 445e 9a3e
000002b0: 0909 c63c c52c febe 763c 973e 4ba1 78be
000002c0: e215 04be 7e13 8e3e 6af6 8a3e fe2d a03d
000002d0: 5785 a53d 9f36 33be c86c f83d f7a2 23be
000002e0: 3f1c 65be 795c 6c3d 6c6e 1a3e f938 63be
000002f0: d1da 23bd 6345 e1bd f9a7 f63d d48a 74bd
00000300: afdc 88be e273 26be 411a 8a3e 82aa a93d
00000310: 749e 4cbc 2aef 1f3e 8e61 673e f3a5 02bd
00000320: f936 16be 01e1 013e e21a f13d be81 c4bd
00000330: 405a 55bd 622d df3d eba0 2bbd c617 c73d
00000340: 3038 a3bd d3d4 a5bd 4567 a43d 4583 c6bd
00000350: 2e45 f53d 07fd d7bd 9ad9 5dbe 7b8a 913c
00000360: 8f20 4d3e 01a8 9cbd c3c9 1fbd 2fd6 9fbd
00000370: 3c9d a33e 1000 05bd bfba d1be 63e1 ba3e
00000380: be02 9abe 22ac b83e 4fa4 f73e a67b 9fbe
00000390: be42 353e 17cc 8fbe edc6 16be 4b7c bdbe
000003a0: 79e9 943e a45a 0d3f a1ae 6ebe d7c6 163f
000003b0: 8335 4f3d 9b57 5f3e 6a2c 1ebe dafd 923e
000003c0: 287e 5d3d bc89 ffbc a6fe edbd 3fdb 183d
000003d0: 3c24 1ebe 3d31 9b3d 1f53 19be fa14 563e
000003e0: 4c72 babd 25e4 ebbb 7e43 d1bb 8c40 eabc
000003f0: 405d 32be c2f0 4f3e 8216 05be cb9d dbbd

fc3.bias f4 [20]
0.3109617 0.35534912 0.112784386 -0.09519236 0.076455094 0.40648472 -0.13891776 -0.16629392
0.17801328 -0.062316228 -0.20197158 -0.18810304 -0.14799532 0.13248105 -0.13921121 -0.24027234
0.016143639 0.19067141 -0.121560164 0.29165825
00000000: 5f36 9f3e 52f0 b53e 80fb e63d 36f4 c2bd
00000010: 7d94 9c3d c41e d03e 7540 0ebe f448 2abe
00000020: 1d49 363e 4d3f 7fbd a3d1 4ebe 159e 40be
00000030: 168c 17be 1da9 073e 628d 0ebe f409 76be
00000040: aa3f 843c 5e3f 433e 89f4 f8bd 3b54 953e

fc4.weight f4 [20, 20]
0.078565516 0.14538115 0.25775942 -0.09160063 -0.10158912 0.33119145 -0.093117766 -0.042988542
-0.02158996 0.2884353 0.09775883 -0.37394768 -0.0615713 -0.044715058 -0.025808433 -0.37833577
-0.14970051 0.46314263 0.07147393 0.14932847 0.41840795 0.21263748 0.21296166 -0.15751733
0.32903114 0.150588 0.21359648 0.033305623 0.33402538 -0.24470787 -0.17437498 0.0268251
-0.19109134 0.06825804 0.17889346 -0.1577388 -0.02396713 0.539556 -0.004516275 0.3316082
-0.1654343 -0.012947382 0.0817716 -0.18395355 -0.027417036 0.04985209 -0.12156861 0.055025704
0.037348423 0.024833616 -0.13349779 -0.13561425 -0.15268359 0.004870106 -0.18001091 -0.15080841
0.086286455 -0.14142065 -0.1721478 0.14253886 -0.23140359 0.11964849 -0.22611222 -0.2039675
-0.101843566 -0.011475482 0.120946415 -0.038071126 0.0076744542 -0.11724919 0.15851896 0.23624375
0.19759607 -0.1641757 -0.13098066 -0.056200985 -0.1970518 0.15045498 -0.1770278 -0.19241807
0.040078826 -0.073562264 -0.13480498 -0.21770567 -0.09834878 -0.18883689 0.105215415 -0.11663077
-0.041013014 0.073319055 -0.0013944024 0.04819398 0.021640146 -0.03713984 0.18592978 -0.14380105
-0.015290579 -0.03690103 0.025981903 -0.092859775 0.33078122 0.43340895 0.41843867 0.21652175
0.00506816 0.11912271 -0.16022867 -0.13318755 0.18722194 0.24913542 -0.05275104 -0.11871558
-0.15770689 -0.07270377 -0.05880255 -0.2971451 0.14592768 0.2833275 -0.08754764 0.294709
0.21100223 0.19073066 0.26543054 -0.04296439 -0.070887126 0.1879207 0.21308035 0.032422997
0.18145415 0.16356027 0.056397606 -0.45985082 0.16449763 0.022906076 0.1233038 -0.030014364
0.20074794 0.48519146 -0.17459366 0.079221696 0.14858985 -0.14047907 0.15622965 0.040826127
0.056043994 0.29124382 -0.11856337 -0.004863785 0.2315138 -0.30577546 0.18243608 0.3421198
-0.11263051 0.37271327 -0.1564143 0.12660295 0.09240521 -0.07889613 0.18276715 0.11525499
-0.023233734 -0.22750664 -0.39198747 0.15159525 0.013375793 0.07129104 0.03343651 -0.051645894
0.058454268 -0.07499458 -0.12655537 0.26252592 0.21790224 0.45374122 -0.10095311 0.17064418
-0.16180637 -0.4770563 0.39234543 -0.11373559 0.11180279 0.03753392 0.33665812 -0.08922347
0.009836934 0.19445574 0.16790986 0.14609018 0.017247282 0.36456904 0.22320499 -0.35030568
-0.11368406 -0.025914235 -0.011897686 -0.18773562 -0.047649514 0.2586641 0.029249249 -0.024680287
-0.17377506 -0.13380776 0.08638786 -0.18446922 -0.075327806 -0.1586513 -0.018898709 0.019290073
-0.14383218 0.04753059 -0.2020449 0.11053961 0.017873492 0.0026728536 -0.043481518 0.022096459
-0.20565487 -0.2199478 0.09331286 0.13102259 0.27338362 0.41791782 0.45998394 -0.2117291
0.37635812 0.26482388 -0.1833483 0.11577889 0.07616909 -0.4795647 0.06267107 0.07971614
0.07086022 -0.021921717 -0.006438928 0.0020273186 0.20726013 0.20106964 0.18968408 0.4261181
0.29945293 -0.28966874 -0.18257912 -0.09587998 0.39885303 -0.3140003 0.1174902 0.13859044
-0.1644061 -0.18910722 0.0025740108 0.5771675 0.17385486 0.28863767 -0.16537634 0.09980233
00000000: f5e6 a03d ccde 143e 0bf9 833e 1c99 bbbd
00000010: f50d d0bd ed91 a93e 87b4 bebd c114 30bd
00000020: 6edd b0bc cbad 933e c835 c83d 1276 bfbe
00000030: 3032 7cbd 2327 37bd 356c d3bc 3ab5 c1be
00000040: 174b 19be 0821 ed3e ec60 923d 90e9 183e
00000050: 9139 d63e a4bd 593e 9f12 5a3e 394c 21be
00000060: c576 a83e be33 1a3e 09b9 5a3e 7a6b 083d
00000070: 6005 ab3e b394 7abe 5b8f 32be 50c0 db3c
00000080: 73ad 43be dfca 8b3d d92f 373e 4886 21be
00000090: b756 c4bc 5820 0a3f 43fd 93bb 8dc8 a93e
000000a0: 9c67 29be 4221 54bc de77 a73d 525e 3cbe
000000b0: b199 e0bc b531 4c3d f7f8 f8bd a262 613d
000000c0: a9fa 183d de6f cb3c a5b3 08be 76de 0abe
000000d0: 1659 1cbe 6995 9f3b c854 38be 856d 1abe
000000e0: f4b6 b03d 93d0 10be 8347 30be b5f5 113e
000000f0: 10f5 6cbe 440a f53d f689 67be dbdc 50be
00000100: 5c93 d0bd a903 3cbc c1b2 f73d 78f0 1bbd
00000110: fd79 fb3b 5820 f0bd cb52 223e e2e9 713e
00000120: a056 4a3e ad1d 28be cb1f 06be 0133 66bd
00000130: f2c7 49be df10 1a3e c746 35be 3e09 45be
00000140: b229 243d d0a7 96bd 510a 0abe 3cee 5ebe
00000150: 166b c9bd 755e 41be 2e7b d73d 1ddc eebd
00000160: 43fd 27bd 4d28 963d 61c4 b6ba 0d67 453d
00000170: ad46 b13c f21f 18bd 6064 3e3e 9540 13be
00000180: 5685 7abc 8925 17bd 00d8 d43c 442d bebd
00000190: 285c a93e c7e7 dd3e 983d d63e e1b7 5d3e
000001a0: cf12 a63b 9bf6 f33d fc12 24be 5162 08be
000001b0: 1cb7 3f3e 5b1d 7f3e 7911 58bd 2721 f3bd
000001c0: ea7d 21be b7e5 94bd f1da 70bd 6723 98be
000001d0: 116e 153e 4d10 913e 2d4c b3bd 19e4 963e
000001e0: f810 583e e64e 433e 83e6 873e 6efb 2fbd
000001f0: 452d 91bd 496e 403e bc31 5a3e facd 043d
00000200: 1ecf 393e 587c 273e 2d01 673d 9171 ebbe
00000210: 1172 283e 86a5 bb3c b486 fc3d afe0 f5bc
00000220: de90 4d3e 046b f83e aec8 32be fc3e a23d
00000230: f027 183e bfd9 0fbe aafa 1f3e 4c39 273d
00000240: 638e 653d e91d 953e 5ad1 f2bd 6360 9fbb
00000250: f411 6d3e 9a8e 9cbe 86d0 3a3e 542a af3e
00000260: d3aa e6bd 46d4 be3e 122b 20be 34a4 013e
00000270: f13e bd3d 4b94 a1bd 5027 3b3e cf0a ec3d
00000280: ac54 bebc 80f7 68be 95b2 c8be c93b 1b3e
00000290: 2426 5b3c 0901 923d b9f4 083d a58a 53bd
000002a0: be6d 6f3d c296 99bd bb97 01be cc69 863e
000002b0: c421 5f3e c550 e83e 81c0 cebd 59bd 2e3e
000002c0: 92b0 25be b940 f4be 80e1 c83e 34ee e8bd
000002d0: dcf8 e43d 2bbd 193d 745e ac3e cbba b6bd
000002e0: 172b 213c 681f 473e 90f0 2b3e aa98 153e
000002f0: 2c4a 8d3c cba8 ba3e d98f 643e 445b b3be
00000300: 30d3 e8bd 174a d4bc 83ee 42bc c43d 40be
00000310: 232c 43bd 9f6f 843e 1f9c ef3c 502e cabc
00000320: 17f2 31be e704 09be 1eec b03d 80e5 3cbe
00000330: 7745 9abd 7d75 22be 77d1 9abc 3706 9e3c
00000340: be48 13be 70af 423d dce4 4ebe 9762 e23d
00000350: 6e6b 923c 0b2b 2f3b ad19 32bd a203 b53c
00000360: 3197 52be ff39 61be d01a bf3d c92a 063e
00000370: f0f8 8b3e 53f9 d53e 0483 eb3e 83cf 58be
00000380: 03b2 c03e ff96 873e a8bf 3bbe 7c1d ed3d
00000390: 8afe 9b3d 8189 f5be b159 803d 3742 a33d
000003a0: 2a1f 913d 2c95 b3bc a5fd d2bb c3dc 043b
000003b0: 003c 543e 33e5 4d3e 8b3c 423e 272c da3e
000003c0: e551 993e 764f 94be 05f6 3abe b95c c4bd
000003d0: 7736 cc3e a6c4 a0be b49e f03d a7ea 0d3e
000003e0: 135a 28be 53a5 41be bcb0 283b 40c1 133f
000003f0: 0207 323e 51c8 933e 6a58 29be 2a65 cc3d

fc4.bias f4 [20]
0.22368923 0.39461827 -0.12717131 0.09827424 -0.10826407 0.2461982 -0.06183997 0.1293889
0.17049153 0.09961004 -0.16561717 0.2978457 -0.15751083 -0.029324552 0.21099931 -0.013453173
0.34197143 0.18546075 -0.021782959 0.10984278
00000000: ca0e 653e 680b ca3e 3239 02be 0144 c93d
00000010: 8db9 ddbd 621b 7c3e e94b 7dbd 867e 043e
00000020: 5595 2e3e 5900 cc3d 8c97 29be 3b7f 983e
00000030: 854a 21be 0b3a f0bc 3410 583e b36a 5cbc
00000040: e116 af3e 6ce9 3d3e 2d72 b2bc 40f5 e03d

fc5.weight f4 [20, 20]
0.60810643 0.17314312 0.18583843 -0.08051506 -0.06994443 0.39897853 0.11414648 0.19296966
-0.41202193 0.3431972 -0.11767938 0.19487086 -0.064472586 -0.15989746 0.4511485 -0.1597564
0.21240957 0.21439509 0.06829487 -0.2095692 0.16470194 0.2487616 -0.19057292 0.13447161
0.2055561 0.05820586 0.4248009 -0.06348868 -0.229106 0.03989949 0.08781123 0.36551523
-0.40936732 -0.08803829 0.25394285 -0.21838091 0.3588966 0.12985004 0.30335817 -0.39024594
-0.10605002 -0.12859425 -0.061183773 -0.13922025 -0.13421689 0.00465222 -0.016041318 -0.14665657
0.03869698 0.028261658 -0.0824968 -0.17872642 -0.057547174 0.011114862 -0.10203173 -0.052462835
-0.12652695 -0.054673336 -0.042576015 0.07721598 -0.13877402 -0.15426381 0.0955205 -0.09050594
0.0025511133 -0.11041094 -0.06388067 0.0028505134 -0.14543027 0.16181251 -0.20869654 -0.1048341
-0.20437784 0.118155174 -0.031533442 0.17080629 -0.15423706 -0.055705085 -0.20831022 -0.048824877
0.1533911 -0.19699043 0.12752077 -0.13161014 -0.021101642 0.043822076 0.015682396 0.050780866
-0.1798488 0.13000987 0.021309504 0.05447603 -0.025484396 -0.18812756 -0.069904976 -0.05243879
-0.17662328 0.08325343 0.072538376 0.02737676 0.03532135 -0.05050923 -0.13790752 -0.10150721
0.21113637 0.03499309 -0.19232969 -0.17173865 -0.08051439 -0.013746867 0.2099126 -0.10315504
0.115057275 0.07991399 0.021859225 -0.06371357 -0.017133178 -0.118828155 -0.15118816 -0.029509807
0.28365728 0.35078877 -0.0049804617 -0.13203795 0.21792342 0.2966171 0.2292971 0.2863769
-0.49257615 0.18957734 0.18936804 0.32743576 -0.23786056 -0.27223152 0.43303722 -0.32095554
0.41582695 -0.16728151 0.22450437 -0.33354774 0.36148912 0.25945377 -0.19751787 -0.06678972
-0.12164941 0.16213942 0.13703239 0.10605413 -0.15464668 0.023686264 0.13004096 0.244476
-0.042397916 -0.10161468 0.27077237 -0.08628328 0.19806992 0.12497955 0.1777603 0.0014866468
-0.18303323 0.018876724 0.022994777 0.22867285 0.15825053 -0.21431957 -0.23288168 0.16204782
0.55440444 -0.10252726 -0.064520776 0.15204006 0.31434548 0.28716356 -0.2771169 0.23878442
0.036086366 0.007961117 -0.08737723 0.28793338 -0.18378904 -0.16574372 0.08371466 -0.20076835
-0.21524392 0.098819494 -0.20274223 -0.10024237 -0.032412026 0.19564448 -0.15013935 -0.116628826
-0.053034924 -0.10168789 -0.22271195 0.059239298 -0.20568268 -0.13313383 0.15546308 0.016292606
-0.17587477 -0.03259046 -0.03762514 0.15322241 -0.20886104 -0.13319962 -0.056758236 -0.049457584
0.0003885113 -0.0525846 -0.10632268 -0.178242 -0.071217544 0.011795309 0.018935254 -0.16164856
0.08588179 -0.14461452 -0.17870554 0.1618066 0.1575636 0.07689768 -0.19890681 -0.05746228
0.16853426 0.2360733 0.06716295 0.16773492 0.5306913 -0.13452655 -0.17164074 0.16388871
-8.024245e-05 0.30004203 0.025437696 0.12045527 0.11786059 0.10297612 0.031642873 0.38059255
-0.25398257 0.010315711 -0.0542164 0.1069644 0.20084408 0.049971174 -0.13185497 0.2543949
0.22685163 -0.29650697 -0.08377659 0.025219556 0.38605216 0.4100937 -0.0737839 0.26475894
00000000: ddac 1b3f 6e4c 313e 6e4c 3e3e 14e5 a4bd
00000010: 063f 8fbd ea46 cc3e a1c5 e93d d799 453e
00000020: 8af4 d2be 8bb7 af3e e301 f1bd 3a8c 473e
00000030: 340a 84bd 29bc 23be f0fc e63e 2f97 23be
00000040: e581 593e 638a 5b3e 2ede 8b3d 4f99 56be
00000050: a0a7 283e 5cbb 7e3e 8c25 43be edb2 093e
00000060: 4c7d 523e 4569 6e3d 817f d93e 5a06 82bd
00000070: c39a 6abe a66d 233d 60d6 b33d d024 bb3e
00000080: 9898 d1be 6b4d b4bd cc04 823e 3f9f 5fbe
00000090: 4cc1 b73e 69f7 043e c351 9b3e 51ce c7be
000000a0: c130 d9bd 36ae 03be d69b 7abd c18f 0ebe
000000b0: 2770 09be a671 983b 1569 83bc 242d 16be
000000c0: b980 1e3d fe84 e73c 15f4 a8bd 0f04 37be
000000d0: 96b6 6bbd 1c1b 363c 03f6 d0bd 45e3 56bd
000000e0: 4890 01be 26f1 5fbd 3064 2ebd 6923 9e3d
000000f0: c71a 0ebe 55f7 1dbe 40a0 c33d 2e5b b9bd
00000100: 9430 273b 221f e2bd ded3 82bd aecf 3a3b
00000110: aceb 14be 2eb2 253e 8cb4 55be 43b3 d6bd
00000120: 6d48 51be 57fb f13d 3629 01bd d8e7 2e3e
00000130: 52f0 1dbe 042b 64bd 464f 55be 98fc 47bd
00000140: 8e12 1d3e dcb7 49be ce94 023e cfc4 06be
00000150: 5add acbc c77e 333d 5e78 803c 99ff 4f3d
00000160: 492a 38be 4f21 053e 4591 ae3c 4222 5f3d
00000170: a7c4 d0bc 83a4 40be 572a 8fbd 0fca 56bd
00000180: bcdc 34be c680 aa3d 008f 943d 3a45 e03c
00000190: 1fad 103d c4e2 4ebd a137 0dbe 03e3 cfbd
000001a0: 2234 583e ea54 0f3d 13f2 44be 42dc 2fbe
000001b0: bae4 a4bd 8a3a 61bc 54f3 563e f342 d3bd
000001c0: 26a3 eb3d f2a9 a33d 1e12 b33c 437c 82bd
000001d0: e15a 8cbc 2d5c f3bd 12d1 1abe 8dbe f1bc
000001e0: 873b 913e 969a b33e 2433 a3bb f534 07be
000001f0: 5127 5f3e 32de 973e dccc 6a3e fe9f 923e
00000200: f132 fcbe 9020 423e b2e9 413e a9a5 a73e
00000210: b891 73be ee61 8bbe 0eb7 dd3e 4954 a4be
00000220: 45e7 d43e d84b 2bbe 79e4 653e c5c6 aabe
00000230: 1a15 b93e 20d7 843e 2042 4abe 0cc9 88bd
00000240: 5323 f9bd e007 263e 3852 0c3e e832 d93d
00000250: b35b 1ebe b209 c23c 7529 053e eb57 7a3e
00000260: 70a9 2dbd 5b1b d0bd ada2 8a3e 4ab5 b0bd
00000270: d7d2 4a3e 47f5 ff3d cc06 363e 97db c23a
00000280: 106d 3bbe 5ca3 9a3c 8b5f bc3c 3729 6a3e
00000290: 6d0c 223e 9776 5bbe 8978 6ebe ddef 253e
000002a0: 73ed 0d3f d0f9 d1bd 7823 84bd 64b0 1b3e
000002b0: e4f1 a03e 1a07 933e 44e2 8dbe e783 743e
000002c0: 4ccf 133d 586f 023c d5f2 b2bd 016c 933e
000002d0: 3233 3cbe b9b8 29be 9772 ab3d 3896 4dbe
000002e0: e768 5cbe e061 ca3d a99b 4fbe df4b cdbd
000002f0: 79c2 04bd 0757 483e 21be 19be 18db eebd
00000300: 263b 59bd be41 d0bd 9a0e 64be e8a4 723d
00000310: 7b9e 52be 3c54 08be b731 1f3e 1278 853c
00000320: 8418 34be 937d 05bd d21c 1abd 56e6 1c3e
00000330: abdf 55be 7b65 08be 537b 68bd 0994 4abd
00000340: 1bb1 cb39 f362 57bd b5bf d9bd 1285 36be
00000350: 81da 91bd 1d41 413c 1b1e 9b3c 3387 25be
00000360: cbe2 af3d d415 14be 96fe 36be a1b0 253e
00000370: 5a58 213e 887c 9d3d 3aae 4bbe 915d 6bbd
00000380: 3f94 2c3e 33bd 713e bb8c 893d b4c2 2b3e
00000390: 63db 073f 54c1 09be 97c2 2fbe 71d2 273e
000003a0: d647 a8b8 1c9f 993e b762 d03c 41b1 f63d
000003b0: e560 f13d 25e5 d23d f59b 013d 07dd c23e
000003c0: 010a 82be 3a03 293c 0412 5ebd 2710 db3d
000003d0: 12aa 4d3e 93ae 4c3d fd04 07be 0c40 823e
000003e0: cb4b 683e c3cf 97be 1093 abbd 3e99 ce3c
000003f0: a1a8 c53e cdf7 d13e 031c 97bd 7c8e 873e

fc5.bias f4 [20]
0.10263347 -0.17281978 -0.055653 -0.17517371 -0.13312002 0.081713445 -0.013959779 0.20159625
0.066523045 -0.078247726 -0.025494285 0.44768274 0.21044756 0.07169099 -0.047533523 0.3422716
0.2102389 0.10228361 0.11335941 0.1792135
00000000: 7f31 d23d abf7 30be 66f4 63bd bd60 33be
00000010: 9d50 08be 6159 a73d 8fb7 64bc 3f6f 4e3e
00000020: 3c3d 883d 5840 a0bd 64d9 d0bc ac36 e53e
00000030: 917f 573e bad2 923d 83b2 42bd 393e af3e
00000040: de48 573e 127a d13d fa28 e83d be83 373e

fc6.weight f4 [3, 20]
-0.29258657 -0.5303102 0.1325897 -0.026033057 -0.091965914 -0.13453858 -0.5444047 -0.35903114
0.46342593 -0.06529008 -0.021023832 -0.043485574 0.33636367 -0.14099817 0.2910232 -0.46248886
0.22126701 -0.5307511 0.45718378 0.04367763 0.15684034 -0.13943118 0.03570695 -0.19392
0.21773294 0.10439469 0.11070109 0.26256067 0.018868582 -0.18472858 0.20944054 0.2778851
0.08115272 0.15757778 -0.07460615 0.025127886 0.06348976 0.1518229 0.060749933 -0.039952517
0.18065144 0.34588847 -0.017228577 0.094161734 -0.15358831 0.12407515 0.2102858 -0.07900693
-0.5299231 -0.034359433 0.18040277 -0.18099 -0.62509537 0.21167822 -0.6109431 0.037028514
-0.50499463 0.31294876 -0.6473538 0.16456962
00000000: e8cd 95be 69c2 07bf 98c5 073e 4743 d5bc
00000010: a058 bcbd 7bc4 09be 1b5e 0bbf eed2 b7be
00000020: 2a46 ed3e ceb6 85bd 2c3a acbc ee1d 32bd
00000030: dc37 ac3e d361 10be fe00 953e 57cb ecbe
00000040: d293 623e 4edf 07bf fe13 ea3e 51e7 323d
00000050: c19a 203e 0cc7 0ebe 7341 123d f792 46be
00000060: 62f5 5e3e e2cc d53d 41b7 e23d 5a6e 863e
00000070: 4992 9a3c 7d29 3dbe 9577 563e f546 8e3e
00000080: 6633 a63d 125c 213e 1ccb 98bd ffd8 cd3c
00000090: eb06 823d 7677 1b3e ecd4 783d 40a5 23bd
000000a0: b1fc 383e 4b18 b13e f222 8dbc ded7 c03d
000000b0: 4146 1dbe 1d1b fe3d 2955 573e 63ce a1bd
000000c0: 0aa9 07bf 7abc 0cbd 81bb 383e 7155 39be
000000d0: 4006 20bf 2dc2 583e c466 1cbf 36ab 173d
000000e0: 5447 01bf d23a a03e fbb8 25bf f084 283e

fc6.bias f4 [3]
-0.3178853 0.11153086 -0.2080936
00000000: ddc1 a2be 4b6a e43d 7d16 55be
