models_3val/xor_and_6.pth (torch, 12178 bytes, 12 tensors)

fc1.weight f4 [20, 12]
000000 dd ae 85 3e a0 74 d8 3d fa 6b 94 3d 1b 4e 31 be
       0.26109973 0.105691195 0.072471574 -0.17314951
000010 3c d3 8f 3e be be be bd ff ce b9 3e 61 13 4a 3e
       0.28090847 -0.09313725 0.36290738 0.19733955
000020 b7 e1 90 3e 8d db 7b 3e f5 7b 68 3d a2 d9 2a 3e
       0.28297207 0.2459547 0.05675884 0.16684583
000030 1c 03 00 bc f5 ca 21 bd 60 94 cb 3e 02 34 02 3f
       -0.007813241 -0.039500196 0.3976164 0.5086061
000040 92 dc 9a be db ee 8a 3e 28 23 b8 bd 5f da 71 3d
       -0.30246407 0.27135357 -0.089910805 0.059046146
000050 cc a7 d9 bd 60 7d 92 3d cd 3d 05 3d 4c 3f 80 bd
       -0.10627708 0.0715282 0.03252964 -0.06262073
000060 ef 34 a8 3d 82 53 d1 3d e2 b5 ab 3b 44 a2 08 be
       0.08213221 0.10221006 0.005240188 -0.1334315
000070 52 7d 10 bf 64 b6 16 3e 6c e9 cf 3a f8 43 20 38
       -0.56441224 0.14718014 0.0015862412 3.8210273e-05
000080 d1 ea b4 3a fc 8d e1 b9 05 ac 68 3b 1d bb c6 3a
       0.0013802891 -0.0004302113 0.0035502922 0.0015161965
000090 c5 73 82 3e a2 81 8c 3e ab 59 0a bf 49 4b 10 be
       0.2547895 0.27442652 -0.5404307 -0.14091219
0000a0 ed 51 1e bb d5 cd 9d 3e 85 5c 34 bc 5a e8 71 bc
       -0.0024157718 0.308211 -0.0110083865 -0.01476487
0000b0 6b 8e e1 bb 52 42 3e bc 59 43 50 3b df ba 08 bc
       -0.0068834326 -0.011612492 0.0031778424 -0.008345335
0000c0 c7 75 e8 3c 69 4a cf 3c 13 23 02 bc b4 17 d5 bd
       0.028376473 0.025304036 -0.007942933 -0.10404912
0000d0 87 59 10 3f c9 92 bb 3e 64 73 73 3e 2c 2b aa 3c
       0.5638661 0.36635426 0.23774487 0.02077254
0000e0 6f 62 b7 3e 45 c7 93 3d b5 15 c1 3e 84 ad b4 3e
       0.35817286 0.07215742 0.37711874 0.35288632
0000f0 80 67 74 3e ce 94 3d 3d 31 3e 88 be 66 9c 45 3a
       0.23867607 0.04628449 -0.26609948 0.0007538259
000100 d4 0f af be 64 52 cf 3e b7 76 60 3e 1d be a7 3d
       -0.34191763 0.40492547 0.21920286 0.08190558
000110 04 31 3f 3e 21 14 a4 3e 37 50 cf 3d c8 5c 9a 3e
       0.18671042 0.32046607 0.10122722 0.3014891
000120 13 07 cc bd 02 c0 a8 3e 79 b1 61 be 64 36 bb be
       -0.09962287 0.3295899 -0.22040357 -0.36564934
000130 2b 69 1a 3f 17 66 3b bd b4 5b 82 3e b8 05 9f 3e
       0.60316724 -0.045751657 0.2546059 0.3105905
000140 5a 1c c3 3d a3 a9 ee bc b6 a2 63 3e b7 2f c1 3d
       0.09526892 -0.029133623 0.22230038 0.09432929
000150 c9 72 8c 3e 8c cb 66 3e 02 f3 20 3d 09 78 cf 3e
       0.27431324 0.22538584 0.03929425 0.40521267
000160 72 b8 88 be 03 0f f0 3d 33 36 12 3e e5 96 1b 3e
       -0.2670322 0.11721613 0.14278488 0.1519428
000170 71 03 97 3e a6 ca a3 bd c5 0c a0 3e a4 31 81 3e
       0.29494813 -0.079976365 0.31259742 0.25233185
000180 1c fe 06 3e 2c bd 93 3e ba 57 68 3e 4d 5e 98 3d
       0.13182873 0.28855264 0.22689715 0.074398614
000190 e4 ae c3 be c9 4c bc 3d 40 ba 1d 3e 91 0b 37 3e
       -0.38219368 0.09194333 0.1540308 0.17875506
0001a0 b5 39 6c 3e f8 5b 63 be 4d ac e4 3c 0c 8b c1 3c
       0.23068888 -0.22203052 0.02791419 0.023625873
0001b0 9f 2c fd 3d cd 70 01 3e e1 de a7 be 73 5a 8b 3e
       0.123620264 0.12640686 -0.3278723 0.27217445
0001c0 4c 66 be 3b 17 43 63 bf 02 f0 b8 bb 6c bb c9 bb
       0.0058105346 -0.88774246 -0.0056438455 -0.0061563756
0001d0 cb f6 af bb 05 b6 ad bb 4b 2b 8c bb 64 e5 b8 bb
       -0.005369996 -0.0053012394 -0.004277622 -0.00564258
0001e0 8e 03 b7 bd 80 d2 bf 3e d5 a5 13 bd 25 cb 4d bd
       -0.08936225 0.37465286 -0.03604682 -0.05024256
0001f0 ac 4e db be 83 40 dc 3d 91 5b 7f 3e 13 98 44 3e
       -0.4283346 0.10754492 0.24937274 0.19198637
000200 6a eb a6 3d b7 0c f6 3d 43 13 3a 3e d5 e3 cb 3d
       0.081503704 0.12014144 0.1817141 0.09955565
000210 ac 22 8e 3d ed 38 b0 3e 3a 81 86 3e 8b b9 6a 3e
       0.06940207 0.3441843 0.26270467 0.22922342
000220 4e 85 05 3e f3 cf 23 3e 25 82 94 3d ed 1e df bd
       0.13039133 0.15997295 0.072513856 -0.108945705
000230 9d bc b3 3d af 5c 9e 3c 5c f9 e1 bd 08 63 b6 3d
       0.087762095 0.019331304 -0.1103389 0.089056075
000240 71 7e 92 bd 1c ed d0 bd c1 1d 42 3e e7 7f b7 3e
       -0.07153023 -0.10201475 0.18956663 0.3583977
000250 39 4e 78 3e 05 a0 b1 be 97 85 d3 3d 9e 3f 25 3e
       0.2424859 -0.34692398 0.103282146 0.1613755
000260 3c 5d 18 bc b2 5f ce 3d da 66 81 bc 49 27 aa bc
       -0.009299573 0.10076846 -0.015796114 -0.020770686
000270 3c 01 2d bd ab 8c 28 3e 3f bb d1 3e fe b9 b4 3e
       -0.042237505 0.1645991 0.4096317 0.3529815
000280 e2 3e 06 3e f5 1a a5 be 18 0c d0 3d 3c 57 98 3d
       0.13109925 -0.3224713 0.10158557 0.07438514
000290 3a bc f9 3d 3d 8a ed 3d 86 12 34 3e bf 3f 8f 3e
       0.121941045 0.115986325 0.17585191 0.27978322
0002a0 69 f7 1f be c6 9d 32 3e 17 6c 5d 3e 6e e6 54 3e
       -0.15621723 0.17442998 0.21623264 0.20791027
0002b0 b6 55 be 3e bb 37 4b be f4 c8 9d 3e f6 ce 87 3d
       0.37174767 -0.19845478 0.30817378 0.066312715
0002c0 ff a5 2e 3e 4e 94 b0 3e 2b 57 a2 bc 68 1f 80 3e
       0.1705551 0.34488147 -0.019816956 0.2502396
0002d0 8d db c8 3c 2e dc ff bc 33 d2 f5 bb a1 f0 2b 3d
       0.024518752 -0.03123292 -0.0075018643 0.04197753
0002e0 e5 0b 2b bf ae da d3 3e 05 4e 92 3c bd 20 9d 3c
       -0.66815025 0.41377777 0.017859468 0.01918065
0002f0 86 a1 9c 3a 13 21 40 3c fd 67 5e 39 86 e8 23 3c
       0.0011949993 0.0117266355 0.00021210308 0.010004168
000300 78 7d dd 3e 55 36 12 3e a9 7a a6 3d ff ac bc 3e
       0.43259788 0.14278539 0.08128864 0.36850736
000310 43 24 01 3f 4a 2f 52 be 90 7e 05 3e f2 9f c0 3d
       0.50445956 -0.20525852 0.13036561 0.09405507
000320 e6 2b 1d 3d bf a9 4b bc 4b 47 70 3e 03 e4 b9 3c
       0.038371943 -0.012430607 0.23464696 0.022691732
000330 58 8b d1 3d c4 20 d8 3c e7 63 32 3e 31 a4 b4 3d
       0.10231656 0.026382811 0.17420922 0.088203795
000340 18 34 8d bd 93 d4 cb 3e 2f 7c c7 3d b0 73 85 3d
       -0.06894702 0.3981062 0.09740483 0.06516206
000350 2d 45 c3 bd 9c 32 58 3e 88 29 b6 3d e9 b0 92 3c
       -0.095346786 0.21113056 0.0889464 0.017906623
000360 26 98 8f 3e 51 41 93 3e d4 ef 26 be ef 12 52 bf
       0.28045768 0.2876077 -0.16302425 -0.8206014
000370 59 d3 77 be 69 23 b2 3e 82 e9 86 bc d7 b8 86 bc
       -0.24201716 0.3479264 -0.016468767 -0.01644556
000380 78 51 8d bc d6 05 71 bc 07 ad 5e bc c7 ed 77 bc
       -0.017250761 -0.014710864 -0.013591058 -0.015132374
000390 f7 f6 d5 bc 92 0b 7a 3e dd 42 a4 3e 23 4d 82 3e
       -0.026118739 0.24418476 0.32082263 0.25449476
0003a0 fa 49 dc be f1 45 a0 3e 97 f0 8a 3e 6e b7 ad 3d
       -0.4302519 0.3130336 0.2713668 0.08482252
0003b0 6b f2 87 3e 05 96 83 bd 4f 41 82 3e ed e3 37 3e
       0.26552138 -0.06425098 0.25440452 0.1795804

fc1.bias f4 [20]
000000 c4 67 c9 3e 3b 82 40 3e eb 91 ca 3e fa d0 b6 bd
       0.3933698 0.18799679 0.39564452 -0.08926578
000010 de db 5e 3c 03 51 1f be 52 8e ef 3d 05 74 c4 3d
       0.013602225 -0.15558247 0.11697067 0.095924415
000020 b2 34 2e bd 53 d1 20 be 71 3e 20 3e 48 5f 62 3e
       -0.042530723 -0.15704851 0.1564882 0.2210666
000030 ed 97 1f be 16 2a 8a 3e 4c a1 2c 3e 51 8f e0 bd
       -0.15585299 0.26985234 0.16858405 -0.109648354
000040 4f 03 6a 3d 81 c2 f0 bd af 80 ad be 23 d9 35 be
       0.05713206 -0.11755849 -0.3388724 -0.17758612

fc2.weight f4 [20, 20]
000000 2c c6 33 3d 8b a7 bb bc 0b cc cc be b6 a1 35 be
       0.043890163 -0.02290704 -0.39999422 -0.17737469
000010 2f 5d 3c 3e 49 9e 17 be 2a a5 45 3e a0 8f 02 be
       0.18394922 -0.14806475 0.19301286 -0.12750101
000020 4f df ec 3d c8 d7 12 3f 51 c1 85 be 48 17 a4 3d
       0.1156603 0.57360506 -0.2612405 0.08012253
000030 63 6f 74 bd 31 40 0f 3e 97 dc 4a 3e 01 6b e1 be
       -0.05967654 0.13989331 0.19810711 -0.4402695
000040 7c 26 97 3e f0 6c 13 be c2 63 f0 bc af 13 ac be
       0.2952155 -0.14397025 -0.029344443 -0.33608767
000050 88 96 9e bc e5 3d 0c bf 3a e3 33 3e a5 80 6e 3e
       -0.019358888 -0.54781944 0.17567149 0.23291261
000060 a3 58 64 3e 60 09 c7 3e 51 81 cb 3e 5d 5a 9b bd
       0.22299437 0.3887434 0.39747098 -0.07585595
000070 36 1d b7 bd 5e c8 50 bf 44 27 36 3e 9f ef f8 bd
       -0.089411184 -0.81555736 0.17788416 -0.12155079
000080 79 26 af be 26 8c ac be cc 0f 91 be 2c de 47 be
       -0.3420904 -0.33700675 -0.28332365 -0.19518346
000090 ff 3b 9c be 74 26 73 3d ac 52 c2 3e 48 00 ae be
       -0.30514523 0.059362844 0.379537 -0.3398459
0000a0 8e bc 2b 3e e6 86 43 3d 70 b7 78 3e d8 cb e9 3e
       0.16771147 0.04773607 0.24288726 0.45663333
0000b0 c9 0d ac 3e 57 6c 16 3d e6 d2 dc 3e b2 31 4b bc
       0.33604267 0.036724415 0.43129653 -0.012401985
0000c0 a7 c0 37 3e 21 3b eb be 5b 6f 40 bd 0a a8 fc 3c
       0.17944585 -0.4594355 -0.046981197 0.030841846
0000d0 58 2d 8c bd f8 3e 3f 3e fd 39 9c 3e 27 14 ed be
       -0.06844586 0.18676364 0.30512992 -0.46304438
0000e0 87 d0 31 3e 01 c4 ca bd 7c de b5 be 41 ba 4b bc
       0.17364703 -0.09900666 -0.35521305 -0.012434543
0000f0 59 2d 8e 3c ef d2 5f 3d aa 1a 3d be e9 eb db 3c
       0.017355608 0.05464452 -0.18467203 0.02684589
000100 f6 c2 80 3e b7 50 bf 3e 12 76 fa 3d 15 3c ab 3e
       0.25148743 0.37366268 0.122295514 0.33444276
000110 81 d6 83 3e ac d4 7d 3e f6 f5 41 3e 1c ae 47 3e
       0.2574959 0.24788159 0.18941483 0.19500011
000120 87 fe 82 bd 8b 5c da bc ac 08 61 3e 1f b7 bd 3d
       -0.063962035 -0.026655456 0.21975964 0.09263443
000130 aa 8d fb 3d c4 27 87 3e cc 0d 07 3f e8 f5 68 3e
       0.1228288 0.26397526 0.5275543 0.22750056
000140 5a 58 94 3e 1b 90 6f 3b 17 44 87 3e de 37 ec 3d
       0.28973657 0.00365544 0.26419136 0.11534093
000150 ee af c4 3d c4 b3 24 be e8 e8 82 3e a0 9f 91 3e
       0.096038684 -0.160842 0.25568318 0.28442097
000160 89 62 da bb f6 48 eb be 2a 85 a1 bd d7 2d 98 3d
       -0.0066645783 -0.45954102 -0.07886727 0.07430618
000170 05 98 3e bc 3c 83 3b 3d 42 df c3 3e d4 f6 c8 bd
       -0.011632924 0.04577945 0.3825627 -0.09812704
000180 8b 72 00 3f f9 39 04 be b8 94 0b bf b0 2f 52 be
       0.5017478 -0.1291274 -0.545238 -0.20526004
000190 91 54 99 be 78 4b c6 3e cb 92 79 3c 59 0a 81 bd
       -0.29947332 0.38729453 0.015232752 -0.06300802
0001a0 9a 1e 2e be d0 1a ae 3e a0 23 1f be 16 57 17 3d
       -0.17003861 0.3400483 -0.15540934 0.036948286
0001b0 1e 3a a1 3d c1 86 9a be 07 8e 0c 3f bb 91 72 3c
       0.07872413 -0.30180934 0.54904217 0.014805253
0001c0 51 d7 7e be a5 ba 99 be 19 a1 52 bd 26 93 b4 3e
       -0.24886824 -0.3002521 -0.051423166 0.35268515
0001d0 af 57 ec be 7f 57 0d bd d2 fc c3 be 48 63 e5 3e
       -0.46160647 -0.03450727 -0.38278824 0.44802308
0001e0 a3 59 d0 3d 3e e3 9f 3e 47 36 ce bc fe 76 b1 3d
       0.10173347 0.3122806 -0.025172366 0.08665274
0001f0 85 7c 27 3e 9c eb a8 3e 38 db 30 3e 9d 1b f5 3d
       0.16356094 0.32992256 0.17271125 0.119681574
000200 a6 42 e9 3d fc fd 1b 3e b7 dc 91 3e 24 04 94 3e
       0.11389665 0.15233606 0.28488705 0.2890941
000210 a5 b4 83 bd df b4 36 3e d0 46 0c be c1 1e cd 3e
       -0.064309396 0.17842434 -0.13698888 0.40062526
000220 76 ea 11 be f7 bf b9 3d be 9a 31 3f 28 9c ee 3c
       -0.14249596 0.090698175 0.6937674 0.029127195
000230 3f d0 54 bd eb 62 3e 3d 79 fc df 3e 90 5e 21 3e
       -0.05195641 0.046481054 0.4374731 0.15758729
000240 bf 00 dc be ff c2 76 3e 37 54 cc be 82 14 46 3d
       -0.4296932 0.24097823 -0.39908 0.0483594
000250 62 1a 86 3e 33 74 1d be b8 76 bb 3e 6c ac 8d be
       0.26192003 -0.15376358 0.36614013 -0.2767061
000260 f1 dd ff be 70 45 f6 3d f5 b8 81 3d 83 be 0a bf
       -0.49974015 0.12024963 0.06334106 -0.5419695
000270 f5 48 db 3d d0 fa c2 3c 83 2d b5 be a1 8b 53 3e
       0.10707275 0.023801237 -0.35386285 0.20658733
000280 6d 19 ff 3c 4d 4d 5c be 19 01 59 bd 58 1a d3 3e
       0.031140054 -0.21513863 -0.052979562 0.41231036
000290 7c 05 9b 3e a9 49 a7 3e a4 e9 9a 3e 15 9f 0d be
       0.30277622 0.32673386 0.3025638 -0.13830216
0002a0 c2 0f a1 bd 80 28 29 bf 14 70 76 3e ff 88 6a be
       -0.07864334 -0.66077423 0.24066192 -0.22903822
0002b0 74 92 d5 be d1 05 d7 be 51 95 0a be b6 f2 f0 3d
       -0.41713297 -0.41996625 -0.13533522 0.117650434
0002c0 bc ed 89 be ae 74 6b be d8 1b b2 3e 91 1b 9e be
       -0.2693919 -0.22993729 0.34786868 -0.30880406
0002d0 de c7 f8 3d 01 6f b6 bd fc d3 00 bf 6a cb a8 be
       0.12147497 -0.08907891 -0.5032346 -0.32967693
0002e0 a9 26 9e 3e 8e 5a 63 be bb 61 e5 ba 00 39 35 be
       0.3088887 -0.22202513 -0.001750044 -0.17697525
0002f0 9f 60 cd bd c9 54 d3 3e d4 19 f7 3c ae 3f ff 3d
       -0.10028195 0.41275623 0.030163683 0.12463318
000300 c0 52 83 3e cb 1a 60 3e 53 c7 29 bd 6b ac f7 be
       0.2564907 0.2188522 -0.041449856 -0.48373732
000310 34 30 e3 3e dd 9d 00 be 5c c2 b8 3e d7 a7 8b be
       0.44372714 -0.1256022 0.36085784 -0.2727649
000320 63 2c 44 3e 10 3e 65 bd 95 dd 15 be 16 34 7e be
       0.19157557 -0.05596739 -0.14635308 -0.24824557
000330 98 66 47 bd a9 51 9f bc 19 9b 42 3e 92 69 a1 3c
       -0.048681825 -0.019448118 0.19004478 0.01970366
000340 c2 11 3b 3b de 2d 0f 3f 7b fb b4 3e 5d c2 49 3d
       0.002854452 0.5592936 0.35348114 0.049257625
000350 02 b6 90 3e 63 7b 0f bd b9 99 d4 bd c3 21 81 3e
       0.2826386 -0.03502978 -0.10380883 0.2522107
000360 96 28 14 bc 54 09 9d 3e cd 27 32 3f 94 51 7b 3e
       -0.00904288 0.3067118 0.6959198 0.24542838
000370 26 29 22 bd 47 d3 45 3d 86 9f 83 3e 73 91 ad 3c
       -0.039590023 0.048297193 0.25707644 0.02118752
000380 90 d6 0b be ec bb 82 3e f7 ca 9d be 90 bf 7f 3c
       -0.13656068 0.25533998 -0.30818912 0.015609637
000390 e7 a0 6c 3e 39 37 a3 be 45 ac b8 3e f1 bd 3e bd
       0.23108254 -0.3187807 0.3606893 -0.04656786
0003a0 22 3a 4e be 52 8e 06 bc 58 94 89 be d5 2e 32 3f
       -0.20139363 -0.008212643 -0.2687099 0.6960271
0003b0 2f ad 7c be 56 44 84 3e 4c 4f cf 3e 3d 24 3c 3e
       -0.2467544 0.25833386 0.40490186 0.18373199
0003c0 54 6b 05 3c b6 7b 78 3c a1 51 b9 3e b9 38 a4 3e
       0.008143265 0.015166214 0.3619509 0.32074526
0003d0 1c 14 29 3e 65 c4 43 be 00 b0 37 3e 71 cc 19 bd
       0.16511577 -0.19117887 0.17938232 -0.037548486
0003e0 4c fa 12 3e ce 9a 7b be dc ea 86 3d e1 c0 29 3c
       0.14353293 -0.24570772 0.065877646 0.010360927
0003f0 a1 c8 e3 3b 7d 97 0b 3e 56 26 b9 3e ab 86 54 be
       0.006951407 0.13632007 0.3616206 -0.20754497

fc2.bias f4 [20]
000000 77 f3 01 be 6f fd 3c 3d 7d 9f 43 3e 7f 7f 81 3e
       -0.1269053 0.04614013 0.19103809 0.25292584
000010 0d 98 96 3e 23 c3 4d bd 19 ec e5 3d dc e4 42 3e
       0.2941288 -0.050234925 0.11226673 0.19032615
000020 be f7 38 3c aa 3d 69 be 6e 81 95 3d db d8 79 be
       0.011289535 -0.22777429 0.073000774 -0.2439913
000030 02 e9 82 3e ac 6d 19 3e e1 35 0a 3e b3 c0 03 3d
       0.25568396 0.14983243 0.13497116 0.032166194
000040 78 9e 1b 3e 1c e0 fa 3d 8f 9a ab bd f2 67 96 3e
       0.1519717 0.12249777 -0.08379089 0.2937618

fc3.weight f4 [20, 20]
000000 5a 62 2f be cd 85 91 3b c3 39 79 be 00 8f b8 3c
       -0.17127362 0.004440999 -0.2433844 0.022529125
000010 87 90 44 bd 73 6f 5a be 56 23 dd 3d 16 56 8b 3d
       -0.047989395 -0.21331577 0.107977554 0.06803529
000020 fe 92 05 3e b5 c5 04 bd bc e6 fd 3d 4c 8f b6 3b
       0.13044354 -0.03241511 0.12397525 0.0055712815
000030 f6 ac 05 3e 6b 9e d2 3b c5 b8 e6 bd 59 cf 77 be
       0.1305426 0.0064275763 -0.11265711 -0.2420019
000040 3f 1d 0f 3e f6 33 32 be 4e d3 2f be 8a 7e b2 bd
       0.13976 -0.17402634 -0.1717045 -0.08715542
000050 58 60 e4 be 3b 46 76 bf 60 c3 8f 3e 8d a9 1f 3e
       -0.44604754 -0.96200913 0.28078747 0.15592022
000060 ea bf b2 3e 43 b5 30 bf 15 8e b3 bc 39 b9 4b 3f
       0.34912044 -0.69026583 -0.021918336 0.795795
000070 9f de 6d bf 4a 23 19 be d3 0a 1d be 37 15 ee be
       -0.9291782 -0.14954868 -0.1533616 -0.4650056
000080 c7 b5 30 3e 6a 87 6b 3c 3f 6b 9d 3d 4c fa db 3d
       0.17256843 0.014375547 0.07686471 0.107411
000090 39 3d 08 3e 13 ec 37 be c0 b2 d8 be be 9e 07 3e
       0.13304605 -0.17961149 -0.42323875 0.13244149
0000a0 67 c2 db be fd 8a 4f bf 0c 9a a0 3e 57 dd 60 be
       -0.42921755 -0.81071454 0.31367528 -0.21959434
0000b0 40 fc 87 3e 1f 33 35 bf e0 54 1e be 13 50 6b 3f
       0.2655964 -0.7078113 -0.15462065 0.9191906
0000c0 a0 23 60 bf cf 8d df be 79 76 40 bd c1 8b d3 be
       -0.8755436 -0.4366288 -0.046987984 -0.4131756
0000d0 57 82 7d 3e 62 e6 23 be 23 7a 77 3e 91 89 01 3e
       0.24756752 -0.16005853 0.24167685 0.12650134
0000e0 35 3c 17 3e aa cc 51 3d f2 00 f9 be 24 b5 c7 3d
       0.14769061 0.051220573 -0.48633534 0.09751347
0000f0 92 38 82 3e d0 13 36 3f 6b c5 56 be f4 36 23 3e
       0.25433785 0.7112398 -0.20973746 0.15938932
000100 d0 6d 14 be 20 9a 65 3f 58 a6 a3 3e 3f 10 13 bf
       -0.14495015 0.896883 0.31962848 -0.57446665
000110 cd c3 4c 3f 67 ed ab 3e b3 9f a8 3e 1b f9 3d 3f
       0.7998627 0.3357956 0.3293434 0.7420823
000120 1f 15 f9 bc 38 1c 3e 3d c0 83 46 be 11 b4 89 3d
       -0.03040558 0.04641363 -0.19386196 0.06723798
000130 ff c7 97 3e 58 9f 26 3d dc 23 fb 3e d4 57 c3 bd
       0.29644772 0.040679306 0.49050796 -0.09538236
000140 82 94 2d bc fe b8 34 bf 88 bd c6 3e 51 cb 7b 3e
       -0.010594489 -0.70594776 0.38816476 0.24589278
000150 90 76 55 3d 57 c1 4a bf 27 17 12 3e 5a 50 63 3f
       0.052115023 -0.79201263 0.14266644 0.8879448
000160 1a 3a 31 bf 91 9a aa 3d e8 11 1e be f9 88 0f bf
       -0.6922928 0.083302625 -0.15436518 -0.5606838
000170 6f 33 a2 3e 4d a1 02 bd f7 e9 36 bd 4f 8d b0 bc
       0.31679866 -0.03189211 -0.04465672 -0.021551756
000180 9e 8f 90 3c 6a b8 73 3d bc 99 9e be 3d 9a 65 bd
       0.017646607 0.059502043 -0.30976665 -0.056055296
000190 06 e2 20 be 8f ab ea 3d d8 36 f6 bd d5 7a 44 be
       -0.15711221 0.114585035 -0.12022179 -0.19187482
0001a0 5f 9d 30 3e c4 9c 29 be 7a cc 17 3e 4e 0e e2 bd
       0.17247532 -0.16563708 0.14824095 -0.11037885
0001b0 9c b0 0a 3e c8 97 16 be 17 ed 45 3e f6 21 0d 3e
       0.13543934 -0.14706337 0.19328724 0.13782486
0001c0 fe c0 18 be 17 52 2b 3e 70 13 5d 3d 7a 33 94 bd
       -0.1491737 0.16730534 0.053973615 -0.07236381
0001d0 05 e4 bd bd 2c 9e b7 3c b4 0a 1b be 46 c9 fb bd
       -0.09272007 0.02241429 -0.15140802 -0.12294249
0001e0 56 54 a1 3d 30 c0 47 3f 75 0d 06 be 84 a9 a1 3e
       0.07877414 0.7802763 -0.13091071 0.31574643
0001f0 38 df a7 bd 0a 46 4f 3f 6b a9 a9 3d 62 4d 3f bf
       -0.081968725 0.80966246 0.08284267 -0.7472745
000200 55 7f 4b 3f 3b ea dd 3e d5 13 5d 3e 16 8f 4e 3f
       0.7949117 0.43342766 0.21589597 0.8068708
000210 bd 5e 1d be 8a 47 50 3c 2b af c9 bd 36 53 32 3d
       -0.15368171 0.012712369 -0.09847864 0.043536387
000220 29 cb ce bd e4 88 e8 bd 2c dd 16 3f 04 5a 64 3e
       -0.100973435 -0.11354235 0.5893123 0.22299963
000230 b1 b6 52 bc a3 08 38 3f fa 81 61 3e ab 44 73 3e
       -0.01286094 0.7188818 0.22022238 0.23756664
000240 be d0 f8 3c 21 56 84 3f 5e ad db 3d fe 56 37 bf
       0.030372974 1.0338784 0.107264265 -0.71617115
000250 26 d2 65 3f 5a 27 78 3e d5 ee a2 3e d7 91 3c 3f
       0.89773786 0.24233761 0.3182284 0.73660034
000260 dc 4d 39 3e 38 a7 12 be ee c3 34 3c 4f 9b 8a bd
       0.18096107 -0.14321601 0.011033041 -0.06767904
000270 a7 94 05 3e 99 3f 67 3e 67 97 ab 3e 38 61 9f 3e
       0.13044988 0.22582854 0.33513948 0.3112886
000280 b8 41 ad 3e 0b 16 16 3f 01 63 b3 bd e6 8d e7 3b
       0.33839202 0.58627385 -0.08759118 0.007066476
000290 8f d7 bb bd 34 61 62 3f 6b c4 0a 3d 00 0a 33 bf
       -0.09171974 0.8842957 0.033878725 -0.69937134
0002a0 6a f5 25 3f 73 43 04 3e 49 88 b3 3e 47 00 0f 3f
       0.648276 0.12916355 0.35064915 0.558598
0002b0 e3 42 7e be 4e 42 5b be 92 8d cb b9 a6 a0 0e bd
       -0.24830203 -0.21412012 -0.00038824655 -0.034821175
0002c0 79 ee 20 3e 65 c3 25 3e dc 67 d2 3e 47 ff 04 3e
       0.1571597 0.16187818 0.41094863 0.12988006
0002d0 2b 61 1c 3e db 0b eb 3c 2d 24 f6 bd e8 2d 09 be
       0.15271442 0.028692177 -0.12018619 -0.13396418
0002e0 6f 06 ba bd 19 5b 87 bd 8d 08 ab bc d3 5b a1 3d
       -0.09083258 -0.066091724 -0.0208781 0.07878842
0002f0 f9 ac 8e bd ae 2b 99 3e b7 6a 75 bd da 1e 0c be
       -0.06966586 0.29916137 -0.059916224 -0.13683644
000300 d9 b3 e1 3d 80 80 9f bd cc b5 d5 bd 51 ad 9b 3e
       0.11020631 -0.07788181 -0.104350656 0.30405667
000310 01 cd 2c 3e ed b0 ae 3d 63 96 c5 bd 91 7e eb 3c
       0.16875078 0.0852984 -0.096478246 0.028746875
000320 7e cb 56 3e 5c 17 6d 3f 87 29 5b 3e c9 dd 81 3e
       0.20976064 0.9261377 0.2140256 0.2536452
000330 e3 37 5a 3e 13 ed 8f 3f e6 e5 a3 bd 9e 3a 0e bf
       0.21310382 1.1244224 -0.08002834 -0.5555819
000340 7e 4c 4b 3f b1 2a 78 3e ba 25 0b 3e d2 01 2b 3f
       0.7941359 0.24235035 0.1358861 0.6679965
000350 b3 c1 e0 bc c7 6b a6 3d c3 15 b6 3d d4 dc 72 3e
       -0.027436113 0.08126026 0.088908695 0.23717052
000360 8c da 6e 3d 33 b3 b7 bd c8 a1 27 3f bd 69 41 3e
       0.05831389 -0.089697264 0.65481234 0.18887992
000370 cb b9 e9 be 5d 01 43 3f 6b e9 a0 be f8 1e 42 3e
       -0.4564956 0.76173955 -0.31428084 0.18957126
000380 fc 3f a0 be e2 3e 70 3f 0b dc 34 3e 15 f0 80 be
       -0.31298816 0.9384595 0.17662065 -0.25183168
000390 13 f6 0d 3f 5b 2e 92 bd 6d 78 14 3e bf cf 3c 3f
       0.55453604 -0.07137748 0.14499064 0.73754495
0003a0 42 86 ac be 57 24 5f be d0 2a 80 bd 24 2a e9 3d
       -0.3369618 -0.21791206 -0.06258166 0.11384991
0003b0 bc 0a 93 3e 39 c9 5b 3d 23 f9 a5 3e 55 bb c3 3c
       0.28719127 0.053658698 0.3241664 0.023893038
0003c0 7c d9 b2 bd 03 48 67 bf 2b 1c 45 3c c7 a2 38 3e
       -0.08732888 -0.90344256 0.012030642 0.18030845
0003d0 7f bd c9 3d c1 3c 50 bf fa 64 46 3e 0b 5c 38 3f
       0.09850597 -0.81342703 0.19374457 0.72015446
0003e0 aa fe 17 bf dd 19 77 be de 9e 56 3e 9c 3a e1 be
       -0.5937296 -0.2413096 0.2095904 -0.43990028
0003f0 a1 2a 54 3e 9c 24 22 be 66 98 5b 3e 9e 6f 1f 3e
       0.20719387 -0.15834278 0.21444854 0.15569922

fc3.bias f4 [20]
000000 79 33 6b 3d 4e 9f 21 be 00 cc db bd cf e9 20 3e
       0.057422135 -0.15783426 -0.10732269 0.15714191
000010 71 8f ea bb 13 a9 56 be f8 2c 84 3d 0e c2 2e 3e
       -0.007158213 -0.20962934 0.064538896 0.17066213
000020 8a dd 78 be be c8 bd be a9 e3 38 be 23 f8 40 be
       -0.2430326 -0.37067217 -0.18055595 -0.18844657
000030 bc 6b 86 3e 87 fb 22 be 94 89 52 3e 5a 60 44 3e
       0.2625407 -0.15916263 0.20560294 0.1917738
000040 bf 02 79 bc 4a 8d 34 bc 35 41 80 3e 60 bd a5 3c
       -0.015198409 -0.011020014 0.2504975 0.020231903

fc4.weight f4 [20, 20]
000000 02 d5 13 3e 7c 86 2e bc 3f 22 61 be 18 e8 0b 3e
       0.14436725 -0.010652181 -0.2198572 0.13662755
000010 82 9a 12 be 2f ab c5 3d ea 2a 4c be 04 cb 0b bd
       -0.14316753 0.09651791 -0.19938245 -0.034129158
000020 c3 ff 01 3e 7c a1 3b 3e 7b 21 fa bd fc e2 30 be
       0.12695222 0.1832332 -0.12213417 -0.17274088
000030 6b 4c b7 3b b6 f1 fb 3d dd a4 3f be 10 71 0e 3e
       0.0055938265 0.12301962 -0.18715234 0.13910317
000040 38 36 ae bb 72 c3 f6 3d d2 e3 6a be 08 01 f7 3d
       -0.005316522 0.12048997 -0.22938469 0.120607436
000050 02 fa d6 3d 69 e2 20 3d 83 89 95 bd e7 c5 29 3e
       0.10496904 0.03927842 -0.07301619 0.165794
000060 18 ec e5 bd 39 20 5c be ed 31 41 be 89 26 16 3e
       -0.11226672 -0.21496667 -0.18866701 0.14663137
000070 f9 25 0b 3e db ba 38 be 97 c7 b7 3d da df bf 3e
       0.13588704 -0.1804003 0.089736156 0.37475473
000080 67 92 68 be 51 c1 10 3e 1f c1 4a 3e ba 2c ca bd
       -0.22712098 0.14136244 0.19800232 -0.09871812
000090 b4 6a 33 3e 7a 52 bf bd f4 96 d9 bb 45 c0 5a be
       0.17521173 -0.09341903 -0.0066403095 -0.21362408
0000a0 70 09 8c bd 7c d4 a1 3e ee 33 ad 3e b2 35 94 be
       -0.068377376 0.31607425 0.33828682 -0.28947216
0000b0 99 48 8d 3e 47 30 cb bd 58 83 5c bd 29 5b d5 3d
       0.2759445 -0.099213175 -0.053836197 0.10417778
0000c0 a5 c2 07 be 1f 8a 8b 3e 99 42 2b be 09 aa 5c bf
       -0.13257845 0.27253816 -0.16724624 -0.86196953
0000d0 1e a7 3d 3e 15 b6 2a 3e 35 dd b1 3d 7f 6c ba 3d
       0.18520781 0.16671021 0.0868477 0.09102725
0000e0 2f fd dd bc 01 0d 0b 3e 2e 7c c1 3d b9 8c 34 be
       -0.027098266 0.1357918 0.094475135 -0.17631806
0000f0 38 1c 7a 3e 60 08 5a be c4 f4 62 be 7d 3e c5 3d
       0.24424827 -0.21292257 -0.22163683 0.09631059
000100 98 76 f7 3d 57 1b 41 be 90 1a dc 3e 41 1c 08 3e
       0.12083167 -0.18858086 0.42989016 0.13292028
000110 50 7a f4 3e 5e 6c c6 be b5 51 70 3e 2a ff 3f 3f
       0.47749567 -0.38754553 0.23468669 0.74998724
000120 bb 03 44 bc ec 1d 4a bd ad 22 a6 3e 8c 1a f6 3d
       -0.01196378 -0.049344942 0.3244833 0.12016782
000130 76 55 22 3d 70 4f 30 be ae 44 58 3e 6d 5e 18 3e
       0.039632283 -0.17217803 0.21119949 0.1487977
000140 47 85 eb 3d 80 75 86 3e 5f 95 ec 3e 8d 1c 14 be
       0.1150003 0.2626152 0.4620771 -0.14464016
000150 93 bb 91 3d 64 71 a4 3c 1f a8 0d 3e 3b d4 d2 3d
       0.07115855 0.0200736 0.13833664 0.10294386
000160 bb dc 2f be 65 4c 99 3e 6c ed 0e 3e b4 ae 0d bf
       -0.17174046 0.29941097 0.13957757 -0.553447
000170 12 15 28 3e d1 fa 10 be 0b d7 12 3e 54 06 36 3e
       0.16414288 -0.14158179 0.14339845 0.17775851
000180 e2 79 89 3e d7 33 89 3d f9 7e a8 3d ad c7 17 3e
       0.26850802 0.06699341 0.08227343 0.14822264
000190 53 20 59 be 51 a3 40 3e ed c1 59 be ae 5a 11 be
       -0.21203737 0.188123 -0.21265383 -0.14194748
0001a0 69 aa 55 be 81 bf d6 3d f9 bd 9e bc 56 ab 7c be
       -0.20865788 0.10485745 -0.019377695 -0.24674734
0001b0 f9 61 7d bc ab 2a b8 3d 1d 08 5c be bb 08 25 3e
       -0.015465253 0.08992513 -0.2148747 0.16116612
0001c0 75 ff ff 3d e1 72 ee bd d0 be a2 bd 91 8c 34 bd
       0.124998964 -0.11643005 -0.07946551 -0.044079367
0001d0 64 e7 21 be 3f b5 1f 3e 00 45 33 3e 51 ef 37 be
       -0.15810925 0.15596484 0.1750679 -0.17962386
0001e0 5c ff 05 3e e2 b0 ff 3d c5 0f c0 bd 9d 47 92 3e
       0.13085693 0.124849096 -0.09378008 0.28570262
0001f0 85 ac 3f 3d f6 51 12 be ba 52 36 3e 1c 22 55 bd
       0.046795387 -0.14289078 0.17804995 -0.052034482
000200 f9 4c f6 3e 14 ca 7b be ac c1 73 3d 51 9c 28 3f
       0.481056 -0.24588805 0.05951087 0.6586352
000210 b1 64 00 3e 51 84 28 be 55 ba 49 3e ba 8a 29 3e
       0.1253841 -0.16456725 0.19699986 0.16556826
000220 3a 66 a0 3e 7e e7 3b 3e b8 39 40 3e 3c 7a 1b 3e
       0.31327993 0.18350026 0.18772018 0.15183347
000230 b3 c4 30 be a2 7b a3 3e 5f da e6 3c 28 a6 61 3c
       -0.17262535 0.31930262 0.0281803 0.013772525
000240 42 d9 05 be 77 a5 38 be fd 68 44 38 d3 ce 27 3e
       -0.13071159 -0.1803187 4.682782e-05 0.16387491
000250 0b ec ae bd dd 25 ad be 09 ff 14 bc b1 78 2a 3f
       -0.085411154 -0.3381795 -0.009094008 0.6659041
000260 af 20 70 3e a5 c2 52 3e d5 dc 90 3e cc 9c 83 bd
       0.23449968 0.20582063 0.2829348 -0.06426391
000270 f6 b7 39 39 23 09 9f 3d 3d 8a c4 bc 4a 3d 96 3d
       0.00017711506 0.077654146 -0.023991698 0.07335909
000280 de 73 fa bd a9 a0 42 3e 8e a0 17 3e 1b 79 9d bd
       -0.12229131 0.190066 0.1480734 -0.07689115
000290 3a 63 fd bd f6 d0 09 bd 2b 34 bd bd e4 4a 35 be
       -0.123724416 -0.033646546 -0.09238466 -0.1770435
0002a0 93 77 0a bd a1 55 12 3c 4f 58 a6 bd a8 bf 98 3d
       -0.03380544 0.008931548 -0.08122312 0.074584305
0002b0 26 f1 b0 3d 26 13 ed bd 16 b3 0c bd 0b 20 90 bd
       0.086397454 -0.11575918 -0.034350477 -0.07037362
0002c0 3a 1d 48 be 22 34 77 bd eb 0a 00 be 39 02 06 3e
       -0.19542399 -0.060352452 -0.12504165 0.13086785
0002d0 ca e4 17 3e b6 8c a9 be b6 27 e2 be f8 02 02 3f
       0.1483337 -0.33115166 -0.44170922 0.5078578
0002e0 3b 54 20 be b1 08 37 3c bf 43 63 3e 35 04 4b 3d
       -0.15657131 0.011171506 0.22193812 0.04956456
0002f0 73 dd e3 3e 19 7e 60 be 9e 90 81 3d 39 cf 78 3f
       0.4450489 -0.21923102 0.06326412 0.97191197
000300 6c 1a 96 3c f9 02 9f 3d ec 3b ab 3e 5c 69 a8 bd
       0.018323146 0.07764239 0.33444154 -0.08223221
000310 ad a2 38 3e e9 10 70 3d 73 3f 81 bd 18 ff 9e bb
       0.18030806 0.058609877 -0.0631093 -0.004852187
000320 94 48 2e be be c4 ba 3e 3e 75 0c 3f cd 37 66 3d
       -0.17019874 0.36478227 0.548664 0.05620556
000330 d7 75 e7 3d dc 85 48 bd 7d 8b 09 be 43 68 83 3e
       0.11301773 -0.048955783 -0.13432117 0.25665483
000340 8e ef bb bd ac 8c db 3e 40 03 1f 3e 5b 10 04 bf
       -0.09176551 0.42880762 0.15528584 -0.51587456
000350 6f 95 8a 3e 35 6b be 3d c8 47 48 bc b1 81 c2 3d
       0.27067134 0.09297792 -0.012224145 0.09497393
000360 93 40 c5 bc b0 09 b1 3e a5 1f 35 3e ac 3e 3b bd
       -0.024078643 0.34577703 0.17687853 -0.045714065
000370 94 e2 1d be 01 51 46 be 6c 62 c6 be f4 7a dd 3e
       -0.15418464 -0.19366838 -0.38746965 0.43257868
000380 e9 a1 9f 3d 97 9f 51 3d 41 43 b1 3e 74 ee 3c 3e
       0.07794554 0.051177587 0.34621623 0.18450338
000390 9e 8b 5a 3e b9 fc 48 be ef 48 f2 3d 72 c9 32 3f
       0.21342322 -0.19627656 0.11830317 0.6983863
0003a0 ed 8c 6f 3e 12 68 db bd 91 8e ac 3e 0b d2 be bd
       0.23393603 -0.10713209 0.3370252 -0.09317406
0003b0 a5 3a 99 3d 7f 97 98 3d c8 ae 36 3e 16 ef 65 3e
       0.07481889 0.074507706 0.17840111 0.22454485
0003c0 d5 39 0e bc 13 19 79 3c 04 64 08 3e 90 4c 30 3d
       -0.00868078 0.015203732 0.13319403 0.043041766
0003d0 c8 67 69 bc 03 e7 51 be 5e 01 b9 3d 08 99 0f 3e
       -0.014245935 -0.2049828 0.09033464 0.1402322
0003e0 f4 08 0c 3e af 54 0c be ea 6b 80 be 1b 95 02 be
       0.1367529 -0.13704179 -0.25082332 -0.12752192
0003f0 3c 66 71 be 7f ae bc 3c 9e 48 a7 3d fe 34 1c 3e
       -0.23574156 0.023032425 0.081681475 0.1525459

fc4.bias f4 [20]
000000 d7 fd 9b bb 34 26 5c 3e 87 3d 8f bd b8 52 54 3c
       -0.0047604847 0.21498948 -0.06994157 0.012959175
000010 b6 e7 54 3d fc 4b 03 bc ee 43 4c 3e 39 d1 47 3e
       0.05197879 -0.008013722 0.19947788 0.19513406
000020 64 68 bc bd 24 cd 17 3e 2e 1d b9 3c 7a 3a 15 3e
       -0.091995984 0.14824349 0.022596922 0.14573088
000030 4f cf 83 3d ea 69 5e be c9 3c 58 be ca 38 54 bd
       0.06436025 -0.2172009 -0.21116938 -0.05181197
000040 cd 60 e8 3c 5f fc f4 3d 48 c0 9a 3d 75 7a 84 bd
       0.02836647 0.119621985 0.07556206 -0.06468669

fc5.weight f4 [20, 20]
000000 7a d9 4e be 2a 9a 34 be fb 2e 0d be 95 1b d4 3d
       -0.20200148 -0.17636934 -0.13787453 0.10356823
000010 21 21 22 3d b1 96 ac bd 0a a8 82 bd 19 2f 35 be
       0.039582375 -0.084271796 -0.06379707 -0.17693748
000020 a7 f0 50 3e d0 b6 28 3e 14 d0 09 bd 10 d2 01 bc
       0.20404302 0.16475987 -0.033645704 -0.007923618
000030 90 5f 37 3c 51 19 8e bd dd f1 df 3d 72 cb 54 3e
       0.0111922175 -0.069384225 0.10934804 0.20780733
000040 b1 e1 49 be 04 ea ce bd 2c b5 14 be 94 af ff bd
       -0.19715 -0.10103229 -0.14522237 -0.12484661
000050 86 06 bd 3b 44 04 50 be 56 ca 06 be f8 d2 fa 3d
       0.0057686 -0.20314127 -0.13163123 0.1224727
000060 64 28 12 3e 32 a1 0a bd 62 a9 ef 3d 56 8c 05 be
       0.1427322 -0.033845134 0.11702229 -0.13041815
000070 fe 34 26 be cd 8c 32 3e eb 14 ef bd 4a 39 72 be
       -0.16231152 0.17436524 -0.11673912 -0.23654667
000080 70 79 bb bd e9 b2 88 3b f5 0b 96 bc 3d a2 dc bc
       -0.09154022 0.0041717184 -0.018316248 -0.02693283
000090 5a 72 c0 bd 97 fe 9a bd 5d 55 b9 3d b7 8d c2 bd
       -0.09396811 -0.075680904 0.09049485 -0.09499686
0000a0 32 fe b8 bd 9c ad 70 be 50 91 5c 3d 4a ea 9b bd
       -0.09032859 -0.23503727 0.05384952 -0.076130465
0000b0 44 23 36 be c5 2e e1 bd a2 1d ed 3d 5e 4d 85 bd
       -0.1778689 -0.10995249 0.11577918 -0.06508897
0000c0 25 a4 cf 3c cb 5d 05 be aa a1 df bc 21 b6 9f 3d
       0.025346825 -0.1302406 -0.027298767 0.0779841
0000d0 48 04 35 be dd a6 08 bd 98 29 5c 3e 28 c9 1d be
       -0.17677414 -0.03336226 0.21500242 -0.15408766
0000e0 1d ac 30 be ad 8c ca bd e3 78 19 3e 81 f2 34 3e
       -0.17253156 -0.09890113 0.14987521 0.17670633
0000f0 fb 25 53 3d 81 b5 a3 bd 83 9d 79 3d a5 3f bd 3d
       0.051549893 -0.079936035 0.06094123 0.09240655
000100 07 e5 fc bd 31 6e ea 3d 9c a9 ee bd 4f c3 2e 3e
       -0.12348371 0.114467986 -0.11653444 0.17066692
000110 15 13 51 3c 37 63 39 3d 8d e9 8d bd 85 44 ef bd
       0.012760897 0.045260634 -0.06929312 -0.11682991
000120 65 a2 4f 3e b8 10 e7 bd 2a 60 8a bd 6f fe 36 be
       0.20276792 -0.11282486 -0.06756623 -0.17870496
000130 91 fe 1c be 53 fb ba 3d 7f ce d3 3d 41 ac f0 bd
       -0.15331484 0.091299675 0.103421204 -0.11751605
000140 86 b5 b7 3d ca 98 1d be 80 d2 b0 3e ea 5d a6 3d
       0.0897017 -0.15390316 0.345356 0.081233814
000150 32 4f 20 3e 52 1e d6 3d d7 92 48 3e e9 1e f2 bd
       0.1565521 0.10455002 0.19587265 -0.11822302
000160 28 d6 2d 3e 7e ee 30 be 1a 14 2a 3e 87 8b 87 be
       0.16976225 -0.17278478 0.1660923 -0.26473638
000170 bf 1a 44 be 1b 3f 9d bd 33 f1 d8 3d 07 75 04 3e
       -0.19150828 -0.07678052 0.1059288 0.12935267
000180 f6 d1 94 3e d8 ce d4 be a2 12 97 bd d1 08 3b be
       0.29066437 -0.4156406 -0.07376601 -0.18265082
000190 6e d7 20 bd 49 7a 84 3e 23 1c 10 3e d6 b3 51 3e
       -0.03926795 0.25874546 0.14073233 0.20478758
0001a0 bd c1 d7 bd f3 87 62 3e a0 e3 4a 3d 4f cd 39 be
       -0.105349995 0.22122173 0.049533486 -0.18144725
0001b0 29 25 2b be ad 77 0c 3f da 65 68 3e b0 f6 9b 3e
       -0.16713394 0.5487011 0.22695103 0.30461645
0001c0 09 b1 07 be b4 d7 bb bd 4f 6d 5e 3e d0 3a 03 3e
       -0.13251127 -0.091720015 0.21721385 0.12815404
0001d0 c3 4a 66 3e 2b c8 03 3f 4f fe b7 3c bd 6f a2 bd
       0.22489457 0.5147731 0.022460131 -0.07931469
0001e0 15 2d 3c be bf bd 08 be 2b 65 65 3d fc 2c a0 bb
       -0.18376572 -0.13353632 0.056004684 -0.004888175
0001f0 44 42 5f be 15 06 82 bd a1 a9 9a bd 64 7e e8 3d
       -0.21802622 -0.06348816 -0.075518854 0.11352232
000200 43 f7 12 3e cf 8c 8b be 77 73 76 3d f9 62 f4 bd
       0.14352135 -0.27255866 0.06016871 -0.1193294
000210 2f ab 3e bd 64 7e 07 3d 3f 1d 8e bd fa 2f 4a bc
       -0.046549972 0.03307952 -0.06939172 -0.01234054
000220 4f 90 af 3d 1b 3f 1a 3e 6c 1d 63 be fe 3c 5f 3e
       0.085724466 0.15063135 -0.22179192 0.2180061
000230 cd a7 dc bd c8 49 04 3e 8e 2b 7c be 66 cb 4b 3e
       -0.10774193 0.1291877 -0.2462599 0.19901809
000240 f4 3d 08 3e b7 fe 9a bd a9 82 5e 3d 9c 65 64 3e
       0.13304883 -0.07568114 0.054323826 0.22304386
000250 38 b4 3b 3e a3 d7 0c 3f 53 dd 2e be 99 c8 ef 3d
       0.18330467 0.55016536 -0.17076616 0.11708183
000260 34 c3 4f 3c 19 09 90 bc 15 55 8e 3d 1e 68 c3 3d
       0.012680817 -0.017582463 0.06949822 0.09541343
000270 1c aa b9 3d 9f 90 31 3e 19 58 25 be 1e 80 9c bd
       0.09065649 0.17340325 -0.16146888 -0.07641624
000280 3c 9d ff bd 5d d7 ec bd 56 d5 ac 3e af de 36 3e
       -0.12481162 -0.11564515 0.33756512 0.17858385
000290 39 55 70 3e 12 44 11 3e 65 66 8b 3e 83 78 80 3e
       0.2347001 0.14186123 0.27226558 0.25091943
0002a0 36 c5 50 be d5 30 ce be 69 1b 8a 3e 88 0d ff 3d
       -0.2038773 -0.4027163 0.26974037 0.12453753
0002b0 28 c1 f7 ba e4 d3 53 bd 2a 0d 56 be 41 28 5d 3d
       -0.001890217 -0.051715747 -0.20903459 0.053993467
0002c0 f6 d9 8e 3e 90 1c 7f bc f6 f5 a1 3e 38 12 30 be
       0.27900666 -0.015570775 0.31632966 -0.1719445
0002d0 46 c5 ab bc 7f 87 2e be be 96 4e be a0 a7 a9 bd
       -0.02096809 -0.17043875 -0.20174691 -0.08283925
0002e0 6d 39 95 3d 27 75 99 3d 10 5b 00 be be f8 34 3e
       0.07286344 0.07493048 -0.12534738 0.17673013
0002f0 86 3a cb bd 5c 4f ff 3d c3 e0 26 bd b6 fd 2b bd
       -0.09923272 0.124663085 -0.040741693 -0.041990004
000300 8d f3 07 3e 62 a6 32 3d 05 ff 72 3d 4b ee 24 3e
       0.13276501 0.043615706 0.059325237 0.16106527
000310 54 0a cd bd 1e 6e bc bd b6 55 0d 3e e6 23 1f 3e
       -0.100117356 -0.09200691 0.13802227 0.15541038
000320 e2 ea dd 3d e5 c4 b5 bd 31 0a 03 3e 11 65 d4 3d
       0.10835816 -0.08875445 0.12796856 0.103708394
000330 2f 7b 49 3d be 3b af bd 2a ef c8 bd da ec 44 be
       0.049189743 -0.08556317 -0.09811242 -0.19230977
000340 bd 33 37 3b f7 2e ad 39 1d c0 3b 3d f7 80 ce bd
       0.0027954422 0.00033032123 0.04583751 -0.10083192
000350 a6 65 4d be 27 67 b7 3d 26 34 e9 3d e7 b6 42 3e
       -0.20058307 0.089552216 0.113869 0.19015084
000360 60 fb 27 be 16 6a 0d be 89 a1 11 be 6b bd b4 bd
       -0.16404486 -0.1381 -0.14221777 -0.08825191
000370 8a ab a3 bd b6 5e 13 bd 04 9a 95 bd 2f 58 ad 3e
       -0.07991703 -0.035978995 -0.07304767 0.3385634
000380 c9 4d 1b 3e 84 82 03 be f6 60 d5 3d dc f8 06 3e
       0.15166391 -0.12842757 0.104188845 0.1318087
000390 3f 93 e5 3d ef 39 b8 3e 17 ee 7f 3e f3 b8 97 3e
       0.112097256 0.359817 0.24993168 0.29633293
0003a0 42 47 34 be 98 f6 6c 3d 29 3c 12 be e3 e7 d5 bd
       -0.17605308 0.057852358 -0.14280762 -0.104446195
0003b0 0e f9 2c bd d3 b3 c6 3e d2 d1 7f 3e 69 ee ee bd
       -0.042229705 0.3880907 0.24982384 -0.11666567
0003c0 91 10 17 3e 05 50 7c be c6 b4 b2 3d 9b 16 8c be
       0.14752413 -0.246399 0.08725886 -0.27360997
0003d0 43 8f b5 bd 2f 4a 4c be 17 99 ab 3d 42 8e c2 bd
       -0.08865216 -0.19950174 0.08378809 -0.0949979
0003e0 09 35 82 bd db 3a be 3d 94 6b 1f bd 46 18 8c bd
       -0.06357772 0.092885695 -0.038920954 -0.06840567
0003f0 4f f4 e3 3d 36 a6 5e 3e 1a ff d2 bd 5c 0d 9f 3d
       0.111305825 0.21743092 -0.10302563 0.0776622

fc5.bias f4 [20]
000000 23 bd eb bd 4d 92 ee bd ae 37 41 bd 4e 37 ef bd
       -0.11510684 -0.116489984 -0.04717224 -0.116804704
000010 96 74 23 3e e0 2a 63 3e 93 84 ed 3d 89 f9 f7 3d
       0.15962443 0.22184324 0.11597552 0.12108142
000020 21 ff 09 bd 7b 36 f8 3d 38 e6 93 bc c0 18 4e 3e
       -0.033690576 0.12119766 -0.018054113 0.20126629
000030 ac 2e 80 be 80 4e 02 bd ec 31 5c 3c 3e e5 88 3d
       -0.25035608 -0.031813145 0.013439637 0.066843495
000040 e1 bb eb bd 39 00 28 3e 99 2f ca bd e8 d0 a0 3c
       -0.115104444 0.16406335 -0.0987236 0.019630864

fc6.weight f4 [3, 20]
000000 ed 31 3a bc 2f 6d 17 3e cf 05 2e be d7 3c ef 3c
       -0.011364442 0.14787744 -0.16994403 0.029203815
000010 b9 29 81 3e 00 67 4d bd ee ba 34 be 1c f6 86 be
       0.25227144 -0.050147057 -0.17649433 -0.26359642
000020 5b 46 3c 3e 33 e1 19 be 7f 52 05 3e 9a 19 31 be
       0.18386213 -0.15027313 0.13019751 -0.17294922
000030 04 4e 12 be b6 7b 18 3e d1 85 c4 3e 54 23 2d 3e
       -0.14287573 0.14890942 0.38383344 0.16908008
000040 2a c3 5f 3d f1 da bd 3d 96 2c ff 3e 07 00 5d bd
       0.054629482 0.092702754 0.49838704 -0.053955104
000050 e0 71 27 be c5 c9 36 3e 16 c9 d7 bc 31 ef 16 be
       -0.16352034 0.17850406 -0.026341002 -0.14739682
000060 70 29 99 be 9e 1b 07 bf 98 66 91 3c 2d 00 c2 be
       -0.29914427 -0.52776515 0.017749116 -0.3789076
000070 cf 66 29 bf 01 9e 39 3d b3 cb bc 3d 48 24 2b bf
       -0.661725 0.0453167 0.0921854 -0.66852236
000080 13 ed 0b 3e 67 65 96 3c eb d9 dd be c4 c6 fc be
       0.13664655 0.0183589 -0.4333032 -0.49370396
000090 f2 0e 99 3d 25 19 1b bf e1 f2 90 be e1 ef 0d bf
       0.07473554 -0.6058524 -0.28310302 -0.5544415
0000a0 78 8a 24 be c3 5d 0c 3e 0f d6 36 3d 84 1f 83 bd
       -0.16068447 0.13707642 0.044637736 -0.064024955
0000b0 11 1b 9d 3d f6 f7 8e 3e 33 a4 6d 3d 6d 49 e2 3e
       0.07671178 0.27923554 0.05801792 0.44196644
0000c0 79 cb c6 bd de 80 a2 bd fd 52 0f be f5 4d 9f 3e
       -0.09706778 -0.07934736 -0.13996501 0.31114164
0000d0 26 95 dd 3d 0b 4b 44 3c 2c 7b dc be 00 2f 82 3e
       0.108194634 0.011980782 -0.43062723 0.25426483
0000e0 bd 27 4f be ed 48 70 bb 2a 14 bf be e0 9f 4a 3e
       -0.20230003 -0.003666456 -0.3732007 0.1978755

fc6.bias f4 [3]
000000 b3 6b 7a 3e 8d 1b 8f be 61 8c e7 3b
       0.24455146 -0.27950707 0.007066295
