models_3val/xor_and_8.pth (torch, 12178 bytes, 12 tensors)

fc1.weight f4 [20, 12]
0	0x3e2eab63	0.17057566
1	0xbd3be837	-0.045875754
2	0x3e8c5013	0.27404842
3	0x3ea676f7	0.32512638
4	0x3d17d926	0.037072323
5	0xbe2157d9	-0.15756167
6	0xbe0ba339	-0.13636483
7	0x3eda1297	0.42592308
8	0x3ebef0f5	0.3729321
9	0x3e223cff	0.1584358
10	0x3dee3e5f	0.1163299
11	0x3dd8f995	0.10594479
12	0xbda73ad5	-0.08165518
13	0x3d94eb28	0.07271415
14	0x3e0916c1	0.13387586
15	0x3eb3bdd4	0.35105765
16	0x3ebbd875	0.3668858
17	0xbd67194d	-0.056420613
18	0xbd0576d2	-0.03258402
19	0xbebbfca2	-0.3671618
20	0x3e484399	0.19557036
21	0x3dbef32e	0.093237266
22	0x3dbe8f37	0.0930466
23	0x3cdc4880	0.02689004
24	0xbe1416f7	-0.14461885
25	0x3d085ee6	0.033293627
26	0xbdb0bf58	-0.08630246
27	0x3e94f9ef	0.29096934
28	0x3e324f45	0.17413051
29	0x3eee89f6	0.4658963
30	0x3e9b90a9	0.30383804
31	0x3dcee065	0.101013936
32	0xbe5dc229	-0.21656097
33	0x3c0ebae9	0.008711555
34	0x3e4af267	0.19819032
35	0x3ea67b84	0.3251611
36	0xbdf54629	-0.119762726
37	0xbd254944	-0.040353075
38	0xbdec03bf	-0.11524152
39	0xbdc38fa8	-0.09548885
40	0xbe44acbd	-0.1920652
41	0x3d31e21a	0.043428518
42	0xbe7d0800	-0.24710083
43	0x3dc5c855	0.09657351
44	0x3cb35382	0.021890406
45	0xbdd56f03	-0.104215644
46	0xbe8e3b76	-0.2777974
47	0xbe1d89aa	-0.15384546
48	0x3d25ef19	0.040511224
49	0x3c1f4c2b	0.00972275
50	0x3d9fc97f	0.07802104
51	0xbebf406e	-0.37353843
52	0xbd3c4b27	-0.04597011
53	0xbebb08e8	-0.36530232
54	0xbd6e0a2e	-0.058115177
55	0x3ebd10f2	0.3692699
56	0x3da1d45c	0.079018325
57	0x3ce98f49	0.028510706
58	0xb9da4d13	-0.00041637625
59	0x3c51361c	0.012769248
60	0x3de15be7	0.11003857
61	0x3cafb386	0.021447908
62	0x3ea1b9b7	0.31587002
63	0xbcffb48e	-0.031214025
64	0x3e804fe0	0.2506094
65	0x3e3210a6	0.17389163
66	0x3e83158f	0.25602385
67	0xbe5db66c	-0.2165162
68	0x3e93b972	0.2885242
69	0x3e76514e	0.24054453
70	0x3e71b50d	0.23604222
71	0xbc861a6c	-0.01637002
72	0x3c971529	0.018442707
73	0x3c8ab494	0.01693181
74	0x3e08700e	0.13323995
75	0x3e199bf8	0.15000904
76	0x3ed9f445	0.42569175
77	0x3eed20f5	0.46314207
78	0xbf03a365	-0.51421195
79	0x3b58aa8b	0.0033060636
80	0x3a05aa99	0.00050989684
81	0x3afc7158	0.0019259853
82	0x3aa0abbf	0.0012258216
83	0x3b3fd4f0	0.0029271208
84	0x3d415cbc	0.04720758
85	0x3e86d1ac	0.26331842
86	0x3e558d7b	0.20854752
87	0xb9c35e59	-0.00037263593
88	0x3ef180cb	0.47168574
89	0x3e3fc2c7	0.18726645
90	0x3ec41741	0.3829899
91	0xbe3d6420	-0.18495226
92	0xbb964179	-0.0045854417
93	0xbdec6650	-0.11542952
94	0xbba49b29	-0.0050233793
95	0x3d33caef	0.043894704
96	0x3cea7d2c	0.02862414
97	0xbdea02f9	-0.11426348
98	0x3d5f4e42	0.05451799
99	0x3e253f66	0.16137466
100	0x3f02c295	0.5107816
101	0x3d8c82ee	0.0686091
102	0x3ee81728	0.45330167
103	0x3ede3164	0.43397057
104	0x3d4cbce9	0.049984846
105	0x3d737dfe	0.059446327
106	0x3dbaf3e1	0.091285475
107	0x3e182ef2	0.14861658
108	0x3d04b521	0.0323993
109	0x3de1b4a6	0.11020784
110	0x3e8abbdf	0.2709646
111	0x3dded5c5	0.10880617
112	0x3eb40195	0.35157457
113	0x3ef94d08	0.48691583
114	0x3e9f3be9	0.31100395
115	0x3e6dd9b8	0.23227584
116	0x3e554137	0.20825659
117	0x3e258bb4	0.16166574
118	0xbd146d5f	-0.036237117
119	0xbe2cb2f9	-0.16865148
120	0xbd127821	-0.035759095
121	0x3e2e3188	0.17011082
122	0x3e0910e3	0.13385348
123	0xbd1c9b55	-0.038234074
124	0xbdbc6fd2	-0.092010155
125	0x3ea796b7	0.32732174
126	0x3e9ca295	0.3059279
127	0x3e9b530b	0.30336794
128	0xbe22c9f4	-0.15897352
129	0xbe0391b0	-0.12848544
130	0x3c69967a	0.014257068
131	0xbdcd0e3f	-0.10012483
132	0xbd17dd50	-0.037076294
133	0x3e5a905e	0.21344134
134	0x3ccb1800	0.024791718
135	0x3d9f0a59	0.077656455
136	0x3cc37e6a	0.02386399
137	0xbe2eedbd	-0.17082877
138	0x3d3d7611	0.046255175
139	0x3ef68b87	0.48153326
140	0x3de4d2ac	0.11172995
141	0x3c20eb69	0.009821751
142	0x3e4b7107	0.19867335
143	0x3d2d30be	0.042282812
144	0x3b99354a	0.004675542
145	0x3c2d8a3c	0.01059204
146	0x3e4c3ce9	0.1994511
147	0x3ec86ede	0.39147085
148	0xbe6b8a37	-0.23001944
149	0x3eb2d6d6	0.34929532
150	0xbe0b4f39	-0.1360444
151	0xbec0fdec	-0.37693727
152	0xbc90151c	-0.01758819
153	0xbba6a53e	-0.0050856164
154	0x3a8a9b65	0.0010574876
155	0x3c35acc5	0.011088555
156	0x3e3ca2ed	0.18421526
157	0x3df4b3ec	0.1194838
158	0x3e571bad	0.21006651
159	0xbd88b89e	-0.06675838
160	0x3ddead6a	0.1087292
161	0xbd505a7f	-0.050867554
162	0x3e0d5981	0.13803674
163	0xbe906425	-0.28201404
164	0x3e02a4c3	0.12758164
165	0xbe032644	-0.12807566
166	0x3cfe4cb3	0.031042432
167	0x3db2cab7	0.08730071
168	0x3cec475a	0.028842617
169	0x3cbf50f6	0.023354035
170	0x3d9d10ba	0.07669206
171	0xbd437ee5	-0.047728438
172	0xbdf00229	-0.11719162
173	0xbdbe792b	-0.09300455
174	0xbe8ded66	-0.27720183
175	0xbf65a4fa	-0.8970486
176	0x3ceb5057	0.028724832
177	0x3ca672ef	0.020318476
178	0x3cff0267	0.031129075
179	0x3d122bf5	0.035686452
180	0x3e1b5ded	0.15172549
181	0xbde4271a	-0.111402705
182	0x3eca6009	0.39526394
183	0x3e917e2b	0.2841657
184	0x3b0b3da4	0.0021246457
185	0x3df9e650	0.12202132
186	0xbc3d8d7e	-0.011569379
187	0x3f041a7a	0.516029
188	0x3ce6d865	0.028179357
189	0xbdec777a	-0.11546226
190	0x3d01f393	0.03172643
191	0x3e285611	0.16439082
192	0x3c4fe4c9	0.012688824
193	0x3c1e8a62	0.009676548
194	0x3dd1b595	0.10239712
195	0x3dab69a2	0.08369757
196	0xbf0e4516	-0.55574167
197	0xbf3a4467	-0.72760624
198	0x3eac2558	0.3362224
199	0xbc58b93f	-0.01322776
200	0x3bbb2bef	0.0057120244
201	0x3b1053da	0.0022022636
202	0x3b97fe2e	0.004638455
203	0x3b83145b	0.0040002293
204	0x3bcb630b	0.006206875
205	0x3aa7aabf	0.0012791975
206	0x3db3faef	0.08788096
207	0x3ea60948	0.32428956
208	0x3e4ddadf	0.20103024
209	0xbeddfe30	-0.43357992
210	0xbd699634	-0.05702801
211	0x3f24af2c	0.6432979
212	0xbb21224c	-0.0024587093
213	0x3bdfbcc3	0.006827922
214	0x3be5b680	0.007010281
215	0x3c750a66	0.014956092
216	0xbd3c6204	-0.045991912
217	0x3d75a9fe	0.05997657
218	0x3e3a488c	0.18191737
219	0x3df7b7ef	0.120956294
220	0x3db02a68	0.08601838
221	0xbea185ce	-0.31547397
222	0x3d3fdf9c	0.04684411
223	0x3e0c06a4	0.13674408
224	0xbda8f9da	-0.082507804
225	0x3dfa84f3	0.12232389
226	0x3cde49f1	0.027134867
227	0x3dbe9faf	0.09307801
228	0x3e0e9dbf	0.13927363
229	0x3e333eab	0.17504375
230	0x3f00a34c	0.5024917
231	0x3d91a542	0.071115986
232	0xbd117d86	-0.0355201
233	0x3f25376f	0.6453771
234	0xbdfae84a	-0.12251337
235	0x3ec9339d	0.3929719
236	0x3e5f2bfb	0.21794121
237	0x3d8f9262	0.07010342
238	0x3de8bf0d	0.11364565
239	0x3e39ed72	0.18156984

fc1.bias f4 [20]
0	0x3eeb0bc0	0.45907402
1	0x3f13f0bf	0.57789224
2	0x3e4a0aae	0.19730636
3	0xbea7e296	-0.3279006
4	0x3d087e35	0.033323485
5	0x3e1bb160	0.15204382
6	0xbe0a7d48	-0.13524354
7	0xbd85b770	-0.065291286
8	0xbdcd0d45	-0.100122966
9	0x3e543fb1	0.20727421
10	0x3e961099	0.29309538
11	0xbce236e9	-0.027614074
12	0xbdf08c35	-0.11745492
13	0x3f020df2	0.5080253
14	0x3ed2dc5c	0.41183746
15	0x3ed92efb	0.42418656
16	0x3dab0e57	0.083523445
17	0xbdadaf10	-0.08480656
18	0x3f123927	0.5711846
19	0xbebe0141	-0.37110332

fc2.weight f4 [20, 20]
0	0x3d1ff5a1	0.03905261
1	0xbad970da	-0.0016589419
2	0x3da84ed4	0.0821816
3	0xbdd38ce4	-0.10329607
4	0x3dbd1b76	0.092337534
5	0x3cbf4d27	0.023352219
6	0xbeb67528	-0.35636258
7	0xbe0ec556	-0.13942465
8	0xbe21b657	-0.15792213
9	0x3e91f4bf	0.2850704
10	0x3e82bc86	0.25534457
11	0xbd960e8c	-0.07326993
12	0xbda04972	-0.078265086
13	0x3c862199	0.016373442
14	0xbea932ca	-0.3304656
15	0x3e730afb	0.23734657
16	0xbf076431	-0.52887255
17	0x3cb77cab	0.022398314
18	0x3dca76cc	0.0988594
19	0x3d6fad28	0.058514744
20	0x3dd49b5a	0.103811935
21	0xbe410338	-0.18848884
22	0x3da86b1a	0.08223553
23	0x3def764e	0.11692487
24	0x3ed75b8c	0.42062032
25	0x3d9c5ca5	0.07634858
26	0x3e849f09	0.25902584
27	0x3d799e87	0.0609422
28	0x3ee01d2b	0.43772253
29	0x3e27f69a	0.16402665
30	0x3e01e201	0.1268387
31	0x3e274376	0.16334328
32	0xbe5ee30b	-0.21766298
33	0xbe64c478	-0.22340572
34	0xbe9f4078	-0.31103873
35	0x3c808ab2	0.015691135
36	0x3edfb2eb	0.4369119
37	0x3ef8ae8b	0.48570666
38	0xbd78b696	-0.060721003
39	0x3e47a8b9	0.19497956
40	0xbe77354a	-0.24141422
41	0x3e9a09f8	0.3008573
42	0x3e79e386	0.244032
43	0x3da2b821	0.07945276
44	0xbd9b3297	-0.075780086
45	0x3e947d4e	0.2900185
46	0xbeb4ef0c	-0.35338628
47	0x3e9263e6	0.2859184
48	0xbd3ff41f	-0.04686367
49	0x3e50943d	0.20369048
50	0x3cdc999f	0.026928721
51	0xbe37927e	-0.17926976
52	0x3ece021c	0.40235984
53	0x3e67b857	0.22628914
54	0xbf24ce2c	-0.64377093
55	0x3d1f205c	0.03884922
56	0xbe534330	-0.20631099
57	0x3e33e2a4	0.17566925
58	0xbc9db422	-0.019250933
59	0xbe11f2e4	-0.14252812
60	0x3d655d49	0.055997167
61	0xbe49aea2	-0.19695523
62	0x3e23887a	0.1597003
63	0x3e0a77d5	0.13522275
64	0xbd98dc66	-0.07463913
65	0xbb26ac5a	-0.002543232
66	0xbf31c5ac	-0.6944225
67	0xbe91fc21	-0.28512672
68	0xbe242528	-0.16029799
69	0x3c3248da	0.010881627
70	0x3ddc4a7e	0.10756396
71	0xbda33e0a	-0.079708174
72	0x3ec189c8	0.3780043
73	0x3ca7b55d	0.020472223
74	0xbeec9482	-0.46207052
75	0xbdf3b96e	-0.11900602
76	0xbf2e32a6	-0.68046033
77	0xbda3fe90	-0.08007538
78	0xbe46927f	-0.19391821
79	0x3eb93f3b	0.36181054
80	0x3e1aa3ff	0.15101622
81	0xbea7dcab	-0.32785544
82	0xb9cc5b30	-0.00038977852
83	0xbe2181d1	-0.15772177
84	0x3eca9bd4	0.39572012
85	0xbe65a87f	-0.22427557
86	0x3f1c2634	0.60995793
87	0xbca1c9e7	-0.019749595
88	0x3d35d0d7	0.04438862
89	0x3da773ca	0.08176382
90	0xbdbb255f	-0.09137987
91	0x3ec6cf9f	0.38830277
92	0xbe3807a2	-0.17971662
93	0xbe308f23	-0.17242102
94	0xbe4f53ca	-0.20246807
95	0x3dd058b2	0.10173167
96	0x3e8a8a13	0.27058467
97	0x3ea0cf61	0.31408218
98	0xbdecfba8	-0.11571437
99	0xbd27d856	-0.0409778
100	0xbd98ea79	-0.07466597
101	0x3e6e2f8f	0.2326033
102	0x3dff5ff8	0.124694765
103	0xbc861915	-0.016369382
104	0xbeda6bec	-0.42660463
105	0x3d46c0f2	0.04852385
106	0xbda24df6	-0.07925026
107	0x3d31c923	0.04340471
108	0xbdfe88a1	-0.12428404
109	0x3d7253b5	0.05916186
110	0xbe1317e4	-0.14364582
111	0xbda4d556	-0.08048503
112	0x3ea6bd9d	0.32566538
113	0x3ea949c7	0.330641
114	0x3de24461	0.110481985
115	0xbdc51902	-0.096239105
116	0xbea0ec1a	-0.3143013
117	0xbe0a2ac0	-0.1349287
118	0x3e8ca6c0	0.2747097
119	0xbdbccadd	-0.092183806
120	0x3d813148	0.06308228
121	0xbe28baf1	-0.16477562
122	0x3d517eba	0.051146246
123	0xbbba60d3	-0.005687812
124	0xbe60c0cd	-0.21948548
125	0xbc47c7dd	-0.012193647
126	0xbea00cd9	-0.31259802
127	0x3d87cbe3	0.06630685
128	0x3e6fb17e	0.23407552
129	0x3e90e82d	0.28302136
130	0x3e7b5c3d	0.24546905
131	0xbceebb30	-0.029141992
132	0xbf0dffff	-0.55468744
133	0xbe425bd6	-0.18980345
134	0xbefacd90	-0.48984957
135	0x3e558b6a	0.20853963
136	0xbf207f92	-0.62694657
137	0x3d604535	0.0547535
138	0xbd23eaed	-0.040018965
139	0x3e69feef	0.22851156
140	0x3d06c7ed	0.032905508
141	0x3e5ceb93	0.2157424
142	0x3e52c666	0.20583495
143	0x3da2ba0d	0.079456426
144	0xbe25d09c	-0.1619286
145	0x3e4d8cb8	0.20073211
146	0xbe686e4d	-0.22698326
147	0x3de3160c	0.110881895
148	0x3e17fdb7	0.14842878
149	0x3d144948	0.0362027
150	0xbdfea4a5	-0.12433747
151	0xbe9b75d2	-0.30363327
152	0x3d4d0b21	0.05005944
153	0x3e9924df	0.29910943
154	0xbe4cb3c1	-0.19990446
155	0x3df9abf2	0.12190999
156	0xbeee243c	-0.4651202
157	0xbdb8c7a1	-0.09022451
158	0xbc106b0c	-0.008814584
159	0xbe302c09	-0.17204298
160	0x3e52136e	0.20515224
161	0xba329069	-0.000681168
162	0x3e2f91e0	0.1714549
163	0xbe71b1d6	-0.23602995
164	0xbdab0410	-0.08350384
165	0xbe3329dd	-0.17496438
166	0xbe9c3d76	-0.3051564
167	0xbddb066f	-0.106945865
168	0xbdaeec60	-0.08541179
169	0x3e895bdd	0.268279
170	0x3d749571	0.05971283
171	0x3e0c45fb	0.1369857
172	0xbf096c0a	-0.5368048
173	0xbeaa7b3f	-0.33297154
174	0xbeb285ab	-0.34867606
175	0x3e9b7e26	0.3036968
176	0xbf1b9a92	-0.6078273
177	0x3ee45cc3	0.44602022
178	0xbc808a96	-0.015691083
179	0x3edadb40	0.427454
180	0x3db5959d	0.08866427
181	0x3e6ac05e	0.22924945
182	0x3d349f2e	0.044097118
183	0x3e357a3a	0.17722407
184	0xbe9c8cf3	-0.30576286
185	0x3ddcd730	0.10783231
186	0xbe77509b	-0.24151842
187	0x3e4b7db0	0.19872165
188	0xbdc14c51	-0.09438384
189	0x3d8c0dbb	0.068385564
190	0x3e23df46	0.16003141
191	0xbebc8d98	-0.36826777
192	0x3e8bf64e	0.27336353
193	0x3ba9bc65	0.005179929
194	0xbeb4ebe4	-0.3533622
195	0x3dff20c4	0.124574214
196	0xbef495ab	-0.47770438
197	0x3cde4145	0.027130732
198	0x3db1031c	0.08643171
199	0xbde6c490	-0.1126796
200	0x3d4f7c18	0.050655454
201	0xbd57ba89	-0.05266813
202	0x3e1d98bc	0.15390295
203	0x3df81577	0.12113469
204	0xbddcbb93	-0.107779644
205	0x3d804a19	0.06264133
206	0x3e8fd88a	0.28094894
207	0x3d044665	0.032293696
208	0xbd1d9e2a	-0.038480915
209	0xbdc892cc	-0.09793624
210	0x3e83f8d9	0.25775793
211	0x3e46cf3c	0.19414991
212	0xbe0255cd	-0.12728043
213	0x3d6da6d2	0.05802042
214	0x3ea28a49	0.31746128
215	0x3e99be7f	0.3002815
216	0x3e73a72d	0.23794241
217	0xbedf9ade	-0.43672842
218	0x3e98a05b	0.29809842
219	0xbe1939fe	-0.14963529
220	0xbd2557da	-0.040366985
221	0x3e08ec8d	0.13371487
222	0xbd4e4a64	-0.050363913
223	0xbe4d999b	-0.20078127
224	0xbde9aba5	-0.11409692
225	0x3dce7aa2	0.10081984
226	0x3e17da0f	0.14829277
227	0xbe5106e2	-0.20412782
228	0xbdde3ed8	-0.1085183
229	0xbd384dd6	-0.044996105
230	0xbe2c2a55	-0.16813023
231	0x3b91a617	0.0044448483
232	0xbdb5bc98	-0.08873862
233	0xbe0cec83	-0.13762097
234	0x3dfc7c14	0.123283535
235	0xbde70f3b	-0.11282202
236	0xbd9a5ec1	-0.07537604
237	0xbd3a3c6a	-0.04546777
238	0xbd9b43a9	-0.075812645
239	0x3d11496d	0.035470415
240	0x3ea4460a	0.32084686
241	0x3ea02662	0.31279284
242	0x3db6a38a	0.08917911
243	0x3d040fed	0.03224175
244	0xbebc130a	-0.36733276
245	0x3e8b2df3	0.27183494
246	0x3e9acb45	0.30233207
247	0xbcb1b733	-0.021693802
248	0x3e3d6aa3	0.1849771
249	0x3e29a18f	0.16565536
250	0xbdd1e155	-0.10248057
251	0xbe8267d5	-0.25469843
252	0x3e6d7c51	0.23191954
253	0x3eced7fb	0.40399155
254	0x3e21f83e	0.15817353
255	0x3ec82746	0.39092463

fc2.bias f4 [20]
0	0x3e9e66b0	0.3093772
1	0xbe4272eb	-0.1898915
2	0xbd121509	-0.035664592
3	0x3e7d9135	0.24762423
4	0xbeaf7c56	-0.34274548
5	0x3eef43c5	0.46731392
6	0x3e34c365	0.17652662
7	0x3da600ca	0.08105619
8	0x3d71cb0c	0.05903153
9	0x3e84b270	0.25917387
10	0x3eda0f36	0.4258973
11	0xbe6bd529	-0.23030533
12	0x3e77d627	0.24202786
13	0xbedda28b	-0.43288073
14	0xbdec7f87	-0.115477614
15	0x3e2afd93	0.16698293
16	0x3e325fae	0.17419311
17	0x3cc53738	0.024074182
18	0xbc889a4c	-0.016675137
19	0x3e3d7a15	0.18503602

fc3.weight f4 [20, 20]
0	0x3da3a210	0.07989895
1	0xbe358da6	-0.17729816
2	0xbeb4e927	-0.3533413
3	0xbecf09b2	-0.40437084
4	0xbef6828f	-0.48146483
5	0x3d887a98	0.06664008
6	0xbda8e25e	-0.08246301
7	0x3de5e596	0.11225431
8	0x3e6f68da	0.23379841
9	0xbda8bde4	-0.08239344
10	0x3eea326c	0.45741594
11	0xbda3740e	-0.0798112
12	0x3e1ecde0	0.15508223
13	0xbe1999ed	-0.15000124
14	0xbe1db9ad	-0.15402861
15	0xbc9ba32b	-0.018998703
16	0x3de333bf	0.11093854
17	0x3db5faa6	0.08885698
18	0xbcb07fd0	-0.02154532
19	0x3e4878a4	0.19577271
20	0xbcb919ad	-0.022595251
21	0xbd5eb09f	-0.054367658
22	0xbdee8647	-0.11646705
23	0xbf0b05d9	-0.543058
24	0x3ea05091	0.31311467
25	0x3ee7a84b	0.45245585
26	0xbe6047cd	-0.2190239
27	0xbaad131a	-0.0013204545
28	0xbdb6c729	-0.089247055
29	0x3e3cce79	0.18438138
30	0x3eb858ad	0.36005154
31	0x3e2d78bc	0.16940588
32	0x3e3eabf5	0.18620284
33	0xbd272cb6	-0.040814124
34	0x3e5253a2	0.20539716
35	0x3dceb3dd	0.100929
36	0x3e4bc505	0.19899376
37	0x3db47775	0.08811847
38	0x3e5859a0	0.21127939
39	0x3ee03e27	0.43797418
40	0xbdb540fc	-0.088502854
41	0x3ebb0cda	0.36533242
42	0xbec2ee82	-0.38072592
43	0xbf27a519	-0.65486294
44	0x3e43c877	0.1911944
45	0xbeeef0cf	-0.46668097
46	0x3dd8d3ca	0.105872706
47	0xbea96cde	-0.33090872
48	0x3d83654f	0.064158075
49	0xbebe76da	-0.37200052
50	0xbe634088	-0.22192585
51	0x3e50a134	0.20373994
52	0xbe1f3032	-0.15545729
53	0xbe028020	-0.12744188
54	0x3c95ab4d	0.01827016
55	0x3e707c9a	0.23485032
56	0xbc5341d8	-0.012894116
57	0xbe07c9fe	-0.13260648
58	0x3f171de7	0.5903
59	0x3d1efd3d	0.038815726
60	0x3e89b8d3	0.26898822
61	0x3e3307f0	0.17483497
62	0xbeac5938	-0.33661819
63	0xbee2a9a4	-0.4427005
64	0xbde527ae	-0.11189209
65	0x3e2905f2	0.16506174
66	0x3d17c6ce	0.03705483
67	0xbe8e7e5d	-0.27830783
68	0x3e4f8a72	0.20267656
69	0x3d8e6d31	0.0695442
70	0x3e8dbf32	0.27684933
71	0x3dfad84a	0.12248285
72	0x3e864e09	0.2623141
73	0xbe6996b0	-0.22811389
74	0x3d4706fb	0.04859064
75	0x3ec92ebc	0.39293468
76	0x3e6115ec	0.21981019
77	0x3c6b82db	0.01437446
78	0x3cfed131	0.03110561
79	0x3de05818	0.109543025
80	0x3e5bf1fb	0.21479027
81	0xbe9ba462	-0.30398852
82	0xbd6013ae	-0.054706268
83	0xbdd31f82	-0.10308744
84	0xbea1a38d	-0.31570092
85	0x3e802c5d	0.25033846
86	0xbd1e3fcd	-0.038635064
87	0xbdc99c49	-0.09844262
88	0x3cc865ff	0.024462698
89	0xbc9328e5	-0.017963836
90	0x3e7da265	0.2476898
91	0x3e0cca19	0.13748969
92	0x3ddabdc5	0.10680727
93	0xbef2f0fa	-0.47449476
94	0xbe43b447	-0.19111739
95	0x3dbcda40	0.092213154
96	0x3e6aa423	0.22914176
97	0x3e4cda0d	0.20005055
98	0xbee13622	-0.43986613
99	0x3c29fc37	0.010375074
100	0xbbb1b366	-0.0054229973
101	0x3eb4366d	0.35197774
102	0xbe190620	-0.14943743
103	0xbef07c9d	-0.46970072
104	0x3e9e264a	0.30888587
105	0xbec3b158	-0.3822124
106	0x3e8ddec2	0.27709013
107	0xbe3291a8	-0.17438376
108	0x3ea61725	0.32439533
109	0x3cdf30ae	0.027244892
110	0x3e4a3dac	0.19750088
111	0x3d981242	0.074253574
112	0xbbec9c0f	-0.007220752
113	0xbdc6d299	-0.09708137
114	0x3e84ed6a	0.25962383
115	0x3ed8111d	0.42200556
116	0x3eae8b51	0.34090665
117	0xbdda3bf9	-0.1065597
118	0x3e06cf7e	0.1316509
119	0x3ca6ef73	0.02037785
120	0x3ed23525	0.4105617
121	0xbd894740	-0.06703043
122	0x3ea5f04d	0.32409897
123	0x3ef5e37a	0.48025113
124	0xbe0994f1	-0.13435723
125	0xbe9979ea	-0.29975826
126	0x3ed6002b	0.41797003
127	0x3e9a73a5	0.30166355
128	0x3da61243	0.08108952
129	0x3e3b1598	0.18269956
130	0x3d3d1000	0.046157837
131	0x3e47838f	0.1948378
132	0xbd985e06	-0.074398085
133	0x3e0c1c0b	0.13682573
134	0x3e9812f3	0.29701957
135	0xbd9cfc15	-0.07665268
136	0x3e719fe0	0.23596144
137	0xbe875984	-0.26435483
138	0xbee7036d	-0.451198
139	0xbd6e8c38	-0.05823919
140	0x3e8c7a4a	0.2743705
141	0xbe8e1aff	-0.2775497
142	0x3b739cf4	0.0037172409
143	0x3f18b78a	0.5965506
144	0xbf07b74c	-0.53014064
145	0x3ef2892f	0.47370288
146	0x3e871584	0.26383603
147	0x3e717bf7	0.23582445
148	0xbd24e738	-0.04025957
149	0x3eab8370	0.33498716
150	0xbbf9d98b	-0.00762481
151	0xbdf66063	-0.12030103
152	0x3e88c32d	0.26711407
153	0x3e515d55	0.2044576
154	0x3e68b42e	0.22724983
155	0xbdceeb6a	-0.101034954
156	0x3c60e7e1	0.013727159
157	0xbdf0bf1d	-0.11755202
158	0xbebb3f97	-0.36571953
159	0xbccaa4b4	-0.02473674
160	0xbdde6f56	-0.108610794
161	0xbe0c2d2d	-0.13689108
162	0xbe4103e3	-0.18849139
163	0x3db2f172	0.08737458
164	0x3e3ce5d1	0.18447043
165	0x3d3076b3	0.04308195
166	0xbe57fac1	-0.21091749
167	0x3e0b90c1	0.13629438
168	0x3cd3dfab	0.02586349
169	0x3e386304	0.18006521
170	0xbd9b84c0	-0.075936794
171	0x3c46f44c	0.012143206
172	0xbd913422	-0.07090022
173	0xbdf9c334	-0.12195435
174	0xbdf43f16	-0.11926095
175	0xbe29d105	-0.16583641
176	0xbe5644d4	-0.20924693
177	0xbe3e08ed	-0.18558092
178	0xbe06b270	-0.13154006
179	0xbe4a451c	-0.19752926
180	0xbee3613a	-0.44410115
181	0xbe09f932	-0.13473967
182	0xbdb45e4a	-0.08807047
183	0xbecb1b5a	-0.39669305
184	0xbf0ef6b2	-0.5584518
185	0x3e6ad996	0.22934565
186	0xbed468ea	-0.41486293
187	0x3e6f1569	0.23348011
188	0xbf11310e	-0.56715477
189	0x3dd460a3	0.103699945
190	0x3e529d20	0.20567751
191	0xbe17beb1	-0.14818837
192	0x3ebcfcbe	0.36911577
193	0xbe4ac175	-0.1980036
194	0xbe811851	-0.25213864
195	0xbe12f0ac	-0.14349622
196	0x3cfe9a67	0.031079484
197	0x3eecb1ca	0.46229392
198	0x3c84c7e3	0.016208595
199	0x3f1ac88e	0.6046227
200	0xbe457e9a	-0.19286576
201	0xbe8f9684	-0.28044522
202	0xbe1b957a	-0.1519374
203	0xbf143bf2	-0.5790397
204	0xbf36ef8f	-0.7145929
205	0x3e9c8176	0.3056752
206	0xbeed90bc	-0.46399486
207	0x3e1aaa28	0.15103972
208	0xbe81bb9c	-0.25338447
209	0xbe4d1c8d	-0.20030423
210	0x3ed9b378	0.42519736
211	0x3dc46af4	0.09590712
212	0x3e01e165	0.12683637
213	0xbd95b858	-0.073105514
214	0xbeb8be8e	-0.36082882
215	0xbe5e4d86	-0.2170926
216	0x3dc0deac	0.09417471
217	0x3f1b1444	0.605778
218	0x3eea8809	0.45806912
219	0x3efd7f89	0.49511364
220	0x3d958f45	0.07302717
221	0xbc9c6152	-0.019089375
222	0xbc4aeda8	-0.012385763
223	0xbcbd9fe1	-0.023147525
224	0x3de2458f	0.110484235
225	0x3e1c29de	0.15250346
226	0xbe08ced7	-0.13360153
227	0x3d860909	0.06544692
228	0xbe6cc726	-0.23122844
229	0xbe4e0b86	-0.20121583
230	0xbe22431e	-0.15845916
231	0x3e60c598	0.21950376
232	0x3e078498	0.13234174
233	0xbe63ed97	-0.22258602
234	0x3d6a1ba3	0.057155263
235	0x3dce847a	0.10083862
236	0xbdc5569e	-0.096356615
237	0x3dcf76e2	0.10130097
238	0x3d88e723	0.06684711
239	0xbe1c48d7	-0.15262161
240	0x3dc1cbfd	0.09462736
241	0x3ebb1199	0.36536863
242	0xbe966812	-0.29376274
243	0xbf2ea589	-0.68221337
244	0x3eeaf6cf	0.45891425
245	0xbea050af	-0.31311557
246	0xbddfdb6c	-0.10930523
247	0xbe94bcd2	-0.29050308
248	0xbde3a060	-0.111145735
249	0xbeb285a2	-0.3486758
250	0x3e3deff1	0.18548562
251	0x3d929657	0.07157581
252	0x3e06614f	0.13123058
253	0xbdedfa98	-0.116200626
254	0x3e1d84fa	0.15382758
255	0x3e65d0cb	0.2244293

fc3.bias f4 [20]
0	0x3ef09146	0.46985835
1	0x3ec1474f	0.37749717
2	0x3c2fc9bc	0.01072925
3	0x3ef6e199	0.48218992
4	0x3eec5ec0	0.4616604
5	0x3e21b59c	0.15791935
6	0xbde0dd7e	-0.10979746
7	0x3de1d888	0.11027628
8	0x3dd7fdc8	0.10546452
9	0x3d4a9791	0.04946095
10	0x3e861986	0.26191348
11	0xbdba4b1d	-0.09096358
12	0x3e210c8d	0.15727444
13	0x3dee9e19	0.116512485
14	0x3de2a936	0.11067431
15	0x3ed9fcd0	0.42575693
16	0xbe33be18	-0.17552984
17	0x3eab1779	0.33416346
18	0xbe0facad	-0.14030714
19	0xbe90d96c	-0.2829088

fc4.weight f4 [20, 20]
0	0x3d80ffb3	0.06298771
1	0x3e885f31	0.26635125
2	0xbe98087d	-0.29693976
3	0x3b0f04dc	0.0021822965
4	0xbdbedc8b	-0.09319409
5	0xbcb34256	-0.021882217
6	0x3ec33b6c	0.38131273
7	0x3de07721	0.10960222
8	0x3e06211d	0.13098569
9	0xbed144a5	-0.40872684
10	0xbf34b7ad	-0.70592767
11	0xbe1199e0	-0.14218855
12	0xbec84e82	-0.39122397
13	0x3ea8364c	0.32853925
14	0x3e52969d	0.20565267
15	0x3e16c075	0.14721854
16	0xbec4a69d	-0.38408366
17	0xbc59cee0	-0.013293952
18	0x3d37a261	0.04483259
19	0xbe74189f	-0.23837517
20	0x3e83fec5	0.2578031
21	0x3e2fc0a9	0.17163338
22	0xbedc8e73	-0.4307743
23	0x3e83f49d	0.25772563
24	0x3ef7c5aa	0.48392993
25	0xbc95e723	-0.018298691
26	0x3e9679b1	0.29389718
27	0x3ddb54d9	0.10709543
28	0xbdd2a63c	-0.10285613
29	0x3c84fdbf	0.016234277
30	0x3f172390	0.5903864
31	0x3e75a67e	0.23989293
32	0xbdb87998	-0.09007567
33	0x3ba61db4	0.005069459
34	0xbe8e5f7b	-0.2780722
35	0xbe094ae9	-0.13407482
36	0x3edf8b16	0.43660802
37	0x3ed52ca5	0.41635624
38	0xbcdda526	-0.027056288
39	0xbf07f4ad	-0.5310772
40	0xbe3cb600	-0.18428802
41	0xbe165f27	-0.14684735
42	0xbf210656	-0.6290029
43	0x3da48b07	0.0803433
44	0xbe2d58a4	-0.16928345
45	0x3e656844	0.22403055
46	0x3e911814	0.28338683
47	0x3d1adc1a	0.03780756
48	0x3dda79b8	0.10667747
49	0xbebff4da	-0.37491494
50	0xbe0e1358	-0.13874567
51	0x3e3ae7dd	0.18252511
52	0xbe4dfa4e	-0.20115015
53	0x3e456aad	0.19278975
54	0x3ee63140	0.4495945
55	0x3d4d64aa	0.05014483
56	0xbe0333bc	-0.12812704
57	0x3e5e1c68	0.21690524
58	0x3eb2dffc	0.34936512
59	0xbe371b98	-0.1788162
60	0x3e23c84e	0.15994379
61	0xbe5bb894	-0.2145713
62	0xbe2df524	-0.16988045
63	0xbe25bce9	-0.16185345
64	0x3daba934	0.08381882
65	0xbd8c9c69	-0.0686577
66	0xbe0e8d51	-0.13921095
67	0xbe5c514a	-0.21515384
68	0x3e72b2a7	0.23700963
69	0xbd309f19	-0.043120477
70	0x3e180309	0.14844908
71	0xbd739c1e	-0.059475057
72	0xbc3c734c	-0.011502098
73	0xbdb1f3dd	-0.08689091
74	0x3e1e49e5	0.15457876
75	0x3dde2500	0.10846901
76	0x3db62460	0.08893657
77	0x3dff13b8	0.12454933
78	0xbdbde77f	-0.0927267
79	0xbe635295	-0.22199471
80	0xbdc0244c	-0.09381923
81	0x3ea19db3	0.31565627
82	0x3e7f54f4	0.24934751
83	0x3e557905	0.20846947
84	0x3e6c73b8	0.23091018
85	0xbe0aa58b	-0.13539712
86	0x3dbeaa82	0.093098655
87	0x3d22fb6a	0.03979055
88	0x3dacbb08	0.08434111
89	0xbf320628	-0.69540644
90	0xbf4cdf6d	-0.8002842
91	0x3e4c22fb	0.19935219
92	0xbed24d0b	-0.41074404
93	0x3e80482d	0.25055066
94	0x3e8dab72	0.27669865
95	0x3df1bcc7	0.118035845
96	0xbe8d8a18	-0.2764442
97	0x3e0f7dde	0.14012858
98	0x3e5d7c2f	0.21629404
99	0x3ebe8cb8	0.37216735
100	0x3d0f01cc	0.034913823
101	0x3e4eedf1	0.20207955
102	0xbec4fb34	-0.38472903
103	0x3e3a99bf	0.18222712
104	0xbe777dde	-0.24169108
105	0x3e73ff23	0.23827796
106	0x3f0411e3	0.5158979
107	0xbd3a3d66	-0.04546871
108	0xbddab48f	-0.1067897
109	0x3eda9253	0.42689762
110	0x3f0cec86	0.55048406
111	0xbe32a553	-0.17445879
112	0x3e488f7c	0.19585985
113	0x3dd90fed	0.10598741
114	0x3cf2c961	0.02963704
115	0xbdbf3d9e	-0.093379244
116	0x3e937cca	0.28806144
117	0x3e41cb98	0.18925321
118	0x3ed4cafb	0.41561112
119	0x3e7113cf	0.23542713
120	0x3e1c4f1a	0.1526455
121	0x3e2be9cc	0.16788405
122	0xbe1b9aa0	-0.15195704
123	0x3da3a8ed	0.079912044
124	0x3cbc3ed7	0.022979183
125	0xbe5fb0b6	-0.21844754
126	0xbbd18821	-0.0063944017
127	0x3e4252c3	0.18976884
128	0x3e469a75	0.19394858
129	0xbe339ed9	-0.17541064
130	0x3cc878fb	0.02447175
131	0x3e13d4bc	0.1443662
132	0xbe73eeb8	-0.23821533
133	0xbe096083	-0.13415723
134	0xbdc2f1e4	-0.09518793
135	0xbe6222e5	-0.22083624
136	0xbd95e0e9	-0.07318289
137	0xbe06cfee	-0.13165256
138	0xbc964a65	-0.018346021
139	0x3e078f17	0.13238178
140	0x3ecf4339	0.40480974
141	0x3e9011b8	0.28138518
142	0x3e77bc1f	0.24192856
143	0x3de7bdda	0.11315508
144	0x3e97cd74	0.29648936
145	0x3e2795d5	0.1636575
146	0xbeb86d2f	-0.360208
147	0xbdc0a2e6	-0.094060704
148	0xbe1d933d	-0.15388198
149	0x3d2e5923	0.042565476
150	0x3f19dfee	0.60107315
151	0x3de5d004	0.112213165
152	0x3ed7a61c	0.4211892
153	0x3e1f8a4a	0.15580097
154	0xbf00ce35	-0.50314647
155	0x3ea04777	0.31304523
156	0x3ec20265	0.37892452
157	0xbd38abec	-0.045085832
158	0xbe8dc052	-0.2768579
159	0xbdeb824f	-0.11499464
160	0x3d9bddda	0.07610674
161	0xbd4dff21	-0.050292138
162	0xbe3e4dea	-0.1858441
163	0x3dced73b	0.10099646
164	0xbd0a65ef	-0.033788618
165	0xbe2b9ef0	-0.16759849
166	0x3dbfdd17	0.093683414
167	0xbbb9e2a3	-0.005672769
168	0xbd75cfdd	-0.060012687
169	0x3d6208a0	0.055184007
170	0xbdb79c6e	-0.089653835
171	0xb9a3f63d	-0.00031273245
172	0xbdc8cac6	-0.09804301
173	0xbdfe329e	-0.12411998
174	0xbdceeecc	-0.10104141
175	0xbe313f52	-0.17309311
176	0x3e068c8a	0.13139549
177	0xbe4bfa78	-0.19919765
178	0x3dcf1b4e	0.1011263
179	0xbd22b1b3	-0.03972025
180	0x3e498510	0.19679666
181	0xbce9c339	-0.028535472
182	0xbea3c27e	-0.31984323
183	0x3da913ab	0.082557045
184	0x3ead68a3	0.33868894
185	0x3d952e78	0.07284254
186	0x3ebaaf0c	0.36461675
187	0x3ea6e5d2	0.32597214
188	0xbe05e512	-0.13075665
189	0xbf1cadab	-0.61202496
190	0xbebab574	-0.36466563
191	0xbe0d934d	-0.13825722
192	0xbe9a2d90	-0.30112886
193	0xbc63c177	-0.013901106
194	0x3e718f65	0.23589857
195	0x3dba6492	0.091012135
196	0xbd9aa869	-0.07551653
197	0x3e196a0f	0.14981864
198	0x3e026c7b	0.12736695
199	0xbee545e8	-0.44779897
200	0xbe1da3eb	-0.15394561
201	0x3cfcf88d	0.030880237
202	0xbeea9909	-0.45819882
203	0x3c3f3d5d	0.011672345
204	0xbd564589	-0.052312408
205	0x3e5fccfc	0.21855539
206	0x3eef86f2	0.46782643
207	0x3bab62e2	0.0052302936
208	0x3e275110	0.16339517
209	0xbf078a79	-0.5294567
210	0xbe964fd8	-0.2935779
211	0xbe1c0b52	-0.15238693
212	0xbc8eaf21	-0.017417492
213	0x3e439c99	0.19102706
214	0x3eabe518	0.33573222
215	0xbd6c0e07	-0.057630565
216	0xbd41de35	-0.047331054
217	0x3ea3181b	0.3185433
218	0x3ee26c46	0.4422323
219	0xbe10ec17	-0.14152561
220	0xbe02805a	-0.12744275
221	0x3efcacea	0.49350673
222	0x3eca62e7	0.39528582
223	0x3cfdf5f6	0.031001072
224	0xbe679eb3	-0.22619133
225	0x3e843a9a	0.2582596
226	0x3df378bd	0.118882634
227	0x3c6ac530	0.01432924
228	0x3e3533cb	0.17695539
229	0xbebdf06a	-0.37097484
230	0xbefc5bda	-0.49288827
231	0x3d5bf684	0.053701892
232	0x3ea7617d	0.32691565
233	0xbda3ef42	-0.08004619
234	0x3e2ed2e2	0.17072633
235	0x3e9503c2	0.2910443
236	0xbebb72fd	-0.36611167
237	0xba77d817	-0.0009454502
238	0x3e6b058a	0.22951332
239	0x3e939398	0.28823543
240	0x3de475ef	0.111553065
241	0x3e57a109	0.21057524
242	0xbebf4d38	-0.373636
243	0x3c4f952e	0.012669845
244	0x3e4d167a	0.20028105
245	0xbe43f2ae	-0.19135544
246	0x3ea38aec	0.31941926
247	0x3efbb199	0.49158934
248	0x3d400afa	0.046885468
249	0x3e99f54a	0.30069953
250	0x3e7277e9	0.23678555
251	0x3d82b437	0.063820295
252	0xbf000dfe	-0.5002135
253	0x3eda0581	0.42582324
254	0x3da9c89b	0.082902156
255	0x3e656772	0.22402743

fc4.bias f4 [20]
0	0x3dc44b38	0.09584659
1	0x3e9b51b5	0.30335775
2	0x3d688f23	0.05677713
3	0xbe0451ef	-0.1292188
4	0x3e4aa4ba	0.197894
5	0xbcb6a1b9	-0.022293912
6	0x3d803ddd	0.062617995
7	0x3ea99a20	0.331254
8	0x3df4615b	0.119326316
9	0x3e4a9174	0.19782048
10	0x3e19000d	0.14941426
11	0xbe46b40f	-0.19404624
12	0xbe8c8706	-0.27446765
13	0xbe31b4c5	-0.17354114
14	0x3ebd973f	0.37029454
15	0xbe45c3aa	-0.19312921
16	0x3e1da3c9	0.1539451
17	0x3df00d6d	0.11721311
18	0x3d9dc653	0.07703843
19	0xbddc0d79	-0.10744757

fc5.weight f4 [20, 20]
0	0xbeb201eb	-0.34767088
1	0x3d98a259	0.0745284
2	0x3e827740	0.25481606
3	0x3e06cbb1	0.1316364
4	0xbe22f794	-0.15914756
5	0x3de33241	0.110935695
6	0xbe28ac9a	-0.16472092
7	0x3dcf008d	0.10107527
8	0x3e551e2e	0.20812294
9	0xbdb5d72b	-0.08878931
10	0x3e84fe88	0.25975442
11	0x3e1d5b0f	0.15366767
12	0x3cd940a1	0.026520075
13	0xbebbda62	-0.3669005
14	0x3d909a73	0.07060709
15	0xbce327cc	-0.027728938
16	0xbf048a2a	-0.5177332
17	0x3e593a06	0.2121354
18	0xbe549610	-0.2076037
19	0xbed307ba	-0.41216832
20	0x3e810199	0.2519653
21	0xbe46ed43	-0.19426446
22	0x3ebe0f26	0.37120932
23	0x3e1fbcdb	0.15599386
24	0x3de2764c	0.110577196
25	0x3e841cd0	0.25803232
26	0x3e4f1ad5	0.2022508
27	0xbeabc614	-0.3354956
28	0xbe244673	-0.16042499
29	0xbd02d3d4	-0.031940296
30	0x3ec719db	0.38886914
31	0xbdbe03d2	-0.092780724
32	0xbd0ede97	-0.034880247
33	0xbed67a66	-0.41890258
34	0xbe18d649	-0.14925493
35	0xbe5a757c	-0.21333879
36	0xbef1cf22	-0.47228342
37	0x3da8962a	0.082317665
38	0xbe59b038	-0.21258628
39	0xbed3a2d9	-0.4133518
40	0x3db7bdee	0.08971773
41	0x3d0418e5	0.032250304
42	0x3e287780	0.16451836
43	0xbe011149	-0.1260425
44	0x3e73213f	0.23743151
45	0x3d7e4344	0.06207587
46	0x3e5c731c	0.21528286
47	0xbdecbf11	-0.115598805
48	0x3e2aadd9	0.1666788
49	0x3e831323	0.25600538
50	0x3e576c07	0.21037303
51	0x3d5b3312	0.0535155
52	0x3db712a2	0.08939101
53	0xbe9abbbf	-0.30221364
54	0x3e9e94a9	0.30972794
55	0xbd421f5e	-0.047393195
56	0x3e9723fc	0.2951964
57	0xbe0c19c0	-0.13681698
58	0xbefd9944	-0.49530995
59	0xbe72a56e	-0.23695919
60	0xbe8da1fb	-0.27662644
61	0xbeb3c679	-0.3511236
62	0xbca46228	-0.020066336
63	0xbe507748	-0.20358002
64	0x3db9a109	0.09063918
65	0x3e04e4cd	0.12977906
66	0x3bba581d	0.0056867735
67	0x3d482b4c	0.048869416
68	0xbcd4bf3b	-0.025970092
69	0xbeb9cdd6	-0.36289853
70	0x3e15a186	0.14612398
71	0x3ed37c80	0.41305923
72	0xbea10ed9	-0.3145664
73	0x3f095491	0.53644663
74	0x3e1b3586	0.15157136
75	0xbcd39f47	-0.025832785
76	0x3e03fa4a	0.12888446
77	0xbe371e51	-0.17882659
78	0x3eda1dee	0.4260096
79	0x3f071c68	0.5277772
80	0xbeabb300	-0.33535004
81	0xbea8b340	-0.32949257
82	0xbe195f37	-0.14977728
83	0xbe2363d6	-0.15956053
84	0xbe8ac778	-0.27105308
85	0xbe0b1a88	-0.1358434
86	0xbdf28728	-0.11842185
87	0x3e98b578	0.2982595
88	0x3c1820f0	0.009285197
89	0xbe6c0f5d	-0.23052736
90	0x3df48563	0.11939504
91	0x3ea76c77	0.3269994
92	0xbed44708	-0.41460443
93	0x3e46658d	0.19374676
94	0x3db64b9e	0.089011416
95	0xbda78550	-0.08179724
96	0xbccaad64	-0.024740882
97	0xbdc4f05d	-0.09616158
98	0x3ebd0002	0.36914068
99	0x3e2c86c2	0.16848281
100	0x3ebabf13	0.36473903
101	0xbe35e45b	-0.17762892
102	0xbdb4dfa5	-0.08831719
103	0x3e4ef14c	0.20209235
104	0x3ef132ed	0.47109166
105	0x3dceb6c4	0.100934535
106	0x3e557862	0.20846704
107	0x3d37ba11	0.04485518
108	0x3e52654f	0.20546459
109	0x3d449cf0	0.04800123
110	0x3e745e11	0.23864008
111	0x3eb3ea80	0.35139847
112	0x3e26ad59	0.16277064
113	0x3eec425c	0.46144378
114	0x3ea81d54	0.32834876
115	0x3bf0d4bb	0.007349578
116	0x3eff77b2	0.49896008
117	0x3d870588	0.06592852
118	0xbf0c402a	-0.54785407
119	0x3e946dae	0.2898993
120	0x3e658324	0.22413307
121	0xbc0f2952	-0.008737879
122	0x3ebca8d0	0.36847544
123	0xbc9c1689	-0.019053714
124	0xbdb93321	-0.09042955
125	0x3d87932a	0.06619866
126	0xbe30245d	-0.17201371
127	0xbe71eb3f	-0.23624896
128	0xbd8c24f5	-0.068429865
129	0xbd4fcee4	-0.050734416
130	0xbd9fc160	-0.07800555
131	0x3e3c82f6	0.18409333
132	0x3df9d942	0.12199642
133	0xbdd01c36	-0.10161631
134	0xbde96967	-0.11397057
135	0xbd07c83c	-0.033149943
136	0xbe8ff57f	-0.28116986
137	0x3df5aa00	0.119953156
138	0xbeca2b33	-0.39486083
139	0xbe548211	-0.20752741
140	0xbe046242	-0.12928107
141	0x3e9249b1	0.28571847
142	0xbd71c7b6	-0.05902835
143	0xbd48579e	-0.048911683
144	0xbd85af38	-0.06527561
145	0x3ea26032	0.31714016
146	0x3e0e547b	0.13899414
147	0x3e84651d	0.25858393
148	0xbcca1166	-0.0246665
149	0x3e6c61dc	0.23084205
150	0xbd7e8764	-0.062140837
151	0xbe78afac	-0.24285764
152	0x3da69aaf	0.08134972
153	0xbe42c5d0	-0.19020772
154	0x3edb0d3e	0.4278354
155	0xbdb7b332	-0.08969726
156	0x3c8a9e4d	0.016921187
157	0x3dafa95d	0.08577225
158	0xbe3ce7d0	-0.18447804
159	0xbe91592e	-0.2838835
160	0x3c2b5853	0.01045807
161	0xbea9a60e	-0.33134502
162	0x3ddbe8df	0.10737776
163	0x3e32f6ce	0.17476961
164	0x3dca05cd	0.09864388
165	0x3e7f0c3d	0.24907012
166	0x3d464bff	0.04841232
167	0xbec18917	-0.37799904
168	0xbe2a6706	-0.16640863
169	0x3d27bcc7	0.040951516
170	0x3e05afb2	0.13055304
171	0x3e2e7f2c	0.170407
172	0x3de4afd1	0.11166347
173	0x3d28e035	0.041229445
174	0xbe666603	-0.22499852
175	0x3cf0806d	0.029358113
176	0xbe9e7eeb	-0.30956206
177	0x3d6e6d55	0.058209736
178	0x3be17fd3	0.006881693
179	0x3eb7fbc4	0.3593427
180	0xbdad24b7	-0.084542684
181	0xbd882070	-0.06646812
182	0x3e9a9d10	0.30197954
183	0xbe07d08f	-0.13263153
184	0xbe2b1230	-0.16706157
185	0x3eae9cfe	0.3410415
186	0x3da91daf	0.08257615
187	0xbebc7c32	-0.36813504
188	0x3d55caec	0.052195475
189	0xbcd77821	-0.0263024
190	0x3ebfbf66	0.37450713
191	0x3e6ad750	0.22933698
192	0xbd6a6dfa	-0.057233788
193	0xbf3c5d6f	-0.7358007
194	0xbd6cf403	-0.057849895
195	0x3d2f54bb	0.042805415
196	0xbf16fa0f	-0.5897531
197	0x3e26b921	0.16281559
198	0x3c719c10	0.014746681
199	0xbef6fd1b	-0.4823998
200	0x3ed31cd1	0.41232923
201	0xbee5676a	-0.4480546
202	0x3e052558	0.13002527
203	0x3e0d868d	0.13820858
204	0x3ea33d9d	0.31882945
205	0x3e4e1697	0.20125805
206	0xbda3873b	-0.079847775
207	0xbe4681a1	-0.19385387
208	0xbd944aa6	-0.072408006
209	0x3e9d32d3	0.30702838
210	0x3e8cdf5d	0.27514163
211	0x3e6daa81	0.23209573
212	0x3e7a3a23	0.2443624
213	0x3ecf338e	0.4046902
214	0x3e8533e1	0.26016143
215	0xbd8316b6	-0.06400816
216	0x3ec2f046	0.3807394
217	0xbd98be7a	-0.074582055
218	0xbe898e23	-0.26866254
219	0x3edae0fa	0.42749768
220	0x3e77106d	0.2412736
221	0x3de7b47c	0.113137215
222	0x3ead8c8a	0.33896285
223	0xbca1361a	-0.019679118
224	0x3e2bcde0	0.16777754
225	0xbcd05063	-0.025428956
226	0x3d59a23b	0.05313323
227	0xbf183098	-0.5944915
228	0xbe0918e0	-0.13388395
229	0x3eb51301	0.3536606
230	0x3e97bfc1	0.29638484
231	0x3c2aab92	0.010416882
232	0x3e7677dd	0.24069162
233	0xbdf5ef06	-0.12008481
234	0xbe951270	-0.2911563
235	0x3ce8d843	0.028423434
236	0xbdab8305	-0.08374599
237	0xbdc26e5f	-0.09493708
238	0xbf2ee01e	-0.68310726
239	0xbeaf5483	-0.34244165
240	0x3e80c32d	0.25148907
241	0x3e793abe	0.24338815
242	0x3e469cdf	0.19395779
243	0xbdcea350	-0.10089743
244	0x3d32b511	0.04362971
245	0x3d396121	0.045258645
246	0xbdf7b117	-0.12094324
247	0x3eb011f5	0.343887
248	0xbc922ee2	-0.017844621
249	0x3ddc91c8	0.10769993
250	0x3e6d8f5e	0.23199221
251	0xbd9dfefd	-0.07714651
252	0xbe1b4459	-0.15162791
253	0xbea07229	-0.31337097
254	0x3d9b9f82	0.07598783
255	0xbdb69051	-0.08914245

fc5.bias f4 [20]
0	0xbe667a9c	-0.2250771
1	0xbefb2195	-0.4904906
2	0x3ec21052	0.37903076
3	0x3d99d5fc	0.075115174
4	0xbcdde586	-0.027086984
5	0x3cfea92b	0.031086525
6	0xbeb10295	-0.34572282
7	0x3e6ab5d5	0.22920926
8	0xbea7dd8f	-0.32786223
9	0xbeaf6a9e	-0.3426103
10	0xbe08c42c	-0.13356084
11	0xbf0fff61	-0.5624905
12	0x3e870105	0.26367965
13	0x3d90c5af	0.07068955
14	0xbdca3c79	-0.098748155
15	0x3e53757f	0.2065029
16	0x3de6d41a	0.11270924
17	0xbce4f0a5	-0.02794678
18	0xbc60c4f5	-0.013718833
19	0x3e153720	0.1457181

fc6.weight f4 [3, 20]
0	0x3ebe11a5	0.37122837
1	0x3f2774f9	0.6541286
2	0xbe8292b5	-0.25502554
3	0xbf11d396	-0.5696348
4	0xbf19048b	-0.5977256
5	0xbef1ff14	-0.47264922
6	0x3ed9c117	0.42530128
7	0x3dfe2edc	0.124112815
8	0x3e0b1bfb	0.13584892
9	0x3f199ac5	0.60001785
10	0xbf0a0b33	-0.5392334
11	0x3e929700	0.2863083
12	0x3dafe26c	0.085881084
13	0x3f0ffca5	0.5624488
14	0x3ee01e73	0.4377323
15	0x3da2b715	0.079450764
16	0x3ea26523	0.31717786
17	0xbecae527	-0.39627954
18	0x3dbcb7a4	0.09214714
19	0xbe81926b	-0.2530702
20	0xbe06fc5d	-0.13182206
21	0xbf0a1859	-0.539434
22	0x3e68f25b	0.22748701
23	0xbe94e22c	-0.29078805
24	0xbf0b72d2	-0.54472077
25	0x3d7b0fd5	0.061294395
26	0xbee31015	-0.44348207
27	0x3e83446e	0.25638145
28	0xbef3ce55	-0.47618356
29	0xbee297f9	-0.4425657
30	0xbdbe314f	-0.092867486
31	0xbf1c0c53	-0.60956305
32	0x3eb0b65a	0.34514123
33	0xbec8f398	-0.39248347
34	0xbeae60c4	-0.340582
35	0x3e7aeaa3	0.2450357
36	0x3e1e414a	0.15454593
37	0x3ebfde8e	0.37474483
38	0xbe9bff2b	-0.30468115
39	0x3ea5b0bf	0.3236141
40	0xbefeb999	-0.49750975
41	0x3c62c68c	0.013841283
42	0xbdcc2396	-0.09967725
43	0x3ea6b621	0.32560828
44	0x3f08c6a6	0.53428113
45	0x3d2d527c	0.04231499
46	0x3e9fa3de	0.31179708
47	0xbea59405	-0.32339492
48	0x3e8cc7dc	0.2749623
49	0xbece9d58	-0.4035442
50	0x3eb1c3c7	0.3471968
51	0x3f2ada89	0.6673971
52	0xbd80d154	-0.06289926
53	0x3eb22e73	0.34801063
54	0xbeb21008	-0.34777856
55	0xbea6febf	-0.3261623
56	0xbf03480b	-0.51281804
57	0xbe096f36	-0.1342133
58	0x3e53b645	0.20674999
59	0xbe595a48	-0.21225846

fc6.bias f4 [3]
0	0xbe0ac1ff	-0.13550566
1	0x3ec7fd06	0.3906023
2	0x3ce5f5d8	0.028071329
