models_3val/xor_and_3.pth (torch, 12178 bytes, 12 tensors)

fc1.weight f4 [20, 12]
0.02001882 0.38520113 0.4534597 0.058192458 0.22174838 0.02220245 -0.08747171 0.25279903
-0.102641255 -0.0480748 -0.12503503 0.31129983 -0.009950211 0.50975907 -0.43982354 0.23377295
-0.04669427 0.14461207 0.07821374 0.026897717 0.3717091 0.17003153 0.11060238 0.18853642
0.60105956 -0.09838363 0.35493135 0.06352891 0.105992205 0.24748896 0.111711755 0.03817665
-0.048462547 0.0932736 0.33617213 -0.08237348 0.4646966 0.49532703 0.1590882 0.1742309
-0.007364744 -0.011632579 -0.01630942 0.08742257 0.15627468 0.016650097 -0.09045658 -0.022876646
-0.20069088 -0.086858004 0.35156298 0.117220305 -0.1316874 0.34552494 0.34498006 0.059591386
0.21288015 0.2968358 0.045056462 -0.0671413 0.1520323 0.24133793 0.41896382 0.18118975
-0.058357034 -0.091942966 0.12350107 -0.06543794 0.26815975 -0.051108394 0.3544717 -0.031017844
0.49831262 -0.25893077 -0.22289884 0.14320257 0.17016776 0.33511877 0.16681828 0.27838635
0.10475397 0.3361743 0.0030864263 0.2261282 0.30749068 0.29572192 -0.19912109 0.0018179782
0.049391877 0.096554615 0.015645897 -0.009220971 0.02939055 0.0042909817 0.010935457 0.01357249
-0.4457541 -0.14580807 -0.022032985 0.12875432 0.13029301 -0.10173484 -0.11900147 0.12651055
0.14675827 0.099726185 0.3304691 0.19118258 0.31245232 0.085170805 -0.23114857 -0.11151879
0.24056578 0.15101023 0.059253696 -0.17746575 0.038540434 0.09257543 0.2809253 0.100029595
-0.011346431 0.03150863 0.6095203 0.016050944 0.13630179 0.18175387 0.15307441 0.062900096
0.21922599 0.20517771 0.05497256 0.13491036 0.60952073 0.1819491 -0.28254554 0.1458854
-0.025205828 0.06978347 0.23778754 0.17860304 0.12249775 0.13365936 -0.042837597 0.07119567
-0.20672125 0.603203 -0.35938054 -0.022137571 0.1803168 0.09840952 0.06898293 -0.043729417
-0.07202783 0.0249576 0.12912336 -0.024484796 0.045380693 0.3962674 0.16639657 -0.023727631
-0.0021334854 -0.0818926 -0.048522513 -0.020161066 -0.08481584 0.10135667 0.099291675 0.09272796
-0.05568819 0.6977238 -0.022472402 -0.057427473 -0.1140354 -0.0070997286 0.17970635 0.1729931
0.1306393 0.10514473 0.018363275 -0.06752668 -0.022856163 0.5184497 -0.3303643 0.1058716
0.052237 0.10119613 0.07819807 0.15873054 -0.030759133 -0.011116843 0.032812297 0.035240594
-0.6169861 0.30180228 0.48691314 0.12084383 0.16940817 0.3873758 0.18853238 0.008264085
0.0072424 0.16474338 0.12308003 0.089660436 0.5248367 0.51462114 -0.03997281 -0.024780413
0.20607024 0.30640122 0.028837934 -0.13852832 -0.056381088 0.103526846 0.2870715 0.058543786
-0.10267625 0.45657817 0.042579874 0.089354955 0.21479627 -0.057748914 -0.16744266 0.04171514
0.033889994 -0.16119099 0.13005517 -0.066719696 -0.39596143 -0.45157126 -0.04492903 0.053205654
0.11086204 0.095239826 0.061141074 0.031554177 -0.04063234 -0.050587643 0.060698144 -0.0055943993
00000000: 82fe a33c 1539 c53e df2b e83e 375b 6e3d
00000010: 0212 633e eae1 b53c 5e24 b3bd e06e 813e
00000020: 9435 d2bd 15ea 44bd 2f09 00be b162 9f3e
00000030: 3606 23bc 927f 023f 8d30 e1be 2d62 6f3e
00000040: 7e42 3fbd 3015 143e 862e a03d 9a58 dc3c
00000050: a850 be3e bf1c 2e3e 8083 e23d b10f 413e
00000060: 0adf 193f 5b7d c9bd 90b9 b53e 721b 823d
00000070: 7112 d93d bf6d 7d3e 22c9 e43d 1e5f 1c3d
00000080: aa80 46bd 3b06 bf3d c11e ac3e 6db3 a8bd
00000090: b6ec ed3e 819b fd3e 04e8 223e 9669 323e
000000a0: f353 f1bb 9396 3ebc 559b 85bc 9b0a b33d
000000b0: 7806 203e c965 883c 4d41 b9bd ce67 bbbc
000000c0: e981 4dbe 9ce2 b1bd 1000 b43e 3311 f03d
000000d0: 10d9 06be a5e8 b03e 3aa1 b03e 1916 743d
000000e0: 41fd 593e ddfa 973e 208d 383d 6181 89bd
000000f0: 5bae 1b3e 4a21 773e 6d82 d63e ce89 393e
00000100: c907 6fbd 984c bcbd 21ee fc3d 5404 86bd
00000110: 3c4c 893e 0957 51bd 517d b53e 2219 febc
00000120: d522 ff3e 9392 84be 983f 64be b2a3 123e
00000130: 7540 2e3e b094 ab3e 69d2 2a3e a888 8e3e
00000140: 4089 d63d 0a1f ac3e a445 4a3b 278e 673e
00000150: 6b6f 9d3e dd68 973e 66e6 4bbe 3a49 ee3a
00000160: 234f 4a3d 6dbe c53d d32b 803c 8e13 17bc
00000170: 73c4 f03c 5d9b 8c3b a22a 333c 265f 5e3c
00000180: e239 e4be b64e 15be 857e b4bc 2cd8 033e
00000190: 886b 053e 5b5a d0bd 0bb7 f3bd fb8b 013e
000001a0: cd47 163e 3e3d cc3d 3f33 a93e 5ec5 433e
000001b0: c0f9 9f3e 086e ae3d 36b2 6cbe f763 e4bd
000001c0: e056 763e 6da2 1a3e 01b4 723d 95b9 35be
000001d0: 93dc 1d3d 3098 bd3d 71d5 8f3e 51dc cc3d
000001e0: 62e6 39bc 310f 013d 8609 1c3f 457d 833c
000001f0: b292 0b3e b01d 3a3e 8abf 1c3e c4d1 803d
00000200: c77c 603e 1b1a 523e e82a 613d f125 0a3e
00000210: 8d09 1c3f dd50 3a3e cfa9 90be fb62 153e
00000220: 747c cebc a3ea 8e3d 947e 733e b7e3 363e
00000230: 1ae0 fa3d 00de 083e 7a76 2fbd 09cf 913d
00000240: bcae 53be 836b 1a3f ba00 b8be da59 b5bc
00000250: f8a4 383e ee8a c93d ec46 8d3d 9e1d 33bd
00000260: 5483 93bd e173 cc3c ea38 043e 5794 c8bc
00000270: 1be1 393d 90e3 ca3e dd63 2a3e 7360 c2bc
00000280: f2d1 0bbb 4fb7 a7bd 8bbf 46bd d228 a5bc
00000290: edb3 adbd 1694 cf3d 6f59 cb3d 28e8 bd3d
000002a0: 4d19 64bd 079e 323f 0b18 b8bc 1239 6bbd
000002b0: 648b e9bd d7a4 e8bb f104 383e 1a25 313e
000002c0: 4fc6 053e 1f56 d73d 946e 963c 6e4b 8abd
000002d0: d93c bbbc 1fb9 043f 8225 a9be 36d3 d83d
000002e0: 77f6 553d eb3f cf3d 4f26 a03d 428a 223e
000002f0: 94fa fbbc 6b23 36bc 3066 063d 7158 103d
00000300: cdf2 1dbf d485 9a3e ae4c f93e f87c f73d
00000310: 5679 2d3e 1f56 c63e a20e 413e 1666 073c
00000320: a851 ed3b 7db2 283e 6211 fc3d e49f b73d
00000330: b35b 063f 36be 033f 87ba 23bd 4b00 cbbc
00000340: 1404 533e 9fe0 9c3e 883d ec3c 5eda 0dbe
00000350: dbef 66bd e205 d43d 09fb 923e 9ccb 6f3d
00000360: ed47 d2bd 9dc4 e93e 3c68 2e3d bbff b63d
00000370: 8ef3 5b3e 208a 6cbd 1776 2bbe 7fdd 2a3d
00000380: 3cd0 0a3d 400f 25be 2f2d 053e 56a4 88bd
00000390: 75bb cabe 5934 e7be 8107 38bd 2cee 593d
000003a0: a30b e33d 190d c33d 106f 7a3d f43e 013d
000003b0: 196e 26bd fd34 4fbd 9e9e 783d 3951 b7bb

fc1.bias f4 [20]
0.1988196 -0.022018323 -0.36744496 -0.30432498 0.60416967 0.1745173 0.34788445 -0.2896723
0.21387927 0.36262146 -0.25907165 -0.15895738 0.33227316 -0.06988295 -0.033910878 0.3846744
-0.05586568 -0.03522076 0.37581864 0.37007594
00000000: 5d97 4b3e c55f b4bc bf21 bcbe 7cd0 9bbe
00000010: ddaa 1a3f aab4 323e e91d b23e ed4f 94be
00000020: 2b03 5b3e 85a9 b93e 0aa5 84be b9c5 22be
00000030: b51f aa3e cb1e 8fbd 22e6 0abd 0bf4 c43e
00000040: 69d3 64bd a543 10bd 4d6b c03e 987a bd3e

fc2.weight f4 [20, 20]
-0.098489925 -0.061671298 -0.14126916 0.008436096 0.012596214 0.10116062 0.3886364 -0.04971988
0.046685137 0.3593948 -0.41729906 0.00066852494 0.36218986 -0.20209928 -0.016398273 0.34067065
-0.42685768 -0.038630903 -0.052039877 0.1813092 0.15198256 0.18187048 0.070437714 0.1183581
0.06711301 0.03000376 0.22141582 -0.12607877 -0.09043815 0.42212924 -0.02333401 0.35100192
0.09519918 0.09420832 0.13432565 0.20253997 -0.12467951 0.30444655 0.03992867 0.32728034
-0.08816805 0.31436345 -0.30336106 -0.20354985 0.14618059 -0.12875584 0.18712033 0.2705735
-0.06825441 0.34245124 -0.56489474 0.36825034 0.21755011 -0.2518701 -0.10771237 0.35265774
-0.21065158 0.15640882 0.11172256 0.2568238 -0.12514572 0.05568715 -0.04381256 -0.10756375
0.1185144 -0.17530103 -0.15451148 0.10770616 0.0037291003 -0.08363519 -0.11666145 0.1716805
0.1008813 -0.11614053 -0.11808599 -0.21210699 -0.056552835 0.12653556 0.067354165 -0.04170708
-0.017588858 -0.17001869 0.08333595 -0.06042731 0.21423428 0.028351197 -0.10333406 -0.34157875
-0.050548133 -0.021871934 0.11644247 -0.13968867 -0.23066884 0.18491392 -0.2782429 0.08304089
0.06230474 -0.1591915 0.08763395 0.120139904 -0.015239818 -0.20775114 -0.16636963 -0.41858324
0.42700443 -0.0061002136 0.13882706 -0.16272995 0.4490471 0.103525914 0.019767674 -0.3071143
0.04302737 -0.27661124 -0.29295734 -3.5800604e-05 0.07551511 -0.41773823 0.060494307 0.6005184
0.17932147 -0.24455664 0.42291203 0.23151107 -0.15092662 0.21969582 -0.098358594 0.25031585
-0.22661321 -0.10945715 0.410521 0.09909243 -0.2571383 0.13519895 -0.15091763 -0.23623478
0.24932015 -0.1605696 -0.07299977 -0.017064758 0.013474747 -0.29233515 0.32015467 -0.034873
-0.054401614 0.20984192 0.38155556 -0.04000845 -0.10744584 0.12105359 0.0272077 0.36382443
-0.48291358 -0.355875 -0.44629523 -0.33370265 -0.4752447 0.1467329 -0.09127524 -0.009692147
-0.03972363 0.2644225 0.23103085 0.07336312 -0.12161239 0.100843735 -0.0588367 0.09986441
-0.113675006 -0.3295568 0.43929604 -0.03027444 -0.16311096 0.30624458 0.12869121 -0.25907943
0.21271004 0.3371074 0.008556392 -0.33075613 -0.069880635 0.39900905 0.0627959 0.03772449
-0.32278568 -0.044297144 0.14388953 0.22565436 -0.067486994 -0.011527653 -0.33369213 0.419126
0.1530225 0.08054874 0.2608426 0.080998376 -0.30391565 0.19902627 0.14074044 0.1612373
0.34627703 -0.10457209 0.053206503 0.38528728 0.19935086 0.029243711 0.017019613 0.0508207
0.08004919 0.01183898 0.32410395 0.17145519 -0.19420163 -0.03282206 0.061622422 -0.32269666
-0.05672808 0.04113795 0.04860342 0.23015453 -0.29225466 0.36445105 -0.06512022 -0.10887174
-0.17106439 -0.29666463 0.18905723 0.0012761083 -0.0007019811 0.022079283 -0.15147418 0.063944034
0.30884847 -0.092807144 0.15173799 0.36925095 -0.40777442 0.22419992 -0.057182793 0.13941215
-0.13519117 0.033982843 -0.04769409 0.2793714 -0.080520555 -0.16080327 -0.069542564 0.15450403
-0.07991022 0.27818632 -0.20023651 0.4400338 0.21563011 0.09417549 0.12288997 0.40226617
00000000: 16b5 c9bd 0b9b 7cbd dda8 10be 8d37 0a3c
00000010: 5a60 4e3c 4d2d cf3d 5afb c63e 13a7 4bbd
00000020: ea38 3f3d 9802 b83e 39a8 d5be f33f 2f3a
00000030: f370 b93e 1df3 4ebe ac55 86bc 626c ae3e
00000040: 178d dabe 703b 1ebd c427 55bd 1ea9 393e
00000050: 51a1 1b3e 413c 3a3e a641 903d bb65 f23d
00000060: 8c72 893d 72ca f53c d4ba 623e cb1a 01be
00000070: a337 b9bd 5321 d83e f726 bfbc 86b6 b33e
00000080: caf7 c23d 4bf0 c03d aa8c 093e a366 4f3e
00000090: f957 ffbd 6be0 9b3e 3f8c 233d 4a91 a73e
000000a0: 7391 b4bd 3ff4 a03e 2452 9bbe 5f6f 50be
000000b0: 5db0 153e 92d8 03be 799c 3f3e 9c88 8a3e
000000c0: f8c8 8bbd c555 af3e f19c 10bf 4f8b bc3e
000000d0: 75c5 5e3e 1ef5 80be 4e98 dcbd 8e8f b43e
000000e0: 0cb5 57be a229 203e ccce e43d 697e 833e
000000f0: 3326 00be 3618 643d cd74 33bd 624a dcbd
00000100: aeb7 f23d 1d82 33be 4238 1ebe 0c95 dc3d
00000110: ec63 743b ed48 abbd 33ec eebd 03cd 2f3e
00000120: db9a ce3d 16db edbd 11d7 f1bd 9332 59be
00000130: f2a3 67bd 8a92 013e fbf0 893d 0bd5 2abd
00000140: 8216 90bc 6119 2ebe 0aac aa3d a182 77bd
00000150: 3b60 5b3e c540 e83c cfa0 d3bd 69e3 aebe
00000160: 8f0b 4fbd c52c b3bc 6479 ee3d 8c0a 0fbe
00000170: 7434 6cbe 135a 3d3e da75 8ebe 5811 aa3d
00000180: 4133 7f3d 1903 23be 6e79 b33d e90b f63d
00000190: 6eb0 79bc b7bc 54be cd5c 2abe 8b50 d6be
000001a0: 53a0 da3e 4de4 c7bb ae28 0e3e aea2 26be
000001b0: 80e9 e53e 6505 d43d d1ef a13c 163e 9dbe
000001c0: 783d 303d fd9f 8dbe 81fe 95be 9b28 16b8
000001d0: aaa7 9a3d c9e1 d5be e1c8 773d 93bb 193f
000001e0: 0ca0 373e 0e6d 7abe ed87 d83e 3d11 6d3e
000001f0: 828c 1abe f1f7 603e 3b70 c9bd 6629 803e
00000200: 4b0d 68be 122b e0bd cf2f d23e f9f0 ca3d
00000210: a2a7 83be 9871 0a3e 278a 1abe 88e7 71be
00000220: c84d 7f3e 5b6c 24be e780 95bd 64cb 8bbc
00000230: 2fc5 5c3c f4ac 95be 50eb a33e fed6 0ebd
00000240: 3ad4 5ebd cde0 563e 405b c33e e7df 23bd
00000250: 910c dcbd f2ea f73d afe2 de3c 3247 ba3e
00000260: 7340 f7be 3f35 b6be cf80 e4be 13db aabe
00000270: 4653 f3be 2641 163e 83ee babd d0cb 1ebc
00000280: 3fb5 22bd 6362 873e 5a93 6c3e 673f 963d
00000290: eb0f f9bd 2987 ce3d c0fe 70bd b685 cc3d
000002a0: 71ce e8bd abbb a8be 69eb e03e 1a02 f8bc
000002b0: 8f06 27be 17cc 9c3e a1c7 033e 0fa6 84be
000002c0: a9d0 593e 5799 ac3e 1c30 0c3c de58 a9be
000002d0: 941d 8fbd ea4a cc3e 239b 803d ff84 1a3d
000002e0: 2a44 a5be ec70 35bd c757 133e f011 673e
000002f0: 9f36 8abd 7bde 3cbc b2d9 aabe af97 d63e
00000300: eeb1 1c3e bdf6 a43d 298d 853e 7ae2 a53d
00000310: d59a 9bbe 8bcd 4b3e 431e 103e 641b 253e
00000320: 394b b13e e429 d6bd 10ef 593d 6044 c53e
00000330: a222 4c3e 8290 ef3c b76c 8b3c 5e29 503d
00000340: d4f0 a33d 48f8 413c f4f0 a53e f391 2f3e
00000350: cbdc 46be 6d70 06bd cb67 7c3d 7f38 a5be
00000360: b45b 68bd 4480 283d 6114 473d a1ad 6b3e
00000370: 67a2 95be 5499 ba3e c05d 85bd 26f8 debd
00000380: 812b 2fbe 6de4 97be 3898 413e 1743 a73a
00000390: 2705 38ba 9ddf b43c 0c1c 1bbe 17f5 823d
000003a0: 6321 9e3e ac11 bebd 3461 1b3e 760e bd3e
000003b0: cfc7 d0be aa94 653e 8138 6abd 0fc2 0e3e
000003c0: 8e6f 0abe 9831 0b3d e15a 43bd c509 8f3e
000003d0: f6e7 a4bd 9da9 24be 556c 8ebd 4e36 1e3e
000003e0: f8a7 a3bd 706e 8e3e cd0a 4dbe 1c4c e13e
000003f0: 24ce 5c3e 14df c03d bdad fb3d d5f5 cd3e

fc2.bias f4 [20]
0.45829642 0.56986165 0.4093714 -0.10858404 0.2624094 0.5671557 -0.45822212 0.034618575
-0.32792094 -0.010887996 0.21023989 -0.08445997 -0.18987983 0.30795476 -0.17305823 -0.022209449
-0.026332378 0.07254417 0.12773703 0.12408268
00000000: d4a5 ea3e 74e2 113f 2199 d13e 4f61 debd
00000010: 865a 863e 1e31 113f 179c eabe 35cc 0d3d
00000020: 41e5 a7be 9163 32bc 2049 573e 59f9 acbd
00000030: dc6f 42be 3fac 9d3e 2d36 31be 97f0 b5bc
00000040: 00b7 d7bc 0a92 943d 7fcd 023e 0f1f fe3d

fc3.weight f4 [20, 20]
0.41568258 -0.056174632 0.40635163 0.14405565 -0.12645435 -0.35541812 -0.48352417 0.70138234
-0.12586261 0.038591128 0.06655053 -0.3377446 -0.17883845 0.33993527 -0.19934568 0.23785442
0.13078108 0.40923983 -0.033778656 0.042178467 0.16968417 0.36318356 0.17826436 -0.013126611
-0.07415638 -0.31366444 -0.4860146 0.34974313 -0.29370573 0.019552724 -0.099837825 -0.26039428
-0.39472067 0.2012458 0.027771637 0.17267896 0.21246849 0.04084139 0.13122974 0.23623174
0.10645669 0.22834635 0.433757 -0.21367894 0.26504913 0.51245475 -0.167775 -0.5018783
-0.12497262 0.22860257 0.090718195 0.33338755 0.31011632 -0.07016664 0.36835223 -0.08818168
0.11437392 0.16226892 0.3509144 0.17775176 0.23489615 0.34954333 0.35232985 0.19515577
0.29027474 0.586147 0.036576077 -0.35982063 -0.1729866 0.3288559 0.32142434 -0.35227016
0.22549638 0.33498305 0.3525764 0.22599839 0.20339562 0.293563 0.33057648 0.13285439
0.39032203 0.15355565 0.1378829 0.019741539 0.27237728 0.53092104 -0.14835727 -0.32309073
-0.40486214 0.3161191 -0.13544865 0.47363517 -0.030218061 -0.010581691 -0.13666393 -0.20807719
-0.24813013 -0.09574832 0.24840894 0.3934729 0.014634507 -0.06553383 0.15479569 0.04951475
0.4396465 0.5706159 -0.1499253 -0.072156 -0.12371305 0.23500347 0.056629952 0.59438854
0.2839582 -0.017565219 -0.099581495 -0.003245772 -0.2852444 0.011154136 0.09218973 0.18829201
0.20544207 -0.21752611 0.13977538 0.07024671 -0.12759791 0.0570565 0.090964235 0.027378693
-0.21870017 0.057304826 -0.094786204 0.15985642 0.013729816 -0.20560522 0.046000507 -0.17475353
-0.12647046 -0.00013424251 0.0256377 -0.12843178 0.23941945 0.3541482 0.39086166 0.014912307
0.46097344 0.64374435 0.024896406 -0.2534513 -0.30988976 0.35634416 0.0048274663 0.29120323
0.41880545 0.08689771 0.08103268 0.12388235 0.04959676 0.30527663 0.14897272 0.21536417
-0.18579268 -0.22073218 0.15748826 0.14397165 0.053202618 0.07817271 0.1261694 -0.21245478
-0.15625842 -0.080921166 -0.1017679 -0.039294478 0.055639323 -0.019720877 0.1811571 0.16231696
0.027625144 -0.102511995 -0.21635136 0.027620083 0.059882313 -0.052188676 0.03360116 -0.046935737
0.38219774 0.75342476 0.26823324 -0.51160425 0.03521818 0.20702666 0.2384417 0.15516032
0.5033669 0.22566405 0.4076977 0.0124477185 -0.17375022 -0.12795101 0.13416728 0.34648922
0.52785796 0.19048609 0.14297563 -0.04594669 -0.13691066 -0.1394833 -0.3648675 0.515346
-0.1516838 -0.22259602 -0.031721506 -0.2760948 -0.20752074 -0.00013428171 -0.45666486 0.3047967
0.084017776 0.16613266 -0.114771746 -0.14116214 0.12470623 -0.038353752 -0.09151232 -0.019324625
-0.024001013 -0.5151234 -0.14608786 0.3136735 0.09603828 -0.3909522 -0.11478079 -0.035785265
-0.5424453 0.15885654 -0.3463491 0.3099886 0.27462402 0.097565375 -0.18587191 -0.21413018
0.2998473 0.030245611 -0.049637627 0.17475688 -0.22869174 -0.17391331 -0.5293626 0.66662157
-0.10634229 -0.19392678 0.009087115 -0.06811418 -0.080562964 0.022716459 -0.3214064 0.3410786
00000000: 59d4 d43e 5f17 66bd 520d d03e 5383 133e
00000010: 407d 01be 5df9 b5be 7b90 f7be cb8d 333f
00000020: 21e2 00be bb11 1e3d a54b 883d dcec acbe
00000030: 6d21 37be ff0b ae3e 4621 4cbe 1c90 733e
00000040: 7aeb 053e e287 d13e 7d5b 0abd 54c3 2c3d
00000050: b0c1 2d3e 32f3 b93e ef8a 363e ff10 57bc
00000060: 4ddf 97bd a098 a0be e8d6 f8be 8811 b33e
00000070: 9960 96be 092d a03c c677 ccbd 6652 85be
00000080: d418 cabe 6113 4e3e 5881 e33c c1d2 303e
00000090: 5791 593e 4d49 273d 1761 063e bce6 713e
000000a0: f705 da3d a0d3 693e 6615 de3e a7ce 5abe
000000b0: 85b4 873e 3c30 033f 36cd 2bbe 197b 00bf
000000c0: a5f1 ffbd cb16 6a3e 76ca b93d c6b1 aa3e
000000d0: 91c7 9e3e 87b3 8fbd aa98 bc3e 9998 b4bd
000000e0: e03c ea3d d329 263e 0dab b33e 8f04 363e
000000f0: 9e88 703e 58f7 b23e 9464 b43e ead6 473e
00000100: e49e 943e bb0d 163f ccd0 153d 693a b8be
00000110: 6623 31be cd5f a83e bb91 a43e c15c b4be
00000120: 86e8 663e e682 ab3e e584 b43e 1f6c 673e
00000130: f146 503e e44d 963e 5241 a93e fb0a 083e
00000140: 4ad8 c73e b13d 1d3e 2d31 0d3e 02b9 a13c
00000150: 0975 8b3e 71ea 073f f8ea 17be 266c a5be
00000160: 174a cfbe 5dda a13e 0db3 0abe 4f80 f23e
00000170: de8b f7bc d45e 2dbc a1f1 0bbe 3012 55be
00000180: d315 7ebe b217 c4bd ea5e 7e3e 4875 c93e
00000190: 92c5 6f3c 9a36 86bd c382 1e3e facf 4a3d
000001a0: 5919 e13e e213 123f 0586 19be 86c6 93bd
000001b0: 445d fdbd c0a4 703e cff4 673d d929 183f
000001c0: f862 913e efe4 8fbc 62f1 cbbd 05b7 54bb
000001d0: 8e0b 92be d6bf 363c f8cd bc3d 9fcf 403e
000001e0: 685f 523e 2abf 5ebe 4721 0f3e 82dd 8f3d
000001f0: 07a9 02be 14b4 693d 754b ba3d 4849 e03c
00000200: f0f2 5fbe 77b8 6a3d 451f c2bd 67b1 233e
00000210: 06f3 603c 2d8a 52be 076b 3c3d 97f2 32be
00000220: 7981 01be 73c3 0cb9 2706 d23c 9f83 03be
00000230: 5f2a 753e ea52 b53e 051f c83e c052 743c
00000240: b604 ec3e 6ecc 243f 8cf3 cb3c 5ec4 81be
00000250: dfa9 9ebe be72 b63e b92f 9e3b 9718 953e
00000260: ab6d d63e 6df7 b13d 76f4 a53d 08b6 fd3d
00000270: f925 4b3d 384d 9c3e 4e8c 183e 6d88 5c3e
00000280: 7040 3ebe 9e07 62be 9a44 213e 4e6d 133e
00000290: fdea 593d 0419 a03d 8d32 013e bf8d 59be
000002a0: 3502 20be ffb9 a5bd b06b d0bd 3ff3 20bd
000002b0: 0fe6 633d ad8d a1bc 3f81 393e 6b36 263e
000002c0: 204e e23c cff1 d1bd 368b 5dbe 8343 e23c
000002d0: 2847 753d cbc3 55bd 5fa1 093d b03f 40bd
000002e0: 6caf c33e 72e0 403f de55 893e 7ff8 02bf
000002f0: f040 103d ccfe 533e 102a 743e 59e2 1e3e
00000300: a7dc 003f 7a14 673e c1bd d03e 84f1 4b3c
00000310: 94eb 31be 9705 03be 2663 093e 0967 b13e
00000320: b321 073f c90e 433e 3468 123e 9932 3cbd
00000330: 4f32 0cbe b6d4 0ebe eacf babe b7ed 033f
00000340: 0053 1bbe 36f0 63be 69ee 01bd 4c5c 8dbe
00000350: 5180 54be f9cd 0cb9 facf e9be 500e 9c3e
00000360: 8311 ac3d ae1e 2a3e 730d ebbd cf8c 10be
00000370: fb65 ff3d d318 1dbd d06a bbbd ad4e 9ebc
00000380: c69d c4bc 21df 03bf 0e98 15be d099 a03e
00000390: b8af c43d e32a c8be 3112 ebbd 9293 12bd
000003a0: b2dd 0abf 4aab 223e ab54 b1be d3b6 9e3e
000003b0: 859b 8c3e 5bd0 c73d 3555 3ebe f144 5bbe
000003c0: 9685 993e a5c5 f73c d350 4bbd 78f3 323e
000003d0: 2b2e 6abe 5516 32be 4f84 07bf b6a7 2a3f
000003e0: fdc9 d9bd be94 46be 1fe2 143c 727f 8bbd
000003f0: 32fe a4bd de17 ba3c 618f a4be dba1 ae3e

fc3.bias f4 [20]
0.21901952 0.31256488 0.23687106 0.23037404 0.19132458 0.014758269 -0.11085954 0.37362128
-0.08938827 0.06504871 0.39261872 -0.051848784 0.17007767 -0.041573092 0.071809836 -0.46573573
0.09180841 0.48934054 -0.13200279 0.29607478
00000000: a746 603e 8108 a03e 548e 723e 2ce7 6b3e
00000010: 97ea 433e abcc 713c 540a e3bd 4a4b bf3e
00000020: 3311 b7bd 4238 853d 5205 c93e 645f 54bd
00000030: d728 2e3e 8c48 2abd 0911 933d ea74 eebe
00000040: 0c06 bc3d d88a fa3e bd2b 07be 1d97 973e

fc4.weight f4 [20, 20]
0.11184456 0.037673995 0.251487 0.18059565 0.42285743 0.13364269 0.15773667 0.34515464
-0.028805511 0.22571039 0.18419601 -0.3994814 0.03593494 0.00784593 0.29975173 -0.22838187
0.4391773 0.25691587 -0.19982012 0.41494355 0.40581653 0.41001466 -0.08432681 -0.10147998
-0.41168538 -0.4656843 -0.10550307 0.1147705 0.069805056 -0.47589165 0.54055643 0.50586265
0.47980466 0.15551825 -0.32040015 -0.3191814 -0.5137932 0.24235733 0.37289074 -0.4484564
-0.15809953 0.012314642 -0.23943338 0.09687237 0.14220744 -0.17625287 0.1914389 -0.104991235
-0.08912348 -0.2560863 -0.20108804 -0.046635687 0.058322016 -0.09294225 0.042930212 -0.28310278
0.03649695 0.068077445 -0.043731518 -0.18858352 0.3463765 0.2767054 0.35704982 0.038764864
-0.3397133 -0.34153855 0.13334176 0.2811082 -0.0039909366 0.18474717 0.42121306 -0.13935104
0.52941614 -0.044216383 -0.15979671 -0.49034965 -0.32565573 0.31126484 0.4198486 -0.35256514
-0.22074834 -0.08454522 0.27361932 -0.20678714 0.46633616 0.59692085 0.09657611 0.2980707
-0.05855512 0.18394248 0.105755895 -0.29473034 -0.1846087 0.10069055 0.39325127 -0.15722072
0.21920455 -0.10871121 -0.09898271 0.5200272 -0.10891765 0.013729689 0.10243395 0.3064713
0.5553273 0.38486737 -0.087401174 0.36842132 0.06848878 0.31046894 -0.2559904 -0.27594548
-0.3689246 -0.015757807 0.38097635 -0.5516781 0.21022664 0.34915116 -0.2753847 0.2579457
-0.13106793 -0.16221017 0.29113477 -0.011630555 0.47380146 0.22316997 -0.08342601 -0.027506955
0.22216831 0.57370013 -0.24163522 -0.49491596 -0.15607077 -0.17514679 0.54647815 0.2581097
0.30178374 0.3040357 -0.19372329 0.23431648 -0.043342046 0.15006247 0.3768871 0.30832952
0.2244351 0.19447407 -0.15195148 0.35529673 0.10310704 0.340894 -0.08249471 -0.3961199
-0.32860333 0.14455937 0.37040251 -0.17825025 0.5425037 0.21180062 -0.2620647 0.4423604
0.23673125 0.21674928 -0.037784413 0.058427382 -0.62020755 -0.30795938 0.059328806 -0.18586853
0.07443149 -0.19112885 0.1405727 0.28729296 0.07494078 0.20377956 -0.22424884 0.33713907
0.05759484 -0.22624974 0.06403917 -0.18904373 -0.1276416 -0.16598688 0.109264016 0.120154195
0.055359438 -0.1700423 0.20432658 -0.043113913 0.11306641 0.1636327 -0.29959166 0.080034874
-0.39963642 0.20481083 0.31661087 0.21156333 0.043220777 -0.021967316 0.091271915 0.11535883
-0.0989979 -0.16270982 0.0815045 0.028449774 0.071985826 0.17851621 0.051848892 -0.09952776
-0.015516941 -0.14012726 0.112437405 0.17699032 -0.21887895 -0.16468811 0.0451283 -0.15442218
-0.03325824 0.07944539 0.0059890756 0.1083951 0.15394002 0.12303346 -0.049931437 -0.23007737
0.15980811 -0.11666646 -0.1458809 0.07276106 0.065086 0.005537919 -0.15872672 -0.18293482
-0.028596992 -0.1706705 0.156066 0.17714706 -0.21788219 0.008556363 -0.10003164 0.031275988
0.5000669 0.100474864 -0.07396622 -0.08654754 -0.5947292 -0.19565691 -0.19925685 0.19634664
-0.071547024 -0.47109407 0.33375013 0.2605957 0.48251194 -0.051584117 -0.5106357 0.13517706
00000000: c30e e53d 0c50 1a3d e7c2 803e 11ee 383e
00000010: c580 d83e a1d9 083e b985 213e 1cb8 b03e
00000020: 89f9 ebbc a020 673e e19d 3c3e d388 ccbe
00000030: 8430 133d 378c 003c 0f79 993e f0dc 69be
00000040: d9db e03e 7a8a 833e a59d 4cbe 7b73 d43e
00000050: 2fc7 cf3e 71ed d13e 89b3 acbd bcd4 cfbd
00000060: 6dc8 d2be 2c6e eebe fe11 d8bd cc0c eb3d
00000070: f4f5 8e3d 12a8 f3be e861 0a3f 3780 013f
00000080: f5a8 f53e 2d40 1f3e 7d0b a4be bf6b a3be
00000090: f387 03bf 852c 783e 89eb be3e 149c e5be
000000a0: d8e4 21be 5ac3 493c 062e 75be 0565 c63d
000000b0: d49e 113e a27b 34be 8f08 443e a505 d7bd
000000c0: 5f86 b6bd be1d 83be 06ea 4dbe 1005 3fbd
000000d0: 11e3 6e3d 8258 bebd 97d7 2f3d d9f2 90be
000000e0: d37d 153d 306c 8b3d d21f 33bd 0a1c 41be
000000f0: 4358 b13e 55ac 8d3e 3ccf b63e e8c7 1e3d
00000100: e7ee adbe 24de aebe be8a 083e 6aed 8f3e
00000110: 67c6 82bb 5d2e 3d3e 3da9 d73e 0ab2 0ebe
00000120: d187 073f 3d1c 35bd c0a1 23be 1c0f fbbe
00000130: 59bc a6be 1b5e 9f3e 65f6 d63e 6b83 b4be
00000140: da0b 62be 0b26 adbd d517 8c3e 02c0 53be
00000150: 9dc3 ee3e cecf 183f b2c9 c53d b99c 983e
00000160: 7ed7 6fbd 6b5b 3c3e 8c96 d83d e5e6 96be
00000170: 100a 3dbe d936 ce3d 3b58 c93e 78fe 20be
00000180: 2877 603e fca3 debd 72b7 cabd 8120 053f
00000190: 3810 dfbd 7df2 603c e4c8 d13d cee9 9c3e
000001a0: ee29 0e3f 560d c53e 63ff b2bd b8a1 bc3e
000001b0: d843 8c3d c9f5 9e3e 2c11 83be ba48 8dbe
000001c0: afe3 bcbe 8416 81bc 550f c33e c73a 0dbf
000001d0: a745 573e f1c3 b23e 39ff 8cbe 7511 843e
000001e0: ac36 06be 6c1a 26be 9e0f 953e 158e 3ebc
000001f0: 1b96 f23e ab86 643e 42db aabd 4456 e1bc
00000200: 1780 633e 03de 123f 396f 77be a065 fdbe
00000210: 04d1 1fbe ae59 33be fee5 0b3f f426 843e
00000220: 6683 9a3e 91aa 9b3e 665f 46be a9f0 6f3e
00000230: 6e87 31bd faa9 193e 59f7 c03e 5edd 9d3e
00000240: 51d2 653e 3624 473e 2b99 1bbe 74e9 b53e
00000250: c929 d33d a989 ae3e fdf2 a8bd 3ad0 cabe
00000260: b23e a8be 5f07 143e 66a5 bd3e 3c87 36be
00000270: 86e1 0a3f 43e2 583e 582d 86be 107d e23e
00000280: ad69 723e 86f3 5d3e d4c3 1abd 8d51 6f3d
00000290: ecc5 1ebf daac 9dbe c302 733d 5254 3ebe
000002a0: 896f 983d 48b7 43be 4af2 0f3e 1018 933e
000002b0: 8d7a 993d 97ab 503e 7da1 65be 7e9d ac3e
000002c0: 91e8 6b3d 03ae 67be f826 833d ae94 41be
000002d0: 7bb4 02be 77f8 29be d0c5 df3d 6713 f63d
000002e0: 94c0 623d 921f 2ebe fd3a 513e 3798 30bd
000002f0: 5d8f e73d 558f 273e 1464 99be 53e9 a33d
00000300: 259d ccbe eeb9 513e d21a a23e 0fa4 583e
00000310: 4508 313d cdf4 b3bc c5ec ba3d 4041 ec3d
00000320: 69bf cabd 679d 26be d5eb a63d 800f e93c
00000330: 4e6d 933d f4cc 363e 815f 543d 36d5 cbbd
00000340: c53a 7ebc 857d 0fbe 9545 e63d f33c 353e
00000350: ce21 60be 00a4 28be 74d8 383d d920 1ebe
00000360: cb39 08bd 44b4 a23d 0240 c43b 40fe dd3d
00000370: 74a2 1d3e f7f8 fb3d e884 4cbd 6799 6bbe
00000380: bda4 233e d3ee eebd cd61 15be c003 953d
00000390: cf4b 853d 6e77 b53b 4289 22be 4453 3bbe
000003a0: 3d44 eabc 3fc4 2ebe c4cf 1f3e 0a66 353e
000003b0: 821c 5fbe fd2f 0c3c 63dd ccbd 401b 003d
000003c0: 6204 003f c4c5 cd3d 9a7b 97bd d63f b1bd
000003d0: 2c40 18bf 495a 48be fd09 4cbe 180f 493e
000003e0: 3f87 92bd 3e33 f1be 4ce1 aa3e cd6c 853e
000003f0: ce0b f73e de49 53bd 05b9 02bf db6b 0a3e

fc4.bias f4 [20]
0.3382828 0.18582448 0.1382676 0.45824438 0.05510352 0.1378366 0.2287642 0.14766109
0.27926937 0.32786536 -0.15832274 -0.06192887 -0.045504317 0.34739333 0.38556954 0.08738613
-0.026916452 -0.1032258 -0.14812791 0.12606977
00000000: 6733 ad3e c648 3e3e 0696 0d3e 029f ea3e
00000010: 3bb4 613d 0a25 0d3e 2a41 6a3e 7834 173e
00000020: 65fc 8e3e f8dd a73e 5b1f 22be 20a9 7dbd
00000030: bc62 3abd 8add b13e 5f69 c53e 80f7 b23d
00000040: e47f dcbc 0c68 d3bd d8ae 17be 6f18 013e

fc5.weight f4 [20, 20]
-0.06069258 -0.20317183 -0.17397326 -0.04850131 0.13617527 0.1878503 0.0008187677 -0.18752952
0.11806155 0.09199686 0.18906336 -0.10644448 -0.26141462 -0.15451446 0.03659071 0.154402
-0.02277899 -0.19954863 0.018474532 0.15896767 0.37858257 -0.29273903 -0.12581828 0.12970458
0.45125473 0.5017673 0.42021728 0.3108857 -0.03594818 0.34503663 -0.19807337 -0.19743614
-0.37141168 0.44606477 0.2537401 -0.15179802 0.5787206 -0.0026905762 0.110426985 0.11872803
0.28531864 -0.23120546 -0.08321327 0.11982398 0.20679998 0.21541739 0.4397966 0.4734955
-0.12221603 0.40832725 -0.056370948 -0.15614438 -0.30963716 0.35496506 0.3035201 -0.052062098
0.32790962 -0.16272989 -0.1051705 0.4678027 0.25774613 -0.33475044 0.24616271 0.31393254
-0.40480468 0.25213444 0.3926551 0.10454261 -0.24692437 0.48706374 0.043966874 0.17412369
-0.14750339 0.4170671 0.19319859 -0.20063461 0.2074445 0.06819904 -0.113241754 0.17435502
0.1879482 -0.4987771 0.010742351 0.06341314 0.3840703 0.1321845 0.25126737 -0.019155726
-0.14207113 0.228308 -0.09200632 0.14396447 -0.24379195 0.14814207 -0.027066326 -0.32904202
0.27838174 -0.08645058 0.008714062 0.36980352 0.071810074 0.4205952 0.01624836 0.19065055
-0.5443108 0.07820442 -0.39139768 -0.007244883 0.4749234 -0.20721796 0.17382076 0.15153506
0.5578928 0.06916912 0.023265319 0.38511446 -0.27384737 0.3209305 -0.081117965 -0.2607252
0.336138 0.016094372 0.07360738 0.08075336 0.45408195 0.5012017 0.32215783 0.3256763
-0.005263559 0.46109003 -0.16087808 -0.13029532 -0.4223113 0.3236682 0.47033322 -0.047065273
0.34812072 -0.28362995 -0.18431386 0.4957828 0.026541544 0.37700054 0.18708457 0.26201257
-0.31294525 -0.110864945 -0.07794396 0.06094115 0.31718588 0.121952094 -0.077454716 0.1255859
0.5110066 0.09632688 0.0759899 0.3524293 -0.20464453 0.40158847 0.22095574 -0.36633784
0.43894964 -0.03195446 -0.07903248 -0.03408001 0.1123717 0.28894144 0.6403107 0.22331484
-0.2023134 0.23698394 -0.23329516 -0.20977406 -0.35716203 0.20777588 0.4628937 -0.022744427
0.28600577 -0.060040917 -0.078762665 0.33418322 -0.034442633 -0.39562142 -0.10613786 -0.070860125
0.23225048 0.074786745 0.3814847 -0.016687606 -0.47453877 0.22069652 -0.016895551 0.049194068
-0.10721378 0.16655461 0.42387843 -0.28596872 0.353361 -0.23697151 0.10301315 0.27257895
-0.19116753 -0.057441473 -0.036129843 0.17247042 -0.20224208 -0.42226434 -0.42034084 -0.13258637
0.35572767 -0.28277126 0.011560471 -0.08944727 0.26833946 0.05024127 -0.0106929885 0.10823919
-0.37409994 0.17901906 0.20746933 -0.09446497 0.09839657 -0.101072036 0.10408136 -0.0023569241
0.0017016128 -0.123870224 -0.21114475 -0.16673617 -0.03828805 -0.1386364 -0.17988618 0.1688509
-0.15177648 0.22194852 -0.18220802 -0.1688006 -0.20528422 -0.17028828 0.15066375 -0.05297007
0.29022425 0.2578444 -0.102802455 0.30022445 -0.46325082 -0.23869458 -0.34752554 -0.13890563
0.40632024 -0.14511225 -0.12500809 0.14735772 0.55420417 0.23865871 -0.34764954 0.5782362
00000000: c898 78bd 470c 50be 0c26 32be 4fa9 46bd
00000010: 8871 0b3e d45b 403e 92a2 563a bd07 40be
00000020: 41ca f13d da68 bc3d d399 413e 90ff d9bd
00000030: 23d8 85be 0a39 1ebe 24e0 153d 8f1b 1e3e
00000040: 019b babc 7a56 4cbe e757 973c 6cc8 223e
00000050: 93d5 c13e e4e1 95be 82d6 00be 47d1 043e
00000060: dc0a e73e d273 003f b826 d73e 692c 9f3e
00000070: 663e 13bd a4a8 b03e bfd3 4abe b32c 4abe
00000080: ac29 bebe 9a62 e43e 39ea 813e f170 1bbe
00000090: 0927 143f 6154 30bb 8b27 e23d ae27 f33d
000000a0: 4915 923e 20c1 6cbe b86b aabd 4666 f53d
000000b0: 60c3 533e 6096 5c3e 052d e13e 016e f23e
000000c0: 664c fabd 4510 d13e 39e5 66bd 50e4 1fbe
000000d0: c388 9ebe fbbd b53e fd66 9b3e 113f 55bd
000000e0: c5e3 a73e aaa2 26be a263 d7bd d683 ef3e
000000f0: 4df7 833e 6964 abbe 1412 7c3e c4bb a03e
00000100: 8f42 cfbe c417 813e 170a c93e 701a d63d
00000110: bed9 7cbe 6b60 f93e 9c16 343d 7b4d 323e
00000120: 210b 17be d289 d53e dad5 453e 2973 4dbe
00000130: 556c 543e f0ab 8b3d 4beb e7bd 1f8a 323e
00000140: 7e75 403e b65f ffbe b000 303c c0de 813d
00000150: dda4 c43e 605b 073e 1ea6 803e 78ec 9cbc
00000160: 187b 11be 93c9 693e cf6d bcbd 6c6b 133e
00000170: 99a4 79be 8eb2 173e 33ba ddbc 3278 a8be
00000180: 0d88 8e3e 000d b1bd 6dc5 0e3c e356 bd3e
00000190: 2911 933d 4158 d73e 481b 853c e639 433e
000001a0: f457 0bbf a429 a03d 4765 c8be 7c66 edbb
000001b0: 2929 f33e f230 54be 12fe 313e 022c 1b3e
000001c0: 10d2 0e3f 8aa8 8d3d e996 be3c b92d c53e
000001d0: b935 8cbe 0151 a43e 2d21 a6bd c67d 85be
000001e0: 481a ac3e 58d8 833c 77bf 963d 0562 a53d
000001f0: 6e7d e83e c14e 003f dff1 a43e 0bbf a63e
00000200: ef79 acbb fe13 ec3e 39bd 24be 236c 05be
00000210: 3039 d8be d7b7 a53e 84cf f03e 84c7 40bd
00000220: e13c b23e f237 91be c6bc 3cbe 3ed7 fd3e
00000230: a76d d93c 3706 c13e 1993 3f3e 8326 863e
00000240: 5c3a a0be 290d e3bd 15a1 9fbd 6d9d 793d
00000250: 3066 a23e 05c2 f93d 94a0 9ebd 9799 003e
00000260: 54d1 023f 0747 c53d 98a0 9b3d 9d71 b43e
00000270: 568e 51be 019d cd3e 3942 623e a290 bbbe
00000280: 02be e03e aee2 02bd c8db a1bd 7b97 0bbd
00000290: 2223 e63d 22f0 933e 67eb 233f a5ac 643e
000002a0: 3e2b 4fbe ebab 723e ede4 6ebe 03cf 56be
000002b0: f1dd b6be 33c3 543e 6700 ed3e 8552 babc
000002c0: 596f 923e 77ed 75bd 524e a1bd 101a ab3e
000002d0: b813 0dbd e48e cabe ce5e d9bd 1d1f 91bd
000002e0: 12d3 6d3e cb29 993d f651 c33e 72b4 88bc
000002f0: bff6 f2be 45fe 613e 8a68 8abc b87f 493d
00000300: e692 dbbd 4b8d 2a3e 9806 d93e 7e6a 92be
00000310: bceb b43e a9a8 72be 8ff8 d23d 788f 8b3e
00000320: 6cc1 43be c047 6bbd e3fc 13bd 169c 303e
00000330: 8c18 4fbe 0833 d8be ea36 d7be b9c4 07be
00000340: f021 b63e 65c7 90be 2168 3d3c 2130 b7bd
00000350: ca63 893e cac9 4d3d a531 2fbc 82ac dd3d
00000360: 078a bfbe c650 373e d772 543e da76 c1bd
00000370: 2484 c93d dbfe cebd 9c28 d53d a076 1abb
00000380: a708 df3a acaf fdbd 5436 58be e3bc 2abe
00000390: eed3 1cbd b3f6 0dbe 1534 38be 40e7 2c3e
000003a0: 4b6b 1bbe 7946 633e bd94 3abe 11da 2cbe
000003b0: 0736 52be 0d60 2ebe 9947 1a3e 25f7 58bd
000003c0: 4698 943e 2e04 843e 188a d2bd 05b7 993e
000003d0: 362f edbe 5a6c 74be deee b1be 473d 0ebe
000003e0: 3509 d03e 4e98 14be 1f02 00be f1e4 163e
000003f0: 53e0 0d3f f362 743e 1fff b1be 4a07 143f

fc5.bias f4 [20]
0.014796159 0.21217969 0.33298326 0.25131497 0.10861639 0.264398 0.24555635 0.22225907
0.3451547 0.19653642 -0.006640172 -0.025910145 0.081708945 0.276227 -0.065853946 -0.054813255
0.078494295 0.23059523 0.1371152 0.23573878
00000000: 976b 723c a245 593e c87c aa3e 5bac 803e
00000010: 4572 de3d 2d5f 873e 2073 7b3e e297 633e
00000020: 1eb8 b03e d840 493e cd95 d9bb 8341 d4bc
00000030: 0557 a73d a06d 8d3e 6fde 86bd dd83 60bd
00000040: 9ec1 a03d 2821 6c3e ed67 0c3e 8265 713e

fc6.weight f4 [3, 20]
0.12600678 0.39599198 0.2530736 0.0013592652 0.18704532 -0.5055061 0.16097751 -0.43475357
0.23075323 0.57631236 -0.20747639 -0.017117022 -0.44401222 -0.008980219 0.24741215 -0.16688035
0.4023301 0.29589093 -0.40429097 -0.3099578 0.066701606 0.21874285 0.17617573 0.32904825
-0.39520258 0.079343095 0.07449421 -0.022018518 0.16497949 -0.4938383 -0.45583817 0.069874376
0.09268754 0.47451293 -0.35551035 -0.21113276 -0.37089145 0.24378598 0.23252536 -0.013687553
0.12822086 -0.35984448 -0.56457764 -0.4636505 -0.22297002 0.2683209 -0.5973246 0.02767815
-0.40763882 -0.20204851 0.44538942 -0.11120353 0.575731 -0.3962112 -0.10056203 -0.1349169
-0.4552 -0.5182064 0.26365337 0.36270887
00000000: ec07 013e 76bf ca3e dd92 813e 5f29 b23a
00000010: cf88 3f3e d968 01bf 4ad7 243e 0598 debe
00000020: 934a 6c3e 3589 133f b174 54be ff38 8cbc
00000030: 9255 e3be c521 13bc 9c59 7d3e afe2 2abe
00000040: 36fe cd3e 047f 973e 3aff cebe cab2 9ebe
00000050: da9a 883d 20fe 5f3e 6967 343e 0379 a83e
00000060: fe57 cabe a27e a23d 6c90 983d 2e60 b4bc
00000070: 62f0 283e 60d8 fcbe 9f63 e9be 4c1a 8f3d
00000080: f7d2 bd3d 5cf3 f23e 7405 b6be 3033 58be
00000090: 7ce5 bdbe 08a3 793e 211b 6e3e c241 60bc
000000a0: 544c 033e 893d b8be 2988 10bf 9963 edbe
000000b0: 4152 64be 5b61 893e 44ea 18bf 4abd e23c
000000c0: 09b6 d0be cee5 4ebe 150a e43e adbe e3bd
000000d0: 1b63 133f 32dc cabe 77f3 cdbd a827 0abe
000000e0: f90f e9be 2da9 04bf 93fd 863e fab4 b93e

fc6.bias f4 [3]
0.08318093 0.08897638 -0.20567103
00000000: c35a aa3d 4039 b63d 6d9b 52be
