models_3val/xor_and_4.pth (torch, 12178 bytes, 12 tensors)

fc1.weight f4 [20, 12]
000000 3f 29 bf be 94 18 7b 3e e6 ce 90 3c 05 e1 94 be
       -0.37336156 0.24521095 0.017676782 -0.29077926
000010 9e e0 8a bc 20 69 ef 3d d7 94 0e 3d 1e fe c9 bc
       -0.016952809 0.11689973 0.034809913 -0.024657305
000020 1d 63 99 3e f3 0e 18 3e 28 87 9e 3d 10 d9 ab 3d
       0.2995843 0.14849453 0.07740623 0.08391011
000030 65 bc c4 be 39 2f ad be 76 53 45 be d9 0c 07 3f
       -0.38424984 -0.3382509 -0.19270119 0.5275398
000040 ca 41 87 3b f5 4a 59 3b 01 46 99 3b ba 9f d0 3b
       0.0041277157 0.003315625 0.0046775346 0.006366697
000050 a9 77 6d bb 12 43 df 3a 72 6f b3 3b 4b a2 51 bb
       -0.0036234653 0.0017033538 0.005475932 -0.0031987603
000060 d0 43 ba 3b 25 c6 b1 3d 45 64 8f 3e ad 60 2d be
       0.0056843534 0.08680371 0.28006187 -0.1693141
000070 2a 48 b6 bd f6 56 6e bc a4 be 6f 3e 36 02 13 3e
       -0.08900483 -0.0145471 0.23412567 0.14356312
000080 da a7 82 3e 11 0d b3 bd 5e 7e 1f 3e a3 e3 85 bc
       0.25518686 -0.087427266 0.15575549 -0.016343897
000090 36 45 fe 3e 12 a7 c5 3e ec de 26 3e 9f 38 6a be
       0.4966218 0.38604027 0.16295975 -0.22873162
0000a0 2f 7e 9b 3e 62 e3 2d 3e bd 65 23 3e 04 3e 87 bd
       0.30369708 0.16981271 0.15956779 -0.066036254
0000b0 fb b8 ab 3d 67 55 65 3e 41 97 3c 3e ab 00 20 3e
       0.083848916 0.2239586 0.18417074 0.15625255
0000c0 7b 0c bf 3e 41 c2 05 3f 0e 94 99 be 1f 11 ce 3e
       0.3731421 0.5224953 -0.2999577 0.40247437
0000d0 70 c5 a8 3d 6f 19 54 3d 5b 0a 9c 3d b5 ce ed 3d
       0.08240783 0.051782068 0.07619163 0.11611692
0000e0 a5 77 16 3e 51 87 f8 3d a6 86 88 3e da 67 73 3e
       0.14694078 0.121351846 0.2666523 0.23770085
0000f0 69 10 09 3f 37 ec dc be 84 3c 80 bd f9 76 22 bf
       0.53540665 -0.43148968 -0.062615424 -0.6346279
000100 c1 a1 fa b8 6f 7b cc bb f4 4d 34 3a 8b e9 93 3b
       -0.00011951058 -0.0062403004 0.0006878071 0.0045139245
000110 46 05 3e bc 92 b5 81 b9 d0 16 c4 38 fb 1a 09 bb
       -0.011597937 -0.00024740078 9.3502575e-05 -0.0020920623
000120 60 3b f5 be c2 a1 09 3f 62 dd 88 3d 24 20 e5 be
       -0.47896862 0.5376245 0.066828504 -0.44751084
000130 23 31 c9 3b d2 d7 56 3c 57 cc f7 3d 32 2a 33 3e
       0.0061398908 0.013112979 0.120995216 0.17496565
000140 7a 3b 07 be 61 2d ae 3d 97 b5 04 bd ab 20 b5 3c
       -0.13206282 0.08504749 -0.03239974 0.022110304
000150 00 53 89 3d 66 d5 b3 be 19 2a d5 3e c8 3d b6 3e
       0.06705284 -0.35123748 0.4163368 0.3559401
000160 b3 c7 a6 3d b5 2e 52 3e c4 74 61 3e d7 fe f3 bd
       0.08143558 0.2052563 0.22017199 -0.11913841
000170 99 0f 99 3e 30 d4 2b 3e 81 ed e1 3d 13 e6 4d 3e
       0.29894713 0.16780162 0.110316284 0.20107298
000180 5c 29 ab bd 56 6b 0a 3d f4 19 07 bf 32 30 90 be
       -0.08357498 0.03379377 -0.52773976 -0.2816177
000190 3e 28 98 3c dd c0 17 bc 2d 85 c5 3b 8a e8 a6 3c
       0.018573876 -0.009262291 0.0060278387 0.020374555
0001a0 77 40 bc 3c 36 fa 4e 3c 93 cc a5 3c 6b fa f2 3c
       0.022979958 0.012632897 0.02023915 0.029660424
0001b0 21 2f d7 3e 2b d6 69 3e b9 c6 8f be f0 36 ba be
       0.42028144 0.22835605 -0.280813 -0.3637004
0001c0 c6 6b 18 bb b7 10 c5 b8 48 bc 58 bb 74 83 3f bb
       -0.0023257597 -9.3968054e-05 -0.0033071209 -0.002922264
0001d0 2e ca 19 bb 34 aa 66 bb ee 55 50 b9 75 4c 72 3c
       -0.0023466456 -0.0035196664 -0.00019868437 0.014788737
0001e0 c0 7c ac bd fd 75 f5 3e 5d 68 90 3d 54 61 4d 3e
       -0.08422232 0.4794158 0.07051156 0.20056659
0001f0 36 03 7e 3e 7a 10 9d bd 28 94 1b 3e f5 9d 15 3d
       0.24805912 -0.07669158 0.15193236 0.036527593
000200 c6 e5 32 3e a1 61 20 3e 90 2e 0c 3e 15 d2 d5 bd
       0.17470464 0.15662242 0.13689637 -0.104404606
000210 e2 66 84 3e 71 70 d3 be 13 86 f9 3e ae 95 dc 3b
       0.25859743 -0.41296723 0.48735103 0.0067317104
000220 2e 1f d7 3d 21 2f cd bc e5 82 0c 3e e2 38 a4 3e
       0.10503994 -0.025046887 0.13721807 0.32074648
000230 16 93 85 3d 77 e5 59 3e 6a f9 67 3e f1 74 7b 3d
       0.06522195 0.2127894 0.22653738 0.06139082
000240 fd 7b cb 3e 36 c9 37 3e 03 8f 4c be e4 7e 0b 3f
       0.39743033 0.1794785 -0.1997643 0.54490495
000250 26 32 4b 3e 23 08 07 3e fa 76 d5 3d 91 12 66 3e
       0.19843349 0.13186698 0.104230836 0.2246802
000260 9b e6 53 3d 01 97 ff 3d 73 a3 d2 bc 29 c7 e7 3d
       0.051733594 0.124799736 -0.025712704 0.11317284
000270 68 98 6a be 74 39 6f be a2 88 7f be 99 4c b1 be
       -0.22909701 -0.2336176 -0.24954465 -0.34628752
000280 c9 f6 4e 3e 02 e6 70 3e 3f ce 89 3e bd 79 5a 3e
       0.20211329 0.23525241 0.26915166 0.21335502
000290 26 c3 c7 3d 00 ae 61 3e d3 18 7f 3d 97 e7 91 3e
       0.097540185 0.22039032 0.062279534 0.28497002
0002a0 4d 17 b6 be 04 ff 47 be 98 86 fe bc aa 53 16 be
       -0.35564652 -0.19530874 -0.031070039 -0.14680353
0002b0 a0 58 72 3e 35 dc e8 3c 38 92 bd bd d7 f8 d3 3d
       0.2366662 0.028425315 -0.09256405 0.10350197
0002c0 b0 16 a3 3c 30 12 17 3e 90 c7 98 3e f8 a9 ec 3d
       0.01990828 0.14753032 0.29839754 0.115558565
0002d0 cf c6 58 3e 14 d5 bd 3e b8 e4 97 be 43 db e0 3e
       0.2116959 0.37076628 -0.29666686 0.43917283
0002e0 91 87 40 3d 4b cf 9f 3d 1d 1e aa 3e 08 6a b9 3d
       0.047004286 0.0780321 0.332261 0.09053427
0002f0 07 ba 94 3e 1d 95 05 3e 24 f3 39 3e 6f 0a 08 3d
       0.29048178 0.13045163 0.18159157 0.033213075
000300 bc c9 d0 3e a1 8e ec bd 88 55 99 be af 46 01 3d
       0.4077891 -0.11550642 -0.29948068 0.03156155
000310 2e 48 2c 3d 77 49 9c 3e 7f 59 84 3e 5e df e5 3d
       0.042061023 0.305248 0.2584953 0.112242445
000320 66 3f 8b 3e 03 70 a4 3e 9f 08 55 3d 2c 4d 53 3e
       0.27196807 0.32116708 0.052010175 0.20634907
000330 26 65 ed 3d 88 61 ed 3e 00 5a 9e 3e a9 cd 01 3d
       0.11591558 0.46363473 0.3092804 0.031690273
000340 5b 94 58 3d 3f a2 82 3e 50 0f 59 3c 94 51 f1 3d
       0.052875858 0.2551441 0.01324828 0.11783138
000350 c9 3c 24 bd d1 6e fe 3d fe dd 20 be a6 db 25 3e
       -0.04009703 0.1242348 -0.15709683 0.1619707
000360 8a 30 b5 3e 92 b9 a5 3e 18 9f 90 be bc f5 fc be
       0.35388595 0.3236814 -0.2824638 -0.4940623
000370 18 3f 86 3c 0a 37 35 3c 94 d0 9c 3c e2 25 84 3b
       0.016387507 0.011060486 0.019142427 0.0040328363
000380 41 4a e2 3c ef 57 76 3c 6d 7d 82 3c 6a e7 ef 3b
       0.027623298 0.015035613 0.015928948 0.007321288
000390 72 6f 0d bf 36 ab 01 3f 61 76 07 be 16 4a c8 3e
       -0.5524818 0.5065187 -0.13228752 0.39119023
0003a0 af bb d3 b9 59 99 00 3b ce b8 00 bc f7 03 5c bb
       -0.0004038489 0.0019622652 -0.007856561 -0.00335717
0003b0 a5 49 85 3b 42 57 f8 ba 56 1b 8f 3b 85 ad dd 3a
       0.004067617 -0.0018946903 0.0043672724 0.0016912675

fc1.bias f4 [20]
000000 b3 70 d0 3e 2d d2 49 bc 6d 0d fa 3e 0a 90 d4 3d
       0.40710983 -0.012318176 0.48838368 0.10379036
000010 32 13 1b be 36 b4 5d 3c 67 d1 e9 bc c2 dd c9 3d
       -0.15144041 0.013531735 -0.028542234 0.0985675
000020 58 e0 d1 3e a0 11 67 bc 43 4b ac 3e 2c bd 5b 3e
       0.40991473 -0.014103323 0.3365117 0.21458882
000030 de c3 dd 3e d5 fe 59 3f 28 58 9f 3e 59 9f 18 be
       0.43313497 0.8515447 0.31121945 -0.14904536
000040 23 71 4d 3e 6b ab c5 3d 18 0c 75 be e4 8c e6 be
       0.2006269 0.09651836 -0.23930395 -0.45029366

fc2.weight f4 [20, 20]
000000 5a 9c 59 3e 7c c0 04 3e 26 12 bb 3d 34 e1 02 be
       0.2125105 0.12964052 0.09134321 -0.1278122
000010 f4 57 d0 be 19 7c 5f 3e 2c ea a9 3d 02 07 b7 bd
       -0.40692103 0.21824683 0.08296618 -0.089368835
000020 e1 11 30 3e bf bd ea 3e af f2 e5 bd e5 0e 88 3d
       0.1719432 0.4584789 -0.11227929 0.06643466
000030 a0 40 2e be f0 2c 04 3f 75 bb 56 3e e5 da a5 be
       -0.1701684 0.5163107 0.20969947 -0.32393566
000040 d5 8f 0d 3e ce 20 bd be eb d5 e0 3e 33 1d c8 3d
       0.13824399 -0.3693909 0.43913206 0.09771194
000050 74 4c 1d 3e 78 11 6e bd 49 f9 8e bd d3 e0 33 3e
       0.15361196 -0.05812213 -0.06981141 0.17566232
000060 b6 d2 a3 bc f3 77 66 bd a4 af 94 3d 6f 0d 03 bf
       -0.019997936 -0.056266736 0.07260063 -0.51192373
000070 d3 28 d0 3e 17 61 f4 3e 36 58 14 be 34 6b 15 be
       0.40656146 0.47730324 -0.14486775 -0.14591676
000080 ef 24 08 be 5c 0c 87 3e 9f f3 3b 3d 3e d1 ad bd
       -0.13295339 0.26376617 0.045886632 -0.084871754
000090 dc 97 b8 3e 23 c7 c7 be 2f 27 21 3f d8 de 6c 3e
       0.3605336 -0.39019117 0.62950414 0.23131883
0000a0 3f 8f 4e 3e a5 21 07 3f ab 12 35 be 3b da 95 3c
       0.20171832 0.5278571 -0.17682903 0.018292537
0000b0 2c 74 a7 3e 4b c6 b1 3e c4 4f d7 3d 7a dd 80 3e
       0.3270582 0.34721598 0.10513261 0.25168973
0000c0 63 29 af be bf c2 cd be 1e c3 17 ba e2 2c 7d 3b
       -0.34211263 -0.40187642 -0.00057892676 0.0038631489
0000d0 a9 9e 36 3e 51 96 1c bc 55 7d 38 3e 45 5c 85 3d
       0.17833962 -0.009557323 0.1801656 0.0651174
0000e0 af 18 83 bd 66 84 7e 3e 1a d3 04 bf a3 0f a0 be
       -0.064011924 0.24855193 -0.51884615 -0.3126193
0000f0 58 82 7f be 6a 3e 0d 3e 16 7e 49 be 56 c0 65 3d
       -0.24952066 0.1379334 -0.19677004 0.05609163
000100 35 22 0f 3f ab fe 42 bf 32 2c 89 be fd e0 d7 be
       0.5591157 -0.7616984 -0.2679153 -0.4216384
000110 b0 27 3a 3d bb 0b 05 be 0c 3a db 3d b8 14 95 be
       0.045448005 -0.12992756 0.10704431 -0.2911737
000120 e3 ac e5 3d 7f 5d a7 be 72 d0 7f be 7f 54 d3 3e
       0.11214616 -0.3268852 -0.2498186 0.41275403
000130 46 ed 2f 3e 73 d2 35 3e 7c 0d 36 be 86 82 e3 be
       0.17180356 0.17756061 -0.17778581 -0.4443552
000140 de 12 69 3e 40 7c e1 3d 72 1c 99 3e 2b 6a 8c 3e
       0.22761104 0.11010027 0.29904515 0.2742475
000150 b8 96 56 be 65 a6 38 3f 0c ff 96 3e ef 07 76 3d
       -0.20955932 0.721289 0.2949146 0.06006616
000160 51 de 12 3e 7c 17 81 bd 8f 3e 9e bd 2e 9a 64 3e
       0.1434262 -0.063033074 -0.07726776 0.2232444
000170 31 92 ce 3d bb 70 dd 3e 78 12 94 3c 16 f1 84 bc
       0.100864775 0.4325007 0.018075213 -0.01622824
000180 9c e1 8a 3d a0 01 83 3e fa 0f 0a bf 31 5a 0e bf
       0.06781313 0.25587177 -0.5393063 -0.5560637
000190 11 cf db bd 12 05 e9 be 1d c2 ea 3d 87 98 73 3e
       -0.10732854 -0.4551168 0.114628054 0.23788653
0001a0 32 29 c4 bd 44 ae 15 bf fe 30 72 be 35 7d b7 3e
       -0.0957817 -0.58469033 -0.23651502 0.35837713
0001b0 7e 46 1b 3e 6d a3 dc 3d 76 8c 32 3d 04 7c 9d 3e
       0.1516361 0.107733585 0.043590985 0.3075868
0001c0 dc 5e 8f 3e a9 7e 38 be a0 0e 02 3e 9a 0d 72 bd
       0.2800206 -0.18017067 0.12700891 -0.059095003
0001d0 73 41 3c 3e 86 30 ea bc c5 f6 f9 3d 13 8c ea 3e
       0.18384342 -0.02858759 0.12205271 0.45809993
0001e0 47 f6 db bd ee b4 19 bf e0 e1 27 3e bf 76 4c bd
       -0.10740333 -0.600417 0.16394758 -0.049917933
0001f0 a8 64 29 3e 55 8a 26 bf d8 e3 8f 3c 2b 1c 87 3e
       0.16542304 -0.6505483 0.017564699 0.26388678
000200 6f d6 59 3e 04 4b e1 3d fd 51 18 3e b7 b1 8e 3e
       0.21273206 0.11000636 0.14875026 0.2786996
000210 e2 55 58 3e fa b6 f5 3d f9 14 19 be f0 d4 b1 bd
       0.21126512 0.11997791 -0.14949407 -0.08683193
000220 4f ce 98 3e 57 c9 61 3e 51 69 18 3d 7d d0 07 3f
       0.298449 0.22049461 0.037209813 0.530525
000230 62 7a 8f bc 20 07 28 bd 82 d7 8e 3e a0 3b dd 3d
       -0.017514411 -0.04102242 0.27898794 0.10802388
000240 b4 40 74 bc 8c d7 3b be a7 3b 48 be a6 d5 a6 bd
       -0.014908005 -0.18343943 -0.19554006 -0.08146219
000250 cc 67 3e 3e 5e 20 05 3f 32 69 2b 3e 8e 04 31 3e
       0.18594283 0.52002513 0.16739348 0.17286894
000260 25 3d 61 3e 43 45 53 bd a0 20 3e 3e a0 a6 0a be
       0.21995981 -0.051579725 0.18567133 -0.13540125
000270 d8 e2 f7 3c ed 76 6a 3d 63 ea 8e 3e e0 b7 dd bd
       0.030259535 0.057242323 0.27913198 -0.10826087
000280 b2 d9 62 bc 1e 96 06 3f 9c 70 8c be dc 75 b0 be
       -0.013845848 0.5257281 -0.27429664 -0.3446492
000290 b9 f0 74 3e e8 2a cd be 56 9c 74 bd fa cf db bd
       0.23919953 -0.40071797 -0.059719406 -0.10733028
0002a0 de 45 f3 be 2a 06 11 3e 02 62 86 3d 0b 70 9e be
       -0.47514242 0.14162508 0.06561662 -0.30944857
0002b0 fb 47 48 3e 18 ee 23 3e f0 04 eb 3d 94 b9 2a 3e
       0.19558708 0.16008794 0.11475551 0.16672355
0002c0 19 04 f1 3d 71 ec 7b be 2e 1a 4c be ad ee cf 3d
       0.1176836 -0.24601914 -0.19931862 0.10152946
0002d0 89 00 b7 bc 27 de 54 3e a8 b4 b9 ba fb 45 83 39
       -0.022339122 0.2078787 -0.001416822 0.00025038407
0002e0 6c 11 93 3e 0e 73 2a 3f 2c 87 57 3e 3b f9 05 3d
       0.2872423 0.6658181 0.21047658 0.032708388
0002f0 cb d5 cd be 9d c5 a7 be ad 03 0a 3e aa c6 89 be
       -0.40202174 -0.32767954 0.13477965 -0.2690938
000300 04 0a 89 3e b5 b9 7c 3e cb 09 66 3d 37 6a 9f 3e
       0.26765454 0.24680217 0.056161683 0.31135723
000310 09 ff 96 bd af dd ba 3d 37 83 ec be 98 58 6b 3d
       -0.07372863 0.09124314 -0.4619386 0.057457536
000320 0c 6e 18 3e 25 6f 10 3f 1c 04 6b be a6 6e 43 be
       0.1488573 0.56419593 -0.22950786 -0.19085178
000330 61 aa 7e 3e 0e ca 32 3f 08 57 3a be a4 34 fe bd
       0.24869682 0.6983956 -0.18197262 -0.12412384
000340 44 ed 13 3e ed bf 88 3e 06 61 f9 3d e0 2c 4f be
       0.14445978 0.26708928 0.12176709 -0.20231962
000350 bb b7 4d bd ed 26 d3 3e 82 fe 70 3e 25 35 80 3e
       -0.050224047 0.41240636 0.23534587 0.25040546
000360 68 2b 0f 3e fd 16 3c 3e 49 bc eb 3c f9 66 41 bf
       0.13981402 0.18368144 0.028776305 -0.7554775
000370 64 50 c0 3d a0 55 f8 be 1f aa 6e 3e 44 85 05 be
       0.09390333 -0.48502827 0.23307084 -0.13039118
000380 6d 6e a1 be c2 63 84 be 27 86 35 bd fb 6f 8b 3d
       -0.3152956 -0.2585736 -0.04431739 0.06808468
000390 2f 80 d1 3e 09 6b 0b bf 8d 8b 05 bb 10 82 a8 3d
       0.4091811 -0.544602 -0.0020377368 0.082279325
0003a0 b9 fa ae be ca f0 eb 3e 79 db 20 3e dd e7 f6 be
       -0.3417566 0.46082145 0.15708722 -0.48223773
0003b0 6c 15 83 3c 5c 5c d6 bd 23 54 7d 3e d4 cf d1 be
       0.016001426 -0.10466835 0.24739127 -0.40978873
0003c0 04 2c b9 be ea d8 85 3e 9e ff 5f be 45 d2 54 3e
       -0.36166394 0.26142055 -0.21874854 0.20783336
0003d0 cb 40 52 3e 51 08 c4 be 54 a9 ed bc df 3e c4 bd
       0.20532529 -0.38287595 -0.029011406 -0.09582304
0003e0 99 cf ce 3e 96 f2 ba 3e ea d7 5a 3e f6 78 6c be
       0.4039276 0.36513203 0.21371427 -0.23093018
0003f0 e5 fa 0c 3d d9 18 8d 3e bb bc 77 bd 95 0f b2 3e
       0.03441896 0.2755802 -0.06048272 0.34777513

fc2.bias f4 [20]
000000 11 c0 e7 3e 75 38 1d be d8 af 0e be c4 36 be be
       0.45263723 -0.15353568 -0.13934267 -0.37151158
000010 6e 9c 85 3d b9 83 c5 3e d8 fe 70 3e ce 0d 3b 3e
       0.06523977 0.3857706 0.23534715 0.18266985
000020 e7 51 aa bc 60 f0 6c be 20 fb b7 3e 09 35 a1 3e
       -0.020791007 -0.23138571 0.3593378 0.31485775
000030 79 74 80 3e 6c a0 af 3e db f6 ed 3d cf a8 3f bd
       0.25088862 0.3430208 0.116193496 -0.046791848
000040 39 25 86 be b0 52 82 3e 79 56 17 3e 69 fe 08 3d
       -0.26200274 0.2545371 0.1477908 0.03344575

fc3.weight f4 [20, 20]
000000 ca 68 38 3c 6d c2 40 3d 91 93 4c 3d 2e 4b 5d bf
       0.011255452 0.04706042 0.049945418 -0.8644284
000010 70 88 43 3d 83 7b c1 3e 6b a0 c4 3e 40 4c f1 3c
       0.04773754 0.37789544 0.3840364 0.029455304
000020 3f 46 0c bf 19 25 3b bd e2 4f bc be 4a ae 42 be
       -0.5479469 -0.045689676 -0.36779696 -0.19011799
000030 ca db 41 3e 4a 7c 96 3d 81 a1 21 3e 17 ae 13 3e
       0.18931499 0.07347925 0.15784265 0.14421879
000040 96 e0 5a bb 81 e8 e0 3a f3 4f 93 3e 29 2b 02 3d
       -0.0033398024 0.0017159135 0.28771934 0.031779442
000050 b0 fb dc 3e f4 75 96 bd b8 4c 34 be 37 9b 5e 3e
       0.43160772 -0.073467165 -0.17607391 0.21738897
000060 dd ef d9 3e 29 1f 16 3e 77 ed 9b bc de c0 00 3e
       0.42565814 0.14660324 -0.01903413 0.12573573
000070 63 98 75 3e f4 d5 90 be c6 a7 92 3d e2 ef 1d 3f
       0.23983912 -0.28288233 0.071609065 0.6169416
000080 3f 20 8b bd 3b b1 be be cd 1d 30 be 6b 36 3b 3d
       -0.0679326 -0.3724459 -0.17198868 0.045706194
000090 72 8f ba be ba b4 8f 3e 29 a5 a0 3d 65 c1 70 3e
       -0.36437565 0.2806757 0.07844002 0.23511274
0000a0 ad a5 98 3d 2f 38 4f be 11 b1 94 3c fd 5e 44 be
       0.07453475 -0.20236276 0.018150838 -0.1917686
0000b0 32 16 1e be e6 1f 3a 3d d3 c0 b3 3c a1 2f 0b be
       -0.15438154 0.045440577 0.021942532 -0.13592388
0000c0 2b 99 72 3d 15 64 4e be 09 31 ea bd 79 d2 a1 3d
       0.059228104 -0.20155366 -0.11435134 0.079014726
0000d0 d6 6a 25 be 56 a4 70 3d 90 6a 78 3d 33 5b 57 be
       -0.16154036 0.058750473 0.0606485 -0.21030883
0000e0 4c 97 1b bd 1a 51 e9 3d cb 97 1b bc d3 0c 24 3e
       -0.037986085 0.11392422 -0.0094966395 0.16020517
0000f0 b6 c6 28 3c e9 53 94 3e 33 c3 15 be d8 ff 07 3f
       0.010301283 0.28970268 -0.14625244 0.5312476
000100 a1 fb 7b b9 58 5d 56 be 60 cf 61 be f3 8c 92 be
       -0.00024030964 -0.20934045 -0.22051764 -0.2862316
000110 d9 90 c0 3e e4 ea 1e 3d 61 29 a1 3d ea 02 bf be
       0.3761051 0.038798228 0.078692205 -0.3730691
000120 78 c9 41 3e 20 f1 0f 3d d9 22 fa 3d 4f 48 15 bd
       0.1892451 0.035142064 0.12213678 -0.036445912
000130 8e ad 74 3e c5 94 16 3e a1 77 8b bc f9 4d 7a 3e
       0.23894331 0.14705189 -0.017024817 0.24443807
000140 9b d0 bb be 9d 46 04 bf b8 81 a9 bd 95 83 dd 3e
       -0.3668259 -0.5167025 -0.08276695 0.43264452
000150 c2 25 e2 3e 0d 61 50 be c2 26 87 be 76 60 a1 3e
       0.44169432 -0.20349522 -0.26396757 0.31518906
000160 51 42 8e 3e b3 7d a2 be e0 82 f2 3e 95 19 44 3e
       0.2778497 -0.31736526 0.47365475 0.19150384
000170 30 04 1a 3e a6 f6 23 3e 09 51 ed bd be 67 17 be
       0.1504066 0.16012058 -0.11587722 -0.14785668
000180 48 77 00 bf e5 42 30 3e 25 69 84 3e 30 a6 69 be
       -0.5018201 0.17213018 0.2586147 -0.22817302
000190 0e 5c aa 3e 13 c8 f8 3e 7f b5 5b be 5a ca cd be
       0.33273357 0.48590145 -0.21455954 -0.40193444
0001a0 c7 11 0d be 66 f0 a3 3e 4b db e9 3d 1f 71 13 3e
       -0.13776313 0.32019347 0.1141878 0.14398621
0001b0 12 b7 9c be 34 4a 89 be 08 de f5 3d df ab e3 3e
       -0.30608422 -0.26814425 0.1200524 0.44467065
0001c0 7f 11 b5 3e 56 ae dc 3e 9b 27 b0 3d ae 5c a5 be
       0.3536491 0.43101758 0.08601304 -0.3229727
0001d0 3b 01 18 bf 9d 61 8a 3c 1a 0e 7c bd c4 a0 b6 3e
       -0.5937688 0.016892249 -0.061536886 0.3566953
0001e0 13 c0 20 3f f9 43 dd 3e a6 90 35 be 8a 55 65 3d
       0.6279308 0.43215922 -0.1773096 0.05598978
0001f0 5c 1d 2f 3e be 7a 6e be bf 5a 8d 3b eb 86 0c 3e
       0.17101043 -0.2328901 0.0043137963 0.13723342
000200 c0 bd 9c bb 98 1e 8e be f7 6d 9e 3d c8 32 03 3f
       -0.004783362 -0.27757716 0.07735818 0.5124936
000210 50 60 57 3e a4 25 0b 3e 7d b4 a0 bd 1b 05 02 be
       0.21032834 0.13588578 -0.078469254 -0.1269726
000220 67 fb 19 be da dc 1b be dc 8d 05 3d bd 10 37 3f
       -0.15037309 -0.15220967 0.03260599 0.71509916
000230 18 7e b5 be 67 dd 05 bf 3c 8f 60 3d 9d 6e 73 3e
       -0.35447764 -0.5229096 0.0548241 0.23772664
000240 d8 b4 35 3e ad a7 95 bd 48 43 81 3d d4 e3 89 3d
       0.17744768 -0.07307372 0.06311661 0.06732908
000250 fb 08 89 3e 08 b9 a0 3e 71 6b ab 3e cc 27 01 bc
       0.26764664 0.31391168 0.3348041 -0.0078830235
000260 84 71 61 3e 7d 21 04 3d 54 84 06 be 8a 5d d2 3d
       0.22015959 0.0322585 -0.13136417 0.102717474
000270 e7 d7 62 3e 2f fb 00 3f 26 02 0d 3e 54 ca dc bd
       0.22152673 0.50383276 0.13770351 -0.107807785
000280 4b f0 44 bf e7 23 06 bf 53 bf 71 3e 6f c9 0b 3f
       -0.7692916 -0.5239853 0.2360814 0.5460424
000290 10 41 ed 3d e1 ff ae 3d 3e 39 30 be 7d 5f 3c be
       0.11584675 0.08544899 -0.17209336 -0.18395801
0002a0 2a d8 aa 3e d7 7c d4 3e fb 35 e5 3e ab e5 ce be
       0.33368045 0.41501495 0.44767746 -0.40409598
0002b0 df 8f a1 3d 21 4a 23 3e b6 50 09 be ca e1 c7 3e
       0.07888769 0.15946247 -0.13409695 0.3903945
0002c0 ef 97 54 3e 38 5a 0d 3f 6b af f9 bd 63 5d 1b bf
       0.20761083 0.5521579 -0.121916614 -0.6068937
0002d0 84 d9 9c be 00 ec 4a 3e a1 76 44 3e f1 52 0d be
       -0.306347 0.1981659 0.19185878 -0.13801171
0002e0 ca 50 98 3e 79 6e 44 be 81 2f 61 be a9 cd b1 3d
       0.29749137 -0.19182767 -0.21990778 0.08681805
0002f0 fa 18 95 bd fb 51 4a be ad 88 ac 3c 62 d5 a3 bd
       -0.072801545 -0.19757836 0.021061266 -0.07999684
000300 b1 e7 cb 3d de a3 20 be 66 8a e1 bd 4f 15 69 3e
       0.09956301 -0.1568751 -0.110127255 0.22762035
000310 3c 6f 15 bd 4d 6d a8 3e bb 03 f6 bd 47 f6 7c be
       -0.036483034 0.3289589 -0.1201243 -0.24703322
000320 7b d8 2b 3f cf c2 33 3f 4f 06 8d be 3f 50 fd be
       0.671272 0.7021913 -0.27543876 -0.49475285
000330 e9 41 0e be a2 7e a9 3e 87 b8 4a 3e 84 8c 2e 3e
       -0.1389233 0.33104426 0.19796954 0.1704579
000340 73 7d 98 be 6f 4b 49 be 10 f7 07 3e d9 62 10 3f
       -0.2978321 -0.19657682 0.1327784 0.5640083
000350 d2 5a a2 3e 42 73 5d 3e 08 ae c9 3e ba a2 a0 be
       0.31709915 0.21625999 0.39390588 -0.3137415
000360 06 ec 88 be f6 43 cd bd b0 5d be bd e9 44 20 3f
       -0.26742572 -0.10022728 -0.09295213 0.6260515
000370 f3 f7 e3 3d 10 74 ed 3d f6 cc a4 3d 1b 0a 60 bf
       0.11131277 0.11594403 0.08046906 -0.8751542
000380 e1 7e 39 be e6 9c a8 3e 94 de 4a 3e 6c 18 0b be
       -0.18114807 0.32932204 0.1981147 -0.13583535
000390 fe c9 05 bf fa 1c 08 37 6e 8b 23 be a0 1a 2d bd
       -0.5226134 8.112978e-06 -0.15971157 -0.04226172
0003a0 8f 44 96 3d 75 65 bf 3e 08 31 80 3e 20 4a 1b be
       0.07337295 0.37382093 0.25037408 -0.15164995
0003b0 4d 30 9b be c1 c3 99 3d ae f0 05 3e c1 2c b2 3e
       -0.30310288 0.0750804 0.13080093 0.3479977
0003c0 84 ee 70 3e a9 f1 c6 3e 74 2d eb bd dc 48 c4 be
       0.23528486 0.38856247 -0.11483279 -0.38336837
0003d0 64 c2 ae bd c7 98 9c bc 86 86 1b 3e a0 08 18 be
       -0.08533171 -0.019115819 0.15188035 -0.1484704
0003e0 59 5d 75 be fe 87 7d 3b 33 64 02 be db fd ea 3e
       -0.2396139 0.0038685794 -0.12733535 0.458968
0003f0 d9 ec 34 3e 9b 47 8b 3e 2d be d0 3e df a8 5c bd
       0.17668475 0.27203068 0.40770093 -0.053871986

fc3.bias f4 [20]
000000 ae 71 7d be 90 e2 8b 3e 60 a2 a0 3c ee 9d a2 3b
       -0.24750397 0.2732129 0.019608676 0.0049626743
000010 1a c5 42 3f 89 b7 05 3f af 4c ea bd 69 19 59 3e
       0.76082003 0.5223318 -0.114404075 0.212011
000020 6e 22 b6 3e 22 96 b4 bc c6 92 86 3e b4 55 31 3e
       0.35573143 -0.022044245 0.26283854 0.1731785
000030 1b 25 8d be d7 19 06 3f d7 d6 72 3d d6 3a ba bd
       -0.27567372 0.5238318 0.05928692 -0.09093253
000040 5d 3d 19 3e 74 9a ba 3d 55 c8 8f be 21 6f 47 be
       0.14964814 0.09111491 -0.2808253 -0.19475986

fc4.weight f4 [20, 20]
000000 c2 d1 7b 3d 55 5c a6 3c 1e f1 0c be bd d8 0b 3b
       0.061479338 0.0203077 -0.13763854 0.0021338903
000010 c1 06 29 bd 4b 8a 30 be a9 1e 0c be 94 ee 21 be
       -0.041266207 -0.17240255 -0.13683571 -0.15813667
000020 95 cc f3 3c ed a0 91 3d 8c 9d 5f be 29 53 55 be
       0.029760638 0.07110772 -0.21837443 -0.20832504
000030 f0 1f a2 3d f8 1e 43 be d9 db e8 bd 96 ac d9 bd
       0.07916248 -0.19054782 -0.113700576 -0.10628621
000040 97 03 2c 3d dc 9f 3b be 3b fc 44 be 1b eb 6f 3e
       0.04199561 -0.183227 -0.19236843 0.2342953
000050 93 cd 19 bc 63 f8 30 be 7f e4 60 3d 97 54 99 bd
       -0.009387392 -0.17282252 0.05490541 -0.07486837
000060 c7 8e a8 bd d8 9e 24 be 85 1b 0e bd a5 62 8e be
       -0.082303576 -0.16076219 -0.034694213 -0.27809635
000070 5d 64 d7 3c b2 b7 57 bd 6d b8 2f 3d 10 91 1f 3e
       0.026292974 -0.05266542 0.04290049 0.1558268
000080 b0 9e b1 bd 28 27 7b be 4b 92 d9 bd 6a f1 64 3e
       -0.08672845 -0.24526656 -0.10623606 0.22357717
000090 9c 3d 8e 3d 03 82 e9 bd 2c de 59 bd 23 eb 68 be
       0.06945345 -0.11401751 -0.053190395 -0.22745948
0000a0 ce 0c 48 3e 35 22 54 bd df b6 9a bd d2 e5 97 3e
       0.19536135 -0.051790435 -0.07554411 0.29667526
0000b0 84 99 0e bf 82 d3 25 3e 61 15 1e 3f bb 3b 0f be
       -0.55702996 0.16193965 0.6175137 -0.13987629
0000c0 aa ec e8 bc e9 5d 01 be 66 cb b9 3e fc 16 aa 3d
       -0.028433163 -0.1263348 0.36287993 0.08305165
0000d0 28 1d f9 3e aa 69 46 be 95 1d a2 bd 49 10 f1 3e
       0.48655057 -0.19376245 -0.079157986 0.47082737
0000e0 31 2b 06 be d1 c2 68 3e 5b 64 1d bf 0c 98 c4 be
       -0.13102414 0.22730567 -0.61481255 -0.38397253
0000f0 82 bf 9c 3d 4e 41 23 be 07 c1 37 3e 62 4e bd bd
       0.07653715 -0.1594288 0.17944728 -0.09243466
000100 a9 5f 2e be 02 3e 62 be 45 da 19 be d2 9a 63 be
       -0.17028679 -0.22093967 -0.1502467 -0.22227028
000110 5b 26 6d 3c 62 6a ce 3d e0 9a 4c 3e 21 23 26 be
       0.014474477 0.10078885 0.19980955 -0.16224338
000120 69 cd 79 3c fd 2b 01 bd b9 d9 22 3b c8 85 d2 bd
       0.0152467275 -0.03153609 0.002484901 -0.10279423
000130 e5 c0 c8 bd e6 97 6e 3d 2c 5b dd 3d 6e 4f 9f 3d
       -0.09802417 0.05825033 0.10808405 0.07778822
000140 4a e4 bb 3e 57 ba 3f be ff 9e a6 3d c9 27 c2 3e
       0.36697608 -0.18723427 0.08135795 0.3792098
000150 2f ad 3e bd 7e 79 b3 bc fc f8 1c 3f 4a 14 25 be
       -0.04655188 -0.021908518 0.6131742 -0.16121021
000160 9e 69 fd be 87 cb 9c 3d c5 21 36 3e 02 ab 5b 3e
       -0.49494642 0.07656007 0.1778632 0.21451953
000170 51 59 10 3f 64 d3 74 be cb 78 0f bc 0f 66 d0 3e
       0.56386286 -0.23908764 -0.008756827 0.40702865
000180 96 78 9f 3d 22 4a 08 3f d9 80 d1 be 4b d2 ad be
       0.07786672 0.5323812 -0.40918615 -0.33949503
000190 7d 93 92 3e 51 fa be be 27 fa 50 be e3 05 c8 3e
       0.2862815 -0.3730035 -0.20407926 0.3906699
0001a0 3c 4f ff be aa 24 dd be 65 20 8c 3c 3f 33 d5 3d
       -0.4986514 -0.43192035 0.01710529 0.10410165
0001b0 98 cf 48 3e 14 5f c0 3e 04 f4 c5 be d3 5d 1c 3e
       0.1961044 0.3757254 -0.38662732 0.15270166
0001c0 5d 03 fc bd dd 0b 8b 3d 47 1f d3 3e ed 7a 0a be
       -0.12305329 0.06789372 0.412348 -0.13523455
0001d0 2c f9 03 bd 52 77 28 bf 49 6f ac 3e 52 ae d5 3e
       -0.03222005 -0.6580707 0.33678654 0.41734558
0001e0 bd 2f 54 be a3 a4 1d 3e df 8e 09 3e b5 6d 29 be
       -0.20721336 0.15394835 0.13433407 -0.16545756
0001f0 66 17 c1 3d 7f 87 3d be ba e6 d1 3b 8f ee 1c 3e
       0.09428291 -0.18508719 0.0064056786 0.15325378
000200 3c f3 8d 3d 9d 03 79 3d 65 30 0f 3d f7 59 ff bd
       0.06931159 0.06079446 0.034958262 -0.12468331
000210 e5 e4 1f be f8 97 21 be b7 7a 31 be 0a ec d3 bc
       -0.1561466 -0.15780628 -0.17331968 -0.025869388
000220 de 4e 22 be 1f ea 93 3d b5 b6 94 3d 22 65 5e be
       -0.15850398 0.072223894 0.07261411 -0.21718267
000230 e2 7b 21 be 71 3d 91 3e 80 57 37 be 1c cc a8 3e
       -0.15769914 0.2836719 -0.17904472 0.32968223
000240 94 bc 0b 3f b9 92 f3 3d b5 c6 bf be bf 95 bb 3e
       0.5458462 0.118932195 -0.3745629 0.36637685
000250 ef 55 fd 3e 14 78 47 3e 49 16 f3 be 06 27 80 be
       0.49479625 0.194794 -0.4747794 -0.25029773
000260 0b 81 36 bf 83 29 4e 3e 2d e9 a0 3e b8 af 99 be
       -0.71290654 0.20133023 0.314279 -0.30016875
000270 fc ae 01 bc 14 35 c5 be 3c 2e fd 3e 2a bd b5 3e
       -0.007915255 -0.38517058 0.49449337 0.35495883
000280 d4 bc ff 3c f4 03 e5 3d 0d a6 30 be 5c be 33 be
       0.03121797 0.111823946 -0.17250843 -0.17553085
000290 2d 60 c4 3b 26 26 0e 3e 09 bb 41 bd 8c b6 d5 3c
       0.0059929104 0.1388174 -0.04729751 0.026088022
0002a0 ab 74 63 be 0f 77 cf 3d ba 65 02 bd 0c 9c c5 bd
       -0.22212474 0.101301305 -0.031835295 -0.09648904
0002b0 fb 42 60 3e e5 ac c2 bd 2b 50 54 be 2b bd 13 be
       0.21900551 -0.09505633 -0.20733707 -0.1442763
0002c0 65 ab 43 be 75 cf 9c bd d2 b0 2e be df 8f 69 3d
       -0.1910835 -0.07656757 -0.17059639 0.05702197
0002d0 cc 64 e7 3c 00 81 29 3e 0d 8e d9 bc a6 c0 41 3e
       0.028246306 0.16553116 -0.026556993 0.18921146
0002e0 fd 84 7b bc af 67 5d bd 20 80 ec bd 20 87 bf bd
       -0.015351531 -0.05405396 -0.115478754 -0.09351945
0002f0 69 cf 1e be 8e ea d0 bc a5 bf ad bd 9b 86 ab 3c
       -0.15508808 -0.02550247 -0.08483819 0.020938208
000300 08 d0 38 3e b8 e8 63 3d 08 41 11 3d 1b 4d cf 3c
       0.18048108 0.05564186 0.03546241 0.025305321
000310 51 06 1f be 55 a7 07 be 29 8c a1 3d 0e 4a fc bd
       -0.15529753 -0.13247426 0.078880616 -0.12318812
000320 51 4d 56 bc a0 25 ce 3e 9b 46 50 3d 21 1c 58 3e
       -0.013079957 0.4026308 0.050848585 0.2110448
000330 dd ac d8 3e dd 4a c8 be 2d ad 06 bf 01 32 b0 3e
       0.42319384 -0.39119616 -0.52607995 0.3441315
000340 39 87 08 3f b4 34 8f 3e d7 e1 bb be ff 88 97 be
       0.53331333 0.27969897 -0.3669574 -0.29596707
000350 2a 53 2e bf 1e ab e4 3e a8 c0 96 3e 0b ff 63 be
       -0.6809565 0.44661802 0.2944386 -0.2226526
000360 ba ff 32 be fa ab da be af f0 07 3f db e1 0e 3f
       -0.17480364 -0.42709333 0.5310163 0.5581338
000370 6b 3f 91 3d d7 b3 91 be 35 29 8b 3d dd 94 6a 3e
       0.07092174 -0.2845752 0.06794969 0.2290835
000380 18 e8 70 3e d8 86 2e be b0 2d a4 be 1d 07 cf 3e
       0.23526037 -0.17043626 -0.32066107 0.40435115
000390 74 d5 92 3e 56 5e c8 3d ad 46 bb be 6a f7 90 3d
       0.28678477 0.09783618 -0.3657736 0.070784405
0003a0 4a 0b 1e bf d3 78 1e 3e 23 03 82 3e a4 43 5a be
       -0.61735976 0.15475778 0.25393018 -0.21314865
0003b0 d0 a5 db 3d f6 46 a8 be cf e0 f7 3e 14 4f 9f 3e
       0.107249856 -0.3286664 0.48413703 0.3111502
0003c0 2a 81 c4 3d 49 42 b4 3e bf f2 ad bd 92 e4 c5 be
       0.095949486 0.35206822 -0.08493566 -0.38650948
0003d0 1c c9 0e be 7c b2 e9 3e 3a 63 e0 3d 70 cd f1 bd
       -0.13943905 0.45643985 0.10956426 -0.11806762
0003e0 c4 b2 fc bc ff 47 fa bd 7f 36 09 3f 4b 4f da 3e
       -0.03084696 -0.122207634 0.5359878 0.4263862
0003f0 5d fd 73 3e fa f9 58 3e a9 f6 cc bc 7d 91 08 3f
       0.23827119 0.21189108 -0.02501996 0.53347

fc4.bias f4 [20]
000000 d8 e8 34 3e cd c8 36 3e 92 09 da bd db 3c a6 b9
       0.17666948 0.17850037 -0.10646357 -0.00031707328
000010 15 f6 9a be 85 8e 61 be aa 23 0d be ed 9c b7 3e
       -0.3026587 -0.22027023 -0.13783136 0.35861912
000020 cf 02 d6 bd 14 c1 4d be 48 a2 2f 3e e3 06 65 3e
       -0.104497544 -0.20093185 0.17151749 0.22365908
000030 a4 34 08 3e 17 b2 61 3e 61 00 53 be 62 9b e8 3e
       0.13301331 0.22040592 -0.20605613 0.45431048
000040 35 f9 a9 3e d6 9a 07 3e 67 5b c0 bd 13 e6 6d be
       0.33197942 0.13242659 -0.093924336 -0.23232298

fc5.weight f4 [20, 20]
000000 ce a9 b4 bd 9f b6 10 bb 71 b1 bc be 41 2d 64 3e
       -0.0882145 -0.0022081507 -0.36854127 0.22282888
000010 39 98 05 bf ea a1 28 bf 0c 7b 5d be 41 f6 11 be
       -0.521854 -0.6587206 -0.2162897 -0.14254095
000020 81 46 fa bd df 15 f9 bd 72 39 3f be d4 04 d3 bb
       -0.12220479 -0.12162375 -0.18674257 -0.0064397845
000030 62 d0 fc 3e 13 b9 ee 3e 0e 48 0d 3e 26 62 c5 3e
       0.49377733 0.46625575 0.13797018 0.38551444
000040 b0 ba 91 3e 45 60 ce be c7 14 3d 3d 15 c1 d9 3c
       0.28462744 -0.40307823 0.046162393 0.026581326
000050 e3 94 ad 3d 5d 79 b4 bc a9 64 91 3e a7 46 3b 3e
       0.084756635 -0.022030527 0.2839711 0.1828867
000060 c3 71 03 3f 63 c6 bb be 1a 92 3d 3e 34 da 91 be
       0.5134546 -0.36674795 0.18512765 -0.28486788
000070 29 a6 47 3e e9 72 c8 bd 17 bf 03 bf 58 f2 04 bf
       0.19496979 -0.097875424 -0.51463455 -0.5193229
000080 86 ae 5f 3e c4 b4 32 3d af 11 c2 3d 36 10 bb 3d
       0.21843919 0.043629423 0.09476029 0.09133951
000090 f3 a5 1e 3e bc 6d 3c be 14 74 54 3d 59 6c 05 be
       0.15492992 -0.18401235 0.051868513 -0.13029613
0000a0 d5 13 47 3d 6b 89 98 3d 65 30 d5 be 5a 2c fb bd
       0.048602898 0.074480854 -0.41638485 -0.12264319
0000b0 bb 0f 16 bf 1c a3 13 bf 66 83 28 3d 71 a8 7d bd
       -0.5861775 -0.5767076 0.041140936 -0.061928216
0000c0 29 f0 f8 bc 19 f4 43 3e f2 8a 54 be b9 3e 09 bd
       -0.030387955 0.19136085 -0.20756128 -0.033507083
0000d0 f9 e9 c8 3e cb b7 99 3e 36 29 10 3e 9c 2e e9 3e
       0.39241007 0.30023035 0.1407822 0.45543373
0000e0 62 b3 b8 3e 01 0d e3 be d0 bc 76 3d 4a f1 06 3e
       0.36074358 -0.4434586 0.06023866 0.13177982
0000f0 0a 7a 65 be 3a 8f 9e 3d 29 e4 00 3f 31 05 5f 3e
       -0.22409835 0.07742162 0.50348145 0.21779324
000100 5f 8b 2c 3f 69 e0 83 3e bd 96 de 3d 78 29 fe be
       0.67400163 0.2575715 0.10868595 -0.49641013
000110 04 a3 24 be 6e ab 5f 3c e6 f7 9a be cd 4c 64 3d
       -0.1607781 0.013651712 -0.30267256 0.055737305
000120 0c 77 c5 3e ee 56 e3 3e 10 83 df bd 18 99 c4 3e
       0.38567388 0.4440226 -0.1091367 0.3839805
000130 9e 8c c0 3e 04 81 0d bf b2 49 32 3e 5d 59 34 be
       0.37607282 -0.5527499 0.17410925 -0.17612214
000140 c1 e9 02 3c 66 ae 99 3b 25 ca ed be 4a ca 41 3e
       0.007990302 0.0046899794 -0.46443287 0.18924823
000150 b7 6f 0e bf 07 38 ca be 42 88 fa 3d 04 be de 3e
       -0.55639213 -0.3949587 0.1223302 0.43504345
000160 46 1a a0 bd 56 c7 3d 3e 66 5d 9f 3e 4a 7f 93 3e
       -0.07817511 0.18533072 0.31125945 0.2880805
000170 ad 1d 93 be 34 87 66 be 5c 7c f8 bc fa 05 1c 3e
       -0.28733578 -0.22512513 -0.030332737 0.15236655
000180 36 13 30 3e 57 47 0e 3f b4 36 8b 3d bd 1a fb 3d
       0.17194828 0.55577606 0.06797543 0.12260959
000190 48 12 b1 bd 01 bb 46 be 0c f5 02 be 33 64 97 3b
       -0.08646065 -0.19407274 -0.1278879 0.004620099
0001a0 e2 f7 91 3c 57 0a 71 bd c1 cc 25 be e0 0b 72 bd
       0.017818395 -0.05884775 -0.16191389 -0.059093356
0001b0 0d bb 48 be 83 9e 2a be 94 7f 36 3e 08 27 3a bd
       -0.19602604 -0.1666203 0.17822105 -0.04544738
0001c0 7e 61 21 be 4c ff 74 be ad 06 26 bd 60 19 17 3e
       -0.15759847 -0.23925513 -0.04053371 0.14755774
0001d0 6e e8 db bd 48 0c 89 bb f5 85 1d be 03 97 2d be
       -0.10737692 -0.0041823722 -0.15383132 -0.16952138
0001e0 df f1 28 bd ce 8f 29 be 6b ed ec be e1 ae b3 bd
       -0.04124629 -0.16558763 -0.46274886 -0.0877359
0001f0 9a d6 bb be 9a 5e 16 bf 3f 78 5f be bf 80 11 3f
       -0.36687165 -0.587381 -0.21823214 0.56837076
000200 19 45 2a be c1 f2 d2 3d 3a eb 33 3e 61 9b 28 3e
       -0.16627921 0.10300208 0.175702 0.16465522
000210 4f 91 68 3d 16 98 c2 be 82 52 28 be 12 56 8b 3e
       0.056779202 -0.38006657 -0.16437724 0.27214104
000220 5f d0 fd 3c 4d 6e da 3e 0e 48 b6 bc 7c 58 46 3e
       0.030983148 0.42662278 -0.022251155 0.19369692
000230 ba 21 d1 bd 08 1d e0 bd 41 45 95 bd 29 e0 fa 3d
       -0.10211511 -0.10943037 -0.072886 0.122497864
000240 45 81 41 3e 6f b0 a0 3c 43 9e 5f 3e f9 87 0a 3c
       0.18896969 0.01961538 0.21837716 0.00845527
000250 37 20 a9 3d 27 4a 5c 3e 97 36 03 3e 54 6a 03 be
       0.082580976 0.21512662 0.12813793 -0.1283353
000260 76 61 64 bd d6 99 c3 3d 64 32 25 3e e0 52 08 3d
       -0.05575701 0.09550826 0.16132504 0.03328216
000270 fe c2 24 be db ca 7b 3d f6 d1 25 bd 14 7c c8 3c
       -0.16090009 0.061472755 -0.040483437 0.024473228
000280 8c b6 19 bd ff c1 83 3d 4a 84 b6 bd b1 6f 2f 3e
       -0.037527606 0.06433486 -0.08911951 0.1713245
000290 24 fe b7 bd f2 fd 5d 3d 28 26 2a 3c 58 47 b6 3d
       -0.0898402 0.05419726 0.010385074 0.089003265
0002a0 01 ad 03 be 5c af 2e be 88 45 17 3e 5b 29 2e be
       -0.12858965 -0.17059082 0.14772618 -0.17007963
0002b0 f0 ed ff bd 09 79 31 be a1 0b 52 3e 41 cb 31 be
       -0.12496555 -0.17331327 0.20512249 -0.17362691
0002c0 7d ac 0c be 01 8a 5c be 06 e3 bb 3d 21 78 49 3e
       -0.13737674 -0.2153702 0.09174161 0.19674732
0002d0 11 58 22 3e 05 05 a6 3d fe b8 81 be 6f 25 de bb
       0.15853907 0.08106426 -0.2533645 -0.006779365
0002e0 68 ba e4 be 05 fd e3 be e7 3c 54 3d 25 82 99 3e
       -0.44673467 -0.44528976 0.051815894 0.29982105
0002f0 b6 85 43 bc 1b 80 1b 3d f0 3c a6 3e e5 b6 46 be
       -0.011933735 0.037963968 0.32468367 -0.19405706
000300 a4 b8 c2 bd 8b 74 ac be ed 3e 0b 3e 79 1e a4 3d
       -0.09507874 -0.33682665 0.13598223 0.08013625
000310 8a 5a 93 3e bb e5 10 3f 20 b6 54 bd 0c 30 67 3b
       0.28780013 0.5660054 -0.0519315 0.003527644
000320 4f f8 1f be b2 c2 98 bd f6 9a 20 3f ca af 26 be
       -0.15622066 -0.0745901 0.6273645 -0.16277996
000330 5a 1f 1c 3f 78 f3 88 3d 5b 46 29 be af 4f 1a be
       0.6098534 0.06687063 -0.16530745 -0.1506946
000340 e7 a7 62 be 11 de 01 3d 3a 2e b7 be 3d 2d 3e be
       -0.22134362 0.03170592 -0.35777456 -0.18571945
000350 8b b9 bd 3e 70 25 f6 3e e5 41 4e bd 2b 9e d0 3e
       0.3705562 0.48075438 -0.05035581 0.40745673
000360 3f d3 9d 3e 74 8e f7 be 18 49 1d 3e 16 80 2d 3e
       0.3082523 -0.4835087 0.15359914 0.16943392
000370 8c 8c b5 bd 62 ee 34 bd bd 3b 5f be d4 70 9b 3d
       -0.08864698 -0.044172652 -0.21800132 0.0758988
000380 33 c1 d3 3c 8c 9c 1f 3e 7f 71 cf 3c 10 46 45 3e
       0.02584896 0.15587062 0.025322674 0.19265008
000390 ba 75 c5 bd a0 62 2f bd a3 eb dd bd 73 01 6a be
       -0.09641595 -0.042818666 -0.1083596 -0.22852115
0003a0 d3 35 20 3e 75 10 28 be d0 c0 25 3e cd 11 fc bd
       0.15645532 -0.16412528 0.16186833 -0.12308083
0003b0 6c ba 11 be 78 96 55 be e7 64 0a be 99 a8 28 3e
       -0.1423127 -0.2085818 -0.13515054 0.16470565
0003c0 6b a0 03 be a5 2f 4f 3e a3 24 b3 3c eb 96 1c be
       -0.12854163 0.20233019 0.021868056 -0.15291946
0003d0 23 0b 7c bd 37 87 df bd b8 14 c2 3d fe dd cb 3c
       -0.06153406 -0.10914462 0.09476608 0.024886128
0003e0 a5 7b ff bd f1 8b 11 3e ff 55 13 be b3 0a 95 3b
       -0.12474755 0.1421354 -0.14388274 0.0045483946
0003f0 7d 2d 2f bd 82 c8 4f 3d 2d 33 b7 3c 1d 3b dc bd
       -0.04276799 0.05072833 0.02236327 -0.107534625

fc5.bias f4 [20]
000000 a3 3b 0b 3f 3a 77 8a be 5f 36 a8 3e fe 88 53 be
       0.54387873 -0.27044088 0.32853982 -0.20657727
000010 3e eb 0e 3f a4 03 6e be 47 10 16 3f 47 43 80 be
       0.558277 -0.23243576 0.5861859 -0.2505133
000020 f2 4b 57 bb 0e ef fc 3e 35 42 58 bc 05 c2 22 3d
       -0.0032851663 0.49401134 -0.013199379 0.039735813
000030 c6 79 f7 bd 94 7c 2c 3d 63 f2 ca bd fc 26 2d 3d
       -0.12083773 0.042110994 -0.09909513 0.042273507
000040 72 72 db bd 10 6e ab be 49 24 c4 bd c1 b6 33 be
       -0.10715188 -0.3348241 -0.09577233 -0.17550184

fc6.weight f4 [3, 20]
000000 c4 bc 29 3e ff 8a f5 3e c4 19 8a 3c d5 9f 0c 3f
       0.16575915 0.47957608 0.01685799 0.54931384
000010 bb 76 42 bf b2 bd fa 3d 53 1e 43 bf e4 81 1a 3e
       -0.7596242 0.12243213 -0.76218146 0.15088612
000020 9f 17 2a bc 29 45 3f bf f3 7b f6 3e 1b df b2 bc
       -0.010381608 -0.74714905 0.4814144 -0.0218349
000030 ba 27 86 3d ef ff fd bc f9 82 16 be a4 20 4d 3d
       0.06550546 -0.031005828 -0.146984 0.050079957
000040 61 6a 4f 3e 51 81 21 be 5e 9b c8 3d f7 9c 32 3f
       0.20255424 -0.15771987 0.09795259 0.6977076
000050 ce b8 23 3f 3c 51 11 bf 2f 84 1b 3f d7 db 64 be
       0.63953865 -0.5676458 0.6074857 -0.22349487
000060 e9 f3 d0 3e 0c 55 7e bc 3f c0 10 3f f4 c9 ed 3d
       0.4081109 -0.015523206 0.56543344 0.11610785
000070 ad 5f 0a 3d 85 84 7f 3e 94 52 4a 3d de c0 e3 3d
       0.03378265 0.24952896 0.04939516 0.11120771
000080 c0 b0 4c 3e 33 5d 1e be 00 30 a0 bd 09 f9 ed bd
       0.199893 -0.1546524 -0.07821655 -0.11619765
000090 f0 42 0e bf 26 d1 59 be 00 25 ad be bd 88 20 bf
       -0.5557089 -0.2127119 -0.3381729 -0.62708646
0000a0 53 bb 15 bf 6f 5e 1f be 4c 3c 1e bf b5 7d 2d bf
       -0.5848896 -0.15563367 -0.61810756 -0.6776994
0000b0 6c e7 aa 3e cc f7 f4 bc 32 02 28 3e 17 04 1b be
       0.33379686 -0.029903315 0.16407087 -0.15138279
0000c0 26 92 0d 3e 80 a3 23 bd 48 05 08 bf 57 fa b9 bd
       0.13825282 -0.039950848 -0.5313306 -0.09080952
0000d0 10 66 4b be d1 94 20 3d f3 60 40 ba 87 f9 2f be
       -0.19863153 0.039204422 -0.00073386653 -0.17185031
0000e0 39 28 2f 3f 0d 71 14 3f c2 84 02 be 5a df 8c be
       0.6842075 0.57985 -0.12745956 -0.27514154

fc6.bias f4 [3]
000000 82 14 82 be bb ba c4 3e 42 41 ce be
       -0.2540627 0.38423714 -0.40284163
