models_3val/xor_and_9.pth (torch, 12178 bytes, 12 tensors)

fc1.weight f4 [20, 12]
-0.051832706 -0.12502867 -0.06786118 0.12643349 0.10099003 0.28386414 0.32509705 0.17373957
0.14695232 0.22079343 0.30606866 -0.004681347 0.005194877 -0.0025710736 -0.008234084 0.08800221
0.067461886 0.1287609 -0.75017864 -0.62385654 0.27912608 0.0013670471 0.0044007017 0.009954724
-0.018839398 -0.013467275 -0.044247907 0.054542217 0.15346691 0.15896758 -0.72884893 0.0370166
0.24811652 -0.002292447 -0.008065127 -0.010843903 0.049858663 0.03671898 0.0035263624 0.082455084
0.07391883 -0.20337154 -0.24017803 -0.14991407 0.28811195 0.05252403 0.028669642 -0.015419963
0.2803149 0.24749646 0.1824445 0.29318643 0.32593653 -0.13556612 0.13788715 0.047315903
0.42302936 0.15360965 -0.05896186 0.030937636 0.02398098 0.020608345 0.06305892 0.083995804
0.025121765 0.082228005 0.1383564 0.07636723 -0.5388223 0.013875737 0.01268254 0.016603472
0.14572817 -0.13103577 0.07372256 0.15088312 0.24226746 -0.30354625 -0.08689249 0.27560142
0.06050361 -0.047635693 0.015909128 0.0063127056 -0.12940823 0.19364397 0.29355982 0.30236164
0.0653736 0.118459955 0.2954037 0.07754756 0.35880607 0.27332178 0.26803082 0.15477641
0.048095703 0.110073805 0.27082253 0.19161734 -0.0035094572 0.32547757 -0.32588798 0.40389264
-0.12737915 0.057126928 -0.027242148 0.04986028 0.12399887 0.06820655 0.040758725 -0.15627584
0.06160604 -0.17278804 -0.4750914 -0.49244422 0.012714089 0.030925758 0.05186702 0.11168591
0.08954909 -0.100196056 0.097166695 0.16299626 0.4033145 -0.022061257 -0.049742453 0.00995221
0.3376578 -0.15865244 0.08575781 0.08578407 -0.030595463 0.051994592 -0.01946428 -0.0154824965
-0.040207725 -0.18765874 -0.3009247 0.5508824 0.19820082 0.016987503 0.0065858536 0.0060153897
0.24246949 0.15525363 0.21081068 -0.0131546 0.23240452 -0.06233763 0.003939221 0.050981723
-0.118559755 0.3382303 0.27448848 0.0909556 0.19905196 -0.029953843 0.06440809 0.18616895
-0.025603864 0.12100569 0.31139046 0.34353095 0.03439302 -0.05437609 0.15890495 0.1481781
0.23617871 0.20213653 0.0072631286 0.20138814 0.24717861 -0.074898936 0.12498712 -0.025852244
-0.27524245 -0.033173453 -0.019141566 0.023954052 0.30010054 0.21374062 -0.027090997 0.35745004
-0.080887735 0.26765686 0.08087821 0.035267062 0.049351633 0.041490752 0.0938583 0.15610455
-0.034899693 -0.024775015 0.018565435 0.19700226 -0.07306298 0.12854119 0.19197556 0.2997035
-0.32161924 0.023412947 -0.033503734 0.1427416 -0.0270764 0.054220818 -0.030535609 0.21339151
-0.07013665 -0.007709193 0.2858017 0.35722005 -0.16216241 -0.09025572 0.16819762 0.07308245
0.02690355 0.041315097 0.06271617 0.06470679 0.1244395 0.24100237 0.18922628 0.32738817
-0.43765667 0.1173074 0.09653302 -0.03364685 0.014972654 0.006595206 -0.005134464 -0.07534545
-0.5622447 -0.58984065 0.2660519 -0.68252975 0.23316191 0.015654404 0.0129867755 0.016013842
00000000: 884e 54bd 8407 00be cdfa 8abd c877 013e
00000010: dcd3 ce3d a456 913e 1f73 a63e c9e8 313e
00000020: ab7a 163e ac17 623e 08b5 9c3e fc65 99bb
00000030: c939 aa3b 757f 28bb 40e8 06bc 813a b43d
00000040: 7529 8a3d e6d9 033e b50b 40bf 10b5 1fbf
00000050: 9de9 8e3e 7d2e b33a c333 903b 2419 233c
00000060: 1555 9abc d8a5 5cbc 4b3d 35bd a967 5f3d
00000070: 6e26 1d3e 66c8 223e d895 3abf b89e 173d
00000080: 4212 7e3e e13c 16bb 9823 04bc a0aa 31bc
00000090: 9938 4c3d a466 163d 8b1a 673b 36de a83d
000000a0: c162 973d a140 50be 3bf1 75be 1383 19be
000000b0: 6983 933e 7023 573d 99dc ea3c 03a4 7cbc
000000c0: 6f85 8f3e b66f 7d3e bbd2 3a3e 881c 963e
000000d0: 27e1 a63e d8d1 0abe 4a32 0d3e 52ce 413d
000000e0: 4e97 d83e d94b 1d3e fe81 71bd ed70 fd3c
000000f0: c373 c43c d5d2 a83c 0925 813d fe05 ac3d
00000100: 29cc cd3c 2867 a83d 4dad 0d3e 6c66 9c3d
00000110: 42f0 09bf 0f57 633c 6eca 4f3c 0104 883c
00000120: c439 153e 3e2e 06be dbfb 963d 1b81 1a3e
00000130: f614 783e 6a6a 9bbe b1f4 b1bd a11b 8d3e
00000140: a2d2 773d a51d 43bd dc53 823c d0da ce3b
00000150: 9783 04be 9b4a 463e 794d 963e 25cf 9a3e
00000160: 98e2 853d 229b f23d 273f 973e 41d1 9e3d
00000170: 6eb5 b73e d5f0 8b3e 563b 893e b57d 1e3e
00000180: 0000 453d 606e e13d 40a9 8a3e 5637 443e
00000190: ecfe 65bb ffa4 a63e cada a6be 04cb ce3e
000001a0: ae6f 02be edfd 693d ed2a dfbc 4b3a 4c3d
000001b0: 1ff3 fd3d e0af 8b3d 9ff2 263d c606 20be
000001c0: 9d56 7c3d 59ef 30be 2e3f f3be a621 fcbe
000001d0: c14e 503c 0458 fd3c 8372 543d 95bb e43d
000001e0: 8365 b73d 9733 cdbd 55ff c63d 7ee8 263e
000001f0: 3d7f ce3e cfb9 b4bc bebe 4bbd 980e 233c
00000200: 7ce1 ac3e c975 22be caa1 af3d 8faf af3d
00000210: 56a3 fabc 48f8 543d 8e73 9fbc 4caa 7dbc
00000220: dbb0 24bd 9d29 40be cd12 9abe a106 0d3f
00000230: 28f5 4a3e 6029 8b3c 25ce d73b bf1c c53b
00000240: ec49 783e cffa 1e3e c1de 573e 6486 57bc
00000250: 73fb 6d3e be55 7fbd 9514 813b 36d2 503d
00000260: 75cf f2bd 862c ad3e c189 8c3e ee46 ba3d
00000270: 47d4 4b3e c361 f5bc 64e8 833d 13a3 3e3e
00000280: 32bf d1bc d5d1 f73d 926e 9f3e 4ae3 af3e
00000290: b2df 0c3d 77b9 5ebd fbb7 223e 00bc 173e
000002a0: d5d8 713e e1fc 4e3e 8aff ed3b b138 4e3e
000002b0: 641c 7d3e 9d64 99bd 3ff9 ff3d 16c8 d3bc
000002c0: 94ec 8cbe e3e0 07bd c6ce 9cbc 4a3b c43c
000002d0: c7a6 993e d2de 5a3e f0ed ddbc b103 b73e
000002e0: 78a8 a5bd 520a 893e 7aa3 a53d 3274 103d
000002f0: f024 4a3d 35f2 293d c838 c03d dfd9 1f3e
00000300: fbf2 0ebd f9f4 cabc 8a16 983c f6ba 493e
00000310: 0ba2 95bd 4da0 033e 3e95 443e bd72 993e
00000320: 47ab a4be 82cc bf3c 363b 09bd db2a 123e
00000330: 54cf ddbc a616 5e3d d025 fabc 4e83 5a3e
00000340: cea3 8fbd 669d fcbb 9a54 923e 8ce5 b63e
00000350: e70d 26be fed7 b8bd ff3b 2c3e 40ac 953d
00000360: d564 dc3c 053a 293d 5671 803d fe84 843d
00000370: 23da fe3d 53c9 763e 89c4 413e 6c9f a73e
00000380: 8914 e0be dd3e f03d 1bb3 c53d 48d1 09bd
00000390: dd4f 753c 991c d83b 013f a8bb b74e 9abd
000003a0: 45ef 0fbf ccff 16bf f437 883e 45ba 2ebf
000003b0: ffc1 6e3e aa3d 803c 7cc6 543c 762f 833c

fc1.bias f4 [20]
-0.033971537 0.12372491 -0.25101832 0.41490287 0.14868917 0.011336916 -0.18238792 -0.0067213173
0.4954762 0.28415003 0.5756408 -0.21501847 0.085331134 -0.25410664 0.5332297 -0.10335082
0.28250787 -0.04253238 -0.024686623 -0.07859639
00000000: bd25 0bbd 7c63 fd3d 7985 80be 266e d43e
00000010: f941 183e 79be 393c e6c3 3abe 7f3e dcbb
00000020: 0eaf fd3e 1d7c 913e 325d 133f cd2d 5cbe
00000030: 17c2 ae3d 441a 82be be81 083f 98a9 d3bd
00000040: dfa4 903e 6f36 2ebd 9a3b cabc 25f7 a0bd

fc2.weight f4 [20, 20]
-0.052764144 -0.765239 0.45704654 -0.14816117 0.15066245 -0.077071436 0.0012308116 0.16021527
-0.13835566 -0.20697804 0.32151693 -0.18435688 0.036109027 -0.098499924 0.25796288 0.0875082
-0.094125494 -0.1389347 0.14746858 -0.49344346 -0.1958183 0.4905904 -0.29663447 0.22156087
-0.060266487 0.33491164 -0.072978586 0.2265018 0.0807581 0.15812565 0.14986783 0.020543158
0.087647215 -0.044402227 0.14327727 0.21771501 0.07648233 -0.10583804 0.13267507 0.42799872
0.10353407 -0.4202323 0.4715165 -0.020818485 0.15208207 -0.3284792 0.23418613 0.26552224
0.1247532 -0.23352596 0.017584413 0.13726278 -0.058833614 -0.07484029 0.14283633 -0.09773364
0.10326672 0.097626 -0.19043131 -0.6173614 0.13099457 0.9163641 -0.36238417 0.39868048
-0.012652778 0.37371066 0.053323474 0.22108746 0.1722757 0.3745475 0.1461811 -0.2635936
0.31208548 -0.027681278 0.38499066 -0.03784329 0.34490585 -0.014204445 0.09434555 0.381773
0.19494644 -0.11428167 -0.19880898 -0.19336843 -0.22945403 -0.038735997 0.05421458 -0.1605007
-0.124042995 -0.04518234 0.12042085 0.19302188 -0.12943877 -0.15303072 0.1195781 0.01620709
-0.019466372 -0.07374908 -0.1437555 -0.1640677 0.072286434 0.767828 -0.43181244 0.02019838
0.16672952 0.3174369 0.05377016 -0.030567849 0.38108772 0.34155026 0.12589218 -0.3624075
0.30118072 0.2080349 0.19006054 0.097600244 0.22406255 -0.021027135 0.27054766 0.4377937
0.10572775 0.7840447 -0.2515548 0.47412786 -0.17851438 0.45925185 0.11729919 -0.10700471
0.07898986 0.1694986 0.057624947 -0.06837006 0.3413458 -0.114999495 0.3419309 -0.02338366
0.3182106 0.43849936 0.40835628 0.42511478 0.115465365 -0.5543845 0.096335895 -0.032179628
0.24965806 0.023806201 0.21948496 0.2506563 0.24318367 -0.02438694 0.41469818 0.30866563
0.07183319 0.1449615 0.278083 -0.098492675 -0.121457435 -0.08795305 0.056032337 -0.3581509
-0.026925279 0.7871533 0.017330756 0.3748616 -0.047492165 0.36823097 0.004307765 -0.005435471
-0.13943298 0.33339128 0.26627046 -0.17259428 0.14793758 -0.24284066 0.23649915 -0.17645133
0.2013062 -0.00052943727 -0.07149614 0.7468139 0.048075717 0.8208891 -0.1683202 0.15710655
-0.12363387 0.08623614 -0.10849302 0.10886355 0.34117398 0.22179511 0.17413408 -0.19645733
0.29643616 -0.20934235 -0.12861885 -0.17525698 -0.050112244 0.100066096 0.13101214 0.47622797
0.23697057 -0.5864994 0.43651924 0.11622442 0.036160953 -0.34707126 0.16474165 0.2342634
0.22874641 -0.054750327 0.34844857 0.16290477 0.08292591 0.25581414 -0.06651684 0.07083488
0.15695824 0.21438406 -0.22580475 -0.54183406 -0.09094778 -0.59019417 0.15021083 -0.23171109
0.30021444 -0.1565824 0.05795689 0.012641924 0.32664308 -0.12878297 0.050731488 0.20448504
0.08931502 0.084522985 0.08111568 0.20977649 -0.22372828 -0.10960789 0.003098126 -0.60742646
-0.13506207 -0.3596656 0.23667666 0.14615786 -0.3639074 0.38227153 0.10578478 -0.268824
0.12197081 -0.1389734 -0.40762034 -0.037987262 0.3654554 0.006826915 0.3183952 0.07825353
00000000: 371f 58bd b4e6 43bf 0102 ea3e 90b7 17be
00000010: 4247 1a3e a1d7 9dbd 2f53 a13a 790f 243e
00000020: 1bad 0dbe 0df2 53be de9d a43e 0dc8 3cbe
00000030: 0fe7 133d 54ba c9bd b613 843e 8037 b33d
00000040: dec4 c0bd e644 0ebe 0102 173e 9fa4 fcbe
00000050: 9884 48be aa2e fb3e 79e0 97be dae0 623e
00000060: fed9 76bd 8a79 ab3e cc75 95bd 16f0 673e
00000070: 8164 a53d b1eb 213e f476 193e 204a a83c
00000080: 6280 b33d 1cdf 35bd 47b7 123e aff0 5e3e
00000090: c5a2 9c3d 9dc1 d8bd f9db 073e a622 db3e
000000a0: ac09 d43d b028 d7be 9c6a f13e 878b aabc
000000b0: 67bb 1b3e 6d2e a8be 7dce 6f3e 88f2 873e
000000c0: 9b7e ff3d 6e21 6fbe 300d 903c 9d8e 0c3e
000000d0: 84fb 70bd de45 99bd b043 123e 9328 c8bd
000000e0: 817d d33d 24f0 c73d 6d00 43be 660b 1ebf
000000f0: 7123 063e d696 6a3f 6b8a b9be d91f cc3e
00000100: 994d 4fbc 0157 bf3e b769 5a3d c064 623e
00000110: 0b69 303e b1c4 bf3e 80b0 153e bef5 86be
00000120: abc9 9f3e d9c3 e2bc 7f1d c53e 9101 1bbd
00000130: 8097 b03e c3b9 68bc 3d38 c13d c077 c33e
00000140: 0aa0 473e 820c eabd 9594 4bbe 6002 46be
00000150: fff5 6abe a3a9 1ebd 1c10 5e3d 4c5a 24be
00000160: 410a febd 1e11 39bd 359f f63d 87a7 453e
00000170: 998b 04be 16b4 1cbe 5de5 f43d bbc4 843c
00000180: f177 9fbc c209 97bd a434 13be 5d01 28be
00000190: e90a 943d 6090 443f 8516 ddbe 1377 a53c
000001a0: 25bb 2a3e 1787 a23e 193e 5c3d 6d69 fabc
000001b0: ee1d c33e addf ae3e e1e9 003e 7a8d b9be
000001c0: 5c34 9a3e 1a07 553e 3b9f 423e a3e2 c73d
000001d0: a770 653e 1941 acbc 3985 8a3e 7f26 e03e
000001e0: ca87 d83d 27b7 483f cacb 80be e3c0 f23e
000001f0: 79cc 36be 0f23 eb3e 8f3a f03d 4925 dbbd
00000200: 70c5 a13d 0a91 2d3e 2308 6c3d 9a05 8cbd
00000210: e0c4 ae3e db84 ebbd 9111 af3e 178f bfbc
00000220: 80ec a23e fd82 e03e 1314 d13e a5a8 d93e
00000230: 1b79 ec3d 25ec 0dbf c14b c53d c9ce 03bd
00000240: 5da6 7f3e 3905 c33c aac0 603e 0656 803e
00000250: 2405 793e 1fc7 c7bc 5253 d43e 6c09 9e3e
00000260: 481d 933d ca70 143e e560 8e3e 87b6 c9bd
00000270: adbe f8bd bb20 b4bd 2a82 653d 8e5f b7be
00000280: 6792 dcbc e182 493f 3bf9 8d3c dced bf3e
00000290: 2587 42bd c588 bc3e 2728 8d3b 091c b2bb
000002a0: 85c7 0ebe 43b2 aa3e 9a54 883e 8ebc 30be
000002b0: f37c 173e 39ab 78be d52c 723e a8af 34be
000002c0: 3623 4e3e efc9 0aba 916c 92bd 322f 3f3f
000002d0: 0beb 443d ca25 523f 215c 2cbe 8ae0 203e
000002e0: c133 fdbd 939c b03d 9731 debd daf3 de3d
000002f0: 5bae ae3e 421e 633e 3450 323e 1c2c 49be
00000300: 7bc6 973e d75d 56be a9b4 03be 9176 33be
00000310: 7f42 4dbd 74ef cc3d 0c28 063e 27d4 f33e
00000320: 6aa8 723e d324 16bf 737f df3e 1207 ee3d
00000330: 821d 143d 53b3 b1be 09b2 283e bfe2 6f3e
00000340: 803c 6a3e e141 60bd da67 b23e 82d0 263e
00000350: 0fd5 a93d 12fa 823e fb39 88bd e111 913d
00000360: a9b9 203e 7f87 5b3e 5c39 67be a3b5 0abf
00000370: d442 babd f716 17bf ded0 193e ac45 6dbe
00000380: b5b5 993e 2357 20be 3464 6d3d 1320 4f3c
00000390: c33d a73e afdf 03be d2cb 4f3d 8764 513e
000003a0: cbea b63d 631a ad3d fa1f a63d a6cf 563e
000003b0: 0719 65be 1a7a e0bd ee09 4b3b 4d80 1bbf
000003c0: b64d 0abe 1726 b8be 5e5b 723e 68aa 153e
000003d0: 1252 babe 18b9 c33e b1a5 d83d 4da3 89be
000003e0: d5cb f93d 0b4f 0ebe 9db3 d0be 8898 1bbd
000003f0: f81c bb3e 50b4 df3b b204 a33e 6343 a03d

fc2.bias f4 [20]
-0.025880614 0.37977716 -0.1748662 0.38149595 0.016116738 0.0030272682 0.03978113 0.22657408
0.057678603 0.27844378 -0.0023286552 0.25083265 0.011865866 -0.13554156 0.14507006 0.114543125
0.17977747 0.18083984 0.19493516 -0.13434343
00000000: 9503 d4bc 2772 c23e 2010 33be 7053 c33e
00000010: 4007 843c 2265 463b 8af1 223d 0903 683e
00000020: 6640 6c3d 2f90 8e3e 5a9c 18bb 236d 803e
00000030: 0d69 423c 68cb 0abe 3f8d 143e 9695 ea3d
00000040: 9617 383e 142e 393e 159d 473e 5391 09be

fc3.weight f4 [20, 20]
0.21729161 -0.079250276 0.3397915 -0.12069307 -0.13354434 -0.15765546 0.10553825 0.12637505
-0.20887263 -0.2927331 0.02466553 0.2546244 -0.49260038 0.06668418 0.05730323 0.10234867
0.15386547 -0.008017435 0.28040764 0.27996925 0.08890887 0.2924531 0.17062679 -0.1254159
0.17263424 -0.053575683 -0.03147707 0.34202027 -0.3039131 -0.40238184 -0.010236294 0.30191302
-0.5454289 0.37861234 -0.2673273 -0.42284483 0.108560145 0.18592604 0.30477163 0.22545624
0.19126733 -0.0006254719 -0.1581529 0.1782066 -0.19069573 -0.04442062 -0.2582154 -0.15275598
-0.031247204 0.16575302 0.023875833 0.14507627 -0.013774089 -0.0073865056 -0.12231975 0.13942496
-0.20640299 0.06748156 -0.083491 -0.23634593 -0.05252695 0.11395589 -0.0036188322 0.16683377
-0.062144537 -0.19589086 0.17382151 -0.1829313 0.0030453706 -0.1345621 0.09883589 -0.10977844
-0.19925325 -0.012445661 -0.17781267 -0.054427616 -0.017622083 0.1611328 -0.114518166 -0.072844476
-0.044354163 -0.18268949 0.06952113 -0.04679527 0.19535255 0.017724214 -0.24646814 -0.12441058
-0.16865773 0.17961897 -0.09181332 -0.18143135 -0.12187697 0.17237104 0.14035101 -0.24545896
0.10254508 -0.2581542 -0.1712235 0.17813523 0.1532358 -0.0052379793 -0.3309163 0.10663153
0.044834577 0.10122836 0.44908485 -0.01932834 0.5797677 0.0120993415 -0.19990689 -0.3245562
0.5431336 -0.1875862 0.21798608 0.260058 0.08403093 -0.4628968 0.15253757 -0.25410533
0.05173884 0.2537314 0.030941982 0.33236998 -0.14892884 -0.05974607 0.34411913 0.18245658
0.12136052 0.5369217 -0.30653742 0.35452557 0.221111 -0.28192404 0.28203622 0.11854978
0.08328384 0.26215434 0.094742626 0.029793823 -0.25021857 0.058348935 -0.30408987 0.24913509
-0.11510636 0.19005845 0.20556939 0.009125941 0.14460945 0.2778727 0.10302028 -0.023359042
0.30682847 -0.24584703 0.4068516 0.27743196 -0.10590718 -0.17527927 0.00053136045 -0.011765603
0.3342525 0.051422045 0.17046703 0.021459775 -0.14171576 0.0051194504 -0.17703849 0.1786662
-0.24992166 -0.24958248 0.25110614 0.32200298 -0.34840265 0.33975127 -0.10459595 -0.25758553
0.22380684 0.35777828 0.29012054 0.26357803 0.433272 0.1142594 0.31101677 -0.12936369
-0.1550568 -0.07927591 -0.19493763 0.26862884 -0.5882529 -0.039243195 0.3019736 0.3146876
-0.6202192 0.10134566 -0.26583424 -0.2516702 0.07898513 0.12474522 0.21844907 0.19345997
-0.25245953 0.18557172 -0.16718662 -0.04648845 0.09114925 0.33836946 0.20185463 -0.32534733
0.46861282 0.37378767 -0.14635499 -0.36783355 0.5212408 -0.1538764 0.33333954 0.18726625
0.041482687 -0.014691307 -0.05561259 -0.04335914 0.12258207 -0.03776759 -0.18140252 -0.015093057
-0.16312848 -0.09413857 0.056643616 -0.041430794 -0.088320866 -0.083911434 -0.040711507 -0.02670804
-0.017831936 0.08724397 -0.17287774 -0.14266175 0.0024109825 0.08300438 -0.13445245 -0.19705637
-0.12488153 0.10475198 -0.2548829 0.3682472 -0.05447892 0.110598005 0.010592553 0.25602564
0.46063367 0.46471584 0.21393022 0.21832839 0.55587804 -0.282234 0.43391928 0.27276433
00000000: b181 5e3e f84d a2bd 27f9 ad3e ee2d f7bd
00000010: d9bf 08be 6f70 21be 7024 d83d 7668 013e
00000020: b5e2 55be 1de1 95be 5e0f ca3c 215e 823e
00000030: 1e36 fcbe b791 883d cbb6 6a3d 2e9c d13d
00000040: e98e 1d3e 8f5b 03bc 9791 8f3e 2158 8f3e
00000050: db15 b63d 6abc 953e cab8 2e3e 076d 00be
00000060: 08c7 303e 2d72 5bbd 1aee 00bd 481d af3e
00000070: 7f9a 9bbe fe04 cebe 21b6 27bc 5894 9a3e
00000080: 3aa1 0bbf 7ad9 c13e 20df 88be 1e7f d8be
00000090: c854 de3d 6563 3e3e 070b 9c3e 00de 663e
000000a0: 95db 433e b5f6 23ba d5f2 21be ca7b 363e
000000b0: be45 43be 65f2 35bd cf34 84be 106c 1cbe
000000c0: 23fa ffbc 29bb 293e 4097 c33c e08e 143e
000000d0: b7ac 61bc 800a f2bb c782 fabd 6bc5 0e3e
000000e0: 4e5b 53be c633 8a3d 54fd aabd ab04 72be
000000f0: 8026 57bd b561 e93d ee29 6dbb 79d6 2a3e
00000100: 458b 7ebd 9d97 48be 44fe 313e 5852 3bbe
00000110: d794 473b a6ca 09be 796a ca3d 85d3 e0bd
00000120: 0b09 4cbe e3e8 4bbc 8614 36be 7eef 5ebd
00000130: 305c 90bc ffff 243e 8088 eabd 7c2f 95bd
00000140: b6ac 35bd f412 3bbe 1861 8e3d 66ac 3fbd
00000150: 800a 483e 5f32 913c 2562 7cbe f9ca febd
00000160: 9db4 2cbe 09ee 373e 9f08 bcbd 24c9 39be
00000170: a29a f9bd 0982 303e 2db8 0f3e 9859 7bbe
00000180: 2803 d23d ca2c 84be 3755 2fbe 1569 363e
00000190: d8e9 1c3e 5ba3 abbb dc6d a9be a261 da3d
000001a0: 76a4 373d d050 cf3d 73ee e53e 7856 9ebc
000001b0: a86b 143f 513c 463c 64b4 4cbe 3b2c a6be
000001c0: ce0a 0b3f 9916 40be be37 5f3e 5226 853e
000001d0: 6918 ac3d cf00 edbe cf32 1c3e 181a 82be
000001e0: 1bec 533d 15e9 813e 0a7a fd3c 662c aa3e
000001f0: cd80 18be 4cb8 74bd 6230 b03e e6d5 3a3e
00000200: dd8b f83d b373 093f 79f2 9cbe 6084 b53e
00000210: ec6a 623e 5958 90be 0d67 903e 3aca f23d
00000220: b890 aa3d 1839 863e 6c08 c23d 2d12 f43c
00000230: a61c 80be 4bff 6e3d abb1 9bbe 451d 7f3e
00000240: e2bc ebbd af9e 423e c880 523e f984 153c
00000250: 8014 143e 5545 8e3e 4cfc d23d 765b bfbc
00000260: 9f18 9d3e 53bf 7bbe da4e d03e 900b 8e3e
00000270: dde5 d8bd 697c 33be ff4a 0b3a 84c4 40bc
00000280: 2523 ab3e ec9f 523d e98e 2e3e 69cc af3c
00000290: f01d 11be 10c1 a73b 9449 35be 46f4 363e
000002a0: 77eb 7fbe 8d92 7fbe fc90 803e 93dd a43e
000002b0: d561 b2be e1f3 ad3e 6736 d6bd 40e2 83be
000002c0: 9f2d 653e b72e b73e ae8a 943e b3f3 863e
000002d0: d4d5 dd3e d500 ea3d 973d 9f3e ea77 04be
000002e0: 36c7 1ebe 695b a2bd bb9d 47be b889 893e
000002f0: be97 16bf 79bd 20bd 499c 9a3e bc1e a13e
00000300: afc6 1ebf 508e cf3d 6d1b 88be ebda 80be
00000310: f5c2 a13d 6c7a ff3d 1db1 5f3e 5f1a 463e
00000320: 6042 81be 8306 3e3e f832 2bbe ac6a 3ebd
00000330: 75ac ba3d c33e ad3e fbb2 4e3e ed93 a6be
00000340: 05ee ef3e 1961 bf3e 15de 15be ae54 bcbe
00000350: 0970 053f c691 1dbe 7bab aa3e b9c2 3f3e
00000360: c0e9 293d cfb3 70bc 07ca 63bd 5b99 31bd
00000370: 4f0c fb3d 30b2 1abd 95c1 39be df48 77bc
00000380: 270b 27be b9cb c0bd 2303 683d 56b3 29bd
00000390: 92e1 b4bd c2d9 abbd 1cc1 26bd d2ca dabc
000003a0: 4814 92bc f7ac b23d dd06 31be ec15 12be
000003b0: 9301 1e3b 33fe a93d e7ad 09be 25c9 49be
000003c0: e3c1 ffbd 3588 d63d 0380 82be e68a bc3e
000003d0: 4a25 5fbd 3581 e23d 638c 2d3c cb15 833e
000003e0: 2dd8 eb3e 3cef ed3e 8610 5b3e 7a91 5f3e
000003f0: 064e 0e3f fa80 90be ab2a de3e c4a7 8b3e

fc3.bias f4 [20]
0.035891663 0.043421768 -0.034031413 -0.08371807 0.13199496 -0.0026462455 0.09818662 -0.02830485
0.008901756 0.04719676 -0.076314405 -0.062871575 0.28649193 0.4107339 -0.019549973 0.10329725
0.21165814 0.057334047 -0.08668881 -0.011719189
00000000: 2303 133d 06db 313d 8664 0bbd 6174 abbd
00000010: b029 073e a26c 2dbb 1116 c93d 93df e7bc
00000020: acd8 113c 6451 413d ba4a 9cbd d0c2 80bd
00000030: 12af 923e b74b d23e 4427 a0bc 828d d33d
00000040: e9bc 583e 1bd7 6a3d e789 b1bd d701 40bc

fc4.weight f4 [20, 20]
0.12890184 0.09438775 0.11911202 0.16780807 -0.15022933 -0.19471814 0.03514435 -0.029291896
-0.098763324 0.088287696 0.06484066 0.17709188 0.013271737 -0.15707839 0.034050833 0.19203271
-0.1229897 -0.0952622 0.20677476 -0.05010711 0.27105507 0.30824104 0.1554142 0.0111666545
-0.1568411 0.1812596 0.030131599 -0.0069495523 0.09601669 0.2540342 -0.4449014 0.08172406
-0.042157385 -0.124574535 -0.2677211 -0.16517618 -0.05018434 -0.016484294 0.100154035 0.17491566
0.2254219 0.1060002 0.05791955 0.05634715 0.17539743 -0.24953933 0.00046343496 0.065090865
0.15577212 0.32490844 -0.45373988 0.16715209 0.08188936 0.056165263 -0.26255587 0.022866335
0.007243214 -0.64812535 -0.41971844 0.10354738 0.17557395 0.06769879 0.21751486 0.025924327
0.12358087 -0.15368196 0.012088333 -0.13305207 -0.093677156 -0.047113046 0.21892849 0.09286534
0.14101954 -0.10806629 -0.10659156 -0.035796486 -0.14275154 -0.082182206 0.044505164 -0.11501097
-0.021649968 -0.25334233 0.110360876 -0.082838714 -0.12087719 0.6122014 0.20622392 0.36156598
-0.24305643 -0.29692683 0.32893893 0.14036144 0.17960146 0.2888774 0.2277893 0.117879
0.50706834 0.5959895 0.7132858 0.09906424 0.3369557 0.3599923 0.013333689 -0.23065978
0.0604185 -0.30056575 0.16984554 -0.026372677 0.36121684 0.4470007 -0.4097918 0.20048994
-0.21062386 0.105186805 -0.2496542 -0.09215431 -0.0074754404 -0.52064216 -0.32908824 0.13100648
-0.12458535 0.09595121 0.14385338 -0.18552019 -0.065109335 -0.029835124 -0.056995522 -0.07701595
0.12605461 -0.029719526 -0.04903226 -0.1591852 -0.23389673 -0.15018918 -0.19268242 0.09383946
-0.13981117 0.18193379 -0.06406426 0.09931408 -0.06076251 -0.017891912 0.01978623 0.16734517
0.030892245 0.034089256 -0.042788893 0.08979053 -0.0262092 -0.12978642 -0.07274434 0.1467358
0.04022362 -0.22745678 0.008525227 -0.12235431 0.21840426 -0.08867827 0.023733037 0.068553366
0.3106355 0.15276416 -0.07067161 0.11485023 0.063989475 -0.40773302 0.07309262 -0.30046389
0.32994205 0.17049731 -0.5452819 -0.043947734 -0.0034738607 0.08840276 -0.0366067 -0.27469453
-0.06961822 -0.5031412 -0.42353398 0.14804208 -0.006572198 -0.14473884 -0.2053732 -0.22118512
-0.11526614 -0.14910825 -0.1287416 -0.16993207 -0.078935765 -0.061651837 -0.02308268 -0.002498281
0.07595763 -0.14861144 -0.17713444 -0.13950542 0.09417017 -0.12100499 -0.043979187 0.1660736
-0.08662417 -0.17826042 0.14536212 0.005596301 0.15008228 0.048892044 -0.04262989 0.049552318
-0.021277348 0.12874041 -0.07645258 -0.089743204 0.013543817 -0.045779064 -0.031716827 0.10397354
-0.05817156 -0.18836692 0.15415588 0.14203908 -0.31768 0.009355732 0.0054221 -0.07376435
-0.07478921 -0.38777044 0.04809642 0.061714467 0.15715683 -0.20131339 -0.5168151 0.008783767
0.061001495 0.28118363 0.30675095 0.3007124 0.13506429 -0.40666607 -0.43224284 -0.15153798
-0.17144419 -0.15849344 -0.10126694 -0.14005773 -0.18023147 0.6798456 -0.037702855 0.21941522
-0.23328985 -0.29365188 0.68219584 -0.21369193 0.42054105 0.3119108 0.41387725 0.35686508
00000000: d8fe 033e 5d4e c13d 01f1 f33d e1d5 2b3e
00000010: b8d5 19be 3164 47be 86f3 0f3d 8ff5 efbc
00000020: 6d44 cabd 2ed0 b43d 2ecb 843d 9357 353e
00000030: b371 593c 28d9 20be e378 0b3d 39a4 443e
00000040: 06e2 fbbd d418 c3bd c3bc 533e 1d3d 4dbd
00000050: bbc7 8a3e c5d1 9d3e e624 1f3e 58f4 363c
00000060: f49a 20be 1e9c 393e 8bd6 f63c 12b9 e3bb
00000070: 66a4 c43d c510 823e 1eca e3be f25e a73d
00000080: 39ad 2cbd ef20 ffbd bd12 89be f223 29be
00000090: 188e 4dbd 120a 87bc 8f1d cd3d 171d 333e
000000a0: 00d5 663e a216 d93d 0d3d 6d3d 45cc 663d
000000b0: 629b 333e 3d87 7fbe 30f9 f239 5c4e 853d
000000c0: ba82 1f3e 665a a63e 9850 e8be eb29 2b3e
000000d0: 9cb5 a73d 8c0d 663d b96d 86be 2e52 bb3c
000000e0: 7c58 ed3b 8beb 25bf 56e5 d6be a610 d43d
000000f0: a8c9 333e aaa5 8a3d 37bc 5e3e 415f d43c
00000100: f817 fd3d ce5e 1dbe 250e 463c cd3e 08be
00000110: cfd9 bfbd 9cf9 40bd ca2e 603e 2f30 be3d
00000120: 6d67 103e dc51 ddbd ad4c dabd 569f 12bd
00000130: 762d 12be 254f a8bd 0c4b 363d df8a ebbd
00000140: 465b b1bc 16b6 81be e204 e23d 58a7 a9bd
00000150: 768e f7bd 3bb9 1c3f 5d2c 533e 2d1f b93e
00000160: c9e3 78be cb06 98be af6a a83e e9ba 0f3e
00000170: 72e9 373e bde7 933e 9941 693e 8c6a f13d
00000180: 3bcf 013f c592 183f e699 363f 31e2 ca3d
00000190: 7585 ac3e e950 b83e 8c75 5a3c 1432 6cbe
000001a0: 6479 773d c1e3 99be fdeb 2d3e 830b d8bc
000001b0: 6af1 b83e 47dd e43e 3bd0 d1be 3c4d 4d3e
000001c0: c8ad 57be 2e6c d73d 5aa5 7fbe 66bb bcbd
000001d0: 8af4 f4bb ce48 05bf 417e a8be 9026 063e
000001e0: 9b26 ffbd 1182 c43d 4d4e 133e 01f9 3dbe
000001f0: 0b58 85bd ca68 f4bc 2374 69bd 8aba 9dbd
00000200: 7614 013e 5d76 f3bc 0dd6 48bd 7201 23be
00000210: a082 6fbe 31cb 19be 8a4e 45be e72e c03d
00000220: a92a 0fbe da4c 3a3e 1f34 83bd 2e65 cb3d
00000230: 1ce2 78bd 0f92 92bc bb16 a23c 885c 2b3e
00000240: bc11 fd3c 2da1 0b3d 6843 2fbd 19e4 b73d
00000250: adb4 d6bc bbe6 04be fcfa 94bd e941 163e
00000260: 86c1 243d 6eea 68be 65ad 0b3c e594 fabd
00000270: 5ea5 5f3e f49c b5bd c96b c23c b565 8c3d
00000280: 9e0b 9f3e 356e 1c3e 47bc 90bd 9936 eb3d
00000290: ea0c 833d 62c2 d0be 95b1 953d 67d6 99be
000002a0: 2aee a83e d996 2e3e 9897 0bbf 8a02 34bd
000002b0: b6a9 63bb 820c b53d e8f0 15bd c3a4 8cbe
000002c0: ff93 8ebd ddcd 00bf 72d9 d8be 5898 173e
000002d0: 985b d7bb 6b36 14be 5a4d 52be 5a7e 62be
000002e0: a710 ecbd d5af 18be d7d4 03be ac02 2ebe
000002f0: 13a9 a1bd a386 7cbd e317 bdbc 33ba 23bb
00000300: ad8f 9b3d 992d 18be bb62 35be 82da 0ebe
00000310: 4adc c03d 77d1 f7bd 8523 34bd 330f 2a3e
00000320: 0368 b1bd e689 36be cfd9 143e 2d61 b73b
00000330: 2baf 193e 0643 483d ae9c 2ebd 5ff7 4a3d
00000340: d54d aebc 87d4 033e 2c93 9cbd 49cb b7bd
00000350: e3e6 5d3c d482 3bbd 81e9 01bd 14f0 d43d
00000360: 4d45 6ebd 42e3 40be 0adb 1d3e b172 113e
00000370: f4a6 a2be c948 193c dfab b13b c311 97bd
00000380: 162b 99bd d989 c6be c000 453d 4fc8 7c3d
00000390: b8ed 203e 1925 4ebe ff4d 04bf cae9 0f3c
000003a0: b4dc 793d 4df7 8f3e 760e 9d3e faf6 993e
000003b0: 4b4e 0a3e 8936 d0be ef4e ddbe c62c 1bbe
000003c0: 118f 2fbe 1b4c 22be 0b65 cfbd 4b6b 0fbe
000003d0: 998e 38be 5c0a 2e3f 4f6e 1abd 62ae 603e
000003e0: 89e3 6ebe 8a59 96be 63a4 2e3f 0fd2 5abe
000003f0: 2851 d73e c6b2 9f3e b8e7 d33e 05b7 b63e

fc4.bias f4 [20]
-0.22079349 -0.32954898 0.17659521 -0.09643864 0.0865705 -0.11285693 0.04728513 0.0045264917
-0.16701294 0.036931444 -0.07547855 0.5295546 0.07302841 0.49930277 0.16038594 0.0695675
0.1362899 0.6603665 -0.12536827 0.16839832
00000000: b017 62be a5ba a8be 60d5 343e 9f81 c5bd
00000010: e04b b13d 8921 e7bd 0dae 413d f752 943b
00000020: 7105 2bbe 6d45 173d 7f94 9abd e490 073f
00000030: eb8f 953d 9da4 ff3e 363c 243e 6879 8e3d
00000040: 948f 0b3e c70d 293f 8a60 00be 9c70 2c3e

fc5.weight f4 [20, 20]
0.11044119 -0.010467468 -0.10108123 -0.12717979 -0.07836421 -0.13075803 0.15667962 0.18562305
0.12734556 0.04572529 -0.1022751 -0.006607091 0.035370175 -0.2169397 -0.1811575 0.21257359
0.0060020797 0.02031401 -0.1589456 -0.06660779 0.20164281 -0.098335125 0.16446526 0.18976592
0.42532107 -0.19800353 -0.1701823 0.1169841 0.0005149873 -0.13050523 -0.03339733 0.14965717
0.090828955 0.06823487 0.020122586 -0.16547827 -0.05127397 0.16421765 -0.044223897 0.40291977
0.1670585 -0.17362542 -0.0045666643 0.189229 0.4299645 0.0011626562 -0.19901213 -0.13435067
-0.34804842 0.03677289 -0.17227346 0.27673158 0.43767026 0.36460721 0.029344393 -0.33528632
-0.17596102 0.32318145 0.0079345275 0.29765165 0.08853174 0.0776301 -0.016706733 0.20895353
-0.13236672 -0.07630895 0.19401258 0.20722015 -0.18108921 -0.20573255 0.21545872 -0.08568667
-0.15241219 -0.03415938 -0.07337266 -0.07173947 -0.041224796 -0.11256856 -0.05475336 -0.15124366
0.18028018 0.13358156 -0.19833426 -0.079223864 0.1819403 0.16830915 -0.044074856 0.15573749
-0.12019106 0.019394724 0.18169609 -0.11346048 -0.013137375 -0.16115876 -0.0927749 0.115117915
0.1366729 -0.11002464 -0.09735797 -0.10097003 0.08265388 -0.20022053 -0.15450116 0.034771934
-0.036937557 -0.04250841 -0.057727635 -0.09980084 0.037153278 0.11950656 0.067223355 0.030577237
0.08618293 -0.1582266 0.0152404765 -0.13931794 -0.050559513 0.0017995664 -0.18787748 -0.012595238
0.011775851 0.4803545 0.040458757 -0.18852165 -0.40722308 0.24131252 0.04125489 0.13791147
0.3092707 0.15366413 0.18733951 -0.116589144 -0.2457697 -0.14384289 -0.19024996 0.038274385
0.050235618 0.20276208 -0.20683171 -0.25956827 0.085825436 0.005556505 0.16014273 0.035362814
0.40411177 -0.033612225 0.21423739 0.053223506 -0.3729067 0.16209781 0.093846634 0.23373365
0.40956733 0.2298175 0.23362541 -0.37809122 0.116442375 -0.038004987 -0.0640045 0.39256743
0.11290906 0.4127692 -0.023242492 -0.18250456 -0.52103806 0.06604326 0.004111844 0.11049747
0.2855271 -0.03502023 -0.17956722 -0.26513946 -0.49871397 0.043078378 -0.057833564 0.28852558
-0.1337464 0.113432206 0.17872842 -0.2907113 0.0925647 -0.2975471 -0.07377276 -0.096384645
-0.027767904 0.008113588 -0.2162766 -0.1814295 -0.113832526 0.057269737 -0.12756579 0.295112
-0.036062356 0.23495045 0.11950558 0.0059723635 -0.16102016 0.022722658 0.17885827 -0.20377167
0.13839221 0.60765976 -0.4432776 0.14430894 0.51787865 -0.1656705 0.03298433 0.06598965
-0.56115186 -0.043178707 -0.008158937 0.08167681 0.32360196 -0.057109505 0.00029521165 -0.26383856
0.103684396 -0.40806204 0.11077256 0.24121775 0.13857704 -0.18639438 -0.04368076 0.041702177
0.15621205 -0.16741781 -0.059784893 0.16444218 -0.18394084 -0.208334 -0.0774031 0.1921742
0.29923308 0.098387815 0.059897464 0.030894276 -0.099910446 0.32248655 0.15549868 0.35671756
0.20434907 0.23938745 0.25102046 0.04294422 -0.1297239 0.45796773 0.04319034 0.13795038
0.07361788 0.21484743 -0.19291006 -0.06629972 -0.23229055 -0.21233176 0.3046865 0.107301116
00000000: fe2e e23d be7f 2bbc ad03 cfbd 6b3b 02be
00000010: 6a7d a0bd 6fe5 05be 9f70 203e f813 3e3e
00000020: e066 023e 714a 3b3d 9c75 d1bd 4c80 d8bb
00000030: 51e0 103d 7125 5ebe 5a81 39be e4ac 593e
00000040: 18ad c43b 9169 a63c a3c2 22be aa69 88bd
00000050: 747b 4e3e ed63 c9bd 9569 283e ff51 423e
00000060: afc3 d93e 70c1 4abe 4544 2ebe 5c95 ef3d
00000070: 3600 073a 2aa3 05be a4cb 08bd bb3f 193e
00000080: 8804 ba3d b9be 8b3d 1fd8 a43c 2373 29be
00000090: a804 52bd ac28 283e 1e24 35bd 804b ce3e
000000a0: 6211 2b3e ddca 31be f5a3 95bb 3fc5 413e
000000b0: 4f24 dc3e 4564 983a d6c9 4bbe 3993 09be
000000c0: 6733 b2be 2b9f 163d 7468 30be c3af 8d3e
000000d0: 5116 e03e ccad ba3e a763 f03c a6aa abbe
000000e0: 202f 34be 0a78 a53e d2ff 013c cc65 983e
000000f0: 2150 b53d 88fc 9e3d 8fdc 88bc eaf7 553e
00000100: 248b 07be de47 9cbd 3cab 463e 8531 543e
00000110: 736f 39be 8eab 52be 36a1 5c3e 7e7c afbd
00000120: f111 1cbe b5ea 0bbd 6844 96bd 25ec 92bd
00000130: 55db 28bd 588a e6bd 0f45 60bd 9edf 1abe
00000140: 5e9b 383e 9bc9 083e 2318 4bbe 1f40 a2bd
00000150: 8f4e 3a3e 3c59 2c3e d687 34bd a679 1f3e
00000160: bb26 f6bd afe1 9e3c 8a0e 3a3e f85d e8bd
00000170: 253e 57bc cd06 25be c400 bebd f1c2 eb3d
00000180: fbf3 0b3e 9954 e1bd 9e63 c7bd 60c9 cebd
00000190: 7046 a93d 9c06 4dbe 8d35 1ebe 046d 0e3d
000001a0: d64b 17bd 4c1d 2ebd d073 6cbd 6264 ccbd
000001b0: 092e 183d dbbf f43d 66ac 893d 1d7d fa3c
000001c0: ad80 b03d 2706 22be 31b3 793c 5da9 0ebe
000001d0: 7e17 4fbd 6edf eb3a f462 40be 425c 4ebc
000001e0: 80ef 403c 06f1 f53e 15b8 253d d20b 41be
000001f0: 8b7f d0be a11a 773e e3fa 283d aa38 0d3e
00000200: bb58 9e3e 215a 1d3e eed5 3f3e 4ac6 eebd
00000210: 0dab 7bbe 8d4b 13be e3d0 42be 9ac5 1c3d
00000220: ddc3 4d3d dda0 4f3e b1cb 53be 22e6 84be
00000230: 3fc5 af3d 5813 b63b 75fc 233e 99d8 103d
00000240: bde7 ce3e f9ac 09bd 0c61 5b3e e400 5a3d
00000250: a1ed bebe f8fc 253e aa32 c03d e057 6f3e
00000260: cfb2 d13e 4755 6b3e 803b 6f3e 2c95 c1be
00000270: 5779 ee3d 1eab 1bbd cb14 83bd 99fe c83e
00000280: de3c e73d 7c56 d33e 0a67 bebc 7ae2 3abe
00000290: c062 05bf b041 873d a6bc 863b 7f4c e23d
000002a0: 9c30 923e 5f71 0fbd 78e0 37be 5cc0 87be
000002b0: 7057 ffbe f472 303d e3e2 6cbd a0b9 933e
000002c0: d1f4 08be 254f e83d 9504 373e 1dd8 94be
000002d0: 9092 bd3d 1858 98be 2c16 97bd 5065 c5bd
000002e0: 8479 e3bc dbee 043c 9d77 5dbe a8c8 39be
000002f0: 0721 e9bd ac93 6a3d 9ba0 02be ec18 973e
00000300: 1fb6 13bd da96 703e 57bf f43d d1b3 c33b
00000310: 78e2 24be de24 ba3c 9f26 373e 85a9 50be
00000320: b0b6 0d3e 978f 1b3f 48f5 e2be b9c5 133e
00000330: b293 043f 87a5 29be 941a 073d 9525 873d
00000340: a6a7 0fbf 28dc 30bd 10ad 05bc 2c46 a73d
00000350: 28af a53e a8eb 69bd a3c6 9a39 d915 87be
00000360: 7c58 d43d 82ed d0be b9dc e23d c901 773e
00000370: 24e7 0d3e 2bde 3ebe 99ea 32bd e7cf 2a3d
00000380: 0df6 1f3e 936f 2bbe 01e1 74bd 8863 283e
00000390: fd5a 3cbe 8255 55be 8485 9ebd 50c9 443e
000003a0: 1435 993e 8d7f c93d 0b57 753d fe15 fd3c
000003b0: d99d ccbd f51c a53e 0c3b 1f3e afa3 b63e
000003c0: e240 513e fc21 753e c185 803e 47e6 2f3d
000003d0: 58d6 04be bf7a ea3e 5be8 303d dd42 0d3e
000003e0: f9c4 963d f700 5c3e 378a 45be 26c8 87bd
000003f0: 93dd 6dbe 7f6d 59be deff 9b3e b0c0 db3d

fc5.bias f4 [20]
-0.00078893785 0.46974334 0.32545304 -0.17863752 -0.19090897 -0.0747105 -0.10249646 0.10732555
0.09550729 0.29862234 -0.010903709 0.023231134 -0.29776677 0.30801937 0.39676386 0.116067775
0.23224889 -0.05832024 -0.08621587 0.12029967
00000000: b9d0 4eba 3382 f03e c8a1 a63e c1ec 36be
00000010: a47d 43be d201 99bd aae9 d1bd 7fcd db3d
00000020: 5399 c33d 07e5 983e 78a5 32bc 384f be3c
00000030: e374 98be b7b4 9d3e a224 cb3e f1b4 ed3d
00000040: a7d2 6d3e 34e1 6ebd f291 b0bd ac5f f63d

fc6.weight f4 [3, 20]
0.1781288 0.04858414 0.2821441 -0.20168738 0.014394377 -0.023838444 -0.76008934 0.22236747
-0.9512308 -0.20775941 0.43865302 0.04612299 0.49893177 0.00540422 -0.34683374 0.33913323
-0.37343904 -0.085190095 -0.050112195 0.6185685 0.15719277 0.20232624 0.25870797 0.019426284
-0.15922366 0.15181339 -0.43930888 0.009191141 -0.7193414 0.2499332 -0.3566534 0.14734772
-0.27728608 0.33029285 0.3280121 0.32973075 0.06599019 -0.22743735 -0.07252308 -0.53339374
0.22333671 -0.391707 -0.32591715 -0.14297248 -0.03025057 0.009409424 0.71602774 -0.2834612
0.51417124 -0.11476528 -0.51558286 -0.34123376 0.31951314 -0.44848987 -0.111425966 -0.1126525
0.33028573 0.29084852 -0.117118545 -0.38966206
00000000: 6567 363e 2a00 473d 3175 903e 2387 4ebe
00000010: 65d6 6b3c d748 c3bc 3795 42bf 4cb4 633e
00000020: dd83 73bf e2be 54be 2197 e03e 76eb 3c3d
00000030: fc73 ff3e e215 b13b 3194 b1be dfa2 ad3e
00000040: 6733 bfbe 2578 aebd 7242 4dbd 815a 1e3f
00000050: 24f7 203e 9c2e 4f3e 5f75 843e df23 9f3c
00000060: 870b 23be f874 1b3e 18ed e0be 7196 163c
00000070: c226 38bf 7dee 7f3e 469b b6be 52e2 163e
00000080: 71f8 8dbe 251c a93e 34f1 a73e 78d2 a83e
00000090: dd25 873d 56e5 68be fb86 94bd 7e8c 08bf
000000a0: 61b2 643e d28d c8be 9dde a6be 6167 12be
000000b0: 0bd0 f7bc fc29 1a3c 984d 373f d421 91be
000000c0: baa0 033f 0f0a ebbd 3dfd 03bf 31b6 aebe
000000d0: 3a97 a33e 77a0 e5be 4c33 e4bd 5bb6 e6bd
000000e0: 361b a93e 19ea 943e d9db efbd c981 c7be

fc6.bias f4 [3]
-0.28569555 0.33504078 -0.13719371
00000000: b046 92be 778a ab3e 827c 0cbe
